detector_dev/models/cnn_lstm_ae_ringlength300_0.75percentGPS_relative.pt (torch, 129255 bytes, 12 tensors)

encoder.cnn.weight f4 [8, 4, 16]
0.19380496 0.1935049 0.19318542 0.19284841 0.19249472 0.19212422 0.19173937 0.19133793
0.190923 0.19049478 0.19005322 0.18959855 0.18913098 0.18865101 0.18815765 0.18765076
-0.06824571 -0.049524188 -0.028313829 -0.06389191 -0.087416 -0.09864139 -0.10425961 -0.10645855
-0.106567316 -0.105433345 -0.10360317 -0.101439536 -0.09919042 -0.0970274 -0.09505602 -0.093322404
0.20441537 0.20465872 0.20487855 0.2050797 0.20526172 0.20542149 0.20555946 0.20567843
0.20577262 0.20584442 0.20588973 0.20591216 0.20590779 0.2058731 0.20581049 0.20571561
0.19114898 0.19110443 0.19102642 0.19091716 0.19077632 0.19060574 0.19040166 0.19017163
0.18991032 0.18962176 0.18930648 0.18896328 0.1885935 0.18819802 0.18777579 0.18732521
0.22932963 0.22827445 0.22709017 0.22578429 0.2243554 0.22281085 0.22115333 0.21938555
0.21751083 0.21553108 0.21345343 0.21127732 0.2090054 0.2066433 0.20419212 0.20165412
-0.06747367 -0.0805777 -0.09374684 -0.10697658 -0.120202415 -0.13333163 -0.14627257 -0.15894648
-0.17128734 -0.18324602 -0.19478637 -0.20587902 -0.21650682 -0.226646 -0.23628514 -0.24541208
0.35873678 0.3580534 0.35728934 0.35644746 0.35553336 0.3545465 0.35349023 0.35236797
0.35118484 0.34993997 0.34864017 0.34728676 0.34588394 0.3444321 0.34293506 0.3413989
0.24559584 0.24306174 0.24043374 0.23771316 0.2349049 0.23200887 0.22902924 0.22597097
0.22283322 0.2196192 0.21633326 0.21297686 0.2095534 0.20606454 0.20251359 0.19890212
0.16176142 0.15757513 0.15338655 0.14913562 0.14484759 0.14048906 0.13614736 0.13176432
0.12737812 0.122887015 0.11839432 0.113976784 0.10948738 0.104895525 0.100329705 0.09572801
-0.41161096 -0.41933253 -0.4269198 -0.43435803 -0.44163704 -0.44876286 -0.4557717 -0.46271053
-0.4696459 -0.47663516 -0.48373508 -0.4909983 -0.49848115 -0.5062138 -0.51423967 -0.5225999
0.06331085 0.0394334 0.04041819 0.03734779 0.032594778 0.031315528 0.04725315 0.037177023
0.0028176745 0.031876054 0.01713391 -0.015111324 0.001306098 -0.0004766163 -0.025803382 -0.015764767
0.051178947 0.0456351 0.040055245 0.03443961 0.028772254 0.023057317 0.017289432 0.011475359
0.0055976748 -0.000325927 -0.006320499 -0.012367957 -0.018485788 -0.02466401 -0.030911291 -0.037224002
-0.2273497 -0.11171109 -0.22285913 -0.26209393 -0.16464862 -0.20542395 -0.2385034 -0.24302465
-0.16054495 -0.15094888 -0.15188555 -0.24379934 -0.1719746 -0.2027955 -0.19369198 -0.0612545
0.15855354 0.18129097 0.20363894 0.22559191 0.24717943 0.26839098 0.28927574 0.30980912
0.33002573 0.3499557 0.3695756 0.38893518 0.4080637 0.4269518 0.44561243 0.46411005
-0.24267852 -0.13507387 -0.120085165 -0.16989028 -0.075629614 -0.07644206 -0.15937786 -0.12920117
-0.10222097 -0.089045525 -0.1816396 -0.15062907 -0.03667701 -0.12537436 -0.05083957 -0.110377125
-0.10362524 -0.08891736 -0.09316451 -0.11538541 -0.15113224 -0.038154356 -0.057786383 -0.046418
-0.02772848 -0.044797074 -0.107935555 -0.024196165 -0.06274794 0.04422339 -0.080310255 -0.066597745
00000000: cf74 463e 2626 463e 66d2 453e 0e7a 453e
00000010: 561d 453e 36bc 443e 5357 443e 17ee 433e
00000020: 5281 433e 1011 433e 509d 423e 1f26 423e
00000030: 8dab 413e bb2d 413e 66ac 403e 8527 403e
00000040: 68c4 8bbd e0d9 4abd 67f2 e7bc c3d9 82bd
00000050: 2907 b3bd 7f04 cabd 1086 d5bd f106 dabd
00000060: f73f dabd 70ed d7bd e62d d4bd 88bf cfbd
00000070: 5924 cbbd 4db6 c6bd bbac c2bd d11f bfbd
00000080: 4352 513e 0e92 513e afcb 513e 6a00 523e
00000090: 2130 523e 035a 523e 2e7e 523e 5e9d 523e
000000a0: 0fb6 523e e1c8 523e c2d4 523e a3da 523e
000000b0: 7ed9 523e 66d0 523e fcbf 523e 1da7 523e
000000c0: 8fbc 433e e1b0 433e 6e9c 433e ca7f 433e
000000d0: de5a 433e 272e 433e a7f8 423e 5abc 423e
000000e0: da77 423e 352c 423e 8fd9 413e 977f 413e
000000f0: a81e 413e fbb6 403e 4c48 403e 2ed2 3f3e
00000100: 63d5 6a3e c7c0 693e 538a 683e ff33 673e
00000110: 6cbd 653e 8728 643e 0576 623e 9ba6 603e
00000120: 29bb 5e3e 2eb4 5c3e 8993 5a3e 1559 583e
00000130: 8305 563e 4d9a 533e bd17 513e 6b7e 4e3e
00000140: a32f 8abd ec05 a5bd 58fe bfbd 8a16 dbbd
00000150: af2c f6bd 1688 08be 7ac8 15be dec2 22be
00000160: f365 2fbe d8a4 3bbe 1476 47be f3d1 52be
00000170: f7b3 5dbe e415 68be bbf4 71be 4e4d 7bbe
00000180: 59ac b73e c652 b73e a1ee b63e 4880 b63e
00000190: 7808 b63e 1e87 b53e acfc b43e 9369 b43e
000001a0: 80ce b33e 552b b33e f780 b23e 92cf b13e
000001b0: b317 b13e 6759 b03e 2f95 af3e d6cb ae3e
000001c0: 7a7d 7b3e 2de5 783e 4334 763e 146b 733e
000001d0: e98a 703e bc93 6d3e a486 6a3e ef64 673e
000001e0: 642e 643e dbe3 603e 7786 5d3e 9b16 5a3e
000001f0: 2b95 563e 9502 533e b95f 4f3e ffac 4b3e
00000200: c9a4 253e 605b 213e 5d11 1d3e 02b7 183e
00000210: ed52 143e 5ddc 0f3e 376a 0b3e 3aed 063e
00000220: 696f 023e 30ac fb3d b978 f23d a96c e93d
00000230: eb3a e03d 77d3 d63d a979 cd3d 0c0d c43d
00000240: acbe d2be c1b2 d6be 3b95 dabe 2d64 debe
00000250: 401e e2be 3fc4 e5be e95a e9be 65e8 ecbe
00000260: 6d75 f0be 8609 f4be 20ac f7be 2164 fbbe
00000270: ec38 ffbe 3a97 01bf 36a5 03bf 1bc9 05bf
00000280: 1ea9 813d eb84 213d 8b8d 253d fff9 183d
00000290: 1a82 053d b644 003d 858c 413d ef46 183d
000002a0: bca8 383b 7790 023d 6a5c 8c3c 7d95 77bc
000002b0: 6031 ab3a 5be2 f9b9 9d61 d3bc 1d25 81bc
000002c0: 04a1 513d dfeb 3a3d f810 243d 8c10 0d3d
000002d0: cab3 eb3c b3e2 bc3c 91a2 8d3c 2503 3c3c
000002e0: b36c b73b 2ee1 aab9 301c cfbb f9a2 4abc
000002f0: 826f 97bc 2e0c cabc ad39 fdbc 3278 18bd
00000300: 5cce 68be c9c8 e4bd 2f35 64be 2d31 86be
00000310: a699 28be a85a 52be 3c3a 74be 74db 78be
00000320: e565 24be 5892 1abe e387 1bbe 89a6 79be
00000330: 1c1a 30be a0a9 4fbe 3157 46be 00e6 7abd
00000340: dc5b 223e 57a4 393e ba86 503e 9101 673e
00000350: 9b1c 7d3e 8b6a 893e f31b 943e 4d9f 9e3e
00000360: 22f9 a83e 652d b33e 0339 bd3e 8322 c73e
00000370: baed d03e 6d99 da3e 5027 e43e d59f ed3e
00000380: b880 78be ce50 0abe 36ef f5bd b8f7 2dbe
00000390: b3e3 9abd a88d 9cbd f333 23be 504d 04be
000003a0: 3a59 d1bd 805d b6bd bbff 39be 823e 1abe
000003b0: a23a 16bd 2362 00be 273d 50bd 670d e2bd
000003c0: 7839 d4bd 4e1a b6bd 09cd bebd 304f ecbd
000003d0: 69c2 1abe be47 1cbd 6ab1 6cbd cd20 3ebd
000003e0: d626 e3bc 237d 37bd 510d ddbd 0937 c6bc
000003f0: fe81 80bd 9623 353d b479 a4bd 6664 88bd

encoder.cnn.bias f4 [8]
0.026784271 0.034655638 -0.027342306 0.18768397 -0.043763325 0.38273963 0.17178561 0.26569596
00000000: b06a db3c 12f3 0d3d f9fc dfbc 3a30 403e
00000010: 2c41 33bd 73f6 c33e 91e8 2f3e 4d09 883e

encoder.rnn.weight_ih_l0 f4 [128, 8]
-0.011298747 0.017248241 0.030461634 -0.020061238 0.008116025 -0.011866112 -0.0041704206 -0.04836046
-0.20714517 -0.30242673 -0.13045116 -0.2894179 -0.27578685 -0.25128472 -0.11089756 0.011555492
-0.09215751 -0.0012880613 -0.00861517 0.0013751907 -0.0020444342 -0.04175437 0.042614173 0.11750256
-0.00047568942 -0.19376554 -0.12190894 -0.15426691 -0.11910625 0.06971572 0.0846147 0.13142419
0.06519935 0.11545177 -0.018294405 0.14183174 0.08400303 0.007274108 0.048221122 0.043021165
-0.14689727 -0.42682594 -0.4538977 -0.37102243 -0.16424072 -0.1369612 -0.129451 -0.17150114
-0.12317395 -0.08504232 0.007100798 -0.020164676 0.037617896 -0.10394809 -0.05526927 -0.19447948
0.095935516 0.15637746 0.16630055 0.027725253 0.062428035 0.004732985 -0.047122158 -0.09986541
-0.0404713 -0.10009857 -0.081415184 -0.056013316 0.04088504 -0.12910743 0.034494445 0.018151436
0.061131038 0.05987489 -0.0872461 -0.028607272 -0.13083616 -0.028529402 -0.056870654 -0.1306772
0.1289209 -0.0068223216 -0.0026375044 -0.046795983 -0.06362289 -0.043968786 -0.13393418 -0.29214114
0.43566352 0.11921192 0.14122933 0.10838404 0.23646486 0.037278116 0.20713657 -0.032716654
0.2040106 0.20169453 0.062143497 -0.09347653 -0.20404997 0.04100602 -0.19027887 0.11291825
0.07988243 0.13716628 -0.022759506 -0.0051024957 -0.20025082 -0.20035793 0.12205946 -0.0020439522
-0.30370826 -0.307736 -0.12165613 -0.13742289 -0.11590496 -0.11546115 -0.13477015 -0.31990337
-0.0761245 -0.016490558 -0.02481634 -0.009470314 -0.05848229 0.010932949 -0.09550758 0.035608236
-0.089326955 0.067299925 -0.17235881 0.06810761 -0.13970588 -0.094270386 -0.07805476 -0.08495656
0.056113057 -0.05913021 -0.053171232 -0.021270126 -0.10844782 -0.022223247 -0.16976346 -0.09652361
-0.069068514 -0.1453903 -0.11295677 -0.123382516 0.052199602 -0.10124448 0.09434188 -0.075440265
-0.29594818 -0.39580297 -0.26762056 -0.34293786 -0.30553922 -0.07291776 -0.14439058 -0.000551105
-0.08185672 -0.00896474 0.0055378 -0.05430357 0.013819022 -0.11189408 0.097468585 0.106763296
-0.013835379 -0.13129547 -0.05683645 -0.09326309 -0.0245951 -0.10440957 -0.16529644 -0.289323
-0.17747246 -0.08042654 0.04256663 -0.10234548 -0.13898808 0.05111126 0.056084555 -0.10145173
-0.23035069 -0.12464496 0.015016975 0.03301995 0.08878592 -0.035660874 -0.07509185 0.26099202
0.01769708 0.035474766 -0.054966435 -0.073859334 -0.08389182 -0.074417375 -0.09652224 -0.08488869
-0.09199969 -0.04392901 0.09008886 -0.12501723 0.0911865 0.10500044 -0.18987769 0.03170361
-0.17253229 -0.12766393 -0.10452181 -0.094417594 -0.044543143 -0.045343667 -0.056316193 -0.034230568
-0.069371596 -0.11680311 -0.10992558 0.11686474 0.11125222 0.117713325 0.16172133 0.32450786
0.010438278 0.3543563 0.18148068 0.046785567 0.08750634 0.24376144 0.1492722 0.4036514
-0.16458571 -0.21751142 -0.11710504 -0.22447401 -0.09321226 -0.37807345 -0.30780858 -0.25931266
0.027291438 0.117426775 -0.028400326 -0.014996765 0.035142094 0.09108629 -0.027150692 0.11055968
-0.09680397 -0.15947181 -0.053468145 -0.13421513 0.10667847 0.035199977 -0.03469506 -0.14150149
00000000: 611e 39bc 2f4c 8d3c ad8a f93c 7757 a4bc
00000010: 13f9 043c 156a 42bc 06a8 88bb 9e15 46bd
00000020: dd1d 54be add7 9abe fd94 05be 952e 94be
00000030: ef33 8dbe 64a8 80be 431e e3bd 3f53 3d3c
00000040: 14bd bcbd 2ad4 a8ba a426 0dbc be3f b43a
00000050: eafb 05bb a106 2bbd 338c 2e3d 2fa5 f03d
00000060: f465 f9b9 796a 46be 65ab f9bd 25f8 1dbe
00000070: faed f3bd 1ec7 8e3d 794a ad3d 1094 063e
00000080: 3d87 853d fa71 ec3d 26de 95bc 573c 113e
00000090: c809 ac3d a45b ee3b 8383 453d f636 303d
000000a0: 3d6c 16be ee88 dabe 4865 e8be a7f6 bdbe
000000b0: b82e 28be 8f3f 0cbe ce8e 04be ff9d 2fbe
000000c0: a042 fcbd ab2a aebd d0ad e83b 6430 a5bc
000000d0: 3915 1a3d bce2 d4bd 0862 62bd a125 47be
000000e0: d779 c43d 6a21 203e b14a 2a3e 1220 e33c
000000f0: 8ab4 7f3d 2817 9b3b 2a03 41bd 3c86 ccbd
00000100: 3cc5 25bd 7b00 cdbd 01bd a6bd 386e 65bd
00000110: 1277 273d bd34 04be 0c4a 0d3d 52b2 943c
00000120: 8a64 7a3d 5f3f 753d 15ae b2bd cc59 eabc
00000130: eaf9 05be 7eb6 e9bc 34f1 68bd 3ed0 05be
00000140: d703 043e c88d dfbb fbd9 2cbb 25ad 3fbd
00000150: b84c 82bd 9d18 34bd 0b26 09be 8693 95be
00000160: 4a0f df3e 6125 f43d 6c9e 103e 74f8 dd3d
00000170: d823 723e f0b0 183d 9c1b 543e e601 06bd
00000180: 28e8 503e 0389 4e3e 2e8a 7e3d 9f70 bfbd
00000190: 7af2 50be eef5 273d 77d8 42be af41 e73d
000001a0: 6699 a33d 5175 0c3e 2572 babc d632 a7bb
000001b0: 8d0e 4dbe a12a 4dbe 4ffa f93d d4f3 05bb
000001c0: a67f 9bbe 938f 9dbe d926 f9bd 96b8 0cbe
000001d0: 945f edbd e576 ecbd 3001 0abe 60ca a3be
000001e0: 29e7 9bbd 3517 87bc a34b cbbc 6029 1bbc
000001f0: 208b 6fbd 1d20 333c 7a99 c3bd f1d9 113d
00000200: 0df1 b6bd 8bd4 893d d47e 30be 017c 8b3d
00000210: 0f0f 0fbe d510 c1bd 2ddb 9fbd b4fd adbd
00000220: ced6 653d 8532 72bd 14ca 59bd b03e aebc
00000230: e419 debd 870d b6bc 79d6 2dbe 2cae c5bd
00000240: cb73 8dbd 32e1 14be e155 e7bd f9af fcbd
00000250: 40cf 553d 4459 cfbd 5136 c13d 6d80 9abd
00000260: 8586 97be b0a6 cabe 9005 89be 8d95 afbe
00000270: a36f 9cbe e855 95bd 20db 13be 0878 10ba
00000280: 7fa4 a7bd d8e0 12bc 6f76 b53b 6c6d 5ebd
00000290: 2e69 623c b928 e5bd 9c9d c73d b7a6 da3d
000002a0: c9ad 62bc 5272 06be 56cd 68bd b800 bfbd
000002b0: aa7b c9bc afd4 d5bd 7843 29be 2522 94be
000002c0: 57bb 35be abb6 a4bd 595a 2e3d 829a d1bd
000002d0: e452 0ebe 0a5a 513d ebb8 653d edc5 cfbd
000002e0: 0de1 6bbe db45 ffbd c209 763c ed3f 073d
000002f0: 64d5 b53d 2311 12bd c1c9 99bd bfa0 853e
00000300: 77f9 903c fd4d 113d 7c24 61bd 9043 97bd
00000310: 79cf abbd 2368 98bd 74ad c5bd 1fda adbd
00000320: 556a bcbd e8ee 33bd 8280 b83d 8404 00be
00000330: fdbf ba3d 780a d73d 4c6f 42be a5db 013d
00000340: 4eac 30be 55ba 02be 880f d6bd 035e c1bd
00000350: df72 36bd 48ba 39bd cfab 66bd 5a35 0cbd
00000360: b212 8ebd 7836 efbd aa20 e1bd c856 ef3d
00000370: 34d8 e33d af13 f13d 479a 253e e525 a63e
00000380: 5005 2b3c 306e b53e 12d6 393e 39a2 3f3d
00000390: 8636 b33d 999c 793e d0da 183e 65ab ce3e
000003a0: 2889 28be 50bb 5ebe c4d4 efbd 84dc 65be
000003b0: 12e6 bebd d892 c1be 1699 9dbe a1c4 84be
000003c0: 4b92 df3c 737d f03d cda7 e8bc feb4 75bc
000003d0: 28f1 0f3d 738b ba3d 216b debc 1d6d e23d
000003e0: 2941 c6bd 944c 23be 6a01 5bbd b16f 09be
000003f0: 3e7a da3d da2d 103d 681c 0ebd c4e5 10be

encoder.rnn.weight_hh_l0 f4 [128, 32]
0.16688038 -0.24124755 -0.27726066 0.16856098 -0.39467952 -0.13003725 -0.14562829 0.3799474
0.25868547 -0.3379855 0.24084857 -0.2597422 -0.116801076 0.30900037 -0.30627498 0.2947015
0.18723574 0.2815205 0.23774111 -0.08009337 -0.2687394 -0.23785439 0.24561395 0.29256737
0.42337325 0.3178877 0.11941189 -0.18897814 0.1578801 -0.31716123 -0.2054707 -0.1414846
-0.08550408 -0.23377638 -0.20701185 0.25748825 -0.010369714 -0.30457318 -0.359144 0.24915695
0.14132115 -0.19183801 0.10216135 0.21904103 -0.09574376 0.23784672 -0.16150221 0.25353974
0.29356948 0.1730393 0.556757 -0.23578946 -0.40750223 -0.19139515 0.2885004 0.3056073
0.004322322 0.1483619 -0.13025211 -0.19738376 -0.23149878 -0.16856027 -0.4253251 -0.068506144
0.20772173 -0.18258132 0.062282465 0.106991395 -0.1223814 -0.21728854 -0.4831789 0.17438675
0.15242554 -0.36925912 0.37171552 -0.12532592 0.016355572 0.15713468 -0.5104227 -0.06810793
0.18548526 0.32353598 0.18652518 0.083074465 0.053194676 -0.07218466 0.049080938 0.41268373
0.36734918 0.5429384 0.15786855 -0.023781363 -0.17102017 -0.390206 -0.21037751 -0.17231892
0.12248628 0.21403976 0.08940575 0.043801118 -0.2526449 -0.33702686 -0.08140915 0.5488706
0.032469112 0.1328053 -0.0017737037 0.021869825 0.09645869 -0.37750334 -0.21420583 -0.21961476
0.17305858 0.41899595 -0.04034141 0.24852371 -0.25432023 0.20994769 0.03017092 -0.09149387
0.28548694 0.13876587 -0.051365953 0.36088222 0.28996545 0.14704306 0.2423654 -0.12508012
0.2462648 -0.12006389 -0.17643386 0.171604 -0.040352613 -0.15432748 -0.69332254 0.15601337
0.22902593 -0.1589442 0.23998193 0.6770901 0.4804464 0.08228408 -0.1146534 0.08109849
0.21613465 0.16779137 0.23138575 -0.3450335 -0.030652205 -0.13358183 0.094400205 0.11658939
0.24990891 0.20131251 0.1424743 -0.25296366 -0.32156217 -0.17822167 -0.19154142 -0.24305797
0.3285317 0.14146753 -0.32059404 0.41783473 -0.26292536 -0.5619937 0.28218037 0.34516785
0.29242587 -0.34540525 0.4064668 -0.2288098 -0.1725878 0.27856362 -0.32871857 0.35927173
-0.7534255 0.38133404 -0.07733817 0.025818191 -0.29638746 -0.43964186 0.35444093 0.38624698
0.6797771 0.29116985 -0.17499381 -0.047550727 0.14728343 -0.20694162 -0.2198338 -0.4159215
-0.6766865 0.5205738 0.5055907 -0.33133322 0.909832 0.41133302 0.037855912 -0.7106898
-0.42231014 0.8146596 -0.4881792 -0.48569226 -0.71207684 -0.5963267 0.54069793 -0.57540774
0.03470023 -0.53442013 -0.43686908 0.46075466 -0.10888278 0.5039549 -0.5026236 -0.55844384
-0.93408006 -0.51146024 -0.42063573 0.4233269 0.61744326 0.51622 0.3583501 0.63578194
0.628159 -0.33602506 -0.4130528 0.34685463 -0.19701125 -0.43239912 -0.013149819 0.48096555
0.45452592 -0.43024418 0.43581563 0.058757383 -0.018048156 0.3317329 -0.3639377 0.3286535
0.08119284 0.42296758 0.327951 -0.5028312 -0.034498725 -0.4087851 0.3950548 0.36070347
0.7160586 0.37913844 0.3053149 -0.67900276 -0.4364489 -0.37663355 -0.3331394 -0.5956657
00000000: b1e2 2a3e 9909 77be 1cf5 8dbe 409b 2c3e
00000010: 6f13 cabe 7c28 05be 951f 15be 7788 c23e
00000020: 6c72 843e 6f0c adbe 02a1 763e eefc 84be
00000030: 6735 efbd 4c35 9e3e 13d0 9cbe 1de3 963e
00000040: baba 3f3e 7423 903e 6872 733e fe07 a4bd
00000050: 3698 89be 1a90 73be 3982 7b3e 64cb 953e
00000060: 61c4 d83e 2dc2 a23e 398e f43d 7c83 41be
00000070: 52ab 213e f562 a2be e966 52be 57e1 10be
00000080: c31c afbd 1363 6fbe eafa 53be 80d5 833e
00000090: bce5 29bc 04f1 9bbe b9e1 b7be 0023 7f3e
000000a0: 7eb6 103e 2f71 44be f839 d13d 4b4c 603e
000000b0: 4e15 c4bd 178e 733e d660 25be f6cf 813e
000000c0: bd4e 963e 3731 313e a087 0e3f cb72 71be
000000d0: 22a4 d0be 17fd 43be 53b6 933e 8f78 9c3e
000000e0: 44a2 8d3b 2fec 173e cf60 05be f81e 4abe
000000f0: 040e 6dbe 109b 2cbe 36c4 d9be f34c 8cbd
00000100: 01b5 543e 99f6 3abe e61b 7f3d 4e1e db3d
00000110: 19a3 fabd e380 5ebe 3a63 f7be 7192 323e
00000120: 7115 1c3e 880f bdbe 7f51 be3e 7055 00be
00000130: 1ffc 853c eae7 203e 10ab 02bf 2c7c 8bbd
00000140: d9ef 3d3e 82a6 a53e 7500 3f3e f222 aa3d
00000150: a9e2 593d 8dd5 93bd 1809 493d 484b d33e
00000160: 3115 bc3e 03fe 0a3f 4ba8 213e 22d1 c2bc
00000170: e91f 2fbe 15c9 c7be 346d 57be 5f74 30be
00000180: 16da fa3d 3d2d 5b3e 5d1a b73d cd68 333d
00000190: ac5a 81be c98e acbe d7b9 a6bd c982 0c3f
000001a0: 55fe 043d 1dfe 073e 9f7b e8ba 5928 b33c
000001b0: 228c c53d 1e48 c1be c658 5bbe b1e2 60be
000001c0: 4536 313e a386 d63e 093d 25bd 007d 7e3e
000001d0: 4336 82be 87fc 563e 0129 f73c 2361 bbbd
000001e0: 582b 923e a418 0e3e 1b65 52bd 8ec5 b83e
000001f0: 5a76 943e 7592 163e a32e 783e 0115 00be
00000200: d72c 7c3e 0fe4 f5bd 14ab 34be f5b8 2f3e
00000210: c848 25bd 0608 1ebe 967d 31bf f8c1 1f3e
00000220: c685 6a3e 45c2 22be d3bd 753e c755 2d3f
00000230: 12fd f53e 8e84 a83d 67cf eabd f716 a63d
00000240: 6752 5d3e 80d1 2b3e 63f0 6c3e 3ba8 b0be
00000250: 551a fbbc adc9 08be e554 c13d 6bc6 ee3d
00000260: 1fe8 7f3e de24 4e3e c8e4 113e 7484 81be
00000270: cca3 a4be be7f 36be 6f23 44be 30e4 78be
00000280: 4f35 a83e dddc 103e e724 a4be 6fee d53e
00000290: 279e 86be d2de 0fbf f279 903e d7b9 b03e
000002a0: d8b8 953e f5d8 b0be 6b1c d03e 1e4d 6abe
000002b0: dbba 30be e49f 8e3e cd4d a8be 77f2 b73e
000002c0: 7ee0 40bf 373e c33e 7963 9ebd ac80 d33c
000002d0: 19c0 97be bd18 e1be 4879 b53e 2ac2 c53e
000002e0: df05 2e3f 3714 953e 9431 33be 8dc4 42bd
000002f0: 78d1 163e 81e8 53be 1d1c 61be aaf3 d4be
00000300: 543b 2dbf 5344 053f 646e 013f 82a4 a9be
00000310: c0ea 683f 3e9a d23e cd0e 1b3d c4ef 35bf
00000320: 0939 d8be 888d 503f a0f2 f9be a8ac f8be
00000330: ab4a 36bf dea8 18bf 2e6b 0a3f ec4d 13bf
00000340: d421 0e3d c2cf 08bf 4ead dfbe 09e8 eb3e
00000350: effd debd 3003 013f f1ab 00bf 2df6 0ebf
00000360: df1f 6fbf 0fef 02bf 915d d7be 4ebe d83e
00000370: c310 1e3f fe26 043f aa79 b73e 9bc2 223f
00000380: 07cf 203f 7a0b acbe a87b d3be ee96 b13e
00000390: 51bd 49be 6b63 ddbe 5772 57bc 1e41 f63e
000003a0: 9fb7 e83e f748 dcbe 3a23 df3e 95ab 703d
000003b0: bad9 93bc e5d8 a93e 0b56 babe 4645 a83e
000003c0: 6f48 a63d 358f d83e 32e9 a73e 8cb9 00bf
000003d0: 894e 0dbd 484c d1be 9f44 ca3e 20ae b83e
000003e0: 9e4f 373f 6f1e c23e 3c52 9c3e 20d3 2dbf
000003f0: 3b76 dfbe 1dd6 c0be 3f91 aabe 8c7d 18bf

encoder.rnn.bias_ih_l0 f4 [128]
0.3635325 0.11110416 -0.03138078 0.10374439 0.14549966 0.3010485 -0.38375452 0.3850043
0.17297749 0.049583536 0.16890548 -0.038651686 -0.12443829 0.072189614 -0.15805061 -0.31763718
0.19329542 0.45005366 -0.09354201 0.13887528 0.24171123 0.20577213 0.07005891 -0.03296734
0.28052473 0.49162957 0.11891225 -0.07956916 -0.09698919 0.3488397 -0.21127956 0.32334986
0.027543936 -0.20413402 0.18491325 0.1170921 -0.11369871 0.031183505 -0.17973177 -0.02461504
-0.29159757 0.059945475 0.22784631 0.24623242 0.14979407 0.046536867 0.30343682 0.13251318
-0.41401815 0.005420376 -0.22349164 -0.19605303 0.26712078 0.13191985 0.32506984 0.035337824
0.26662615 0.51871437 -0.040113308 -0.01374358 -0.55562276 0.21507895 -0.6895342 -0.21904483
0.46036863 -0.3445586 -0.10360445 0.40411118 -0.12109753 -0.14678301 0.17093177 0.24596836
0.44489723 0.20578237 -0.123293005 0.25345093 -0.2972508 0.36983126 -0.23298831 0.11901571
-0.06437167 0.055689026 0.013486088 -0.033369184 -0.53482246 -0.1742916 0.04886267 0.35131535
0.17963633 0.17534953 0.22976547 -0.030020712 -0.31871516 -0.22330004 -0.09007003 -0.296768
0.4503681 0.07819232 0.28644073 -0.22885999 0.36101842 0.29846883 0.4030104 0.8791565
0.22773665 0.37038356 0.6076045 0.22517744 0.22260757 0.084358595 0.19172989 0.27098364
-0.4559777 0.5851319 -0.20261201 0.61572105 -0.10733861 0.43107218 0.42828622 -0.077314675
0.2847443 0.39849928 0.61889607 0.14513694 0.24404582 0.48033515 -0.32829693 0.432121
00000000: ef20 ba3e 948a e33d 2289 00bd f077 d43d
00000010: ddfd 143e 0723 9a3e 797b c4be 491f c53e
00000020: 0321 313e 1b18 4b3d 8ff5 2c3e 3b51 1ebd
00000030: 81d9 febd 26d8 933d 05d8 21be 57a1 a2be
00000040: 3cef 453e 6f6d e63e f492 bfbd 5235 0e3e
00000050: 2683 773e eeb5 523e 0c7b 8f3d c308 07bd
00000060: f0a0 8f3e dfb6 fb3e 4488 f33d 28f5 a2bd
00000070: 45a2 c6bd 1e9b b23e ab59 58be 1d8e a53e
00000080: d2a3 e13c 8208 51be e659 3d3e fccd ef3d
00000090: dfda e8bd 8d74 ff3c 9b0b 38be 7ba5 c9bc
000000a0: 474c 95be 6389 753d 8b50 693e 5a24 7c3e
000000b0: 9e63 193e 719d 3e3d 125c 9b3e 89b1 073e
000000c0: 30fa d3be 699d b13b feda 64be 20c2 48be
000000d0: 0ec4 883e ff15 073e 8e6f a63e 65be 103d
000000e0: 3983 883e 77ca 043f da4d 24bd c12c 61bc
000000f0: 4b3d 0ebf a83d 5c3e 5085 30bf 4a4d 60be
00000100: 70b5 eb3e fc69 b0be 922e d4bd a9e7 ce3e
00000110: fb01 f8bd 494e 16be bd08 2f3e 21df 7b3e
00000120: 92c9 e33e 9db8 523e 0b81 fcbd 52c4 813e
00000130: 4231 98be 865a bd3e 7d94 6ebe 82be f33d
00000140: 4bd5 83bd 2d1a 643d c1f4 5c3c 20ae 08bd
00000150: 20ea 08bf 7f79 32be 3924 483d 9bdf b33e
00000160: 96f2 373e d48e 333e a447 6b3e ffed f5bc
00000170: a22e a3be c4a8 64be a376 b8bd faf1 97be
00000180: a696 e63e 4c23 a03d 5ca8 923e 465a 6abe
00000190: 68d7 b83e e8d0 983e 6157 ce3e 6610 613f
000001a0: cc33 693e eaa2 bd3e f88b 1b3f ea94 663e
000001b0: 3df3 633e 33c4 ac3d d754 443e 5ebe 8a3e
000001c0: e975 e9be 34cb 153f 8679 4fbe e59f 1d3f
000001d0: 58d4 dbbd 7eb5 dc3e 5548 db3e 2857 9ebd
000001e0: 01ca 913e 1908 cc3e f96f 1e3f c79e 143e
000001f0: 26e7 793e 7dee f53e 8916 a8be f73e dd3e

encoder.rnn.bias_hh_l0 f4 [128]
0.36317977 0.17439733 -0.031132186 0.07199841 0.13932848 0.2358752 -0.40132067 0.33952022
0.17082731 0.048440464 0.1324849 -0.14356515 -0.114557914 0.0718551 -0.20729376 -0.31763694
0.03510602 0.4486844 -0.090215586 0.09835916 0.33825585 0.20534372 0.036289304 0.031007567
0.2805375 0.61215276 0.11874014 -0.07956853 -0.05650886 0.35029572 -0.187727 0.3853345
0.02942478 -0.15295702 0.18493408 0.13943128 -0.16730858 0.024087803 -0.23108251 -0.020167151
-0.28039688 0.060012307 0.227287 0.15878636 0.17821524 0.046613 0.31430417 0.13251261
-0.43545777 0.0048901346 -0.29826796 -0.11739167 0.2536392 0.13360609 0.3353587 0.036670018
0.26659885 0.5854802 -0.03766053 -0.013737201 -0.40652284 0.1805137 -0.6629102 -0.29733038
0.44055477 -0.34876555 -0.098220974 0.38079128 -0.11221004 -0.09107163 0.27734935 0.2523661
0.21616827 0.20105585 -0.12320688 0.1807596 -0.28344902 0.35219434 -0.14757892 0.124213725
0.13585944 0.13220698 -0.009000452 -0.048382998 -0.52232504 -0.17429368 0.048881385 0.36819687
0.17887245 0.17752104 0.23204812 -0.090675645 -0.3381277 -0.2109987 -0.07077642 -0.26020655
0.47668475 0.01317117 0.28643316 -0.22863533 0.4343877 0.2984571 0.3117848 0.7586383
0.2464066 0.1785839 0.43414396 0.15863062 0.18069755 0.14636424 0.19933896 0.3510564
-0.46810994 0.5834142 -0.11882237 0.49161372 -0.1073312 0.40046304 0.44610342 -0.08846923
0.48028672 0.37898162 0.4890506 0.026332567 0.12452122 0.4276464 -0.299387 0.43214756
00000000: b3f2 b93e 3795 323e ed08 ffbc e773 933d
00000010: 20ac 0e3e 4589 713e e779 cdbe 98d5 ad3e
00000020: 5bed 2e3e 8269 463d 1faa 073e be02 13be
00000030: 579d eabd c428 933d d144 54be 4fa1 a2be
00000040: 54cb 0f3d f6b9 e53e f3c2 b8bd 8770 c93d
00000050: df2f ad3e a045 523e 18a4 143d 9503 fe3c
00000060: 9ca2 8f3e 0bb6 1c3f 082e f33d d3f4 a2bd
00000070: d675 67bd f659 b33e 823b 40be 904a c53e
00000080: 3c0c f13c c4a0 1cbe 5c5f 3d3e 13c7 0e3e
00000090: f152 2bbe c953 c53c e5a0 6cbe 9535 a5bc
000000a0: 2e90 8fbe 77cf 753d ecbd 683e e498 223e
000000b0: 0e7e 363e 46ed 3e3d 7aec a03e 63b1 073e
000000c0: 52f4 debe 6c3d a03b 94b6 98be 0b6b f0bd
000000d0: ffdc 813e 09d0 083e 23b4 ab3e 4d33 163d
000000e0: a57f 883e 08e2 153f ee41 1abd ff11 61bc
000000f0: c323 d0be 95d8 383e 7cb4 29bf b03b 98be
00000100: 6590 e13e 6691 b2be 1428 c9bd 13f7 c23e
00000110: 61ce e5bd c383 babd bc00 8e3e 2136 813e
00000120: 375b 5d3e 96e1 4d3e e453 fcbd 0b19 393e
00000130: 3b20 91be d152 b43e ee1e 17be c463 fe3d
00000140: bd1e 0b3e 4461 073e a276 13bc 402d 46bd
00000150: 18b7 05bf 0b7a 32be d937 483d 4d84 bc3e
00000160: 572a 373e 13c8 353e 069e 6d3e 27b4 b9bd
00000170: 131f adbe 0b10 58be 3af3 90bd cb39 85be
00000180: 0610 f43e e4cb 573c 5ea7 923e 611f 6abe
00000190: 1168 de3e 5ecf 983e 42a2 9f3e 1f36 423f
000001a0: 0352 7c3e b3de 363e 1e48 de3e 1170 223e
000001b0: c708 393e 82e0 153e 831f 4c3e aabd b33e
000001c0: 1bac efbe a25a 153f 2559 f3bd cbb4 fb3e
000001d0: 76d0 dbbd 7e09 cd3e ab67 e43e 5b2f b5bd
000001e0: 24e8 f53e e109 c23e d764 fa3e 65b7 d73c
000001f0: fb04 ff3d 78f4 da3e 4149 99be 7242 dd3e

decoder.rnn.weight_ih_l0 f4 [256, 32]
0.02431066 -0.1864882 -0.7542013 0.8490909 0.35541433 0.40741736 -1.3411559 -0.13019374
0.4568992 -0.10990904 -0.34256127 -0.2061575 0.5076662 0.8300731 -0.5869974 0.8118985
0.39414886 0.09753242 0.46453264 -0.88519603 -0.07070129 -0.111927785 -0.0030611379 0.41222346
-0.31021717 -0.21466224 -0.13055162 -0.39465436 0.06476073 0.15800351 -0.0041852253 0.18798468
-0.37317574 0.047633115 -0.28729796 0.4489596 0.54501563 0.46948087 -3.1383085 -0.64526415
0.2445093 0.30350193 -0.4027443 0.22881018 0.7006202 0.2778372 -0.17824183 0.29334128
1.2939692 -0.30278236 0.40591615 -0.58698964 2.0088015 0.0072145835 -0.11026634 0.250551
-0.37864682 -0.3686507 -0.69153315 0.5854917 -0.70752287 0.36215287 -0.10758215 0.33135876
0.12930101 -0.32938555 -0.73414683 0.8062092 0.109155566 0.2988417 -0.16794062 -0.18360135
0.4081999 -0.66591257 -0.3071862 -0.015073672 1.1905462 0.7151299 -0.4938344 0.7009558
1.0234812 -0.12221199 0.68073803 -0.90303963 -0.21085504 -0.18223158 0.043618605 0.47286442
0.036595937 -0.25983432 -0.30814698 -0.42631832 -0.3611622 0.2734173 -0.40846336 0.0663848
-0.09695569 -0.12580018 -0.25177088 0.21601048 1.1845037 0.13545945 -1.1299825 -0.5308487
0.19388625 0.53605884 -0.14015083 0.54829234 0.8665155 0.3638794 -0.18972747 0.35601753
0.587007 -0.36568967 0.5195251 -0.66651475 1.4975004 -0.06253526 -0.0063101524 0.22819403
-0.2938732 -0.107908525 0.070728585 0.121661015 -0.5216853 -0.08498735 -0.22136767 0.10220497
0.00033983655 -0.17902717 -0.80670893 0.5819033 0.28923532 0.3187442 -0.62073827 -0.057805352
0.4222885 -0.5215538 -0.37690228 0.11391801 0.99726593 0.765264 -0.4697774 0.7521546
0.8955494 -0.15911788 0.5066965 -0.314045 0.17660931 -0.18884808 0.020347493 0.4479692
0.5724804 -0.3159953 -0.6387706 -0.16536157 -0.53077257 0.34337988 -0.3031502 0.07673533
0.011031426 -0.38545933 -0.82846916 0.16263957 0.047984716 0.31895435 -0.40624508 0.02241508
0.39360166 -0.7361135 -0.34313172 0.21167882 1.0235322 0.8432009 -0.38966566 0.80472493
-0.17975508 0.19889279 0.6834812 -0.3511878 0.60762066 0.026918901 -0.16875623 0.47735706
0.76279444 -0.30215874 -0.17822297 -0.8621944 -0.3776355 0.08057681 -0.22298172 0.0319612
0.14306647 -0.3284066 -0.9045742 0.5060434 -0.17603695 0.16209932 -0.6346205 -0.11793092
0.55424416 0.050296698 -0.14057249 -0.017775651 0.8648444 0.89358157 -0.5734267 0.8667181
1.0130198 -0.009613893 0.4812132 -0.06688061 -0.9784003 -0.27178982 0.1478459 0.57831734
0.49190116 -0.10065349 -0.7219191 0.07090194 -0.19142449 0.13812555 -0.034497973 -0.01996346
0.17954281 -0.39373836 -0.36570314 0.10062763 -0.02733398 -0.14489852 -0.1347089 0.09413237
0.278457 0.3754135 0.31701222 -0.07170358 1.17069 0.5353839 -0.31743774 0.554031
0.25535774 0.20192334 1.150597 -0.38431782 0.09516504 -0.24142982 0.25573984 0.54499096
0.30919722 0.16258815 0.3330991 -0.5657965 -0.19428141 -0.41878065 -0.06926541 -0.16025637
00000000: 2627 c73c c3f6 3ebe 5613 41bf 055e 593f
00000010: def8 b53e 0299 d03e ffaa abbf 8251 05be
00000020: b1ee e93e fe17 e1bd 3164 afbe f41a 53be
00000030: 69f6 013f ac7f 543f 7645 16bf 95d8 4f3f
00000040: e1cd c93e 14bf c73d 39d7 ed3e 359c 62bf
00000050: d7cb 90bd 653a e5bd 5f9d 48bb f40e d33e
00000060: c9d4 9ebe 6bd0 5bbe 53af 05be 2310 cabe
00000070: 46a1 843d accb 213e 3724 89bb 0e7f 403e
00000080: e410 bfbe f11a 433d b818 93be 08de e53e
00000090: 2586 0b3f cc5f f03e 0cda 48c0 0830 25bf
000000a0: a560 7a3e 9b64 9b3e 8034 cebe 374d 6a3e
000000b0: d85b 333f ad40 8e3e 0785 36be d430 963e
000000c0: c8a0 a53f 4a06 9bbe 3ed4 cf3e f444 16bf
000000d0: 3490 0040 5068 ec3b 52d3 e1bd 3848 803e
000000e0: ffdd c1be c9bf bcbe 5108 31bf c9e2 153f
000000f0: 3820 35bf 1a6c b93e 0854 dcbd dba7 a93e
00000100: 7c67 043e 39a5 a8be 0cf1 3bbf ba63 4e3f
00000110: f48c df3d c801 993e a0f8 2bbe fe01 3cbe
00000120: 94ff d03e 3f79 2abf 8247 9dbe 90f7 76bc
00000130: d163 983f c112 373f ddd7 fcbe d771 333f
00000140: 6f01 833f 484a fabd d944 2e3f 9b2d 67bf
00000150: 62ea 57be ea9a 3abe 6ca9 323d 491b f23e
00000160: 9fe5 153d 0109 85be 71c5 9dbe 6546 dabe
00000170: 40ea b8be 5afd 8b3e 1c22 d1be c1f4 873d
00000180: b490 c6bd c3d1 00be 1de8 80be da31 5d3e
00000190: d19d 973f e2b5 0a3e 44a3 90bf b3e5 07bf
000001a0: 1e8a 463e 273b 093f b383 0fbe e35c 0c3f
000001b0: f6d3 5d3f 674e ba3e eb47 42be ee47 b63e
000001c0: 1746 163f ad3b bbbe 99ff 043f b6a0 2abf
000001d0: 18ae bf3f 7d12 80bd 65c5 cebb b2ab 693e
000001e0: 8c76 96be 25ff dcbd 26da 903d 6929 f93d
000001f0: 2b8d 05bf d90d aebd 35ae 62be d750 d13d
00000200: 172c b239 e652 37be 7a84 4ebf 9df7 143f
00000210: a716 943e 7132 a33e b4e8 1ebf 4ec5 6cbd
00000220: 3336 d83e 8d84 05bf 56f9 c0be d84d e93d
00000230: d24c 7f3f 57e8 433f aa86 f0be 348d 403f
00000240: ba42 653f ccef 22be ddb6 013f 82ca a0be
00000250: 12d9 343e 6461 41be c9af a63c 385c e53e
00000260: 138e 123f 23ca a1be 7886 23bf 8b54 29be
00000270: b6e0 07bf 7dcf af3e 8136 9bbe 6a27 9d3d
00000280: 27bd 343c ed5a c5be 8e16 54bf fd8a 263e
00000290: 9f8b 443d fc4d a33e 5bff cfbe d49f b73c
000002a0: 2886 c93e ef71 3cbf f6ae afbe 55c2 583e
000002b0: 1a03 833f 04dc 573f 4282 c7be 7402 4e3f
000002c0: b711 38be 8daa 4b3e a0f8 2e3f e3ce b3be
000002d0: 078d 1b3f 0785 dc3c 6fce 2cbe 2568 f43e
000002e0: 7f46 433f 8db4 9abe 1580 36be c6b8 5cbf
000002f0: 7159 c1be 7405 a53d 5255 64be bfe9 023d
00000300: 0480 123e e924 a8be 2d92 67bf 0f8c 013f
00000310: 0843 34be 5dfd 253e 7d76 22bf c485 f1bd
00000320: f2e2 0d3f e903 4e3d 3cf2 0fbe 3e9e 91bc
00000330: 7166 5d3f c3c1 643f 18cc 12bf 3de1 5d3f
00000340: a2aa 813f 9783 1dbc 9461 f63e b4f8 88bd
00000350: 7178 7abf 0928 8bbe ea64 173e 9b0c 143f
00000360: 78da fb3e 6b23 cebd b1cf 38bf 0935 913d
00000370: c804 44be c970 0d3e bf4d 0dbd 698a a3bc
00000380: 12da 373e 1398 c9be 713d bbbe dc15 ce3d
00000390: 83eb dfbc 4760 14be 21f1 09be 79c8 c03d
000003a0: ea91 8e3e 3336 c03e 6d4f a23e 54d9 92bd
000003b0: 2bd9 953f eb0e 093f 3387 a2be fad4 0d3f
000003c0: 40be 823e fec4 4e3e c346 933f 4ec5 c4be
000003d0: e3e5 c23d 6139 77be 55f0 823e 8784 0b3f
000003e0: 194f 9e3e 827d 263e f78b aa3e 0ad8 10bf
000003f0: b5f1 46be 6b6a d6be 06db 8dbd 3f1a 24be

decoder.rnn.weight_hh_l0 f4 [256, 64]
-0.47855547 -0.014638774 -0.1618075 -0.18128337 0.35335442 0.2708783 -0.18057474 -0.4678395
-0.38513982 0.2872845 -0.25376835 0.25312608 0.2385591 -0.3493055 0.20069733 -0.53581274
-0.4647791 0.13966477 -0.09761184 -0.51680243 0.777639 0.40269706 -0.11116713 0.2704867
-0.06409967 -0.05415542 -0.34928817 -0.31349653 0.41201687 -0.08956478 -0.2424738 0.24253276
0.1675845 -0.0024761863 -0.0659082 -0.48886633 -0.057204995 0.050195593 -0.3926082 -0.15743312
0.33323485 0.04133652 0.28422382 -0.83911574 -0.15049234 0.031716324 0.058234286 -0.22540066
-0.25526074 -0.66509 -0.30626407 0.5067177 0.3389692 -0.26103732 -0.3578344 0.07575994
0.10217499 -0.20539565 -0.16657138 0.4745243 0.5116708 -0.27758476 0.3213683 0.37838408
0.19367032 -0.055997808 0.33285847 0.06233539 -0.33388594 -0.2104847 0.2066549 0.049399402
0.25715747 -0.11540844 0.13350771 -0.4764779 -0.39912254 -0.025827417 -0.33190078 0.58374065
-0.038173 -0.30018392 0.0640618 0.08247681 -0.26568097 -0.114133015 0.106496915 -0.16121727
-0.17310749 -0.22402437 0.1537129 0.41031158 -0.040430646 0.3041024 0.2803088 -0.19436958
-0.33759 0.03002678 -0.45629993 0.025617646 -0.5024252 -0.21137223 0.29343095 0.3217334
-0.051575884 0.04621901 -0.0059620617 0.16395685 0.33320767 0.18260896 0.05668666 0.039408408
0.33158585 0.28429615 0.21701103 0.017678853 0.023843024 0.5089135 -0.267452 0.44255927
0.24953708 -0.033567753 0.5590499 -0.24020772 -0.4237889 0.10795893 -0.087191544 -0.061274283
-0.2725899 -0.14538367 -0.14662924 -0.11051114 0.3072755 0.08276702 -0.13266249 -0.29952905
-0.24619555 -0.083069965 -0.5594155 0.27441928 0.18202037 0.50077736 0.099439465 -0.0036317105
0.018412914 0.072098926 0.15599973 -0.08581538 0.25458232 0.06392574 -0.124932535 0.08820384
0.16743614 0.046966575 -0.062016744 -0.30553818 -0.009403248 -0.5520062 -0.18922992 0.155977
0.097763665 -0.028518882 0.39532605 -0.7565423 0.03130119 -0.27007347 -0.560729 -0.09555844
0.26307702 -0.14895326 0.13123192 -0.54535687 -0.092160426 -0.28886855 -0.059571534 -0.06576942
-0.32376298 0.1258852 -0.18021646 0.002975076 0.07573599 -0.21256626 -0.27153248 0.4436487
0.018953128 -0.3150117 0.07506731 -0.25956184 0.6608809 -0.085512206 0.08943267 0.029077098
0.06314699 -0.008283546 -0.12225638 -0.022954494 0.1266572 0.42512834 -0.05298074 -0.5962373
-0.15842499 -0.046541773 0.020873627 0.578899 0.10778783 0.07555123 0.12063823 0.15275392
0.06622363 0.12508205 -0.46559072 0.16287164 -0.15311007 -0.17175229 0.12708335 -0.060959212
0.13617301 0.12560888 0.11964156 -0.1320312 0.06551063 0.015943786 -0.093746416 0.16378053
0.12005679 0.19446401 0.09223178 -0.47045398 -0.14562832 -0.22199096 0.12240043 -0.12774032
-0.02262563 0.24865715 -0.30383596 0.17216827 -0.12992714 -0.10449348 -0.10227357 -0.5117868
-0.14888906 0.1576347 -0.350768 -0.19835834 0.08729058 -0.14870931 0.03302842 -0.015185407
-0.0835896 -0.14188656 0.17173973 -0.15671848 -0.048045408 0.04333689 -0.011825151 0.16753246
00000000: 3905 f5be 78d7 6fbc deb0 25be 59a2 39be
00000010: dfea b43e 8fb0 8a3e 96e8 38be a988 efbe
00000020: 0c31 c5be f416 933e eded 81be be99 813e
00000030: d648 743e 2cd8 b2be 9a83 4d3e 062b 09bf
00000040: 87f7 edbe 4804 0f3e b7e8 c7bd 2a4d 04bf
00000050: 5913 473f 4f2e ce3e 98ab e3bd 3c7d 8a3e
00000060: b046 83bd 13d2 5dbd e6d5 b2be 9e82 a0be
00000070: e0f3 d23e bd6d b7bd 0d4b 78be 825a 783e
00000080: 459b 2b3e 8347 22bb e1fa 86bd b04c fabe
00000090: c94f 6abd e599 4d3d f103 c9be 2636 21be
000000a0: c29d aa3e 7c50 293d c985 913e 4ad0 56bf
000000b0: aa1a 1abe fae8 013d 1387 6e3d 6ecf 66be
000000c0: 89b1 82be 5743 2abf a5ce 9cbe 40b8 013f
000000d0: 5f8d ad3e afa6 85be 1236 b7be 0728 9b3d
000000e0: 1f41 d13d 3d53 52be b091 2abe d9f4 f23e
000000f0: dcfc 023f 971f 8ebe 638a a43e 8fbb c13e
00000100: 8351 463e f55d 65bd 6d6c aa3e 6553 7f3d
00000110: 19f3 aabe 4d89 57be 589d 533e 0757 4a3d
00000120: 25aa 833e 435b ecbd 3fb6 083e e9f4 f3be
00000130: ca59 ccbe 0594 d3bc e6ee a9be 0770 153f
00000140: 4b5b 1cbd b5b1 99be d532 833d 9ae9 a83d
00000150: 5607 88be 92be e9bd 0e1b da3d 2416 25be
00000160: 1743 31be a566 65be ea66 1d3e 5c14 d23e
00000170: 9b9a 25bd 4fb3 9b3e a384 8f3e d208 47be
00000180: 99d8 acbe b9fa f53c 25a0 e9be 19dc d13c
00000190: f09e 00bf f671 58be 953c 963e 3dba a43e
000001a0: 3c41 53bd 2550 3d3d 665d c3bb 4ee4 273e
000001b0: 329a aa3e d8fd 3a3e 4530 683d b66a 213d
000001c0: 9fc5 a93e 448f 913e 2438 5e3e 3ed3 903c
000001d0: 7252 c33c 2848 023f 78ef 88be 2197 e23e
000001e0: a686 7f3e 577e 09bd e51d 0f3f 03f9 75be
000001f0: dcfa d8be 9219 dd3d 7b91 b2bd befa 7abd
00000200: e790 8bbe 75df 14be fa25 16be aa53 e2bd
00000210: 3753 9d3e c181 a93d add8 07be df5b 99be
00000220: b01a 7cbe 9620 aabd db35 0fbf af80 8c3e
00000230: 8c63 3a3e f232 003f eba6 cb3d fe01 6ebb
00000240: aed6 963c 9aa8 933d 65be 1f3e f9bf afbd
00000250: 9d58 823e 80eb 823d a1dc ffbd 37a4 b43d
00000260: 6174 2b3e 0660 403d 4505 7ebd 806f 9cbe
00000270: 1510 1abc 4750 0dbf 7dc5 41be 6fb8 1f3e
00000280: 5138 c83d 6ea0 e9bc 2d68 ca3e c2ac 41bf
00000290: ad35 003d 1247 8abe f08b 0fbf 25b4 c3bd
000002a0: 08b2 863e 3487 18be a961 063e 829c 0bbf
000002b0: 9bbe bcbd 94e6 93be 4801 74bd 1eb2 86bd
000002c0: 43c4 a5be 0de8 003e aa8a 38be 7ef9 423b
000002d0: 791b 9b3d f8aa 59be 4e06 8bbe ec25 e33e
000002e0: 9743 9b3c 3749 a1be e4bc 993d 4ae5 84be
000002f0: 7e2f 293f 0621 afbd 7a28 b73d 1833 ee3c
00000300: 3653 813d b6b7 07bc 8e61 fabd 100b bcbc
00000310: 6db2 013e 6caa d93e 5502 59bd 02a3 18bf
00000320: 293a 22be 96a2 3ebd 2bff aa3c ba32 143f
00000330: debf dc3d 9aba 9a3d 2d11 f73d 866b 1c3e
00000340: 41a0 873d 8215 003e e861 eebe d3c7 263e
00000350: e3c8 1cbe d5df 2fbe 2322 023e 5eb0 79bd
00000360: f070 0b3e 9d9f 003e a206 f53d 3033 07be
00000370: 702a 863d 8b9c 823c 1ffe bfbd 15b6 273e
00000380: 56e0 f53d 9321 473e 04e4 bc3d 58df f0be
00000390: 971f 15be 9951 63be 14ad fa3d 5cce 02be
000003a0: 6359 b9bc fb9f 7e3e 6390 9bbe e14c 303e
000003b0: 9f0b 05be ad00 d6bd ce74 d1bd 7604 03bf
000003c0: 6076 18be fe6a 213e dd97 b3be 731e 4bbe
000003d0: 67c5 b23d 4147 18be cf48 073d 37cc 78bc
000003e0: 0631 abbd b64a 11be 8adc 2f3e cf7a 20be
000003f0: 43cb 44bd 0682 313d 47be 41bc a18d 2b3e

decoder.rnn.bias_ih_l0 f4 [256]
0.42447513 0.22325702 0.4458987 0.13065574 0.38807577 0.22724189 0.5941569 0.31986463
0.5977068 0.5303231 0.4651794 0.3139808 0.32239693 0.21931468 0.3826869 0.33079207
0.47591996 0.4907917 0.22098048 0.45065984 0.48770657 0.52133256 0.44245923 0.47588286
0.2989033 0.22828405 0.4411032 0.35176027 0.41111863 0.09989638 0.57291466 0.42027557
0.46118638 -0.06646508 0.29292285 0.4970116 0.2915008 0.2320134 0.6580806 0.5653714
0.5042305 0.3395887 0.49017894 0.4086046 0.5334089 0.36443105 0.34188986 0.09751998
0.47042948 0.5693998 0.36179185 0.4794 0.5552449 0.4199088 0.24366713 0.23410054
0.237159 0.39894226 0.34363332 0.31493407 0.3894481 0.61912626 0.53921753 0.52039176
0.06175963 0.09541093 0.057052363 -0.06372408 -0.053909644 -0.19519415 0.16800325 -0.16214895
0.19559221 0.1081344 0.33495313 0.1680137 0.36323717 0.2656079 0.19012503 0.108478084
0.20514625 0.007411894 0.20572762 -0.12250052 -0.037738804 0.05516925 0.13381097 0.12207878
0.13659453 0.103280626 0.0010163558 0.06438777 -0.21744567 0.24573126 0.1250313 0.09849914
0.23111178 -0.14785767 0.13347292 0.2739744 0.033363406 0.084675156 -0.22744982 0.11381012
0.14358413 0.22393821 0.06396259 0.062016062 0.035141416 -0.026915811 0.18438241 0.30110925
0.08282056 0.128499 0.00077271776 0.20754398 -0.056616638 0.032952487 0.22483258 0.5285526
0.024043273 0.06920878 0.18185736 0.162083 0.10599295 0.12499203 0.16626352 0.14221945
-0.05889604 0.08482533 0.269312 -0.013047447 -0.32646376 -0.25639427 0.27208015 0.22324365
0.14077124 -0.28266013 0.24195573 -0.19757518 -0.29840225 0.09951249 -0.31241146 -0.01986683
0.17619298 -0.10733418 0.0029418867 0.15898368 0.13251844 -0.20323308 -0.22354905 -0.26068094
-0.0495347 -0.18843758 0.2203243 0.06612856 -0.06539747 0.050094012 0.25512436 -0.28112406
-0.3470574 -0.12182434 0.113673165 -0.19284518 0.1807479 -0.11965908 0.27878457 0.37568116
0.20713295 -0.094902836 -0.036124032 0.25421774 0.32524225 0.31555557 -0.17601317 0.052345555
0.23411869 -0.049671657 0.25150454 -0.013374724 -0.24899752 -0.00094554666 -0.00474303 0.4237277
-0.2528622 -0.124988444 -0.05577574 0.06775485 -0.16188808 0.37651515 -0.2388619 -0.1694476
0.30197018 0.34464565 0.28003725 0.17379758 0.22465077 0.2056044 0.14874639 0.4454235
0.20624904 0.14330707 0.23388188 0.65012527 0.61184764 0.19916138 0.44199812 0.18187502
0.1802426 0.43280178 0.25440264 0.22793461 0.3428049 0.12051713 0.30653465 0.25656366
0.24883957 0.40741304 0.094406694 0.35780165 0.32862642 0.60414666 0.18512766 0.18511496
0.39681184 0.39288554 0.6839883 0.11737446 0.68909013 0.272418 0.18926536 0.42651746
0.2796633 0.22934116 0.30777073 0.29866213 0.58875865 0.48271206 0.11862778 0.2497749
0.25752535 0.34383196 0.23137592 0.15024996 0.2592083 0.19460054 0.16940242 0.5340382
0.19826533 0.111054525 0.38563728 0.34537756 0.4478982 0.30060002 0.19631734 0.3078242
00000000: ce54 d93e 7d9d 643e d64c e43e 9eca 053e
00000010: deb1 c63e 19b2 683e ab1a 183f 4cc5 a33e
00000020: 5003 193f 41c3 073f ff2b ee3e 17c2 a03e
00000030: 3611 a53e 0794 603e 8aef c33e 945d a93e
00000040: c8ab f33e 0d49 fb3e b548 623e e3bc e63e
00000050: adb4 f93e 0d76 053f 048a e23e eba6 f33e
00000060: da09 993e 4bc3 693e 47d8 e13e ec19 b43e
00000070: 247e d23e 7996 cc3d 89aa 123f 5c2e d73e
00000080: 9f20 ec3e d81e 88bd fcf9 953e 4e78 fe3e
00000090: 983f 953e ec94 6d3e f877 283f 2ebc 103f
000000a0: 4015 013f 92de ad3e bcf8 fa3e 9f34 d13e
000000b0: 7c8d 083f b596 ba3e 300c af3e 8eb8 c73d
000000c0: 22dc f03e 2fc4 113f c83c b93e eb73 f53e
000000d0: 8824 0e3f 49fe d63e e083 793e 0db8 6f3e
000000e0: cfd9 723e 2942 cc3e b5f0 af3e 0a3f a13e
000000f0: be65 c73e 0f7f 1e3f 290a 0a3f 6538 053f
00000100: aaf7 7c3d ce66 c33d bdaf 693d c581 82bd
00000110: 5cd0 5cbd fae0 47be 0b09 2c3e 600a 26be
00000120: 5349 483e 9175 dd3d fa7e ab3e c90b 2c3e
00000130: 39fa b93e c2fd 873e 23b0 423e c229 de3d
00000140: dc11 523e 79df f23b 43aa 523e 8de1 fabd
00000150: 0194 1abd 27f9 613d be05 093e 7004 fa3d
00000160: 70df 0b3e cb84 d33d 3e37 853a bcdd 833d
00000170: 14aa 5ebe faa0 7b3e 3508 003e ebb9 c93d
00000180: 91a8 6c3e 0068 17be 20ad 083e 5f46 8c3e
00000190: 11a8 083d 2b6a ad3d 9be8 68be 4815 e93d
000001a0: b807 133e 0f50 653e d2fe 823d 8e04 7e3d
000001b0: 72f0 0f3d 8c7e dcbc bece 3c3e fe2a 9a3e
000001c0: d39d a93d 3e95 033e 3690 4a3a 6986 543e
000001d0: d9e6 67bd 30f9 063d 833a 663e 394f 073f
000001e0: 66f6 c43c 55bd 8d3d d138 3a3e 16f9 253e
000001f0: d512 d93d d2fb ff3d fc40 2a3e faa1 113e
00000200: f93c 71bd e7b8 ad3d 43e3 893e f6c4 55bc
00000210: 4226 a7be 1c46 83be 174e 8b3e fc99 643e
00000220: 5626 103e d4b8 90be 3ec3 773e 2651 4abe
00000230: 2ec8 98be 34cd cb3d 65f4 9fbe c3bf a2bc
00000240: ef6b 343e 06d2 dbbd abcc 403b 9ecc 223e
00000250: eab2 073e 551c 50be 0bea 64be f977 85be
00000260: e6e4 4abd c8f5 40be b19c 613e 696e 873d
00000270: 1cef 85bd 612f 4d3d a99f 823e 7eef 8fbe
00000280: 82b1 b1be 0a7f f9bd 7acd e83d 3579 45be
00000290: fa15 393e d20f f5bd dabc 8e3e 4859 c03e
000002a0: a91a 543e 6b5c c2bd cbf6 13bd d428 823e
000002b0: 2786 a63e 8090 a13e cc3c 34be 4b68 563d
000002c0: cfbc 6f3e 8274 4bbd 34c5 803e a921 5bbc
000002d0: 35f9 7ebe 90de 77ba 6b6b 9bbb d6f2 d83e
000002e0: 2777 81be f1f9 ffbd 1a75 64bd 0ec3 8a3d
000002f0: fdc5 25be 98c6 c03e 3798 74be ac83 2dbe
00000300: d69b 9a3e 6575 b03e 0b61 8f3e fef7 313e
00000310: da0a 663e f689 523e f950 183e 8d0e e43e
00000320: f332 533e 17bf 123e bb7e 6f3e 9c6e 263f
00000330: 0ca2 1c3f f6f0 4b3e 944d e23e 723d 3a3e
00000340: 8491 383e 3298 dd3e 1041 823e b167 693e
00000350: 2084 af3e afd1 f63d 1cf2 9c3e 505c 833e
00000360: cdcf 7e3e 7198 d03e 4c58 c13d c731 b73e
00000370: b941 a83e 5ba9 1a3f 1b92 3d3e c78e 3d3e
00000380: ec2a cb3e 4b28 c93e db19 2f3f 0562 f03d
00000390: 3668 303f 5f7a 8b3e c7ce 413e 7f60 da3e
000003a0: 0730 8f3e 69d8 6a3e 2094 9d3e 3eea 983e
000003b0: e3b8 163f 0926 f73e 1ff3 f23d fec4 7f3e
000003c0: 5dda 833e be0a b03e cfed 6c3e 20db 193e
000003d0: f3b6 843e 5d45 473e d477 2d3e bab6 083f
000003e0: 1106 4b3e 8e70 e33d 4072 c53e 54d5 b03e
000003f0: ea52 e53e 3fe8 993e 6a07 493e 229b 9d3e

decoder.rnn.bias_hh_l0 f4 [256]
0.41218764 0.22384952 0.4789592 0.14161053 0.4253326 0.20538144 0.6218109 0.31501877
0.5630768 0.54851705 0.46186885 0.41141126 0.26431173 0.25158167 0.23109941 0.29387242
0.44530976 0.5813527 0.21389563 0.43824106 0.55054164 0.519454 0.3777731 0.49655122
0.30411538 0.23275317 0.46285024 0.4038599 0.41366994 0.15713972 0.5600621 0.39638984
0.332215 -0.073942654 0.3471379 0.52997166 0.29752573 0.25252244 0.6131729 0.5376044
0.429301 0.15770507 0.48801184 0.2762364 0.63730043 0.44433343 0.30889574 0.09693439
0.5389632 0.5300799 0.3450617 0.47647956 0.56811005 0.42414743 0.26386833 0.29310948
0.3648511 0.3396095 0.32363668 0.3156072 0.37467757 0.50960815 0.51846033 0.51346344
0.1318616 0.06802595 0.12065414 -0.09965109 -0.02277502 -0.21686096 0.13108313 -0.15606411
0.16126454 0.03662374 0.21256188 0.20152563 0.40919688 0.3227274 0.24261594 0.13810879
0.2035449 0.14437851 0.22867052 -0.09346723 -0.052460723 0.12369875 0.1175432 0.09707856
0.2026167 0.12820946 0.11776745 0.0021441325 -0.20663176 0.1899951 -0.02772673 0.105781786
0.24445686 -0.13610736 0.15477273 0.28758526 0.16057268 0.03541368 -0.2567356 0.12597828
0.12957926 0.23331052 0.096287 0.05733267 0.0098455865 0.08442022 0.23241746 0.17276426
0.018511558 0.13499582 -0.022327857 0.16508512 -0.018077837 -0.021986395 0.15107024 0.6135895
0.09204916 0.1644427 0.1150179 0.18326911 0.04376093 0.11539178 0.13270804 0.10783892
-0.10647876 0.10151554 0.41311103 -0.05981737 -0.18910131 -0.22051124 0.340495 0.19494207
0.08541155 -0.3266373 0.27075917 -0.15796359 -0.4106802 -0.027948856 -0.12966691 -0.057466824
0.16926172 -0.26212513 -0.040731054 0.16674681 0.071056716 -0.19304374 -0.21297619 -0.28169265
-0.059818655 -0.02156472 0.24421154 0.18766403 -0.09142553 0.117238656 0.24874896 -0.2702228
-0.41747874 -0.06893289 0.06182792 -0.13499738 -0.009108854 -0.093448035 0.21088925 0.32710594
0.13528715 -0.083234034 -0.07305892 0.29103693 0.4292464 0.17576663 -0.24211341 0.05168141
0.1959496 -0.015225765 0.2990928 -0.0183608 -0.25370476 -0.009014131 -0.11122689 0.470673
-0.12208613 0.07437753 -0.042534713 0.012758707 -0.10336031 0.36237377 -0.23596561 -0.2156941
0.3588466 0.3040026 0.384886 0.14289622 0.1825616 0.107684515 0.14609338 0.42181835
0.276226 0.10195207 0.12598966 0.652669 0.56680495 0.15290798 0.45009127 0.2386408
0.22376274 0.47228292 0.25763354 0.109739125 0.37144777 0.038258832 0.34121096 0.32112446
0.3622883 0.47194982 0.2414023 0.32738742 0.25987202 0.69578344 0.30801967 0.3004673
0.4385538 0.29478875 0.72916955 0.12949666 0.64251125 0.15498084 0.3528721 0.44001517
0.10385704 0.106492415 0.26699305 0.27535766 0.6083882 0.33250064 0.15720287 0.3147189
0.13787802 0.40030256 0.34541652 0.18146196 0.25038135 0.18209 0.22214095 0.5855373
0.2601493 0.2381655 0.27817893 0.38609177 0.53177136 0.25098646 0.301117 0.1811422
00000000: 420a d33e cf38 653e 243a f53e 5a02 113e
00000010: 32c5 d93e 834f 523e 002f 1f3f 244a a13e
00000020: cd25 103f 9d6b 0c3f 137a ec3e 7fa4 d23e
00000030: de53 873e 50cf 803e 53a5 6c3e 7276 963e
00000040: a4ff e33e 88d3 143f 7507 5b3e 2261 e03e
00000050: 4cf0 0c3f f0fa 043f 7a6b c13e f63b fe3e
00000060: 03b5 9b3e d956 6e3e b5fa ec3e bac6 ce3e
00000070: 8ccc d33e 3ce9 203e 3b60 0f3f 9cf3 ca3e
00000080: 1618 aa3e 3f6f 97bd 0fbc b13e 39ac 073f
00000090: 4b55 983e 9f4a 813e e6f8 1c3f 71a0 093f
000000a0: 57cd db3e 707d 213e b0dc f93e db6e 8d3e
000000b0: 1f26 233f ac7f e33e 9527 9e3e 8a85 c63d
000000c0: 7ef9 093f 51b3 073f edab b03e 21f5 f33e
000000d0: a96f 113f da29 d93e c019 873e 7212 963e
000000e0: c3cd ba3e 4ce1 ad3e b5b3 a53e 4497 a13e
000000f0: bdd5 bf3e ae75 023f d1b9 043f 5772 033f
00000100: ba06 073e 3051 8b3d 8519 f73d df15 ccbd
00000110: ae92 babc cd10 5ebe a83a 063e 45cf 1fbe
00000120: 8822 253e c602 163d d2a9 593e bc5c 4e3e
00000130: 4182 d13e 873c a53e 5070 783e 646c 0d3e
00000140: 136e 503e f6d7 133e 9b28 6a3e bf6b bfbd
00000150: 0ee1 56bd c555 fd3d 7dba f03d 20d1 c63d
00000160: c17a 4f3e 5749 033e 1030 f13d 9384 0c3b
00000170: 4797 53be 138e 423e 2b23 e3bc 1fa4 d83d
00000180: e652 7a3e ba5f 0bbe be7c 1e3e 603e 933e
00000190: 2a6d 243e ef0d 113d d972 83be 7300 013e
000001a0: 6db0 043e f4e8 6e3e 1e32 c53d a9d5 6a3d
000001b0: 624f 213c 82e4 ac3d d8fe 6d3e 1de9 303e
000001c0: 8da5 973c 583c 0a3e e9e8 b6bc 130c 293e
000001d0: f917 94bc d01c b4bc 28b2 1a3e 3414 1d3f
000001e0: 4584 bc3d ab63 283e 818e eb3d e6aa 3b3e
000001f0: a93e 333d 8752 ec3d 9ee4 073e a7da dc3d
00000200: 8911 dabd 61e7 cf3d 4a83 d33e 0f03 75bd
00000210: c6a3 41be b3cd 61be 5c55 ae3e e59e 473e
00000220: 40ec ae3d 013d a7be f2a0 8a3e 35c1 21be
00000230: ad44 d2be 00f5 e4bc 67c7 04be 5562 6bbd
00000240: f252 2d3e 4435 86be 9bd5 26bd adbf 2a3e
00000250: 2f86 913d 42ad 45be 6e16 5abe 053a 90be
00000260: 6804 75bd 7fa8 b0bc 9712 7a3e 002b 403e
00000270: 4f3d bbbd d21a f03d 0cb8 7e3e a55a 8abe
00000280: c6bf d5be b02c 8dbd 463f 7d3d c13c 0abe
00000290: 4e3d 15bc af61 bfbd 5af3 573e 6e7a a73e
000002a0: b788 0a3e 9b76 aabd ea9f 95bd cb02 953e
000002b0: 2fc6 db3e 2bfc 333e 94ec 77be e3af 533d
000002c0: 03a7 483e 7d75 79bc b122 993e 6369 96bc
000002d0: 97e5 81be 01b0 13bc ecca e3bd 0dfc f03e
000002e0: 4b08 fabd 3f53 983d e138 2ebd e509 513c
000002f0: 92ae d3bd 0e89 b93e f8a0 71be eade 5cbe
00000300: beba b73e 3ba6 9b3e c70f c53e 6353 123e
00000310: 6ef1 3a3e b389 dc3d 8199 153e 93f8 d73e
00000320: 7f6d 8d3e 3fcc d03d 6f03 013e 5115 273f
00000330: 211a 113f e993 1c3e 5d72 e63e 415e 743e
00000340: 0f22 653e 11cf f13e 8be8 833e e8be e03d
00000350: 672e be3e 4bb5 1c3d 34b3 ae3e 6d6a a43e
00000360: da7d b93e 68a3 f13e 2a32 773e 539f a73e
00000370: f20d 853e dd1e 323f c1b4 9d3e dad6 993e
00000380: 208a e03e 8dee 963e dbaa 3a3f c69a 043e
00000390: 9e7b 243f 4cb3 1e3e a7ab b43e ab49 e13e
000003a0: 00b3 d43d b218 da3d 50b3 883e aefb 8c3e
000003b0: 54bf 1b3f 863d aa3e caf9 203e d622 a13e
000003c0: e52f 0d3e 75f4 cc3e 6fda b03e 2ad1 393e
000003d0: fc31 803e cd75 3a3e eb78 633e c6e5 153f
000003e0: 4a32 853e a8e1 733e 786d 8e3e d2ad c53e
000003f0: 2b22 083f 4c81 803e 022c 9a3e 577d 393e
