detector_dev/models/cnn_lstm_ae_ringlength600_1lane__1.0percentGPS.pt (torch, 129255 bytes, 12 tensors)

encoder.cnn.weight f4 [8, 4, 16]
00000000: 01b6 6bbd a15f 9fbd f7d5 c1bd 719d debd
00000010: 963e f6bd 2736 03be b148 09be 8002 0bbe
00000020: ee46 0dbe 1389 0cbe b135 0bbe 3696 07be
00000030: 832c 04be 23a4 01be c3b6 f8bd 4a3e f3bd
00000040: 216c 4fbf 2a6f 39bf 6de9 26bf 34ff 12bf
00000050: ed69 f9be bf2c cbbe 33e7 a0be e9c1 71be
00000060: f16d 2dbe ea83 a5bd 13d9 903c 8d3c c83d
00000070: c294 2f3e c5bd 763e 0818 923e 0e78 9e3e
00000080: 7f10 88bd 455c 90bd 9580 95bd 21bc 99bd
00000090: 77c0 9bbd ac92 9cbd a733 9cbd f833 9bbd
000000a0: 2276 9abd fa35 99bd 67f7 97bd 6bed 96bd
000000b0: 38b5 95bd 8fcc 93bd 98ab 92bd b52d 90bd
000000c0: b48c a3be 3a6d 66be b53a 0ebe 9be1 5abd
000000d0: 1cf1 f43c e381 cb3d 3120 213e cdca 4d3e
000000e0: 7686 6e3e 2ee6 7c3e e4dc 7a3e 8e4e 7a3e
000000f0: d582 753e f41f 723e d1d8 753e db26 743e
00000100: 25ac 06be c766 19be 7b2b 2cbe f3da 3ebe
00000110: ed13 50be 45dd 5ebe 033d 6bbe 718e 77be
00000120: 83b2 80be cfd2 84be f465 86be eddd 87be
00000130: 77c2 87be 949d 86be db5c 85be f792 84be
00000140: fd70 02bf 6a3b febe 134a f8be f46e f3be
00000150: b73d dfbe 23e7 c3be d658 bbbe e0a0 b6be
00000160: a583 a3be 0060 87be 286f 6abe 7b4e 51be
00000170: 67ee 21be 25c5 d8bd d32d a6bd d480 6fbd
00000180: 6c8a 55be 552e 5abe 3605 5ebe ecb8 60be
00000190: 4b01 63be 54f5 63be 80c3 63be f006 64be
000001a0: 6263 63be e783 61be 9bf0 60be 5d44 60be
000001b0: 492b 5fbe 2c49 5ebe f364 5dbe ec93 5dbe
000001c0: bf13 b3be 6c0f 9ebe 5bdb 8abe 6eb2 69be
000001d0: 719f 3fbe f50e 1abe a88f edbd 3edf a1bd
000001e0: 9aab 2bbd 553f eabb ec72 9f3c ca41 293d
000001f0: 2a45 5b3d a3e8 623d 6e97 3e3d 2171 2a3d
00000200: 6032 e2be 3e2f dfbe 4b1a ddbe 0f00 dfbe
00000210: 3813 e2be 4572 e4be feaf e7be f4d3 e9be
00000220: 338b edbe ee74 f1be 91ed f5be a60e fbbe
00000230: cd50 ffbe 8950 02bf 0785 04bf fa81 07bf
00000240: 4f07 993e a6bc 5d3e 0fee d03d a3e7 45bb
00000250: 56bf 7abd d7e0 dcbd 1be9 0dbe 43f6 21be
00000260: adbd 35be bd70 5abe 5488 85be b8e7 94be
00000270: 9c93 98be 8ab1 88be 7f59 74be 3412 4cbe
00000280: 5643 1dbf 0cce 1fbf 87aa 1fbf 979d 1ebf
00000290: 4124 1dbf 03f3 1dbf 87d7 1cbf b182 1ebf
000002a0: a4ff 1ebf b64d 1dbf 8491 1dbf 39b6 1dbf
000002b0: d657 1fbf 6403 1cbf e378 1dbf e2d2 1bbf
000002c0: d00f bf3d fc9b 8b3d 10d1 553d a36b 763d
000002d0: 0f3e 8d3d 11b4 8f3d b738 633d 2c1d bb3c
000002e0: 4dd6 f53b 6027 733c a6af 213d a489 8f3d
000002f0: a773 c23d 9818 ed3d e7fd 013e eeea 0c3e
00000300: 23a5 853d af1c 033e 1a0f 003e 0684 ea3d
00000310: fc52 503e a915 a33d a7ff 2b3e 0569 c83d
00000320: 9443 083e 59fe 9e3d 7941 3a3e cf69 3e3e
00000330: c333 2e3e 44e4 bf3d 08c6 7a3d 13d6 3f3e
00000340: 7a55 423e f229 0c3e 4870 8f3d 0aa2 0e3d
00000350: 9b05 0dba 7497 21bd 11af bdbd c65d ebbd
00000360: eb1b fcbd a3f8 11be 9290 2dbe 7f75 3dbe
00000370: b3e7 41be 3684 42be 981a 50be ce55 5ebe
00000380: c6f7 483d 5687 9f3d 52de 523e 716a af3d
00000390: 4f7b 483e 3a78 073e c42d 223e 8bd5 c13d
000003a0: dfd9 c73d 5e23 d33d e1b5 8c3c c0af 933d
000003b0: 57e0 c63d f701 053e 90c9 1bbc 8404 093d
000003c0: 1871 14be 8b9f 35be 3c51 53be 3fac 6ebe
000003d0: 98d7 81be cd48 8cbe 1477 94be 8aff 9abe
000003e0: 46b4 9fbe 2832 a7be 5330 afbe 39d2 b6be
000003f0: d8ee bebe 0eb1 c5be 7c97 ccbe 37fb d2be
-0.05754662 -0.07781912 -0.09464639 -0.10869873 -0.12023656 -0.12813626 -0.13406636 -0.13575172
-0.13796589 -0.13724165 -0.135947 -0.13240895 -0.12907605 -0.1266027 -0.12144234 -0.11877115
-0.81024367 -0.7243525 -0.6519993 -0.5742066 -0.48713627 -0.39682576 -0.3142639 -0.23609127
-0.1693647 -0.08081801 0.017681634 0.09777174 0.1714659 0.24095829 0.2853396 0.3095097
-0.066437714 -0.07048849 -0.07299916 -0.07506586 -0.07605069 -0.07645163 -0.076270394 -0.075782716
-0.07542063 -0.07480998 -0.07420235 -0.07369503 -0.07309955 -0.07216751 -0.07161635 -0.07039968
-0.31943285 -0.22502604 -0.13889582 -0.05343781 0.029900126 0.09936883 0.15734936 0.20096894
0.2329348 0.24697182 0.24498326 0.24444029 0.2397569 0.23645002 0.2400849 0.23842947
-0.13151605 -0.14980613 -0.16813461 -0.1863821 -0.20320101 -0.21764095 -0.22972493 -0.24175431
-0.25136194 -0.25942084 -0.2624966 -0.26536503 -0.26515552 -0.26292098 -0.26047406 -0.25893375
-0.50953656 -0.49654704 -0.48494014 -0.47545588 -0.43601772 -0.3826228 -0.36591214 -0.35669613
-0.31936374 -0.2644043 -0.22893965 -0.20440094 -0.158136 -0.10584477 -0.08114209 -0.05847247
-0.20853585 -0.21306737 -0.21681675 -0.21945542 -0.22168462 -0.22261554 -0.22242546 -0.22268271
-0.2220588 -0.22022973 -0.21966784 -0.21901079 -0.21793856 -0.217076 -0.2162054 -0.21638459
-0.34976003 -0.3087114 -0.2712048 -0.22821972 -0.18713166 -0.15044768 -0.11599666 -0.07903908
-0.0419117 -0.007148663 0.019463979 0.041322507 0.053532757 0.05539764 0.046531133 0.041611794
-0.44179058 -0.4359073 -0.43184122 -0.43554732 -0.44155288 -0.4461843 -0.4525146 -0.4566952
-0.46395263 -0.47159523 -0.4803281 -0.49034613 -0.49866334 -0.50904137 -0.51765484 -0.52932703
0.2988839 0.21653995 0.10201656 -0.003019788 -0.06121763 -0.10785072 -0.13858454 -0.15816598
-0.17748137 -0.21332069 -0.26080573 -0.29083037 -0.29800117 -0.26697952 -0.23862265 -0.19928819
-0.6143087 -0.6242378 -0.6236958 -0.61959213 -0.61383444 -0.6169893 -0.6126637 -0.6191817
-0.62108827 -0.614467 -0.61550164 -0.61606175 -0.622434 -0.60942674 -0.61512583 -0.60868657
0.09329188 0.06816861 0.05220133 0.060161244 0.06896602 0.07016767 0.05547401 0.022841059
0.0075023533 0.014840931 0.039474152 0.07008675 0.09494715 0.115769565 0.12694512 0.13761494
0.06525638 0.1280391 0.12505761 0.11450963 0.20344156 0.07963116 0.16796742 0.09785656
0.13307029 0.07763357 0.18189038 0.1859505 0.17011933 0.0936971 0.061224014 0.18734007
0.18977919 0.13687876 0.07003838 0.0348225 -0.00053795584 -0.039451078 -0.09261907 -0.11492495
-0.123100124 -0.14255004 -0.1694968 -0.18501852 -0.18936042 -0.18995747 -0.20322645 -0.2171242
0.04906442 0.07789485 0.20592621 0.08565224 0.19578288 0.13229457 0.1583777 0.09464558
0.097583525 0.1030948 0.01717657 0.07211256 0.09710758 0.12989031 -0.009508505 0.033451572
-0.14496267 -0.17736642 -0.20636457 -0.23307894 -0.25359797 -0.27399293 -0.289971 -0.30273086
-0.31192225 -0.32655454 -0.34216556 -0.35707262 -0.37291598 -0.38611645 -0.39959323 -0.41207287

encoder.cnn.bias f4 [8]
00000000: 9c9a 153e d265 b4bd 1d03 4ebf 3e84 0ebd
00000010: 611a 083e f89b 0abf 8c9d 11bf f289 3dbe
0.1460976 -0.08808483 -0.804735 -0.034794085 0.13291313 -0.5414424 -0.5688102 -0.18509653

encoder.rnn.weight_ih_l0 f4 [128, 8]
00000000: 992c f33b a395 b43d a541 903d 26dc 32be
00000010: 2bef 7bbd 7caa 46bd fa02 69bd 74c4 76be
00000020: a3be f6bd 9e85 5cbe 35b0 023d 9602 963d
00000030: 5fc8 06be 00ce 423c 8817 57be 3fa6 0cbc
00000040: 45b1 9b3e 0341 9c3e ee87 1a3e 5d01 8f3e
00000050: 15e9 b63e 31e9 ba3d ecd7 693e ba17 803e
00000060: 4f6a b83c 03ad 603e df8d 963d 9f68 22bd
00000070: e9a0 08bd 697f 263d 856f 85bb 165c abbc
00000080: 9492 cebd c39d b53c ae09 ca3d 1ab2 723e
00000090: 9511 633e 15f0 4a3e 10cc f33d bfd2 8c3d
000000a0: 046d 1ebe caf3 683d c586 153d 0772 0a3e
000000b0: 8c50 ed3d 3608 70bd e3a3 5c3e 60aa ee3e
000000c0: 5747 503e b88a eebc da61 e83d 147e f0bd
000000d0: 7a80 493e 8ccc e13d 7876 c03e 24d0 343e
000000e0: bec1 99bb 2875 35bc 805d 1c3e 8e33 313e
000000f0: 43ad 343e 12ba 9e3e db5a 443e 66b3 f43e
00000100: 4387 dd3d 12fe 383e 3a55 b03e 98ee 553e
00000110: 905a f83d 4c5f a0bd 46bd f23d 6ac1 2b3e
00000120: eab4 c03d f436 ca3e 0e14 7e3e 176d ae3d
00000130: 62f4 203e 6565 973e 1bb8 b83e 50b7 6f3e
00000140: a348 0bbe 2dca bbbd af47 213e 8261 ddbd
00000150: 3297 55be 60cd 673b 66ad c0bc 8627 c63c
00000160: da90 a5bc fbd8 6d3c d4dd 523e aff2 2e3d
00000170: a659 09be 29e5 b0bd cccd 82bc d61b 4f3e
00000180: 3c75 9c3e 656c 943e 1bfc 913e 3409 443d
00000190: 956f 8b3e bdc7 ca3d f085 12bd dca0 9bbc
000001a0: 0478 203e 8dee 453e 795f 453e 49c7 163e
000001b0: 9c8e eabd bf4d 4ebd f501 273e 2de8 e0bd
000001c0: 0c99 9b3d 2771 4b3e c378 3c3e 543c 893e
000001d0: b636 2ebd 8ad3 0a3a 2d52 d0bd db60 113e
000001e0: 6428 cbbd 25bb efbc a3a4 9cbd c321 5d3e
000001f0: c80f 9a3d 569f 923e 076a 4c3e 68e2 813e
00000200: a071 18be ce0c 80ba 0d5c 633d 67a4 7f3e
00000210: 57aa 59bd df8d 2c3e 07f1 b9ba 3b9c 09be
00000220: bf70 263e f8b1 813d c0d0 123e e840 8a3d
00000230: 19c4 713e 898c a6bd 12c9 6cbc 652d 6cbd
00000240: 5abe 8b3e b566 483e d26e 5d3e 94ce c93c
00000250: 1594 90bc 468f 99bd 764c a83d 98a2 1abd
00000260: e30d 15be c167 0a3e 7c7c 263e be19 873d
00000270: 3131 fbbb d370 2e3e e0b0 45bd ccef c63d
00000280: 49a3 30be a1da 183d 5021 02be d005 013e
00000290: ae22 f23d 7334 513e 6b5a 72bd a386 a53c
000002a0: 6cef a4be d68b 30be b9e4 0fbe 1e9b b5bd
000002b0: ee27 bf3c a9a4 383e 7c56 c1bd f6e6 263e
000002c0: 7683 3a3e 4372 f13d 7588 b23d 2de9 1e3e
000002d0: e6ca d93c 65a1 283e a4a2 133e 952b 02be
000002e0: 4488 963d 16bf 45be 2bb8 81be a603 7bbe
000002f0: 8d58 70be 19b1 9e3d 7bd1 8e3d 0217 623d
00000300: 3fd6 463e bf31 873d 9960 87bd 2338 58be
00000310: 1900 43be 6815 adbb ff0b 223e 06b2 863d
00000320: e7e4 973d 170f d73c 44e3 22bd ddbe 143e
00000330: 5bd0 a63c 1190 473e dda8 6cbd 737c 713e
00000340: 5a3e ad3e e5e1 643e fb9e c23e 2ba2 5a3e
00000350: 2bf3 383c 8f69 8b3d 1181 d7bd 0caa cfbd
00000360: 6c42 09bd 884e 6abc 59b0 463e 1a0c 213e
00000370: d98f 923d 4926 1abd 5e36 1a3e 1ae6 1f3e
00000380: f1b9 933d 2ab5 13bd 90da 0dbe 6135 68be
00000390: 7935 a83c 797c 97be f95f 27be c56c 74be
000003a0: 0fda 203f 583c cc3e 926a 9e3e 3ecf e33d
000003b0: 4204 a2bd 0452 5fbe f290 74bd a729 b8be
000003c0: 7418 6e3e d3c1 c93d 4a3c 953e 39b3 3a3c
000003d0: 7660 163b 634a d93d ea14 7abd 92af d63c
000003e0: 0542 913d 6e9a afbc 89ad 1f3e cdfd 253d
000003f0: fadf f8bd 4479 a73d 3120 0abe ad9a 0cbe
0.007421088 0.088176034 0.07043771 -0.17466792 -0.061507385 -0.04850243 -0.056887604 -0.24098378
-0.1204808 -0.21535346 0.031906325 0.07324712 -0.13162373 0.011889935 -0.2100507 -0.008584558
0.30408683 0.3051835 0.15090916 0.27930728 0.35724702 0.09126509 0.22836274 0.25018102
0.02251163 0.21940999 0.073512785 -0.039650556 -0.03335658 0.04064885 -0.004072132 -0.020917933
-0.10086551 0.022169953 0.098651275 0.23700753 0.22174676 0.19818147 0.11904156 0.06876134
-0.15471274 0.05687312 0.03650548 0.1352006 0.11587629 -0.05860158 0.21546893 0.4661436
0.20339714 -0.02911888 0.11346789 -0.117427975 0.19677916 0.11025342 0.37590384 0.17657524
-0.0046922853 -0.0110752955 0.15270042 0.17304823 0.17644219 0.31001335 0.19175284 0.4779312
0.10816815 0.1806567 0.34440023 0.20891798 0.121266484 -0.078306764 0.11852507 0.16773
0.094095066 0.3949505 0.24812338 0.08516901 0.15718225 0.29569545 0.3607796 0.23409772
-0.13601927 -0.09169421 0.15750001 -0.10809614 -0.20858458 0.0035370216 -0.023520183 0.024188768
-0.020210672 0.014517064 0.20592433 0.04271191 -0.13413104 -0.08637459 -0.015967272 0.20225462
0.30558193 0.28988948 0.28512654 0.04786034 0.27233568 0.09901378 -0.035772264 -0.018997602
0.15670782 0.19329281 0.19274701 0.14724459 -0.11452982 -0.050367113 0.1630934 -0.10981784
0.07597551 0.19867383 0.18405442 0.2680384 -0.042532645 0.0005295804 -0.10171924 0.14197104
-0.09919813 -0.029264042 -0.076485895 0.2159491 0.07522541 0.2863719 0.19962321 0.25368047
-0.14887094 -0.0009769441 0.05550771 0.24965058 -0.053140964 0.16850995 -0.0014186212 -0.13438503
0.16253947 0.06332773 0.14337444 0.06750661 0.23609962 -0.08132274 -0.014452236 -0.05766048
0.27293664 0.1957043 0.21624306 0.024634637 -0.017648736 -0.0749803 0.08217709 -0.037752718
-0.14556079 0.13516141 0.16258425 0.06596707 -0.007665776 0.17035227 -0.048264384 0.097137064
-0.17249788 0.037317876 -0.1270802 0.12599874 0.11823021 0.20430164 -0.05916826 0.020205801
-0.32213914 -0.17240843 -0.14052095 -0.08867477 0.02333447 0.18031563 -0.09440324 0.16299042
0.18214211 0.11789372 0.08717433 0.15518637 0.026586007 0.16467817 0.14417511 -0.12711938
0.07350209 -0.19311175 -0.25335822 -0.2451311 -0.2347128 0.077486224 0.06973549 0.055197723
0.19417666 0.06601285 -0.066102214 -0.21115164 -0.19043006 -0.005282093 0.15824889 0.06576924
0.074167065 0.026252313 -0.03976752 0.14525934 0.020363024 0.1948855 -0.057778228 0.2358263
0.33836633 0.22351797 0.38011917 0.21350925 0.0112884445 0.06807243 -0.10522664 -0.10139856
-0.03351061 -0.01430095 0.19403209 0.15727273 0.07156343 -0.037634168 0.15059802 0.1561512
0.072132 -0.036061443 -0.13852906 -0.22676612 0.02053331 -0.29587153 -0.16345204 -0.23869617
0.6283273 0.3988979 0.30940682 0.11123513 -0.07910968 -0.2180863 -0.059708543 -0.35969278
0.23251516 0.09851422 0.2914756 0.011395269 0.0022945679 0.10609891 -0.0610551 0.026206765
0.0709267 -0.021435943 0.15593542 0.040525246 -0.12152095 0.081774265 -0.13488843 -0.13730879

encoder.rnn.weight_hh_l0 f4 [128, 32]
00000000: f356 c23e 8ca0 bcbd 9d32 603e 5089 b9be
00000010: 8d26 18bd 9d22 1cbe b0dc 86bc 719e 02be
00000020: 57e9 4dbd e0de 5d3e b6d4 31bf aa8b b83d
00000030: 1359 eb3b edf8 783f 9153 363e deb7 953e
00000040: d180 34bf 57b1 5abe 314a 3fbe 3c5e 72be
00000050: 162f 353e 534d 21bf f2a4 9bbe a992 d1be
00000060: fac9 503e 3871 4abd f48b 0e3f 734e 52bf
00000070: c2bf b93e ac85 d7bd ae7b dbbe c7e0 12bf
00000080: 49be c73e c829 a9bc 42da 61bd fde4 9c3e
00000090: e452 aa3e e839 ab3d f0f1 f93d 7351 eabe
000000a0: 6f2d c83e 3a22 ffbd 9837 2bbe 898b d63e
000000b0: c798 2f3e e468 753e a625 a93e 51c1 e83d
000000c0: dcdf adbe 505d b13d 3603 333d dd4b 4b3e
000000d0: 4df0 6d3d ec37 6dbe e589 d83d 9205 2c3e
000000e0: ae6e 64be 8e16 d03e 5d69 ee3e 6dc6 c1be
000000f0: 2124 473e 9388 0c3e 36c1 f73e 10c8 d73c
00000100: e386 2dbe ef04 1bbe a77d c4be d15e d4be
00000110: a40b 78be 34a9 30be 0eb9 253f 1772 5c3e
00000120: e3e8 98be 94b1 50be 63d2 b63e cf4f 983c
00000130: 8aca 6bbe f72e 323e 49f8 0fbe 23a3 b6be
00000140: 9f3a e23e 28a1 8d3a a6aa 8ebc 45b5 44bf
00000150: 82e4 9a3e b416 51be 127c f1bd ca07 93bd
00000160: a52c 39be 7c9d 9dbd a0ed 10be 0c87 e03e
00000170: 6be7 2d3c c3fa 38be f916 c53b 3541 97bd
00000180: e5ff 843f 14aa 213f bc15 2abe 8f36 7e3e
00000190: a3b6 d7be 1730 3d3f b135 823f 9479 dabe
000001a0: acab dc3d 9d0f 22bf 2276 713e b442 a0be
000001b0: 6f5e 9cbe d6e2 4f3e ad7d a13d b228 aabe
000001c0: a20a b8be 5ef0 b43f 1f9d a2bf ef35 063f
000001d0: 08fb f8bc 8faa e2be ae44 fb3e aec3 753e
000001e0: 4271 d13e ca9a fa3e 6d22 fc3e c3b4 f3bd
000001f0: ee9d 50bf 3fab 283f 4aae febd 0e63 82bd
00000200: f524 8abd 8a1c e1be dbb4 c63e 58ea 9cbe
00000210: 70ac 90bd e7ec 32be 5933 ca3d 90b1 2b3e
00000220: fa89 48be d2df 823e 6710 a5be 41ea 5bbe
00000230: 5b79 9fbc aaf5 b03e 5bb8 62bc 33b8 b83d
00000240: d391 2dbe d29e 95be 8531 f63c c797 dc3d
00000250: e6bd 81be 6640 92be ba57 06bf 23c4 b8be
00000260: 018f e43d 50ef 62be 7e61 1dbe 14e1 d5bc
00000270: 555a b73e a3d3 9bbe 3d45 61be 9b03 d6be
00000280: 28ee fa3e 5079 bf3d eda8 8a3e 42fd 3f3e
00000290: eb8a 7a3d cb80 353d f81c 893d 9f1c e4be
000002a0: f91b 753e 1236 2abe d102 b2be 9a44 293e
000002b0: ebab c03d 66a0 9bbe 4578 75be 1875 08be
000002c0: e052 933e 0caa ab3d 329f 913e f8d1 333e
000002d0: 4675 9dbe 1f4a 3dbf 959a 563e 13cb 5b3e
000002e0: d54c 93be 4290 82be b7b9 ed3e a74d a3bd
000002f0: 0648 0c3e d407 a2bd cbcf e7bd 882b d83d
00000300: 31ad b1bc 8ae5 db3d 1396 d9be 923f 75be
00000310: 077e bf3d 2202 233e 3919 803e 5c6e 36be
00000320: 819b f3bc 99ec 183c 0807 b93e 20ad e83e
00000330: 97e4 61be 9752 55be 9386 0c3e 9b25 8fbe
00000340: 8aa6 8e3c 296c 9b3e 1867 71be 1468 3a3d
00000350: b6a6 6dbe 57fd 873e 9561 493d 8426 5abd
00000360: 086a 0b3e 5fad c13c b54f 1b3e 2526 1bbc
00000370: 307d 3fbe 4e66 dc3e 4c68 b33e a775 3f3d
00000380: c8ff 483e 61ed bc3d 9845 8ebc a57e 923e
00000390: 0914 833e 3055 353e b9e7 133f 81cc 31bd
000003a0: edc8 90bd 4112 253e a960 d93e 15ce d23d
000003b0: d59d 233f 1978 c33e 555a aa3e 5dcc df3d
000003c0: 0e8f 8d3d 4ae9 923d efcb cdbe a037 303e
000003d0: 053e aabc 00e4 fd3e 2b44 52bd 8e8b ed3d
000003e0: fdc5 a83e c866 8a3e 97c4 123e d7a1 84bc
000003f0: 262a 01bf 6f99 b7bd 1da1 4a3b adec 27bd
0.37956962 -0.092103094 0.21894307 -0.36237574 -0.03714614 -0.15247579 -0.016462654 -0.12755753
-0.05027136 0.21667051 -0.69465196 0.09011014 0.0071822493 0.9725483 0.17805316 0.29241842
-0.7050906 -0.21356712 -0.18680646 -0.2366876 0.17693743 -0.6300861 -0.3039928 -0.40932205
0.20389548 -0.04942438 0.556823 -0.82150954 0.36279112 -0.10523543 -0.42867798 -0.57374233
0.39012364 -0.020649806 -0.055139787 0.30643454 0.33266366 0.08360654 0.12204349 -0.45765266
0.39097163 -0.124577 -0.16720426 0.41903332 0.17148124 0.23965794 0.33036536 0.11364997
-0.33959854 0.08660376 0.043704234 0.19853158 0.058090497 -0.23165864 0.10573176 0.16799
-0.22307846 0.40642208 0.4656476 -0.378467 0.19447376 0.13723974 0.48389596 0.026340514
-0.16945986 -0.15138601 -0.38377115 -0.4147859 -0.2422319 -0.17252046 0.64735496 0.21527897
-0.29865178 -0.2038024 0.35707387 0.018592743 -0.23026481 0.17400728 -0.14059557 -0.35671338
0.4418535 0.0010805475 -0.017415356 -0.76839095 0.30252463 -0.20418817 -0.11791243 -0.0717922
-0.18083437 -0.076960534 -0.14153147 0.43853033 0.010614256 -0.18064408 0.0060147014 -0.07385484
1.0390593 0.63150144 -0.16609854 0.248255 -0.42131528 0.73901504 1.0172635 -0.42670882
0.10774931 -0.63305074 0.2358022 -0.3130089 -0.30540797 0.20301375 0.07885299 -0.33234173
-0.35945612 1.4135854 -1.27042 0.52426046 -0.030393139 -0.4427075 0.49075836 0.24000427
0.4090672 0.4894622 0.49245015 -0.11899712 -0.8149098 0.658863 -0.12435587 -0.063665494
-0.0674533 -0.43967086 0.38809857 -0.3064754 -0.0706414 -0.17473184 0.09873075 0.16766953
-0.19583884 0.25561386 -0.32239076 -0.2147608 -0.019467046 0.34562427 -0.013837899 0.09019508
-0.16950159 -0.29222733 0.03005291 0.10771137 -0.25340194 -0.28564757 -0.5247761 -0.3608714
0.11160088 -0.22161603 -0.15369222 -0.026108302 0.35811105 -0.30434904 -0.21999069 -0.41799626
0.49009824 0.093493104 0.27082005 0.18748954 0.06116764 0.04431228 0.066949785 -0.44553086
0.23936452 -0.16622189 -0.34767774 0.16530076 0.09407791 -0.30395812 -0.2397166 -0.13325918
0.28774166 0.08382043 0.2844177 0.17560565 -0.30753535 -0.73941225 0.20957406 0.21464185
-0.28769556 -0.25500685 0.46430752 -0.079737954 0.1369935 -0.07911649 -0.1131893 0.10555178
-0.02168903 0.107371405 -0.4249731 -0.23950031 0.0935021 0.15918782 0.25019243 -0.17815536
-0.029737236 0.009333753 0.36138177 0.45444584 -0.22059856 -0.20832287 0.13723211 -0.27958378
0.017413396 0.30355957 -0.23574483 0.045509413 -0.23208126 0.2656047 0.049165327 -0.053259388
0.13614666 0.02364224 0.15167125 -0.009469544 -0.18700099 0.43046802 0.3504051 0.04674306
0.19628823 0.09224964 -0.01736717 0.28612247 0.25601223 0.17708278 0.57775456 -0.04340792
-0.070695736 0.16120245 0.42456558 0.10293213 0.6391271 0.38177565 0.33272043 0.10927651
0.06912051 0.071734026 -0.4019465 0.17208719 -0.020781526 0.49588013 -0.05133454 0.115988836
0.32963553 0.2703154 0.14332806 -0.016190453 -0.5045494 -0.08964812 0.0030918785 -0.040997196

encoder.rnn.bias_ih_l0 f4 [128]
00000000: 820b 5a3e 86ef a73e 3f22 86be d3b2 083f
00000010: 466e fd3a 4545 cb3e ed92 e1bc bb83 123e
00000020: 2b50 c13c 77e0 26bd 53af 8e3d bbb8 f23d
00000030: 169a c3bd 5b0e 58be a22b 323c 53c9 583c
00000040: cd14 263d 5180 4bbe 1335 4dbd 4dc0 f7bd
00000050: dd7c 883a 9868 613e e5bf 373e 8806 7b3e
00000060: a28c f13c b742 703e 1341 ee3e b149 2cbd
00000070: 4b5e fcbd af49 d4be 5a5e 91bd 6446 55bd
00000080: 3c70 983e 3994 0dbd 04ca 48be df3d a03d
00000090: f2a4 dabd 3a13 c63d 10ba ea3c 1baa 953e
000000a0: 9086 713e bb4c 373e 1b51 273e 4dac 213e
000000b0: 0934 c8bd c373 7b3e e513 cb3c 0c83 0c3e
000000c0: f13e 763e 87af 253e af72 353e 004e b33e
000000d0: 859f dc3e acc0 883e e85e f1bb 7e7e 823e
000000e0: 7739 6b3d aec4 c73d be62 073f 7347 403c
000000f0: ccf3 a9bb f4ff 083e f6b8 66bd 7cf9 2e3e
00000100: 593b 093f 01ef 6d3e 4727 16be 08dd dc3e
00000110: 1719 96be 4cc8 d43e 750d a33c a141 8cbe
00000120: 4b67 d23d 5bdf 80bd de6f 02bd acab 55be
00000130: b3a4 1bbe 9661 5bbe b656 893e f8c4 38be
00000140: 45c5 fe3d ee23 723d 65af 5abd eefb 70be
00000150: 9447 a53e 1347 20be e173 be3e bef7 1b3e
00000160: ba6d c2bd 899a bd3e 36e1 ab3e 6189 ee3d
00000170: 2cfd 11be 4d19 823d a39f 023f 8bcb c2be
00000180: f41d 1b3e 7602 4a3d ded3 3fbe 8784 b33e
00000190: 3401 e7bc 694a dbbd 7997 253e d681 8c3e
000001a0: 352b af3e de27 18bd cb00 1fbd a385 973e
000001b0: 7cf1 4bbe 48c8 b53e e9a9 383e 33ed ce3e
000001c0: 7b39 b63e 91b0 95be 077a 853d fec4 9e3e
000001d0: 034e c43d 6bb8 86bc b0db 16be d925 283e
000001e0: 2bc3 90bd 9e29 0a3f f6d0 be3e 26b4 003f
000001f0: 2cab 8a3e dfd1 38be fe9c 9a3e e1b4 6ebe
0.21293452 0.3279993 -0.26198003 0.53397864 0.0019335232 0.39701286 -0.02753588 0.14308064
0.023597797 -0.04074141 0.06967034 0.11851641 -0.09550874 -0.21099226 0.010874661 0.013231593
0.04054718 -0.19873168 -0.050099444 -0.12097225 0.0010413189 0.22012556 0.17944296 0.2451421
0.029486004 0.2346295 0.46534023 -0.042062465 -0.123226725 -0.41462466 -0.07098074 -0.052069083
0.29773128 -0.034565184 -0.19608313 0.07824301 -0.10675992 0.09671636 0.028653175 0.29231343
0.23586488 0.17900364 0.16339533 0.15788384 -0.0977555 0.24555878 0.02478976 0.13721865
0.24047448 0.1618024 0.1771953 0.35020447 0.43090454 0.26709497 -0.00736605 0.2548713
0.05742785 0.097543105 0.52885044 0.011735785 -0.0051865336 0.13378888 -0.056328736 0.17087358
0.5360618 0.23235704 -0.1466342 0.43137383 -0.29316017 0.41559064 0.019903878 -0.2739382
0.10273608 -0.06292602 -0.031844966 -0.20866269 -0.15199547 -0.21423945 0.26823968 -0.18043888
0.1243997 0.059116296 -0.053389926 -0.23533604 0.32281172 -0.15652113 0.37197784 0.15231225
-0.09493585 0.37031963 0.3357026 0.11647297 -0.14256734 0.06352482 0.51024836 -0.38045916
0.15148145 0.049318753 -0.18733165 0.35062048 -0.028198816 -0.10707552 0.16171063 0.27442807
0.34212652 -0.037147395 -0.038819116 0.29594144 -0.19916338 0.35504365 0.18033566 0.40415344
0.3559073 -0.29236272 0.065174155 0.31009668 0.09585192 -0.01644536 -0.14732242 0.16420688
-0.07068475 0.5396975 0.372688 0.50274885 0.2708372 -0.1804881 0.301979 -0.23311187

encoder.rnn.bias_hh_l0 f4 [128]
00000000: 258b 37bd 80b5 053f 9cea 17be 3661 033f
00000010: 164a 56be 7ed9 a83e 385a d3bc 3b89 9a3e
00000020: 18c8 603e 6f6f d6bb 6f4b dd3c 6fd7 15be
00000030: 13ec 91be 8b3a 103e 12d3 853e 9167 2bbd
00000040: 4708 8a3e fb9b 4ebe 9d9e 59be 7c99 1bbd
00000050: 5ae0 a43d 962f 613e b156 823c ffa2 563e
00000060: db83 2a3e da94 d03d fe7b df3e 706b b7bd
00000070: 1e5f 01be c855 34be be76 91bd 79b9 443e
00000080: bc6e d83e 7b0f 0f3e f868 e8be 82c2 8f3d
00000090: 2895 91bd c423 f9bb 346c 203e a60c 923d
000000a0: 35e7 e33e 856f d4bd e4c2 d83d 5014 8b3e
000000b0: 5f07 c239 0ec9 233e 3c60 a93d 2fe2 f53d
000000c0: a77b a73c 1ce9 0ebd 4dba bebb bdcd f33d
000000d0: 8051 8a3e 489a 513d 2d80 d43d 5a1b 993e
000000e0: d71f d43d 1cdc 56bd 8014 733e 95c7 043e
000000f0: 1131 873d 6907 02bd cae5 34bc d0f9 dcbc
00000100: e8b3 f93e b1e1 f93e 62c8 e6bd 618d b13e
00000110: ebb3 76be 17bd d13e cd6f 3abe 06b1 d6bc
00000120: bc1e 233e 745d 13bd 3fdd e0bc 3871 83be
00000130: 258f 84ba 1378 84bd 75a9 48bd da6d 1abe
00000140: cc37 7d3d 2032 053e d1ca 3dbe 7b79 e4be
00000150: 269f a93e 09bc 943d b611 123e f6ee df3e
00000160: d248 b1bc 7a4c a33d 8869 d23e 0474 433e
00000170: 4408 c0bd 101c 0cbe 966d a43e c02d d3be
00000180: 04a6 0d3e 31dd 5abb a98d b6bd bfed 113f
00000190: 1c97 783e f47a a0bd 1acf d5bd 03cf 993e
000001a0: eb40 fb3e 9aa8 763d aa11 a43b c25c d83d
000001b0: e588 c0be febb ee3e 129b 383e 77ee fa3e
000001c0: 3c9f a03e 4eaf 56be 5014 1c3e 6443 eb3e
000001d0: a014 473d 8dd0 4f3e 09d6 b4bb ab57 e83d
000001e0: 1229 a1be 365a 143f c3e6 8e3e 2b21 c63e
000001f0: c5d8 103e f72c 2ebe a57c 983d 0204 f33c
-0.044810433 0.5223007 -0.1483559 0.5132021 -0.20926699 0.32978433 -0.025799856 0.30182824
0.2195133 -0.0065440456 0.027013509 -0.14632963 -0.28500423 0.14084832 0.26137596 -0.041846815
0.2695944 -0.2017669 -0.21251912 -0.03798817 0.08050604 0.21990809 0.015910478 0.20960616
0.16651861 0.10184641 0.43649286 -0.08956039 -0.1263394 -0.17610848 -0.071027264 0.19211377
0.42271984 0.13970749 -0.45392585 0.07019521 -0.071085274 -0.0076031405 0.15666276 0.07131319
0.44512334 -0.10372833 0.105840474 0.27163935 0.00037008055 0.15994665 0.082703084 0.12006032
0.020444704 -0.03489028 -0.0058205486 0.11904476 0.27015305 0.051172525 0.1037601 0.2990368
0.103576355 -0.052456006 0.23738289 0.1296676 0.066011555 -0.031745348 -0.011041114 -0.026974589
0.4877007 0.48805 -0.11268689 0.34678176 -0.24092071 0.40964577 -0.18206711 -0.026207458
0.15929693 -0.035977796 -0.027449248 -0.25672317 -0.0010113461 -0.06468215 -0.04898973 -0.15080968
0.06182079 0.13007402 -0.185344 -0.44623932 0.33129233 0.07262427 0.14264569 0.43737
-0.021641169 0.07973571 0.4109614 0.19087225 -0.093765765 -0.1368258 0.32114857 -0.41245842
0.13832861 -0.0033396 -0.08913738 0.57003397 0.24276394 -0.078359514 -0.10439892 0.3004075
0.49072966 0.060219385 0.0050069885 0.10564567 -0.37604442 0.46627802 0.18027905 0.4901006
0.31371486 -0.20965311 0.15242124 0.45949852 0.048603654 0.202944 -0.005518679 0.11344846
-0.31476647 0.5795015 0.27910432 0.3869718 0.14145191 -0.1700934 0.07445649 0.029664997

decoder.rnn.weight_ih_l0 f4 [256, 32]
00000000: 6bfe 1cbe 3b9b 6d3e 054d b83e 1e0a 8a3f
00000010: 5b47 283e 07fe a9bb c26f f23e fae3 d3be
00000020: 41d7 3e3f 13ce d7bc e43e a4be 6f8c 2a3f
00000030: 6227 2ebe f5a0 e4bd 3d99 373f f0ac 32be
00000040: 24a0 79bf bb5d a83d 70ba 9fbf 7ea9 ea3e
00000050: ca41 6fbf 52e2 41bf d1e5 9c3e 201c 843e
00000060: fb49 7dbe 8e65 3c3f 83aa 2f3f cf5f 8ebf
00000070: 2050 0d3e d247 1f3f 3224 c3bc 5636 1abe
00000080: 3deb 173e c64a 85ba 3fb3 c5bd 80f0 733e
00000090: d1d0 12be d363 86bd 582d cd3e 35ae d5be
000000a0: a130 833d e6a5 4e3e ea65 413e 118a 31be
000000b0: 3396 0a3e b27d 4e3e 5101 e73d 1609 b63d
000000c0: 5e95 b93d b583 7a3c 4bd0 91be 4fd1 13be
000000d0: c05c 88be 0bb4 76be 4b7f efbd 78ee 92bd
000000e0: c843 9dbe b787 af3e 5795 de3e e7e6 54be
000000f0: 0bb0 f7bd 7ff3 02be 082c 663e 5bdf 97be
00000100: 805e 363f 8c38 f23e 30c3 47bd 992a ae3f
00000110: f010 163e b4e0 d03e 8f3b e03d 941e 49bf
00000120: d09d 823f 6814 0bbf c9f8 e73d 1a89 ea3e
00000130: 2c6b 19be b90a 81be 80b0 343e 4aca c0be
00000140: c5c5 82be 4ee7 2c3e 807f 53bf 6f7e 583d
00000150: 80ef a1bc b02f febe 52c6 d33e 7a84 d53e
00000160: 21cb 85bd abe6 053f 36d9 4d3f e76f e4be
00000170: 7445 b4be 1d96 203d 8e99 de3e 133b 79be
00000180: dad2 09bf 1ff7 4cbd cd17 e83e 0a96 1c3f
00000190: e4ed 2e3e 8512 8cbe c0ff 633d 5039 a3be
000001a0: 9047 c93e 5073 523e 7d9c 65bf 6e66 753d
000001b0: 0215 813c 45a1 9b3e 9b3a f53b dc35 d13e
000001c0: 1dfc 2ebe ba48 0b3d b255 15bf d247 163f
000001d0: b33e e3be 9753 23be 21c2 d5be a4b2 6bbe
000001e0: 477e 89be 27ba ca3e d550 213e 816d efbe
000001f0: 62ec 593b 0d79 7bbd 46ff 16bd de4c adbe
00000200: e9ee fb3d 0a5f e8bc 7365 e23c 7b44 063f
00000210: 369c 513e 8bf9 2abd df68 a13d 7878 08be
00000220: 6bbc bb3e 5aa1 2cbe 962d 22bf 858f 223d
00000230: eb72 d4bc a442 6bbe d7c4 223e 2abc 6d3d
00000240: a7da 9dbd 7ac4 2abd 6d6d c6be 8ec2 253f
00000250: e556 d43c 33f7 a9be 82da 9ebe b2bf 0fbd
00000260: 216f 51be 46b4 0d3f d3f9 003e 8f3c 8f3d
00000270: cf2b d7bd 3035 63bd c72a 3ebe 8c13 04be
00000280: 0551 f93e 7cb3 c93d 4615 fcbc 791a 2d3f
00000290: bbd3 31bd c692 f23e 7bb4 7a3e 71de c7be
000002a0: f733 013f 8488 31bf 419d 61be 15e4 063f
000002b0: 380a 373e 35b0 5c3e 3656 6ebe 9815 8abe
000002c0: 2531 d2be c78f 143f d1b0 a5bf 1926 c93e
000002d0: 150c 02be 7ed5 aabe 2804 03bd c08a 293e
000002e0: 9a52 023f 0006 f23e 4fb5 cf3e bdd1 36be
000002f0: 8da2 96be f006 023f 634d 373d 69a2 453e
00000300: 7af8 d23d 603a 15be ffc6 073f 8934 433e
00000310: 0632 a23e 1380 b4bd 6f9c 873d 57b4 8cbe
00000320: da5d b2bd 77f5 823e fa61 b3be 92a4 253e
00000330: 4c80 1c3e 0ec7 c93e 1556 483e 40b3 8b3e
00000340: b530 49be 9e15 b73d 2e11 d0be acb8 093f
00000350: 9d32 b2be a9a8 99be e832 80be 1870 96be
00000360: 4fb3 46be da8a 4e3e 41e8 333e b38a 18bf
00000370: c185 de3d d718 73be 2090 69be f7f8 cbbe
00000380: d458 6d3d 7c8a 803c ab33 c43e 352f d3be
00000390: 8352 923e 93c2 d6bd ae5c c13e e60b 35be
000003a0: a9e8 113e 5e79 25bc 30cf c23e b225 26be
000003b0: 1b77 a63e 717f c03e 8f7c 573e 1340 113f
000003c0: 8320 47be ae80 e63e ad9e cfbe 6dc3 a23e
000003d0: 001e 6ebf 43e6 5a3e c7a8 5abe 3f6f f8be
000003e0: 6253 013e 8f6c 9d3e 2e9e 6a3e a517 d8be
000003f0: 4b99 50be b1f4 b1be 0b1b 86bd 36b3 8d3e
-0.15331428 0.23203747 0.3599626 1.0784338 0.1643347 -0.005187753 0.4735089 -0.4138487
0.745472 -0.026343381 -0.32079232 0.66620535 -0.17007211 -0.111635126 0.717182 -0.17448783
-0.9750998 0.08221003 -1.2478771 0.45832437 -0.9345976 -0.7573596 0.30644086 0.25802708
-0.24735253 0.7359246 0.68619555 -1.1122988 0.13800097 0.62218964 -0.02382097 -0.1505979
0.1483583 -0.0010169379 -0.09653329 0.23822212 -0.1433747 -0.06562009 0.40073657 -0.41734472
0.064057596 0.20180473 0.18886533 -0.17337824 0.13533859 0.20165136 0.11279548 0.08888452
0.09061693 0.0152901905 -0.28479227 -0.14435314 -0.26633263 -0.24092118 -0.11694201 -0.071743906
-0.30715775 0.3428323 0.43473312 -0.20791207 -0.120941244 -0.12788199 0.22477734 -0.29662594
0.71237946 0.47308767 -0.04877013 1.360675 0.14654899 0.40796435 0.1094886 -0.78562284
1.020441 -0.5432801 0.11326749 0.45807725 -0.14982289 -0.25203493 0.17645454 -0.37654334
-0.2554151 0.1688511 -0.82616425 0.05285495 -0.019767523 -0.49645758 0.41362244 0.41702634
-0.065328844 0.52305096 0.8040956 -0.44616625 -0.3520924 0.03920566 0.43476528 -0.24338941
-0.5383736 -0.05004036 0.4533066 0.6116644 0.17082936 -0.2735788 0.055663824 -0.31879663
0.3931241 0.205518 -0.8969191 0.059912138 0.015757088 0.30396476 0.007483793 0.40861404
-0.17088361 0.034004904 -0.58333886 0.5870334 -0.44383773 -0.15949856 -0.4174967 -0.23017365
-0.26854154 0.39595148 0.15753491 -0.46763232 0.0033252467 -0.06139474 -0.03686454 -0.33847708
0.12301428 -0.02836563 0.027636265 0.5244824 0.20469746 -0.04174189 0.07881331 -0.13327205
0.3666719 -0.16858426 -0.6335081 0.039687652 -0.025933703 -0.2297464 0.15895401 0.058040775
-0.0770772 -0.04169128 -0.3875536 0.6474999 0.02592034 -0.3319641 -0.31026083 -0.035094924
-0.20452549 0.553532 0.125953 0.069939725 -0.10506403 -0.055470645 -0.18571006 -0.12898082
0.48694625 0.09848687 -0.030771863 0.6761852 -0.043414813 0.47377604 0.2448291 -0.39036897
0.5046992 -0.6934893 -0.22032644 0.52691776 0.17874992 0.21551593 -0.23275074 -0.269696
-0.4105312 0.58031887 -1.2944585 0.3928688 -0.12699921 -0.33366007 -0.031986386 0.16556835
0.5090729 0.47270203 0.40568015 -0.17853446 -0.2942089 0.50791836 0.044751536 0.19300236
0.103012994 -0.1457305 0.5303802 0.1906301 0.3167879 -0.08813491 0.06621634 -0.27481338
-0.08709307 0.255779 -0.35035688 0.1617606 0.15283316 0.3940968 0.19564088 0.27285194
-0.19647487 0.0893967 -0.40638107 0.5379741 -0.3480424 -0.3001149 -0.25038838 -0.29382396
-0.19404338 0.20170155 0.17569067 -0.5958664 0.10865355 -0.23739944 -0.22808886 -0.39838383
0.05794604 0.015691034 0.3832067 -0.41246954 0.28578576 -0.10486331 0.3776602 -0.1768032
0.14248909 -0.010099737 0.38048697 -0.16225317 0.32512745 0.3759723 0.21043609 0.56738394
-0.19445996 0.4502005 -0.40550748 0.31789723 -0.93014526 0.213769 -0.21353446 -0.48522374
0.12629464 0.30746886 0.22911903 -0.4220554 -0.20370977 -0.34756997 -0.06548127 0.2767579

decoder.rnn.weight_hh_l0 f4 [256, 64]
00000000: d1b0 5d3e 5e20 34be e6e5 d33e 6a4d 703e
00000010: c560 a8bb 78b3 8dbd ee2b 82be 2872 58bd
00000020: b18c 723e e703 ac3d 5af0 c33e fa33 3d3e
00000030: 4454 af3d 68aa b43d 06a0 873e 72fd 36be
00000040: 76d8 35be 7847 15be c452 45be 5eea 1f3e
00000050: cc55 0bbe d2ec dbbe 14c0 c4bd 14fc e23d
00000060: 1932 8e3d c1f1 e73d 49b9 eb3e 3601 c23d
00000070: f48c 2cbc 04af 9dbd beee 7cbc 6373 0dbe
00000080: dad8 5b3e 383e 1a3e 63e8 133e 20be 3cbe
00000090: f141 53be a60a c93d 60cb 733d e974 543e
000000a0: 5fb8 08be 9c0c b63d 9092 953e e238 42be
000000b0: 226a 0e3e 8394 97be b402 e23c 41cd 9bbe
000000c0: 8ed4 9f3d 8ae2 b03c 0280 3bbc 6253 ba3e
000000d0: b9c3 8abe 5191 37be c004 64bd 5437 703b
000000e0: 0a08 973e 8bae 6cbe 8534 bc3e 4668 153d
000000f0: 03d8 ed3c 09a4 1d3b 6f4b 9bbe 40c2 71bc
00000100: b19c c5be 81bb 613e 229d b83e 5c30 96be
00000110: c2f5 543e 548b 473e bf02 a33d 6fe5 883e
00000120: 5728 42bd 0dbe fabd fd1c e33d cfd5 533e
00000130: 49e5 9ebd 28c1 a2be 33ec c1be e3f1 e43e
00000140: 48f0 193e 00c3 6fbe 8743 71bd 32ab d63e
00000150: 93e1 f6be 7821 f63e a90b 0d3e 171a 4a3e
00000160: 4877 a3be 2e7e 133e 4273 fb3d c69b b9be
00000170: da05 dc3d c60e 193e ee34 08be f9c3 613e
00000180: 0592 b83d 3667 cd3c 5da7 04be c7bb f7be
00000190: c53f 353f 6c46 873e 37d6 36bd 4abe 36be
000001a0: 26fb b7be 9b45 9e3e 1430 753d 10e3 b43e
000001b0: c98f d73e 85bf 2e3e 56b5 47be ded0 083c
000001c0: 0677 843d 8574 40be 9301 1cbe 25c4 5cbe
000001d0: 20d0 13be d711 5d3e 8a75 b23e 661d 733d
000001e0: d964 e6bd 279e cc3e 746f 99be 2128 d8be
000001f0: e74c a3be d5ac 1e3d 179a d73e 9622 10be
00000200: c31d 0abd 0a45 aabd a2e7 03be 5111 d13d
00000210: 7791 b73d 6077 b43d cb11 343e 006d 60bd
00000220: e8e9 bdbd 8909 733d 17f0 01be 35cb b83d
00000230: ec2c 31bd 0fc4 0e3e c5da 213d 897e e7bd
00000240: 1de7 053e 30bf 113e cc37 d4bd 6851 39bc
00000250: 08b7 563e 00ea 0abc a930 463d 9ec2 dbbd
00000260: 9445 953d d398 f6bd 46f8 8ebe 8372 28bd
00000270: f361 2e3c fc9e 5fbd a99e 62bd 988c 41bc
00000280: 2257 eebc f802 c73b 48e7 b73c 1d57 cf3d
00000290: be2a 69b9 ce9b 2b3d d24e 22be 3f78 08bd
000002a0: ad65 263d 0232 5bbe ac79 6f3d 4394 ac3d
000002b0: 0238 41be 6360 963d f400 033c 821b 0e3c
000002c0: e6a5 fbbd d44c 543d 1930 1e3e 3868 c13d
000002d0: 7aa7 1e3d 7438 c33d 779b 4d3d dfb4 f53d
000002e0: 128b 51bd aa92 433e fa15 98bd 5939 d13e
000002f0: 8201 dcbd bd84 273d 9bc0 42bd 9a59 4d3e
00000300: 901e 79be f7bd b23e 4d69 673e 54d6 f63e
00000310: 3160 6f3e cd1c c0bd 9afe 333f f860 833e
00000320: 86f5 3abc bae0 0abf f612 473e f998 bc3d
00000330: a0e5 47bc 9964 99bd 5a24 e2bd a8dd 913e
00000340: ae69 9bbd 5917 9bbe ad9d 59be 86e2 a13e
00000350: 552a 75be 6bc8 0d3f 8ad2 8e3e 1423 bd3e
00000360: 5848 eb3c 7d24 b93d 45fd 213f 3338 a03e
00000370: 2dd6 eebe 7889 a43e 7a56 1c3e 37a3 babd
00000380: aa13 10bd a67d a13d c3c3 423e bd66 21be
00000390: 8974 5a3e acd1 89be 8e02 7d3d 850a e73d
000003a0: d324 fbbd 8915 233e b070 74bd c6e4 703e
000003b0: 2124 823e a47c 94bc 963a 113e 2111 78bf
000003c0: bee8 debd a84b a1bd 0e04 78be a0b9 13bd
000003d0: 6c9a a93d 10f1 103e 1add 23bc 3015 bfbc
000003e0: 6656 bdbd d8e9 b33d d690 26be 463c 81be
000003f0: e4ec 0fbe fbe6 4fbe bd33 833e ad4f babe
0.21649481 -0.17590472 0.41386336 0.23467031 -0.005138489 -0.069189966 -0.2542414 -0.052843243
0.23686482 0.08399182 0.3826931 0.18476859 0.08560994 0.08821565 0.26489276 -0.17870119
-0.17758355 -0.14578044 -0.19269854 0.15616748 -0.13606948 -0.42954117 -0.096069485 0.11083236
0.06943149 0.11325408 0.460398 0.09472887 -0.010531653 -0.07699397 -0.01543778 -0.13813548
0.21469441 0.15062797 0.14444117 -0.18431902 -0.20630623 0.09816484 0.059520125 0.20747723
-0.13351582 0.08889124 0.2921338 -0.18967012 0.13907674 -0.29605493 0.02758918 -0.30430034
0.078042135 0.021592397 -0.011444094 0.3639174 -0.2710245 -0.17926528 -0.055668592 0.0036654072
0.2949832 -0.23113458 0.3675882 0.036476396 0.029033666 0.0024054071 -0.3033099 -0.014755785
-0.3859611 0.22044183 0.36057383 -0.2933377 0.20796874 0.19486743 0.07959508 0.26737544
-0.047401752 -0.122432806 0.110895135 0.2068703 -0.077585764 -0.31787992 -0.37875518 0.44715795
0.15033066 -0.2341423 -0.05890229 0.41927487 -0.48218974 0.4807241 0.13773979 0.19736515
-0.31926942 0.14403602 0.12277843 -0.36251658 0.107433036 0.14947042 -0.13301441 0.22047414
0.09012226 0.025073629 -0.12954469 -0.4838545 0.7080043 0.26420915 -0.044637885 -0.17846027
-0.359338 0.3091248 0.059860304 0.35329485 0.42101887 0.17065246 -0.19502768 0.008350579
0.064680144 -0.18794449 -0.15234976 -0.21559198 -0.14434862 0.21588837 0.348553 0.05935421
-0.11249704 0.3996441 -0.29967844 -0.42218116 -0.3189461 0.038739044 0.4210975 -0.14075693
-0.03371979 -0.083139494 -0.1288133 0.10208381 0.08963292 0.088118315 0.17584912 -0.05479145
-0.0927313 0.059335265 -0.12689243 0.09023134 -0.04325573 0.13941978 0.039515276 -0.113034315
0.13076444 0.14233088 -0.10362205 -0.011310913 0.20968258 -0.0084786415 0.04838625 -0.1073048
0.072886616 -0.12040868 -0.27923793 -0.041124832 0.01064347 -0.05459498 -0.05532709 -0.011813305
-0.029094283 0.006073352 0.02244915 0.101240374 -0.00022236534 0.041896634 -0.1585038 -0.0333178
0.04062431 -0.21405795 0.058465645 0.08426716 -0.18869022 0.07342603 0.007995833 0.008673551
-0.12287502 0.05183108 0.15448035 0.09443706 0.038733937 0.09532252 0.05019709 0.11997389
-0.05115802 0.19098917 -0.07426067 0.40864065 -0.10742475 0.040898073 -0.047546964 0.20053712
-0.24328065 0.34910557 0.22598763 0.48210394 0.23376538 -0.09380493 0.70310366 0.2565992
-0.011411076 -0.54249156 0.19440827 0.09208865 -0.012200743 -0.074898906 -0.1104209 0.28489423
-0.07588516 -0.3029125 -0.21251555 0.31618136 -0.2394193 0.5538394 0.27895004 0.36940825
0.02872102 0.09040163 0.63277084 0.31292877 -0.46647778 0.3213613 0.15267363 -0.09113162
-0.035175003 0.07885294 0.1901999 -0.15761848 0.21333517 -0.2691778 0.061770014 0.11281303
-0.12262883 0.15926184 -0.05967778 0.2352477 0.2541819 -0.01812584 0.14182505 -0.96901137
-0.10884236 -0.078757584 -0.24220297 -0.036065698 0.08281407 0.14154458 -0.010001445 -0.023325533
-0.09244995 0.087848365 -0.16266188 -0.25241297 -0.1405521 -0.20302956 0.2562541 -0.36388913

decoder.rnn.bias_ih_l0 f4 [256]
00000000: 488f b73e dd52 673e cac3 283f 3a7c d93d
00000010: b47f 5d3c 7abd 9a3e 151b 913e 8bcc 533e
00000020: 0dc1 663e f959 403e 50b1 283f 5b33 8d3e
00000030: 8771 be3e 5d93 393f 27cc 633e 165f ad3e
00000040: 5bee 5e3d 0dc9 853e baf8 9dbe 9b67 ad3d
00000050: 4815 023f b0f6 673e 5bdf f93e 2cb2 dc3e
00000060: eab1 783e 4e10 db3d eed0 9d3c f0ae 803d
00000070: 07e4 01be bcbd 1c3d 92ad a13e a52b a33e
00000080: 8415 b73d 24a6 873e fae2 7d3e 5ab4 883e
00000090: 3e32 653d 5df5 223d b149 b53e b988 983e
000000a0: 6257 bc3d 3d20 7f3e edac 11bd 30b5 8d3d
000000b0: b58b 433e fbd7 f23e cbb6 fabc e082 98bc
000000c0: 8a5a 933e a09c 503e ec0a 8e3e 9d0d 8e3e
000000d0: e34b f43e d72d 9a3e 53b0 983e 5d39 403e
000000e0: 2e2c 2a3e cced 983e bb5b e73d cc71 2a3f
000000f0: 5750 643f 5f7e 083f 7537 593e ad38 aabd
00000100: 7d07 07be 4ed7 45bb b48f 0cbe 36fb 7b3e
00000110: b007 283e 7599 18bc 4504 0c3d 8014 3bb8
00000120: 9342 96bd fce4 c0bd cd5a 2e3e e6f8 393e
00000130: cba1 f8bc 7f44 013c d25c 423e 4f6a 17be
00000140: 9ec5 f5bd 7ac9 8dba b9e6 743e bc1a 66bd
00000150: d3f2 3cbe 1205 23be fe01 29b8 00a9 573e
00000160: 8d56 2c3e 2361 0f3d d19c db3e c71c 403e
00000170: 7a8c 8b3e 3306 063e 81fd a83d 3072 26be
00000180: c6ec 46bb ee53 a63d 57cc aabe e366 c8bd
00000190: ce8c a53d 4ac3 b2bd fcf4 e8bd 6cbe 11bc
000001a0: 4f46 2ebe 72ba 80bb 170c 0c3d a9d4 d3bd
000001b0: 97f3 d03d 16b5 563e e4c7 e23d 1803 7abe
000001c0: 6010 83bd b6da 07bc e497 61be 15eb 003e
000001d0: f12d e6bd a1f2 4e3e b935 e33c 374d 3fbe
000001e0: c94d 0b3c eef5 7bbb 8532 d23d 1504 04be
000001f0: f9ab e83d 5250 243a 61b2 9ebc d042 0e3e
00000200: f435 75bd de9c 91be cca4 7bbe ae6e 8a3d
00000210: f800 d03c e44e 933d d7c8 6cbd 232c 1dbd
00000220: 5350 503d 2e3e df3d 0e2c 8abe 64aa af3c
00000230: 6361 ebbd d5c4 7f3d ea49 c53d 6912 de3d
00000240: 0648 b43d 2fae 863e 50ba f9bd 1d44 29be
00000250: 2eea 813e 148a cabd ebd2 993c 95df 3ebe
00000260: cce8 d03d a94d 1cbe 3d16 11be 4db3 263e
00000270: 0b4f bd3b 6779 5abd 97f8 833e f2d6 533e
00000280: f39a e13d 7775 d5bd 823b f7bc 5dc0 b83e
00000290: a150 63be 1c3c 9ebd 02ac 40bd 1745 533e
000002a0: 392f c23c b237 64be 5788 683d fbee 3dbc
000002b0: acc3 92be 395a 323b feb3 12bd 7a7e 1e3d
000002c0: f079 bc3d edb7 133d 9b78 cb3e 1dd6 113d
000002d0: 2e6d e13b 80cc 203e 68cd 803c 81df 3f3e
000002e0: 6434 09be 6b75 10be c986 313e e0f5 a53e
000002f0: 34fe 0abd a472 653e a371 e4bd 0680 5f3d
00000300: d8be 9b3e b547 fd3e 11f4 033e 55bd b53e
00000310: 946a 193f 0895 403d 4749 323e ff97 15bd
00000320: f3a4 843d 0fc5 663e 3948 363d 5b2a 07bd
00000330: 9049 333e 31fa e33e 1342 953e 9b40 003f
00000340: 811c c03d e4a7 da3e c08b 9fbd 3c2a 733e
00000350: d4cf f93d c9a8 1bbd 02e3 c03e 8f52 fb3e
00000360: 6535 593e 6e51 053d 80af 003f 8b6c b83d
00000370: 8ae0 da3e 25bd 933d ea8d 6f3d 8f23 b83d
00000380: 642b e53d cd4d 2c3e deac 9a3d f6e3 6b3e
00000390: dbcc 263e c30d 31bd c3a5 1d3e 90aa d63d
000003a0: 262c 653d e85b 1c3e 96ee fdbd c011 503d
000003b0: 9d94 913e 99f3 0bbd 22bc c63b 132e a63c
000003c0: c9a8 32bd e381 9c3c 8e1f 65bd b014 803e
000003d0: a7c8 8cbc 8e57 983e 75bf 9d3e 8cec 8bbb
000003e0: de4c 3b3e 896b b83e 2dc5 273f 889f 493e
000003f0: 4a46 803e f66a be3d 7452 55bd 8161 a93e
0.35851502 0.22590204 0.6592375 0.106193975 0.013519216 0.30222684 0.28340974 0.20683496
0.2253458 0.18784322 0.6589556 0.27578244 0.3719599 0.72490484 0.22245847 0.33861607
0.054426532 0.26129952 -0.30853826 0.08467027 0.5081372 0.22652698 0.4880322 0.43104684
0.24286619 0.10696469 0.019264665 0.06283367 -0.12684642 0.038266882 0.31577736 0.31869236
0.08939651 0.26493943 0.24793616 0.26700097 0.055956118 0.039784778 0.35407785 0.2979181
0.091963544 0.24914642 -0.035565306 0.069193244 0.19096263 0.47430405 -0.03060474 -0.018617094
0.28780013 0.20372248 0.27742708 0.2774476 0.47714147 0.30113098 0.29822025 0.18771882
0.16618416 0.29868925 0.11296793 0.6657989 0.8918509 0.53317827 0.21212561 -0.08311591
-0.1318645 -0.0030188146 -0.13726693 0.24607548 0.16409183 -0.009313931 0.03418376 -4.4603366e-05
-0.07336917 -0.09418675 0.17026825 0.18161353 -0.030350586 0.007889866 0.1898072 -0.14786647
-0.12000583 -0.0010817491 0.23916139 -0.05617784 -0.18452005 -0.15919903 -4.0294595e-05 0.21060562
0.16829892 0.035004746 0.4289308 0.18760978 0.27255613 0.13088302 0.08251477 -0.16254497
-0.003035353 0.08121477 -0.33359024 -0.09785249 0.08083497 -0.08728655 -0.11374852 -0.008895498
-0.17019008 -0.003928476 0.034191217 -0.10343296 0.10202711 0.20967516 0.11073282 -0.24415243
-0.06399608 -0.008291891 -0.22030598 0.12589677 -0.112392314 0.20209743 0.027735578 -0.18681799
0.008502432 -0.0038446146 0.10263542 -0.12892182 0.11360926 0.0006268072 -0.019372167 0.13892674
-0.059865907 -0.28439993 -0.24574584 0.06759392 0.025391087 0.071927816 -0.057808723 -0.03837217
0.050857853 0.10900532 -0.26986736 0.021443553 -0.114931844 0.062443573 0.096332386 0.10843355
0.088028 0.26304767 -0.121937394 -0.1652989 0.25373977 -0.098896176 0.018777331 -0.18639977
0.102006525 -0.15264 -0.1416864 0.16279335 0.005777245 -0.053338435 0.25775596 0.20687464
0.11015882 -0.10422795 -0.030179743 0.36084262 -0.22198726 -0.07726309 -0.04703904 0.20631824
0.023704158 -0.22286871 0.05677065 -0.011592622 -0.2866491 0.0027214421 -0.035816185 0.038694836
0.09202945 0.036064077 0.39740452 0.035604585 0.0068794703 0.1570301 0.015722945 0.18737604
-0.13398892 -0.14107291 0.17336573 0.3241415 -0.033933833 0.22407013 -0.11154487 0.054565452
0.3041904 0.4946877 0.12886073 0.3549601 0.5992825 0.047017127 0.17410766 -0.036521908
0.06476774 0.2253611 0.04450247 -0.032999378 0.1750853 0.44526818 0.29151973 0.5009858
0.09380437 0.42706215 -0.07790327 0.2374658 0.12197843 -0.038002763 0.37673193 0.49086425
0.21211775 0.03254836 0.5026779 0.09005078 0.42749435 0.07213811 0.05848495 0.08991157
0.11189917 0.16826554 0.07552503 0.23036179 0.16289084 -0.043226015 0.15395264 0.10481751
0.055950306 0.15269434 -0.12399022 0.050798178 0.28433695 -0.03416786 0.0060649076 0.020285642
-0.043617997 0.019104904 -0.055938296 0.25015783 -0.017185522 0.297543 0.30810133 -0.004270142
0.18291041 0.36019543 0.6553524 0.19689763 0.25053626 0.09297745 -0.052080587 0.33082202

decoder.rnn.bias_hh_l0 f4 [256]
00000000: 29be ac3e e0cd 663e c14a 363f 2e98 2d3c
00000010: ab50 b43c a597 373e 7620 833e 2c08 263e
00000020: a99c bd3d 05e4 833e 1943 1b3f e083 653e
00000030: 0f4a 9e3e 8346 353f 855f 693e 6306 c83e
00000040: 71bc eb3d 3b3b 753e 0b31 adbe 860f 4d3c
00000050: 5d22 1e3f ac0e 093d d2d1 ad3e b906 f73e
00000060: 04d1 c83e f9ec 9fbc 3abf 043d 577a 463e
00000070: 035a 89bd d313 0b3e eff0 573e d7f4 6d3e
00000080: 1905 273d b2ff c43d d8c9 453e 6c49 663e
00000090: 03d4 203e 041a 853b 3604 d13e d937 543e
000000a0: 8dce 293e e05a a93e 4d91 20be 7568 443e
000000b0: 4335 873e 0d80 ca3e bff5 353d e385 0b3d
000000c0: c261 773e e5c1 9abc f35e e93e 9cc3 353e
000000d0: 9661 e13e 4509 aa3e 2ac5 863d 9816 903e
000000e0: 2d13 673e 2c51 853e ecba 6a3e 6b75 1d3f
000000f0: f5ed 523f 4823 033f 495e aa3d b838 e7bc
00000100: dc90 aabd 3791 a03d 3eac 24be 13cf 8b3e
00000110: 545e 353e f383 623c b504 86bd 1bb6 a43d
00000120: b922 4ebc 4fda 69bd 0f09 e2bc 0292 263e
00000130: 284f 40b9 952a 0c3d be5c 843d 78dd 23bd
00000140: ca7b 24bd 68da 853d 5337 6fba 9045 6cbe
00000150: a33b 35be 3522 5dbe 6ac8 54bc 8995 c33c
00000160: 0931 363e 561e 98bd baa8 a73e 7c0a c23e
00000170: f938 863e 3686 35bb 246d e2bc fd7a 3abe
00000180: f37e 2bbd f0bd 9a3d cc3b 3ebe fb07 5ebe
00000190: c522 6a3e 2a88 02be ebd0 6c3c 9014 e23d
000001a0: b282 acbd aeeb 643c 7995 443e b92c df3c
000001b0: c04c 89bd c3b3 033e 3df3 223e c4e8 0fbe
000001c0: 625d fabc 212e 2bbc 27c9 35be 25df fd3d
000001d0: d96e 29be d7f5 7d3e 3695 b9bd 3ef5 63be
000001e0: 26f9 9cbd 2434 10be 4714 123e aa1e d1bd
000001f0: 989c 48bd 9311 53bd 73c9 373d 8bbf 5b3e
00000200: faec a8bd e516 8dbe 27f9 a2be 580b 803d
00000210: 8ea5 dfbd c991 643e 77e4 15be 0ae2 36bd
00000220: 49c8 f03d 4e04 b23d 3d37 b1be f164 4d3d
00000230: d440 06be 76a5 333e dd08 3a3e a796 bb3d
00000240: f910 933d 55bd 313e c39d 5c3d 5e49 95bd
00000250: 9e34 f63d 1c61 b9bd 694c 56be cd91 17be
00000260: 3850 403d 2342 fabd 58c9 c4bd 6c46 3e3e
00000270: ee29 d0bd 294e 8dbd 1ad2 9c3e 4be8 643e
00000280: 4ce0 7abd d066 a9bd b6a4 093e 8af0 633e
00000290: 3a5b f1bd 6ded 84bd e629 073e 133d 673e
000002a0: e2b2 4abc 7cf2 41be 75ae abbd e212 82bd
000002b0: f796 12be 1a18 37bd 6410 033c aaf4 d43d
000002c0: f84f e53d f6be 983d d529 ac3e 7094 c73c
000002d0: 608a cf3d e1ee 1f3e 6fb1 babd 8858 613e
000002e0: 0061 3bbe fe1b 2ebe f505 2a3d d414 5e3e
000002f0: 43ba 7dbd 4298 5b3e 0d4a c7bd b0d9 e83d
00000300: b6a5 3d3e 1a28 ae3e ba62 ab3d 97f4 a93e
00000310: 95dd 0a3f a022 07bd b76e fbbc 2523 2f3e
00000320: 7c39 903e 3850 be3e 807e 723e a848 1f3c
00000330: 92a9 2a3d be58 c53e fd54 053e 0826 223f
00000340: ce50 87bb eaa1 e83e a222 713b 070a 683e
00000350: 4c86 213e 72da 21bc 24a5 383e 590d 013f
00000360: 1835 223e e54c 0e3e 844b 0c3f 7655 143e
00000370: 5d6f b53e 2249 623d c399 383c 2f57 ccbc
00000380: 61a9 9fbc 3230 523e f5c5 093d ccec ad3e
00000390: 7686 883e 8359 03be 2f05 a7bc 6863 b03d
000003a0: 5058 853d 812c d43d c42b ddbd d1fc 1f3e
000003b0: 44d7 e53e 4c36 a73d 6eac a33d 0ea0 f03d
000003c0: fe1e e93d 5606 453e 29e6 293e 821b 523e
000003d0: baaf 883d fa5e b43e 1ebd 993e d83d e23c
000003e0: 650b 383e c1eb 313e b33a 233f 6d8e a83e
000003f0: 8c3b 1e3e f94a 113e d1c9 69bd e178 e13e
0.3373883 0.22539473 0.71207815 0.0105953645 0.022011122 0.17928942 0.25610703 0.16214055
0.09258396 0.25759903 0.6064926 0.22413588 0.30915877 0.7081072 0.22790344 0.39067373
0.11510552 0.23948376 -0.3382648 0.012515908 0.61771184 0.033461258 0.33949143 0.48247316
0.39221966 -0.019522177 0.03240893 0.19382606 -0.067066215 0.13581781 0.21088003 0.2323793
0.040776346 0.096190825 0.19315279 0.22488946 0.15705876 0.004061939 0.40823525 0.20724429
0.16582699 0.33077145 -0.15680428 0.19180472 0.26407823 0.3955082 0.044423815 0.03406323
0.24158385 -0.018891284 0.45580253 0.177504 0.44019765 0.33210197 0.06580575 0.28142238
0.22565909 0.26038492 0.22922868 0.6150729 0.82394344 0.5122571 0.08318765 -0.028225288
-0.08328411 0.078401975 -0.1608133 0.27306423 0.17711765 0.013825404 -0.065438665 0.08042546
-0.012581521 -0.05709296 -0.02759221 0.16266635 -0.00018340035 0.034220297 0.06463002 -0.04000613
-0.040157117 0.06535798 -0.00091253704 -0.23073411 -0.17698531 -0.2159508 -0.012987236 0.023875015
0.17792143 -0.07427661 0.32745916 0.37898624 0.26215342 -0.0027698404 -0.027639933 -0.18210979
-0.041869115 0.07555759 -0.18577498 -0.21682732 0.22864826 -0.12747255 0.014454107 0.11039078
-0.08423366 0.013972206 0.19197644 0.027243005 -0.06704092 0.12861542 0.159131 -0.14053637
-0.030562107 -0.01044801 -0.17752515 0.12396077 -0.16546191 0.24800812 -0.09061663 -0.22261521
-0.07664709 -0.1408239 0.14265548 -0.10210927 -0.048977464 -0.051530432 0.04486985 0.21459787
-0.08248325 -0.2755653 -0.31830713 0.06252164 -0.10920249 0.22321238 -0.14637934 -0.04464916
0.11756951 0.08692227 -0.34612456 0.050145093 -0.13110667 0.17543587 0.18167444 0.09159594
0.07180972 0.1735738 0.05386139 -0.07289384 0.12021755 -0.09051725 -0.20927586 -0.14801712
0.046951503 -0.12219646 -0.09608716 0.18581551 -0.101642475 -0.068996735 0.30629045 0.22354238
-0.061249062 -0.08271563 0.13441738 0.22259727 -0.11784978 -0.06490598 0.13199577 0.22581892
-0.012371751 -0.18940157 -0.083828844 -0.06351258 -0.14315401 -0.04470072 0.007999513 0.103982285
0.111968935 0.07458298 0.33625665 0.024362773 0.10133815 0.15618469 -0.09115874 0.22006428
-0.18298721 -0.17002866 0.041509587 0.21687633 -0.06194521 0.214448 -0.09730921 0.113696456
0.18520245 0.3401497 0.0836844 0.3319442 0.5424436 -0.032992005 -0.030692441 0.1710325
0.28168857 0.37170577 0.23681068 0.009721912 0.04166562 0.38544267 0.13020702 0.6333928
-0.0041295057 0.4543603 0.0036794324 0.22660075 0.15773886 -0.009878742 0.18031746 0.5041099
0.15840566 0.1389652 0.5480273 0.14485726 0.35436526 0.055245526 0.011267128 -0.024943916
-0.019489946 0.20526198 0.033636052 0.33969724 0.26665086 -0.12827115 -0.020388214 0.0861271
0.06510985 0.10360051 -0.10799363 0.15623786 0.44890797 0.08164653 0.07991873 0.11749278
0.113828644 0.19240698 0.16591705 0.20518306 0.06674142 0.3522871 0.30027097 0.02761738
0.17973097 0.17375089 0.6376144 0.32921162 0.15452403 0.14188756 -0.057077233 0.44037536
