detector_dev/models/cnn_lstm_ae_ringlength300_0.25percentGPS_relative.pt (torch, 129255 bytes, 12 tensors)

encoder.cnn.weight f4 [8, 4, 16]
000000 c4 d6 84 2c b6 fb 86 2c a1 fd 84 2c 41 c0 85 2c
       3.7755094e-12 3.8364546e-12 3.779824e-12 3.801432e-12
000010 03 0e 85 2c 4c 65 87 2c 2c 18 86 2c 54 44 85 2c
       3.781643e-12 3.848177e-12 3.8111927e-12 3.7876733e-12
000020 c5 c9 84 2c e5 6e 85 2c 7b 2c 85 2c 95 f8 84 2c
       3.7740666e-12 3.792399e-12 3.7850257e-12 3.779264e-12
000030 99 50 85 2c ab ff 83 2c 8a 26 83 2c 77 ea 83 2c
       3.7890355e-12 3.7516288e-12 3.7275226e-12 3.7492748e-12
000040 98 7c c3 a8 03 21 ac a8 da dd a1 a8 02 b5 93 a6
       -2.1703383e-14 -1.9110153e-14 -1.7970803e-14 -1.0249236e-15
000050 ef af 60 a8 c9 62 0c 29 5a 8a c5 a8 ea c0 c9 a8
       -1.2472647e-14 3.1171927e-14 -2.1931394e-14 -2.2399146e-14
000060 16 11 8b 29 a8 87 70 29 b0 68 77 29 24 d1 39 29
       6.175804e-14 5.3408368e-14 5.493582e-14 4.1259652e-14
000070 e7 88 de 29 4f ae 84 a9 bc a0 86 a9 a9 87 b8 a9
       9.882529e-14 -5.892215e-14 -5.9786784e-14 -8.194775e-14
000080 88 a9 3e 33 37 c2 8e 32 f7 d5 33 33 96 97 20 b2
       4.439201e-08 1.6619294e-08 4.1871285e-08 -9.347692e-09
000090 c9 fa 38 32 16 68 c5 b1 5b 1b bb 32 35 1e bf b2
       1.07672316e-08 -5.745288e-09 2.1782105e-08 -2.2249063e-08
0000a0 d1 7d 0e 32 fc 8a 3a 32 11 cb e2 31 e4 51 20 b2
       8.294095e-09 1.0858226e-08 6.6005517e-09 -9.3318455e-09
0000b0 10 73 8c b1 e4 7b 86 b2 49 76 c6 b1 8e c9 39 31
       -4.0876174e-09 -1.5655992e-08 -5.776006e-09 2.7035614e-09
0000c0 2e da 79 2c f4 9f 72 2c e6 0e 70 2c 1d 6c 6d 2c
       3.5506142e-12 3.447906e-12 3.4114322e-12 3.373974e-12
0000d0 7f e0 6c 2c e1 aa 6b 2c f2 ef 68 2c 65 df 69 2c
       3.3662237e-12 3.3490365e-12 3.310238e-12 3.32353e-12
0000e0 4c 93 63 2c 58 e7 61 2c 26 e2 60 2c 44 81 63 2c
       3.2340406e-12 3.2102845e-12 3.1957852e-12 3.2330397e-12
0000f0 4d f5 60 2c 01 ab 5b 2c 22 9e 56 2c 6b 8c 54 2c
       3.1968484e-12 3.1216698e-12 3.049901e-12 3.020496e-12
000100 02 3d a5 2d 40 f6 a4 2d e3 0c a6 2d c4 b9 a7 2d
       1.8785421e-11 1.8753998e-11 1.8877738e-11 1.9068198e-11
000110 25 57 a9 2d b0 29 ac 2d be 45 b0 2d da 2b ae 2d
       1.9251776e-11 1.9572649e-11 2.0039855e-11 1.9800984e-11
000120 5b 00 b3 2d 13 69 b4 2d 7c 27 b6 2d dd cb b7 2d
       2.0350102e-11 2.0510293e-11 2.0708539e-11 2.0895225e-11
000130 a6 f5 b7 2d 9f a4 b8 2d 09 b2 b9 2d e9 eb bb 2d
       2.0913781e-11 2.0991485e-11 2.1111128e-11 2.1364204e-11
000140 b5 af 02 2c 78 87 a5 2b a8 cc e6 2b ea bb 92 2b
       1.8571648e-12 1.1761555e-12 1.6399286e-12 1.0426081e-12
000150 a8 fb de 2b 57 48 ab 2b 20 d0 c9 2b b9 6e ea 2b
       1.5843897e-12 1.2170359e-12 1.4339675e-12 1.6657432e-12
000160 6d 56 9f 2b 40 4f ae 2b c0 66 8c 2b c9 fb 8d 2b
       1.1321617e-12 1.238544e-12 9.976117e-13 1.0088537e-12
000170 56 d0 a1 2b c3 c8 c7 2b 46 fb 9b 2b 36 70 7f 2b
       1.1497563e-12 1.4195523e-12 1.1083155e-12 9.0749923e-13
000180 16 a1 8c 31 97 f5 d0 2e 7b f1 10 b1 ff ab 10 b1
       4.0928496e-09 9.5023704e-11 -2.1092024e-09 -2.1052526e-09
000190 59 96 4e 31 f2 8f a9 31 f9 75 99 31 31 31 b9 b0
       3.0062408e-09 4.934912e-09 4.466298e-09 -1.3474503e-09
0001a0 ea e8 78 2e 35 60 07 b2 93 75 dd b1 23 95 d3 2d
       5.659554e-11 -7.879909e-09 -6.445313e-09 2.4054153e-11
0001b0 d7 db ec b1 52 d7 1d 32 76 75 3e 31 5b e4 b2 af
       -6.893497e-09 9.187561e-09 2.7715408e-09 -3.2540268e-10
0001c0 5c bb c7 2d a1 76 c9 2d 85 e1 c9 2d 7e 1e cc 2d
       2.2706885e-11 2.2903736e-11 2.2951205e-11 2.3205656e-11
0001d0 82 97 ce 2d ef 98 ce 2d 0b 91 ce 2d e8 c9 ce 2d
       2.3486772e-11 2.3487405e-11 2.34839e-11 2.3509153e-11
0001e0 45 19 d1 2d 03 79 d0 2d 86 dc d1 2d 54 f5 cf 2d
       2.3771771e-11 2.3700602e-11 2.3858481e-11 2.3642123e-11
0001f0 09 d4 d2 2d 8a a3 d0 2d 7a d0 d0 2d c7 c9 d0 2d
       2.3968398e-11 2.3719488e-11 2.3739444e-11 2.373647e-11
000200 8e 1f 28 3b 51 ae 83 3c 59 6f ea bc 02 ee c2 3c
       0.0025653574 0.016074331 -0.028617548 0.023795132
000210 f6 b8 f2 3c e2 ac a3 b9 91 34 89 bc 9c d1 1c 3c
       0.029629212 -0.0003121859 -0.016748698 0.009571459
000220 db ca 43 bc d2 91 82 bb 84 2c e0 3c 04 ff 65 3a
       -0.01195022 -0.0039846683 0.027364977 0.0008773657
000230 5d 81 ac 3c 20 0b 35 3c 03 b9 05 3d c4 41 c7 bb
       0.021057779 0.011050016 0.032647144 -0.006080838
000240 00 f5 a3 32 b7 6a aa 32 92 41 df b2 72 b1 57 b2
       1.908711e-08 1.9839133e-08 -2.5990435e-08 -1.25549935e-08
000250 d9 07 13 b2 82 5c 16 b3 e2 f9 43 b2 b4 82 87 b1
       -8.5583105e-09 -3.5008732e-08 -1.1407311e-08 -3.9438763e-09
000260 3d 1c a9 2c 0c e1 3f 32 6d 1c 67 33 6e 75 c7 b2
       4.806404e-12 1.1168833e-08 5.3809732e-08 -2.322005e-08
000270 a8 53 63 b3 a2 c0 da b2 3c 2d 54 33 ab 2e fd 31
       -5.292864e-08 -2.546614e-08 4.9401237e-08 7.3685746e-09
000280 66 60 44 bd b4 a6 f4 bc ac f7 c3 bc 73 98 29 3c
       -0.047943495 -0.029864646 -0.02392181 0.010351288
000290 cd 3e 01 bd fe 56 2c 3d f5 61 56 bd b0 6b ed 3b
       -0.031554032 0.04207515 -0.052339513 0.0072455034
0002a0 3a 93 92 bd 5b d3 71 bd b7 c7 01 3d 3d 5a b9 3d
       -0.071569875 -0.059039455 0.031684604 0.09050415
0002b0 c0 12 92 3d 24 dd 2e bd 11 25 84 3d 99 92 8e 3d
       0.071324825 -0.042691365 0.06452382 0.06961555
0002c0 06 31 84 bb a2 9e c7 bb c7 28 8f 3b 98 00 6c 3c
       -0.0040341644 -0.0060919086 0.0043688747 0.014404438
0002d0 c9 35 02 bb e1 ab bc bc a6 be e3 ba 12 c5 68 3c
       -0.0019868484 -0.023031177 -0.0017375543 0.0142071415
0002e0 66 ea 42 3b d0 4b 44 3b b7 ec 27 bc 5f ec 88 3c
       0.0029741763 0.0029952414 -0.010249308 0.016714273
0002f0 46 50 b3 bc 72 8a 88 3a c6 d4 27 3b f0 74 4f bc
       -0.021888863 0.0010417236 0.0025609 -0.012662157
000300 18 ad 69 38 d9 a3 ba 38 86 5b f6 b8 0c db 9f 38
       5.5712735e-05 8.89969e-05 -0.00011747242 7.6225115e-05
000310 d4 15 2b b8 b0 24 11 b8 a8 4e fc b6 ef 37 d0 38
       -4.0789906e-05 -3.4604862e-05 -7.519342e-06 9.928631e-05
000320 e4 c7 e9 b8 3b c9 82 38 ea aa e9 b7 23 aa ee b7
       -0.00011147538 6.236365e-05 -2.7855353e-05 -2.8451037e-05
000330 f4 dd aa 36 ca b1 8b 36 43 b1 a8 b7 e2 01 cb b8
       5.0922336e-06 4.16322e-06 -2.0109705e-05 -9.680145e-05
000340 92 2b c0 32 85 5d c8 32 ef 33 d0 32 5c cd d7 32
       2.2371555e-08 2.3325592e-08 2.4238004e-08 2.512268e-08
000350 a0 1e df 32 7d 63 e6 32 42 08 ec 32 26 c6 f1 32
       2.5974543e-08 2.6820766e-08 2.7477771e-08 2.81462e-08
000360 77 ec f7 32 da 3b fc 32 b3 2b 00 33 82 2c 02 33
       2.8862116e-08 2.9363878e-08 2.9842067e-08 3.0308463e-08
000370 d7 d2 03 33 a4 ea 04 33 5b 11 06 33 9d a5 06 33
       3.0692572e-08 3.094705e-08 3.121509e-08 3.134993e-08
000380 b7 1d a3 3c 5b 7a c7 bc 12 05 8f 3c b3 fa 9a 3c
       0.01991163 -0.024350336 0.017458472 0.01891837
000390 95 98 d0 3c 79 71 c5 bc c5 ee 71 3c ea 5a b3 bb
       0.025463382 -0.02410196 0.0147664 -0.0054734843
0003a0 92 0c 89 bc 7e f8 2a bc e0 0b e7 bc 46 1d 59 3c
       -0.016729627 -0.010435222 -0.028203905 0.013251608
0003b0 5e de 3c ba 2c b8 41 bb 96 c7 6f 3c 0b 5c 02 3b
       -0.0007204766 -0.0029559238 0.014634987 0.0019891288
0003c0 30 36 88 37 29 ae ee 37 1a 4a 82 38 ac 0a 03 38
       1.6237696e-05 2.845291e-05 6.2126855e-05 3.1242773e-05
0003d0 2a 5d 0a 38 4f 92 26 38 16 21 46 38 17 99 31 38
       3.298853e-05 3.9713745e-05 4.7237692e-05 4.2342665e-05
0003e0 f5 77 5d 38 3a e6 2d 37 7d f4 a6 b7 78 5e 1c 38
       5.2802225e-05 1.0365207e-05 -1.990259e-05 3.728128e-05
0003f0 37 12 d6 b7 95 f3 3c b8 4c 7f 73 38 37 07 3a b8
       -2.551927e-05 -4.5049546e-05 5.805427e-05 -4.4352575e-05

encoder.cnn.bias f4 [8]
000000 03 de 8f 29 aa 1c 11 2a 04 81 3c 34 03 cd 49 b2
       6.3889886e-14 1.2888532e-13 1.75558e-07 -1.1746354e-08
000010 e7 ad 98 3c c6 ae e8 3d 9d 67 0a 3d 77 38 14 be
       0.01863761 0.113614604 0.03379022 -0.14474665

encoder.rnn.weight_ih_l0 f4 [128, 8]
000000 9c 33 4b 3c a7 83 dd bd 4c 71 b8 bd 8a db f2 3d
       0.012402441 -0.10816126 -0.09005985 0.1185828
000010 6e 0a 2a 3b 98 34 2c 3d 4f d1 5a bb d7 8f 00 ba
       0.0025946158 0.042042345 -0.0033388918 -0.00049042463
000020 cd 83 58 bc 10 7c c3 3d 69 bf f1 bd d1 e2 66 bd
       -0.0132150175 0.095451474 -0.11804087 -0.056368653
000030 ce fd 10 3e 06 00 01 3d 18 a8 06 be 08 03 fb bd
       0.14159319 0.031494163 -0.1315006 -0.122564375
000040 86 61 ab 3d 8b ce 88 3d 2c 7d 3b 3d 60 12 e8 3b
       0.083682105 0.0668002 0.04577367 0.0070822686
000050 44 a1 da bd 6e 67 fb 3d 00 8f 44 3e 91 0a c1 bc
       -0.1067529 0.12275587 0.19195175 -0.023564609
000060 3a 04 f7 bc 7d e1 93 3d 0b f5 a7 3d 3d de c4 bd
       -0.030153383 0.07220743 0.08201035 -0.09612701
000070 48 5b 10 bd 4a 46 51 bd 90 d7 e7 bb e0 3f c7 bc
       -0.035243303 -0.051092423 -0.0070752576 -0.02432245
000080 59 29 da 3c f2 0c e8 bd d6 93 38 bd 53 e8 35 be
       0.026631044 -0.11330594 -0.045062862 -0.17764406
000090 18 58 33 be bd 55 1c be db ff 2a bd 9d be 36 be
       -0.17514074 -0.15267082 -0.04174791 -0.1784615
0000a0 47 b3 4c bd 53 d8 6e 3c 69 09 25 bd 3a 60 a4 bc
       -0.04997566 0.014577943 -0.040292177 -0.020065416
0000b0 73 50 a4 bd c6 53 24 be 49 96 0e 3e 27 16 7e bd
       -0.08023157 -0.16047582 0.13924517 -0.062032845
0000c0 ee 88 9b 3d 23 43 1c 3e 10 17 d2 3d 2b 63 07 3c
       0.07594477 0.15259986 0.10258305 0.00826339
0000d0 8a 2f 59 bc c3 bb 80 bd 86 83 07 be ac 74 45 be
       -0.013255963 -0.06285813 -0.13233766 -0.19282788
0000e0 a4 aa ea bd d2 08 1a be 1a a0 f0 3d 28 06 22 be
       -0.11458328 -0.15042427 0.11749287 -0.15822661
0000f0 ad 75 2e 3d 55 41 15 3e 3a fb bc 3d e2 f3 f3 3c
       0.042592693 0.14575703 0.09227605 0.029779378
000100 86 b0 3c 3d e6 fa c2 bd e8 93 f0 bd 41 7e fe ba
       0.046066783 -0.09520511 -0.11746961 -0.0019416289
000110 38 b3 24 3d 16 09 07 be e8 f1 f9 bd ef 77 13 be
       0.04020998 -0.1318706 -0.12204343 -0.1440122
000120 1c 1c 8e bd 47 43 75 bd 32 2a 03 be b4 8c bb 3c
       -0.06938955 -0.059878614 -0.12809065 0.02289424
000130 d3 11 57 3d 41 ca a7 bd 69 5e ad bd 09 71 c4 bd
       0.052507233 -0.08192874 -0.08465273 -0.09591872
000140 ca 63 4d be 90 91 14 3e 39 13 e8 3d c5 61 3f be
       -0.20057598 0.14508653 0.113317914 -0.1868964
000150 87 5a 86 bd 76 66 c5 bd 3d 8d 22 be a0 e1 b9 3d
       -0.065602355 -0.096386835 -0.1587419 0.09076238
000160 78 c3 9c 39 17 3f 49 be d3 35 a4 3b cf 73 66 bc
       0.00029900274 -0.19652973 0.005011299 -0.014065697
000170 f0 72 ad bd a0 96 a5 bd f6 af 9a 3d d4 8f 08 be
       -0.08469188 -0.0808537 0.07553093 -0.13336116
000180 04 62 5b bc 87 85 a7 3d 85 3a d4 3d 16 aa db bd
       -0.013390068 0.08179765 0.10362724 -0.10725801
000190 29 24 2e 3a 52 25 e7 bd 6a 1f 10 bd 07 95 80 3d
       0.00066429615 -0.11286415 -0.03518621 0.06278425
0001a0 02 9f 51 bc a4 11 54 bd 56 49 fc bd b5 1e 6f 3c
       -0.012794258 -0.051774636 -0.12318675 0.0145947235
0001b0 f6 3f 4e be 6f 85 4b 3d 89 6f 18 be 08 60 93 bc
       -0.20141587 0.0496878 -0.14886297 -0.017990127
0001c0 dd 50 a0 3d 1b 87 9d 3d 53 bd 54 be d7 f8 8e 3d
       0.078279234 0.07691785 -0.20775346 0.06981056
0001d0 11 66 10 be 41 31 a8 bd b7 72 c6 3d 6a 8a 21 bd
       -0.14101435 -0.082125194 0.09689849 -0.039438643
0001e0 57 65 57 be b1 6f 98 3c ca d0 55 be 2c 33 0a 3e
       -0.21034752 0.018607946 -0.20880428 0.13496083
0001f0 f4 9f bd bd 69 ca ba bd ae 8e c6 bc 04 c4 01 bd
       -0.09259024 -0.09120638 -0.024237957 -0.031681076
000200 fe 75 4c be 7c 84 a5 3d 1f 5c cd 3b 1a 1c 26 be
       -0.19966885 0.0808191 0.006267085 -0.16221657
000210 65 45 5d bd b0 a5 e8 3d 85 6c 7f bd e6 15 a0 3b
       -0.054021258 0.113597274 -0.06235935 0.004885423
000220 97 79 10 be 4d 03 28 bc 51 37 a0 bd 1c 57 dc 3d
       -0.14108883 -0.010254693 -0.07823051 0.10758802
000230 ef f1 7e bd 0d c6 0c 3d 84 31 47 bd 5f c1 20 3d
       -0.062242445 0.034368563 -0.048631206 0.039246913
000240 d5 65 95 3c 51 79 44 be 61 7d 0f be b6 fa f5 bc
       0.018237034 -0.19186904 -0.14012672 -0.030026775
000250 12 2e 13 be 43 a2 1a be 5d 47 0b be b1 06 d4 bd
       -0.14373043 -0.1510096 -0.13601442 -0.10352839
000260 61 db 1d be f9 a4 c8 bc a2 1b cf bc ee 3d 44 be
       -0.15415718 -0.024492728 -0.025281731 -0.1916425
000270 d5 d2 db 3d b0 22 b1 3d 90 58 64 bd f6 99 33 bd
       0.107335724 0.08649194 -0.055748522 -0.043848
000280 ab da 0b be 54 9e 0a be f3 b4 1d be aa 2b cd bd
       -0.13657634 -0.1353696 -0.15401058 -0.10018094
000290 00 74 f2 3d 9e ad 4b be df e0 b8 3d 59 4f 09 bc
       0.118385315 -0.19890448 0.09027266 -0.008380734
0002a0 e5 ee ab 3d 64 7c a2 bc 7e 9e 0e 3c 8d da 81 bd
       0.08395175 -0.019834705 0.00870478 -0.063405134
0002b0 1d db 39 3d dc 23 fa 3c 02 c0 85 bc b4 fc 15 be
       0.04537498 0.030534677 -0.016326908 -0.1464718
0002c0 e0 34 14 be d8 ee 65 bd 81 24 df bd 17 7d 26 3b
       -0.14473295 -0.056135982 -0.108956344 0.002540415
0002d0 40 3e 0d 3e 53 b0 dd 3d b6 5f 10 be c9 d1 b7 3c
       0.13793278 0.10824647 -0.14099011 0.0224389
0002e0 d6 a6 40 be 40 19 26 be 85 1f 29 bd c4 23 e3 3d
       -0.18813643 -0.1622057 -0.041289825 0.11090806
0002f0 df cd c6 bd 43 5a 06 bb e2 9c cd bc 86 d1 ac bd
       -0.097072355 -0.0020500578 -0.025099222 -0.08438401
000300 03 45 b7 3d da d5 f8 bd 98 d6 83 bd 11 b7 8c 3d
       0.0894871 -0.12150164 -0.06437415 0.06870855
000310 5d ca 03 3d 32 89 11 3d ee ab 97 3d 44 cf 38 bd
       0.03217541 0.03553123 0.0740584 -0.04511954
000320 77 c1 f0 bd 8c d1 b0 3d 41 8b 3d be a8 27 d8 3d
       -0.117556505 0.08633718 -0.18510152 0.10554439
000330 27 fd af bc e6 03 eb 3d e7 e2 b0 3d 6e 00 90 bb
       -0.021483017 0.11475353 0.08637028 -0.0043945825
000340 1e fc e1 bd be ef e3 3b fa 8b c5 bd ec 2b 26 bd
       -0.11034416 0.0069560697 -0.09645839 -0.04056923
000350 ef e0 2e bd 26 a5 ff 3d 7a 5b 04 bd b0 5c 41 3c
       -0.042694982 0.124826714 -0.0323138 0.011801884
000360 f8 cc b9 bd f4 ae 81 bd af ba ff bd 09 7f 30 3d
       -0.09072298 -0.06332198 -0.12486779 0.0430899
000370 a4 9c f3 bd 63 66 e3 bd dc 8d 24 bc 2d 8c 2c be
       -0.11895111 -0.11103513 -0.010043588 -0.16850348
000380 3c c0 01 be a6 bc 9e 3c 3a c5 13 be c3 23 d5 bd
       -0.12670988 0.019377064 -0.14430705 -0.10407212
000390 5e 21 15 3e 57 ed 74 bb 44 f2 2b bd cb 13 28 be
       0.1456351 -0.003737291 -0.04197909 -0.164138
0003a0 db 98 25 3d 87 76 11 bd d9 01 40 be 8e 7a 83 bd
       0.040428977 -0.035513427 -0.18750705 -0.0641986
0003b0 47 f5 f2 3b c8 07 f5 bd 4a 50 e7 3d ea 58 06 bd
       0.0074144932 -0.11964375 0.11294611 -0.03279964
0003c0 0f 5e dc 3c 73 2b d0 3d a2 52 28 be 29 07 38 be
       0.02690032 0.10164537 -0.16437772 -0.17971481
0003d0 50 c9 c0 3d 13 05 aa bd eb 64 06 be 6c 4e 0e 3e
       0.09413397 -0.08301749 -0.13124435 0.13897103
0003e0 07 c2 c9 bc 40 74 22 3e 98 11 45 bd 7c 8c f9 bb
       -0.024628652 0.15864658 -0.04811248 -0.007615624
0003f0 ba d5 14 be b0 5e 81 bc ca fc e2 bd 02 a2 2a bb
       -0.14534655 -0.01579222 -0.11083372 -0.0026036506

encoder.rnn.weight_hh_l0 f4 [128, 32]
000000 9e ef db bd 9c 4e e7 bd 1d ff 21 be 0d 28 d1 bd
       -0.10739063 -0.112942904 -0.15819974 -0.10212717
000010 f4 ea d6 bd d5 76 f1 3c 64 d5 10 3e 54 87 83 bd
       -0.104940325 0.029475609 0.14143902 -0.06422296
000020 f1 62 3b be d3 58 2d be e2 11 12 be af eb 34 be
       -0.18299462 -0.16928415 -0.14264634 -0.17668031
000030 e9 e6 08 be 3a a2 d2 3c 7f 48 70 bd 94 88 e8 39
       -0.13369335 0.025712121 -0.058662888 0.00044352247
000040 cd 64 f4 bd f6 90 12 3d 85 10 82 bd eb e2 98 bd
       -0.11933289 0.035782777 -0.06350807 -0.07465156
000050 58 b0 26 be f6 28 dc bc dd ae ad bd 99 c7 c4 3d
       -0.16278207 -0.026875 -0.08480618 0.09608383
000060 bf 2d 09 bd 36 d6 98 bd 32 88 04 3e 29 0c cb bc
       -0.033490892 -0.074627325 0.1294258 -0.024786072
000070 68 ba 60 3d e6 32 a3 3d 66 bb f1 3c 96 16 42 3e
       0.05486527 0.079686925 0.029508304 0.18953928
000080 64 83 29 3c f7 c3 a6 bd 4f 06 5f bd 92 fc 0d be
       0.010346267 -0.08142846 -0.054449376 -0.13865879
000090 65 87 0f be bd 60 a2 bd fa fc 3c 3c aa df c2 bd
       -0.14016493 -0.079286076 0.011534924 -0.09515317
0000a0 f7 e8 b9 bd 2c 63 e5 bd 92 48 13 3e 46 07 33 bd
       -0.09077638 -0.11200556 0.14383152 -0.04370811
0000b0 25 49 de bd ab e3 02 be a9 e4 f4 3d a1 4c df bc
       -0.10853795 -0.12782161 0.11957676 -0.02725822
0000c0 8d ae de bd 2b 1b 51 3d 1d 6f 40 3d 7a 05 a0 bd
       -0.10873137 0.0510513 0.046980966 -0.078135446
0000d0 7d cf c9 bd 42 9f 00 3e 1c 74 77 bd d9 95 7d bd
       -0.098540284 0.12560752 -0.060413465 -0.061910484
0000e0 a2 32 be 3d 4d 88 47 bd 9e 4e 28 bd 8e 87 75 bc
       0.09287001 -0.04871397 -0.0410906 -0.014985932
0000f0 34 d5 eb 3d 57 5a 9f 3d fd 0d 25 be c2 91 3a bd
       0.11515275 0.07780903 -0.16118617 -0.04554916
000100 94 c4 da 3d 2f 6d 0b bc 59 22 eb 39 93 9b 1c 3e
       0.106820256 -0.008509918 0.00044848284 0.15293722
000110 0b 20 30 be 8e aa e0 bd 1e 50 8a 3d 61 ef 31 3e
       -0.17199723 -0.10970031 0.067535624 0.17376472
000120 33 4c d2 3d c8 33 92 bc 21 5b dc 3d 68 eb 9d bd
       0.1026844 -0.017846957 0.10759569 -0.07710916
000130 ee c9 7b bd 47 82 b6 bd 2f 36 7b bc 46 f2 78 bd
       -0.061471872 -0.08911567 -0.015332743 -0.060777925
000140 9b ab 04 bd 33 95 ab 3d 2c e7 31 be 33 29 d6 3c
       -0.03239022 0.08378067 -0.17373341 0.026142692
000150 d2 a9 1f 3e 49 e8 04 be 7c 14 70 3d d8 fe 02 be
       0.15592125 -0.12979235 0.058613285 -0.12792528
000160 2b 50 cb bd f4 ee 18 be 72 5d f7 3d f3 f8 d7 3d
       -0.099274 -0.14934903 0.1207837 0.1054553
000170 61 db 06 3e 33 8c 54 3c bf 6e 17 3e 6c cc 5b 3d
       0.13169624 0.012972879 0.1478834 0.05366175
000180 f3 56 f5 3c 59 af 11 3e f2 2a 3e 3d 10 93 a4 3d
       0.029948687 0.14227046 0.046427675 0.080358624
000190 f0 a0 79 bd ae dc 2c 3e 2d 3a d9 bd cd 43 ba 3c
       -0.060944498 0.16881058 -0.10606799 0.022737408
0001a0 ba 7c 09 3e bd 93 8f bc d9 6f 11 bd 27 9e a1 bd
       0.13426486 -0.017526502 -0.035507057 -0.07891493
0001b0 7f 0d 92 3d c1 0e 30 3c 19 44 cc bc a3 ba 8e bb
       0.071314804 0.010745705 -0.024934815 -0.004355745
0001c0 1e 25 0d 3c 00 3d fe bd 9b 3b d1 3d 49 08 ec 3d
       0.008614806 -0.124139786 0.10216447 0.11525018
0001d0 a1 1d 3b be 6a 66 a7 3c 20 28 0a 3e 55 5c 04 3e
       -0.18273021 0.020434577 0.13491869 0.12925847
0001e0 c1 e0 08 3e ca c5 47 3d 47 4d 3f be d7 b5 96 bd
       0.13366987 0.04877261 -0.18681823 -0.07358902
0001f0 a0 1e 72 bb de 29 1b bd 52 b3 2c be 54 dc a1 bd
       -0.0036944523 -0.037881725 -0.1686528 -0.079033524
000200 f5 33 b0 3b ae ab d9 bd 31 1c 0a 3d f1 ab 96 3d
       0.0053772875 -0.106284484 0.03371829 0.07357014
000210 6d 70 e7 bc 1d b5 10 3e 72 24 ad 3d 42 c4 75 bd
       -0.028251851 0.14131589 0.08454217 -0.06000162
000220 5c 1b 61 3c 19 0f 06 3e eb ca d0 bd c9 4f 2b be
       0.013739433 0.13091697 -0.101949535 -0.16729654
000230 44 5b 3f bd b4 dc 42 bd e2 f8 b0 3d 24 1a 28 3d
       -0.046717897 -0.04757376 0.08641221 0.041040555
000240 56 c3 0e 3e 70 c0 21 3e a9 72 c3 3c 17 ed 38 3e
       0.13941702 0.15796065 0.023858385 0.18059193
000250 fa 63 31 3d 2f 7a c7 3d 51 5f a7 3d 73 6d e3 3d
       0.043308236 0.097401015 0.08172477 0.1110486
000260 ff e9 d3 3c 68 79 7d 3b f9 40 20 3d 79 53 7b 3d
       0.025868414 0.00386771 0.039124463 0.061358903
000270 d5 5e 87 bc a3 52 90 3d 2c 0b 8b bd d3 fd 29 3e
       -0.016524712 0.07047012 -0.0678924 0.16600733
000280 69 22 22 be 70 0d 32 3e 23 8f eb bd ee c5 d4 bd
       -0.15833439 0.17387938 -0.115019105 -0.103893146
000290 8a 71 23 3e 45 b0 b0 3d ab 8a f4 bb bf 9d 2d be
       0.1596128 0.08627371 -0.0074628196 -0.16954707
0002a0 c1 dd c9 bc b5 99 c3 3d cc 08 02 3e 71 67 84 bd
       -0.024641873 0.09550802 0.12698668 -0.064650424
0002b0 9a 0f 7b b9 bb e4 98 3d b5 e0 4e be a0 73 18 3d
       -0.00023943037 0.07465502 -0.20202906 0.037219644
0002c0 3a 9e 35 bc 1c c7 03 3e 69 a8 40 3e d8 ee 2a 3e
       -0.011085087 0.12868923 0.18814243 0.16692674
0002d0 3a 96 bf bd a8 30 87 3d 3d d7 89 3b ba d5 d3 bd
       -0.09354825 0.06601077 0.0042065666 -0.103434995
0002e0 25 59 f3 3d 5e 40 2a 3e 55 33 8d bd 7d 7d d8 3d
       0.11882237 0.16626117 -0.068945564 0.1057081
0002f0 0f c0 0f 3e 69 bd ef bd 34 e4 1f be 8f 5d f7 bd
       0.14038108 -0.11706049 -0.15614396 -0.12078392
000300 5f bb b1 bd 60 4b d6 3c 46 a6 84 bd 1f fb 16 3e
       -0.08678316 0.026158988 -0.06477027 0.14744233
000310 9d 2a 04 3e 00 2f 18 3e 18 a0 3d 3e b4 78 13 be
       0.1290688 0.14861679 0.18518102 -0.14401513
000320 b6 7d a8 bc 80 62 04 3e 63 f3 09 be 56 b3 ab 3d
       -0.020567756 0.129282 -0.13471751 0.08383815
000330 6c f7 df 3d b2 91 31 3d d4 aa d1 bd 68 1c 85 3d
       0.10935864 0.043351837 -0.10237661 0.06499559
000340 76 b4 5a 38 47 71 01 3e 0f ba 20 bd c0 c6 8a 3c
       5.2143318e-05 0.12640868 -0.03923994 0.016940475
000350 6a 05 54 3d d0 79 dd bc 9a 56 8d 3d a5 03 ec bd
       0.051762976 -0.027035624 0.069012836 -0.11524133
000360 de a1 c8 3c c3 ef 1a 3e 5b 30 e2 3d 04 13 c8 3d
       0.024491247 0.15130524 0.11044379 0.09769252
000370 a5 74 17 3d b5 61 49 bd ce 28 7d 3d ff ba f3 3c
       0.036976475 -0.049165446 0.061806493 0.029752253
000380 bd ad 77 3c 22 50 de 3c 70 f1 09 be 8a e6 fe bd
       0.015117106 0.02713782 -0.13471007 -0.124463156
000390 84 ac b2 bd a9 c7 18 be 3f 21 05 bc 4a fe b8 3d
       -0.08724311 -0.14919914 -0.008125602 0.09032877
0003a0 7b 3f 0e be 78 7a 99 bc 55 11 25 3b 45 14 c4 bc
       -0.13891403 -0.018735155 0.0025187333 -0.023935447
0003b0 91 bc 9c 3c e4 ef 34 be 99 bf 0f be 25 e4 14 be
       0.019132884 -0.17669636 -0.14037932 -0.14540155
0003c0 73 f7 9e bd bc 23 da 3c 73 57 1f bd 36 f9 2a 3e
       -0.07762041 0.026628368 -0.038901757 0.16696629
0003d0 ff a7 af bc 7a ac f4 bd 06 a6 0b 3e 47 f0 fa bd
       -0.021442411 -0.1194696 0.13637552 -0.122528605
0003e0 a9 40 12 3e e5 28 16 3e ab 64 c6 3d 50 a0 11 be
       0.14282478 0.14664038 0.0968717 -0.1422131
0003f0 0c 54 06 3e ef 11 9f 3c 7d 9b 90 3c f2 65 e6 3d
       0.13117999 0.019417731 0.017652268 0.11249913

encoder.rnn.bias_ih_l0 f4 [128]
000000 6f 08 ce bd 4d 92 de 3d d7 be 97 3d 7c 18 e6 3d
       -0.10060202 0.108677484 0.07409447 0.11235139
000010 1f 9e f5 bd 3b 52 2b 3d f0 8e f6 3c 6b b3 9d 3c
       -0.1199305 0.041826468 0.030097455 0.019250592
000020 d0 ee df bd a2 a0 2a 3d df 06 08 3d 73 05 61 3c
       -0.10934222 0.041657098 0.033209678 0.013734209
000030 6a 6e e0 39 6e 45 3a 3e 08 e7 cb 3d 4c ad ae 3d
       0.00042806874 0.18190548 0.09956175 0.085291475
000040 b2 cd ef 3a 4a 90 63 bd 68 05 b4 3d eb ee a8 bd
       0.0018295555 -0.055557527 0.08790094 -0.08248695
000050 72 51 43 3d 63 2c 11 3c fd 99 2e 3d df 03 ae bc
       0.047685094 0.00886068 0.042627323 -0.02124208
000060 da 20 93 bd a6 3a 0d 3e 48 39 16 be fd bf 1a be
       -0.07184 0.13791904 -0.14670289 -0.151123
000070 8d 7d c9 3d ac 70 09 be f0 93 34 3e 60 17 9f 3c
       0.098384 -0.13421887 0.17634559 0.019420326
000080 4a 61 e2 3d 98 dd 32 3e 5e 5a ed 3d b4 42 b9 3d
       0.11053713 0.17467344 0.11589502 0.09045926
000090 65 ad 39 bd af 2b b8 3d 3a 51 0c 3d df 98 30 3e
       -0.045331378 0.08992707 0.03425715 0.17245816
0000a0 a3 44 cb 3d e5 8f a0 3c 1e 8b 0f 3e 3d 7d 6f bd
       0.09925201 0.019599864 0.14017913 -0.058469046
0000b0 9c fa f0 bc b7 07 ab bd 9f 29 bc 3d bf 1f a9 bd
       -0.029416375 -0.08351081 0.09187626 -0.08258008
0000c0 d3 a6 1e 3e 38 8f 79 3c ab ce a9 bc 3a 59 9d bc
       0.15493326 0.0152319 -0.02072843 -0.019207586
0000d0 05 bc 07 3d f3 9c ab 3d b1 b4 bf bd 43 12 c8 bd
       0.033138294 0.08379545 -0.09360636 -0.09769108
0000e0 5e b7 1f 3e ce 35 f8 bd 7b f0 0e be 27 fa 3a 3c
       0.15597293 -0.121196374 -0.13958924 0.01141218
0000f0 7f 32 c9 3c 1a ec 4b 3d be dd 06 3d 9e 6c 7f bd
       0.024560211 0.04978571 0.032926314 -0.062359445
000100 19 d7 f2 bd 03 43 22 be d1 f2 dc 3d 0e 85 c0 3d
       -0.11857433 -0.15845875 0.10788501 0.09400378
000110 35 8a 34 3d e7 19 48 3e 0b f3 86 bd e7 82 f2 3d
       0.044077117 0.19541131 -0.065893255 0.11841374
000120 61 21 5c bd 10 a0 13 bd 5e f1 cf 3d 41 98 29 bc
       -0.05374277 -0.03604132 0.10153459 -0.010351242
000130 9c 1b 3d be ce ab 38 bd 65 9e 0c 3e 01 33 ec 3b
       -0.18467563 -0.04508572 0.13732298 0.0072082286
000140 22 42 e6 bc e0 91 ef 3d 81 c6 1c 3e ad 87 69 3d
       -0.028107706 0.11697745 0.15310098 0.057014156
000150 22 2c 79 bd ff 03 98 ba 59 0e 14 3d cd d2 03 be
       -0.060833104 -0.0011597871 0.036146495 -0.12873383
000160 3d a7 0c 3e 25 4e 6e 3c a0 53 1f be 76 af be 3d
       0.13735671 0.014544998 -0.15559244 0.0931081
000170 e6 e2 f4 bc e6 fb 03 3e 7c ae 3b be 9e b8 ca bc
       -0.02989335 0.1288906 -0.1832828 -0.024746235
000180 cf d9 e1 bd 47 04 56 3e e8 a3 96 bd c0 90 55 3e
       -0.11027872 0.20900069 -0.073554814 0.20855999
000190 4f 51 dc 3d 7f 39 8b 3d 3f 56 d3 bd 18 a7 ad bd
       0.10757696 0.06798076 -0.103191845 -0.08479136
0001a0 8a 25 93 bd f6 18 a9 3d 8d af 0d be 94 87 a7 3d
       -0.071848944 0.08256714 -0.13836499 0.08180156
0001b0 62 e7 93 3d 8c c0 3f 3e bd c0 10 3d 8d 9d 4c 3e
       0.07221867 0.18725795 0.03534006 0.19981976
0001c0 8d 77 a8 bd 3d 16 3b 3e 5c ae 7f 3d 42 9d 2f 3e
       -0.082259275 0.18270202 0.06242214 0.17149833
0001d0 0c dc e9 bc ff 0e 0f be 30 29 4a 3e cb 51 25 bb
       -0.02854731 -0.13970564 0.19742274 -0.0025225754
0001e0 3d 7f 93 bc a0 85 c4 bd a7 da a8 3d fa 60 5f 3e
       -0.018005008 -0.095957994 0.082448296 0.21814337
0001f0 84 10 84 3d b8 7f 50 bd 77 7a 12 3e eb 1c b1 bd
       0.064484626 -0.050903052 0.14304529 -0.08648094

encoder.rnn.bias_hh_l0 f4 [128]
000000 d2 48 3a 3c 27 ef fa 3c 43 e4 54 3d 07 fa 69 3c
       0.011369901 0.030631615 0.0519755 0.014280803
000010 17 4f f0 3d 01 dc c1 bd b9 19 05 bd 2e 8a 93 3d
       0.11733835 -0.094657905 -0.032495234 0.0720409
000020 24 f0 b9 bd 34 18 9a 3d 2f ed 03 be 2f c3 17 3e
       -0.09079006 0.07524148 -0.12883447 0.1482055
000030 fb 11 1d be 1f f7 4b 3d e6 4d cf 3d 23 03 81 3b
       -0.1533889 0.04979622 0.1012228 0.0039371415
000040 c6 48 39 3e 5a 99 d9 3d 96 fc 86 bd 90 fe 1b 3c
       0.18094167 0.106249526 -0.06591146 0.009521142
000050 11 e2 0e be bc b7 0b be 73 7e e7 3d 41 4c df 3c
       -0.13953425 -0.13644308 0.11303415 0.02725804
000060 ea 6f c7 bc 85 e6 d2 3d fb ac 12 3e f3 06 da bd
       -0.024345357 0.10297874 0.143238 -0.10645857
000070 fd 46 19 3e df 73 df bd d6 f5 c4 3d 51 b2 b4 3d
       0.14968486 -0.109107725 0.09617202 0.08823074
000080 b0 11 ae bd 4a 59 a9 3d 91 d5 1d be 51 dd ca 3d
       -0.084994674 0.08268984 -0.154135 0.09905494
000090 f1 a3 26 bd 76 4e c6 bd 58 c7 28 3e 12 73 b2 3d
       -0.04068369 -0.09682934 0.16482294 0.08713354
0000a0 83 01 7f 3d 96 73 20 3d 2f c8 02 3e 65 fb 30 3e
       0.0622573 0.03917273 0.12771676 0.172834
0000b0 e9 c2 fe 3d cf 49 1a 3e b1 f3 e2 3d ef df 23 3e
       0.1243952 0.15067218 0.11081637 0.16003393
0000c0 b2 08 aa 3d 36 e2 d4 bc 50 d0 19 3c 38 90 d2 3d
       0.0830244 -0.025986772 0.0093880445 0.10281414
0000d0 12 ed b3 bd 37 38 05 be 10 ff 23 3e 89 60 00 3e
       -0.08785452 -0.13009726 0.16015267 0.12536825
0000e0 98 0c 01 3e cb 0f 11 be e7 ed f4 bd a5 5d d1 3c
       0.1260246 -0.14166181 -0.11959439 0.025557349
0000f0 06 36 81 bd 9f 40 ec bd 91 32 0f be 02 36 68 bd
       -0.06309132 -0.11535763 -0.13984133 -0.05669213
000100 fd 22 05 3e cf 1c 97 bd 8c 46 f4 3d 59 e5 e4 bd
       0.13001628 -0.07378542 0.11927518 -0.11176557
000110 db e9 21 3e 5a 98 47 3d f0 95 4d bd 4f 5a 0b bd
       0.15811865 0.04872928 -0.05019182 -0.03402167
000120 0c a9 ec 3d 53 5c 09 bb 2f d7 82 3d 04 9f 8e bd
       0.11555681 -0.002095957 0.06388699 -0.069639236
000130 93 75 d4 bd ee 1f e1 bd 5b 27 15 be 1e 12 76 bc
       -0.10373988 -0.10992418 -0.14565794 -0.015018968
000140 86 cd b5 3c d2 28 1e be 54 be 22 be 06 be 1b 3e
       0.022192728 -0.15445259 -0.15892917 0.15209207
000150 05 67 fb bd 2b 7d 33 3d b3 d3 38 3e 3b 62 27 bd
       -0.12275509 0.04382054 0.18049507 -0.040865164
000160 80 3c 88 bb 92 81 05 be fb 69 aa bd 7e 1d 22 bd
       -0.004157603 -0.13037708 -0.083209954 -0.039578907
000170 90 3d 13 bd 68 79 d3 3d 1b d4 10 be 28 3b 24 be
       -0.035947382 0.10325891 -0.14143412 -0.16038191
000180 67 bc f4 bd 09 b7 53 3e 12 a6 83 3d 12 11 14 bd
       -0.119499974 0.20675291 0.0642816 -0.036149092
000190 2b 64 47 3d 9f b8 92 bd 5e c9 a5 bc 88 16 48 3d
       0.048679512 -0.0716412 -0.02023762 0.048849612
0001a0 33 d9 4c 3e 55 b9 3d bd b3 36 06 3d 38 f2 cf 3c
       0.2000473 -0.046319325 0.03276701 0.025384054
0001b0 e8 79 14 bd c9 ec 03 3e 8a 38 14 3e d3 cc bd bd
       -0.03624907 0.12883295 0.14474693 -0.09267583
0001c0 32 41 31 3d 89 3d 56 3d 07 59 61 3e a8 49 10 3d
       0.043275066 0.05230478 0.22006617 0.035226494
0001d0 19 56 98 bd df f5 2f bb f4 a9 13 bd 61 95 45 3e
       -0.07438297 -0.0026849431 -0.03605075 0.19295265
0001e0 4b 78 e0 bc 31 45 12 3e 21 25 e2 3d fd 43 ec 3d
       -0.02740111 0.14284207 0.11042238 0.11536405
0001f0 70 71 e7 3d 23 19 72 3e ee 18 05 be 7b 9f 45 3e
       0.11300933 0.23642401 -0.12997791 0.19299118

decoder.rnn.weight_ih_l0 f4 [256, 32]
000000 2b e0 42 be 5f 27 cd 3d 6a 38 c6 3c d7 a8 0a bf
       -0.19030826 0.10017275 0.024196822 -0.5416388
000010 bd 85 f0 3d 44 a6 4d 3d 59 af 25 3e 01 ad 99 be
       0.117442586 0.05020739 0.16180171 -0.30014804
000020 65 83 69 be 93 e7 1a be 2a 7c ab be 01 32 f5 bd
       -0.2280403 -0.15127401 -0.33493167 -0.11972428
000030 07 e0 3a be e0 2e 55 be 06 90 4b be a8 15 8b 3e
       -0.18249522 -0.20818663 -0.1987916 0.2716496
000040 41 c5 25 3e e0 7c d6 3e bf 39 8b 3e 85 b2 b0 3e
       0.16188528 0.41892147 0.27192494 0.345112
000050 f3 b0 c2 be 14 dd 82 be 80 c8 52 3e a5 bb 8b be
       -0.38025627 -0.25559294 0.20584297 -0.272916
000060 be 81 1a bf 4d f2 3c 3e 0b f6 58 be 33 58 0f 3e
       -0.6035422 0.18451805 -0.21187608 0.13998489
000070 be 47 a3 3e 8e cf b5 3e fe b4 00 be 7e 4d aa 3e
       0.31890672 0.35509914 -0.12569043 0.33262247
000080 aa e1 96 bd 5e 39 42 3e 07 95 cc bc e0 ba a5 be
       -0.07367261 0.18967196 -0.024973406 -0.32369137
000090 05 5c 74 3e b4 dc 9b bc 48 7f 37 3e 84 e2 85 be
       0.23863228 -0.019026138 0.17919648 -0.2614938
0000a0 73 62 46 bd 14 51 49 be 10 35 5d be 78 18 3a be
       -0.048433732 -0.19659835 -0.21602273 -0.18173397
0000b0 bd 5c 73 be ca a1 00 be 35 5b f5 bd 90 97 d1 3e
       -0.23765846 -0.12561718 -0.11980287 0.40935946
0000c0 8a 52 4b 3e f9 7a 97 3e e4 1d c4 3d 16 77 7b 3e
       0.19855705 0.29586008 0.09576014 0.24557146
0000d0 7f 38 e4 be 92 e7 c2 be db 0c b8 3d 78 ad 8a be
       -0.44574353 -0.380673 0.08986827 -0.2708547
0000e0 38 84 04 bf b0 69 0e 3e 42 f4 89 bd d7 62 9e 3d
       -0.5176425 0.13907504 -0.067360416 0.07733696
0000f0 f8 28 00 3f 03 ab b0 3e fc 8c 7c bc 1b 03 48 3e
       0.50062513 0.34505472 -0.015414473 0.19532435
000100 d8 17 73 be ca 49 70 3e b2 7c db bd 1c e4 24 be
       -0.23739564 0.23465648 -0.10717143 -0.16102642
000110 33 bd 8c 3e e7 b8 b8 3d f4 53 c0 3c a8 ef 49 be
       0.27488098 0.09019642 0.023477532 -0.19720328
000120 d6 2c 04 be d4 89 ac be 1c 06 8e be cf 64 43 be
       -0.12907729 -0.33698905 -0.27739036 -0.19081424
000130 f4 68 de bc 1f fb a5 bd e6 90 54 be b8 26 82 3e
       -0.027149655 -0.08104538 -0.207584 0.25420165
000140 99 0a 38 3d 39 f0 ca 3e 2d 10 0c 3e 0f ea d1 3d
       0.04493198 0.396364 0.13678046 0.10249721
000150 d4 f8 af be 27 7c 88 be 75 3c 26 3e 99 3a 34 be
       -0.34369528 -0.2665722 0.16234 -0.17600478
000160 39 12 13 bf bc 93 43 3e be af 6b be e5 c9 7f 3e
       -0.5744968 0.19099325 -0.23016259 0.2497936
000170 8b 0c 0b 3f 27 d8 a8 3e 5a d0 06 be bd 05 91 3d
       0.54316014 0.3297741 -0.13165417 0.070811726
000180 49 ba 01 be a9 b6 9d 3d 0d 25 05 be 5a c0 b0 be
       -0.12668718 0.07700855 -0.13002415 -0.34521753
000190 68 93 2c 3e ea 75 ee 3d 01 ab 19 3e ab ec be be
       0.16853106 0.11643584 0.15006639 -0.37289938
0001a0 30 f4 1b bd 56 72 6e be 3c 6c c5 be b5 41 b9 bc
       -0.038074672 -0.23285803 -0.3855914 -0.02261434
0001b0 43 45 57 bd c8 f3 59 be 47 e3 97 be 6b 52 71 3e
       -0.052556287 -0.21284401 -0.29665586 0.23566596
0001c0 08 46 0d 3e a2 3b d8 3e 69 a5 a0 3d 5c 68 df 3d
       0.13796246 0.42232996 0.078440495 0.10908577
0001d0 58 63 96 be 98 27 9f be a5 5b 9e 3d 7c a4 fb bd
       -0.29372668 -0.31084895 0.077323236 -0.12287232
0001e0 29 dd 12 bf a5 4d c6 3d e7 7d 39 bd be 90 8d 3e
       -0.57368714 0.09682778 -0.045286085 0.27649492
0001f0 03 9c e8 3e a2 ce 79 3e 63 d9 75 be 52 c2 ff 3d
       0.45431527 0.2439523 -0.24008708 0.124882355
000200 6a c9 6d bd 9f b8 b1 3d 5b a9 4c bd 8e e4 8b be
       -0.05805341 0.08677792 -0.049966197 -0.2732281
000210 49 a2 9b 3e b5 fd 98 3d 41 ce 45 3e 22 2d 79 be
       0.3039725 0.07470266 0.19316961 -0.24333623
000220 30 ff 0e be 09 cf 37 be 1a 8d 47 be 66 0a 09 be
       -0.13964534 -0.17950071 -0.1948742 -0.13382873
000230 77 2b 94 bd c9 31 38 be 0d 39 2c be 1b fa b2 3e
       -0.07234853 -0.17987742 -0.16818638 0.3495644
000240 c8 61 18 3e 8b 1e f2 3e 86 d0 98 3d 98 60 72 3e
       0.1488105 0.47288927 0.07461648 0.2366966
000250 92 14 a9 be 41 6c 9a be 57 0e 8b 3c 41 f7 68 be
       -0.33023506 -0.30160716 0.016974611 -0.2275057
000260 e5 12 0c bf 38 7a 0a bc 9a 96 25 be 3d 79 c9 3d
       -0.5471633 -0.008451991 -0.16170731 0.098375775
000270 bc b4 c2 3e c1 44 81 3e d3 77 57 be 73 c1 9d 3e
       0.38028514 0.25247768 -0.21041803 0.30811653
000280 54 48 b1 bd dc 8f ef 3d 2d 43 d4 3c ad 7a c7 be
       -0.086563736 0.11697361 0.025910938 -0.38960782
000290 db 7b 4f 3e 84 31 3b 3e 27 09 e8 3d dd 91 9e be
       0.20262091 0.18280607 0.11329871 -0.3097066
0002a0 6e 7a 03 3c 19 45 a7 be 2a 64 a4 be f4 e6 1e be
       0.008024795 -0.32669905 -0.3210767 -0.15517789
0002b0 b7 c4 8a be 7a 2b 5f be 50 5c fa bd ed 82 d0 3e
       -0.27103207 -0.21793929 -0.122246385 0.40724888
0002c0 12 f1 eb 3c 71 62 9e 3e e9 ee 30 3e 25 77 28 3e
       0.028801475 0.3093448 0.17278637 0.164517
0002d0 6b d2 d2 be 0e e9 9d be 6b d1 01 3e 46 96 a0 be
       -0.4117616 -0.3084187 0.12677543 -0.3136465
0002e0 fb fb 07 bf 90 72 54 3d d7 1a 12 be 70 b4 8a 3d
       -0.53118867 0.051867068 -0.14268051 0.06772697
0002f0 32 d7 db 3e a1 a6 91 3e 94 0a 2b be f6 40 1a 3e
       0.42937618 0.2844744 -0.16703254 0.15063843
000300 48 c7 58 be 1f 96 12 3d f4 ac a7 bd 5c df 0c be
       -0.2116977 0.035787698 -0.08187285 -0.1375708
000310 c4 9d 25 3e 50 46 33 3d a0 89 b9 3d c2 48 c3 be
       0.16173464 0.043768227 0.09059453 -0.38141447
000320 3f e6 00 be ab 1a 07 be 8a 13 48 be d1 02 d8 bd
       -0.12587832 -0.13193767 -0.19538704 -0.10547412
000330 fe 09 2b bd 6a d0 4d be 01 02 0b be c0 15 a9 3e
       -0.041757576 -0.20099035 -0.13574983 0.33024406
000340 c5 5c d8 3d 6c 76 78 3e 33 a0 94 3d 62 d5 d9 3d
       0.105645694 0.24263924 0.07257118 0.10636403
000350 34 d8 d2 be 12 6f 99 bd a4 8c a0 3d c3 2e 27 be
       -0.41180575 -0.07491888 0.07839325 -0.16326432
000360 de 83 45 bf 7b 40 4d 3e 4b cb 87 bc c1 1e f1 3d
       -0.7715434 0.20044129 -0.01657643 0.11773444
000370 60 09 11 3f f5 98 b6 3e df b3 4f be 14 22 80 3e
       0.5665493 0.35663572 -0.20283459 0.25026
000380 e4 39 18 be 56 3f 8a 3e 34 00 12 bd f3 33 d1 bd
       -0.14865834 0.27001446 -0.035644725 -0.10214987
000390 c7 70 01 3e 1f 97 15 3e 87 b3 e2 3d 18 dc 13 be
       0.12640677 0.1460843 0.110693984 -0.14439428
0003a0 aa f9 3f be e6 a1 20 be 56 91 95 be 53 67 df bd
       -0.18747583 -0.1568676 -0.29212445 -0.109083794
0003b0 37 88 92 be 32 74 35 be 5e d6 50 be 1e 95 08 3e
       -0.2861955 -0.17720106 -0.20394275 0.13338134
0003c0 cd a8 88 3e 5f 99 a0 3e 2a ab 39 3e c8 c2 23 3e
       0.26691285 0.31367013 0.181317 0.15992272
0003d0 4f 1a 9e be 73 af cc bd b8 40 4b 3e 7c 08 9e be
       -0.30879447 -0.09994402 0.19848907 -0.30865848
0003e0 73 d2 14 bf 59 03 44 3e 64 15 e3 bd 45 ba 09 3e
       -0.5813362 0.19141902 -0.11088064 0.13449962
0003f0 df e2 cd 3e ea 96 4c 3e 28 74 2d be 5c 4e 25 3e
       0.4021215 0.19979444 -0.16938841 0.16143173

decoder.rnn.weight_hh_l0 f4 [256, 64]
000000 08 56 af bd e6 21 9c bd b0 39 39 bd 5d 7b e6 3d
       -0.08561331 -0.07623653 -0.04522103 0.112539984
000010 4d 61 b2 3d 46 3c b5 bd 24 8b 0a bd 75 0b 33 bd
       0.08709965 -0.08849387 -0.0338241 -0.0437121
000020 c8 a6 38 bc 2a 6e 28 3d 69 18 52 bd 6c 2f c8 bb
       -0.0112702325 0.041120686 -0.05129281 -0.0061091688
000030 18 8c 47 3c 3e 6b 31 3d f7 c8 a8 bb fc 3d 93 3d
       0.012179397 0.043315165 -0.00515091 0.07189557
000040 54 4f b3 bd 73 2b 8e 3d 72 3a 59 bd 97 a4 64 bb
       -0.08755365 0.06941881 -0.053034253 -0.0034888142
000050 45 38 f7 3d 19 f1 62 3d 11 c0 21 bb 07 e6 f4 bc
       0.120712794 0.05540571 -0.002468113 -0.029894842
000060 e9 b5 1a 3d f8 fc 00 be 6f 63 28 3c 8a b5 03 3d
       0.03777114 -0.125965 0.010277613 0.03215555
000070 63 cb 07 bd 80 c4 82 bd a8 c7 eb 3d d7 c3 15 3e
       -0.03315295 -0.06385136 0.11512691 0.14625488
000080 4d 5a d9 bd 56 aa 7d 3c 15 bc 34 bd e1 c5 da bd
       -0.10612927 0.015482506 -0.04412468 -0.10682274
000090 07 c1 22 3d fb 90 7e 3c 3c a2 e9 bd 90 86 7b 3c
       0.039734866 0.015537496 -0.11407897 0.015351906
0000a0 fb 7b 88 bc 13 b1 16 3e 92 5c cc bd 09 9c 00 3c
       -0.016660681 0.14715986 -0.09978594 0.007849702
0000b0 25 e1 1b 3e 03 0e 9d bb a6 6b e7 bd a3 c0 89 3a
       0.15222605 -0.00479293 -0.11299829 0.0010509681
0000c0 54 c6 3d bd 56 3f 1c bd bf 12 a4 3c 44 c7 bd 3d
       -0.04633172 -0.03814634 0.02002847 0.092665225
0000d0 76 b6 e5 bd 0f c5 9e 3d df 6e 3b 3d 5c e6 ae 3d
       -0.11216442 0.0775243 0.04576003 0.08540031
0000e0 00 8c 1a 3e 8f 8d a3 bc 0f 3b 3c 3d 9a a4 46 3d
       0.15092468 -0.019964961 0.04595476 0.04849682
0000f0 4c c6 34 bd b0 cd 10 3e 68 2e 4d bd 6c 1e 06 3e
       -0.044134423 0.14140964 -0.050093085 0.13097543
000100 ab c6 18 3d 0b 0f 55 3d ad ae 09 3d ed 08 a5 bc
       0.03729884 0.0520163 0.03361385 -0.020145858
000110 29 df 0e bc 5b f4 d2 3d d5 97 39 3c 96 d1 9a bd
       -0.008720198 0.10300513 0.0113277035 -0.075595066
000120 3d 67 de bd dc a3 fe 3c f5 43 f4 3d 33 8c 3c bd
       -0.10859535 0.031083994 0.11927024 -0.046032142
000130 12 13 48 3d 57 0b a7 bd 68 f1 47 3d 54 ee aa 3d
       0.048846312 -0.0815646 0.048814207 0.08346239
000140 09 81 10 be ef bb a8 bd 5b 27 ad 3d 40 a7 0b 3d
       -0.14111723 -0.082389705 0.08454772 0.03409505
000150 c3 bc 07 bd 89 ba fc bc ca cb b9 bd de 6e bf bd
       -0.033139 -0.030850666 -0.09072073 -0.09347318
000160 b4 9c 77 3c 91 ae ed bc ea 0e ea 3d 61 48 86 bd
       0.0151130445 -0.029013904 0.11428626 -0.06556774
000170 2b 60 e2 3d d2 b2 8d 3d 75 b5 e0 bc c3 d9 c4 3d
       0.11053499 0.06918873 -0.027430275 0.09611847
000180 a7 61 f6 bd 3f 2a 7a 3d a3 0f 40 3d 42 31 b8 bd
       -0.120303445 0.061075445 0.046889912 -0.0899377
000190 84 24 5b bd 61 a5 fd bd 80 c9 ff bd 5d 89 86 bd
       -0.05350162 -0.12385059 -0.12489605 -0.06569169
0001a0 c9 b2 85 3d 3a c0 12 3d 53 78 0b be 0c b7 0c 3e
       0.06528241 0.035827853 -0.13620119 0.13741702
0001b0 9d e8 b0 3d 45 1a 1e 3d 46 2d c5 bd 02 a6 17 3e
       0.086381175 0.03859927 -0.09627776 0.1480942
0001c0 40 b8 7e bd 42 08 55 bd 67 b4 15 be 1d ac 23 bd
       -0.062187433 -0.05200983 -0.146196 -0.039959062
0001d0 65 c8 0a bd da d5 84 bd b4 65 ce bc 3b 15 b0 3c
       -0.033882517 -0.064861014 -0.02519498 0.021494498
0001e0 7b f5 fc 3d c4 52 b9 3b 9b 69 ab 3d 01 99 06 3b
       0.12351509 0.0056556184 0.08369752 0.0020537975
0001f0 a2 98 29 bd 9b 54 c7 3d 5a 72 74 3c 5a 3e c4 3d
       -0.041405328 0.09732934 0.014919842 0.09582205
000200 7f e1 15 3e b2 f3 15 3d 0f 07 4e bc 90 a0 b3 bd
       0.14636801 0.03660936 -0.012574925 -0.08770859
000210 0a 42 a0 bc 09 5f 23 3e 4e 51 aa 39 51 cd 32 3e
       -0.01956274 0.15954222 0.00032485503 0.17461134
000220 bd c7 18 3d f6 7a 24 bd 6c cb 1f 3e af 87 f6 3a
       0.03729986 -0.040156327 0.15604943 0.0018808747
000230 36 9b e3 3c 33 02 10 be 95 c7 ba bd 3b 0c a9 bc
       0.027783971 -0.14063339 -0.091200985 -0.020635715
000240 42 4e 34 bd 3a e5 ca bd 87 06 0c 3d db ce 9e bd
       -0.044019945 -0.09907003 0.034185912 -0.07754298
000250 ce 5c b7 3c f0 8f 06 be f6 af cf bc d9 99 9c 3d
       0.02238312 -0.13140845 -0.02535246 0.076465316
000260 8c 5b 10 3e ba b4 99 3d 4f f3 b4 bc d2 e8 b5 bd
       0.14097422 0.07505174 -0.022088675 -0.088822976
000270 f3 42 12 3e b3 e2 ce bb 0b 2e f4 3d 7e 6d f5 3d
       0.14283352 -0.0063136457 0.119228445 0.119837746
000280 27 84 ae 3d 8c bf 07 3d a8 07 77 3d 67 b1 5f 3d
       0.085213 0.033141658 0.060310036 0.054612543
000290 d6 dd 0b be 7a b0 5d 3c 46 b2 ae bd 2d c6 0f 3d
       -0.13658842 0.013530845 -0.08530097 0.035101105
0002a0 76 09 aa bd 02 65 d6 3d d6 41 2c bd ca cf 82 bc
       -0.08302586 0.104684845 -0.042054974 -0.015968222
0002b0 45 81 60 bd b6 e5 1b bd d0 7b 4f 3d 4c 51 f0 3d
       -0.05481078 -0.038060866 0.050655186 0.11734256
0002c0 f9 85 47 3d 40 e9 82 3b 7a 3e 85 3d 3a 16 0b 3e
       0.04871175 0.0039950907 0.06506057 0.13582698
0002d0 0f 5e b4 bd c3 5a a8 3d 9d 75 d1 bd cb b9 10 3e
       -0.08807003 0.082204364 -0.10227511 0.14133374
0002e0 71 aa f3 3c 4e 03 02 bd 99 6c 2d bd eb cd 9e bd
       0.029744359 -0.031741433 -0.042339895 -0.077541195
0002f0 67 f8 b2 3d 0d 67 23 3e 42 a8 06 3e 83 62 74 bc
       0.08738785 0.1595728 0.13150123 -0.014916065
000300 fc 25 29 3e 18 83 17 3c 19 c6 e2 bc fe 4f e7 3d
       0.16518396 0.009247564 -0.027682351 0.11294554
000310 34 3c aa 3d d5 bc 03 3c 5a b5 17 3c 49 b5 a4 bd
       0.08312264 0.0080406265 0.009259546 -0.0804239
000320 70 e7 68 3d 35 76 88 3d 61 12 48 bd f9 9b d0 bd
       0.05686134 0.06663171 -0.048845652 -0.101859994
000330 5a fb ac bd 8a 87 37 bc 8e c1 94 bd be 32 22 be
       -0.08446379 -0.011201749 -0.0726348 -0.15839669
000340 a0 9f 46 3d a2 f3 dc 3c 43 b5 03 be 8e 9f 42 bd
       0.048492074 0.026971642 -0.12862115 -0.047515444
000350 f2 72 75 bc 3e ce 4f bd fc 0a 28 bb e4 90 cd bd
       -0.014981018 -0.050733797 -0.0025641313 -0.10037401
000360 e9 26 12 3d 98 fb 83 bd 6f c5 28 3d 0d fa 79 3d
       0.03568164 -0.06444472 0.041203912 0.061029483
000370 ad f3 32 3d dc bf 98 bd 42 f9 62 bd 5a b3 5d bd
       0.04368942 -0.07458469 -0.055413492 -0.05412612
000380 20 d1 60 bd de 05 78 3d ee d9 c9 3d 2f cf a8 bd
       -0.054886937 0.06055247 0.0985602 -0.08242642
000390 f6 a9 af bd ed 76 27 3d cb 14 ab bc d7 15 11 3e
       -0.08577339 0.0408849 -0.020883938 0.14168487
0003a0 f4 bd f0 3d 21 ce fc 3d 74 1b 07 be a3 a9 db bc
       0.11754981 0.123440035 -0.13194066 -0.026814288
0003b0 fc 58 7d 3d 52 9a 88 3d 29 ce 1a be 25 3d c6 3d
       0.06185244 0.06670059 -0.15117706 0.09679631
0003c0 2c 36 19 be d3 ac 38 bd 09 ce 12 be fd ae 64 3d
       -0.14962071 -0.045086693 -0.14336409 0.055830944
0003d0 8f 51 00 bd 5e e9 d9 3d 0d c0 0e be dc a3 d2 3d
       -0.03132778 0.106402144 -0.13940449 0.1028516
0003e0 f2 0e 9a 3d 74 37 10 3d 71 7d f5 3c df 95 8f 3d
       0.07522382 0.035209134 0.029967042 0.070110075
0003f0 9d b1 1f 3d c1 a3 f5 3d 79 5d f1 3d 38 35 64 3d
       0.038987745 0.11994124 0.117854066 0.055714816

decoder.rnn.bias_ih_l0 f4 [256]
000000 26 55 96 bc 36 2b 2b 3e 0e 1a 2d 3e 9b 5a c3 3c
       -0.018351149 0.16715702 0.1690447 0.023846915
000010 bb 62 04 3e 26 07 77 b9 cd d6 5a 3c 01 58 e4 3d
       0.12928288 -0.00023558419 0.013356877 0.11149598
000020 a5 2f 31 3d 6d c3 12 3d f6 07 7e 3e 45 9f 0c 3e
       0.043258328 0.035830904 0.24807724 0.13732632
000030 d1 cd 0e bd 87 1c 7f 3d a5 9e d9 3c 1c 75 7d 3d
       -0.03486425 0.062283065 0.026564905 0.061879262
000040 ef fe 97 3c 91 7e cb bc d3 64 9b bb b5 60 06 3e
       0.018554179 -0.024840625 -0.004742244 0.13122828
000050 c3 05 bd 3d 51 d7 54 3e 05 d7 e7 3d 99 1e d2 3d
       0.092296146 0.20785262 0.113203086 0.10259742
000060 6a 54 35 bb 8a 93 75 3e 5e fb 6b 3e b7 d4 b3 3d
       -0.0027668723 0.23982063 0.23045108 0.087808065
000070 11 e6 ae 3d 6f a9 c1 bc d6 ec 01 3e de 63 d7 bc
       0.085399754 -0.023640363 0.12688002 -0.026292738
000080 c7 93 26 3e 17 fc 25 bd 0b 47 5e 3e 1d 6d d0 bc
       0.1626731 -0.040523615 0.21706788 -0.025442654
000090 f1 14 59 3c 1c 94 88 3d 5f af f3 3c 25 96 52 3b
       0.013249622 0.066688746 0.02974671 0.003213295
0000a0 0e e4 bb 3d a6 49 76 3e 9d 57 fb 3d c2 a2 79 3d
       0.09174357 0.24051532 0.1227257 0.060946234
0000b0 93 69 19 3e a0 27 d3 bc b6 c7 b0 3d b5 09 02 3e
       0.1498168 -0.02577573 0.08631842 0.12699015
0000c0 2b d9 84 3d 1a 94 b7 3c 00 9b 22 3e c3 37 06 bd
       0.06486734 0.022409488 0.1587944 -0.032768022
0000d0 6a 34 e3 3d 27 88 11 3e c4 37 3d 3d d8 e1 1b 3e
       0.110939816 0.14212094 0.04619576 0.15222871
0000e0 38 6f 4a 3c 50 cf f0 3d a1 e5 31 3e f5 3e c1 3d
       0.012355618 0.11758292 0.17372753 0.09435836
0000f0 e4 fc 9c 3d d7 c1 8d 3c 1d 8d 03 3d b7 d0 20 3e
       0.076654226 0.017304344 0.032116998 0.15704618
000100 6b 51 48 3d ea 32 82 3d b5 f0 c4 3d 24 64 f6 bc
       0.04890577 0.06357367 0.09616224 -0.030077048
000110 46 08 34 3d eb ad dd 3c fa 7d 8b 3c 58 ec 8a bd
       0.043953203 0.02706047 0.017027844 -0.0678336
000120 cb 15 fd 3d 34 e6 6f bd 14 67 ae 3d d8 9c 81 bd
       0.12357672 -0.05856915 0.08515754 -0.06328744
000130 e6 de 2c bd a9 04 1a 3c dc 4d 9c 3d a8 1c 71 3d
       -0.04220476 0.009400525 0.07632038 0.05886522
000140 75 6b c5 3d be 1c 18 3e 55 8c 92 3d 45 8a 39 3d
       0.096396364 0.14854714 0.071556725 0.04529788
000150 3d 6c c5 bc 26 94 d9 3d 36 91 9f 3d 1b 68 f3 bc
       -0.024099464 0.1062396 0.07791369 -0.029712727
000160 12 29 3d bd 3f 80 dc 3c ef 6d da 3d 29 f3 92 bd
       -0.046181746 0.026916621 0.106654994 -0.07175285
000170 dd 22 f7 3c a0 ed 1e bc 2f 01 08 3e 12 4b a5 3d
       0.030167991 -0.009700209 0.13281702 0.08070959
000180 0b 0b d0 3d 63 a5 5b 3d a4 40 01 3e aa 32 9f bd
       0.10158356 0.053624522 0.12622315 -0.07773335
000190 5d 02 57 3d 3e 16 1b 3d 9c 25 5e bd c4 98 19 3e
       0.05249249 0.03786301 -0.054235086 0.14999682
0001a0 27 bb cb 3d 53 58 b7 3d 60 7b b7 3d c5 22 7f bd
       0.09947806 0.089523934 0.08959079 -0.06228902
0001b0 be 40 1d 3e fc 92 a9 3d 59 64 dd 3c 6c b4 f6 bc
       0.15356728 0.08279988 0.027025389 -0.030115329
0001c0 9a cc 4f 3c 6b 78 0a bd f2 0d 89 3d fa 8a b9 3d
       0.012683058 -0.033806246 0.06692113 0.09059711
0001d0 9e b0 e0 3c 02 25 9b bd 27 24 02 3e d9 25 de 3d
       0.027427968 -0.07575418 0.12709104 0.108470626
0001e0 f2 2e b3 3d 97 f9 e9 3d 9f 08 8e bd e0 c8 d1 3d
       0.087491885 0.114245586 -0.06935238 0.10243392
0001f0 90 19 bc bc 0d 7f 02 3e 5c f9 de 3d ca 05 ad 3c
       -0.022961408 0.12743779 0.10887405 0.021120925
000200 2d 4a db 3c e8 a0 a5 bd cf 94 15 3d 9a 6d c1 3d
       0.026768768 -0.08087331 0.036518868 0.09444733
000210 ba 8d eb 3c 33 b3 e8 bb 0b 1c 14 be 05 a3 44 bd
       0.028754104 -0.0071014403 -0.14463823 -0.04800703
000220 8d 8e 31 be c1 8f 3e 3d 64 21 1b 3e 84 7e 2d be
       -0.17339535 0.046523813 0.15149456 -0.16942793
000230 d6 5a a1 3d 7f 05 1a bd 54 93 11 bd 32 a7 dd bd
       0.07878654 -0.037602898 -0.035540894 -0.108229056
000240 55 56 be bd c3 6c a2 bd 87 85 87 bd 0d d1 20 3e
       -0.0929381 -0.07930901 -0.06617265 0.15704747
000250 db ab 93 3d 51 f5 be bd 06 c6 8a 3d 11 57 fb bd
       0.07210513 -0.09324134 0.06776051 -0.12272466
000260 dd 02 06 3e 92 43 f6 bd e1 96 a0 3d 20 04 2a bd
       0.1308703 -0.12024607 0.07841278 -0.04150784
000270 18 c4 d7 3d e8 c6 d2 bd 6a 97 ec 3d 75 90 f1 3d
       0.10535449 -0.102918446 0.115523174 0.11795131
000280 06 fb a1 bd a5 ed 13 be 4b f5 57 3d eb 46 d2 bd
       -0.07909207 -0.14446123 0.052724164 -0.10267433
000290 65 9a 83 bd d5 7e e3 bd bd 58 33 be aa a7 81 3d
       -0.06425933 -0.11108176 -0.1751432 0.063308075
0002a0 17 2e 1e 3e 0b ec 02 bd 61 01 0a bd 1f 1a af 3d
       0.1544727 -0.03196339 -0.03369272 0.08549904
0002b0 43 f5 73 bd 65 5f 2d bc b3 91 18 be 84 1a 3d 3d
       -0.05956007 -0.010581826 -0.1489933 0.046167865
0002c0 1f c9 ae bd fd 10 30 bd 57 4b d7 bc 6a 31 71 3d
       -0.085344546 -0.04298495 -0.026281042 0.058885016
0002d0 bc 0b 07 be 17 27 a8 3d 83 b6 9a 3c 09 b8 80 3c
       -0.1318807 0.08210581 0.018885856 0.015712755
0002e0 90 09 81 bd d2 3a 34 3e 8b fb d2 bb ea 78 06 bc
       -0.06300652 0.17600563 -0.0064386777 -0.008207539
0002f0 4e 15 31 bd 45 15 86 bd 85 6e 23 3e f5 45 a7 3d
       -0.04323321 -0.065470256 0.15960129 0.0816764
000300 26 b9 d9 3d 23 3e 2b bb 02 29 2e 3d f1 9d e8 3d
       0.106310174 -0.0026129566 0.042519577 0.1135825
000310 db e1 97 3d e2 dc 15 3e ed 2f 26 3e 07 ff 5a 3e
       0.074161254 0.14635041 0.1622922 0.21386348
000320 72 a7 e0 3d 8a 0d 0b 3e 1f e3 8a 3d 4c 56 2e 3e
       0.10969438 0.13579383 0.06781601 0.17025107
000330 63 58 ae 3d b4 a7 4f 3c 53 b5 95 bb bd 35 41 3c
       0.08512952 0.012674261 -0.0045687347 0.011792597
000340 9f 94 c9 3d 1c 1c 8b 3d 0c b8 8d 3e 49 a9 a4 3c
       0.098428 0.06792471 0.2767948 0.020100253
000350 42 a5 24 3e ed 87 30 3e 67 a1 19 3e 4b b1 4f 3e
       0.16078666 0.17239352 0.15002976 0.20282476
000360 c3 43 ce 3c 41 23 98 3d cf 91 88 3e dd 03 b7 3d
       0.025178796 0.07428599 0.26673743 0.08936284
000370 56 dc 6d 3d 7e 69 b1 3d 70 db ba 3d 66 a9 58 3e
       0.058071457 0.08662699 0.09123886 0.2115837
000380 2d 3e 35 3e cc 5f 99 bb 74 1c 86 3d 86 57 17 3e
       0.176995 -0.0046806093 0.06548396 0.14779481
000390 4c f4 df bc 66 cf 44 3c 4b c5 5f 3e fc e8 5f 3e
       -0.02733817 0.012012338 0.21852605 0.2186622
0003a0 d3 86 66 bc c0 ba cf 3c 53 61 55 3e 14 8d fc 3c
       -0.014070231 0.025357604 0.20837907 0.03082899
0003b0 93 15 f7 3c 5e 22 5a 3e 6a ac 02 3e a6 02 47 3e
       0.030161655 0.21302173 0.12761083 0.19434604
0003c0 b7 de 86 3d 96 12 42 3e 29 2b f2 3c 0c 55 15 3d
       0.06585448 0.18952402 0.029561596 0.03645806
0003d0 e1 fc 80 3e 1d 3c 34 3e 99 fd 5c 3e 28 c8 34 3e
       0.2519293 0.17601056 0.21581115 0.17654479
0003e0 ee e6 32 3e 93 4e 11 3e 02 a3 ab 3d 9b 63 5d 3e
       0.17470905 0.1419013 0.08380701 0.21620028
0003f0 5c 4c 57 3e 22 fb 18 3e 6b 57 42 3d f9 ca 9a 3d
       0.21025223 0.1493955 0.04744665 0.07558245
