detector_dev/models/cnn_lstm_ae_i24_detector_no_position_seq_len_200.pt (torch, 129255 bytes, 12 tensors)

encoder.cnn.weight f4 [8, 4, 16]
00000000: 998f ee3b ad68 e03b 676f d83b 386f e13b
00000010: 2cc6 bd3b f764 a43b 38ac 363b d491 1e3b
00000020: e5d4 f03a 5835 9d3a 395e 7838 cfc9 c039
00000030: f633 f3b9 864f dfb9 ef8d d9ba de43 02bb
00000040: 0891 453c 3a78 023d 5f15 be3d d61e d33b
00000050: e169 78bd c75c f6bd 02d6 50bd 4ce2 953c
00000060: 1787 b5bc e134 65bd 23eb b8bb 7fb8 b9bd
00000070: dda0 89bd de59 5abd 1335 d3bd df9a 4139
00000080: dfcf 1cbd d32c 18bd 4f04 0fbd 5ea4 52bd
00000090: 67dd 43bd 09ef 46bd b795 91bd 78ad 8cbd
000000a0: 64e2 83bd 77bd 92bd 5e0b 6fbd 0617 4cbd
000000b0: eafb 45bd dd71 31bd 8b4c 45bd b9cb 57bd
000000c0: 24f3 2abe 8e58 13be db10 31be 57e7 46be
000000d0: 77fd 40be 25cc 35be 3b4b b0bd 67b9 b5bd
000000e0: 760e afbd 8a29 9cbd 1dda 7bbd 6e89 b2bd
000000f0: d1d5 c7bd fbcd 90bd 79ed 8bbd 0203 83bd
00000100: 107d c1bb 9e02 e9bb aa5c fbbb 47a7 3cbc
00000110: 60e4 48bc b85a 71bc 4d29 83bc b0d1 8cbc
00000120: f539 8fbc 5592 9cbc 6b37 b1bc 4b23 c1bc
00000130: c227 c6bc 244c d0bc 3640 b9bc 560c cebc
00000140: 1d5d 7cbd e665 e53c 90a4 31be e9f4 63be
00000150: 9d96 22be 84aa 77be 7298 23be d71f 5dbd
00000160: f822 10bd d986 8fbe 216d 93be 4afe 3ebe
00000170: 6aa2 fdbd c2a8 353d 5445 cbbc 842b 27be
00000180: 41e8 173c 3371 be3a 4227 b1b8 e626 84bc
00000190: c5f5 31bc 60f4 99bc 4085 b9bc 27b1 b6bc
000001a0: 5cba 8cbc 9b50 37bc 4842 0bbc 92c8 0b3c
000001b0: da5b 193c ef34 5f3b 80fa b23b 1332 3f3c
000001c0: a614 46be 5289 1dbe 5bb1 d4bd 8fc7 f9bd
000001d0: 1be2 cfbd 00eb bfbd cdda dabd fbed bdbd
000001e0: 577a acbd 788b 9dbd bf8b 7cbd d513 a2bd
000001f0: 1843 66bd e1af b9bd 7c75 bbbd 751c 57bd
00000200: 8fdf 213f 54bd 233f d3c3 203f 9961 1f3f
00000210: 8c6f 1d3f 0671 203f b685 1e3f d57a 1f3f
00000220: b099 1c3f 937d 1e3f e7cd 1d3f 30b4 1d3f
00000230: c5ec 1d3f 10ea 1f3f 505c 1e3f 6f58 1c3f
00000240: ca61 1bbd cb9c a7bd 2de5 4fbd 0f52 d8bc
00000250: d6e6 01be d059 06bd dca2 85bd 3fdc c7bd
00000260: 2609 aebd b7c4 e9bd b360 d5bd 71f2 2abe
00000270: f360 69bd 833d 06bd 3925 73bd 9d2c 8bbd
00000280: a866 263f 1d43 233f 2c58 2f3f 67dd 223f
00000290: 2151 1f3f 9639 223f 9fe8 1d3f ab27 253f
000002a0: bb96 1a3f 81b6 173f c29b 193f 067d 083f
000002b0: efc7 0f3f 4248 0e3f 1105 143f 0ca6 143f
000002c0: 503e 17bc e815 43bc 9a35 8dbc 7b59 1fbd
000002d0: ba67 14bd 106e cabc b11f 50bd 5c35 9fbd
000002e0: 88d8 04be 6c9a 01be de19 f7bd a5fc d5bd
000002f0: 3493 a8bd 5803 d7bd eb91 a2bd 5fc7 4fbd
00000300: 9b35 393e e9f1 ad3e 308d 6c3e d561 643e
00000310: c4ca 6c3e 1bb1 943e 7884 8f3e 5656 793e
00000320: dd4c 5a3e 9932 213e 4925 343e ab9a 1d3e
00000330: 7c73 0f3e 2163 983e eabe 673e 60a0 a53e
00000340: f8ed 263e f8d6 143e 9a5d fc3b bdfa 3dbc
00000350: 0ebd 9fbc 43fc 083e fe2b 01bd ac2c e8bd
00000360: cbe8 0d3e 6316 04be 7e1f 2bbe 68f4 0a3e
00000370: bed8 f63c 7fc8 a4be 7087 cebd fea8 0fbe
00000380: fd1c 9f3e 9161 263e 1603 c33e 589e 1d3e
00000390: e3d4 b43e 0828 d03e 7fea 923e 2c74 283e
000003a0: 2eba 963e b767 423e 0ff3 3f3e bd3a 313e
000003b0: dda6 a33e 3f51 343e ef2a 093e 275f 813e
000003c0: e3c7 60be 2818 dbbd 9b4d 75be 3ab3 67be
000003d0: 924a c0be c933 a4be 2f38 cebe 220d b1be
000003e0: 0112 b3be 288f a8be 6681 a1be 4810 9cbe
000003f0: a697 afbe 927e 8dbe dbb8 9cbe a673 89be
0.007280302 0.006848416 0.006605077 0.0068797134 0.005791446 0.0050169188 0.0027873646 0.0024195807
0.0018373994 0.0011994047 5.921556e-05 0.00036771453 -0.00046387286 -0.00042593124 -0.0016598086 -0.0019876878
0.012058504 0.03185294 0.0928142 0.006442885 -0.06064785 -0.120294146 -0.050985344 0.018296383
-0.022159142 -0.055958632 -0.005643265 -0.09068393 -0.06720135 -0.05330836 -0.103128575 0.00018463608
-0.03828418 -0.037152123 -0.03491622 -0.051426284 -0.047818568 -0.048567805 -0.07108634 -0.06869024
-0.06439665 -0.07165044 -0.05836045 -0.049826644 -0.048335947 -0.04332148 -0.0481687 -0.05268452
-0.16694313 -0.1438925 -0.17291586 -0.19424187 -0.18846689 -0.17753656 -0.08608099 -0.08873253
-0.0854768 -0.076251104 -0.061487306 -0.08717619 -0.09757579 -0.07070538 -0.06832404 -0.06397058
-0.005904801 -0.0071109077 -0.0076709585 -0.011514491 -0.01226148 -0.014731102 -0.016010905 -0.01718983
-0.01748369 -0.019112745 -0.02163287 -0.0235764 -0.02418888 -0.025426932 -0.022613626 -0.025152367
-0.061612237 0.02800269 -0.17347932 -0.22261395 -0.15877767 -0.2418614 -0.15976122 -0.053985443
-0.0351896 -0.28032568 -0.28794196 -0.18651691 -0.12384494 0.044350393 -0.024813332 -0.16325194
0.009271682 0.0014529586 -8.44733e-05 -0.01613183 -0.010861819 -0.018793285 -0.022646546 -0.02230127
-0.017178707 -0.011188651 -0.008499689 0.008531706 0.009360278 0.003405865 0.005461991 0.0116696535
-0.19343814 -0.15384415 -0.1038539 -0.12196266 -0.10150548 -0.093709946 -0.10686264 -0.09273907
-0.08421772 -0.07692617 -0.06165671 -0.07913939 -0.05621633 -0.09066749 -0.09153268 -0.052517373
0.6323175 0.63960767 0.62798804 0.622583 0.6149833 0.6267246 0.61922777 0.622968
0.6117201 0.6191036 0.6164231 0.6160307 0.61689407 0.62466526 0.6185961 0.6107244
-0.037935056 -0.08184203 -0.05075567 -0.026406316 -0.12685713 -0.032800496 -0.065252036 -0.097588055
-0.08497839 -0.114144735 -0.104188345 -0.16694047 -0.056977224 -0.032773506 -0.05936167 -0.06795619
0.6500039 0.6377428 0.68493915 0.63619083 0.6223317 0.6336912 0.61683077 0.64513654
0.60386246 0.59262854 0.6000329 0.5331577 0.5616445 0.55579007 0.5782023 0.5806587
-0.009231165 -0.011907078 -0.017237473 -0.038903695 -0.036231734 -0.024710685 -0.050811473 -0.07773849
-0.12973225 -0.12656564 -0.12065481 -0.10448579 -0.08231202 -0.10498685 -0.07937988 -0.050727244
0.18086855 0.33973625 0.23100734 0.22302945 0.23124224 0.2904137 0.28030753 0.24349341
0.21318384 0.15741958 0.17592348 0.15391032 0.14008898 0.2976313 0.22631422 0.3234892
0.16301715 0.14535129 0.007701588 -0.011595425 -0.019499328 0.1337748 -0.031536095 -0.113366455
0.13858335 -0.12899165 -0.16711232 0.13569796 0.030132648 -0.32184216 -0.100844264 -0.14029309
0.31076804 0.16248156 0.38088292 0.15392435 0.3531867 0.4065554 0.2869453 0.16450566
0.2943892 0.18984877 0.18745063 0.17307563 0.31963244 0.17609118 0.13395284 0.25267908
-0.2195125 -0.10697967 -0.23955385 -0.22626963 -0.37556893 -0.3207076 -0.4027724 -0.34580332
-0.34974673 -0.3292172 -0.31544036 -0.30481172 -0.34295386 -0.27635628 -0.30609784 -0.26846045

encoder.cnn.bias f4 [8]
00000000: 9030 933d 46ae ef3d 8c30 bf3e b7fe 203e
00000010: f698 f43d 9006 d43e ddaf fa3e 82c5 953f
0.07186997 0.11703162 0.37341726 0.15722166 0.119432375 0.41411257 0.48962298 1.17009

encoder.rnn.weight_ih_l0 f4 [128, 8]
00000000: 03c7 b23d 6cd9 b7bd fb8f 993d 41dd 933c
00000010: d72d 023e 6f18 0fbe 9b2a 27be 1264 8d3d
00000020: cd0a 87bd f737 b63d 87ee d83c 6bb3 0b3e
00000030: 40a0 42bd 36b2 8ebe 2b6d 53be 8de3 333c
00000040: 0e08 b03d 913c c0bd cae6 733d 9506 173d
00000050: dfb2 8b3b d05a bb3c b69c adbc c09b 28bc
00000060: 62c3 163e 7724 a5bd bbda ef3c 4293 0f3e
00000070: ee7f d8bd a35e 67be 97ce debd d66b 25bc
00000080: 44c5 213c 8a66 7e3c 54ea f0bd ac74 a1bd
00000090: dba9 cd3d 3094 293e beae eabd e93b 9f3d
000000a0: 71a2 32be ed8c 38be 9cf8 16be b8dc 7bbb
000000b0: abd6 533d 3256 19be f308 2e3e 1d78 683d
000000c0: 47d9 7b3d 927e 4f3d d4af 5d3d 7a4f b8bd
000000d0: 072e 123e 678c d93d 80aa 683c 66f4 bbbc
000000e0: a656 fcbe b7ac edbe c432 22bf 296b 08bf
000000f0: 1028 12bf 99e8 0cbf fdf6 a3be 8e78 0a3e
00000100: 1ebc 163e bc62 5dbd 2ab2 6dbd 69ee 36be
00000110: cc99 c33d c8ad 91be 6306 77bd aefe 1ebc
00000120: 22a3 163e 4d11 71bd e272 f63d b172 0e3d
00000130: 455c bd3d 60a1 5f3c 8eea 92bd 3269 aebd
00000140: a20b 48bd d124 733d 2181 90bd b40c b2bc
00000150: de09 603e 9d53 c0bc 747f 24be 18c0 0ebe
00000160: e359 ac3c fdd4 8f3c d17a 893b f024 85bc
00000170: 5868 8e3d 1ac2 7bbb a52d ffbd 0ed2 2bbb
00000180: 889e 87bd 28f5 b43d 1b4c bc3d fa2c ec3a
00000190: 4585 073c ab60 443d 9c3b ebbd a41d 19be
000001a0: 43f4 9cbe c38c 98be 0843 03bf e85f 2abe
000001b0: 9889 9fbe 94f0 e8bd e8f2 8b3d e530 6a3e
000001c0: bb6b 1c3e dbe6 c23d 067b 9b3d 9230 0b3e
000001d0: 7e29 013e d77c f5bd 93f1 193d 6786 b3bc
000001e0: 7aa0 2d3d fbb1 f73d ff80 c53b 7839 9a3d
000001f0: 723c 99bd 4307 4d3d a5e5 74bd e1f8 c5bd
00000200: f9cc 4dbd 8e47 15be 64c0 d03d 530c e7bd
00000210: 1c8c 08bd aea8 90bc 8bd5 82be 8cd5 bfbe
00000220: 6db8 8dbd ca09 34bb a6d1 313d 28e6 493c
00000230: bad9 3a3e ed72 1f3d 48fa f2bc c5ba 9fbd
00000240: 0261 8dbe 8b43 04bc 6657 0abd 56fe 18be
00000250: 7386 91be afc7 11bf cb2f 04bf 3af1 20bd
00000260: aed1 0dbe 2b22 01be b058 6dbd c7c5 a93d
00000270: d1f1 32be 1988 ad3d 280c c1bd d7fd dfba
00000280: b7ef 2c3e 4382 4dbd 7f68 1bbd 31c3 1b3e
00000290: a2fb 0e3e fbe8 27bd b851 be3c 4ba4 babd
000002a0: 34c9 b6be 793a b9be 5970 a0be dc02 bfbe
000002b0: 7712 3abe 3c16 efbe 754a 9cbe 8f8f 043d
000002c0: 5e75 5a3e 2b19 103e 3647 8e3e 2405 25bd
000002d0: 009b 483e 85c8 3ebe 511f 45be 49e0 553e
000002e0: ab61 5b3e 9de2 60bc 3b79 cabd e92e babb
000002f0: 56fd 5f3e 113e 7bbd 6c7d 863d d63c a1bd
00000300: f55a 04bd 2c39 e8bd 37d7 0abe 4e81 103e
00000310: 4afa 54bd 653f 39bd ecc7 9abd 75cd f73e
00000320: 1341 903e 7ec3 173e 07b0 2c3d 300a e13c
00000330: e7e9 fcbd 6b2b e6be f412 5ebe 9ef0 f2bd
00000340: 9554 c2bc 1ecf 0a3d 1f6f ae3d faf3 ed3d
00000350: 306b 343d cc10 bb3b f861 093b 8ef8 d93d
00000360: ed17 11be 99b0 89bd 1182 caba 71c0 8fbd
00000370: 9757 4bbe 57d7 30be 323c adbe 2343 70be
00000380: 8ad6 123d a40b eb3c 7d56 9dbd 3250 073e
00000390: df81 d23d 70d3 22bd cda7 03be 4d19 ccbd
000003a0: de69 e8bd a9e0 9bbe c373 89be ac5d 3dbe
000003b0: 91f2 3abe 9df0 0b3d 343e 01bd 43eb 853e
000003c0: f66c 103c c77f 89bd ebe9 3a3d bca9 173e
000003d0: 6726 8d3d fcdf 22be 306e 94be fb70 d0be
000003e0: 05e8 83be b1b9 93be a8c5 e3bd 7c2e 8cbe
000003f0: 4ce2 44bd 63f9 f8be 3fe6 2fbe 385d babd
0.08729365 -0.08977017 0.07498165 0.018049838 0.12712799 -0.13974164 -0.16324846 0.069038525
-0.06593857 0.08897393 0.026480926 0.13642661 -0.047516108 -0.2787034 -0.20647113 0.010979545
0.08595286 -0.09386552 0.05954627 0.03687151 0.0042632665 0.022870451 -0.02119289 -0.01029104
0.1472297 -0.08063596 0.029279104 0.14021018 -0.10571276 -0.22594695 -0.10879248 -0.010096511
0.009873692 0.015527377 -0.117634445 -0.078835815 0.10042163 0.16560435 -0.11459111 0.07775099
-0.17444779 -0.18022509 -0.14743274 -0.003843112 0.051718395 -0.14974287 0.16995601 0.056755174
0.06148651 0.050657816 0.05412276 -0.08999534 0.1427537 0.10622483 0.014200807 -0.022943687
-0.49284858 -0.46420833 -0.6335871 -0.53288513 -0.5709238 -0.55042416 -0.32024375 0.1352255
0.14720199 -0.05404924 -0.05803124 -0.17864384 0.09550819 -0.28452897 -0.060308825 -0.009704275
0.14710668 -0.05885439 0.12033631 0.034777347 0.09246115 0.013649315 -0.07173644 -0.08516158
-0.04883922 0.059361283 -0.070558794 -0.021734573 0.21878764 -0.02347737 -0.16064245 -0.13940465
0.021038955 0.017557615 0.004195549 -0.016252965 0.06953496 -0.0038415254 -0.12459878 -0.0026217732
-0.06622034 0.08835822 0.091942035 0.0018018775 0.00827152 0.047943752 -0.11485979 -0.14952713
-0.30655107 -0.29794893 -0.51274157 -0.16638148 -0.31159663 -0.11374012 0.0683344 0.22870214
0.15275471 0.095166884 0.07591824 0.13592747 0.12613484 -0.11986702 0.0375839 -0.021914674
0.04238937 0.12094494 0.0060273404 0.075304925 -0.07482232 0.050055753 -0.05978932 -0.096666105
-0.050244305 -0.14578077 0.101929456 -0.112816475 -0.033336744 -0.017658558 -0.25553545 -0.3746761
-0.06919942 -0.0027471655 0.043412827 0.01232294 0.18247119 0.03892796 -0.029660359 -0.07799295
-0.27613074 -0.008072744 -0.033774756 -0.14940771 -0.2842289 -0.5694532 -0.51635426 -0.03929255
-0.13849518 -0.1261069 -0.057945907 0.08289676 -0.17475058 0.08473224 -0.09426147 -0.00170892
0.16888319 -0.050173055 -0.037941452 0.15211178 0.13963178 -0.040993672 0.023232326 -0.09113368
-0.3570038 -0.36177424 -0.31335714 -0.3730687 -0.18171106 -0.4669665 -0.30525556 0.03236347
0.21333835 0.14072101 0.27788705 -0.040288106 0.19590378 -0.1863118 -0.19250228 0.20886339
0.21423976 -0.013725904 -0.09886404 -0.0056818617 0.21873984 -0.061338488 0.06566891 -0.07872932
-0.032313306 -0.1133903 -0.1355866 0.14111826 -0.051996507 -0.045226473 -0.07557663 0.4839894
0.28174648 0.14820668 0.04216006 0.027470678 -0.12349301 -0.44955 -0.21686918 -0.118623
-0.023721972 0.03388893 0.085172884 0.116188005 0.044047534 0.0057087895 0.0020962935 0.10643111
-0.14169283 -0.067231365 -0.001545014 -0.07019127 -0.19857632 -0.17269646 -0.33834988 -0.2346311
0.03584913 0.028692074 -0.07682512 0.13214186 0.10278677 -0.039752424 -0.1285698 -0.09965763
-0.113483176 -0.3044484 -0.26846132 -0.18492764 -0.18256594 0.034165014 -0.031553462 0.26156053
0.008815041 -0.06713825 0.045633238 0.14810842 0.0689209 -0.15905756 -0.28990316 -0.40711197
-0.25762954 -0.2885261 -0.11121684 -0.27379215 -0.048067376 -0.48627767 -0.17177676 -0.09099811

encoder.rnn.weight_hh_l0 f4 [128, 32]
00000000: f635 2e3f 32d1 8dbe 94a7 dabe de37 f63d
00000010: 4705 c4bd 3247 123e 4eb3 763e 1313 373f
00000020: d0c8 3fbf d3cc 1bbe fa80 d33e 80b1 823e
00000030: 72cb 26bf 9b90 b9bc e8f4 8f3f fd0f a2bf
00000040: 11a7 22bf c588 e43e be29 4f3f 95f4 dbbc
00000050: 0d20 0ebe 87e2 52be c6da 343e 62ad 5ebe
00000060: 8066 81bd 2081 d6be 3687 f93d bfec c13e
00000070: 55c3 293f 3fe1 1d3f 8217 053f 762a b43c
00000080: aa1c c03e a369 213f bdfb 1cbf 28a4 02be
00000090: d02c c73e c806 1e3f 473a 50be 80a6 7dbe
000000a0: 66b0 25bd 03e7 b2be 4b9c 803e 8d71 47bf
000000b0: 948b 123f 4f52 3bbf 84cb 213e 5b79 2c3e
000000c0: 19d4 c03e 9060 fa3c f2db 013f 5d8f 2fbe
000000d0: d744 e5be 8d48 7b3e 9552 ce3e 7a77 8e3e
000000e0: 41c1 263f 3ec9 843d c06e 85be f9b6 ec3e
000000f0: ba86 e4bd 8a36 9bbe 663d cfbe 6c86 5d3d
00000100: e619 6e3f f269 053f 3e18 7ebe b5a5 13bf
00000110: 4779 9ebe f3d6 5d3f d86b 09bf 51bd fcbe
00000120: 4fb2 4c3e 3cbb 80bc 5ac6 873e b7c1 6f3d
00000130: f857 aa3d 1ed2 3ebf ed98 113f 35d1 06bf
00000140: a0a9 2b3f 9a5f 103f 263a 283e 19a6 e5be
00000150: 8034 8f3e 744c d13e 9c87 4a3f 3fab 083f
00000160: 08ce 113f 005d 943e f026 0abf ce06 0b3f
00000170: 3b80 1ebf 0b88 66bf 8311 26bf f56d 81bd
00000180: 6c00 243f da89 123f b4b0 acbe 9f80 36bf
00000190: 74e2 d53e 9725 383f 1f77 72bf 64d3 4bbf
000001a0: ab2b 1e3e 38f2 823e 343b fc3e 7e52 05bf
000001b0: 4705 8dbe 0ae1 30bf 7c71 9e3d ff17 3d3f
000001c0: fe26 393f 2fbe 9abe d7a3 503f b71b 00bf
000001d0: 1375 3f3f 03bb 3d3f ceab 193f 6c86 e63c
000001e0: 2cfb f13e f2a2 dbbd b4a0 463e 97ab f23e
000001f0: 9b6c 0cbf 3627 22bf 8f94 bebe a965 b3be
00000200: 220f a2be 3c42 a2be 3bca 2e3f d711 6f3e
00000210: d140 a63c 8c69 943c 569e 313d 6fb9 53be
00000220: c4ab 903e 7862 fd3e 337f c93c 561f 34bf
00000230: fb75 a33f 77b7 2ebd b9c3 09bf b2f2 f33e
00000240: 8785 07be 9933 e1be 4500 4b3e a766 33be
00000250: 349a 19be 52e2 4bbe a520 ab3e 9f68 113f
00000260: 59b8 70bd 1768 903e 7304 d63e 4c73 4dbd
00000270: 9b18 893e 6191 f83c 8a7c d23e d056 ec3e
00000280: 6fa4 26bf 09c4 11bc e7b2 84be a27f e7bd
00000290: cbcf d3be c20e 74be 5730 173d 3bfe b1bd
000002a0: b5a3 233d 2860 cdbe eb63 873e 6ba5 83be
000002b0: 8cc0 6c3e 3a17 5d3e 70ad 243f 73cf be3e
000002c0: 041b d0bd 810f b8be 2ca7 433f 0bd4 743c
000002d0: bb2e f3bd 1008 833e 59fd 1b3f f5a8 1b3f
000002e0: aa3a 33bd e96c 853c 7223 9f39 ec06 24be
000002f0: 5e1b 5abd 21b4 823e 63ba 153e ad03 733e
00000300: f8e8 893e e526 b43e a935 f83d f22f 63bd
00000310: c4e2 bf3d fb36 1d3f 453a 4b3d 117e 37bf
00000320: 7c5a 523e 50b9 713f 8481 aebc eee9 26bf
00000330: 7265 a73f 01a6 b6be d729 22be 5266 843e
00000340: e39a 913e 7590 32bf 4b7f 833d ce5b f33d
00000350: cf18 a4be 9f57 b03e f842 be3e 73fd 713d
00000360: da85 bf3e 941b 883f f46c 833d 6b03 d13e
00000370: 6c90 f8be 3ca9 dfbe 823c 67be b804 0e3f
00000380: 1cf9 253e 77ab e7bd 9adf 4fbc 33e2 75bd
00000390: 7963 06bf 39bc 88be 43c9 69be 7b3b 653e
000003a0: 8ed4 e3be 0044 54bf 6ba8 bbbe 32ee 7c3d
000003b0: 89d1 e23e 443a 183f 5e76 163c d133 693e
000003c0: b4d4 b53d b6bd b9be 9104 9dbe 2c35 cf3e
000003d0: 247c 10be f16c f73d 6309 9ebe b70e 033f
000003e0: 2b34 74be fb9b 87be c2f9 18bd 8ca1 25be
000003f0: c4a5 56bd 42dd ebbd 14a6 92bd bd43 6b3d
0.6805109 -0.27698666 -0.42705977 0.120223746 -0.09571319 0.14284971 0.24091837 0.7151348
-0.7491579 -0.15214853 0.4130934 0.25526047 -0.6515418 -0.022651961 1.1246614 -1.2661129
-0.63536173 0.44635597 0.8092307 -0.026850024 -0.13879414 -0.20594226 0.1766158 -0.21745828
-0.063183784 -0.4189539 0.121839926 0.37875935 0.6631368 0.61671823 0.51988995 0.021992903
0.3752187 0.63051814 -0.6132162 -0.12757933 0.38901377 0.617291 -0.20334731 -0.24770546
-0.04045143 -0.34941873 0.25119242 -0.7790764 0.5724423 -0.7317247 0.15800291 0.16843168
0.37661818 0.030563623 0.50726235 -0.17144533 -0.44779083 0.24539395 0.4029738 0.27825528
0.6513863 0.064836964 -0.26061058 0.46233347 -0.111585096 -0.30315048 -0.4047653 0.054083273
0.9300827 0.52114785 -0.24813935 -0.57674724 -0.30951902 0.8665611 -0.5368018 -0.49363187
0.19989894 -0.01571428 0.26518518 0.05853435 0.0831756 -0.74539363 0.5687397 -0.52662975
0.670557 0.56395876 0.16428432 -0.44853285 0.27969742 0.40878642 0.79113173 0.533863
0.56955004 0.28977203 -0.53965664 0.5430726 -0.61914414 -0.90051335 -0.6487047 -0.06319801
0.64063144 0.57241595 -0.33728564 -0.7129001 0.41774333 0.7193236 -0.94713014 -0.7961943
0.15446346 0.25575423 0.49263918 -0.52079 -0.2754309 -0.6909338 0.07736489 0.7386474
0.7232512 -0.30223224 0.815 -0.5004229 0.74788016 0.7411348 0.6002778 0.02814027
0.4726194 -0.10724439 0.19397241 0.47396538 -0.5485322 -0.6334108 -0.37222716 -0.35038498
-0.3165217 -0.31691158 0.6827733 0.23346649 0.020294579 0.018116735 0.04336389 -0.20676206
0.28256047 0.49489188 0.024596786 -0.70360315 1.277038 -0.042655434 -0.53814274 0.476461
-0.1323453 -0.43984678 0.19824322 -0.17519628 -0.1500023 -0.19910553 0.33423343 0.56800264
-0.058769558 0.28204414 0.4180027 -0.050158784 0.26776585 0.03034276 0.4111064 0.46159983
-0.65094656 -0.008896836 -0.25917742 -0.11303641 -0.4136947 -0.23833755 0.036911335 -0.08691069
0.039951045 -0.40112424 0.2644342 -0.2571214 0.23120326 0.21590891 0.64327145 0.37267646
-0.10161403 -0.3594933 0.7642696 0.014943133 -0.118741475 0.2559209 0.6093345 0.6080468
-0.04375712 0.016287284 0.00030353252 -0.16018265 -0.053248756 0.25528052 0.14621882 0.23731871
0.26935554 0.35185924 0.1211961 -0.055465646 0.09369424 0.6141202 0.049616117 -0.7167674
0.2054233 0.9442339 -0.021301992 -0.652007 1.3077834 -0.35673526 -0.15836273 0.25859314
0.28438482 -0.69751674 0.064207636 0.11882745 -0.32050177 0.3444185 0.37160468 0.0590796
0.37406808 1.0633416 0.064172655 0.4082292 -0.48547685 -0.43683803 -0.22581676 0.5547595
0.16208309 -0.11312001 -0.012687588 -0.060030174 -0.52495533 -0.26706102 -0.22830682 0.22385971
-0.44498104 -0.8291626 -0.3665193 0.0617506 0.44300488 0.59463906 0.009183494 0.22773673
0.088784605 -0.3627755 -0.30667546 0.40470254 -0.14109856 0.12081326 -0.30866536 0.5119433
-0.23848026 -0.2648619 -0.037347563 -0.16174906 -0.05240418 -0.11516811 -0.07160583 0.057437647

encoder.rnn.bias_ih_l0 f4 [128]
00000000: f060 59be da12 0dbf fc95 42bf da91 07bf
00000010: 8ad1 8a3e a02b 033d f546 0cbe 3318 073d
00000020: c499 b6bd d4d2 b3be 4cc7 1b3f 4266 86be
00000030: 4a78 80be cd90 2abe b789 f13d a499 04bf
00000040: 186e 88be 9a6c a9be ac9f 05bd 08d2 11bf
00000050: 24ef dfbd 2d6c a7bd 4467 083e f6f5 7abe
00000060: b379 923d 1d5c 23be f793 d6be d29d b9be
00000070: a00b f4bd c14f f2bd 6957 bd3e 52da bb3d
00000080: a6fe 28be b02c f93e 4b32 7a3e 7f11 243d
00000090: ba2d dd3e cdc7 063e 70e2 a0bd 7ca8 ec3d
000000a0: c3ce d9bd 5da8 453d f598 45bc 598b b53e
000000b0: c84d c93e ff73 843e 573e d43d c66f 893e
000000c0: 7dbf a4bd 1beb 15be 4d49 953d 7a50 8d3e
000000d0: 380f 9bbe 505f 513e 222b a43e c362 b6bd
000000e0: 3e47 ae3e 69ad ca3e 405d 94bc 40a6 1d3e
000000f0: 200e 163e fc7b aa3e 936c b73e e372 773e
00000100: 62e6 6cbe 58c8 a33b 8f1a 093e 8d91 db3d
00000110: e249 3b3e e03c debe 127f 853e 523a cd3e
00000120: af40 483e 82f1 7ebd 38f9 65be cb34 4f3e
00000130: 9da9 0cbf dc78 10be 3603 3fbf 5d35 bebe
00000140: ee0f b3be 3a64 ed3e 05de aabe 8a88 06bf
00000150: 99ef 033e 11b2 79be a7f6 1bbf 2ac7 d0be
00000160: 1de2 8dbe 55ee 153e 6e4d 48be c6e8 9bbe
00000170: c3ed 173f 30d1 c1bd db57 703e 2bd8 bdbe
00000180: 971c 463e 684c 043f 6d36 153e 6d47 193e
00000190: c95b f03e 5862 123f db0b b43e 5297 63be
000001a0: 7d62 0b3d 98cd f93d d5f8 9d3e a5de 263e
000001b0: 326b 203e 8aac 113e 142f a43e 77f1 833e
000001c0: f755 4ebf 4c06 7fbd 2a2c 113f a7bc e73e
000001d0: d84b a03e 90ec d63e 533e b03e 1ef7 f43e
000001e0: dc46 e93e bc4d b0be 46ab d4be 6cc3 393f
000001f0: a52b 60be 80f3 b8be fa42 3cbf 79a4 00bf
-0.21228385 -0.5510689 -0.7601011 -0.52956927 0.2711299 0.032024026 -0.13698943 0.032982063
-0.08916047 -0.35121787 0.6085098 -0.26249892 -0.25091773 -0.166568 0.11793845 -0.51796937
-0.26646495 -0.3309067 -0.032622978 -0.5696111 -0.10934284 -0.0817493 0.13320643 -0.24507889
0.071521185 -0.15953107 -0.41909763 -0.3625322 -0.1191628 -0.11831618 0.3698075 0.09172501
-0.1650339 0.48666906 0.24433248 0.040055748 0.4319895 0.13162155 -0.078556895 0.11555573
-0.1063514 0.048256267 -0.012060394 0.35457876 0.39317155 0.25869748 0.10363453 0.2684309
-0.08044336 -0.14640467 0.07289372 0.2760046 -0.30285048 0.20446515 0.32064158 -0.08905556
0.34038728 0.39585426 -0.018110871 0.1539545 0.14653826 0.33297718 0.35825023 0.2416492
-0.23134759 0.004998248 0.13389038 0.10721121 0.18289903 -0.4340582 0.2607351 0.40083557
0.19555925 -0.06224204 -0.2245835 0.20234983 -0.5494631 -0.14108604 -0.74614275 -0.37150088
-0.3497309 0.4636553 -0.33372512 -0.5255209 0.12884368 -0.24384333 -0.60923237 -0.4077695
-0.27711573 0.14641698 -0.19560787 -0.3045103 0.5934717 -0.094637275 0.23471014 -0.37078986
0.19346844 0.51679087 0.14571543 0.14968653 0.46945027 0.5718131 0.35165295 -0.22225693
0.034029473 0.12197417 0.30853906 0.1629587 0.15665892 0.14225975 0.32067168 0.2577016
-0.8059992 -0.062261865 0.56708014 0.45261118 0.31307864 0.41977358 0.3442255 0.47844785
0.45561874 -0.34434307 -0.4153692 0.72563815 -0.21891649 -0.36123276 -0.735397 -0.50250965

encoder.rnn.bias_hh_l0 f4 [128]
00000000: cec8 e0be d057 01bf 0677 64bf 00c7 c5be
00000010: b124 8e3e 8b56 1d3d 04fc 24be a1d5 34bd
00000020: 02b3 89be f06b 5cbe b62d 163f ade8 66be
00000030: 9849 05be 1abf 59be 476c 023e 3c31 06bf
00000040: 82ef b2bd 3d6b cebe 19ec 00be 0623 29bf
00000050: 7bbb 56bc e235 c6bd 9058 193e ab17 aabe
00000060: 2410 fb3d acf9 0bbc d2f9 08bf 8360 95be
00000070: 49d7 b5be 9d72 9cbe 1eff c73e 59c7 83bd
00000080: ebdc 33bc dd12 2d3e 7fde 7e3e 59c8 3f3d
00000090: b50f 913e 6b55 993e 06c7 713e c3ea 1bbb
000000a0: e96c 59be f24e 893e 6673 59bb c085 8b3e
000000b0: 0458 183f da23 dd3d c184 31bc 6ad0 843e
000000c0: fb8a 90bc a889 c53d 01a8 233e 09f8 473e
000000d0: 974e a6be 2f8a a23d 9b48 003f 2635 cc3d
000000e0: e04f 8c3e d727 883e 1f39 2b3e 4d2f 933e
000000f0: b7fa 3fbc 8674 ea3d 6472 a83e 2f63 1b3e
00000100: c86a 58be a341 0dbc 4db9 16be 8d4e a4bd
00000110: cbe2 803e f0ec 20bf 3555 233e 909e be3e
00000120: e16b 943d 5f07 d63d ae38 7bba 1b7e 8f3e
00000130: 9fa8 15bf a030 2abd 5fef f8be 4032 fdbe
00000140: a4c6 fbbe 0695 ee3e 00a8 72be ee0d 99be
00000150: baaf 033e 5bb2 b0be d615 46bf 2993 bfbe
00000160: ee12 cdbe 1e69 e9bd 50da 02be b062 10bf
00000170: d447 e23e 3599 a1bd 6fda ad3e c94d 09bf
00000180: a90d cc3d 5e7a c63e a145 623e 7ffc 643e
00000190: c824 313f 752b 273f 7e5f bf3e 2b4d cebe
000001a0: 0e5a 7c3e d867 db3e 63d4 8d3e 1779 3e3c
000001b0: 1ed3 433e 4149 fd3d b80d dc3e e0f7 9e3e
000001c0: 6911 57bf f6e6 68be 1314 103f 2f3a 8c3e
000001d0: 44e7 1b3e 5237 043f c872 d23e 6c67 2e3f
000001e0: 294c f13e 8030 30be 9bde eabe 4fba 5a3f
000001f0: 04f9 99be d3f0 00bf 0e6e 4abf 6d26 27be
-0.43903202 -0.50524616 -0.89244115 -0.38628387 0.27762368 0.038412612 -0.16111761 -0.044149045
-0.26894385 -0.2152555 0.586635 -0.22549696 -0.13016355 -0.21264306 0.12736617 -0.52418876
-0.08737089 -0.4031619 -0.12590064 -0.66069067 -0.013106222 -0.09678246 0.1497519 -0.33221182
0.12258938 -0.008543413 -0.53506196 -0.29175195 -0.35515812 -0.30556193 0.39061826 -0.06434507
-0.010977964 0.16901727 0.24889563 0.046821926 0.28332296 0.2994798 0.23611078 -0.0023791052
-0.21232952 0.26818043 -0.0033180355 0.2725048 0.595093 0.10797854 -0.010834874 0.25940257
-0.017644396 0.096453965 0.15982057 0.19528212 -0.32481834 0.07936513 0.5011079 0.09971075
0.2740469 0.26592895 0.16721009 0.28747025 -0.01171749 0.11448006 0.32899773 0.15174554
-0.21134484 -0.008621606 -0.14719124 -0.08022795 0.2517303 -0.6286154 0.15950473 0.3723035
0.07247139 0.10450625 -0.0009583336 0.28025898 -0.5846042 -0.04155028 -0.48620126 -0.494524
-0.49174988 0.4659807 -0.236969 -0.2989344 0.12860003 -0.34511074 -0.7737707 -0.37416962
-0.40053505 -0.11397003 -0.12778592 -0.56400585 0.44195426 -0.0789055 0.33955714 -0.53634316
0.09963543 0.38765234 0.22096874 0.22361945 0.6919675 0.65300685 0.37377542 -0.4029325
0.24643728 0.42852664 0.277011 0.01162555 0.19123504 0.12367488 0.42979217 0.3104849
-0.8401094 -0.22744355 0.5628063 0.2738814 0.1522494 0.5164691 0.41103196 0.6812656
0.47128418 -0.17206001 -0.4587296 0.85440534 -0.30072796 -0.5036747 -0.7907418 -0.16323252

decoder.rnn.weight_ih_l0 f4 [256, 32]
00000000: 9af0 b63e 487b 61be ab6b 883f a39e 0f3f
00000010: 9109 a93e 83fa e03e b550 dfbe f1cf 17bf
00000020: 2f7e d63c f93c 093f 79e9 443d a008 8ebf
00000030: 941e 893f 1e5b 7bbe 55c3 acbe 986b a93f
00000040: 219f dbbd b5ab 5cbf 6d51 a13e 75ef 63bf
00000050: e84e 06be 05bd 8dbe 34d6 8a3e 13d3 c9be
00000060: a802 52be f27c cbbe 6bde a33f 709c 47be
00000070: 52b6 92be 9e1d 8f3e fe98 a93e 5ee4 653f
00000080: 5492 0bbe 0ea8 0dbf 327c 0240 e486 253f
00000090: 265e 603e eb2a a73d 5755 e73d 890e 2cbf
000000a0: 9342 05bf 73a7 463f 9959 08bf 2342 6abf
000000b0: 9d4b 373f 1a3a bb3d 0bb6 383e 891f 153f
000000c0: c20e c2be e002 d4be 6f9d 0abc 8c8b 003f
000000d0: 1d7a d7be 4f30 d3be ea29 883e ea1c 30bf
000000e0: cb21 80be 1443 71bf a66f 963f b858 05bf
000000f0: 5c42 723e 67c2 383e 672a 0d3e 9f65 fa3e
00000100: 623b f03e 0ab6 0cbf c212 7c3f 983a 383f
00000110: 0240 eabd 3ceb f73d d1af e5be 70dd bdbe
00000120: 253c 0bbf 56c4 313f 9c54 6dbe 0a05 7ebe
00000130: d6a2 743f 12a2 2dbd 28f7 28bf 5bfc fd3f
00000140: 916e fe3d d63a 493d 9267 6cbd cea9 0fbe
00000150: d331 9fbe 8c19 a0be 049f 66be 76f6 80bf
00000160: 86bd 3fbe a79b fdbe a50a 903f bdea debe
00000170: e5f6 31bf 5e16 2bbe 0a08 f03c 51bf d73e
00000180: 68b9 1cbe 06d1 bebe 0a58 7c3e 555e 5f3e
00000190: 6646 4dbf cf98 febe c4a5 983e cd79 d9bd
000001a0: 65ad 123f 7599 04bf fc0b 4abf 012b 24be
000001b0: 4545 ba3d 798a fc3e 39b6 00bf 1ae8 3d3f
000001c0: 4143 203e cd4d 5f3e 296f 17bf 6c25 ae3e
000001d0: 8663 7e3e 29e8 f1be fc22 e6be 3444 d2bc
000001e0: 7515 c2be 1270 6c3e c463 093e 08f0 febe
000001f0: ae60 06bf a1d1 08be 0e07 e8bd b64b 2f3f
00000200: 874b 96be a061 e7be 19d6 b23e acea 4e3e
00000210: cb11 a2bf 0ddb 1cbf ff3c 9f3e 371c be3d
00000220: 5639 1e3f 5f75 b7be cc6b 63bf ee08 d3be
00000230: 2a04 b9bc abed 0e3f e83d 01bf 87e1 023f
00000240: dc4b 99bc dbfc ac3d eb89 20bf 0041 0d3f
00000250: 5085 2e3d f6f7 0ebf aca4 f4be 4e2e debd
00000260: 1dc9 debe 5c95 933e 4021 d83d acef 23bf
00000270: b40f c6be 1d6d dabc 1453 a5bd 640b 983f
00000280: 10f0 e7be 991b 3dbf 5bba 9d3e f0e2 d23e
00000290: 3c7f 24bf 1ada 73bf 706e 9a3e 91bf bd3e
000002a0: 4b64 d13d 002a 7bbe 8783 5abe 817c c13e
000002b0: 0fb9 6dbe 0638 6b3f 0e1d a2be 924b babe
000002c0: e477 85be 1578 b639 1e54 34bf c8c4 f8bd
000002d0: aec2 cf3d 8ea4 64bf 10a1 cdbe 58e8 a5bb
000002e0: 830f 6dbf b8ff 3e3d 329f 11bb ee5e 6dbf
000002f0: 985a 7e3e 7108 8f3e 1139 953e 952f c2be
00000300: 0bca 8e3e 897f 02bf a1d3 2d3f c10d b5bd
00000310: e970 723e 3b39 0e3e d6a7 fbbe 518d 5fbe
00000320: 4c2f ddbe a851 13be 429b c6bd 78a4 d5be
00000330: 71de 383e c9c3 473e 9704 46bf 7d28 a93f
00000340: 5492 8cbe 59b4 8fbe de53 c33e 77f1 eebe
00000350: 7de4 47be 4e58 f6be d65e 113e 24ba 7ebf
00000360: e80c a5be 34f9 4e3e d723 273f 71c8 00bf
00000370: 69cb 073e eb49 363e 2b4c df3e b7ba b73f
00000380: f4e7 a5be 614f 50bf e39a b83f 8ebb e73e
00000390: ed69 883e 9c54 eabd 80c0 633e 19c8 b1be
000003a0: f64c f8be a611 333f c539 babe 4ffd 54bf
000003b0: 36c6 413f 7100 503e 56a3 1c3e 954d 243f
000003c0: 7ae8 edbe f44b 75be 4125 f2bd 95c9 983e
000003d0: fa27 dcbe 3d9b 0ebf 96c9 eb3b 8221 a2be
000003e0: ef22 c7be 425f 9bbe df94 513f 672d 07bf
000003f0: abad 423e 6d69 793e dbf0 8d3e bca2 933e
0.3573044 -0.22019684 1.0657858 0.56101435 0.3301511 0.43941125 -0.43616262 -0.5930167
0.026183216 0.5360866 0.04807422 -1.1096382 1.0712457 -0.24546477 -0.33742777 1.323596
-0.10723711 -0.86199504 0.31507435 -0.8903726 -0.13116038 -0.27683273 0.2711655 -0.3941885
-0.20508826 -0.39743763 1.2802252 -0.1949327 -0.28654724 0.27952284 0.33124536 0.89801586
-0.13630038 -0.55334556 2.0388303 0.6465895 0.21910915 0.08162483 0.11295574 -0.6720968
-0.5205471 0.7759926 -0.53261715 -0.91507167 0.7159975 0.09141941 0.18038194 0.58251244
-0.37901884 -0.41408443 -0.008460387 0.5021293 -0.42085353 -0.41247794 0.26594478 -0.6879412
-0.25025782 -0.9424298 1.1752822 -0.520885 0.23658127 0.18042909 0.13785706 0.48905656
0.46920305 -0.5496527 0.9846612 0.71964407 -0.1143799 0.12105414 -0.448607 -0.37083006
-0.5438865 0.6944021 -0.23176807 -0.2480661 0.9556097 -0.04239089 -0.6600213 1.9842638
0.124234326 0.049128376 -0.05771596 -0.14029619 -0.310927 -0.3126949 -0.22521597 -1.0075214
-0.18724641 -0.49532816 1.1253248 -0.43538466 -0.69517356 -0.16707751 0.029300708 0.4213815
-0.15305102 -0.37268847 0.24642959 0.21813329 -0.80185544 -0.4972596 0.2981397 -0.10618935
0.5729583 -0.51796657 -0.78924537 -0.1603203 0.09095243 0.49324396 -0.5027805 0.74182284
0.15650655 0.21807022 -0.5915399 0.34012926 0.24842653 -0.47247437 -0.44948566 -0.025667287
-0.37906995 0.23089626 0.13416964 -0.49792504 -0.5249127 -0.13361217 -0.113294706 0.684749
-0.29354498 -0.4519167 0.3492897 0.20206708 -1.266168 -0.61271745 0.31101224 0.09282725
0.6180624 -0.35831735 -0.8883636 -0.4121775 -0.022584993 0.558314 -0.50485086 0.5112538
-0.01871293 0.08446666 -0.62710446 0.5517731 0.042607605 -0.5584711 -0.47781885 -0.10848676
-0.43512812 0.2882489 0.10553217 -0.64037585 -0.38683856 -0.026663357 -0.080724865 1.1878476
-0.4530034 -0.73870236 0.3080624 0.41188765 -0.64256644 -0.9525467 0.30162382 0.37060216
0.102242075 -0.2452774 -0.21339236 0.377903 -0.23215126 0.9188236 -0.31662792 -0.3638578
-0.26068032 0.00034803213 -0.7044085 -0.12146908 0.10144554 -0.8931359 -0.40161943 -0.005063098
-0.92601794 0.04663059 -0.0022220132 -0.92722976 0.24839246 0.27936128 0.291451 -0.37926927
0.27888522 -0.50975853 0.67901045 -0.08840514 0.23675884 0.13889019 -0.49151486 -0.21831252
-0.43200147 -0.14386618 -0.09697582 -0.41727042 0.18053605 0.1950828 -0.77350754 1.3215481
-0.2745539 -0.28067282 0.38149923 -0.46668598 -0.19520755 -0.48114246 0.14196333 -0.9950278
-0.3223641 0.20212251 0.6528906 -0.5030585 0.13261189 0.17801635 0.436128 1.4353856
-0.3240353 -0.8137112 1.4422268 0.4526028 0.26643315 -0.11441919 0.22241402 -0.34722975
-0.48496217 0.69948804 -0.363722 -0.8319902 0.7569307 0.20312668 0.15296683 0.6418088
-0.46466428 -0.23954755 -0.11823512 0.29841295 -0.4299925 -0.55705625 0.007195662 -0.3166619
-0.3889384 -0.30346113 0.81867784 -0.52803653 0.19011562 0.24356623 0.2772282 0.28835094

decoder.rnn.weight_hh_l0 f4 [256, 64]
00000000: 782c b53e 31d2 a23e 587e 8ebd f423 5bbd
00000010: 1112 afbc 9f36 2b3e 4859 40be 8a0b 7a3d
00000020: f946 32be 84da 84bd 7226 573b 6179 0ebe
00000030: 39a8 8bbe eddd f8bc 68df 533c 136f 8d3d
00000040: 757c 9c3c e33f 083e 5ecc 2e3e 9df0 8c3e
00000050: 672d 763e a6f9 ad3d 5231 913e f6ee 36bd
00000060: afe6 443e b8a5 c53e e26e a43d 8847 b13c
00000070: b022 933e 8e02 663d 96b6 08be cdcf 133c
00000080: dc73 a5bb 24f4 ea3c cf75 8e3d 7fe8 12be
00000090: b5b7 033e c2dc 0e3e aae0 36be c077 2b3e
000000a0: 6387 aebd d2f8 bcbe 7013 69bb c279 b03d
000000b0: 3614 353b 6954 0b3e ac59 673d 8d3f 47bf
000000c0: 239e f1bd 9e76 23be 5b04 6b3d c3e9 09be
000000d0: 9e1a 7dbd 7007 64bd 7ecb 083b 8ba2 1dbe
000000e0: ebe5 45be 03ae 043d f634 35be 6c10 b83c
000000f0: 9e31 05be 10b9 8cbe cd7b 9bbe 5cd3 2fbe
00000100: acfc a83d 3762 e8bb 80f8 0dbe c2a8 463e
00000110: e49f 9a3e af55 fe3c 61e4 243d 7843 093e
00000120: 7d28 8bbe de16 afbd 626f 82be 6c1e ba3e
00000130: 569c 4a3d 952c 83be f192 183d fc4a 713e
00000140: 5869 55be 37e8 e2be 7467 83bd 19d6 1a3f
00000150: 2ee3 813d c30c 573e 7ebf a7bd 7e66 1f3d
00000160: 152d a63d a161 4ebd 9079 c2bc e78b 4a3d
00000170: 5368 833d e988 643d 86c4 42bd f5f9 f1bd
00000180: 0b46 f8bd 7d78 fd3d cbde fd3e 47d1 813e
00000190: e2e4 b7be 436e 123d 59b8 1b3e d6cc b1be
000001a0: ebc4 df3e 57c2 173d 7307 ef3e 243d 1dbe
000001b0: ccbf 1abe 41de 8b3e 6d93 86be 3ce1 43bb
000001c0: d343 5cbe 6ca0 21bf 260f 8fbe e09c 88bb
000001d0: df5b cabd e1a3 483e 2a04 653e 1b3e 1d3a
000001e0: 5376 2e3e 1e12 87be ae9c 8abd e24f ca3c
000001f0: ebb6 8fbc 7081 9e3d 403f a53e 9172 b33d
00000200: bc70 acbe 0a50 25be 7b79 06be b8ff 09bd
00000210: d89a 5e3a 6ec6 813e 7d6d 053d fafc 8f3e
00000220: 631b 9cbc 6866 4cbe e927 283e ccb3 673f
00000230: 83a9 36be dfdf 24be 9484 00bd c85d 243f
00000240: e278 23bf b50f 493f 71ff 923e 0dbd a43e
00000250: d6f4 0bbe a799 e43c ffa0 373e f815 383d
00000260: 3994 45be f80d 8abd a92b 03bf 45a2 d53d
00000270: d19c 38bd 3c49 263c 7848 8fbc f6da 88be
00000280: 2010 b63d 11a6 4dbd 643c dbbe a0ca 10be
00000290: f537 8abd 8b8f e33d 03cb eabb 14cf 9fbe
000002a0: 0181 a33e 6e13 61be c410 3f3e dc05 7d3d
000002b0: b2dd 763e 36d8 8a3e 3cb8 f73e bacf 03bf
000002c0: e8a4 25be 7143 27be 4153 17bd 9286 4a3e
000002d0: 8f43 76bc 9da1 97bd 924c 70be f5d7 a33d
000002e0: feed 60be 5819 22be b038 64bd 455a 83be
000002f0: e449 813d 4fc6 0ebe eeb8 4d3d bb3d 70bf
00000300: 5255 d73c cbdc acbe 5a8f 033d 44f3 02bf
00000310: 4959 85be 20ba c43e c3e0 e13d c9d1 c73d
00000320: f92d afbe dd4c c9be 302c e4bd 2cf7 073f
00000330: 58c4 e3be dbc6 803b 6b06 d5bd ad65 aebd
00000340: 1bad 35be 7042 a53e f626 963e 2d7b a93e
00000350: 4d6b a9bd 7262 933c 6a15 d73e 2714 c8bd
00000360: 861f 9c3e 3982 813e ac5d fabc 22ac cc3d
00000370: 6888 6f3e e8ec 5c3e 2b02 0abe b37c 92be
00000380: 2e56 abbd c301 a1bd f18c 263e fbda 37be
00000390: 85ec 9f3e 99ee a43e 7dd9 e53d 0140 8a3e
000003a0: 725c 9b3e 4e33 d1be 3ba5 d03e 3b99 b6bd
000003b0: ef55 e6bc 290f 793e f6db afbe e5c7 dc3d
000003c0: 9029 5dbe 2790 01bf ff93 9f3e 8bf0 74be
000003d0: 8bca 95bd b858 9fbe 9b8a 72bd ae20 8bbe
000003e0: 7f68 bbbe a5dd eabd 81fb dcbd 1451 cdbe
000003f0: 5fc9 85be 6f69 bebe cdc1 0c3d 7423 4d3f
0.3538549 0.31800988 -0.06957692 -0.053501084 -0.02137092 0.16720055 -0.18784058 0.06104616
-0.17409886 -0.06486991 0.0032829312 -0.1391349 -0.2727678 -0.03037926 0.012931682 0.06905951
0.019102314 0.13305621 0.17070147 0.27527323 0.24040757 0.08494882 0.2835794 -0.044661485
0.19228624 0.38602996 0.08028962 0.021640554 0.28737402 0.05615478 -0.13350901 0.009021712
-0.005049212 0.028680868 0.06956064 -0.14346503 0.12863047 0.139514 -0.1785914 0.167449
-0.08521917 -0.36908585 -0.0035564564 0.086169735 0.0027630455 0.13606419 0.056482002 -0.77831346
-0.1179774 -0.15963218 0.0573772 -0.1346808 -0.061792962 -0.055671155 0.0020873244 -0.15394036
-0.19325988 0.032392513 -0.17695984 0.022468768 -0.13007209 -0.2748494 -0.3036789 -0.17170471
0.08251318 -0.0070917862 -0.13864326 0.19400313 0.30200112 0.031046716 0.04025686 0.13404644
-0.27179328 -0.085492834 -0.25475603 0.36351335 0.0494655 -0.2561995 0.03724951 0.2356376
-0.20840967 -0.4431779 -0.064162165 0.6048294 0.06342159 0.21000962 -0.08190821 0.038916104
0.081140675 -0.050386075 -0.023739606 0.049449828 0.06416383 0.05579463 -0.0475507 -0.11815254
-0.12122735 0.12376497 0.4958404 0.25354978 -0.3591681 0.035749685 0.15207042 -0.3472659
0.43704924 0.03705057 0.4668537 -0.15355355 -0.15112227 0.27318004 -0.26284352 -0.0029888889
-0.21510248 -0.6313541 -0.27941245 -0.0041690916 -0.09880804 0.19593765 0.2236487 0.0005998329
0.17037325 -0.2638101 -0.067681655 0.024696294 -0.017543277 0.07739532 0.32274818 0.08762086
-0.3367976 -0.16143814 -0.13132279 -0.033691138 0.00084917014 0.25346702 0.03257512 0.28122693
-0.019056028 -0.1996094 0.16421475 0.90508723 -0.17838101 -0.16101025 -0.031376436 0.642056
-0.6385633 0.7853959 0.2871051 0.32175484 -0.13667616 0.027905298 0.17932509 0.044942826
-0.19294824 -0.067409456 -0.51238495 0.10431341 -0.045071427 0.010149296 -0.01749061 -0.26729554
0.08889794 -0.0502072 -0.42819512 -0.14139795 -0.06748954 0.11111363 -0.007165314 -0.31212676
0.3193436 -0.21980068 0.1865874 0.061773166 0.24108008 0.2711808 0.48382747 -0.5148884
-0.16176188 -0.1633432 -0.03694463 0.19777897 -0.015030756 -0.07403872 -0.2346671 0.08000175
-0.21965787 -0.1582998 -0.055718124 -0.25654808 0.06312922 -0.13942836 0.05022519 -0.93844193
0.026285801 -0.33762202 0.032119133 -0.51152444 -0.26044682 0.38423252 0.11029198 0.0975681
-0.34214762 -0.39316455 -0.111412406 0.5311153 -0.44485736 0.0039299554 -0.10401615 -0.08515487
-0.17741816 0.3227725 0.293266 0.33101788 -0.08272419 0.017991278 0.42008525 -0.09769469
0.304928 0.25294665 -0.030562244 0.09993769 0.23391879 0.21574748 -0.1347739 -0.28610763
-0.08366047 -0.07861664 0.16264702 -0.17954628 0.31235138 0.32213286 0.11223123 0.27001956
0.30343968 -0.40859455 0.4075106 -0.08915945 -0.028117148 0.2432219 -0.34347504 0.10780314
-0.21597886 -0.50610584 0.311676 -0.23919885 -0.07314023 -0.31122375 -0.059214216 -0.2717337
-0.36603162 -0.114680566 -0.10790158 -0.4010092 -0.26130196 -0.37189814 0.03436451 0.8013222

decoder.rnn.bias_ih_l0 f4 [256]
00000000: 9ee9 0e3f 4e17 153f d638 133f 1da3 163f
00000010: acb7 243f 9045 7d3f e0a7 513f a773 3f3f
00000020: 66b2 dd3e cc3a 733f 0198 073f ac37 013f
00000030: bfe9 5f3f ae42 2e3f 1576 dc3e 1c11 2e3f
00000040: d426 513f f39f 333f c97f 1b3f ebf5 6c3f
00000050: 6348 423f c81d cc3e 22ce 4c3f 6db3 443f
00000060: b1d9 b73e 7af9 8e3f 3a5b f73e 01dd 803f
00000070: 78f9 213f 5acf 213f eccf f63e b0d0 c13e
00000080: 5dc5 d13e ee45 003f 93cb 223f 8ebd 3c3f
00000090: d29d 713f 541d 5f3f 5885 f33e b11d 1d3f
000000a0: d63f 053f fe31 423f 392c 003f f175 9a3e
000000b0: 25d0 3c3f f8a1 af3e 3760 a53e a022 d83e
000000c0: f05c 343f 90e4 083f 279b 043f 45c2 bf3e
000000d0: ecad 343f b5a0 573f 27ce 183f 8af7 e13e
000000e0: 8afa 633f 6322 203f e677 ca3e ac0d fa3e
000000f0: b9d6 bc3e feec 803f e089 093f 7d07 c53e
00000100: b9fc d6bb ee32 41be 3501 f83d 3d6e dd3e
00000110: 876d a23e 1ee0 a03e a801 883e 8204 823b
00000120: d3cc d33d 3ce6 1c3e 3f15 d13b b917 533f
00000130: 838e 753e e2b2 fabc 19ac 113d edf1 983e
00000140: da01 f0bc 40c1 95bb 04ce 293e b261 fd3c
00000150: a6ad 3e3d d47d 9a3d e025 fa3e 8aae e83e
00000160: 1518 f4bc 1666 6f3e eae3 a6bc 948b aa3e
00000170: ff2e 1e3c c441 843c f843 e43e 9af2 173f
00000180: afe0 7d3e 875e f33e 5aa3 19bd 550a 3e3e
00000190: e057 943e 9cbd d53e 9ebb 2e3e 2f65 4d3e
000001a0: 2ca5 2e3d 3b53 0d3e 71c2 c03d 8410 e13e
000001b0: 81b1 f53d 9b94 1e3e d1ea b03e 9f35 3d3e
000001c0: 181f bd3e 7f0b cc3d e2f1 ba3e 191b 103d
000001d0: e734 b13d 8d96 ab3e 881b b1bd c263 193e
000001e0: 119b b63e 4c3b c4bc 385d a93d 4381 e93e
000001f0: b191 953d a903 c13e 6fc6 3f3e 8ede c43e
00000200: fae7 bc3e 2135 a43e a1cb 8cbe 6c2c d13e
00000210: 2ba6 be3e 767a 17bf 03b8 9bbe 088d a4be
00000220: 0f24 9abe 81ea 9d3e 1f7e ccbd 493f 1f3f
00000230: 2608 a03e 3532 a1be 443a b33e 7d4b 98be
00000240: 5f00 b73e dc33 9f3e 96cd 02bf ae87 843d
00000250: 5252 3c3e eb30 913e e915 09bf 97a4 0f3f
00000260: 4802 4f3e db8c bb3e 6a89 cf3e 53b1 d23e
00000270: aa83 7d3e 6f31 8e3e 3403 16be c612 debc
00000280: dc2c 01bf b2bd 9f3e ffe5 f03e e910 963e
00000290: 6a14 3ebf 9239 fabe 309d 223d 9e3f dfbe
000002a0: 359d 9d3e ca29 263f cb83 903e 4ca3 873e
000002b0: 1688 bdbe 386f 723e c0b4 0ebd a4ab cebe
000002c0: 50ca fd3e 986d a7be c6c6 eebe d735 25be
000002d0: b84e c5be 5816 fe3e d5e4 07bf df0d 1abf
000002e0: 68df 0a3f 1842 c8be 94ab 6bbe 139f 4b3e
000002f0: 42a3 a1be 5b8b 093f 22b9 f0be 0fbd 6b3e
00000300: 63e1 183f c00b f43e d851 de3e 4d14 503f
00000310: d759 5c3f d2a2 4d3f 4bb6 a93e adea b33e
00000320: ec51 033f 4adb 3b3f e963 8b3e d1bf 5d3f
00000330: 2811 7f3f 0f47 d03e ee01 083f 3b58 3a3f
00000340: 4ed8 d23e ad54 3f3f 22ef 6c3f a664 303f
00000350: d8b5 463e 9b5f f13e 558a 373f 1c88 223f
00000360: b030 583e a22a 2c3f c403 0f3f 8042 ad3e
00000370: be03 f83e 7375 f03e a0b7 b73e 0432 553e
00000380: 1231 2d3f 7374 0e3f e6dd 803f efc3 793f
00000390: 21b5 683f b732 313f fd05 fa3e 3527 613f
000003a0: d4cd 1f3f d3a9 833f 7d26 2a3f 2728 ab3e
000003b0: c553 023f 53aa 0d3f 4176 2f3f 419a 413e
000003c0: 55ba 503f d11a 123f 3f01 323f 275e b03e
000003d0: 5c0d 2e3f b9ab 473f c8d2 283f 74c6 103f
000003e0: 639c 753f 4ee0 2a3f fdde 433f aa08 423f
000003f0: f133 663e db39 6a3f bd68 273f 9c82 2d3f
0.5582522 0.58238685 0.575086 0.5884264 0.6434276 0.9893427 0.8189678 0.74785846
0.4330017 0.9501159 0.52966315 0.50475574 0.87466043 0.68070495 0.4305884 0.67994857
0.8169987 0.7016594 0.6074186 0.9256274 0.75891703 0.3986647 0.80002034 0.7683628
0.35908273 1.1169884 0.48311788 1.0067445 0.63271284 0.6320702 0.48205507 0.37854528
0.4097089 0.50106704 0.6359188 0.7372674 0.9438144 0.87154126 0.4756267 0.6137343
0.5205053 0.7585753 0.5006748 0.30168107 0.73755103 0.3430326 0.3229997 0.42213917
0.7045431 0.5347376 0.51799244 0.37452903 0.70577884 0.84229594 0.59689564 0.4413417
0.8905417 0.6255247 0.395446 0.48838556 0.3688257 1.0072324 0.53726006 0.38482276
-0.0065608886 -0.18867084 0.12109605 0.43248168 0.31724188 0.31420988 0.26563764 0.0039678225
0.103418015 0.15322202 0.0063807066 0.8245807 0.23980145 -0.030602876 0.035564516 0.29872075
-0.029297758 -0.0045701563 0.16582495 0.030930374 0.046552323 0.07543531 0.4885702 0.45445663
-0.02979664 0.23378786 -0.02037235 0.33309615 0.009654759 0.01614464 0.44583106 0.59354556
0.24792741 0.47533056 -0.0375093 0.18558629 0.28973293 0.41746223 0.17063758 0.2005813
0.04263799 0.13801281 0.09412087 0.43957913 0.11996747 0.15486376 0.3455415 0.18477486
0.36937785 0.0996313 0.36512667 0.035182092 0.086526684 0.335133 -0.08647829 0.14979461
0.3566518 -0.023954056 0.08269733 0.4560643 0.07303179 0.37698105 0.1872804 0.38451046
0.36895734 0.32071784 -0.27499107 0.40854204 0.3723615 -0.59171236 -0.30413827 -0.32138848
-0.30105636 0.30842975 -0.09984993 0.6220594 0.31256217 -0.31483617 0.3500539 -0.29745093
0.3574247 0.31094253 -0.5109495 0.06471191 0.18390778 0.28357634 -0.5354906 0.5611052
0.20215714 0.36630902 0.40534526 0.41150913 0.24757257 0.2777209 -0.1464966 -0.027108561
-0.50459075 0.31199414 0.47050473 0.29309776 -0.742499 -0.48872048 0.039700687 -0.43603224
0.30784002 0.64907515 0.2822555 0.26491773 -0.37017888 0.23675239 -0.034840345 -0.40365326
0.49568415 -0.327008 -0.46636027 -0.1613382 -0.3853662 0.49626422 -0.53083545 -0.60177416
0.5424714 -0.39112926 -0.2301467 0.19884901 -0.31569868 0.53728265 -0.47016245 0.23021339
0.5971891 0.47665215 0.43421817 0.81280977 0.86074585 0.8032657 0.3314689 0.3513998
0.5129688 0.73381484 0.27224663 0.86620814 0.99635553 0.40679213 0.53127944 0.7279088
0.41180652 0.7473858 0.9255239 0.6890358 0.19405305 0.47143254 0.7169545 0.63488936
0.21112323 0.6725255 0.5586512 0.33839798 0.48440355 0.46964607 0.35882282 0.2081986
0.67653 0.5564644 1.0067718 0.97564596 0.9090138 0.6921801 0.48832694 0.8795045
0.62423444 1.0286201 0.6646498 0.3342907 0.5090907 0.5533802 0.68539816 0.189065
0.8153432 0.5707217 0.6953315 0.34446833 0.67989135 0.779964 0.65946627 0.56552815
0.9594175 0.6674851 0.7651213 0.7579447 0.22480752 0.9149453 0.6539419 0.6777742

decoder.rnn.bias_hh_l0 f4 [256]
00000000: 5988 f03e a1c7 213f e08c 123f 4d06 183f
00000010: bce6 213f 8502 7f3f 27e3 213f f472 163f
00000020: 9b83 043f 9ec0 7e3f 2ebe 1e3f d07d bd3e
00000030: ca23 633f 8c2c 273f ffa0 ed3e eae3 2d3f
00000040: 7d05 313f fb4f 143f 390e 1e3f 04dc 6e3f
00000050: d688 403f 9ee3 e53e c772 4c3f 7b7c 433f
00000060: 1931 b93e 9c98 8d3f 38fe ef3e b9a9 833f
00000070: 36e2 f23e a95e 233f 00b3 1d3f af8b b63e
00000080: 466b d53e 8326 073f cc4b 3b3f 75a7 3a3f
00000090: 51fa 703f 8c85 5f3f 1ced 163f de3b 1c3f
000000a0: 7ff0 193f 7c1b 3d3f cf64 e83e abd6 8d3e
000000b0: c75c 463f 9eaf 9a3e 6cf8 c03e 9204 113f
000000c0: 4a1c 343f 2a01 f13e 77fe 043f 07b3 a93e
000000d0: 668d 463f af88 533f 3a50 f33e 8c2c df3e
000000e0: 91ad 613f a610 1e3f 3541 c63e 1bb1 fa3e
000000f0: 59b0 bf3e 58f1 833f ea11 0b3f 03b6 aa3e
00000100: d0f9 23be 0e4a eabd e5a2 763e 9204 e03e
00000110: 6ce4 a73e bfd0 a03e 8825 833e fe27 f23d
00000120: 96d2 9b3d 4219 6d3e 7d5e 34be 3144 4e3f
00000130: 577c 4a3e cc49 5abc 85ad e33d f83f af3e
00000140: 8c2b 2fbe 51f3 243d 6def 383e c2d8 debc
00000150: 990b f2bd 9e37 923d 124b 013f 8e8f 853e
00000160: 3658 33bd 0122 4a3d 70d0 86bc d802 393e
00000170: 000f 30bd f401 8b3d ca25 ed3e b343 113f
00000180: 25d8 683e 710b a43e 0a9c 173d 4483 293e
00000190: 0d78 a73e 9fa3 d53e 9158 d8bc 6997 5e3d
000001a0: 3830 813d c0ca 243e 138c eb3d 44e2 ed3e
000001b0: 4bbe 443d 589e 51bd 3cb2 d03e 5db5 263e
000001c0: 2e75 bc3e 0641 8b3e 2dfd ba3e 7455 9f3d
000001d0: e83d 613d 6bac b83e 8299 b0bd 187f de3d
000001e0: 91ff b43e ebb4 a53d f844 cd3c 5888 f33e
000001f0: a536 5e3e 5260 c63e 8377 763e 8204 883e
00000200: a9bf 4c3e e673 f33d 5741 c2be 48bf d03e
00000210: 44c1 be3e 4ba9 15bf 8cb9 23be 2ed7 a6be
00000220: 8884 c0be e5aa b73e 8cb2 03bb 7a9a ed3e
00000230: 064c a83e f8c4 babe b6a9 a93e 3e77 8dbe
00000240: dc74 d13e f90b 3d3e 756a 06bf 3a0b d63d
00000250: 2612 aa3e 913e 963e 0b85 10bf 8e2d 0b3f
00000260: 13a6 753e 8c03 a73e bf6f 573e adfe d13e
00000270: ec6a 9f3e ffcd c53e adaf 91be 003e e2bd
00000280: 8578 eebe fc1e c23e 1976 023f e33a 903e
00000290: 6abd 51bf 81e6 f4be 6a87 153e b7a2 f0be
000002a0: 64a1 ae3e 74b1 2a3f b33f c13e 7adb a13e
000002b0: 9cf6 ccbe f1ac 623e bf24 e8bd b88b c6be
000002c0: 1828 f73e 5549 7cbe 0661 f9be f69e a5be
000002d0: bb90 dcbe a748 fc3e 4ce0 02bf af95 15bf
000002e0: 549e 133f 2a37 c2be 3d44 7ebe acc3 4e3e
000002f0: d076 adbe 9cba fa3e 307b dcbe fffa 5a3e
00000300: fe63 0b3f 3b48 cb3e c02e 703e 7a9e 7f3f
00000310: 5382 3b3f 9c84 693f f781 d53e 4a4f f23e
00000320: 4713 0c3f df13 213f 71b7 b93e e6e5 543f
00000330: 156a 543f 7963 903e 3743 003f e17f 4d3f
00000340: b243 d13e 4267 263f c7c3 6c3f 5101 393f
00000350: 5d10 d33e fdc2 063f 6490 5c3f d069 3b3f
00000360: 231d ef3d bcb3 573f 8827 0d3f e8e0 ca3e
00000370: f200 073f 2e6b 913e 6c8b 2e3e 3628 5d3e
00000380: 4a21 1e3f 2196 223f dc76 5d3f 128e 823f
00000390: d59d 4a3f ab86 313f d742 ea3e 91f2 623f
000003a0: bcc4 2a3f 9419 813f bdb5 003f 2322 343e
000003b0: d6eb 1f3f a1cb 0e3f a46a 0c3f 3a26 a03e
000003c0: 2732 4d3f f343 033f c67e 583f 3c64 d13e
000003d0: 7fd6 323f 6dab 453f fc20 173f eff4 023f
000003e0: 7ad7 4f3f 70c7 1f3f 625c 1b3f 9eea 283f
000003f0: a9c9 823e 5c3b 5d3f 7ac1 163f 2ca2 1b3f
0.46979025 0.63195235 0.5724621 0.59384614 0.632427 0.9961322 0.6323723 0.58769155
0.51763314 0.9951266 0.6200894 0.3701005 0.88726485 0.6530235 0.46411893 0.67925894
0.69149 0.5793454 0.6174045 0.9330447 0.75208795 0.4490022 0.79862636 0.7636182
0.3617027 1.1062198 0.4687364 1.028617 0.4743821 0.63816315 0.6160126 0.35653445
0.41683406 0.5279314 0.7316253 0.7291177 0.9413195 0.8731315 0.5895555 0.6102885
0.6013259 0.7387006 0.4538941 0.2770284 0.77485317 0.3021211 0.3768953 0.566476
0.70355666 0.470712 0.5195078 0.331444 0.77559507 0.8263044 0.47522146 0.43588674
0.88155466 0.61744153 0.38721624 0.48963246 0.3743923 1.0308027 0.5432421 0.3334199
-0.16013265 -0.11439906 0.24085577 0.43753487 0.3279146 0.3140926 0.25614572 0.11824034
0.076085255 0.23154166 -0.1761417 0.805728 0.19773994 -0.013323259 0.111170806 0.34228492
-0.17106456 0.040271107 0.18060084 -0.027202968 -0.11818618 0.071395144 0.50505173 0.26086086
-0.043785296 0.049348835 -0.016456813 0.18067491 -0.042983055 0.06787482 0.46317893 0.56743926
0.22738703 0.3203998 0.037014045 0.1655398 0.3270878 0.41726395 -0.02640942 0.054343615
0.06308025 0.16092968 0.115013264 0.4646169 0.04803304 -0.0511764 0.40760982 0.16280122
0.3680815 0.27198046 0.36521283 0.07779971 0.05499068 0.36069044 -0.08623029 0.10864085
0.35351232 0.08091148 0.0250573 0.4756496 0.21700533 0.38745362 0.24069028 0.2656594
0.19994988 0.1188734 -0.37940475 0.40770936 0.37256825 -0.58461446 -0.1598875 -0.32586044
-0.37601113 0.3587257 -0.0020095436 0.4640692 0.328705 -0.364784 0.33137292 -0.27630037
0.4090947 0.18461598 -0.5250619 0.1045136 0.3321697 0.2934461 -0.5645301 0.54366386
0.23989134 0.32619894 0.21038722 0.41014615 0.31136262 0.38633725 -0.28454342 -0.11046982
-0.46576324 0.37914264 0.5096145 0.28169927 -0.8192965 -0.4783211 0.14602438 -0.46999142
0.34107506 0.6667702 0.3774391 0.3161276 -0.40031898 0.22136284 -0.11335134 -0.38778472
0.48272777 -0.24637349 -0.48706836 -0.3234784 -0.4307917 0.4927418 -0.511235 -0.58431524
0.57663465 -0.37932712 -0.24830718 0.2019183 -0.3387971 0.48970497 -0.43062735 0.2138481
0.5444945 0.39703545 0.23455334 0.9985119 0.73245734 0.9121797 0.41700718 0.47326118
0.54716915 0.62920946 0.36272767 0.831633 0.8297437 0.28200892 0.5010256 0.8027325
0.4087196 0.6500131 0.9248623 0.72267634 0.41223422 0.5264128 0.8615782 0.7320833
0.11675479 0.8425863 0.55138445 0.39624715 0.5273582 0.28402084 0.17045373 0.2159737
0.61769545 0.6351033 0.8650949 1.0199606 0.7914708 0.6934611 0.4575412 0.88651377
0.6670644 1.0085931 0.5027731 0.17591147 0.6246923 0.55779463 0.5485022 0.31279165
0.8015465 0.5127556 0.8456844 0.40896785 0.69858545 0.772147 0.59034705 0.5115499
0.81188166 0.6241369 0.6068784 0.65983 0.2554448 0.864187 0.5888897 0.6079433
