detector_dev/models/cnn_lstm_ae_ringlength600_1.0percentGPS.pt (torch, 129255 bytes, 12 tensors)

encoder.cnn.weight f4 [8, 4, 16]
00000000: 8202 b23d b7e5 b13d 3f40 b23d 18e8 b23d
00000010: 22b2 b23d cc2f b33d 1ae8 b23d ec49 b23d
00000020: e9b9 b13d d5f6 b03d 6288 b03d 4c16 b03d
00000030: 6043 b03d 43d9 af3d 139e af3d d87d ae3d
00000040: 45b4 203d f088 2b3d 6e27 363d 63ee 2d3d
00000050: baf1 343d 372e 273d 0603 f13c 499c b83c
00000060: 5d0b a93c ac5d a03c 978c 603c 468b 873b
00000070: 514a 1ebb 6095 3ebc a2e6 5cbd b0da 86bd
00000080: 8d6b fb3d 864a fe3d 0116 fb3d 882b f73d
00000090: 57b3 f53d 52e9 ef3d 76a3 fb3d 5957 f73d
000000a0: e7b7 053e 1be9 0b3e 543f 053e 1f79 f63d
000000b0: f421 ef3d d3d7 de3d 4b96 dc3d 1aea db3d
000000c0: 742d 943c 7db3 88bb 7cd3 abbc aa28 08bd
000000d0: ca65 2dbd d98c 61bd 58a6 83bd 624d 8ebd
000000e0: e3a9 92bd f594 96bd 409f a4bd cef9 9ebd
000000f0: 03af 79bd e758 53bd dfea 70bd a791 9bbd
00000100: c63c d23d 248d cf3d 4547 cc3d 48f5 c83d
00000110: e7e0 c43d dd78 c03d 5220 bc3d 9cbe b73d
00000120: fd74 b33d 9a57 af3d 6e49 ab3d 6b83 a73d
00000130: 5d30 a33d 93ff 9f3d 208d 9c3d 3052 993d
00000140: f7db 00bd 67a0 04bc 6997 1a3b a005 1f3a
00000150: 29ba 40bb c46e e6bb da01 19bc bf2e 1eba
00000160: fd8c 983c d822 0a3d 45d8 253d b743 e83c
00000170: 6d1b 2c3c 2d86 c9bb 8c0d 6ebc e052 a6bb
00000180: 1189 083e 2cf9 083e 2028 083e ff5a 083e
00000190: 8593 073e 69ab 083e cfe4 083e abac 073e
000001a0: f069 063e 6e64 063e 35df 043e 750d 053e
000001b0: 3bf6 043e cd5a 083e 0504 083e 2cd2 073e
000001c0: 0939 9cbc c5ae 33bc 0a57 2abc a3e9 0dbc
000001d0: d09d a23a bd34 363c dc3b 773c b76f c43c
000001e0: 59a5 ce3c 426e bb3c f4f9 843c 8191 3f3c
000001f0: 86c6 7f3c 3ca3 993c 17cc 9d3c e674 a03c
00000200: 7848 ddbc 59ed 03bd e0a5 a8bd 49a4 713d
00000210: 1a3a 97bb c2b7 51bd bec0 093d bd41 72bd
00000220: c9f3 0d3d 1344 563c d329 11bd 56ab 4dbd
00000230: c9e8 0dbd e12e 0b3d 085b 203d 69f7 193e
00000240: 78fc f23e 7b4c f33e 96e6 ec3e fed5 f93e
00000250: 6d0f 0e3f 0de7 0f3f c933 123f c620 1a3f
00000260: 76aa 1b3f 5af6 1f3f ccb7 1f3f 4381 1e3f
00000270: 2fe0 1c3f 9412 183f 16d0 193f de80 183f
00000280: 32df 453a 62c5 2c3e 2f9b 9c3d c201 b33d
00000290: b371 e63d af9d be3d 462b 0d3e ff81 153e
000002a0: b3a5 913c e4de 353e a578 4e3e 8e2a da3c
000002b0: 7edc 383e 05b3 353e b5b2 e73d 5919 3a3e
000002c0: 75c0 c33e 7c88 d23e 3931 e23e 5567 fa3e
000002d0: c7f0 fe3e 989a fd3e 65d2 023f c7f9 093f
000002e0: 1276 093f c3fe 053f d187 083f 5d52 033f
000002f0: 32f8 023f 21f2 013f 0ab8 013f 743b fa3e
00000300: 9048 50bd 2d27 babd 7255 18bd b95e 3ebe
00000310: 5d43 0dbe e2a0 c7bc e981 55be 8d79 16be
00000320: 6546 1abe c784 e5bd d6e5 71bd 333e 97bd
00000330: 2a5e b8bd e195 cebd c724 82bc dbb6 40be
00000340: 6479 65bd 2aed d9bd 6f6f 0bbe 73cc 0fbe
00000350: b9cd 26be 923d 58be 04c5 62be 33ea 68be
00000360: 632d 6bbe 7a48 7bbe fa50 69be bc78 1bbe
00000370: 466e ebbd 3865 d2bd 500a a8bd 28bb 4ebd
00000380: 9366 25be effa 2dbe 19e3 1ebd dd2c 31be
00000390: ad12 31be 7b48 fcbc 0173 05bd 8b36 1fbe
000003a0: 7b56 48be 7824 33be fa4a 41be 624c 95bd
000003b0: 542b c8bd 0b36 10be c7ec 14bd 6d15 72bd
000003c0: fed4 87bd f987 aabd 4007 b3bd 2e24 cdbd
000003d0: fd6a 00be ad5e 12be f041 0dbe 40de d5bd
000003e0: ee48 91bd 9a0e f0bc 51b3 e43b 5fcd 543d
000003f0: 625e 9b3d ec61 ba3d b395 ee3d ede5 203e
0.086918846 0.08686393 0.0870366 0.087356746 0.087253824 0.08749351 0.08735676 0.08705506
0.08678038 0.086408295 0.08619763 0.08598003 0.08606601 0.08586361 0.08575072 0.085200965
0.03923442 0.04187864 0.044471197 0.04246367 0.04417584 0.04081556 0.029420387 0.02253546
0.020635301 0.019575916 0.013705394 0.0041364757 -0.0024153183 -0.011632293 -0.053930886 -0.0658468
0.12276373 0.12416558 0.12260056 0.1206885 0.11997097 0.11714424 0.12287037 0.12077207
0.13058434 0.13663141 0.13012439 0.12034821 0.11676398 0.10881009 0.107708536 0.10738011
0.01808808 -0.0041717873 -0.020974867 -0.033241905 -0.0423334 -0.055065963 -0.06428212 -0.06948353
-0.071613096 -0.0735263 -0.08038187 -0.0776249 -0.06095792 -0.051598456 -0.05881774 -0.0759614
0.10265498 0.10134342 0.09974531 0.09812409 0.09613209 0.09398053 0.09185852 0.08971903
0.08762548 0.085616305 0.08363615 0.08179363 0.07968209 0.07812419 0.07644105 0.07486379
-0.031459775 -0.0080948835 0.0023588783 0.0006066207 -0.0029407835 -0.0070322473 -0.00933882 -0.00060341874
0.018621916 0.033724636 0.040489454 0.028352601 0.010504586 -0.006150028 -0.014529597 -0.0050757974
0.13333537 0.13376302 0.13296556 0.13315962 0.13239868 0.13346638 0.13368534 0.13249461
0.1312635 0.13124248 0.12975772 0.12993415 0.12984554 0.13315888 0.13282783 0.13263768
-0.019070165 -0.010966961 -0.010396728 -0.00866166 0.0012406651 0.011120972 0.015089955 0.023979051
0.025225328 0.022879723 0.016232468 0.011692406 0.0156112965 0.018754594 0.019262357 0.019586992
-0.027012095 -0.032208774 -0.08234763 0.058994565 -0.0046150805 -0.051200636 0.03363108 -0.059144724
0.03465632 0.013077754 -0.035440277 -0.050212227 -0.03464583 0.033980254 0.039149314 0.15035786
0.47458243 0.47519287 0.46269673 0.48796076 0.5549229 0.5621193 0.5711027 0.6020626
0.6080698 0.6248528 0.62389827 0.6191599 0.61279577 0.5940335 0.6008314 0.59571636
0.00075482123 0.1687217 0.076467864 0.0874057 0.11252155 0.093074195 0.13786039 0.14600371
0.017779207 0.17760807 0.2016321 0.02663162 0.18052861 0.17744072 0.113133825 0.18173732
0.3823277 0.41119754 0.4417818 0.4890696 0.49793074 0.49532008 0.51102287 0.53896755
0.53695786 0.5234186 0.5333224 0.5129755 0.51159966 0.50760084 0.50671446 0.48873484
-0.05085045 -0.090895034 -0.037190862 -0.18590821 -0.13795228 -0.024368707 -0.20850338 -0.14694805
-0.15065916 -0.11206966 -0.05905708 -0.073849104 -0.09002335 -0.10087181 -0.015886677 -0.18819754
-0.05602397 -0.106409386 -0.13616727 -0.14042835 -0.16289414 -0.21117237 -0.22145468 -0.2274559
-0.22966532 -0.24539366 -0.22784796 -0.15182775 -0.11495642 -0.10273212 -0.08205092 -0.050471455
-0.1615241 -0.16990255 -0.038790796 -0.1730227 -0.1729228 -0.03079628 -0.03258038 -0.1554815
-0.1956424 -0.1749438 -0.18876258 -0.072899595 -0.09773889 -0.14083116 -0.03635862 -0.059102464
-0.06632422 -0.08326716 -0.08741617 -0.10016666 -0.12540813 -0.14293928 -0.13794684 -0.104427814
-0.07093988 -0.029303838 0.006979384 0.05195367 0.075863615 0.09100708 0.116496466 0.1571271

encoder.cnn.bias f4 [8]
00000000: 3122 633d 1460 bb3d 85a9 c63d 3135 2c3e
00000010: 61d9 2bbd 6619 02bf f3d1 123f 4e27 853d
0.05545253 0.09149185 0.09700302 0.16817166 -0.041955356 -0.50820005 0.5735161 0.065016374

encoder.rnn.weight_ih_l0 f4 [128, 8]
00000000: bb90 293d 9688 19be a616 2d3d 6049 ad3d
00000010: ee5e b33d 3451 bebd 97fd 1bbe 4944 063d
00000020: fae2 bdbc ecb6 f9bd f1a6 8ebd e53e 28bd
00000030: 9332 aabc e0a3 943d c981 2cbe f0b1 103d
00000040: b956 89be dc3a d0bd e55f 6abe 055e 16be
00000050: b294 913d 1254 1f3e b487 9ebd 9085 ee3d
00000060: d917 223e 7f74 d53d 17e9 913b 9c4e d53c
00000070: 563f 993e b542 713d fec9 f03d d565 ae3e
00000080: 5a3d 0f3e f585 f1bc 21be b4bd da91 133e
00000090: 90ad 1d3e 0000 5e3e 34e4 d43d 5f42 25be
000000a0: 8995 b6bd 28f4 ac3d 32de 2dbe 130a ab3d
000000b0: 19dd 1a3e 0222 babc e95e 13be 8d91 9cbb
000000c0: a146 ad3d 2893 eebd b635 21be 930f c13b
000000d0: 2f62 373d b39f d3bd f366 833d 5e9a 4bbd
000000e0: eb5e 8ebd 4142 8abc a4f8 a8bd 78c2 01be
000000f0: e1ce 5c3e f50c 923d c0ce 6bbd 32b8 9cbd
00000100: 2d51 013e 2054 823d 60ba b3bc d949 60be
00000110: 4165 90bd 2197 96be 5a49 69be 0bf1 99bd
00000120: fd4c 513e 4d00 15bd 9b65 2cbd b879 d63d
00000130: d0cb ee3c a64a 8ebd 4050 cc3d 0823 d53d
00000140: 4b58 9b3c d29c 01ba b007 a1be 6205 0dbe
00000150: 872a 9fbd 8b73 08be 3140 96be b715 90be
00000160: 01cd a5bd 4fb8 1a3e e642 8dbd f019 9f3c
00000170: fdbb 583e ddc8 a1bd 8ade 04be 1780 593d
00000180: 7be5 143c a4b9 f6bc 26f0 08be 240e 89bd
00000190: b4be be3c bd95 59be 0202 d03d bc41 a03d
000001a0: 7a96 e2bd a31d 01be d1f0 45be 17cb 16be
000001b0: c382 d83d 71a9 ec3b 9cba 043e 28a0 a43b
000001c0: eea9 a03c 44b9 6dbd 2dc3 d3bd c9fc 0bbe
000001d0: e083 54be 051c b23d 33ba d03d 3ce1 0c3e
000001e0: 2a3f 2fbe 323b 97be 692e 28be 5349 3dbe
000001f0: 2542 1cbe a76d 38bd 8f1f acbd 0479 5dbc
00000200: 2109 f2be 0992 ddbe 7283 7dbe 3214 8c3d
00000210: 352a f13d a46b cfbd 412a bf3d dc26 78bd
00000220: 697b 51be 9fb0 2bbe 38e4 35bd 8087 2f3e
00000230: 319c 143e 1ffd 4cbc 8f73 6c3c 4db4 2c3e
00000240: 99f6 4e3d bfd0 803b b4c9 be3d d652 433d
00000250: 2150 02be 062f 5b3d fa06 aebd c492 583e
00000260: 85bf 16be 30d3 c4bd e154 1ebe 82a3 e2bd
00000270: f97c 153e b7bf 193c 6096 273d 59a0 8bbc
00000280: f314 7a3e 1340 5b3e 9740 f93d 242c de3d
00000290: 931c 0f3e 15fd a13d 67cc bf3d 4777 a1bb
000002a0: 88b6 f3bd c99e 66bd a87a 913d ee44 08be
000002b0: 5d6b 0e3e fd7d 58bd b473 db3d 8207 b23b
000002c0: 5a78 b43e 7048 8a3e b6da 4a3e 0c37 8d3e
000002d0: 93bb 093e 73c1 853e 3e5e 703e 31f4 333e
000002e0: cac5 08bd 84c5 0cbd bb31 903d 62f6 8e38
000002f0: b591 d8bd 8fa4 4e3c 0a29 c6bd 14f4 1dbe
00000300: d88b 28bd 181c d7bd d6e5 2ebe 32d7 59bd
00000310: 23c1 0c3d 8d8f 80be ded0 57be 900c 9abe
00000320: 2401 263d 8332 85bd e9ba 263e 4c4f c7bb
00000330: 3115 b8bb e48f 0b3d 7b37 1cbe 6149 9abc
00000340: 243a a0be c65d 4ebd 04fe 75be aee2 8a3d
00000350: ebda 65be 0ab8 78bc fcf2 bbbc 3086 993d
00000360: 1874 273e 4313 ae3d d80f 2b3e e16a 32be
00000370: eeb6 f93d d808 e2bd eede 9a3d c1ff b1bb
00000380: a5eb 27be 2d6a 85bd 51fe 30be 02f9 12be
00000390: c8a2 0bbc 3e0f 2fbe 7ea0 a83b 0f74 47be
000003a0: 140c 943b 55ed 06be 2bdf b03d 86c0 33be
000003b0: eec8 02be 8064 b23c e63e 163d d7c4 133b
000003c0: 0a4e 0fbd a935 0fbe 0594 28be ddf5 3dbc
000003d0: 99ec 103d b391 c7bb 7e87 a03d 97fb 1a3d
000003e0: 4b0b 8bbc b78a f2bc ffa0 f5bd 666a 0fbe
000003f0: 4257 09be f59b 2ebe 1698 04be 69da cb3d
0.04139779 -0.1499351 0.042257927 0.08461261 0.08758341 -0.09292832 -0.15233456 0.032779966
-0.02317952 -0.12193093 -0.06965435 -0.041075606 -0.020776069 0.07257819 -0.16846384 0.035325944
-0.26823977 -0.101674765 -0.22888143 -0.14684303 0.071084395 0.15559414 -0.07740727 0.11646569
0.1582941 0.104226105 0.0044528353 0.02603846 0.29931134 0.058901507 0.11757277 0.34062067
0.13988248 -0.029482821 -0.08825327 0.14411107 0.1539824 0.21679688 0.10395089 -0.161386
-0.0891524 0.084450066 -0.16979292 0.08351531 0.15123405 -0.022721294 -0.14391674 -0.004778093
0.08460737 -0.116491616 -0.15743145 0.005891749 0.04477137 -0.103331946 0.064161204 -0.049707763
-0.06951698 -0.016877295 -0.082505494 -0.1267184 0.21563293 0.071313776 -0.05757022 -0.0765232
0.12628622 0.06363702 -0.021939456 -0.2190317 -0.07050563 -0.29412177 -0.22781888 -0.075166784
0.20439525 -0.03637724 -0.042089086 0.10472435 0.02914992 -0.06947832 0.09976244 0.10407072
0.018963 -0.00049443275 -0.31451178 -0.13771585 -0.07771783 -0.13325326 -0.2934585 -0.28141567
-0.08095742 0.1510937 -0.068975255 0.019421548 0.21165462 -0.0789964 -0.12975517 0.05310067
0.0090879155 -0.030117817 -0.1337286 -0.0669215 0.023284294 -0.21248527 0.10156633 0.07825038
-0.110638574 -0.12608962 -0.19330145 -0.1472591 0.10571816 0.0072223474 0.12961811 0.005023975
0.019612279 -0.05803801 -0.10339961 -0.13670649 -0.20753431 0.086967506 0.10191765 0.13757795
-0.17113939 -0.2953735 -0.16423954 -0.18485002 -0.15259607 -0.045026448 -0.08404457 -0.013517622
-0.4727259 -0.43275478 -0.24757174 0.068397895 0.117756285 -0.10127953 0.09334231 -0.060583934
-0.20457233 -0.16766594 -0.0444071 0.17141533 0.14512707 -0.012511521 0.014431848 0.16865654
0.050528143 0.0039311345 0.093158156 0.04768642 -0.12725879 0.053511642 -0.084974244 0.21149737
-0.14721496 -0.09610593 -0.15462066 -0.11066343 0.14598455 0.009384087 0.040914893 -0.017044233
0.24422054 0.21411161 0.12170523 0.10848263 0.13975744 0.079096 0.093651585 -0.004927549
-0.119000494 -0.056303773 0.07103473 -0.13307545 0.13908143 -0.052854527 0.10715428 0.005433024
0.3524807 0.2700839 0.19809994 0.2758106 0.1345046 0.26124153 0.2347345 0.1757362
-0.03339175 -0.034368053 0.07040735 6.81698e-05 -0.105746664 0.012612476 -0.09675796 -0.1542514
-0.04114899 -0.10503405 -0.17079863 -0.053183742 0.034363877 -0.2510952 -0.2107577 -0.3008771
0.04052843 -0.06503775 0.16282238 -0.006082451 -0.0056177606 0.03407277 -0.15255539 -0.018833818
-0.31294358 -0.050382398 -0.2402268 0.06781517 -0.22446792 -0.015180597 -0.022943012 0.07496297
0.1635288 0.08499768 0.16705263 -0.17423584 0.12193094 -0.11036843 0.07562052 -0.0054320996
-0.16398485 -0.06514392 -0.17284514 -0.14352801 -0.008522697 -0.17095658 0.0051460853 -0.19477867
0.0045180414 -0.13176472 0.08636316 -0.1755391 -0.12771961 0.021776438 0.03668108 0.0022547746
-0.034986533 -0.13985313 -0.16462715 -0.011594263 0.035381887 -0.0060903667 0.07838343 0.03783759
-0.016973158 -0.02960716 -0.11993598 -0.14005432 -0.13412192 -0.1705168 -0.12948641 0.09953768

encoder.rnn.weight_hh_l0 f4 [128, 32]
00000000: d99e a73e e309 853d 489b 24be 240c 6cbe
00000010: 288d 0b3e 8a89 c03e c340 4cbd 4d68 843c
00000020: c6f1 aabd decb 7f3e 5b67 fa3e 9646 f9be
00000030: c658 81be ef06 f7be d04f 8b3b 9b78 7fbe
00000040: 6662 843e 6dac 09bf 151a 7b3e 633d 07bf
00000050: a82c 9c3e 44b3 243e 4ae9 61be 276a af3c
00000060: 5d37 31bf 7985 c8be 2395 b43e 68ab dfbe
00000070: 87d2 19be 284f 50bd 23f8 d0be 0767 8dbe
00000080: c5aa 9b3d ec7d 8a3e 7e46 61be c273 e3bd
00000090: b67a 2cbf 49a4 363e e911 643d 1fff 4abd
000000a0: 13e4 0f3f e1d3 943e 484d 5fbe 42b0 89be
000000b0: bc3a a53b 0764 b3be d477 3abf 4a3a 85ba
000000c0: f85f 323e ba6a 98be ae63 e43e 8477 9ebe
000000d0: cb28 96be 106b 88bb 81e5 38be 22f1 b73d
000000e0: 39c4 84be 2d87 8cbe 079a bcbd 4612 cf3c
000000f0: c4e8 0fbd 9df4 423c 6e4f 93bd 7d3d 0ebe
00000100: 0d39 983e 0a21 6bbe bdf8 f53d 2596 c83d
00000110: 9dc0 94be 9d81 153f 6345 563e 1bfa 97be
00000120: a219 493e 65e5 903d c589 253e b578 c6bd
00000130: 25b1 8fbe ba1f 8dbe 01e7 663e 2f84 cabe
00000140: 12c1 043d 7245 41be 2664 a9bc 4063 09be
00000150: 8d41 cb3e e115 0c3e 66ec a4be b4d4 003e
00000160: 887e c53c 6abd 343c 3b8e a93d 0e94 17be
00000170: d8ee bcbd 07ef 883e 986e c9be b4f0 85be
00000180: b0b8 92be 477f a93e 4610 8c3e c831 0a3e
00000190: 48f2 203e 6b40 b4be aea6 c6be c605 9c3e
000001a0: df4f 44bc a83a bdbe a197 d7be f2fb 183c
000001b0: 951e 423e cdc2 df3b b270 993d b680 7b3e
000001c0: 1432 2ebd 5595 fd3d 938e 8ebe e3dd b73e
000001d0: 4c89 d5be 9707 99be 1377 273e 0b9f 883d
000001e0: c033 623e b570 c43c 51ff a0be f912 833e
000001f0: 2338 16bc 07bc 41be 8b2b 353d dbcb 8d3d
00000200: a237 9c3d 2854 453e 35d0 f8be d576 85bd
00000210: 2f9a c6bd 8a0e e8be 8cde eabe 09db 183d
00000220: 1f2c f8be cc22 82be 0794 09bf 803e 1f3c
00000230: c905 d13d 9556 7a3e bd0c 663e 17b9 d73e
00000240: e53d 103f 0397 7bbe 41fe 8dbd 8e12 8a3e
00000250: 8a23 fcbd 0301 b6be 5c2a 51be 6d78 95be
00000260: 6b01 ed3d 6316 2c3e 92f0 58be c98d 683e
00000270: c723 97be c80c 543e d641 d8bd 0164 673e
00000280: f2aa 453e 847b e4bd fc35 ffbe 0af2 f9bd
00000290: dffe 1a3d 1543 b9bd 34f5 0bbc 472e 08be
000002a0: e037 d53d eb49 423e ef23 a23e 5cb0 b0bc
000002b0: 053f c13d 6818 3cbd 13d3 a6be b210 ecbe
000002c0: 460d dd3e 1591 bd3c 4dc4 2c3f e3c9 aabe
000002d0: 772d cfbd 2265 533e e8f8 24be d5f4 df3d
000002e0: f1e3 59bd 8d6f 5dbe 5811 b93e 049e b1be
000002f0: 8ccd 1d3b d84a d3bd 5e91 07bc 26df 0bbf
00000300: 6da7 bf3d 13c9 c53d 32de 0c3d d010 a93e
00000310: b1db f03e 6e29 04be 81bd 453e 5e48 a4be
00000320: f25e c2be 8ac9 81be d83e 71be cd15 4d3e
00000330: eca5 ccbd 8d68 8b3e ea24 10be 950d 833e
00000340: 402b c03d 4439 163e 7afb 4e3f 751e 413e
00000350: 27c4 463d d9d9 d93d 608a a93e 22c8 4cbe
00000360: cd89 203e 134e 553e efe9 973e 43c9 e73d
00000370: d698 a43e 250a 2d3e 8607 803d 685c 5a3d
00000380: 1ecb 93bd 24b8 b73b c324 003f 6a87 733e
00000390: 209b 853e d5b1 1abe 5aab e0bc 6265 70bd
000003a0: 21d6 cdbd 9f8c adbd 75f7 81be 8fc2 e53d
000003b0: 9911 b1be 503d a13e 1496 88be 523a 6ebc
000003c0: f279 52be fd2b 62be 06fa 043f f554 4f3e
000003d0: c57f 833e 17c7 cfbd b789 073f 62e6 90be
000003e0: f40a 68be a74a e53d 1cb8 3bbd 9e27 05bd
000003f0: d15f cf3d f769 b5bd f66c 843d 27d5 863d
0.3273838 0.06496026 -0.1607486 -0.23051506 0.13628066 0.37604934 -0.04986645 0.016163016
-0.08346896 0.24980113 0.4890698 -0.48686665 -0.2526304 -0.48247477 0.0042514578 -0.24948351
0.25856322 -0.53778726 0.24521668 -0.52828044 0.3050282 0.1608401 -0.22061649 0.021412922
-0.692251 -0.39164332 0.35270032 -0.4368546 -0.15021716 -0.05085674 -0.40814313 -0.27617666
0.07600931 0.27049196 -0.21999547 -0.111060634 -0.6737474 0.17836107 0.055681143 -0.04955971
0.5620739 0.290679 -0.21806824 -0.26892287 0.005042402 -0.35037252 -0.72839093 -0.0010164466
0.17419422 -0.29768926 0.446073 -0.30950558 -0.29327998 -0.0041631535 -0.18056299 0.08981539
-0.25930956 -0.2744688 -0.09209066 0.025277268 -0.035134092 0.011899141 -0.071928844 -0.13890643
0.29731026 -0.22961822 0.12010334 0.09794263 -0.29053202 0.584009 0.20924906 -0.29683003
0.19638684 0.070750035 0.16165836 -0.09690992 -0.28064838 -0.27563268 0.22549058 -0.39553973
0.03241069 -0.18874148 -0.020677637 -0.13416767 0.3969845 0.13680221 -0.32211608 0.1258114
0.024108186 0.011031488 0.082790814 -0.14802572 -0.09225243 0.26744863 -0.3934219 -0.26160204
-0.2865653 0.33104917 0.27356166 0.13495553 0.15717423 -0.35205397 -0.38799042 0.30473155
-0.011981933 -0.36958814 -0.4210787 0.009337412 0.18956979 0.006828642 0.07492198 0.24560818
-0.042528227 0.123819984 -0.2784315 0.35911474 -0.41706312 -0.29888603 0.16354017 0.0667096
0.22090054 0.023979524 -0.3144479 0.25600412 -0.0091686575 -0.18919383 0.04423098 0.06923648
0.076277986 0.19270384 -0.4859635 -0.06516806 -0.09697377 -0.45323592 -0.45872915 0.037318263
-0.48471162 -0.25417173 -0.53741497 0.009719491 0.102061816 0.24447091 0.22465797 0.421334
0.56344444 -0.24569325 -0.06933261 0.2696728 -0.12311466 -0.35547647 -0.20426315 -0.2919344
0.11572536 0.16805415 -0.2118552 0.22710337 -0.29519483 0.20708 -0.10559432 0.22596742
0.19303492 -0.11156371 -0.49845874 -0.122043684 0.03784072 -0.09045998 -0.008542348 -0.13298903
0.10411048 0.1897351 0.3166804 -0.02156847 0.09435848 -0.045921713 -0.32582912 -0.46106488
0.4317419 0.02314047 0.6748703 -0.33357152 -0.101160936 0.20644048 -0.16110575 0.1093537
-0.053195897 -0.21624584 0.36146045 -0.3469087 0.0024078814 -0.1031701 -0.008274404 -0.5463737
0.09358106 0.096574925 0.03439159 0.3302064 0.4704261 -0.12906429 0.19310571 -0.32086462
-0.37963063 -0.25349075 -0.23559129 0.20027848 -0.099925846 0.27228203 -0.14076582 0.255963
0.09383249 0.14670283 0.8085247 0.18859275 0.04852691 0.10637254 0.33113384 -0.1999822
0.15677567 0.20830564 0.29670665 0.113176845 0.32147855 0.16898401 0.06251435 0.05331078
-0.07216476 0.005606668 0.50056094 0.23782125 0.26094913 -0.151069 -0.027425457 -0.058690436
-0.100506075 -0.08474087 -0.25384107 0.1121875 -0.34583738 0.3149209 -0.26677 -0.014540272
-0.20554331 -0.22087093 0.51944005 0.20247252 0.25683418 -0.10145395 0.5294451 -0.28300768
-0.22660428 0.111958794 -0.045829877 -0.032508485 0.101256974 -0.08858102 0.06466095 0.06583624

encoder.rnn.bias_ih_l0 f4 [128]
00000000: 58ad 103f d206 513e 5bf0 9f3e 836f 2abe
00000010: 35e6 4abd bb17 863e 5d3f 133d 2dbe 2fbe
00000020: c786 283e b70f 543e fb0e e13d 500d bf3e
00000030: 0d0a a1bc 2922 5fbe 2a53 833e 7ed7 e13d
00000040: 28e0 9bbe edf3 07bd 8be6 47be 3536 103e
00000050: 74fa e63d d989 a73e 730a 27be b221 433e
00000060: cd98 f7bb b0e7 a43d f36f cf3c 25b5 da3e
00000070: d742 843d 4366 05be 711a 29be 0bd9 453e
00000080: 19aa 673e 2a69 1f3e dd1d 383e cfbc 333d
00000090: a84b 503d 4045 5b3e 45dc e13e 98f8 9a3d
000000a0: 805f e63b b256 183e 7c0b 20be 737c cb3d
000000b0: 1a90 663e 001a 96be 793e 9b3e 7c19 6e3d
000000c0: a489 c23d 426b babc ec93 1d3f 1198 fd3e
000000d0: b25e 5c3c 4d36 a23e 72d0 813e 1664 ad3d
000000e0: 9c50 483e c74c 3b3e 49f4 5b3e 091a a73e
000000f0: bf16 093e 41f4 293e 031a 13bd 5b73 0b3e
00000100: 1bbf 073f 9212 023e bab7 bebd 5e38 ef3d
00000110: f70b e8bd 3b42 a33e aaef f23e 86af febc
00000120: db3a 29be feca a43e 025f 72be bc3f d7be
00000130: cd92 b1bd e462 05bb 34ff afbc 6615 07be
00000140: 1b93 873a dfed c7be f5ab 463e 056f e1be
00000150: 13c5 963d e363 f63e 4b1f 2f3d 9ee3 d73d
00000160: 0651 ad3d d8d4 84be 17bb 723e cee2 a7be
00000170: b55f 24be 4f01 6abe 30fc a9be cc57 f4be
00000180: f535 473e 0278 8b3d 96a2 c43e 22ad 6abe
00000190: ccd6 28be b0e9 2f3e 2c71 e53d 6b6c 62be
000001a0: c105 5f3d c7ea e33e b004 9a3d 9dc1 223f
000001b0: 24af a7bc 5b38 ffbd 9547 733d ec1b 013e
000001c0: 6e30 633e 446e 1abe 7c9b cc3e 2480 153f
000001d0: 357f b8bd 76ed cc3e 65c3 033f 5b4a 7e3e
000001e0: 89ec 653e cdc2 bb3e 4b15 3a3e 17de 333f
000001f0: ff2d d83d b231 9cbe 8ba8 38bd d660 f33e
0.565145 0.20412758 0.31238064 -0.16644101 -0.04953595 0.2618998 0.0359491 -0.1716239
0.16457663 0.2070912 0.109891854 0.37314844 -0.019658113 -0.21790375 0.25649387 0.1102743
-0.30444455 -0.03319161 -0.19521539 0.14083178 0.11278239 0.32722357 -0.1631258 0.19055822
-0.007556057 0.080520034 0.025321936 0.42716327 0.06458061 -0.13027291 -0.16513993 0.19321077
0.22623481 0.1556746 0.17980142 0.043881234 0.0508534 0.21413136 0.44113365 0.07566947
0.0070304275 0.14876822 -0.15629381 0.09935846 0.22515908 -0.2931671 0.303211 0.058129773
0.09498909 -0.022756223 0.61553836 0.4953008 0.0134503115 0.31682053 0.25354344 0.084663555
0.19562 0.18291007 0.21479906 0.3263705 0.13387583 0.16597082 -0.03591348 0.13618223
0.5302598 0.12702397 -0.09312387 0.11680673 -0.11330407 0.31886467 0.47448474 -0.031089555
-0.16526358 0.3218612 -0.23669055 -0.42040813 -0.08670578 -0.0020353133 -0.021483995 -0.13191757
0.0010343523 -0.3904867 0.19401534 -0.44030014 0.07361808 0.48123083 0.042754453 0.105414614
0.084627196 -0.25943637 0.23704182 -0.32790226 -0.16052134 -0.22852062 -0.33200216 -0.47723234
0.19454177 0.06809999 0.38405293 -0.22917607 -0.16488189 0.17178988 0.112032264 -0.2211167
0.054448847 0.44515058 0.07520425 0.6357668 -0.020469256 -0.12461921 0.059394438 0.12608308
0.22186443 -0.15081125 0.39962375 0.5839865 -0.09008638 0.40024918 0.51470023 0.24833052
0.22453512 0.3667206 0.18172185 0.7026076 0.10555648 -0.30506665 -0.04508261 0.47534817

encoder.rnn.bias_hh_l0 f4 [128]
00000000: 73a6 bb3e 6753 133d f348 953e c5eb 7dbe
00000010: 9c80 15be 6581 7a3e fbc0 e23d 1d10 24bc
00000020: 939d 6f3e 43fc 783e 15ed aa3c fb7f 023f
00000030: 0a84 4d3d fbc1 893c 5e6e 8f3e 0dd5 49bd
00000040: f04e d4bd 15d7 de3c a9f0 f3bc 8933 943e
00000050: 9e08 b4bc ecf0 7a3e 3cb8 11be 5107 523d
00000060: 909a 89be 6fd5 593e 9395 a03e e606 ab3e
00000070: bacf 593c 7e96 31be bb5e 2b3e d4d4 4c3e
00000080: d7d0 b83e 69ac b23e 57a0 783e 6256 473e
00000090: 4ca2 1ebe ddc2 083e 612d 043f 43be 873d
000000a0: 7aab 523b dde1 2f3e 59d0 8f3d f040 343e
000000b0: 1912 bf3d 7e80 9abd 4bfa 513e f3f5 a5bc
000000c0: a10a c03c 86ae ecbd 2116 0c3f b001 803e
000000d0: 3e66 40bd 58f7 d73e 8998 073f 0664 cdbc
000000e0: bc43 373e 6bd7 573e c7a5 573e a5ef bf3e
000000f0: 5b50 da3c c1e4 0fbe 3f15 3fbe d240 823e
00000100: 7dec e43e ee0e cb3a 3f7f 53bd 8178 91bd
00000110: e5ad 3bbd f03e 783d c790 d83e 5f01 7dbe
00000120: 1963 203e feeb 1f3e 53f3 d0bc d3b8 46be
00000130: ba4f 923d f9c4 7ebe 1abc 70be 2fe0 19be
00000140: d028 57ba 1135 28be ebb8 863d 7f97 c2be
00000150: 836b edbd 7675 173f 505f 653e 50d5 b93d
00000160: 25bf 1cbe ac6e c1bd 9a8f a63e 7e4b 10bf
00000170: 99b4 06be 0e67 44be de55 cebe 6f72 fdbe
00000180: 4345 8d3e c1f1 033e b05d a93e 9a39 79be
00000190: 81df eabc a3d9 2c3e 110a a43e 09b6 02bd
000001a0: 3f79 b4bc 4e0b 853e 4960 2d3e 6808 213f
000001b0: 8e0e 653d a5ab 4fbe 7ed9 0c3e e867 4b3c
000001c0: 84fa 4f3d ee90 183e 8548 a83e b3e6 cc3e
000001d0: 1afe cd3d f937 053f 7bfb cf3e a622 473e
000001e0: 4ec3 a8bc 431b d03e f390 5d3e 4167 243f
000001f0: fbf7 e5bc 9bbd 03be 08b9 933e 617c eb3e
0.36650428 0.03596821 0.29157218 -0.2479697 -0.14599842 0.24463423 0.11071964 -0.010013607
0.23399954 0.2431498 0.020865003 0.5097653 0.05017475 0.01681613 0.2801389 -0.049275447
-0.10366619 0.027202168 -0.029777842 0.28945568 -0.021976765 0.24505967 -0.14230436 0.05127651
-0.26875734 0.21272825 0.31364116 0.334037 0.013294155 -0.17342564 0.16735356 0.20003062
0.36096832 0.34897164 0.24279915 0.19466546 -0.15491599 0.13355584 0.5163174 0.066280864
0.0032145665 0.17176004 0.07022161 0.17602897 0.09329624 -0.07544039 0.20505635 -0.02025888
0.023442568 -0.11556725 0.54721266 0.25001287 -0.046972506 0.42180896 0.52967125 -0.025072109
0.17896932 0.21078269 0.21059333 0.37487522 0.026649645 -0.14052106 -0.18660448 0.2544008
0.44711676 0.001549212 -0.051635023 -0.071030624 -0.045820136 0.060606897 0.42297956 -0.24707554
0.15662803 0.15617368 -0.025506651 -0.19406442 0.07144113 -0.24879827 -0.23509255 -0.15026926
-0.00082076807 -0.16426493 0.06578239 -0.38006207 -0.11592772 0.59163606 0.2239964 0.09073889
-0.15307291 -0.09444937 0.32531434 -0.5636519 -0.1315483 -0.19179937 -0.40299886 -0.49501368
0.27591905 0.1288519 0.3307929 -0.2433838 -0.028671028 0.16879897 0.3203893 -0.031911884
-0.02203047 0.25985187 0.16931261 0.6290345 0.055922084 -0.20280321 0.13754842 0.01241491
0.05077602 0.14899036 0.32867828 0.4001976 0.10058232 0.5203853 0.40621552 0.19446811
-0.020600941 0.406458 0.21637325 0.6422005 -0.028072348 -0.12865297 0.28852105 0.4599333

decoder.rnn.weight_ih_l0 f4 [256, 32]
00000000: 26b1 073f 9e2f 8cbd 1816 3ebd d1ef 083e
00000010: e490 463e 9827 a53e accb ac3f afd3 9abf
00000020: bf5a 08bd 4c2c b2be 0dd0 593e 1961 8cbe
00000030: 8be3 f8be 959b d53e 25ae 833d 1134 34be
00000040: adcd 98bc 4d05 063e b51b 133f 0780 a3be
00000050: e35f bc3e d3cc 7f3f 5580 1b3e d826 e2be
00000060: 83a6 4dbe ebdf f83d a7bf a03f a4e8 23bf
00000070: 0ddc e43d 9a87 cabc edd3 873e 87d7 02bf
00000080: 914b f13d f806 683f ea73 c6be 56ff e9be
00000090: 234c f7be c29d ddbd be5c fa3a ba46 2abe
000000a0: e216 acbe a31a 793e 9d6e 04bd f875 e83c
000000b0: 4b18 633e ea78 bcbd 7984 3fbf ebdd f23d
000000c0: e968 bb3e e2b3 10bf 3148 9dbe 8009 c83d
000000d0: 55f9 4ebe a33f 253e c103 83be f5c1 b53e
000000e0: 8508 d93e 3f1d 50be eeab 433d 18cb 47be
000000f0: 4107 973e b0a3 08bf 9db4 7ebe dc34 2bbe
00000100: 5eb7 573e d7ac 12bd 7be8 043e 0773 1d3e
00000110: 47a3 7d3e 5acd 203e 0f03 963f 0df3 a0bf
00000120: 8270 763e 9a9d edbd bdeb e83e 6882 803d
00000130: 40fe 2ebf b602 0e3f d5b2 a73e ec30 84bd
00000140: 0d8b 9cbe 9306 b93e e162 d73e 05ab b33c
00000150: a229 fa3e 082f 5c3f ca37 2f3e 5bd3 9cbe
00000160: f279 19bf 70b0 ea3d e25f 8b3f bc64 c1be
00000170: 5556 9b3e 7a54 d83d ec36 df3e 5593 27be
00000180: 8ff6 073f 8a78 f8bd 8116 ac3d 6f55 d13c
00000190: fee0 523e 3e8e dc3e b50e a23f aa27 95bf
000001a0: eee4 2cbd cad1 1cbf d374 eb3d b1ed 3abe
000001b0: 15e9 0abf 37cf b73e 2017 4c3e d465 82be
000001c0: 9ab0 4ebe c037 4d3e 7365 0f3f 73f4 8ebe
000001d0: 8416 533e b4be 5d3f a7b7 453c 772b f0be
000001e0: 404d a1be 5dff 803e be51 a03f ca9f 09bf
000001f0: 6e44 5c3e a9ab d6bd a29f 983e 3963 e9be
00000200: 3c79 0c3f b7f5 4dbd 7c38 93bd 46bf 623d
00000210: aa89 753e 675c e33e f960 a43f 2e2f a9bf
00000220: a30a e5bd 4d4e 9ebe 00e0 693e 3237 a2be
00000230: e0b4 0abf 9aeb ce3e 4e2f cd3b 1c37 6fbe
00000240: 0cc9 55bd 86b1 8e3e 433a 183f 1862 79be
00000250: 9bcb 9d3e 2926 743f 0b82 683c 32a8 c8be
00000260: 891a b8be f50a 253d c9f5 903f 565c 21bf
00000270: d25a 373e b9c4 11be ee6b b23e 6f58 09bf
00000280: bc87 3c3f 7453 53bc 2c86 a8be 0980 dc3d
00000290: fd89 7c3e cd98 d43e 6380 d13f ce28 9dbf
000002a0: 0528 74bd b088 943e 5980 a03d c868 bfbe
000002b0: cc7d c7be 63a8 5c3e 2416 27bc 0b3f bdbe
000002c0: a87b 0e3f 6e71 5dbd c198 a33e 82eb debe
000002d0: 6741 673e 3b22 bb3f e800 9abe 2495 c4be
000002e0: be78 81be f45b 16be da13 ac3f c71e a9bf
000002f0: 6906 a6bc 0a26 1bbe b1de 393e 79b6 26bf
00000300: 2b2c 233f 6b65 303e 9811 a6be 4125 483c
00000310: a839 2d3e 4a4f b63e f9d9 c93f 9801 98bf
00000320: 7616 f3bc 50b6 923e b245 9f3d 2e4f f3be
00000330: 3046 bbbe 2197 933e 5ca4 b43d 0053 ecbe
00000340: abf1 2c3f dbcf 003c 308c 903e 00c1 dfbe
00000350: cdaa 313e f0df b83f 6a2c 3cbe e360 56be
00000360: 7ad7 6ebe 1dc6 70be b6ac bb3f 32dc b8bf
00000370: cf78 163e 3ef6 c5bc 3261 3d3e ec8b 24bf
00000380: 66fe 343f 56df e73b 1acf b6be dba4 2b3e
00000390: 31ca fd3c 8621 b63e 4339 e03f f55a a4bf
000003a0: 968e 923c 3ac4 163f 24da ac3c a4ac eebe
000003b0: 2f49 8fbe 7a28 2d3e 5c9b 1d3d de8c b6be
000003c0: 98f1 3a3f 7fbe 49bd 1845 8c3e 15df c7be
000003d0: 78c3 793e 3d04 cc3f 80b5 fbbd bd67 7dbe
000003e0: 07cc bbbe c786 d6bd 7327 a33f 02fb b3bf
000003f0: 48cc f43c 95bd 03bd 694c c83d 5cc0 cbbe
0.5300468 -0.0684502 -0.04640779 0.13372733 0.19391209 0.3225677 1.3499656 -1.2095851
-0.033289667 -0.3479942 0.21270771 -0.2741783 -0.48611102 0.41720262 0.064297 -0.17597987
-0.018652761 0.1308796 0.5746415 -0.31933615 0.36791906 0.9992191 0.15185674 -0.4417026
-0.2008305 0.12152084 1.2558488 -0.64026856 0.11174784 -0.024722863 0.26528874 -0.5111012
0.11781991 0.90635633 -0.3876031 -0.45702618 -0.48300275 -0.108211055 0.0019101126 -0.16628543
-0.33611208 0.24326567 -0.03233205 0.028376564 0.22177236 -0.0920275 -0.7481151 0.11858734
0.36603478 -0.5652448 -0.3071914 0.09767437 -0.202123 0.16137557 -0.25588802 0.3549954
0.42389312 -0.20323656 0.047771387 -0.19511068 0.29497722 -0.5337477 -0.24873586 -0.16719383
0.21066043 -0.035809364 0.1297931 0.1537591 0.24769317 0.15703335 1.1719683 -1.2574173
0.24066356 -0.11602326 0.45492354 0.06274873 -0.68356705 0.55472887 0.32753626 -0.064546436
-0.30574837 0.36137828 0.42067626 0.021932134 0.48859888 0.86009264 0.17111126 -0.3063
-0.599517 0.11459434 1.0888636 -0.37772167 0.30339304 0.105629876 0.4359659 -0.16364796
0.53110594 -0.12132366 0.0840273 0.025553433 0.2059364 0.43077272 1.2660738 -1.165273
-0.042210512 -0.6125761 0.11496892 -0.18254735 -0.54261905 0.3590028 0.19930696 -0.25468314
-0.20184556 0.20040798 0.56014174 -0.27920875 0.20614058 0.86619115 0.012067712 -0.4690816
-0.3150425 0.25194827 1.2524946 -0.53759444 0.21510479 -0.1048196 0.2980929 -0.45583513
0.5487249 -0.05028316 -0.07188508 0.055358194 0.23978296 0.44406435 1.2842094 -1.3217523
-0.111836694 -0.30919114 0.22839355 -0.31682736 -0.54182243 0.40414125 0.0062617427 -0.23360866
-0.052193686 0.27869815 0.594639 -0.24353826 0.308194 0.9537073 0.014191161 -0.39190823
-0.35957745 0.040293653 1.1325008 -0.6303152 0.17905739 -0.142352 0.3484797 -0.53650564
0.73644614 -0.012898315 -0.32914865 0.10766608 0.24662013 0.41522828 1.6367306 -1.2278078
-0.059608478 0.29010534 0.078369804 -0.3738463 -0.38963163 0.2154861 -0.01019815 -0.3696216
0.55657434 -0.054063253 0.3195248 -0.43539053 0.22583543 1.4619821 -0.30078816 -0.38395035
-0.2528743 -0.14683515 1.3443558 -1.3212517 -0.020266728 -0.1515123 0.18151356 -0.6512218
0.6373927 0.17226188 -0.32435298 0.012215913 0.16916525 0.35607368 1.5769645 -1.1875486
-0.029673796 0.28654718 0.07776965 -0.47521347 -0.36576986 0.2882624 0.088204116 -0.46157074
0.67556256 0.007862057 0.28231955 -0.43701935 0.17350312 1.444334 -0.18376318 -0.20935397
-0.23324385 -0.23513074 1.4662082 -1.4442198 0.14694522 -0.024165269 0.18494108 -0.64276004
0.7070068 0.0070761843 -0.3570488 0.16762106 0.030980201 0.3557245 1.7517475 -1.2840258
0.017890256 0.5889317 0.021100111 -0.4661609 -0.27985522 0.16909972 0.03847824 -0.35654348
0.7302489 -0.049253937 0.27396464 -0.39037386 0.24390972 1.5938793 -0.12290478 -0.24746604
-0.36679098 -0.104749255 1.2746414 -1.4060977 0.029882565 -0.03216322 0.09780199 -0.39795196

decoder.rnn.weight_hh_l0 f4 [256, 64]
00000000: aec7 403d 9886 03be 21ff 573c a674 f13d
00000010: 7a75 cfbd 6394 473d a52d af3c 6861 823d
00000020: 3c88 223e b034 9a3d f9b7 32be 3f1c eebb
00000030: a7e3 40bd aa13 14be bf6d eabc f695 15be
00000040: a051 6cbd 998a 0d3e 5f1b c03d ef01 9bbd
00000050: 8ec1 10be 4af2 3b3e e008 283e f344 f5bd
00000060: d62f b23d ee31 b5bc dee4 6dbd daaf 0dbe
00000070: cd14 61bc 6694 0ebc a584 e63d ddf5 d63d
00000080: db2a 16be 62d4 3e3e 4666 08bb 500c 5bbd
00000090: fe48 e13d 6280 bebc 4dbc a3bd 56f2 69bc
000000a0: faea be3d 1908 a2bd 9a32 7cbd 92b3 6f3d
000000b0: c25b da3d df9a 153d 6570 9fbd 42f9 8ebd
000000c0: ae1a 893c 38a3 de3d cf1f a03c 3173 823d
000000d0: b64c 02bd 428a ef3d d398 a23d 046c d9bd
000000e0: bd3e acba de50 0c3e 8e11 b7bc 8f04 31bd
000000f0: 4479 a3bc a524 c43c 72ae 68bd 1167 12be
00000100: 94ac 233e 9c10 e13d 1392 843e bed5 5c3e
00000110: 258a 23be 3cdf e4bd 1d37 b13d 9283 953d
00000120: 81bf 183e 3a20 a63d 4572 42be e916 2cbe
00000130: dd57 85be 6176 c5bd 8405 da3d 1d00 70bd
00000140: 0030 6abe 3d65 523e 2026 813e c94e 44bd
00000150: b32d ccbd ca62 173e 380f 973c e6a7 6fbe
00000160: e6d1 6b3d 470e 91bd 1e88 7b3e 4c5a 5fbe
00000170: 2e92 253e ca83 4cbc 559d 9d3e 2c9f 2a3e
00000180: f437 cfbd 9a6e aebc bf48 623e d758 91be
00000190: 3bbc 853e 05ef 243c 9bf7 9ebc 5262 1bbd
000001a0: 3a8d 2f3e 283e 44be 94b4 0cbe b163 873d
000001b0: e751 0d3d e049 e23d 5142 4bbe e9f0 2abe
000001c0: 7ee2 253e c720 eabd f482 5bbe 7143 4d3d
000001d0: 18f7 41be 3a00 1e3e 6bc8 fabe bf13 44bd
000001e0: 4388 093e ee37 683d c2e2 9abd cf49 6f3e
000001f0: ae9a 413e 7474 803d 38bf 1dbe a1c1 60be
00000200: 209d f038 8f8e 223e 4754 723d bd47 a4bd
00000210: 5f09 ac3c 722a 243d ea98 1cbe 71e3 32bd
00000220: 1dab a93d d946 efbc 5b1d 88bd 61a3 913d
00000230: 38e4 22be cee0 173d e27f b6bc 6e1a b1bc
00000240: cfaa 6c3d 688d 88bc b532 813d fec2 d9bd
00000250: b514 173e d994 c8bc 3d72 833d 9b90 8bbd
00000260: 4d11 f4bc 2b74 e6bb d6df 87be f8d0 8b3d
00000270: 9e9b b53d 0cf0 053d e22b 05bd f989 8ebd
00000280: 6fba 3e3e b577 75bb a4b7 313e 141f 10be
00000290: 2d4b 903e 8cce eb3d 520a 0d3c 1aab 293c
000002a0: 0913 9abd 513b 90bd eee0 853d 7534 9a3c
000002b0: 29c2 0e3c d8b8 11bd fee7 853a 481c f3bd
000002c0: 61e0 a1bd 4437 d0bd 2e0d f5bd e077 f8bd
000002d0: d5f1 9bbd 0964 a3bd 97a2 06be 4045 2fbd
000002e0: b03c 41bc 2143 e83d bb1e 0e3e 229b a7bd
000002f0: 4b78 f7bd b4ca 40bb e78c d5ba 156d 08bc
00000300: 191a 27bc 6dce 073d 6bbf 133b 8026 153d
00000310: 7159 f93c 1894 1f3c 7f57 663c 483e 413d
00000320: 5d31 dd3d 77ca 12bd 82c1 4fbd 5a64 adbd
00000330: eb25 32bd 39f1 1bbc f71d a83c 9491 98bd
00000340: e22e ec3b a325 853c 4a0f b53d b6fa 01be
00000350: 7a1e 7a3c ccbb d43d 9b35 a23d e83c d1bc
00000360: 50e7 843d a0be 8abd 3d13 6fbd 2869 83bc
00000370: 594e 063d fd36 40bd 12a7 38bd 6294 773d
00000380: ee48 933d d00f cb3c 10c6 da3d 48c4 92bd
00000390: 8bd9 33bc 062e 7d3d e549 6dbd f4ec e63d
000003a0: adcd de3d eb4c d03b f1b5 4bbb 8f5b 5fbb
000003b0: a953 a0bd d26b 813d 6376 57bd b03f 20bd
000003c0: f1ae 27bc 628a 32bc 0e75 1fbd 655d 13bd
000003d0: 042a 11be 8754 1ebd a4c6 23bd 1668 aabc
000003e0: 9ce3 e23d 1777 223d 85d3 da3d 14a3 90bd
000003f0: 3ceb d33d 1caa 7c3d 1e9f 5dbc 9ab3 8f3c
0.04706543 -0.12844312 0.013183386 0.11789827 -0.10129829 0.048725497 0.02138407 0.06366235
0.15872282 0.075295806 -0.17452992 -0.007266551 -0.047092106 -0.14460626 -0.028616784 -0.14607987
-0.05769503 0.13822402 0.093802206 -0.07568728 -0.14136335 0.18354145 0.16409636 -0.11976042
0.0870053 -0.022118535 -0.058079593 -0.13836613 -0.013737869 -0.008702373 0.11255769 0.104961134
-0.14664786 0.18635705 -0.0020812913 -0.05347854 0.1100025 -0.023254577 -0.079949 -0.014278969
0.09322162 -0.07911701 -0.061571695 0.05852086 0.10662033 0.03652465 -0.077851094 -0.06981136
0.016736355 0.10870975 0.019546418 0.06369627 -0.03181144 0.116962925 0.07939305 -0.106163055
-0.0013141256 0.13702723 -0.022347238 -0.043217238 -0.019955285 0.023943255 -0.05680699 -0.14297129
0.15983802 0.10989496 0.25892696 0.21565911 -0.15970667 -0.11175391 0.0865309 0.07300486
0.14916803 0.081116155 -0.18988903 -0.16805615 -0.26043597 -0.096417196 0.10645583 -0.058593858
-0.22869873 0.20546432 0.252244 -0.047926698 -0.09969654 0.14783779 0.018439874 -0.23403892
0.05757322 -0.07082801 0.24563643 -0.2181179 0.16169044 -0.012482593 0.30784097 0.16662282
-0.10118094 -0.021292973 0.22098063 -0.28388092 0.2612017 0.010066752 -0.019405177 -0.037935562
0.17143717 -0.19164336 -0.1374076 0.066108115 0.034501936 0.11049247 -0.19849516 -0.16693462
0.16199681 -0.11432033 -0.21436673 0.050113145 -0.18941915 0.15429774 -0.48981032 -0.047870394
0.13430886 0.056693964 -0.07562782 0.23368 0.18906662 0.06272212 -0.15404975 -0.21948864
0.000114733586 0.15874694 0.059162404 -0.080214955 0.021000562 0.04007954 -0.15292707 -0.043673936
0.082845904 -0.029208587 -0.06646224 0.0711124 -0.15907371 0.037079625 -0.022277776 -0.021619048
0.057780083 -0.01666899 0.063085 -0.10632895 0.14753993 -0.024485039 0.064182736 -0.06814691
-0.029793406 -0.0070328913 -0.2653796 0.06826967 0.08867572 0.03269963 -0.032512553 -0.0695991
0.18625806 -0.0037455384 0.1735521 -0.14074355 0.28182355 0.11514005 0.008608418 0.010355735
-0.07523162 -0.07042564 0.065370426 0.018823842 0.008713284 -0.03557667 0.0010216234 -0.118706286
-0.07904125 -0.10166791 -0.119654045 -0.12132239 -0.07614485 -0.079780646 -0.1314796 -0.04279065
-0.011794254 0.11340929 0.1387891 -0.08183886 -0.12083491 -0.0029417695 -0.0016292603 -0.008326788
-0.010199093 0.033155847 0.0022544514 0.03641367 0.030438157 0.009739898 0.014058947 0.047178537
0.10800431 -0.035837617 -0.050721653 -0.08466406 -0.043493193 -0.009517961 0.0205221 -0.07449642
0.0072077373 0.016253298 0.08840807 -0.12693295 0.015266055 0.10387382 0.07920381 -0.025541738
0.06489432 -0.0677464 -0.058367956 -0.016041353 0.032789562 -0.04692744 -0.045081206 0.060444243
0.071916446 0.024787813 0.10682309 -0.07166344 -0.010977159 0.06181147 -0.0579318 0.11275664
0.10879073 0.0063568256 -0.0031083787 -0.0034081673 -0.07828457 0.06319393 -0.052603137 -0.039123237
-0.01023458 -0.010897251 -0.03892999 -0.03597774 -0.14176184 -0.03865483 -0.03998436 -0.020801585
0.11078569 0.039664354 0.106848754 -0.07062355 0.10347602 0.061685666 -0.013526706 0.017541695

decoder.rnn.bias_ih_l0 f4 [256]
00000000: 55d8 d63e f7b4 e73d 9ae9 9c3e 3e67 033f
00000010: 72c7 fa3e 2dd8 0f3f 3c28 d83e b9ac e93e
00000020: acfd 9a3e 48c1 1e3f 4005 223e 1f35 163f
00000030: 2e8f 243f 0d51 7b3e 98c1 ae3e f5c7 193f
00000040: 0eca 783e dc69 0b3f 2785 e53e acc1 683e
00000050: 131b 2e3f 1d2c b93e bd8d eb3e 02fa 1a3f
00000060: 7d3f b13e dde4 a63e f7df 3c3e 995a c93e
00000070: 155b 033f df05 303f 36ef 783e 947e 7f3e
00000080: 3538 1c3f 9937 2f3f 8cab 403d d168 963e
00000090: 9f10 173f d7a1 303f aab6 333f 1851 373f
000000a0: 7cbe 873e 6739 1c3f 87c8 613e 417a 263f
000000b0: ec68 193f 6870 cc3e 6053 a63e ba53 973e
000000c0: 5e66 ba3e fc12 1b3f c32d 0b3f 6dd8 3c3f
000000d0: 2224 203f a51c cd3e 6561 473d a170 ca3e
000000e0: 101b 233f 4488 fd3e 61dd 323f d6ab 813e
000000f0: 9a88 1a3f 523e fc3e ceec dc3e 922c f83e
00000100: 0a99 a83c 56c1 bcbd f131 c1bd ad20 713d
00000110: c23b 833c b9f8 233e 8122 323e 2c90 0e3c
00000120: a03f 003e b144 013e 5ba1 1b3e 8de1 273e
00000130: 8649 90bd 360c 243e 7d00 393d a220 743d
00000140: 8ed4 8fbd 605e 713c 576c 593e 686e a33d
00000150: 5105 543e dd87 3b3e e482 643e 26bb 8c3d
00000160: 20d9 0b3e e9b4 843d 7c6c ef3d 7f9b 483e
00000170: 5ca0 523e c423 0dbc d686 bf3c ceec fc3c
00000180: f913 773d 6454 4abc a41d 363e 5077 903d
00000190: 0323 7dbd 572f 0b3e 8500 1cbc 557d b3bc
000001a0: 15aa 30bc 4507 bd3d 0834 8c3c 8f25 ae3d
000001b0: 0c9b 4a3d de9c 7b3c 7300 b1bd 0158 143e
000001c0: 5e82 e13d a5e7 4f3d deee 883d 537a 6d3d
000001d0: 3db1 153e b87b e6bd da5f 083f fb53 2e3e
000001e0: bf59 3bbe ebde d43d 994d e13d 33fc aa3d
000001f0: c7bc 0a3e 617b 023d 42ca e9bc d0ad 2bbb
00000200: b266 703e 1936 58be a829 7dbc 755e b13e
00000210: dd66 27be 2e92 ff3d 2e9a 7c3e 7400 3d3e
00000220: 8006 c83d 0c18 483e d5f9 71be 5844 98be
00000230: 9c64 7bbe c4e1 0abe 75b2 813e a7f2 83be
00000240: 9956 22be c630 823e 118a a03d 6ceb 89be
00000250: e285 7fbe 5da8 f5b9 d1f7 393e 8312 7cbe
00000260: 4009 863e ee28 e8bd a6d2 6e3c 04dc 6abe
00000270: 2e16 d93d ba9e 8dbe 86b3 833e fe68 4c3e
00000280: 1934 6cbe ef19 873e e73e 1fbe af39 64be
00000290: c184 ee3d 5080 8fbe 6b43 bebe f8d3 4cbe
000002a0: fa49 f43d 524a 1dbd 2077 46be 7c59 6e3e
000002b0: 6f76 803e 9dcb f33d ed36 8bbe 2e4e 80be
000002c0: 8c40 553e 5077 853e accc 53be 67af 203e
000002d0: a7e8 87be 2618 973d 4dec 5fbc faad 94be
000002e0: 4a26 793e b7dd 343d e477 34be 4694 103d
000002f0: ea7e 833e 3999 7c3e 1783 4fbe 0258 86be
00000300: 2037 723d 58d7 da3d 42d9 103e 3d6a a33d
00000310: 124c 303e 82d9 813e 882e c23e c75b 923e
00000320: 7a66 1f3d 757e 7a3e 3edb 3d3e 1733 873d
00000330: d250 2a3e 5fcb 853c f3e6 fe3d 52d3 e03e
00000340: 31f9 b03d bb47 053e 25a2 a53d 16cb 083e
00000350: 2d68 073f f087 8c3e 1f68 d33e 71fc fb3d
00000360: 4c17 993e 9f99 4c3e 3437 1c3f b534 293e
00000370: a69d a03d d837 db3e ff66 963e b85b 0e3e
00000380: 0eed e53e 7fa6 5d3e e402 c83e 1d52 8a3e
00000390: 87bb 883e 720c ad3e 0e24 bc3e 3bac a43e
000003a0: ad56 013e 4ae3 b33d 3b25 513e e3e5 a23e
000003b0: 16f3 193f 8a3e ea3d 1417 393e 86ae 563d
000003c0: 4de9 2f3e 6c55 e13e 995e c33d b961 d73e
000003d0: 5b94 2e3e 1001 ff3d 6d4b 783e bb9f 9d3e
000003e0: ee02 633b 7e1b 8f3e 936d da3e b709 343e
000003f0: ec2f 853e 69ab 253e 8551 5e3d ab7e d63d
0.41961923 0.11313813 0.30646974 0.5132941 0.4898029 0.56189233 0.42218196 0.4563959
0.3027166 0.62013674 0.15822315 0.58674806 0.64280975 0.24542637 0.34132075 0.60070735
0.24295828 0.54458404 0.4482815 0.2273013 0.6801006 0.36166468 0.46006575 0.6053773
0.3461875 0.32596484 0.18444811 0.39326933 0.51310855 0.6875896 0.24310002 0.2495063
0.61023265 0.6844421 0.0470386 0.29376844 0.59009737 0.6899695 0.702006 0.71608114
0.26512516 0.6102509 0.22049151 0.65030295 0.59925723 0.3992951 0.32485485 0.29556066
0.36406225 0.6057584 0.543667 0.7376774 0.62555134 0.40060917 0.048676867 0.39539054
0.6371317 0.49518025 0.6986905 0.25326413 0.6036469 0.49266297 0.43149418 0.48471504
0.020580787 -0.092165634 -0.09433354 0.058869053 0.016019706 0.16012849 0.17395975 0.008701365
0.12524271 0.1262386 0.15198271 0.16394635 -0.070452735 0.16020283 0.04516648 0.059601434
-0.070229635 0.014731973 0.21232735 0.07980043 0.20705153 0.18313546 0.22315556 0.06871633
0.13657045 0.064798184 0.116906136 0.19590567 0.20568985 -0.008614484 0.023379724 0.030874636
0.06032178 -0.012349222 0.17784745 0.07054007 -0.061800968 0.13592277 -0.009521608 -0.021910349
-0.010782738 0.09229902 0.017114654 0.085032575 0.04946427 0.015357224 -0.08642664 0.14486696
0.11011194 0.050758023 0.06686185 0.057977986 0.14618392 -0.11254066 0.5327126 0.17024224
-0.18295954 0.10394081 0.11001129 0.083488844 0.13548575 0.031855945 -0.028538827 -0.002619613
0.23476675 -0.21114387 -0.015451826 0.34642377 -0.16347833 0.124790534 0.2466819 0.18457204
0.09766865 0.19540423 -0.2363046 -0.29739642 -0.24550098 -0.13562685 0.25331464 -0.25771067
-0.15853347 0.25427836 0.07838834 -0.26937425 -0.24953416 -0.00046855482 0.1816094 -0.24616437
0.26178932 -0.11335932 0.01457659 -0.22935492 0.105999336 -0.2766016 0.25722903 0.19961926
-0.23066749 0.26386973 -0.15551339 -0.2228763 0.116464145 -0.28027582 -0.3716081 -0.20002735
0.119281724 -0.038400955 -0.1938138 0.23276323 0.25090358 0.119040705 -0.27190343 -0.25059646
0.20825404 0.2606759 -0.20683545 0.1569191 -0.26544687 0.07377653 -0.013667178 -0.29038984
0.24331012 0.044156756 -0.1762386 0.035297655 0.25682765 0.24667825 -0.2026485 -0.2623902
0.059134603 0.10685605 0.14145377 0.07979248 0.17216519 0.25361258 0.37926126 0.28585646
0.03891609 0.24462302 0.18540666 0.066015415 0.16632393 0.016332326 0.12446394 0.43911225
0.086412795 0.13015644 0.08087567 0.13358721 0.52893335 0.27447462 0.41290376 0.12304009
0.29900587 0.19980477 0.61021733 0.16524012 0.07842569 0.42816043 0.29375455 0.13902175
0.4490742 0.21645544 0.39064705 0.27015772 0.26705572 0.33798558 0.36746258 0.3216265
0.1263072 0.08783586 0.20424359 0.31816015 0.60136545 0.1143771 0.1807521 0.052412532
0.17178841 0.44010484 0.095395274 0.42066744 0.1704878 0.124513745 0.24247523 0.30785927
0.0034639197 0.27950662 0.42661723 0.17581831 0.26013124 0.16178669 0.05427696 0.10473379

decoder.rnn.bias_hh_l0 f4 [256]
00000000: d46c ec3e e18c 903e 2161 803e 3727 0f3f
00000010: a561 f73e 450a 023f 617d 0a3f 1c35 fc3e
00000020: cd38 d43e 97cf 243f 0749 6f3e 3c19 423f
00000030: e40e 233f 5413 993e 397a a63e 1b12 173f
00000040: be80 8b3e aaa8 113f e26f be3e 33ac 413e
00000050: ad58 333f 7c55 e53e 4f0e fa3e 379b 0b3f
00000060: 3be9 0e3f 17ef c53e 7f1d 5e3e eb6e cd3e
00000070: f2eb 003f 7e00 093f 2f5f a73e 3849 e33e
00000080: 42e9 143f 7f11 1b3f 9a8b 683b 21ad 263e
00000090: 33e1 2a3f d067 013f 68c5 2b3f 5ed6 2b3f
000000a0: 7ef2 cb3e 14d7 043f 0357 b13e a796 283f
000000b0: 26eb d33e 3c8f f63e bef6 d83e 459b bd3e
000000c0: ba94 b93e e257 243f 5e5a b93e e40a 103f
000000d0: 7b6b e83e 2fe0 d73e ab83 023e 0b4d df3e
000000e0: e446 0e3f c878 fa3e 8982 043f e875 933e
000000f0: 57dc 233f f4ba e33e 0e96 123f 8dc9 223f
00000100: 6316 273d 0f09 b2bc df69 04bd 7fc0 a93d
00000110: cc98 9cbd 0402 f83d 3433 193d 0b05 e93c
00000120: 3165 ff3d 8e53 203e 321e c63d e114 883d
00000130: 4f49 86be ba32 733d b48c 4a3e d5d3 963d
00000140: af70 49be a67a cc3d 1958 883c cd15 9b3a
00000150: 920b 133d 56fc 5c3e ca6b 493d 5e62 86bd
00000160: 09a3 543e 3193 a33c 421c d9bb ba9a c83d
00000170: e2fe c33d 13b4 513e e770 db3c 353c 9dbc
00000180: 8422 f3bb a82e c93c 63ab 3d3e f662 223e
00000190: dec0 e8bd f5f5 ae3d 9ef2 143c 7ba8 ac3d
000001a0: 35d7 9fbd 16de a0bd 4c3a f63b 036d 62bc
000001b0: 5801 003e 2e65 2ebc 9f56 3ebe fdd2 1f3e
000001c0: 1b9e 2a3e 3c2c 4c3e 46e7 513e e05b 9b3d
000001d0: ca72 a83d eecf 0cbb b0eb bf3e cefd f83d
000001e0: 520e 30be 9f41 083e 6098 713d a5da 6ebd
000001f0: 2d84 df3d ea69 cdbb 762f 1dbe 87ea 58bd
00000200: 5059 923e b007 fdbb 1965 c93d 83a5 bc3e
00000210: 99ca c0bd 89ef 8d3e 19e8 e33d 2c58 9f3e
00000220: c090 793e 3dc7 613e c4a5 75be c246 acbe
00000230: 2ddc 10be 1a1e ddbd 582b 3d3e de4b 6abe
00000240: bbe4 24be 36fa 2d3e ad21 8d3e ee2a c7bd
00000250: 594d 54be bf3f 9a3c b8a0 8c3e 9639 a4be
00000260: a8c8 003e ea4a 2cbe 9926 3f3e 1ae8 83be
00000270: e4f6 773e 3eb5 7fbe 5265 a83d 5e80 b13d
00000280: a76d 90be dcbe 3e3e e9a4 ffbc 8d1b 34be
00000290: a9d4 123e de7a 02be 5030 c1be 27f3 e5bd
000002a0: d9d7 603e d770 7dbd e61a 1fbe 4af6 a03e
000002b0: 7592 793e 6db6 8b3e d503 65be 7c7f 48be
000002c0: ade9 983e 24ec 803e d8b8 62be 6949 883e
000002d0: 0d12 8ebe c9aa 653e ec6e 28be 60cf 1cbe
000002e0: 4874 a03e 3758 643e bd7d 48be 3065 76bd
000002f0: 293c fd3d 9016 603e 501e febd 8e3f 58be
00000300: c0e0 d53d e403 bc3d c13e 0c3e ea30 4b3e
00000310: 00b8 fc3d 0595 6d3e a557 a03e e972 ae3e
00000320: 915b 5d3e b666 563e 60ae 733e b683 6a3e
00000330: 848b 9b3e e1c7 413e 3014 a13d 1408 f73e
00000340: b008 443e bfd0 1f3d 0984 5e3d a0d8 b93d
00000350: c566 d63e e232 033e a9b2 cb3e 940e ec3d
00000360: ada0 563e 3210 4d3e 2381 e93e 8434 533e
00000370: ce5e 433e a86e 053f f4af b93e 399a a83d
00000380: 5305 dc3e 3b6b 673e 63ef b83e b71e 853e
00000390: 2edf 483e bcca d13e 6800 763e 7269 c23e
000003a0: ca77 543d f9f4 933d a112 4f3e 1059 7a3e
000003b0: b5a8 303f 36b8 893e 3a47 553e e104 723e
000003c0: dfee 283e 4bf4 c73e 34ba ae3d ee28 1b3f
000003d0: e61a ac3d 74ed 3c3d fb96 a93d 6ca5 b53e
000003e0: 1763 4b3e 243a 5f3e 55ba 9c3e 5319 993e
000003f0: b0b9 863e a2cf 273d 6b06 e63d a6a8 323e
0.4617678 0.28232482 0.25074103 0.5591921 0.48316684 0.5079692 0.54097563 0.4925927
0.41449586 0.64379257 0.23367701 0.75819755 0.63694596 0.2989756 0.32515123 0.59012
0.2724666 0.56897986 0.37194735 0.18913345 0.70057184 0.44791782 0.48839042 0.54533714
0.5582463 0.38658974 0.2169094 0.40123686 0.50360024 0.53516376 0.32689807 0.443918
0.58168423 0.6057357 0.00354836 0.16276981 0.66749877 0.5054903 0.67098093 0.67123973
0.39833444 0.51890683 0.34636697 0.6585488 0.41390342 0.48156154 0.4237575 0.37032524
0.36246282 0.641966 0.36201757 0.5626662 0.453945 0.42163226 0.1274554 0.43613467
0.5557692 0.48920274 0.5176168 0.28800893 0.64008087 0.4447857 0.57260215 0.6358879
0.040792834 -0.021732835 -0.03232753 0.08288669 -0.07646331 0.121097594 0.037402347 0.028444787
0.124704726 0.15656874 0.09673728 0.06644607 -0.26227805 0.05937455 0.19780236 0.073646225
-0.19671892 0.09984331 0.01664357 0.0011832059 0.035899706 0.21580634 0.04917506 -0.06561731
0.20765318 0.019967647 -0.006625683 0.09795137 0.095700994 0.20478849 0.026787234 -0.019193748
-0.007419886 0.02455838 0.1852241 0.15858063 -0.113649115 0.08543006 0.009091048 0.084305726
-0.07804719 -0.078548595 0.0075142737 -0.013819936 0.12500513 -0.01064424 -0.18587731 0.1560783
0.16661875 0.19938749 0.2049838 0.07585883 0.08225019 -0.002148624 0.37484503 0.121577844
-0.17192963 0.13306282 0.058983207 -0.058313984 0.109138824 -0.0062687295 -0.15350136 -0.052958038
0.28583765 -0.0077218637 0.09833736 0.36845025 -0.094136424 0.27721813 0.111282535 0.31121957
0.24371624 0.2204866 -0.23989016 -0.33647734 -0.1414649 -0.10796757 0.18473566 -0.22880504
-0.16102879 0.16989979 0.27564755 -0.09724985 -0.20732631 0.018829225 0.2746637 -0.32075185
0.12576544 -0.16825452 0.18667068 -0.25763017 0.24215275 -0.24971482 0.0822245 0.08667062
-0.28208658 0.18627495 -0.031206565 -0.17588635 0.14338936 -0.12742183 -0.37732172 -0.11228018
0.2195734 -0.06187519 -0.15537605 0.31437904 0.24372275 0.27287617 -0.22364743 -0.19579881
0.2986578 0.2518016 -0.22140825 0.26618508 -0.27748147 0.2242843 -0.16448563 -0.15313482
0.31338716 0.22299276 -0.19579215 -0.060155094 0.1236499 0.21883607 -0.124081254 -0.21117994
0.10443258 0.091804296 0.13695814 0.19842878 0.12339783 0.23201378 0.31316867 0.34072044
0.21616961 0.20937619 0.23796988 0.22901806 0.3037988 0.18923904 0.078651786 0.4824835
0.19143939 0.039017435 0.054325137 0.09074521 0.41875282 0.12812379 0.39784744 0.11526218
0.2095973 0.2002571 0.45606336 0.20625502 0.19079134 0.52121973 0.36267054 0.08232541
0.42972812 0.22599499 0.36120138 0.25999996 0.19616386 0.40974987 0.24023592 0.37971073
0.051872052 0.07224459 0.2022195 0.24448037 0.69007427 0.26898354 0.20827952 0.23634674
0.16497372 0.39053568 0.08531609 0.6060933 0.08403568 0.04612489 0.0828075 0.3547777
0.19862019 0.21799523 0.3061091 0.29902133 0.26313543 0.0409695 0.11231693 0.17447147
