detector_dev/models/cnn_lstm_ae_i24_cnn_lstm_ae_detection_model.pt (torch, 129255 bytes, 12 tensors)

encoder.cnn.weight f4 [8, 4, 16]
0	0x3d52f070	0.05149883
1	0x3dede158	0.116152465
2	0xbc7f9d9b	-0.015601541
3	0x3c13b21e	0.009014634
4	0xbd9f7bb3	-0.07787266
5	0x3dade8ce	0.084916696
6	0xbd4f1eda	-0.05056653
7	0x3db9a4be	0.09064625
8	0x3dcc5042	0.099762455
9	0x3d3dabdc	0.046306476
10	0xbce010b8	-0.027351722
11	0x3da19f42	0.07891704
12	0x3e05ca2b	0.13065402
13	0xbd6a87fa	-0.057258584
14	0x3da8a7d9	0.082351394
15	0xbd0bda0e	-0.0341435
16	0x3e52396d	0.20529719
17	0x3e85c1f4	0.26124537
18	0x3e553561	0.20821144
19	0x3e1b0e39	0.15142144
20	0x3de41c58	0.11138219
21	0x3df22194	0.11822811
22	0xbda31622	-0.07963206
23	0xbe3ef048	-0.18646348
24	0xbe15249d	-0.14564748
25	0xbdcef241	-0.101048
26	0xbe17e98b	-0.14835183
27	0xbe48e00b	-0.19616716
28	0xbd826499	-0.06366844
29	0xbcdd9f59	-0.027053522
30	0xbc78b5c6	-0.015180057
31	0x3d40e15d	0.047089923
32	0xbba80420	-0.005127445
33	0x3c8eb3c4	0.017419703
34	0xbde7327c	-0.11288926
35	0xbde8c4e1	-0.11365677
36	0x3d9fcb75	0.07802478
37	0xbc1b4969	-0.009477952
38	0x3c8fcf58	0.017554924
39	0x3c9188bb	0.017765393
40	0x3de609d5	0.11232344
41	0x3ce04d0b	0.027380487
42	0x3c007fcc	0.007842969
43	0x3de44653	0.11146226
44	0xbcf215cb	-0.029551407
45	0x3cbe0600	0.02319622
46	0xbd1356a5	-0.035971303
47	0xbcf6c8b8	-0.030125007
48	0x3e462e50	0.19353604
49	0x3cc8f249	0.024529593
50	0xbdd57bed	-0.104240276
51	0xbd58c6fc	-0.05292414
52	0x3d77fd4d	0.0605443
53	0x3e0c2659	0.13686503
54	0x3e435f97	0.19079433
55	0x3e461e9b	0.19347613
56	0x3e2a8514	0.16652328
57	0x3e152953	0.14566545
58	0x3dee0d54	0.11623636
59	0x3e1b8fa4	0.15191513
60	0x3e0020b3	0.12512474
61	0x3dd8383d	0.105576016
62	0x3e0ae9a3	0.13565688
63	0x3e44980e	0.1919863
64	0xbdbec23e	-0.093143925
65	0xbaf0c581	-0.0018369408
66	0x3b3a3beb	0.0028417062
67	0xbe1145f5	-0.14186843
68	0x3c7ac134	0.015304852
69	0xbd61b6d6	-0.055106007
70	0xbdb3a112	-0.08770956
71	0xbdccf6c0	-0.10008001
72	0xbe1a4fc1	-0.15069486
73	0x3b0a6e4e	0.0021122876
74	0xba0a5417	-0.00052768126
75	0xbdbad502	-0.09122659
76	0xbdb1aa0f	-0.08675014
77	0xbdce6836	-0.100784704
78	0xbdce9661	-0.10087276
79	0xbe21fbf0	-0.15818763
80	0xbe839c23	-0.2570506
81	0xbc769fc8	-0.015052743
82	0x3df0247b	0.11725708
83	0x3c2d7b29	0.010588446
84	0x3d27bad5	0.04094966
85	0x3e5c8bd9	0.21537723
86	0x3eb0d272	0.34535557
87	0x3e6c0557	0.23048912
88	0x3df4afc7	0.11947589
89	0x3e28708c	0.16449183
90	0x3e168777	0.14700113
91	0xbd92fedc	-0.07177517
92	0xbe3b0223	-0.18262534
93	0xbe2f3789	-0.17111029
94	0xbcda77e9	-0.026668506
95	0x3c655bef	0.013998969
96	0xbe43cca9	-0.1912104
97	0xbd9b9f4d	-0.075987436
98	0xbb04a93b	-0.002024247
99	0xbe0041d7	-0.12525116
100	0xbd545a70	-0.05184406
101	0xbbdef2a6	-0.0068038283
102	0xbdd33944	-0.10313657
103	0xbcf86972	-0.030323718
104	0x3c6ed50c	0.0145771615
105	0x3de67014	0.11251846
106	0x3dc26a52	0.09492935
107	0x3d467850	0.048454583
108	0x3d72e8ca	0.059304036
109	0x3da41176	0.08011143
110	0x3c9e97f4	0.019359566
111	0x3cfab2c0	0.030602813
112	0xbf08ccc5	-0.53437454
113	0xbeef25bd	-0.4670848
114	0xbef9b408	-0.48770165
115	0xbe99435b	-0.299342
116	0xbdf84b3c	-0.12123725
117	0xbe404703	-0.18777089
118	0xbe4a0d10	-0.19731545
119	0xbe041c77	-0.12901483
120	0x3cb0a215	0.021561662
121	0x3e4c76d0	0.19967198
122	0x3e800985	0.25007263
123	0x3e37462e	0.17897865
124	0x3d259dec	0.04043381
125	0xbd8d621b	-0.06903478
126	0xbd6e3e1d	-0.058164705
127	0xbd41972c	-0.04726331
128	0xbdd19151	-0.10232795
129	0xbcaab088	-0.02083613
130	0x3ce48d3f	0.027899383
131	0xbde6fd39	-0.11278767
132	0x3d354642	0.044256456
133	0xbc5b2884	-0.013376359
134	0xbe1b675a	-0.15176144
135	0xbd9517c9	-0.07279927
136	0x3ce2b62c	0.027674757
137	0xbdf83fad	-0.1212152
138	0xbddc296b	-0.10750087
139	0x3d61a2aa	0.05508677
140	0xbe1b4ae0	-0.15165281
141	0xbe0d45be	-0.13796136
142	0x3d9212ce	0.07132493
143	0xbda9885c	-0.082779616
144	0x3e867f6e	0.26269096
145	0x3e92cce3	0.2867194
146	0x3e4a7639	0.19771661
147	0x3e8b9658	0.2726314
148	0x3e780cec	0.2422368
149	0x3deddfc5	0.11614946
150	0x3d26bb7c	0.040706143
151	0x3d416682	0.0472169
152	0x3dee9b95	0.11650769
153	0xbc500d5e	-0.0126984995
154	0xbd91d391	-0.07120431
155	0x3b92bf0d	0.0044783414
156	0xbd2a0810	-0.041511595
157	0x3d47dce7	0.048794653
158	0xbde327d4	-0.11091581
159	0xbd8ee09d	-0.06976435
160	0x3db152a0	0.086583376
161	0xbd948a35	-0.072529234
162	0x3db988b4	0.09059277
163	0xbd77d398	-0.060504526
164	0xbd5ca5fa	-0.053869225
165	0x3d260532	0.0405323
166	0xbc450b12	-0.012026565
167	0x3db46712	0.088087216
168	0xbdf2e09d	-0.11859248
169	0xbcbcef36	-0.023063283
170	0x3cfb219e	0.030655678
171	0xbd829263	-0.06375577
172	0xbce5cf43	-0.028052932
173	0x3dc34c20	0.09536004
174	0xbd0effa4	-0.034911767
175	0xbdb0553a	-0.08610006
176	0x3d88eea2	0.066861406
177	0x3daa6c90	0.08321488
178	0x3e269e5c	0.16271347
179	0x3e290b93	0.16508321
180	0x3d8043f4	0.06262961
181	0x3d866122	0.06561495
182	0x3d71ac54	0.059002236
183	0x3d7fb970	0.062432706
184	0xbd0feb1e	-0.035136335
185	0xbd5f70b5	-0.054550845
186	0xbc1556be	-0.009114919
187	0xbe1c5eb6	-0.15270504
188	0x3c984b1d	0.018590504
189	0x3d37f12f	0.044907745
190	0x3e16c0cd	0.14721985
191	0xbd3a9bb0	-0.04555863
192	0x3d8665df	0.06562399
193	0x3db269c5	0.0871158
194	0x3de20d21	0.110376604
195	0xbd9b9cf8	-0.07598299
196	0x3cd3f7c6	0.025874984
197	0x3dfc3650	0.12315047
198	0x3ddbb386	0.10727601
199	0x3d2b9855	0.041893322
200	0xbdb7f596	-0.08982389
201	0xbd0656e7	-0.03279772
202	0xbda05ba2	-0.078299776
203	0x3e112a0a	0.14176193
204	0xbca2c842	-0.019870881
205	0x3e023921	0.12717105
206	0x3dcb63ab	0.099311195
207	0x3c890adf	0.016728817
208	0xbc1da756	-0.0096224155
209	0xbc8a432d	-0.016877735
210	0x3d257ebb	0.040404063
211	0xbca9d4c0	-0.02073133
212	0xbca19300	-0.019723415
213	0x3caff501	0.021479132
214	0xbcf3614e	-0.029709484
215	0x3c5c5ae6	0.013449406
216	0x3d979ba1	0.07402731
217	0x3ce3347b	0.027734986
218	0x3dc59759	0.09648008
219	0x3dca2509	0.09870345
220	0x3d92eb74	0.07173815
221	0x3da7fe15	0.08202759
222	0x3dad9e61	0.08477474
223	0x3de6850b	0.11255845
224	0x3d2dc1a2	0.04242099
225	0x3e17a75a	0.14809933
226	0xb9f03492	-0.00045815535
227	0xbb47b73c	-0.0030474206
228	0xbd506a72	-0.050882764
229	0x3d06eb8b	0.032939475
230	0x3df39e64	0.11895445
231	0xbd13cb41	-0.03608251
232	0xbd3de6be	-0.04636263
233	0x3e1edda0	0.1551423
234	0xbcf7f223	-0.030266827
235	0x3d80747a	0.06272216
236	0x3c9eaba2	0.01936895
237	0xbd25690d	-0.040383387
238	0xbd8f676c	-0.07002148
239	0xbc9951f8	-0.018715844
240	0xbd2edddd	-0.042692054
241	0xbe34ea2e	-0.17667457
242	0x3d25c30c	0.040469214
243	0x3c67d703	0.014150384
244	0x3db39cd4	0.08770147
245	0xbccd629f	-0.02507144
246	0xbdf1a937	-0.11799853
247	0xbe12a362	-0.14320138
248	0xbcbbeaae	-0.022939052
249	0x3d1d8157	0.038453426
250	0x3cc59ab1	0.024121614
251	0xbca197a9	-0.019725638
252	0xbc544436	-0.012955716
253	0x3d297d13	0.041379046
254	0xbd31b3c6	-0.043384336
255	0x3de55b7a	0.111990884

encoder.cnn.bias f4 [8]
0	0xbfa3a8f4	-1.2785935
1	0xbf2e55e7	-0.68099827
2	0xbebf3dcd	-0.37351838
3	0xbf34a1fe	-0.7055968
4	0xbf1f0945	-0.6212352
5	0xbf1375f7	-0.57601875
6	0xbdfcf4a4	-0.12351349
7	0xbf22847a	-0.63483393

encoder.rnn.weight_ih_l0 f4 [128, 8]
0	0x3de91d60	0.11382556
1	0x3d9bd467	0.07608872
2	0xbd70f8b0	-0.058830917
3	0xbdf100b6	-0.11767714
4	0x3d4988db	0.04920278
5	0xbe419854	-0.18905765
6	0xbac8501c	-0.0015282664
7	0xbe9527cb	-0.29131922
8	0xbe037848	-0.12838852
9	0x3e872a09	0.26399258
10	0x3e8f5bca	0.27999717
11	0x3d5e18a4	0.054222718
12	0xbc760795	-0.015016456
13	0xbdf4229b	-0.11920663
14	0x3d3a78c7	0.04552534
15	0x3eac464c	0.33647382
16	0x3d9f4fa5	0.07778863
17	0xbdeafb58	-0.11473721
18	0x3e04f694	0.12984687
19	0x3e380bb1	0.1797321
20	0x3d23b49f	0.039967176
21	0x3d78f218	0.060777754
22	0xbcef6642	-0.029223565
23	0x3da08dc7	0.07839542
24	0x3e0714ad	0.13191481
25	0xbcc293f3	-0.023752188
26	0xbdfe48e3	-0.12416246
27	0xbd45b213	-0.048265528
28	0xbdbf84c3	-0.09351494
29	0x3d0c1b5f	0.03420579
30	0x3d49a69b	0.049231153
31	0xbd4ece02	-0.050489433
32	0xbb1f7410	-0.0024330653
33	0xbe4d67c5	-0.20059116
34	0xbd96d814	-0.073654324
35	0x3e7db9c3	0.24777894
36	0x3e07f730	0.13277888
37	0x3d998c9c	0.07497522
38	0x3e40f87b	0.18844788
39	0x3e953d9d	0.2914857
40	0xbdedd7fc	-0.116134614
41	0xbde0206d	-0.10943685
42	0xbe11fc9d	-0.1425652
43	0xbd6bcbaa	-0.057567276
44	0xbbd89de2	-0.006610618
45	0x3e2d6673	0.16933613
46	0x3cdaefe5	0.026725719
47	0x3dbb9fbd	0.09161327
48	0xbda51d96	-0.08062284
49	0xbe1ea076	-0.15490898
50	0xbd861ba6	-0.06548242
51	0x3e394b5f	0.18095158
52	0xbdf07f74	-0.1174306
53	0xbbeb7138	-0.0071851276
54	0xbcdfe875	-0.027332524
55	0x3e1bad8e	0.15202925
56	0x3d173ee1	0.0369252
57	0xbde8639d	-0.11347125
58	0xbd5c5748	-0.053794175
59	0x3d14d8ac	0.036339447
60	0xbdca43b5	-0.09876195
61	0xba7887a0	-0.0009480659
62	0x3cbc0d7f	0.022955654
63	0x3c0f93a1	0.008763225
64	0xbda61941	-0.081102856
65	0x3c4828ae	0.01221673
66	0x3c8f7fa4	0.017516918
67	0x3dd6c108	0.104860365
68	0xbd1bfe8e	-0.03808456
69	0x3e591646	0.21199903
70	0x3c8bdfa2	0.01707441
71	0xbdec5246	-0.1153913
72	0xbcff00c4	-0.031128295
73	0xbc758458	-0.0149851665
74	0x3ce783d8	0.02826111
75	0x3cf681cc	0.030091189
76	0xbd825a3c	-0.06364867
77	0x3d2b8b10	0.041880667
78	0xbe2e19a8	-0.17001975
79	0x3c25f815	0.010129948
80	0x3e60d347	0.21955596
81	0xbdbc80dd	-0.09204266
82	0x3d9fba3e	0.07799195
83	0x3e0596a3	0.13045745
84	0x3e1d93af	0.15388368
85	0xbdd00e03	-0.101589225
86	0x3cef4f6b	0.029212674
87	0x3e36ff39	0.17870797
88	0x3dae07d9	0.084975906
89	0xbdccd7a2	-0.10002066
90	0x3e1bf75a	0.15231076
91	0x3e11e0e5	0.14245947
92	0x3d90e381	0.07074643
93	0xbdef9cd2	-0.11699833
94	0x3d1b7649	0.037954602
95	0xbd6858ff	-0.0567255
96	0x3ec67fa6	0.38769263
97	0x3c5d624e	0.013512207
98	0x3e46a19b	0.19397585
99	0x3d918beb	0.07106765
100	0xbc5e0485	-0.013550882
101	0x3e62c17f	0.22144125
102	0xbd12ad67	-0.0358099
103	0x3d5a1130	0.053239048
104	0x3d5b3217	0.053514566
105	0x3dd3243b	0.10309645
106	0x3d902569	0.070383854
107	0xbdf21645	-0.11820654
108	0xbe052462	-0.1300216
109	0x3d39bd3a	0.045346476
110	0xbccc8682	-0.024966482
111	0x3e843f8d	0.25829735
112	0x3e58e04a	0.2117931
113	0x3dad24dd	0.08454297
114	0xbd698a21	-0.057016496
115	0xbe206b89	-0.15666021
116	0xbbd8390c	-0.0065985974
117	0x3d47e96d	0.048806597
118	0x3dca063d	0.09864471
119	0xbd99ce9e	-0.07510112
120	0x3e459f41	0.19299032
121	0xbd32de2c	-0.04366891
122	0x3cb1d42d	0.021707619
123	0xbe201e0c	-0.15636462
124	0xbd185d1b	-0.037198167
125	0x3ea1d157	0.31605026
126	0x3e4bc1ef	0.19898199
127	0x3e6d12fe	0.23151776
128	0x3e0d71a1	0.13812877
129	0x3e2ad9fa	0.16684714
130	0x3eac5514	0.3365866
131	0x3d2572c4	0.040392652
132	0xbde47513	-0.11155143
133	0x3decd856	0.115647
134	0xbd54dd6c	-0.051968977
135	0xbe7f8785	-0.2495404
136	0x3cbc4301	0.022981169
137	0x3da62ae7	0.08113652
138	0x3e40aaa7	0.18815099
139	0x3e5afdc6	0.2138587
140	0xbc8e5a74	-0.017377116
141	0x3e38bb85	0.18040283
142	0x3ddf4767	0.10902291
143	0xbe02d89c	-0.12777942
144	0x3cce2853	0.025165712
145	0x3e990a05	0.29890457
146	0x3e24044a	0.16017261
147	0x3d7d1d7a	0.06179569
148	0x3e4eb9c0	0.20188046
149	0xbd8807a5	-0.06642083
150	0x3e25c271	0.16187455
151	0x3d618ca1	0.055065755
152	0xbeaa503b	-0.33264336
153	0xbdc7ec4a	-0.097618654
154	0x3d487986	0.04894402
155	0x3e9f091d	0.3106164
156	0x3e28956d	0.16463251
157	0x3f0326e1	0.512312
158	0x3ef97501	0.4872208
159	0x3e5b3d8c	0.21410197
160	0x3da09bca	0.078422144
161	0x3c962df4	0.018332459
162	0xbe656a73	-0.22403888
163	0xbd45a59e	-0.048253648
164	0x3ca97316	0.02068476
165	0x3d34e4c5	0.044163484
166	0x3e0b31fa	0.13593283
167	0x3e3d9020	0.1851201
168	0x3db1894d	0.08668766
169	0xbdaae7b5	-0.08344976
170	0x3df08276	0.117436334
171	0x3c9aca2d	0.018895233
172	0x3d7f2a9b	0.06229649
173	0xbc28cd9c	-0.010302927
174	0xbc160eef	-0.009158834
175	0x3c887d87	0.016661419
176	0xbd5c24ec	-0.05374615
177	0x3b4ba138	0.0031071436
178	0xbd214ed3	-0.039381813
179	0xbc9827ed	-0.018573726
180	0xbd1eaa99	-0.038736913
181	0xbe086248	-0.13318741
182	0x3c37d9ec	0.01122139
183	0xbdcab485	-0.098977126
184	0xbe6a48c2	-0.22879317
185	0xbe18ab06	-0.1490899
186	0x3d95d1cb	0.073154055
187	0x3d07b7b8	0.033134192
188	0x3de835d6	0.113383934
189	0x3df649a9	0.12025768
190	0x3caf01ee	0.021363225
191	0x3e85c717	0.26128456
192	0xbd895498	-0.06705588
193	0xbdbacf8b	-0.09121617
194	0xbdc9f6c8	-0.09861523
195	0x3cd68cab	0.026190123
196	0xbdb50769	-0.08839304
197	0xbda660d3	-0.081239365
198	0x3b81fbf7	0.003966804
199	0x3d703acf	0.058649834
200	0xbd5e469e	-0.054266565
201	0x3db1c962	0.08680989
202	0xbddc51ef	-0.10757815
203	0x3dbd36af	0.09238946
204	0x3e3835a0	0.17989206
205	0xbd0d6b2c	-0.034526035
206	0x3d7ce342	0.061740167
207	0x3dcd0a0e	0.100116834
208	0x3dff7438	0.12473339
209	0x3d1599c3	0.03652359
210	0xbdf988c7	-0.12184291
211	0x3e558a18	0.2085346
212	0x3e4bf2c2	0.19916824
213	0x3e0b8ee4	0.13628727
214	0x3cb3563b	0.021891704
215	0x3d5a463f	0.05328965
216	0x3ba6792f	0.005080364
217	0x3e264d61	0.16240455
218	0x3d2840df	0.04107749
219	0xbe1d0f3c	-0.15337843
220	0xbe05d6a0	-0.13070154
221	0x3e167107	0.14691554
222	0xbcbaec44	-0.022817738
223	0xbc33f04d	-0.010982585
224	0x3daacff3	0.083404444
225	0x3e1cf1be	0.15326592
226	0xbddc31a3	-0.10751655
227	0xbdf71ee3	-0.12066438
228	0x3bb90e75	0.0056474754
229	0x3e55139e	0.20808265
230	0x3d8cab68	0.06868631
231	0xbe1a3d5b	-0.15062468
232	0x3db0e0f6	0.08636658
233	0x3d447cb3	0.047970485
234	0x3e83a340	0.25710487
235	0x3db1e847	0.086868815
236	0x3e3f7afe	0.18699262
237	0x3e35ab2c	0.17741078
238	0x3e963485	0.29336944
239	0x3e96dca5	0.29465213
240	0xbcee3d45	-0.02908195
241	0xbcaf68e0	-0.021412313
242	0xbd156ea8	-0.036482483
243	0x3a8bb150	0.0010657702
244	0x3e23b179	0.15985669
245	0x3da4beb6	0.08044188
246	0x3e1e582d	0.15463324
247	0x3e0b67a1	0.1361375
248	0xbd940d16	-0.072290584
249	0xbab81b92	-0.0014046303
250	0x3db2880e	0.087173566
251	0xbd095a8d	-0.03353362
252	0x3e2c00f0	0.16797233
253	0xbe2da05b	-0.16955702
254	0x3e3c4869	0.18386997
255	0xbcdf0373	-0.027223324

encoder.rnn.weight_hh_l0 f4 [128, 32]
0	0xbf09a91b	-0.5377366
1	0x3f38128e	0.7190331
2	0x3f4179bc	0.75576377
3	0xbdffb156	-0.12484996
4	0xbef1ae8f	-0.4720349
5	0xbe146c35	-0.14494403
6	0x3ea0c9d1	0.31403974
7	0xbddb78a1	-0.107163675
8	0x3ee337ea	0.44378597
9	0x3f122f98	0.5710387
10	0xbf227c8a	-0.6347128
11	0xbeaf83af	-0.34280154
12	0x3e579d30	0.21056056
13	0xbf23451a	-0.63777316
14	0x3f299fab	0.6625926
15	0xbf046844	-0.51721597
16	0xbe9bcfc4	-0.3043195
17	0x3dfe3add	0.12413571
18	0x3ebc5b24	0.36788285
19	0xbee144b8	-0.4399774
20	0x3f05dbf4	0.52288747
21	0xbee532ad	-0.44765225
22	0xbe00df9d	-0.12585302
23	0xbe65ebb5	-0.22453196
24	0xbf28e8a0	-0.6597996
25	0x3ef06ff2	0.46960407
26	0x3f5a3dba	0.8525044
27	0x3f640c24	0.89081025
28	0x3f179393	0.59209555
29	0xbeb7e227	-0.35914728
30	0xbe849599	-0.25895384
31	0xbe8f573e	-0.27996248
32	0x3ea90f58	0.3301952
33	0xbeb00546	-0.34379023
34	0xbea5727c	-0.32313907
35	0x3ba4442b	0.005013009
36	0x3e887464	0.266513
37	0xbc676ac2	-0.014124574
38	0x3ef6ad27	0.4817898
39	0xbd97c91d	-0.07411406
40	0xbf2f5a55	-0.6849721
41	0xbe7eee56	-0.24895605
42	0x3efc2e25	0.49253955
43	0x3ea8e087	0.329838
44	0xbeba19ba	-0.36347753
45	0x3e8f57b7	0.2799661
46	0xbeae0f13	-0.33995876
47	0x3f13b504	0.5769808
48	0x3f06f51e	0.5271777
49	0xbe87be1a	-0.26512223
50	0xbe856606	-0.260544
51	0x3e8d0a76	0.27547044
52	0xbf12eef8	-0.5739589
53	0xba1b5011	-0.00059247116
54	0x3e667c22	0.2250829
55	0x3d3da209	0.046297107
56	0x3d348d77	0.044080224
57	0xbe1e6986	-0.15469941
58	0xbf03b5a5	-0.5144904
59	0xbda410d9	-0.08011026
60	0xbea88ba9	-0.32919052
61	0xbd1d043a	-0.03833411
62	0x3e929f94	0.28637373
63	0x3d0a63b5	0.033786494
64	0x3ebbac9e	0.36655134
65	0x3f0ae1ab	0.5425059
66	0x3f0ae151	0.54250056
67	0xbf20549c	-0.62629104
68	0xbe5c5061	-0.21515037
69	0x3e2e610c	0.17029208
70	0xbe42b913	-0.19015913
71	0x3ee58bff	0.4483337
72	0x3e808b72	0.25106388
73	0x3ee98cb6	0.45615166
74	0xbe9d8e49	-0.30772617
75	0x3e8d92ec	0.27651155
76	0xbf24a5a4	-0.6431525
77	0xbed53f53	-0.41649875
78	0x3ebeb8b0	0.3725028
79	0xbf063a9b	-0.52433175
80	0xbe9837e7	-0.2973015
81	0xbe75ee55	-0.24016698
82	0x3ebada10	0.36494493
83	0xbeb76078	-0.35815787
84	0x3d03b66b	0.03215639
85	0x3ef925b7	0.48661587
86	0x3d519c7b	0.051174622
87	0xbf243710	-0.6414652
88	0xbef47c2c	-0.47750986
89	0x3eb51ab1	0.35371926
90	0x3ef72f60	0.48278332
91	0xbcebfab8	-0.028806075
92	0x3efa4d90	0.488873
93	0xbe701d2b	-0.23448627
94	0x3ec8b02e	0.39196914
95	0x3e586513	0.21132307
96	0xbeabaf3f	-0.3353214
97	0x3ea75c68	0.32687688
98	0x3da398bb	0.079881154
99	0xbe897702	-0.26848608
100	0xbdff6920	-0.12471223
101	0x3e85c0cd	0.26123658
102	0x3ea3d464	0.3199798
103	0xbe87a5f0	-0.26493788
104	0x3e59278d	0.21206494
105	0x3dca21af	0.09869706
106	0xbeacc1d4	-0.3374163
107	0xbeab1cf6	-0.33420533
108	0x3e817a42	0.25288588
109	0xbdef55f8	-0.11686319
110	0x3d90027f	0.07031726
111	0xbeeaa298	-0.45827174
112	0x3ce4d660	0.027934253
113	0x3ec40a00	0.3828888
114	0x3e557672	0.20845965
115	0xbec0a2fd	-0.3762435
116	0x3e275b31	0.1634338
117	0xbe97daa9	-0.29659012
118	0xbe42275f	-0.18960331
119	0xbdfea176	-0.1243314
120	0x3d333ff7	0.043762174
121	0x3f7fe229	0.9995447
122	0x3e71d3ba	0.23615924
123	0x3c8c418f	0.017121105
124	0x3d92d8bf	0.07170247
125	0xbf668bbe	-0.9005698
126	0xbf062576	-0.5240091
127	0xbe4e786e	-0.20163128
128	0xbde0518b	-0.10953053
129	0x3e4b817b	0.19873612
130	0xbe8418ac	-0.25800073
131	0xbc91de0f	-0.017806081
132	0xbec8ef9f	-0.39245316
133	0x3ea02b40	0.31282997
134	0xbe0faa42	-0.14029792
135	0x3f18e59e	0.5972537
136	0xbe3b9528	-0.18318617
137	0x3e3dfa51	0.1855252
138	0xbe990273	-0.2988468
139	0xbe7563ff	-0.23963927
140	0x3ca5565b	0.020182779
141	0xbf08ab62	-0.5338651
142	0x3e807573	0.25089607
143	0xbd206fbf	-0.03916907
144	0xbf0e39a0	-0.5555668
145	0x3da9eba1	0.08296896
146	0xbf0bdee3	-0.54636973
147	0xbe84b803	-0.2592164
148	0x3e37d1c9	0.1795112
149	0xbeeaad0a	-0.45835143
150	0x3e20edb7	0.15715681
151	0xbe60d65c	-0.21956772
152	0xbe174721	-0.14773227
153	0x3f54c699	0.83115536
154	0x3c020110	0.007934824
155	0xbd2c1e9b	-0.042021375
156	0x3e3c3ec2	0.18383315
157	0xbe883ee2	-0.26610476
158	0xbd71304e	-0.058883958
159	0x3d185a7d	0.03719567
160	0x3e0eea1b	0.13956492
161	0x3e649edc	0.22326225
162	0x3e9943a4	0.29934418
163	0xbebdd745	-0.370783
164	0xbcba443e	-0.022737619
165	0x3e811ff2	0.25219685
166	0x3e98d1f9	0.29847696
167	0x3e81fb2d	0.25386944
168	0x3d068f67	0.032851603
169	0x3c4d3c0c	0.012526523
170	0xbe29a44e	-0.16566584
171	0x3e2271dc	0.15863746
172	0xbf016213	-0.50540274
173	0xbe239ab0	-0.15976977
174	0x3e96e645	0.29472557
175	0xbd6127aa	-0.054969467
176	0xbd111ba8	-0.035426766
177	0x3ebd6fb9	0.369993
178	0xbe09a5d4	-0.13442165
179	0xbe3e0896	-0.18557963
180	0xbe61d9e3	-0.22055773
181	0xbd0a4714	-0.03375919
182	0xbf81f509	-1.0152904
183	0xbd00fbf1	-0.03149027
184	0xbe380701	-0.17971422
185	0x3f0a66a6	0.5406288
186	0xbd59b39e	-0.053149812
187	0xbdfd5602	-0.1236992
188	0x3e87749b	0.2645615
189	0xbec43ec4	-0.38329136
190	0x3de93fd9	0.11389131
191	0x3ea084cc	0.31351316
192	0x3e985dcc	0.2975906
193	0x3dffff51	0.124998696
194	0x3e8e3283	0.27772912
195	0xbe22c474	-0.15895253
196	0xbec290ea	-0.38001186
197	0xbbb1a5bc	-0.0054213684
198	0x3e786063	0.24255519
199	0x3e81aaff	0.25325772
200	0xbdc10ac7	-0.09425884
201	0x3f0bba2b	0.54580945
202	0xbe640af4	-0.22269803
203	0xbe3c0338	-0.18360603
204	0xbdca4d2d	-0.09878001
205	0xbe4bcac0	-0.19901562
206	0x3ea47a56	0.32124585
207	0xbe233050	-0.15936399
208	0xbeacee69	-0.33775643
209	0xbe3afaa7	-0.18259679
210	0x3e356c91	0.17717196
211	0xbe9f0a0b	-0.3106235
212	0xbdc284b6	-0.09497969
213	0x3dd8e959	0.105913825
214	0x3ddcf6cf	0.107892625
215	0xbea9c581	-0.33158496
216	0xbe7dc4ea	-0.24782148
217	0xbdb23f57	-0.08703487
218	0x3d3394e3	0.04384316
219	0x3e0c54c8	0.13704216
220	0x3e858cdf	0.2608404
221	0x3ed5b1d3	0.41737232
222	0xbe25eff1	-0.16204812
223	0x3ea3d7f8	0.3200071
224	0xbefcb04b	-0.4935325
225	0x3f2b46af	0.6690473
226	0x3f3ba4a7	0.73298115
227	0x3ee2e4f2	0.44315296
228	0xbeb0403a	-0.34424
229	0x3b1282cb	0.002235579
230	0x3e8819b7	0.2658212
231	0xbf0c7771	-0.54869753
232	0x3efb05b4	0.4902779
233	0x3eeae54a	0.4587806
234	0xbf0e36b0	-0.55552197
235	0xbf0f36b1	-0.5594283
236	0x3f259a25	0.6468833
237	0xbe3d2317	-0.18470417
238	0x3e39cab3	0.1814373
239	0xbf325a13	-0.6966869
240	0x3df32d0e	0.11873828
241	0x3eb100ff	0.34571072
242	0x3e9e9031	0.30969384
243	0xbec20bbe	-0.37899584
244	0x3f3721c0	0.71535873
245	0xbf10b305	-0.5652316
246	0xbf2c818e	-0.67385185
247	0x3e15bb0e	0.14622137
248	0xbf26c530	-0.65144634
249	0x3dd19f86	0.10235505
250	0x3f534cc6	0.8253902
251	0x3eb02668	0.34404302
252	0x3f3eeb41	0.7457772
253	0x3d6bd8b8	0.057579726
254	0xbe974052	-0.2954126
255	0xbeed3eef	-0.46337077

encoder.rnn.bias_ih_l0 f4 [128]
0	0xbef2c2c6	-0.47414225
1	0x3e3ed922	0.18637517
2	0xbf193c25	-0.598574
3	0xbeb9cb8a	-0.362881
4	0xbe830102	-0.25586706
5	0xbda63464	-0.081154615
6	0xbe4665b5	-0.19374736
7	0xbf032e6a	-0.512427
8	0xbe98c50e	-0.2983784
9	0x3e875f9d	0.26440135
10	0xbdfd33df	-0.12363409
11	0xbef35d83	-0.4753228
12	0xbf2460e0	-0.6421032
13	0x3e7a4994	0.2444213
14	0x3e4f7eb3	0.20263176
15	0x3e138521	0.14406253
16	0xbe88b235	-0.2669846
17	0x3f1e01ba	0.61721385
18	0xbeaa8ccc	-0.33310544
19	0xbdd190bc	-0.10232684
20	0xbf276669	-0.6539064
21	0xbed3dc7b	-0.4137915
22	0xbec5d384	-0.38637936
23	0xbe4a5495	-0.19758828
24	0x3d6bb919	0.05754957
25	0xbeb6ad7d	-0.35679236
26	0xbf16b79e	-0.5887393
27	0xbd0a2902	-0.033730514
28	0x3f131051	0.5744677
29	0xbd3a6271	-0.045504037
30	0xbe407e39	-0.1879815
31	0xbec2a4ab	-0.38016257
32	0xbe0a8c05	-0.13529976
33	0x3f5fd938	0.87440825
34	0x3eb37cbc	0.35056102
35	0x3e9479ba	0.2899912
36	0x3e8c78d3	0.27435932
37	0x3e7de17f	0.24793051
38	0x3d316e73	0.043318223
39	0xbe272b05	-0.16325004
40	0x3e68bb32	0.2272766
41	0x3e58c1cf	0.21167682
42	0x3e8e69e6	0.2781517
43	0x3e8f45e1	0.27983
44	0x3dee2760	0.11628604
45	0xbeb012d6	-0.3438937
46	0x3f50509d	0.81373006
47	0x3e166b4b	0.14689367
48	0xbc509273	-0.012730229
49	0x3e9900ea	0.2988351
50	0x3ca9d706	0.020732414
51	0x3ecb1dda	0.39671212
52	0x3e597219	0.21234931
53	0x3ee606a2	0.44926935
54	0x3d93137d	0.071814515
55	0x3da1b924	0.07896641
56	0x3e93fb46	0.28902644
57	0xbd8eef1b	-0.069791995
58	0x3df94717	0.121717624
59	0x3eadcd84	0.33945858
60	0x3f6268fc	0.88441443
61	0x3e5ab8c4	0.21359545
62	0xbe35e8bc	-0.17764562
63	0x3eee3249	0.4652274
64	0xbea7014b	-0.32618174
65	0xbf28809e	-0.65821254
66	0x3eb2d598	0.34928584
67	0x3e857345	0.26064506
68	0x3e2539a5	0.16135271
69	0x3d3d5b37	0.046229567
70	0x3e5ab2d4	0.2135728
71	0xbea1d460	-0.31607342
72	0xbf22393c	-0.6336858
73	0xbe6b4099	-0.22973861
74	0x3e383bc8	0.17991555
75	0xbef5bdfb	-0.47996506
76	0x3d8afb24	0.067861825
77	0x3efb059f	0.49027726
78	0xbd9edc91	-0.077569135
79	0x3f204410	0.62603855
80	0x3ea5ecbc	0.32407176
81	0xbecfddfa	-0.40599042
82	0xbdaa77b2	-0.08323611
83	0xbccf2e48	-0.025290623
84	0x3e919285	0.28432098
85	0xbea0a911	-0.31378987
86	0x3da7f541	0.08201075
87	0x3ed0ec4e	0.40805286
88	0x3f174c13	0.59100455
89	0xbedefb8d	-0.43551293
90	0x3e02d9e4	0.12778431
91	0xbe0ffbb9	-0.14060868
92	0xbf33ecd3	-0.7028324
93	0xbd801525	-0.06254033
94	0xbedc356c	-0.43009508
95	0xbe2da9a9	-0.16959251
96	0x3e7bbbc9	0.24583353
97	0x3f3255c3	0.6966211
98	0x3f2816ec	0.65659976
99	0x3ec58bb0	0.38583136
100	0x3ded9f2f	0.116026275
101	0x3f1111cd	0.56667787
102	0xbd8480ef	-0.06469905
103	0x3dbcece7	0.09224873
104	0x3e13352e	0.14375755
105	0x3cdbee18	0.02684693
106	0x3f9282c2	1.1446154
107	0x3f0cb737	0.54967064
108	0x3e1234af	0.1427791
109	0xbe2c0d79	-0.16802014
110	0x3f26ec29	0.652041
111	0x3f0bbba3	0.54583186
112	0x3dd2a197	0.10284727
113	0x3e7449d9	0.23856296
114	0x3de59a8e	0.112111196
115	0x3e59f3ab	0.21284358
116	0x3f56eeda	0.8395821
117	0x3f2d2f6f	0.676505
118	0x3e25345d	0.16133256
119	0x3dccad9b	0.0999405
120	0x3f0c4d32	0.5480529
121	0xbe8a0cdb	-0.26962933
122	0x3f14dd1d	0.5814989
123	0x3f1945c1	0.5987206
124	0x3fba4df5	1.4555041
125	0xbf06bc2c	-0.5263088
126	0xbe780e53	-0.24224214
127	0x3f5b3fe4	0.85644364

encoder.rnn.bias_hh_l0 f4 [128]
0	0xbec17536	-0.37784737
1	0x3e99e043	0.3005391
2	0xbefd00ec	-0.49414766
3	0xbe8a6d6b	-0.27036604
4	0xbe70c52c	-0.23512715
5	0x3d2e641b	0.042575937
6	0xbda75644	-0.08170751
7	0xbf2b61fb	-0.6694638
8	0x3adebcbd	0.0016993504
9	0x3ec4ee60	0.38463116
10	0xbe13a90d	-0.14419957
11	0xbf28314a	-0.6570021
12	0xbf171692	-0.59018815
13	0x3cc1b400	0.023645401
14	0x3e378843	0.17923073
15	0x3ef1ae26	0.47203177
16	0xbdfa0093	-0.12207141
17	0x3ec23309	0.37929562
18	0xbe71be67	-0.23607789
19	0xbc1b2636	-0.009469559
20	0xbeea5b9f	-0.45773026
21	0xbf36f242	-0.71463406
22	0xbdeb5a13	-0.1149179
23	0xbe119faa	-0.14221063
24	0x3d9413c5	0.07230333
25	0xbf1a7125	-0.60328895
26	0xbebdda59	-0.3708065
27	0xbd440bba	-0.047862746
28	0x3ed7aadc	0.42122543
29	0x3dc36b31	0.095419295
30	0xbe43dbf6	-0.19126877
31	0xbe9ae24b	-0.30250773
32	0xbe90e844	-0.28302205
33	0x3f649e1d	0.8930376
34	0x3ee2f477	0.44327137
35	0x3e700730	0.23440242
36	0x3c93c061	0.01803607
37	0x3eb9d157	0.36292526
38	0x3dcb208f	0.099183194
39	0xbe340670	-0.1758058
40	0x3d0b38a4	0.033989564
41	0x3e962dbc	0.29331768
42	0x3e7aeca9	0.24504341
43	0x3dc4f2e0	0.09616637
44	0x3d289f41	0.0411675
45	0xbea58564	-0.3232833
46	0x3f0b86cd	0.54502565
47	0x3e9be708	0.304497
48	0x3cd14cf9	0.025549399
49	0x3ee6069b	0.44926915
50	0x3e02ddea	0.12779966
51	0x3e711ad6	0.23545393
52	0x3ed7d54c	0.4215492
53	0x3ee970fe	0.4559402
54	0xbe3dab2f	-0.18522333
55	0x3e062068	0.130983
56	0x3e576cec	0.21037644
57	0xbe6279dc	-0.22116798
58	0x3de19d43	0.110163234
59	0x3eced45a	0.40396386
60	0x3f2cc8ed	0.6749409
61	0xbd18ad1a	-0.037274458
62	0xbde17683	-0.110089324
63	0x3edff689	0.4374278
64	0xbebced0a	-0.36899596
65	0xbedcfbc2	-0.43160826
66	0x3e6bf2a2	0.23041776
67	0x3ece06a7	0.4023945
68	0xbd3ad80c	-0.045616195
69	0x3dd16798	0.10224837
70	0x3e365f97	0.17809902
71	0xbeb9a835	-0.36261144
72	0xbf1f46c7	-0.6221737
73	0xbe2f707b	-0.17132752
74	0x3e31255b	0.17299406
75	0xbeaec193	-0.3413206
76	0x3e4596f5	0.19295867
77	0x3f42711d	0.7595385
78	0xbe6fa39b	-0.23402254
79	0x3f145ebc	0.57957053
80	0x3e900cb8	0.28134704
81	0xbf1e0156	-0.6172079
82	0xbdd21307	-0.102575354
83	0x3d3fc4d0	0.046818554
84	0x3ef9386a	0.48675853
85	0xbe923e4c	-0.28563154
86	0x3cf71e3a	0.03016578
87	0x3eb47436	0.35244912
88	0x3f205811	0.6263438
89	0xbeb97cee	-0.36228126
90	0x3e420423	0.1894689
91	0xbce6b2d4	-0.028161444
92	0xbf605ceb	-0.8764178
93	0x3b5cd1ca	0.003369438
94	0xbeab67be	-0.33477587
95	0xbebc53d3	-0.36782703
96	0x3ec6a8f4	0.38800776
97	0x3f7ccd1a	0.9875046
98	0x3ef994d7	0.48746368
99	0x3ead244c	0.33816755
100	0xbe152c4b	-0.14567678
101	0x3ec4e97d	0.38459387
102	0x3e703724	0.23458534
103	0x3d4b4d58	0.049634308
104	0x3e8220bf	0.25415608
105	0x3e3b7225	0.18305261
106	0x3f51baff	0.8192596
107	0x3e983237	0.2972581
108	0x3eb23edf	0.34813592
109	0xbe1a88e0	-0.15091276
110	0x3f124341	0.5713387
111	0x3ecc32c6	0.39882487
112	0x3e9f2270	0.3108096
113	0x3e7504f7	0.23927675
114	0x3e8c92b6	0.27455682
115	0x3e5e65dd	0.21718545
116	0x3f52b55a	0.8230797
117	0x3f0b2dfe	0.54367054
118	0x3e5e53df	0.21711682
119	0xbd93a270	-0.07208717
120	0x3f04a6ba	0.51816905
121	0xbeeac1b7	-0.45850918
122	0x3f3d1a5f	0.73868364
123	0x3f266209	0.6499334
124	0x3fa407eb	1.2814916
125	0xbf248982	-0.6427232
126	0xbe63c3a0	-0.22242594
127	0x3f32a910	0.6978922

decoder.rnn.weight_ih_l0 f4 [256, 32]
0	0x3ed6cbe9	0.41952446
1	0xbe468853	-0.19387941
2	0x3d154c40	0.03644967
3	0xbf50cd88	-0.81563616
4	0x3cfbf9bf	0.030758737
5	0x3f40d1b9	0.7532001
6	0xbeb61085	-0.35559478
7	0x3f16389d	0.58680135
8	0xbef08046	-0.46972865
9	0x3e74685d	0.23867936
10	0x3e7a8a79	0.24466886
11	0x3f009ca3	0.5023901
12	0xbe93e59c	-0.28886116
13	0x3c499448	0.012303419
14	0x3e833fe1	0.25634673
15	0xbd5df33f	-0.054187056
16	0xbeee2491	-0.46512273
17	0x3d9cd4af	0.07657754
18	0xbf00a76f	-0.50255483
19	0xbe973d0b	-0.2953876
20	0xbed21a96	-0.41035908
21	0x3f08a4d9	0.5337654
22	0xbefce4fc	-0.4939345
23	0xbed1ec8e	-0.4100079
24	0x3ed929a3	0.4241458
25	0x3c8789ab	0.016545137
26	0x3e15f930	0.14645839
27	0x3ebfd292	0.3746534
28	0xbe8f0741	-0.27935222
29	0x3de852cd	0.11343918
30	0x3ef49e5d	0.47777072
31	0x3f4d0306	0.8008274
32	0x3ee2e494	0.44315016
33	0xbe076e63	-0.13225703
34	0x3eb72408	0.35769677
35	0xbf1287c5	-0.5723842
36	0xbdbd2097	-0.09234732
37	0x3f91f299	1.140216
38	0xbf18a3f8	-0.59625196
39	0x3f524e29	0.8215051
40	0xbe5c5316	-0.2151607
41	0x3e348423	0.17628531
42	0x3df5d5eb	0.12003692
43	0x3ec188dd	0.3779973
44	0xbe942a37	-0.28938457
45	0x3e7c1d86	0.24620637
46	0x3ea9659c	0.33085334
47	0xbd83d3ef	-0.064369075
48	0xbe9d512a	-0.30725986
49	0x3ed8dd24	0.42356217
50	0xbecb5b29	-0.39717987
51	0x3cc77785	0.024348984
52	0xbe8cf66b	-0.27531752
53	0x3ea19bb9	0.3156412
54	0xbeb79660	-0.35856915
55	0xbeb29ac6	-0.34883708
56	0xbe3a9581	-0.18221094
57	0xbe33c388	-0.17555058
58	0x3e390f7b	0.18072312
59	0x3f20ec1c	0.62860274
60	0xbe91975e	-0.28435796
61	0x3efb3d8d	0.49070397
62	0x3e8f6011	0.2800298
63	0x3f2b580f	0.6693124
64	0x3f1cde50	0.6127672
65	0xbdd19706	-0.102338836
66	0xbd88c6f9	-0.06678576
67	0xbed2a8a0	-0.41144276
68	0xbeb55ebb	-0.35423836
69	0xbc927de8	-0.017882302
70	0x3e8c7142	0.2743016
71	0x3f0abb9a	0.5419251
72	0xbf2eadc1	-0.6823388
73	0x3c853ab7	0.016263349
74	0x3e0b9e89	0.13634695
75	0x3f08b69f	0.5340366
76	0xb9b71ec4	-0.00034927402
77	0x3d89c31f	0.067266695
78	0xbd9c3efa	-0.07629199
79	0x3de48325	0.11157826
80	0xbe73a6b5	-0.23794062
81	0x3dba3122	0.090914026
82	0x3e57e5ee	0.21083805
83	0x3e8ec62b	0.27885565
84	0xbf4f10b9	-0.8088489
85	0x3f878e79	1.0590354
86	0xbf6ad3bb	-0.91729325
87	0xbf0cb6a8	-0.5496621
88	0x3e92ca7a	0.28670102
89	0x3f0fc098	0.5615325
90	0xbd9887e9	-0.07447798
91	0xbed7463e	-0.42045778
92	0xbeb8dcb2	-0.36105877
93	0x3da87b3e	0.082266316
94	0x3ed7b04f	0.421267
95	0x3fa7b3df	1.3101767
96	0xbe89f4a0	-0.26944447
97	0xbdc6d6a0	-0.09708905
98	0xbdf6f6bd	-0.1205878
99	0xbebbe77c	-0.36700046
100	0x3f027fc7	0.5097622
101	0xbe8485ca	-0.25883323
102	0xbf8695d4	-1.0514474
103	0xbef439ee	-0.47700447
104	0xbeb23b79	-0.34811
105	0xbc84a8b1	-0.01619372
106	0x3db3a36e	0.08771406
107	0x3e969d56	0.29416913
108	0x3e63a8f9	0.22232427
109	0xbda0178d	-0.07816992
110	0xbd846306	-0.064642
111	0xbde8e3f7	-0.11371606
112	0xbe706e6d	-0.23479624
113	0x3ebb1536	0.3653962
114	0xbfa108a6	-1.2580764
115	0x3d5ee22d	0.054414917
116	0xbdf2410c	-0.11828813
117	0x3de6966f	0.11259162
118	0xbf2d41ed	-0.6767872
119	0xbe234054	-0.15942508
120	0xbf079404	-0.5296023
121	0x3e936a75	0.28792158
122	0x3d1ba808	0.038002044
123	0x3eb8acbc	0.36069286
124	0xbe6d4b8f	-0.23173355
125	0x3e89130d	0.26772347
126	0xbe800cb1	-0.25009683
127	0xbdaa8182	-0.08325483
128	0x3ecb2c96	0.39682454
129	0xbebc1008	-0.3673098
130	0xbf895a89	-1.0730754
131	0xbe72c35b	-0.23707335
132	0x3e43283a	0.19058314
133	0xbf369b8a	-0.71331084
134	0xbc87132f	-0.01648864
135	0x3ec881fb	0.39161667
136	0xbf67ab02	-0.9049531
137	0xbdc87d0d	-0.097894765
138	0x3f408692	0.7520534
139	0x3e3be924	0.18350655
140	0x3d8d9787	0.06913667
141	0xbe03554a	-0.12825504
142	0xbcb15a31	-0.021649452
143	0x3e83745d	0.25674716
144	0x3ee1313b	0.43982872
145	0x3c17353b	0.009229
146	0xbdcb70f4	-0.099336535
147	0x3e363884	0.17794997
148	0xbf812cd7	-1.0091809
149	0x3f261701	0.6487885
150	0xbe89bae7	-0.26900408
151	0xbede0dd3	-0.43369922
152	0x3e8bd87e	0.27313608
153	0x3d19c487	0.03754094
154	0xbf988afb	-1.1917413
155	0xbf03ef62	-0.51537144
156	0xbedb502e	-0.4283461
157	0xbea9fa06	-0.33198565
158	0xbe1e440b	-0.15455644
159	0x3f91a73f	1.1379164
160	0x3edae94d	0.4275612
161	0xbe29d336	-0.16584477
162	0x3e4398fb	0.19101326
163	0xbf02ce42	-0.51095974
164	0xbe1f165b	-0.15535872
165	0x3f567719	0.8377548
166	0xbe3fe771	-0.18740632
167	0x3f5a7b75	0.8534463
168	0xbe01785c	-0.1264357
169	0x3eb8dea2	0.36107355
170	0x3c4ccda4	0.0125002
171	0x3f127fcf	0.5722627
172	0xbf09e700	-0.53868103
173	0x3e2d57c8	0.16928017
174	0x3caca6ea	0.021075685
175	0xbde9357a	-0.11387153
176	0xbe80eda0	-0.25181293
177	0xbf23bfc7	-0.63964504
178	0xbf1893dd	-0.5960062
179	0x3e357710	0.177212
180	0xbede4f86	-0.43420047
181	0x3ea0709a	0.31335908
182	0x3e80d5a3	0.25162992
183	0xbe3919d9	-0.18076266
184	0x3e3f1884	0.18661696
185	0xbe837800	-0.2567749
186	0x3e9117c2	0.28338438
187	0x3f617827	0.8807396
188	0xbe410133	-0.18848114
189	0x3ef628cd	0.48078004
190	0x3efccb12	0.4937368
191	0x3ef400fe	0.47657007
192	0x3ea872d0	0.32900095
193	0x3d6a2c62	0.057171233
194	0x3eb22aef	0.3479838
195	0xbf025814	-0.50915647
196	0xbed9d925	-0.4254848
197	0x3f1ff2b8	0.62479734
198	0xbe3fc0fb	-0.1872596
199	0x3f4171d9	0.7556434
200	0xbdb18bcf	-0.086692445
201	0x3f0b2c90	0.5436487
202	0x3c10a995	0.008829494
203	0x3d62006d	0.055176187
204	0xbe73a191	-0.23792101
205	0xbf270eb5	-0.65256816
206	0x3eaab208	0.33338952
207	0xbeaf9630	-0.3429427
208	0xbf3d3872	-0.73914254
209	0xbdbd2bea	-0.092368916
210	0xbde3c299	-0.11121101
211	0xbe99acc5	-0.30014625
212	0xbe0bb623	-0.13643698
213	0x3dbd085b	0.09230109
214	0xbdd49cf2	-0.103814974
215	0xbf03ad9b	-0.51436776
216	0x3ebc58ec	0.36786592
217	0x3e4cbf06	0.19994745
218	0x3e8faebe	0.28063005
219	0x3e0ac2fd	0.13550945
220	0xbd82b832	-0.06382789
221	0x3e816beb	0.25277647
222	0x3e034eaa	0.12822977
223	0x3d39f38e	0.045398287
224	0x3f047023	0.5173361
225	0x3da47d29	0.08031685
226	0x3ee64c34	0.44980013
227	0xbeb547d2	-0.35406357
228	0xbf7ce9f7	-0.987945
229	0x3e7fdd67	0.24986802
230	0x3de5c445	0.11219076
231	0x3e4cb600	0.19991302
232	0xbe1709a9	-0.14749779
233	0x3f048935	0.5177186
234	0xbdff943e	-0.12479447
235	0x3ea4902b	0.3214124
236	0xbe2e703d	-0.17035003
237	0xbedaa8ab	-0.42706808
238	0x3e2d5d28	0.16930068
239	0xbe93eac9	-0.28890064
240	0xbedb2481	-0.42801288
241	0xbd2137d0	-0.039359868
242	0xbd5c1381	-0.053729538
243	0x3d860abd	0.06545017
244	0xbf0fb3af	-0.5613355
245	0x3e8576f3	0.26067314
246	0xbe29318a	-0.16522804
247	0xbeeb1005	-0.4591066
248	0xbcb91ad6	-0.022595804
249	0x3dc6dbfd	0.09709928
250	0x3e514f62	0.20440438
251	0x3f16e37a	0.5894085
252	0xbdcacb5c	-0.09902069
253	0x3e8019bd	0.25019637
254	0x3f3f1902	0.74647534
255	0x3efe66b7	0.4968774

decoder.rnn.weight_hh_l0 f4 [256, 64]
0	0xbaf39813	-0.001858475
1	0x3d4e9574	0.0504355
2	0xbdd2b2b0	-0.10287988
3	0x3d3352ef	0.043780264
4	0xbd43853b	-0.04773448
5	0xbd85cd57	-0.06533306
6	0x3cc369a4	0.023854084
7	0x3c4478ba	0.011991674
8	0x3e1ff19e	0.15619513
9	0xbed988d6	-0.4248721
10	0x3dd33377	0.103125505
11	0x3dec92c5	0.115514316
12	0xbd5a2737	-0.053260054
13	0x3e0dea5e	0.13858935
14	0x3d8e57cc	0.0695034
15	0xbca6714c	-0.020317696
16	0x3e87b6db	0.26506695
17	0xbe29b3d7	-0.1657251
18	0xbdd98f50	-0.10623038
19	0xbbe586e7	-0.007004607
20	0x3dfa0f1e	0.122099146
21	0x3f70c3f8	0.94049025
22	0x3e587745	0.21139248
23	0x3d418d38	0.047253817
24	0x3d3a4cb1	0.045483295
25	0xbdfb3d33	-0.12267532
26	0xbe904915	-0.28180757
27	0x3d93fc96	0.07225911
28	0xbde1abdf	-0.1101911
29	0x3e6b86dc	0.23000664
30	0x3cff217b	0.031143894
31	0x3d3a4991	0.045480315
32	0xbdbac220	-0.09119058
33	0x3e401c62	0.18760827
34	0xbc81fb41	-0.015866878
35	0x3e488533	0.19582061
36	0x3e445cd5	0.19176038
37	0x3e716145	0.23572262
38	0x3c7c6577	0.0154050505
39	0x3e30596c	0.17221612
40	0xbe115cfc	-0.14195627
41	0x3e6f1202	0.23346713
42	0xbda4f80c	-0.08055124
43	0x3e88809f	0.2666063
44	0xbc41262d	-0.011788887
45	0x3e1bf5a4	0.15230423
46	0xbd42bb5a	-0.047541954
47	0x3bd82005	0.006595614
48	0x3c957bbe	0.018247481
49	0x3d91ccd8	0.07119149
50	0xbe35f8ff	-0.17770766
51	0x3e4852b8	0.19562805
52	0xbdeec2e4	-0.11658266
53	0xbdee6cf9	-0.11641879
54	0x3bd8a7f7	0.00661182
55	0xbcf9722c	-0.03044995
56	0xbe1f514a	-0.15558353
57	0x3e6a8389	0.22901739
58	0x3b06544e	0.0020497027
59	0xbe2b43a3	-0.1672502
60	0xbceec254	-0.029145397
61	0xbd2f0ca0	-0.04273665
62	0xbb8c3005	-0.0042781853
63	0x3e26e1df	0.162971
64	0xbe1890e5	-0.14899023
65	0x3dfe4658	0.12415761
66	0xbe03ff32	-0.12890318
67	0x3bc293b2	0.005938017
68	0x3d15630f	0.036471423
69	0x3e4c2b42	0.19938377
70	0xbedcf4ba	-0.43155462
71	0x3d071a92	0.032984324
72	0xbd60cc9c	-0.05488263
73	0x3db25ffc	0.08709714
74	0x3db88fbf	0.090117924
75	0x3db4ed37	0.08834308
76	0x3e5ec4d1	0.21754767
77	0xbdbe0d9d	-0.0927994
78	0x3d1ea015	0.038726885
79	0x3e027fd4	0.12744075
80	0xbe1eaebe	-0.15496346
81	0x3dbe83f5	0.093025126
82	0xbe1bd132	-0.1521652
83	0x3d5a3647	0.05327442
84	0xbe144b24	-0.14481789
85	0x3f0a5895	0.54041415
86	0xbd862080	-0.06549168
87	0xbba3371f	-0.004980936
88	0x3b0efc29	0.002181778
89	0x3d9185f8	0.07105631
90	0xbebf952d	-0.374185
91	0x3d8b9461	0.068154104
92	0x3d6bd826	0.057579182
93	0x3e28b59b	0.16475527
94	0x3d32bc0a	0.04363636
95	0xbd9e8c79	-0.07741637
96	0x3de615d4	0.11234632
97	0x3ba2dcc8	0.004970167
98	0xbc504e84	-0.012714032
99	0xbde2bcf4	-0.11071196
100	0x3b9ac3df	0.0047230567
101	0xbda7fa0c	-0.082019895
102	0xbcb4d44a	-0.022073884
103	0xbe60bc04	-0.21946722
104	0xbc73d3dd	-0.014882055
105	0xbc379cfc	-0.011206862
106	0xbd93b960	-0.07213092
107	0x3f03e93d	0.5152777
108	0x3d395280	0.045244694
109	0x3b44744a	0.002997654
110	0x3d54579d	0.051841367
111	0xbe81465e	-0.25248998
112	0x3be426a8	0.006962616
113	0xbc913073	-0.017723298
114	0x3e2bb5c7	0.16768561
115	0x3ecb2c51	0.39682248
116	0x3da6a0bc	0.081361264
117	0x3b8021eb	0.0039102933
118	0xbc8fab38	-0.017537698
119	0x3d4c650a	0.049901046
120	0xbdf4c2a0	-0.11951184
121	0xbe8096e8	-0.25115132
122	0x3daa6642	0.083202854
123	0x3b285150	0.0025683232
124	0x3df755ab	0.12076887
125	0x3b6d1ec2	0.0036181663
126	0x3d371d1c	0.044705495
127	0x3e82511d	0.2545251
128	0x3d2a8903	0.04163457
129	0xbf8c89a7	-1.0979508
130	0xbe7a351b	-0.2443432
131	0x3eafa486	0.3430521
132	0x3e4ba02d	0.19885321
133	0x3f15ae4d	0.58469087
134	0x3ecdb5c8	0.4017775
135	0xbf3d9ef0	-0.74070644
136	0xbe309395	-0.17243798
137	0xbe94fb75	-0.29098096
138	0x3c8981dc	0.016785555
139	0xbdbcf9a6	-0.09227304
140	0xbeb5e6c7	-0.35527632
141	0x3eabd609	0.33561733
142	0xbf3487a7	-0.7051949
143	0x3d901858	0.07035893
144	0xbcd070dd	-0.025444442
145	0x3e0d08e0	0.13772917
146	0x3f5859d4	0.84512067
147	0xbf906aa8	-1.1282549
148	0x3f6368cd	0.8883179
149	0x3f807774	1.0036454
150	0xbd7c0202	-0.061525352
151	0xbeb26594	-0.34843123
152	0xbe6940b5	-0.2277859
153	0x3f731b0c	0.94963145
154	0x3fdfcc51	1.7484227
155	0x3c3e5e49	0.011619159
156	0x3e9a256c	0.30106676
157	0xbe9c6223	-0.30543622
158	0xbeedc652	-0.4644037
159	0x3da119a4	0.07866219
160	0x3edfee71	0.43736604
161	0xbe2255c9	-0.15853037
162	0x3eae78f5	0.34076658
163	0xbfc1ae0e	-1.5131242
164	0x3ed59eab	0.41722617
165	0xbe243600	-0.16036224
166	0xbdd88f12	-0.105741635
167	0x3eb4a285	0.35280243
168	0xbe95cedd	-0.29259387
169	0xbe0f25c4	-0.1397925
170	0x3eab3bb2	0.3344398
171	0xbf25181e	-0.64489925
172	0xbeb7beea	-0.35887843
173	0xbd980699	-0.074231334
174	0x3da81e5b	0.08208915
175	0x3f2e6607	0.6812443
176	0x3f1931ed	0.59841806
177	0x3f2d7745	0.67760116
178	0x3e610e8b	0.21978204
179	0xbe6299c3	-0.22128968
180	0xbea8d652	-0.32976013
181	0x3f1855b8	0.59505796
182	0xbeb22326	-0.3479244
183	0x3f09a635	0.53769237
184	0xbcd7cd22	-0.026342932
185	0xbe9ae0bd	-0.30249587
186	0x3e16bf51	0.14721419
187	0x3e42c441	0.19020177
188	0x3e94cc85	0.29062286
189	0x3f2462c5	0.6421321
190	0xbef8d276	-0.4859807
191	0xbf00bcd7	-0.50288147
192	0xbdb5af03	-0.088712715
193	0x3f21d08f	0.6320886
194	0xbe749cbb	-0.23887913
195	0x3c4484ab	0.011994521
196	0x3d6262c0	0.055269957
197	0xbe1b515d	-0.15167756
198	0xbb72fac0	-0.0037075728
199	0xbda663cc	-0.081245035
200	0x3d45208e	0.04812675
201	0x3e8ee6fa	0.27910596
202	0xbe03eb9f	-0.12882851
203	0x3e22e65b	0.15908186
204	0xbdb4e684	-0.0883303
205	0xbde89654	-0.11356798
206	0xbca2daf9	-0.019879805
207	0x3e66d662	0.22542718
208	0xbdeeef6f	-0.11666762
209	0x3e721234	0.23639756
210	0xbefc2ded	-0.4925379
211	0x3e5ecb2f	0.21757196
212	0xbf12035d	-0.5703638
213	0x3f1daef3	0.61595076
214	0x3c1935f0	0.009351239
215	0x3ee2da32	0.44307095
216	0xbd906dea	-0.070522144
217	0xbdf11da5	-0.11773232
218	0xbf3a3681	-0.72739416
219	0x3c944416	0.018098872
220	0x3e10ff04	0.1415978
221	0xbe17a674	-0.1480959
222	0x3f4c4338	0.7979007
223	0x3d68046b	0.05664484
224	0xbdb59c4d	-0.08867703
225	0x3bf494d0	0.007464029
226	0x3db69a76	0.0891618
227	0xbe316db9	-0.17327012
228	0xbed116cc	-0.40837705
229	0x3d497918	0.04918775
230	0xbd7c69bc	-0.061624274
231	0xbdced470	-0.10099113
232	0xbc8e019c	-0.017334752
233	0xbd9d3f96	-0.07678144
234	0xbf643e09	-0.8915716
235	0xbe51602f	-0.20446847
236	0xbd4d31d4	-0.050096348
237	0xbca8febb	-0.020629277
238	0xbe832f0b	-0.25621828
239	0xbe4a59d8	-0.19760835
240	0xbf8588ad	-1.0432335
241	0x3b90f1d9	0.0044233617
242	0xbe2a6f30	-0.16643977
243	0xbf211f10	-0.6293802
244	0x3d35d9c7	0.04439714
245	0xbe389ced	-0.18028612
246	0xbd4676fd	-0.04845332
247	0x3e6033ff	0.21894835
248	0xbdd97202	-0.106174484
249	0x3eceb788	0.40374398
250	0x3cd42eb6	0.02590118
251	0x3d36eb3f	0.044657942
252	0xbb3de9a4	-0.0028978372
253	0x3e9573ca	0.29189903
254	0x3e0a6e9d	0.13518758
255	0x3f052862	0.52014744

decoder.rnn.bias_ih_l0 f4 [256]
0	0x3e9253fe	0.28579706
1	0x3e85eae4	0.2615577
2	0x3df5996c	0.119921535
3	0x3e8b271d	0.2717828
4	0x3e7ff585	0.24996002
5	0x3dbe6ee0	0.092984915
6	0x3e03280b	0.12808244
7	0x3e0be1df	0.13660382
8	0x3ec4fd6d	0.384746
9	0x3efe4402	0.4966126
10	0x3f098973	0.53725356
11	0x3e3cf01e	0.18450972
12	0x3e2ea588	0.17055333
13	0x3e81114d	0.25208512
14	0xbdd2969a	-0.10282631
15	0x3f2d441f	0.6768207
16	0x3edb3e2f	0.4282088
17	0x3e980ec3	0.29698762
18	0x3e778ade	0.24174067
19	0x3e835b39	0.25655535
20	0x3e6c9545	0.23103817
21	0xbe06b109	-0.13153471
22	0x3e407731	0.18795468
23	0x3d826dc2	0.06368591
24	0x3dff8884	0.1247721
25	0x3e8a9a84	0.2707101
26	0x3e632335	0.22181399
27	0x3ee2a267	0.44264528
28	0x3f00da55	0.5033315
29	0x3e7d7cff	0.24754713
30	0x3e5e1dee	0.21691105
31	0x3eba6353	0.36403903
32	0x3e57fc07	0.21092235
33	0x3eb24d41	0.34824565
34	0x3ea2e34a	0.31814033
35	0x3e664f46	0.22491178
36	0xbd6841cb	-0.05670337
37	0x3e8ea8b5	0.27863088
38	0x3f18b68e	0.59653556
39	0x3e1b1474	0.15144521
40	0x3e480b16	0.19535479
41	0x3f073cd5	0.528272
42	0x3e16d529	0.14729752
43	0x3d93a548	0.07209259
44	0x3ece5637	0.40300152
45	0x3f5be50e	0.85896385
46	0x3ee92f01	0.45543674
47	0x3e3b3fcc	0.18286055
48	0x3e0cfaba	0.1376752
49	0x3e4f609d	0.20251699
50	0x3e8c9d5b	0.27463803
51	0xbd5114b9	-0.051045153
52	0x3e28a219	0.16468085
53	0x3e0170f8	0.1264075
54	0x3ef03931	0.46918634
55	0x3e9406c8	0.28911424
56	0x3f35cf3b	0.71019334
57	0x3da2d946	0.07951598
58	0x3eaa2be1	0.33236602
59	0x3e210194	0.15723258
60	0x3e087c4e	0.13328668
61	0x3e510b06	0.20414361
62	0x3ea63b4f	0.32467124
63	0x3eed3807	0.46331808
64	0xbd148e61	-0.036268596
65	0xbdf2a566	-0.118479535
66	0xbe2ec36a	-0.17066732
67	0x3dc6dedc	0.09710476
68	0x3de7f4e3	0.11326005
69	0x3dffabf2	0.12483968
70	0xbe11c448	-0.14235032
71	0x3d46f59c	0.048574075
72	0xbd70dcbf	-0.05880427
73	0x3e231c4c	0.15928763
74	0x3f3a7649	0.7283674
75	0xbe5c5421	-0.21516468
76	0xbddc2245	-0.10748724
77	0xbe38c5db	-0.18044226
78	0x3cbdf11b	0.023186257
79	0x3e5828cb	0.21109311
80	0x3e50cab4	0.20389825
81	0x3ea6c388	0.32571054
82	0xbe02373c	-0.12716383
83	0xbe074526	-0.13209972
84	0xbd58c898	-0.052925676
85	0x3e4ad530	0.19807887
86	0xbdf4fa6f	-0.11961829
87	0xbe11450c	-0.14186496
88	0x3e5b7319	0.21430625
89	0xbe1da769	-0.15395893
90	0x3d07179c	0.0329815
91	0x3dcaee2d	0.0990871
92	0xbd530eea	-0.051527895
93	0x3d22a8e9	0.039711867
94	0xbe59288a	-0.2120687
95	0x3e509b0a	0.20371643
96	0x3dd07321	0.10178209
97	0x3e7f1032	0.24908522
98	0x3de449df	0.11146902
99	0xbd9c1ccd	-0.07622681
100	0xbd7acb24	-0.061228886
101	0xbd86813a	-0.06567617
102	0x3e6ddda8	0.23229086
103	0xb9d2ac29	-0.0004018259
104	0xbd411884	-0.04714252
105	0x3cc1edde	0.023672994
106	0xbc02197e	-0.007940648
107	0x3eb69a4f	0.35664603
108	0xbdcb2f3c	-0.099211186
109	0xbe75408f	-0.23950408
110	0x3d80ecc5	0.0629516
111	0xbd9ecc46	-0.07753806
112	0x3c609f56	0.013709864
113	0x3d7db483	0.061939728
114	0x3ca20e93	0.01978234
115	0x3d91b53c	0.07114646
116	0xbe349c5a	-0.17637768
117	0x3d3a8570	0.045537412
118	0x3dc65175	0.096835054
119	0xbd7b121b	-0.061296564
120	0x3e96e8c7	0.2947447
121	0x3def1da9	0.11675579
122	0xbd85ea5b	-0.065388404
123	0xbcce411f	-0.025177537
124	0x3d0c3575	0.034230668
125	0x3da62b01	0.08113671
126	0xbd1eabdd	-0.03873812
127	0x3d10dad1	0.03536493
128	0x3ea5b7fb	0.32366928
129	0xbe169212	-0.14704159
130	0x3ccb9067	0.02484913
131	0xbe174fb4	-0.14776498
132	0x3e5e66e9	0.21718945
133	0xbdbfc491	-0.09363664
134	0x3e4d8a58	0.20072305
135	0xbdc91004	-0.09817508
136	0xbed4d8db	-0.41571698
137	0xbcc03050	-0.023460537
138	0xbe987542	-0.2977696
139	0xbeccd757	-0.4000804
140	0xbd592c0d	-0.053020526
141	0xbdaa9a69	-0.08330233
142	0x3deabf3f	0.114622585
143	0x3e7fcc37	0.24980246
144	0xbd60cde3	-0.05488385
145	0x3e9e9243	0.30970964
146	0x3ea6a51b	0.3254784
147	0xbcde9cb2	-0.027174328
148	0x3e415f35	0.18883975
149	0x3e45f692	0.1933234
150	0xbe6bc1af	-0.23023103
151	0xbed28888	-0.4111979
152	0xbe4b4c3f	-0.19853304
153	0x3e00bd2e	0.12572166
154	0x3d207f6e	0.039184026
155	0xbe800fd4	-0.25012076
156	0x3e55720f	0.20844291
157	0x3e6c34f5	0.23067077
158	0xbe3b11d2	-0.18268517
159	0xbee2579b	-0.44207463
160	0x3e1a3a8f	0.15061401
161	0xbed5325b	-0.4163998
162	0x3e09fb5e	0.13474795
163	0xbdbb1c39	-0.091362424
164	0x3e0885db	0.13332312
165	0xbec41710	-0.38298845
166	0xbdf10fa2	-0.1177056
167	0xbd8c8687	-0.068615966
168	0xbe2db8ea	-0.1696507
169	0xbefadd34	-0.4899689
170	0x3eb3073d	0.3496646
171	0xbeb340d1	-0.35010388
172	0xbeb150b4	-0.34631884
173	0xbe6b4932	-0.2297714
174	0x3e33b803	0.17550664
175	0x3e5f45f9	0.21804036
176	0xbddfc6ec	-0.10926613
177	0x3e67cfab	0.22637813
178	0x3f05562d	0.5208462
179	0xbec311f8	-0.38099647
180	0xbd286627	-0.041113045
181	0x3ed6b0b2	0.41931683
182	0xbeb6aaf4	-0.35677302
183	0xba8c4816	-0.0010702636
184	0x3e7aa7c0	0.24478054
185	0x3eb051a4	0.34437287
186	0x3eb1beb4	0.34715807
187	0x3eaa879e	0.33306593
188	0x3eedee03	0.4647065
189	0x3e97b381	0.29629138
190	0xbe326481	-0.17421152
191	0xbe7cb87b	-0.24679749
192	0x3f51348c	0.81720805
193	0x3e9e9d4f	0.30979392
194	0x3e1fee35	0.15618213
195	0x3e88d52b	0.26725134
196	0x3e7dd113	0.24786787
197	0x3e87c708	0.26519036
198	0x3dffa00f	0.12481701
199	0x3d883ba4	0.066520005
200	0x3efaa485	0.48953643
201	0x3eee91a4	0.4659549
202	0x3f333325	0.69999915
203	0x3ef861d8	0.4851215
204	0x3e8d9225	0.27650562
205	0x3ea43553	0.32071933
206	0x3d738614	0.05945404
207	0x3eeabd66	0.45847625
208	0x3e9dae70	0.30797148
209	0x3ee2e1e8	0.44312978
210	0x3e919ff0	0.28442335
211	0x3e6738ae	0.22580215
212	0x3d6beb5c	0.057597503
213	0x3dee9859	0.11650152
214	0x3ed8cbf2	0.42343098
215	0x3e2502c3	0.16114335
216	0x3e9006d6	0.28130215
217	0x3ed51150	0.4161477
218	0x3eb32e67	0.3499634
219	0x3ed4f9dc	0.41596878
220	0x3e878c87	0.264744
221	0x3e6a17f1	0.22860695
222	0x3e74048a	0.23829857
223	0x3f022ad9	0.5084663
224	0x3e62185c	0.22079605
225	0x3ec1e960	0.37873363
226	0x3e995b47	0.29952452
227	0x3e806d37	0.25083324
228	0x3d9f19c3	0.077685855
229	0x3ec32955	0.3811747
230	0x3e90de75	0.2829472
231	0x3e02527f	0.12726782
232	0x3e91061b	0.2832497
233	0x3efb7297	0.49110863
234	0x3e931027	0.2872326
235	0x3f0d5d43	0.5522043
236	0x3e7813d4	0.24226314
237	0x3eae4809	0.34039333
238	0x3eaaa381	0.3332787
239	0x3ec74294	0.38917983
240	0x3e63e86d	0.22256632
241	0x3e82d119	0.25550154
242	0x3ee1b8c7	0.44086286
243	0x3eb6bb08	0.3568957
244	0x3e1a19ff	0.15048979
245	0x3eadd66c	0.33952653
246	0x3eacb1e7	0.3372948
247	0x3ebb2510	0.36551714
248	0x3f067993	0.5252926
249	0x3f63a6ea	0.88926566
250	0x3ef4f981	0.47846606
251	0x3ea2b035	0.3177506
252	0x3e91b61f	0.2845926
253	0x3ebf5d0b	0.37375674
254	0x3eac1247	0.33607695
255	0x3f0f8e60	0.5607662
