detector_dev/test_smoothers/models/cnn_lstm_ae_All_HV_detector.pt (torch, 129255 bytes, 12 tensors)

encoder.cnn.weight f4 [8, 4, 16]
0.14267772 0.1431958 0.14375971 0.14435922 0.14493524 0.14483164 0.14595805 0.14651652
0.14700148 0.14757425 0.14697762 0.14863764 0.14896129 0.14956497 0.14906834 0.15043795
0.30439413 0.30130473 0.2970809 0.2920271 0.28601155 0.28038877 0.27553064 0.2711856
0.26693627 0.26332417 0.26068446 0.2589629 0.258519 0.2590649 0.26038495 0.26156154
0.2830306 0.28075773 0.2793089 0.2781774 0.2774387 0.27696007 0.27687547 0.27693212
0.27763996 0.27854577 0.2798131 0.28106457 0.2825142 0.28411087 0.28569135 0.28720474
0.0050784308 0.013663615 0.028542582 0.04450407 0.06348513 0.08710882 0.112708956 0.13784507
0.16664642 0.19379789 0.21575646 0.2374963 0.25407332 0.26328674 0.257341 0.2435523
-0.09072037 -0.089594856 -0.0924225 -0.09356533 -0.09244691 -0.091122754 -0.094195314 -0.09462626
-0.09422327 -0.09548627 -0.09367476 -0.096221544 -0.09662539 -0.09602253 -0.09757999 -0.09778806
-0.18521194 -0.1865596 -0.18824111 -0.18985844 -0.19000664 -0.19111341 -0.19262788 -0.19324693
-0.19461563 -0.19378513 -0.19356617 -0.1915497 -0.19258802 -0.19108929 -0.18976575 -0.19263463
-0.1848883 -0.18709889 -0.18737929 -0.18467864 -0.18662246 -0.18688478 -0.18656506 -0.18450828
-0.18583886 -0.18412748 -0.18077874 -0.18067054 -0.1820905 -0.18014494 -0.18055423 -0.17725977
0.018275391 0.025530437 0.034424253 0.042095326 0.04980909 0.048016544 0.056719467 0.06920521
0.08193151 0.08546514 0.08948836 0.09793332 0.108022146 0.11671135 0.120670795 0.12300712
-0.04859065 -0.042519182 -0.042284813 -0.041922167 -0.042658098 -0.04552331 -0.04310602 -0.046468094
-0.041292373 -0.04445312 -0.040925164 -0.04095676 -0.039818224 -0.045461 -0.042691823 -0.03976059
0.03063337 0.025957633 0.022263674 0.018167404 0.014170037 0.011178315 0.0070222514 0.0042205
0.00137141 -0.0011383557 -0.0043577543 -0.008162192 -0.0094325775 -0.011534112 -0.014284509 -0.017859947
-0.008259416 -0.009533235 -0.009943112 -0.011958047 -0.0137425205 -0.014272682 -0.01569107 -0.016998675
-0.01798892 -0.019016637 -0.020141046 -0.022423333 -0.022394931 -0.02284188 -0.02506137 -0.025667379
-0.15267459 -0.12979487 -0.11158396 -0.08883725 -0.07636367 -0.07442299 -0.06817822 -0.053462174
-0.050247803 -0.04040903 -0.034758613 -0.025402913 -0.02276452 -0.022892317 -0.016178362 -0.01538802
-0.016970465 -0.01659898 -0.015718823 -0.016277963 -0.016417947 -0.0154007245 -0.015585163 -0.015825283
-0.015759697 -0.014783397 -0.015544798 -0.014740227 -0.015002001 -0.014981822 -0.014313212 -0.014334044
-0.052860383 -0.053193 -0.05413727 -0.05228463 -0.050466437 -0.04954236 -0.05190512 -0.049747895
-0.050406236 -0.048392102 -0.046771273 -0.045100357 -0.040866558 -0.038297273 -0.03799127 -0.032982133
-0.039913792 -0.038719468 -0.038885083 -0.0382181 -0.037546564 -0.036792252 -0.036162905 -0.036713123
-0.034169734 -0.032529697 -0.031293824 -0.030782288 -0.028796561 -0.028681293 -0.026391547 -0.02602878
0.1051203 0.103875294 0.106348686 0.1122806 0.11751313 0.121645555 0.13267489 0.14135386
0.14970435 0.16138452 0.1644789 0.17695516 0.1821074 0.19014695 0.18555754 0.1792816
00000000: 1c1a 123e eba1 123e bf35 133e e7d2 133e
00000010: e769 143e bf4e 143e 0776 153e 6d08 163e
00000020: 8e87 163e b41d 173e 4d81 163e 7734 183e
00000030: 4f89 183e 8f27 193e 5fa5 183e 680c 1a3e
00000040: 8cd9 9b3e 9d44 9a3e fd1a 983e 9384 953e
00000050: 1b70 923e 1e8f 8f3e 5a12 8d3e d7d8 8a3e
00000060: dfab 883e 6dd2 863e 6f78 853e c996 843e
00000070: 9a5c 843e 28a4 843e 2d51 853e 65eb 853e
00000080: 63e9 903e 7abf 8f3e 9301 8f3e 456d 8e3e
00000090: 720c 8e3e b6cd 8d3e 9fc2 8d3e 0cca 8d3e
000000a0: d326 8e3e 8d9d 8e3e aa43 8f3e b2e7 8f3e
000000b0: b4a5 903e fb76 913e 2346 923e 800c 933e
000000c0: f768 a63b 5bdd 5f3c 22d2 e93c e649 363d
000000d0: 7e04 823d 1c66 b23d f4d3 e63d 4227 0d3e
000000e0: 5ca5 2a3e f472 463e 43ef 5c3e 3b32 733e
000000f0: e615 823e 85cd 863e 33c2 833e c665 793e
00000100: 9acb b9bd 827d b7bd 0248 bdbd 2e9f bfbd
00000110: ce54 bdbd 919e babd 79e9 c0bd 6acb c1bd
00000120: 21f8 c0bd 4e8e c3bd 8dd8 bfbd cd0f c5bd
00000130: 88e3 c5bd 76a7 c4bd 05d8 c7bd 1b45 c8bd
00000140: 33a8 3dbe 7b09 3fbe 47c2 40be 406a 42be
00000150: 1a91 42be 3cb3 43be 3e40 45be 86e2 45be
00000160: 5249 47be 9c6f 46be 3636 46be 9b25 44be
00000170: cb35 45be e9ac 43be f451 42be 0342 45be
00000180: 5c53 3dbe da96 3fbe 5be0 3fbe 661c 3dbe
00000190: f519 3fbe b95e 3fbe e90a 3fbe bdef 3cbe
000001a0: 8b4c 3ebe ea8b 3cbe 101e 39be b301 39be
000001b0: ef75 3abe ea77 38be 35e3 38be 9683 35be
000001c0: 46b6 953c 3525 d13c 7200 0d3d 266c 2c3d
000001d0: 9e04 4c3d ffac 443d ac52 683d 76bb 8d3d
000001e0: b5cb a73d 5908 af3d ac45 b73d 4491 c83d
000001f0: b73a dd3d 5c06 ef3d 4022 f73d 28eb fb3d
00000200: fd06 47bd 9828 2ebd d732 2dbd 94b6 2bbd
00000210: 42ba 2ebd a676 3abd f08f 30bd 5455 3ebd
00000220: 3122 29bd 7a14 36bd 25a1 27bd 47c2 27bd
00000230: 6f18 23bd 5035 3abd 9fdd 2ebd 00dc 22bd
00000240: d5f2 fa3c 1aa5 d43c 4f62 b63c cfd3 943c
00000250: 7129 683c 4025 373c ea1a e63b 1f4c 8a3b
00000260: e2c0 b33a e134 95ba 7ecb 8ebb b7ba 05bc
00000270: 198b 1abc 92f9 3cbc 9309 6abc 064f 92bc
00000280: 8052 07bc 4931 1cbc 6fe8 22bc afeb 43bc
00000290: 4f28 61bc f8d7 69bc 8f8a 80bc ce40 8bbc
000002a0: 805d 93bc c7c8 9bbc d6fe a4bc 23b1 b7bc
000002b0: 9375 b7bc e51e bbbc 814d cdbc 6544 d2bc
000002c0: ba56 1cbe f2e8 04be 2286 e4bd 4ef0 b5bd
000002d0: 8e64 9cbd 156b 98bd 06a1 8bbd 27fb 5abd
000002e0: a4d0 4dbd f083 25bd 0c5f 0ebd c519 d0bc
000002f0: a97c babc ab88 bbbc 7c88 84bc 091e 7cbc
00000300: a505 8bbc 96fa 87bc c3c4 80bc 5d59 85bc
00000310: ee7e 86bc 5253 7cbc e958 7fbc 06a4 81bc
00000320: 7b1a 81bc 1036 72bc 9caf 7ebc fe80 71bc
00000330: f4ca 75bc 5176 75bc f681 6abc 57d9 6abc
00000340: 2184 58bd e7e0 59bd 0bbf 5dbd 6828 56bd
00000350: e5b5 4ebd eeec 4abd 779a 54bd 73c4 4bbd
00000360: c576 4ebd cc36 46bd 3c93 3fbd 27bb 38bd
00000370: b163 27bd 9add 1cbd bc9c 1bbd 4618 07bd
00000380: a57c 23bd 4e98 1ebd f745 1fbd 958a 1cbd
00000390: 6dca 19bd 79b3 16bd 8e1f 14bd 8060 16bd
000003a0: 90f5 0bbd dc3d 05bd f42d 00bd 232b fcbc
000003b0: c4e6 ebbc 08f5 eabc 1633 d8bc 4f3a d5bc
000003c0: 5049 d73d 92bc d43d 57cd d93d 5ff3 e53d
000003d0: b9aa f03d 4e21 f93d eddb 073e 11bf 103e
000003e0: 194c 193e fc41 253e 286d 283e bc33 353e
000003f0: 5d7a 3a3e e2b5 423e cc02 3e3e 9995 373e

encoder.cnn.bias f4 [8]
0.23054887 -0.16767909 -0.061132696 0.031822708 0.013622193 0.058320627 -0.061911587 0.25865927
00000000: 0115 6c3e 11b4 2bbe 4766 7abd 8758 023d
00000010: 9e2f 5f3c 9ce1 6e3d 0197 7dbd fd6e 843e

encoder.rnn.weight_ih_l0 f4 [128, 8]
0.055158008 0.029970594 0.04711359 0.03239436 -0.25965226 -0.102483 0.03296061 0.07884775
0.041717723 -0.1699695 -0.05601534 0.052361794 0.08104596 0.03610737 -0.11363965 -0.023632767
0.08350105 -0.1624891 0.03954656 -0.21527883 0.019365951 -0.059239596 -0.039114352 -0.16821235
-0.035948403 0.23622282 0.03597859 0.09743987 0.2543806 0.18960798 0.20866464 -0.0056621428
0.06443385 0.1488734 -0.1609754 -0.1313661 -0.09672337 -0.12725538 -0.026801871 -0.110022016
0.15142453 0.08067852 0.055768758 -0.008202459 -0.18399839 -0.05646313 0.09132437 -0.19850597
-0.18909384 -0.30488637 -0.35484365 -0.12724574 0.008409187 -0.12755445 0.14858173 -0.12885909
0.07176143 0.20484698 0.17043914 -0.1052813 -0.11894032 -0.082084544 -0.04005226 -0.004010596
0.2589288 0.31087062 0.3553546 0.07113613 0.22071306 -0.029019248 0.09391386 -0.16386741
0.020992134 -0.06164822 -0.025479415 0.25323173 0.1288055 -0.031641852 0.008884148 0.25394338
0.13025102 0.07388183 0.24754265 -0.04916828 0.0068110684 -0.072724216 -0.13470523 -0.078571275
0.07625958 -0.021114381 0.21731493 0.026567398 0.048799016 -0.05016253 -0.17328574 -0.10507867
0.16789451 -0.14810327 0.09010698 -0.25972855 -0.056711636 -0.13445987 -0.15133776 0.031802673
0.015400938 0.06612682 -0.015673097 -0.26835874 -0.04260566 -0.087682046 -0.083382644 -0.09468851
-0.0016266594 0.052737813 -0.10313755 0.11091623 0.04860718 -0.08362816 0.0632213 0.04642519
0.08465879 0.13847163 -0.0396742 0.16063777 -0.05535553 -0.15032776 0.02816453 -0.06325774
0.08079449 0.035642907 0.104601204 0.077995665 -0.05617588 -0.061149843 -0.23140584 -0.10952639
0.07258338 0.0014853969 0.1133192 -0.21311451 -0.113457255 -0.10858235 0.12613967 0.006029528
0.029233988 -0.22550389 -0.13689774 -0.23973568 -0.24590333 -0.2689207 -0.112753674 -0.15174107
-0.04488473 -0.09448291 -0.13750952 0.102475256 0.026364258 0.13774753 -0.1279944 0.012602322
-0.081222475 0.08982437 0.012096551 0.037072998 0.06612706 0.1529472 -0.02829612 0.18074624
-0.11870956 0.115186885 0.09141871 0.16065846 0.10986873 0.19355765 -0.014557159 -0.04142976
0.040061895 -0.22923309 -0.050328452 0.26225576 -0.07599358 0.13108379 0.027893515 0.056567833
0.10554696 0.019110123 0.045604073 -0.08814568 -0.041128904 -0.12198372 0.017683454 0.07429079
-0.12765309 -0.02806742 0.015029718 -0.27799812 0.00068191637 0.022302335 -0.094315365 0.06211552
-0.11832076 0.097059965 0.1888052 -0.08931345 -0.051158268 -0.16082875 -0.019080333 0.06400823
0.2002492 0.09578546 0.03320728 0.020979589 0.110420376 0.1343407 -0.085350126 -0.020370273
-0.11165122 0.13478574 0.1385046 -0.04559663 0.07580935 0.07824282 0.11798822 -0.16556026
-0.047521684 0.03524365 -0.10080598 -0.025588548 0.18226203 0.14886379 0.049481656 -0.11314216
-0.3236044 -0.08830595 -0.28044984 -0.0064642956 0.034652885 -0.021481162 -0.13240178 -0.100614324
-0.05593678 0.039025906 0.10327135 0.20501322 0.097089626 0.27944493 0.041289125 0.08827301
0.10464503 0.15678932 -0.027060146 -0.015790591 0.09889598 -0.034861974 -0.1401492 -0.06863483
00000000: 5ded 613d e484 f53c 2efa 403d f3af 043d
00000010: 24f1 84be 9be2 d1bd b401 073d ee7a a13d
00000020: 34e0 2a3d 7c0c 2ebe 5770 65bd 5279 563d
00000030: 6dfb a53d 52e5 133d e8bb e8bd 8199 c1bc
00000040: 9902 ab3d 8b63 26be 93fb 213d 0e72 5cbe
00000050: 58a5 9e3c 38a5 72bd 5f36 20bd dc3f 2cbe
00000060: a23e 13bd 65e4 713e 495e 133d 8e8e c73d
00000070: 2d3e 823e 9828 423e 2fac 553e 7f89 b9bb
00000080: e5f5 833d 4572 183e bcd6 24be d684 06be
00000090: e716 c6bd 3c4f 02be 998f dbbc 3953 e1bd
000000a0: 080f 1b3e c83a a53d c86d 643d 9b63 06bc
000000b0: 136a 3cbe e245 67bd 4508 bb3d 2645 4bbe
000000c0: d1a1 41be 111a 9cbe 11ae b5be b54c 02be
000000d0: b0c6 093c a29d 02be cf25 183e a3f3 03be
000000e0: a8f7 923d 68c3 513e 9987 2e3e b99d d7bd
000000f0: fc96 f3bd f11b a8bd d70d 24bd 516b 83bb
00000100: 5192 843e 6f2a 9f3e 0af1 b53e d2af 913d
00000110: 9b02 623e c6b9 edbc e955 c03d dccc 27be
00000120: b2f7 ab3c d882 7cbd 35ba d0bc 97a7 813e
00000130: 97e5 033e e39a 01bd d18e 113c de04 823e
00000140: 8660 053e 5b4f 973d d27b 7d3e ae64 49bd
00000150: 622f df3b 6ff0 94bd 2bf0 09be fae9 a0bd
00000160: fc2d 9c3d 11f8 acbc ce87 5e3e dfa3 d93c
00000170: 7ae1 473d 3a77 4dbd d171 31be 7c33 d7bd
00000180: 8aec 2b3e 62a8 17be 028a b83d 24fb 84be
00000190: 764a 68bd d9af 09be 49f8 1abe 8543 023d
000001a0: 3754 7c3c 806d 873d de64 80bc 5166 89be
000001b0: 4683 2ebd a592 b3bd 85c4 aabd 0dec c1bd
000001c0: a235 d5ba 9b03 583d c839 d3bd 0c28 e33d
000001d0: 5318 473d 3e45 abbd 2b7a 813d 5728 3e3d
000001e0: 9661 ad3d 82cb 0d3e 6a81 22bd 3a7e 243e
000001f0: 7bbc 62bd 85ef 19be 4db9 e63c 468d 81bd
00000200: 9577 a53d 4cfe 113d 2839 d63d 31bc 9f3d
00000210: ae18 66bd 4278 7abd a7f5 6cbe 5f4f e0bd
00000220: 98a6 943d a6b1 c23a e613 e83d b13a 5abe
00000230: 475c e8bd 6c60 debd c22a 013e 5993 c53b
00000240: 1e7c ef3c 7eea 66be ec2e 0cbe 457d 75be
00000250: 15ce 7bbe f9af 89be 66eb e6bd 0362 1bbe
00000260: 0dd9 37bd 4280 c1bd 4ccf 0cbe 8cde d13d
00000270: dbf9 d73c b00d 0d3e f710 03be f879 4e3c
00000280: f857 a6bd d7f5 b73d 9d30 463c dbd9 173d
00000290: a06d 873d 319e 1c3e 44cd e7bc 8b15 393e
000002a0: ff1d f3bd 1ae7 eb3d bc39 bb3d a783 243e
000002b0: db02 e13d fa33 463e 2681 6ebc 41b2 29bd
000002c0: f117 243d 14bc 6abe 3525 4ebd 6346 863e
000002d0: 86a2 9bbd d43a 063e f180 e43c acb3 673d
000002e0: 0129 d83d d58c 9c3c 56cb 3a3d b985 b4bd
000002f0: c876 28bd 9ad2 f9bd e4dc 903c c525 983d
00000300: 7eb7 02be a5ed e5bc 353f 763c c555 8ebe
00000310: a2c2 323a 63b3 b63c 6a28 c1bd d86c 7e3d
00000320: 2852 f2bd 60c7 c63d 2656 413e f8e9 b6bd
00000330: 558b 51bd 4bb0 24be 5c4e 9cbc bf16 833d
00000340: 200e 4d3e 2b2b c43d 5b04 083d 63dd ab3c
00000350: 1424 e23d 9c90 093e 0ccc aebd 8fdf a6bc
00000360: 65a9 e4bd 4605 0a3e 26d4 0d3e 88c3 3abd
00000370: ef41 9b3d c63d a03d cfa3 f13d a188 29be
00000380: 19a6 42bd a55b 103d 5e73 cebd 139f d1bc
00000390: e6a2 3a3e c06f 183e 47ad 4a3d 14b7 e7bd
000003a0: 7aaf a5be c0d9 b4bd 1f97 8fbe 71d2 d3bb
000003b0: 2ff0 0d3d 43f9 afbc 5594 07be e20e cebd
000003c0: f71d 65bd a1d9 1f3d ee7f d33d fcee 513e
000003d0: edd6 c63d 6813 8f3e c91e 293d 7bc8 b43d
000003e0: 2250 d63d 618d 203e 3dad ddbc 455b 81bc
000003f0: fa89 ca3d 6ecb 0ebd 4683 0fbe 6b90 8cbd

encoder.rnn.weight_hh_l0 f4 [128, 32]
-0.05496704 -0.026174048 -0.059908234 0.19678724 0.062111747 -0.005037723 0.27041253 -0.2994023
0.15150394 0.13057552 0.031259906 0.14630842 -0.3315637 -0.3286628 -0.2708377 -0.33499327
-0.02459277 -0.12302827 0.18656647 -0.046494063 -0.13121533 0.2757046 0.06449286 0.11632793
-0.14084147 -0.16222358 0.083189875 -0.6015902 0.29440904 0.042570498 0.15520543 0.38993934
-0.06984298 0.2705476 -0.017321508 0.3273701 -0.17421858 -0.047155764 0.14415261 -0.09546831
-0.15165295 0.081718035 -0.15199189 0.28293777 0.14220591 -0.055696156 -0.14344634 0.10176892
-0.053275112 0.17427525 0.10319824 -0.2954248 0.0149166845 -0.091967754 -0.13101959 0.049441945
0.16280164 -0.16573808 -0.041853845 -0.031806376 0.052226014 -0.12563606 0.030041445 0.029910516
0.1072269 -0.033498317 -0.045379832 0.05777037 0.18958795 -0.22906245 -0.009410002 -0.06750077
-0.11670838 -0.029245555 -0.16828775 0.22416495 -0.10881974 0.06576762 -0.037466966 -0.1262364
0.05754808 -0.13305235 0.13385701 -0.0014433799 -0.19112715 0.09526321 0.12808093 -0.086699486
0.032349087 0.06275937 -0.03000859 -0.27966875 0.2483279 -0.1141474 0.2774813 0.16749446
0.19689061 0.05301139 0.18501483 -0.048710052 0.014416765 -0.082776375 0.32778665 -0.20589617
0.22750299 -0.11780513 0.19198821 -0.14328355 -0.11091716 0.015255782 -0.004559705 -0.13203481
-0.14354639 -0.079517014 0.117453724 -0.07884493 0.12113579 0.01722821 0.025215922 0.11235035
-0.0919546 -0.1425546 0.06175334 0.010920731 0.227924 -0.13946769 0.18618816 0.24425581
-0.221947 0.0068661557 -0.022129346 0.11629758 -0.0044466155 0.31930032 0.037366476 0.28177458
-0.24820508 -0.026755532 -0.18375053 0.2270806 0.046585348 0.38939226 -0.04721176 0.20706224
0.04442227 0.33866265 -0.2291121 0.16626349 -0.025602525 0.13249116 -0.044258244 0.049555372
0.0880939 0.19382836 -0.03424916 0.14649583 -0.10536654 -0.093767256 -0.11890236 0.009542648
0.074104734 0.10760809 0.07271908 0.18344474 0.36339778 0.014143112 0.33865806 -0.106868766
0.15857446 0.14116532 0.22662729 -0.11545304 -0.20662944 -0.27135405 -0.34504798 -0.1743512
-0.22925027 -0.28934267 0.045568667 -0.34184894 -0.14119682 0.3873548 0.11868887 0.28349492
-0.4896256 -0.057004493 0.36034188 -0.64693826 0.5407937 0.10285044 0.011751104 0.2774286
-0.030627917 0.12615868 -0.1006678 0.02090657 -0.25528353 0.36666274 -0.20458008 0.17783688
0.008283757 0.030250518 -0.05679556 0.08506218 0.38662022 0.05867372 0.20427372 0.213278
0.028517678 0.07179904 -0.19488977 0.461602 -0.05634073 -0.0021167418 -0.2990162 -0.26455832
0.13369179 0.02513133 -0.036903 0.111938305 -0.1294826 -0.07760856 0.16042832 -0.13897131
-0.15056749 0.03825171 -0.267779 0.2614935 -0.22777662 0.2837113 -0.0959232 0.35074636
-0.35678953 0.19568872 -0.23727122 0.28358847 0.29651695 0.40233594 0.24813074 0.29356855
-0.062068857 0.36977515 -0.41102922 0.5802589 -0.37898293 0.12966457 -0.5507429 -0.1982013
0.45774475 0.18240876 0.2670706 -0.18151008 0.07430505 -0.14919464 0.06502467 0.127753
00000000: 1e25 61bd f56a d6bc 5662 75bd 9882 493e
00000010: e368 7e3d 7c13 a5bb 8373 8a3e 424b 99be
00000020: d923 1b3e 97b5 053e 630a 003d e0d1 153e
00000030: b8c2 a9be 7e46 a8be 3dab 8abe 3d84 abbe
00000040: c776 c9bc 3ff6 fbbd 480b 3f3e 8f70 3ebd
00000050: 505d 06be 2729 8d3e d514 843d 563d ee3d
00000060: bf38 10be f01d 26be 745f aa3d d101 1abf
00000070: c8bc 963e 675e 2e3d 2cee 1e3e 21a6 c73e
00000080: d609 8fbd 3785 8a3e d6e5 8dbc 0e9d a73e
00000090: 5b66 32be 6726 41bd be9c 133e e484 c3bd
000000a0: e94a 1bbe c95b a73d c3a3 1bbe 38dd 903e
000000b0: 6d9e 113e a721 64bd 99e3 12be 396c d03d
000000c0: 0137 5abd 3675 323e 9959 d33d eb41 97be
000000d0: 1c65 743c 9759 bcbd 002a 06be a383 4a3d
000000e0: 79b5 263e 3eb7 29be f06e 2bbd 6747 02bd
000000f0: f2ea 553d bda6 00be 7a19 f63c e606 f53c
00000100: c799 db3d 8835 09bd 34e0 39bd a0a0 6c3d
00000110: 5823 423e 598f 6abe 692c 1abc d83d 8abd
00000120: ce04 efbd 6094 efbc a053 2cbe 7f8b 653e
00000130: e2dc debd 2db1 863d f676 19bd 1d44 01be
00000140: 89b7 6b3d e03e 08be d011 093e cb2f bdba
00000150: d6b6 43be 5c19 c33d a627 033e 808f b1bd
00000160: 7a80 043d fc87 803d 93d4 f5bc be30 8fbe
00000170: ab49 7e3e 1dc6 e9bd 0712 8e3e ab83 2b3e
00000180: b19d 493e 7922 593d 8774 3d3e 3184 47bd
00000190: 4c34 6c3c a986 a9bd a7d3 a73e 72d6 52be
000001a0: 8bf6 683e d143 f1bd 8f98 443e ecb8 12be
000001b0: 8928 e3bd 63f3 793c 9469 95bb 2234 07be
000001c0: d3fd 12be d1d9 a2bd 948b f03d 7379 a1bd
000001d0: 0b16 f83d 2d22 8d3c 9f91 ce3c f117 e63d
000001e0: b152 bcbd d5f9 11be 12f1 7c3d deec 323c
000001f0: e964 693e 9ed0 0ebe 1ca8 3e3e 321e 7a3e
00000200: 1346 63be 7dfd e03b 9a48 b5bc 6d2d ee3d
00000210: eab4 91bb 557b a33e 970d 193d c244 903e
00000220: 7929 7ebe 6b2e dbbc 1929 3cbe d187 683e
00000230: 47d0 3e3d 6c5e c73e 1e61 41bd 2008 543e
00000240: 20f4 353d 3165 ad3e 5d9c 6abe fa40 2a3e
00000250: 63bc d1bc c3ab 073e 2248 35bd 93fa 4a3d
00000260: 936a b43d f17a 463e d948 0cbd 0103 163e
00000270: 6aca d7bd 0c09 c0bd 1583 f3bd c458 1c3c
00000280: 39c4 973d a161 dc3d beed 943d f0d8 3b3e
00000290: 460f ba3e 83b8 673c 9764 ad3e 03de dabd
000002a0: 5861 223e a48d 103e fc10 683e a572 ecbd
000002b0: ab96 53be ebee 8abe 21aa b0be 1f89 32be
000002c0: 95c0 6abe b924 94be 36a6 3a3d d306 afbe
000002d0: e695 10be 5e53 c63e 2613 f33d 3f26 913e
000002e0: 35b0 fabe 8b7d 69bd bb7e b83e bf9d 25bf
000002f0: 7571 0a3f 40a3 d23d b487 403c 1f0b 8e3e
00000300: 66e7 fabc be2f 013e eb2a cebd 4144 ab3c
00000310: 86b4 82be 38bb bb3e 717d 51be df1a 363e
00000320: 98b8 073c efcf f73c 76a2 68bd 1535 ae3d
00000330: 16f3 c53e db53 703d 212d 513e 8c65 5a3e
00000340: e89d e93c 600b 933d 2f91 47be 1957 ec3e
00000350: 8ac5 66bd 09b9 0abb a718 99be 3074 87be
00000360: 80e6 083e 38e0 cd3c 9a27 17bd e93f e53d
00000370: 1697 04be 3df1 9ebd 5247 243e 7f4e 0ebe
00000380: 5d2e 1abe d3ad 1c3d 541a 89be 7ae2 853e
00000390: 463e 69be 9c42 913e 6273 c4bd 0795 b33e
000003a0: 1ead b6be a062 483e 3af7 72be 8232 913e
000003b0: 12d1 973e fafe cd3e fc15 7e3e 9e4e 963e
000003c0: ea3b 7ebd 2b53 bd3e 6c72 d2be d98b 143f
000003d0: 0d0a c2be cac6 043e 7dfd 0cbf 48f5 4abe
000003e0: 855d ea3e 5dc9 3a3e 7abd 883e c7dd 39be
000003f0: 3f2d 983d 7bc6 18be a72b 853d afd1 023e

encoder.rnn.bias_ih_l0 f4 [128]
0.036978055 0.21990028 0.2986724 0.115357906 0.06555842 0.06274035 -0.0072091236 0.45543242
-0.2165716 -0.06851253 0.24864915 0.17761616 0.29750645 0.026493438 0.37049732 0.6872397
-0.08670754 0.32320285 0.067959 -0.05867816 -0.20368513 -0.14781977 0.35022402 0.40456837
0.23871359 0.12625028 0.049103428 -0.029845774 -0.11043811 -0.22491205 0.07779789 0.2812097
0.038703196 0.017096896 -0.1813327 0.2813997 0.014967714 -0.051112767 0.35387847 0.51155114
0.47776267 0.20998944 0.18061028 0.4467509 -0.01394269 0.21102662 0.357522 0.28717294
0.21072389 0.47631395 0.4672141 -0.18885718 -0.27822188 -0.17642596 0.5457486 0.32730874
0.18392631 -0.03887762 0.33772442 -0.29637337 0.24679935 -0.18880908 0.23079012 0.015897889
-0.16607505 0.03395135 -0.3031598 -0.06591162 -0.27444267 0.40411398 -0.26043272 0.15138802
-0.094160244 0.067842126 -0.29685473 0.4838864 0.113820925 0.2176031 0.36818567 0.091128
-0.1317633 0.1985761 -0.19063509 0.36301917 -0.11140529 0.05166354 -0.49315137 -0.17495807
0.16437404 0.18444303 0.068750404 0.21960203 -0.21513446 -0.036471456 -0.011682515 -0.30658203
-0.14558406 0.10712197 0.06571349 0.18310776 0.11665983 -0.040193643 0.22160639 0.5154643
0.46247622 0.06717845 0.026150435 0.58708334 0.12561959 0.38019952 0.19964258 0.6001269
0.34774488 0.3660125 0.3606889 0.1155027 0.062433865 -0.31313008 0.8128824 0.47805628
0.4487939 0.476207 0.57199574 -0.11772884 0.2569874 -0.102786295 0.26886094 0.09033818
00000000: 4d76 173d 8a2d 613e 97eb 983e c440 ec3d
00000010: 7e43 863d 037e 803d 833a ecbb 702e e93e
00000020: f2c4 5dbe 4c50 8cbd e29d 7e3e 03e1 353e
00000030: c452 983e c408 d93c d3b1 bd3e f1ee 2f3f
00000040: b993 b1bd d87a a53e 172e 8b3d 8358 70bd
00000050: d692 50be 115e 17be 9050 b33e 9623 cf3e
00000060: 5671 743e c147 013e ad20 493d 207f f4bc
00000070: 602d e2bd 584f 66be 8054 9f3d b8fa 8f3e
00000080: 3e87 1e3d ca0e 8c3c 48af 39be 9f13 903e
00000090: 253b 753c 9f5b 51bd 8f2f b53e 04f5 023f
000000a0: 4f9d f43e 7907 573e e7f1 383e 89bc e43e
000000b0: e16f 64bc 5d17 583e 200d b73e 5508 933e
000000c0: 01c8 573e 6cdf f33e b036 ef3e c763 41be
000000d0: 1973 8ebe 02a9 34be 2eb6 0b3f 0395 a73e
000000e0: 2e57 3c3e 243e 1fbd 37ea ac3e 40be 97be
000000f0: f8b8 7c3e 2b57 41be 3f54 6c3e 4a3c 823c
00000100: 940f 2abe 9210 0b3d c337 9bbe acfc 86bd
00000110: c083 8cbe 07e8 ce3e 7057 85be 7605 1b3e
00000120: 16d7 c0bd d0f0 8a3d 58fd 97be f5bf f73e
00000130: f21a e93d 59d3 5e3e d582 bc3e 51a1 ba3d
00000140: f5ec 06be 8857 4b3e d835 43be a6dd b93e
00000150: 7528 e4bd 269d 533d 567e fcbe 3528 33be
00000160: ab51 283e a2de 3c3e 03cd 8c3d 5bdf 603e
00000170: 354c 5cbe 1863 15bd 0568 3fbc 52f8 9cbe
00000180: fd13 15be c362 db3d cb94 863d 9a80 3b3e
00000190: 59eb ee3d 17a2 24bd c9ec 623e 78f5 033f
000001a0: afc9 ec3e db94 893d 7039 d63c 184b 163f
000001b0: 6ca2 003e 83a9 c23e 1b6f 4c3e eba1 193f
000001c0: 9e0b b23e fe65 bb3e 37ac b83e ae8c ec3d
000001d0: a7ba 7f3d 9652 a0be 1019 503f cbc3 f43e
000001e0: 50c8 e53e 67d1 f33e 506e 123f d11b f1bd
000001f0: da93 833e 9f81 d2bd 24a8 893e 3903 b93d

encoder.rnn.bias_hh_l0 f4 [128]
-0.1281592 -0.036459103 0.081044495 -0.13771091 0.20857129 -0.0054120296 0.056336656 0.26721478
-0.14301352 0.10759193 0.3425721 0.07803239 0.37238243 0.31776965 0.5080498 0.53849095
-0.04816575 0.3746774 0.26193607 0.022030693 -0.030474601 -0.10103906 0.26866552 0.47997963
0.28206784 0.09534182 0.07850119 0.16171925 0.13944863 -0.19789834 -0.2142772 0.124935366
-0.1440981 0.14702502 -0.13401514 0.3846973 0.12230313 -0.2636974 0.37084424 0.29410452
0.4565305 0.23345527 0.19499202 0.18341252 -0.023190724 0.39766043 0.41058037 0.302414
0.118088275 0.37888667 0.32697555 -0.15718822 -0.013137582 -0.3697883 0.3120642 0.2573316
0.06966661 -0.34566996 0.2863092 -0.17412134 0.121297285 -0.1830266 0.06016256 -0.0628441
-0.07680688 0.042615134 -0.3205706 0.05686364 -0.32572234 0.2883509 -0.2822076 0.29701912
-0.09136756 0.20047507 -0.25912875 0.3679274 0.07184014 0.28922567 0.28431174 -0.039891988
0.009814892 0.2855673 -0.17757086 0.11353335 -0.11151643 0.1639842 -0.39681947 0.017284693
0.28321743 -0.07132979 0.021781111 -0.057098135 -0.34755227 0.039041247 0.030279117 -0.2737557
0.12213192 0.06236508 -0.18756048 0.23319161 -0.033609144 -0.03733243 0.06664077 0.5561369
0.35780495 0.047279947 0.22405013 0.4089954 -0.11947687 0.22428659 0.052410513 0.469144
0.32021216 0.32470357 0.04345129 0.19946237 -0.08955779 0.021164943 0.61078453 0.35515553
0.6975944 0.36209545 0.5763356 -0.026498133 0.102221124 0.14692742 0.37211478 0.029187925
00000000: 2a3c 03be 2456 15bd a8fa a53d 1704 0dbe
00000010: b693 553e 6557 b1bb 44c1 663d 60d0 883e
00000020: 2372 12be 2859 dc3d 9c65 af3e 72cf 9f3d
00000030: e9a8 be3e b4b2 a23e 8d0f 023f 8bda 093f
00000040: 7349 45bd b7d5 bf3e 7c1c 863e b679 b43c
00000050: dfa5 f9bc 91ed cebd 878e 893e e4bf f53e
00000060: 326b 903e 9242 c33d 3bc5 a03d bb99 253e
00000070: 9fcb 0e3e dda5 4abe 7b6b 5bbe 1dde ff3d
00000080: 748e 13be ba8d 163e 443b 09be 0bf7 c43e
00000090: 107a fa3d 5803 87be 4cdf bd3e de94 963e
000000a0: 5ebe e93e e60e 6f3e fdab 473e 7ed0 3b3e
000000b0: 79fa bdbc 269a cb3e 9737 d23e 02d6 9a3e
000000c0: 44d8 f13d 6ffd c13e 5769 a73e f3f5 20be
000000d0: 033f 57bc e454 bdbe e1c6 9f3e f8c0 833e
000000e0: 5ead 8e3d a7fb b0be 1f97 923e dd4c 32be
000000f0: b66a f83d 536b 3bbe 046d 763d 68b4 80bd
00000100: ed4c 9dbd 358d 2e3d d421 a4be d9e9 683d
00000110: 14c5 a6be bba2 933e 847d 90be e412 983e
00000120: ea1e bbbd 5649 4d3e 86ac 84be fb60 bc3e
00000130: ec20 933d 6315 943e 4f91 913e c865 23bd
00000140: a4ce 203c e135 923e 23d5 35be 2c84 e83d
00000150: ba62 e4bd 79eb 273e ec2b cbbe a198 8d3c
00000160: e001 913e 5a15 92bd 4d6e b23c bcdf 69bd
00000170: 5ff2 b1be b7e9 1f3d e90b f83c b529 8cbe
00000180: 4d20 fa3d 8772 7f3d db0f 40be c8c9 6e3e
00000190: bea9 09bd e4e9 18bd f57a 883d fd5e 0e3f
000001a0: 3632 b73e 9ea8 413d 666d 653e d867 d13e
000001b0: 4ab0 f4bd 62ab 653e 68ac 563d a433 f03e
000001c0: d9f2 a33e 8c3f a63e fbf9 313d dd3f 4c3e
000001d0: 136a b7bd 1a62 ad3c 605c 1c3f f2d6 b53e
000001e0: 8c95 323f 9364 b93e bb8a 133f 9d12 d9bc
000001f0: 4f59 d13d 2474 163e d485 be3e 841b ef3c

decoder.rnn.weight_ih_l0 f4 [256, 32]
0.15876423 0.6273575 -0.0052092597 2.1816244 -0.011850274 -0.007941847 0.09232021 -0.0710914
-0.4071363 2.476736 0.45935008 0.36101377 1.2430301 0.078440845 0.09517563 -0.22998612
-0.5381309 -0.12786354 0.116246104 -0.018750824 -0.23282416 -0.037060507 -0.058381185 0.36363655
-0.43821186 -0.12869811 0.20164376 -0.2196475 -0.09995756 0.79374474 -1.089672 0.68301016
-0.3659057 0.045142688 -0.47094864 -0.31173941 -0.49900642 0.44815254 -0.23279108 0.028943423
0.90207106 -0.1494455 0.019943135 0.1735439 0.32253867 -0.16852577 -0.14365235 -0.12064824
0.07574483 0.21309148 -0.31861398 0.27860418 -0.6009754 -0.1393113 -0.31538537 0.5456718
-0.60290235 -1.0074817 -0.2058932 -0.529396 0.30378515 0.19434011 0.4815835 0.46977857
-1.0639222 -0.6402304 -0.83251745 -0.26222917 -0.5779071 1.1225429 -0.574768 0.16046692
-0.010071807 -0.21096212 -0.2984191 0.484052 0.2549498 0.011019806 0.34407932 0.0032284358
0.3986102 1.2617903 -0.4355693 0.7891468 -0.6267244 -0.5672558 -0.57983506 0.21288542
-0.29903394 -0.7607293 -0.2034473 -0.8059058 0.2135306 0.0061123483 0.2604167 0.26010403
-0.24240951 0.39817542 -0.42953905 1.381472 -0.21675129 0.28020984 -0.12623419 -0.045391236
-0.07594339 2.5113685 0.07169872 0.5013615 0.937826 -0.097302824 -0.02161991 -0.25626692
-0.14837609 0.24353908 -0.109533526 0.4323163 -0.26380232 -0.013897328 -0.27266917 0.65646166
-0.4110187 -0.5747734 0.16525406 -0.38871458 0.012390531 0.60991836 -0.91573936 0.40435788
-0.8834052 -0.24470504 -0.883728 0.05528793 -0.8355135 0.73341423 -0.587702 0.4121946
-0.48607454 -0.110369 -0.22250125 0.5861549 0.29939118 0.29542887 0.6181966 0.23404448
0.29090577 0.78564066 -0.73912424 1.8282074 -0.124864765 -0.46949747 -0.68782514 -0.21687368
-0.25946316 -0.829481 -0.2695094 -0.7897753 0.042025086 -0.08272104 0.07917686 0.013481198
-0.5964315 -0.25539675 -0.55803484 -0.05207787 -0.34712216 0.6393337 -0.06492565 -0.10530224
0.18166335 -0.4961255 0.048047863 0.27957273 0.119942516 -0.2995332 -0.1657341 -0.15052477
0.051267184 0.35141313 -0.39850757 0.40207824 -0.43596104 -0.44070473 -0.24427491 0.6300674
-0.61482376 -1.2668189 -0.04942616 -0.82795864 0.3624408 0.09433947 0.43384174 0.25872058
-1.1262417 -0.21012427 -1.166631 0.07647161 -0.97932136 1.3302212 -0.5857771 0.3829879
-0.083043896 0.11943889 -0.46859288 0.62081736 0.3346985 0.28834987 0.28955615 0.3217797
0.23547065 0.91454375 -0.7806514 0.9440631 -0.21958718 -0.17809485 -0.6955596 0.16235757
-0.28624335 -0.6577072 0.09714256 -0.6624079 0.16642028 -0.25059992 0.03505754 0.04006566
-0.8952418 -0.1614498 -0.794852 0.24350928 -0.9635661 0.8524424 -0.6941255 0.79673177
-0.51952755 0.15865684 -0.4328018 0.85432744 0.44337165 0.3840535 0.8155049 0.2678397
0.50900763 0.9146964 -0.9800547 1.0809397 0.0025852802 0.00040926877 -1.0204631 -0.37110925
-0.025405154 -0.24164023 -0.20729958 -0.4521723 0.14374216 -0.11294998 -0.022014124 -0.02268141
00000000: 1793 223e 809a 203f 70b2 aabb bc9f 0b40
00000010: a727 42bc 851e 02bc 6112 bd3d 5e98 91bd
00000020: 2b74 d0be d882 1e40 ef2f eb3e ccd6 b83e
00000030: 9c1b 9f3f 98a5 a03d 71eb c23d 7b81 6bbe
00000040: f2c2 09bf a9ee 02be 7012 ee3d 549b 99bc
00000050: 7569 6ebe c2cc 17bd 1c21 6fbd 922e ba3e
00000060: 4e5d e0be 70c9 03be b47b 4e3e 46eb 60be
00000070: 8db6 ccbd db32 4b3f 5f7a 8bbf c1d9 2e3f
00000080: fe57 bbbe 8ae7 383d 2e20 f1be 4f9c 9fbe
00000090: c57d ffbe 4074 e53e c960 6ebe c21a ed3c
000000a0: 21ee 663f 3e08 19be c95f a33c 7eb5 313e
000000b0: ca23 a53e 0592 2cbe 9a19 13be 6d16 f7bd
000000c0: 1b20 9b3d a734 5a3e 5f21 a3be 35a5 8e3e
000000d0: 86d9 19bf 9fa7 0ebe 317a a1be 26b1 0b3f
000000e0: cf57 1abf 29f5 80bf abd5 52be 7f86 07bf
000000f0: ba89 9b3e 1801 473e 1d92 f63e d186 f03e
00000100: 9a2e 88bf 24e6 23bf dd1f 55bf e742 86be
00000110: b8f1 13bf 7caf 8f3f ff23 13bf 7151 243e
00000120: 3804 25bc 7406 58be 63ca 98be aad5 f73e
00000130: c888 823e 6b8c 343c 2a2b b03e 2a94 533b
00000140: a316 cc3e 5882 a13f f002 dfbe 8605 4a3f
00000150: 0371 20bf ad37 11bf 1270 14bf a3fe 593e
00000160: fa1a 99be 28bf 42bf 7d54 50be d84f 4ebf
00000170: c4a7 5a3e 184a c83b 5655 853e 5b2c 853e
00000180: 333a 78be a6dd cb3e 8bec dbbe 13d4 b03f
00000190: 0df4 5dbe aa77 8f3e 8943 01be 29ec 39bd
000001a0: 3588 9bbd 43ba 2040 c7d6 923d 3a59 003f
000001b0: 5d15 703f b446 c7bd 3d1c b1bc 6b35 83be
000001c0: e7ef 17be 4f62 793e 1d53 e0bd 9058 dd3e
000001d0: 1911 87be 9eb1 63bc 4b9b 8bbe df0d 283f
000001e0: 0b71 d2be 5924 13bf 5c38 293e 9905 c7be
000001f0: a701 4b3c 9c23 1c3f e56d 6abf ff07 cf3e
00000200: d826 62bf f593 7abe 003c 62bf 9975 623d
00000210: 36e4 55bf 09c1 3b3f a373 16bf 2c0b d33e
00000220: c3de f8be 2409 e2bd 5ed7 63be 3f0e 163f
00000230: cd49 993e 7442 973e 2242 1e3f 5ba9 6f3e
00000240: 9af1 943e bf1f 493f 3f37 3dbf b302 ea3f
00000250: 19b9 ffbd f961 f0be 4f15 30bf 2214 5ebe
00000260: 5bd8 84be de58 54bf 23fd 89be b72e 4abf
00000270: 7f22 2c3d a669 a9bd 7a27 a23d 3ee0 5c3c
00000280: bcaf 18bf 5dc3 82be 5fdb 0ebf 9b4f 55bd
00000290: ffb9 b1be 60ab 233f bdf7 84bd b3a8 d7bd
000002a0: f505 3a3e 2904 febe d6cd 443d 2824 8f3e
000002b0: 6ca4 f53d 6a5c 99be 33b6 29be 2a23 1abe
000002c0: 8afd 513d 6cec b33e 2f09 ccbe 33dd cd3e
000002d0: 4936 dfbe 0da4 e1be 3423 7abe 194c 213f
000002e0: 1765 1dbf 1f27 a2bf 1673 4abd 19f5 53bf
000002f0: d791 b93e 0d35 c13d 8120 de3e 0677 843e
00000300: b028 90bf d12a 57be 2a54 95bf 269d 9c3d
00000310: ceb4 7abf b044 aa3f 7df5 15bf fd16 c43e
00000320: eb12 aabd 609c f43d 68eb efbe e3ed 1e3f
00000330: 9a5d ab3e 98a2 933e b440 943e 4fc0 a43e
00000340: 381f 713e 8a1f 6a3f c5d8 47bf 1fae 713f
00000350: 76db 60be 7f5e 36be 3210 32bf 1041 263e
00000360: 7d8e 92be 805f 28bf aef2 c63d 9093 29bf
00000370: 146a 2a3e a24e 80be 7f98 0f3d e41b 243d
00000380: 912e 65bf 1953 25be 6c7b 4bbf 7f5a 793e
00000390: 45ac 76bf aa39 5a3f 35b2 31bf 9df6 4b3f
000003a0: c2ff 04bf f076 223e 3398 ddbe 34b5 5a3f
000003b0: 9c01 e33e a9a2 c43e eec4 503f 4922 893e
000003c0: 534e 023f 8b29 6a3f dde4 7abf 3b5c 8a3f
000003d0: ce6d 293b 2093 d639 899e 82bf 0802 bebe
000003e0: 781e d0bc 8970 77be 5746 54be 2183 e7be
000003f0: 2531 133e 5252 e7bd f756 b4bc 5dce b9bc

decoder.rnn.weight_hh_l0 f4 [256, 64]
-0.19411229 0.032059647 0.24405433 -0.26992694 -0.13336353 0.073212005 -0.205817 0.51833874
-0.33793715 -0.1577733 -0.028254127 -0.24741842 0.07596008 0.035757825 -0.042950805 -0.15675694
0.5272908 0.37860134 0.1302332 0.22424747 -0.1312625 -0.40230677 -0.24400675 0.24928454
-0.13375427 -0.17393246 0.07891504 0.057577964 -0.03070328 -0.011558254 0.14510114 0.0008930588
0.034222715 -0.035189167 -0.294928 -0.18221222 -0.037689015 -0.034011327 -0.078396164 -0.39354143
0.35527807 0.023763318 -0.11673327 0.17811675 -0.27490944 -0.16064341 0.3563988 -0.16281198
0.12631096 -0.03718235 0.11172838 -0.17571293 -0.044616424 -0.4009396 0.2206374 -0.08949771
0.50930417 0.030770142 0.35983345 0.061602715 -0.0075459476 0.07657275 -0.10232678 -0.05521156
0.04258709 -0.09541839 0.03780953 0.29628646 0.10441361 0.19083682 0.13680556 -0.01565725
-0.038441535 -0.0024103576 0.17080188 0.15006909 -0.074124254 -0.38698348 -0.07839555 -0.110767625
0.034942403 -0.14288509 -0.011432666 -0.12821236 0.23303026 0.19869602 0.17487918 -0.003662481
0.17258132 0.29787838 0.027481748 0.22313207 -0.0054221395 0.054943703 -0.18995775 0.028763337
-0.19558223 0.47653142 0.1383548 -0.0719328 -0.079957366 0.019494237 -0.052094392 -0.13704206
-0.076391906 -0.12897506 -0.0923908 -0.20721933 0.19677296 0.3182421 -0.06709551 0.123481564
-0.2273296 -0.07940477 0.25478297 0.23349725 -0.052241463 -0.029488312 -0.035541363 -0.2654243
-0.10078866 0.16289541 -0.10950882 0.072554626 -0.06883362 0.022020044 -0.16501768 0.120976225
0.19694714 0.30845857 -0.08203223 0.18452294 -0.18990797 -0.077995546 0.10778382 0.036356337
-0.031116284 0.15779653 -0.30475667 -0.03884642 0.18656205 0.37408602 -0.20709285 -0.0031017289
0.09482766 -0.093256004 0.13820256 -0.06640943 -0.13255826 0.040561415 -0.065388806 0.034284193
0.06625876 -0.008265274 0.31264225 0.05448819 -0.20271952 -0.15956637 0.27075046 0.14971502
-0.2213901 0.031336747 -0.037424363 -0.32539997 0.1250835 0.11915359 0.112218566 -0.13806142
0.07694686 -0.23249473 -0.105578296 0.2720555 -0.38198704 -0.26896116 0.025868433 -0.17794047
0.37268987 -0.008578638 0.20147802 0.048397806 -0.13861744 -0.08607155 -0.17311011 -0.09979326
0.1290198 -0.16403902 0.06575305 -0.15570587 -0.09355691 0.13511738 -0.18895502 -0.063655324
0.21989703 -0.253362 -0.096040115 0.025932621 0.14701118 0.19916596 0.11807433 0.039605096
-0.11723463 -0.22566618 0.22954336 0.06056243 -0.049457725 -0.23729604 -0.33461976 -0.096505456
0.06918035 0.047779348 -0.31241015 0.0024930798 0.20479614 -0.0026998343 -0.057657592 0.20696099
-0.5657487 0.096222214 -0.01770135 -0.0887539 -0.30170634 0.4373204 0.033912208 0.22565562
-0.3422777 0.24701734 0.034105863 0.23113433 -0.18365666 0.33475882 -0.02752505 -0.010174224
0.17273767 0.3345282 0.20591721 -0.12422512 0.19629651 0.13371389 -0.21645139 -0.057431668
-0.27332592 -0.291161 0.049302775 -0.19368462 0.11832209 -0.22060403 -0.0014937543 -0.29316023
0.01940116 0.23968977 0.1217429 0.2723625 -0.08911169 0.30078402 0.13902697 -0.36462116
00000000: 5fc5 46be fa50 033d 61e9 793e dd33 8abe
00000010: 7390 08be 2df0 953d b1c1 52be d9b1 043f
00000020: 1906 adbe 538f 21be 3375 e7bc 415b 7dbe
00000030: f590 9b3d cc76 123d 2fed 2fbd e484 20be
00000040: 88fc 063f 09d8 c13e da5b 053e 21a1 653e
00000050: ad69 06be 27fb cdbe e8dc 79be 7244 7f3e
00000060: e1f6 08be 5a1b 32be 359e a13d dfd6 6b3d
00000070: 7285 fbbc d55e 3dbc 6595 143e 291c 6a3a
00000080: 1e2d 0c3d 8422 10bd ce00 97be d795 3abe
00000090: cc5f 1abd 764f 0bbd 2b8e a0bd 437e c9be
000000a0: 02e7 b53e 4aab c23c da11 efbd 3d64 363e
000000b0: eec0 8cbe b57f 24be e779 b63e 2fb8 26be
000000c0: a957 013e 854c 18bd d9d1 e43d 17ee 33be
000000d0: b6bf 36bd f547 cdbe c5ee 613e 934a b7bd
000000e0: c261 023f aa11 fc3c 173c b83e 2153 7c3d
000000f0: ff43 f7bb 2dd2 9c3d b490 d1bd 8425 62bd
00000100: cd6f 2e3d b86a c3bd 2ade 1a3d dcb2 973e
00000110: ced6 d53d ba6a 433e c216 0c3e a243 80bc
00000120: df74 1dbd 17f7 1dbb b0e6 2e3e b6ab 193e
00000130: 75ce 97bd b322 c6be d98d a0bd 23da e2bd
00000140: c41f 0f3d 7850 12be 1450 3bbc 1a4a 03be
00000150: 7c9f 6e3e f876 4b3e 8713 333e 3c06 70bb
00000160: 28b9 303e 8483 983e 6721 e13c bc7c 643e
00000170: 34ac b1bb a60c 613d 4984 42be 17a1 eb3c
00000180: b546 48be edfb f33e e1ac 0d3e 8151 93bd
00000190: b0c0 a3bd 61b2 9f3c ee60 55bd c154 0cbe
000001a0: 5c73 9cbd 0a12 04be 6337 bdbd 4e31 54be
000001b0: da7e 493e a1f0 a23e 5f69 89bd e7e3 fc3d
000001c0: 17c9 68be f89e a2bd ea72 823e e719 6f3e
000001d0: 25fb 55bd 7991 f1bc d293 11bd b2e5 87be
000001e0: 496a cebd 0ece 263e 2946 e0bd 8597 943d
000001f0: a4f8 8cbd 6163 b43c 65fa 28be 62c2 f73d
00000200: 83ac 493e 48ee 9d3e 8400 a8bd 95f3 3c3e
00000210: 3c77 42be 21bc 9fbd c3bd dc3d 62ea 143d
00000220: 94e7 febc 6a95 213e 1109 9cbe 6c1d 1fbd
00000230: 1f0a 3f3e 3488 bf3e 2610 54be 6046 4bbb
00000240: 0135 c23d 01fd bebd f984 0d3e ab01 88bd
00000250: 5abd 07be ba23 263d 91ea 85bd 956d 0c3d
00000260: acb2 873d 126b 07bc a512 a03e 022f 5f3d
00000270: b595 4fbe 5e65 23be ce9f 8a3e e54e 193e
00000280: 16b4 62be f65a 003d 4a4a 19bd d39a a6be
00000290: e415 003e cc06 f43d d9d2 e53d f95f 0dbe
000002a0: 5196 9d3d 1913 6ebe 6f39 d8bd dc4a 8b3e
000002b0: ce93 c3be 47b5 89be 09ea d33c 0736 36be
000002c0: 35d1 be3e 6a8d 0cbc 4150 4e3e c73c 463d
000002d0: bbf1 0dbe 4846 b0bd c743 31be 6960 ccbd
000002e0: c41d 043e d8f9 27be 89a9 863d 5c71 1fbe
000002f0: c49a bfbd 365c 0a3e 6d7d 41be b95d 82bd
00000300: b02c 613e aab8 81be aeb0 c4bd a670 d43c
00000310: 198a 163e 29f2 4b3e f4d0 f13d f438 223d
00000320: b618 f0bd 0915 67be 6a0d 6b3e 5010 783d
00000330: 2f94 4abd bcfd 72be 4853 abbe a7a4 c5bd
00000340: 6dae 8d3d 47b4 433d 39f4 9fbe f062 233b
00000350: 14b6 513e b4ef 30bb 5e2a 6cbd 95ed 533e
00000360: e8d4 10bf 2710 c53d 6c02 91bc 9bc4 b5bd
00000370: 4179 9abe 76e8 df3e 87e7 0a3d 4412 673e
00000380: 063f afbe 1df2 7c3e 97b2 0b3d 7aae 6c3e
00000390: 7e10 3cbe 8265 ab3e 377c e1bc cab1 26bc
000003a0: 25e2 303e 4847 ab3e f6db 523e bd69 febd
000003b0: f401 493e 4bec 083e 6fa5 5dbe 783d 6bbd
000003c0: 60f1 8bbe 0e13 95be b5f1 493d 4355 46be
000003d0: da52 f23d 06e6 61be 14ca c3ba 1919 96be
000003e0: 2eef 9e3c 3c71 753e 5754 f93d 1973 8b3e
000003f0: 3180 b6bd 5d00 9a3e 165d 0e3e a0af babe

decoder.rnn.bias_ih_l0 f4 [256]
0.013988377 0.23461257 0.3917971 0.26791272 0.5543587 0.22759718 0.6913999 1.0254371
0.7240841 0.47502634 0.32986474 0.6165856 0.41004014 0.81201416 0.19050927 0.4370607
0.8141931 0.8914869 0.13155323 0.60466343 0.2978632 0.97360665 0.75519717 0.5856693
0.60477644 0.5103673 0.18363315 0.33968168 0.183602 0.0073593664 0.2890567 0.14159516
0.044466164 0.25597626 0.8290558 0.056331396 0.31056082 -0.028755993 0.3801559 0.5539753
0.8338838 0.16162245 0.6580227 0.27110952 0.20280926 0.56590056 0.13754778 0.42744547
0.148713 0.17543197 0.5461914 0.7108327 0.34787345 0.9501899 0.7099588 0.6118129
0.93444574 0.9636385 0.80714303 0.6929063 0.6180673 0.099356085 0.19250831 0.16210835
0.18410638 0.4817099 0.1286499 0.25093746 0.11104829 0.12955758 -0.024102537 0.17408171
0.020957764 0.05326784 -0.04245007 0.20010065 -0.14455152 0.08943367 0.10989932 0.09881215
0.38443217 0.3098014 0.11204708 -0.10742508 -0.0729771 0.15072292 0.24439766 0.0054361294
0.28322497 0.054235775 -0.11649684 0.13256764 -0.069866285 0.25145355 0.28843752 0.12987633
0.2571823 0.2965776 -0.08846189 0.24786182 -0.08473943 0.18772645 -0.02050269 0.22664821
0.040969666 0.26136553 0.2570918 0.026306868 0.25740033 0.10136129 0.17437613 0.052759018
0.013839643 0.042721767 0.14985524 0.0008660222 0.011725782 0.27920115 -0.058113642 -0.1420444
0.17926407 0.058274627 0.00520732 0.1410991 -0.07290472 0.043238305 0.0041655647 0.0888944
-0.055149715 0.18227921 0.28778186 0.21493605 -0.43344745 -0.55678135 -0.33376336 0.49710047
-0.504859 0.21113762 -0.46574068 -0.49910247 -0.073574744 0.116521545 -0.13719273 0.19127904
0.68147427 0.5377831 0.16930446 0.30358362 -0.35943788 -0.50816137 -0.5464142 0.06910292
0.2514129 0.30984163 0.5427742 0.2484491 -0.23643605 -0.31690142 0.38713747 0.21480252
-0.012493226 0.20047532 -0.4247936 -0.21746807 0.24975401 0.011943854 0.2616511 -0.29649925
0.41772527 -0.12154203 -0.25689867 0.35236025 -0.046745438 -0.28986457 0.29292792 -0.30740386
0.2222687 -0.13456602 0.15572362 0.0026040457 -0.07841754 -0.5948061 0.44185507 -0.33199036
0.36664927 -0.15920942 0.37587905 -0.3850714 0.13480498 0.20901088 -0.4018272 0.21027341
-0.09951233 0.81370765 0.48617288 0.7766479 0.40440926 0.24828361 0.31125388 0.57682663
0.6980765 0.82324445 0.52218246 0.6118282 0.20081623 0.83032256 0.014514694 0.5164534
0.64112693 0.41008726 0.27806845 0.21642971 0.18405403 0.5577172 0.632993 0.2817273
0.9726019 0.3502458 0.81824344 0.8079537 0.51655453 0.48998523 0.30574638 0.5455589
-0.08861881 0.5795947 0.2659777 0.39694682 0.61968595 -0.10191734 0.9160843 0.28960148
0.38995126 0.679863 1.0652341 0.42041445 0.69405705 0.22203137 0.27844092 0.17855805
0.43549606 0.20376147 0.21642233 0.9023153 0.57118547 0.30854857 0.6948768 0.1614296
0.28413606 1.0313303 0.34212318 0.33546904 0.52938414 0.3984866 0.8650938 0.46783155
00000000: 812f 653c 473e 703e a199 c83e db2b 893e
00000010: 74ea 0d3f 3c0f 693e 95ff 303f 8641 833f
00000020: 935d 393f a736 f33e 08e4 a83e 8ed8 1d3f
00000030: c8f0 d13e 29e0 4f3f dd14 433e 6cc6 df3e
00000040: f66e 503f 7c38 643f e4b5 063e 39cb 1a3f
00000050: 8681 983e 493e 793f 9a54 413f 6cee 153f
00000060: a1d2 1a3f 6ea7 023f 540a 3c3e c2ea ad3e
00000070: 2a02 3c3e d726 f13b 3dff 933e 52fe 103e
00000080: 2722 363d 520f 833e 003d 543f c0bb 663d
00000090: d401 9f3e b091 ebbc cba3 c23e 53d1 0d3f
000000a0: 6979 553f 5b80 253e 2d74 283f dece 8a3e
000000b0: 3bad 4f3e dcde 103f 53d9 0c3e 22da da3e
000000c0: 3848 183e 70a4 333e 33d3 0b3f 22f9 353f
000000d0: 781c b23e a53f 733f dcbf 353f c59f 1c3f
000000e0: d637 6f3f 03b1 763f eda0 4e3f 4f62 313f
000000f0: a939 1e3f 347b cb3d e620 453e bbff 253e
00000100: 6286 3c3e aea2 f63e cdbc 033e e07a 803e
00000110: 496d e33d beaa 043e af72 c5bc 7a42 323e
00000120: 9eaf ab3c 612f 5a3d 20e0 2dbd 2fe7 4c3e
00000130: 5005 14be 0029 b73d e512 e13d 065e ca3d
00000140: 4bd4 c43e 4a9e 9e3e f178 e53d ae01 dcbd
00000150: 0575 95bd 1c57 1a3e 6143 7a3e 8f21 b23b
00000160: dd02 913e 5526 5e3d e595 eebd d0bf 073e
00000170: 0e16 8fbd 85be 803e 15ae 933e 4dfe 043e
00000180: 66ad 833e 05d9 973e 822b b5bd 7dcf 7d3e
00000190: de8b adbd 5d3b 403e 42f5 a7bc 7816 683e
000001a0: cfcf 273d b4d1 853e 89a1 833e 8081 d73c
000001b0: fac9 833e 8296 cf3d a88f 323e d719 583d
000001c0: acbf 623c 05fd 2e3d a773 193e c405 633a
000001d0: 7f1d 403c 74f3 8e3e 9208 6ebd 1674 11be
000001e0: 0091 373e 60b1 6e3d 2ba2 aa3b 487c 103e
000001f0: 124f 95bd a61a 313d 4a7f 883b 440e b63d
00000200: abe4 61bd 67a7 3a3e 2558 933e 3218 5c3e
00000210: d3ec ddbe 3989 0ebf 08e3 aabe f483 fe3e
00000220: 703e 01bf 7634 583e 9075 eebe 5c8a ffbe
00000230: 5bae 96bd d9a2 ee3d 407c 0cbe a7de 433e
00000240: 1975 2e3f 27ac 093f 265e 2d3e 506f 9b3e
00000250: 3e08 b8be dd16 02bf cde1 0bbf d585 8d3d
00000260: 31b9 803e 90a3 9e3e 40f3 0a3f 7169 7e3e
00000270: 4b1c 72be e740 a2be e236 c63e 31f5 5b3e
00000280: 63b0 4cbc 6749 4d3e 8c7e d9be f3af 5ebe
00000290: 84bf 7f3e 28b0 433c 22f7 853e c0ce 97be
000002a0: 16e0 d53e 07eb f8bd 3988 83be 9068 b43e
000002b0: 2578 3fbd 2169 94be a6fa 953e 0a64 9dbe
000002c0: 689a 633e adcb 09be 0376 1f3e a3a8 2a3b
000002d0: 6099 a0bd 3645 18bf d43a e23e a4fa a9be
000002e0: 74b9 bb3e cb07 23be 3873 c03e 1428 c5be
000002f0: 510a 0a3e f306 563e 4bbc cdbe ea51 573e
00000300: 1fcd cbbd 254f 503f a7eb f83e 66d2 463f
00000310: bb0e cf3e 0f3e 7e3e ab5c 9f3e e9aa 133f
00000320: 24b5 323f 26c0 523f c0ad 053f c6a0 1c3f
00000330: c5a2 4d3e 0590 543f 0acf 6d3c 4a36 043f
00000340: e520 243f f5f6 d13e fd5e 8e3e c09f 5d3e
00000350: a978 3c3e 8ec6 0e3f d40b 223f 903e 903e
00000360: 70fc 783f 6b53 b33e 6778 513f 0ed6 4e3f
00000370: eb3c 043f 58df fa3e ca8a 9c3e c0a9 0b3f
00000380: c77d b5bd 5160 143f 3b2e 883e 9d3c cb3e
00000390: bda3 1e3f 0aba d0bd 8084 6a3f a546 943e
000003a0: b1a7 c73e 800b 2e3f 9759 883f 9040 d73e
000003b0: b9ad 313f 315c 633e cf8f 8e3e ecd7 363e
000003c0: 57f9 de3e d9a6 503e d19d 5d3e 23fe 663f
000003d0: 3639 123f 14fa 9d3e 72e3 313f cd4d 253e
000003e0: 487a 913e a202 843f c52a af3e 99c2 ab3e
000003f0: b885 073f 7006 cc3e ca76 5d3f 9e87 ef3e

decoder.rnn.bias_hh_l0 f4 [256]
0.046004552 0.18013294 0.6076049 0.1565991 0.6493836 0.26123995 0.6943638 0.84640086
0.84416974 0.38572663 0.18864065 0.7449768 0.46869183 0.6082398 0.28136125 0.3292098
0.75490016 0.9329262 0.14495777 0.5627114 0.38388368 0.9031259 0.7349157 0.6976127
0.5026737 0.48747128 0.087947994 0.17821962 0.19140007 -0.0043759295 0.28348762 0.15420821
0.116369165 0.1346247 0.9525329 -0.032979872 0.32751837 0.08473361 0.34340537 0.6717102
0.767101 0.23111115 0.7495839 0.34802482 0.0766787 0.61897004 0.28262103 0.39050147
0.3322434 0.12745403 0.5634234 0.81852466 0.46441644 1.0490683 0.8528969 0.42657256
0.7804852 0.93091106 0.64997935 0.58951396 0.57801086 0.07935833 0.20229515 0.09539118
0.31142548 0.4997275 0.15602334 0.23528633 0.09254476 -0.081426054 0.12983452 0.031300627
-0.0390429 0.06939743 -0.08168429 0.25916573 -0.0009884097 0.16207768 0.09671093 -0.07437527
0.18030298 0.21363832 0.108979434 -0.04374144 -0.098038115 0.16765603 0.08264626 -0.035421282
0.24007782 -0.039693408 0.002903599 0.26475263 -0.1326355 0.08024992 0.18240426 0.24219702
0.058363963 0.30542788 0.029558955 0.40714377 -0.096101075 0.10411527 -0.013792275 0.22751214
0.10597414 0.41450638 0.13197595 -0.080431424 0.40366137 0.107821465 0.17713122 0.06327076
0.124485984 0.04655313 0.1941991 -0.05859773 -0.12168568 0.26979938 -0.0117384605 -0.074712195
0.28565016 0.031364262 0.010209291 0.108600155 0.038743425 0.11692106 -0.033544242 0.2116031
-0.03976859 0.20299006 0.3452946 0.27838352 -0.49329296 -0.42875955 -0.3527064 0.45877555
-0.4919162 0.030498713 -0.39608732 -0.5215604 -0.14500813 0.18222615 0.09500691 0.31812733
0.56698895 0.5562111 0.2839412 0.26801085 -0.41916168 -0.56358016 -0.5954614 0.23748064
0.24264532 0.09091536 0.41713655 0.27819026 -0.18262455 -0.19961062 0.25678095 0.08194703
0.0064856526 0.10951732 -0.24804127 -0.27267388 0.24499491 0.16756181 0.051858865 -0.15269618
0.41827667 -0.3348213 -0.25103825 0.18472952 -0.1609767 -0.35849467 0.29342216 -0.26793188
0.3828264 -0.17418769 0.17435841 0.19605973 -0.15176615 -0.4843917 0.49894634 -0.22562991
0.45681813 -0.1971551 0.49928552 -0.20137782 0.29909512 0.27116454 -0.28561798 0.20638368
-0.08361191 0.72484195 0.5878118 0.61888564 0.21168013 0.31034172 0.44347653 0.5822418
0.71978086 0.64192104 0.5527971 0.5452878 0.3763728 0.68898576 -0.085282035 0.4256874
0.5203137 0.5531318 0.26737204 0.199293 0.31434777 0.38221094 0.696445 0.44401363
0.85932446 0.3214521 0.8338113 0.6903397 0.44032937 0.45219088 0.4074238 0.5762307
-0.097806945 0.6962121 0.1980555 0.29741678 0.65505403 -0.15091504 1.1033274 0.440131
0.3232976 0.63322574 1.0115981 0.4398055 0.67854077 0.23678164 0.34425208 0.32994956
0.48101512 0.13521941 0.30447003 0.79524046 0.54564637 0.2761079 0.5928132 0.37723285
0.37898177 1.0200261 0.5282065 0.47666124 0.31802404 0.38053596 0.6576328 0.5764968
00000000: 456f 3c3d c574 383e ff8b 1b3f 845b 203e
00000010: 013e 263f 3ec1 853e d3c1 313f baad 583f
00000020: 821b 583f f67d c53e 042b 413e cdb6 3e3f
00000030: 60f8 ef3e 9bb5 1b3f 950e 903e 308e a83e
00000040: 2341 413f 40d4 6e3f cf6f 143e db0d 103f
00000050: 678c c43e 4233 673f 6f23 3c3f bf96 323f
00000060: 39af 003f d695 f93e 141e b43d 347f 363e
00000070: 61fe 433e f563 8fbb 4a25 913e c2e8 1d3e
00000080: f552 ee3d 0fdb 093e 32d9 733f e715 07bd
00000090: 7db0 a73e d188 ad3d d4d2 af3e 33f5 2b3f
000000a0: bb60 443f 67a8 6c3e bbe4 3f3f 4f30 b23e
000000b0: b909 9d3d d274 1e3f b4b3 903e cfef c73e
000000c0: cf1b aa3e 4f83 023e 843c 103f d58a 513f
000000d0: fec7 ed3e df47 863f 7457 5a3f b867 da3e
000000e0: e1cd 473f 3050 6e3f 0c65 263f 63ea 163f
000000f0: 85f8 133f 9f86 a23d 7626 4f3e 735c c33d
00000100: 2973 9f3e 48dc ff3e 95c4 1f3e e6ee 703e
00000110: 1b88 bd3d b4c2 a6bd 57f3 043e 1635 003d
00000120: 73eb 1fbd 3d20 8e3d 184a a7bd 5fb1 843e
00000130: 878d 81ba b1f7 253e 6110 c63d 1052 98bd
00000140: 58a1 383e 01c4 5a3e 9c30 df3d 392a 33bd
00000150: 35c8 c8bd 06ae 2b3e 7142 a93d e815 11bd
00000160: f6d6 753e 8e95 22bd 4f4a 3e3b a88d 873e
00000170: 9ad1 07be 125a a43d 2fc8 3a3e 7f02 783e
00000180: 0d0f 6f3d 0b61 9c3e 9f25 f23c 2675 d03e
00000190: a4d0 c4bd 633a d53d fff8 61bc f1f8 683e
000001a0: f808 d93d 2e3a d43e b424 073e 3bb9 a4bd
000001b0: b4ac ce3e 80d1 dc3d e361 353e 1a94 813d
000001c0: 82f2 fe3d 7fae 3e3d 21dc 463e 2c04 70bd
000001d0: 5736 f9bd 2523 8a3e ac52 40bc b502 99bd
000001e0: bd40 923e d077 003d df44 273c c269 de3d
000001f0: 6db1 1e3d 4f74 ef3d b065 09bd 7cae 583e
00000200: 64e4 22bd a0dc 4f3e 74ca b03e 4988 8e3e
00000210: e590 fcbe 5f86 dbbe ef95 b4be a1e4 ea3e
00000220: 71dc fbbe 70d8 f93c f5cb cabe fb84 05bf
00000230: 037d 14be 7e99 3a3e fc92 c23d 96e1 a23e
00000240: 3026 113f da63 0e3f be60 913e b838 893e
00000250: 5c9c d6be ca46 10bf 2970 18bf 202e 733e
00000260: 0478 783e d531 ba3d ec92 d53e f46e 8e3e
00000270: ee01 3bbe ba66 4cbe cb78 833e d8d3 a73d
00000280: 9985 d43b 9e4a e03d 88fe 7dbe e99b 8bbe
00000290: f2df 7a3e 5395 2b3e f669 543d 635c 1cbe
000002a0: 5c28 d63e b36d abbe 1688 80be bc29 3d3e
000002b0: 13d7 24be 9d8c b7be 6e3b 963e 5e2e 89be
000002c0: d201 c43e 425e 32be 038b 323e e2c3 483e
000002d0: 9668 1bbe 3002 f8be e575 ff3e 870b 67be
000002e0: 11e4 e93e 07e3 49be 5aa2 ff3e fd35 4ebe
000002f0: ff22 993e 14d6 8a3e 853c 92be 3e56 533e
00000300: b93c abbd 3e8f 393f d67a 163f 4a6f 1e3f
00000310: adc2 583e 1ce5 9e3e 5b0f e33e cc0d 153f
00000320: 8f43 383f f054 243f 1c84 0d3f fb97 0b3f
00000330: f0b3 c03e 5f61 303f 59a8 aebd b3f3 d93e
00000340: 4733 053f 0c9a 0d3f fde4 883e 7713 4c3e
00000350: 31f2 a03e 27b1 c33e 384a 323f c155 e33e
00000360: b0fc 5b3f 5f95 a43e a874 553f 1aba 303f
00000370: da72 e13e 9085 e73e da99 d03e db83 133f
00000380: 024f c8bd f53a 323f 10cf 4a3e 0347 983e
00000390: 9fb1 273f 7989 1abe d539 8d3f da58 e13e
000003a0: 4387 a53e 151b 223f 0c7c 813f 302e e13e
000003b0: d9b4 2d3f e376 723e cf41 b03e 26ef a83e
000003c0: 9d47 f63e f576 0a3e 7fe3 9b3e e194 4b3f
000003d0: 7baf 0b3f 045e 8d3e 9bc2 173f aa24 c13e
000003e0: e609 c23e 3790 823f 8b38 073f f10c f43e
000003f0: 0cd4 a23e 9cd5 c23e a05a 283f 4b95 133f
