detector_dev/Analyze ARED data/models/cnn_lstm_ae_ARED_detector_NO_AV.pt (torch, 129255 bytes, 12 tensors)

encoder.cnn.weight f4 [8, 4, 16]
0	0xbd2e3360	-0.042529464
1	0xbd1effa0	-0.038818
2	0xbd0d570e	-0.03450685
3	0xbd006dbe	-0.03135466
4	0xbcf114d2	-0.029428873
5	0xbcca4aef	-0.024693934
6	0xbcb5462d	-0.022128189
7	0xbca266ed	-0.01982447
8	0xbc8bcaaf	-0.01706442
9	0xbc3be527	-0.011468208
10	0xbc4f2312	-0.012642639
11	0xbc37b230	-0.011211917
12	0xbc07c944	-0.008287732
13	0xbc39872b	-0.01132373
14	0xbba3f71c	-0.005003823
15	0xbb7e9b07	-0.0038849728
16	0x3e6817d5	0.22665341
17	0x3e6e09a6	0.23245868
18	0x3e71a3c7	0.23597632
19	0x3e725f5f	0.23669194
20	0x3e6cf938	0.23141944
21	0x3e65c370	0.22437835
22	0x3e5cd6c4	0.21566302
23	0x3e555795	0.20834191
24	0x3e4a969e	0.19784018
25	0x3e416b59	0.18888606
26	0x3e36def1	0.17858483
27	0x3e2a1977	0.16611277
28	0x3e211a18	0.1573261
29	0x3e1bd96e	0.15219662
30	0x3e1862c7	0.1488143
31	0x3e18e00c	0.14929217
32	0x3d499832	0.04921741
33	0x3d475161	0.048661593
34	0x3d563b94	0.052302912
35	0x3d5bba07	0.053644206
36	0x3d5c5b92	0.053798266
37	0x3d61c967	0.055123713
38	0x3d615d75	0.05502077
39	0x3d51c520	0.051213384
40	0x3d5f9c48	0.0545924
41	0x3d70c636	0.05878278
42	0x3d50aea3	0.050947797
43	0x3d653886	0.055962108
44	0x3d623a36	0.055231296
45	0x3d5466ad	0.05185573
46	0x3d63043e	0.055423968
47	0x3d660af1	0.05616278
48	0x3e417efa	0.18896094
49	0x3e2d5a5b	0.16928999
50	0x3e17d5e1	0.14827682
51	0x3e085d39	0.13316812
52	0x3df36202	0.11883928
53	0x3de692cd	0.11258469
54	0x3dcebef1	0.10095013
55	0x3dc848d4	0.09779516
56	0x3dbf9682	0.09354879
57	0x3dbda97a	0.09260841
58	0x3dbf0a7e	0.09328173
59	0x3dd31660	0.10307002
60	0x3de5106b	0.11184772
61	0x3dfafa47	0.12254768
62	0x3e03536e	0.12824795
63	0x3e0ad62f	0.13558267
64	0xbe0f65c0	-0.14003658
65	0xbe0ce299	-0.13758315
66	0xbe12b30b	-0.14326112
67	0xbe04c8d4	-0.12967235
68	0xbe09c90e	-0.13455603
69	0xbe0d5d1e	-0.13805053
70	0xbe04daf1	-0.12974145
71	0xbe0607c0	-0.13088894
72	0xbdfae336	-0.12250368
73	0xbe06f9af	-0.13181184
74	0xbdfa1e87	-0.12212854
75	0xbe01b3a7	-0.12666188
76	0xbdf89fb8	-0.12139839
77	0xbdfc8cce	-0.12331544
78	0xbdfc18fa	-0.123094514
79	0xbdf92954	-0.12166086
80	0xbba2a3ae	-0.00496336
81	0x3a10d578	0.00055249734
82	0x3c38933f	0.011265575
83	0x3d11cd1a	0.03559599
84	0x3d0b8c5b	0.0340694
85	0x3d2ce618	0.042211622
86	0x3d83bcb3	0.06432476
87	0x3d31d4f3	0.043415975
88	0x3d371d6e	0.0447058
89	0x3d13cbab	0.036082905
90	0x3d1a465c	0.037664756
91	0x3cd97d7a	0.02654909
92	0x3cd361c8	0.025803462
93	0x3c884f2d	0.016639316
94	0x3c6158d4	0.013754088
95	0x3bc884bc	0.006119339
96	0xbd084d70	-0.033276975
97	0xbcf5c35e	-0.030000385
98	0xbce0559d	-0.027384574
99	0xbd116fe2	-0.03550709
100	0xbce7489a	-0.028232861
101	0xbcdb59dc	-0.026776247
102	0xbce3731e	-0.027764853
103	0xbd10498d	-0.035226393
104	0xbcd752db	-0.026284626
105	0xbd10c926	-0.03534808
106	0xbcfc266a	-0.030780036
107	0xbcde14be	-0.0271095
108	0xbd03c5bc	-0.032170996
109	0xbd02cbdd	-0.0319327
110	0xbce79a25	-0.028271744
111	0xbd0a7880	-0.033806324
112	0x3d3212e6	0.043475054
113	0x3d549b4e	0.051905923
114	0x3d3323c1	0.04373527
115	0x3d21ecdd	0.03953253
116	0x3d12acac	0.035809204
117	0x3cba9938	0.022778139
118	0x3ccf1fa5	0.025283644
119	0x3c9be00e	0.019027736
120	0x3c338e93	0.010959285
121	0x39e36170	0.0004336941
122	0xbbfb0f86	-0.0076617626
123	0xbc494761	-0.012285084
124	0xbc815c7f	-0.015791176
125	0xbca62dd6	-0.020285528
126	0xbc9c8593	-0.019106662
127	0xbcd880e4	-0.026428647
128	0xbddaf40e	-0.10691081
129	0xbd615d09	-0.055020366
130	0x3c44820b	0.011993895
131	0xbd5fb221	-0.054613236
132	0xbe04b4ab	-0.12959544
133	0x3c9959de	0.01871961
134	0xbcb05a07	-0.021527303
135	0x3d19ba21	0.037531022
136	0xbd49187c	-0.049095616
137	0x3d217b7d	0.03942441
138	0xbd46ecb2	-0.048565574
139	0xbdf55c71	-0.119805224
140	0xbd2ab007	-0.04167178
141	0xbd1e3bad	-0.03863113
142	0xbe1b394a	-0.15158573
143	0xbdb12a3a	-0.08650632
144	0xbdc49732	-0.09599151
145	0xbdc404be	-0.09571217
146	0xbdb41329	-0.08792717
147	0xbdaa551a	-0.08317013
148	0xbdaba0c9	-0.08380277
149	0xbd814e24	-0.06313732
150	0xbd5c93a8	-0.053851753
151	0xbd5e9dab	-0.054349583
152	0xbd87d117	-0.066316776
153	0xbd631e03	-0.055448543
154	0xbd33b746	-0.043875955
155	0xbd26c06c	-0.04071085
156	0xbc3d5a28	-0.011557139
157	0xbbc86df3	-0.0061166226
158	0xbb961e1b	-0.0045812256
159	0x3c58d215	0.013233681
160	0xbd6f02c8	-0.05835226
161	0x3d66f9ea	0.05639068
162	0x3cd8867e	0.026431318
163	0xbcb9c3a3	-0.022676295
164	0xbcf73717	-0.030177636
165	0xbd8b27b6	-0.06794684
166	0xbe048ab7	-0.1294354
167	0x3cc48be4	0.023992486
168	0xbba5cd3d	-0.0050598667
169	0x3dad38aa	0.084580734
170	0x3d62238d	0.055209685
171	0x3d5ee0ad	0.054413486
172	0xbd18bda5	-0.037290234
173	0x3d693c35	0.056942184
174	0xbd0e4a87	-0.034739044
175	0xbd87b691	-0.06626619
176	0xbc8d1378	-0.017221197
177	0x3d12301d	0.035690416
178	0x3cf6cbd7	0.030126495
179	0x3d42a67e	0.04752206
180	0x3cc6d241	0.024270179
181	0x3d8ddc64	0.06926802
182	0x3d8ab028	0.067718804
183	0x3db3c7e6	0.08778362
184	0x3dc32c8e	0.095299825
185	0x3db98f35	0.09060518
186	0x3e0297a6	0.12753162
187	0x3de47008	0.11154181
188	0x3e18bd1c	0.1491589
189	0x3e0a7e78	0.13524806
190	0x3e10eae2	0.141521
191	0x3e352529	0.17689957
192	0xbcfad4a8	-0.03061898
193	0xbdb04b8d	-0.0860816
194	0x3d81b2ae	0.063329086
195	0xbdcd281a	-0.100174144
196	0xbdce35bf	-0.10068845
197	0xbd243abe	-0.040095083
198	0x3c89cb76	0.01682065
199	0xbcbf5a83	-0.023358589
200	0xbcd9d4ed	-0.026590789
201	0xbc996054	-0.01872269
202	0xbd2f3503	-0.042775165
203	0xbd4d043e	-0.050052874
204	0xbc8022b7	-0.015641553
205	0xbc73be6d	-0.014876944
206	0xbdd4686f	-0.103714816
207	0xbc8dbcdf	-0.017301975
208	0xbd07a7f5	-0.03311916
209	0x3d7aaf39	0.06120226
210	0x3dc9d0d9	0.09854288
211	0x3d4a02bb	0.04931901
212	0x3ddc2bb8	0.10750526
213	0x3d028113	0.031861376
214	0x3d7d4084	0.061829105
215	0x3a7b9713	0.0009597402
216	0x3d8945cc	0.06702766
217	0x3bf326ef	0.0074204127
218	0x3d8b4c59	0.068016715
219	0x3cbe636e	0.023240771
220	0xbdcba1fe	-0.09943007
221	0xbd356c0c	-0.044292495
222	0xbdb38de5	-0.087672986
223	0xbdd01991	-0.101611264
224	0xbe09dc22	-0.1346288
225	0x3c890387	0.016725315
226	0xbe0e11f3	-0.13874035
227	0xbdf273fc	-0.118385285
228	0x3cd6474a	0.02615704
229	0x3c70178b	0.014654051
230	0xbc2ef243	-0.010677877
231	0xbc8514c6	-0.016245257
232	0xbd24f7c2	-0.040275343
233	0xbe12372b	-0.14278857
234	0x3cda83e4	0.026674218
235	0xbdef88ac	-0.1169599
236	0xbdb946ed	-0.09046731
237	0xbe1147d7	-0.14187561
238	0x3c805ded	0.015669787
239	0x3cf96fe5	0.030448863
240	0xbdb11dc9	-0.08648259
241	0xbda1999a	-0.07890625
242	0xbe2e33b2	-0.17011908
243	0xbd7bc622	-0.06146825
244	0xbda31de5	-0.07964686
245	0xbe1787fb	-0.14797966
246	0xbe16d62f	-0.14730142
247	0xbd0fc061	-0.035095576
248	0xbdf4cf89	-0.11953647
249	0xbe553763	-0.2082191
250	0xbc6f09f6	-0.014589777
251	0xbd381c49	-0.04494885
252	0xbe09564b	-0.13411824
253	0xbca605bf	-0.020266412
254	0xbc20e3f7	-0.009819976
255	0xbdbd09a6	-0.09230356

encoder.cnn.bias f4 [8]
0	0x3ce4184e	0.02784362
1	0xbcc38905	-0.023869047
2	0x3c79b834	0.015241671
3	0xbd948e9b	-0.07253762
4	0x3d5961be	0.05307173
5	0x3ea45ee8	0.32103658
6	0xbdb653ed	-0.08902726
7	0x3e140b52	0.14457443

encoder.rnn.weight_ih_l0 f4 [128, 8]
0	0xba8cd603	-0.0010744933
1	0xbe4a2694	-0.19741279
2	0xbda2ecf2	-0.0795535
3	0x3cd216fc	0.025645725
4	0xbe1a433d	-0.15064712
5	0xbe7cb50f	-0.24678443
6	0x3d89f227	0.0673564
7	0x3e36b36b	0.1784188
8	0xbdc1aeef	-0.09457194
9	0xbdfc4e0c	-0.12319574
10	0xbdf6c984	-0.12050155
11	0xbd69267c	-0.056921467
12	0x3e0a7896	0.13522562
13	0xbda1a837	-0.078934126
14	0x3d231f16	0.039824568
15	0xbe59fa06	-0.21286783
16	0xbe039144	-0.12848383
17	0x3df16b94	0.11788097
18	0xbe23d72c	-0.1600005
19	0x3d101a89	0.035181556
20	0xbd9ee697	-0.07758825
21	0xbe349225	-0.17633875
22	0x3d8a851c	0.0676367
23	0x3e146f22	0.14495519
24	0x3d1b8a73	0.037973832
25	0xbde049ab	-0.10951551
26	0xbcf3afa3	-0.029746836
27	0x3e04bb70	0.12962127
28	0x3e2b860b	0.16750352
29	0x3e20ce6a	0.1570374
30	0xbd5e35b5	-0.054250438
31	0xbe12e595	-0.14345391
32	0xbe33002d	-0.17480536
33	0xbcb62045	-0.022232184
34	0xbe9413ec	-0.2892145
35	0xbe9f2b62	-0.31087786
36	0x3c1a2021	0.009407074
37	0xbe73f0a5	-0.23822267
38	0xbd79aaa5	-0.060953755
39	0xbdb54998	-0.088519275
40	0x3dbb3bfc	0.091423005
41	0xbe6f1f76	-0.23351845
42	0xbe543db1	-0.20726658
43	0xbe876cc8	-0.2645018
44	0xbd723eac	-0.0591418
45	0xbdeeeae9	-0.11665899
46	0x3ccd0657	0.025027437
47	0xbd199d85	-0.037503738
48	0x3d9a3f9e	0.07531665
49	0x3e5de00f	0.21667503
50	0x3e37fdec	0.17967957
51	0xbe008bba	-0.12553301
52	0xbdfd9234	-0.12381402
53	0xbd7363b4	-0.059421256
54	0xbe023833	-0.12716751
55	0xbe425b61	-0.18980171
56	0xbd1ef2e2	-0.03880585
57	0x3e5c2b12	0.21500805
58	0x3da4b52b	0.080423675
59	0x3d8d7290	0.06906617
60	0xbdd33670	-0.103131175
61	0x3d1fac33	0.03898258
62	0x3dd06ae5	0.101766385
63	0xbe0627fb	-0.13101189
64	0x3de75494	0.11295429
65	0xbd1f3cba	-0.038876273
66	0x3e01af75	0.12664588
67	0x3d861943	0.06547787
68	0xbe747159	-0.23871364
69	0xbeb883cc	-0.36038053
70	0x3ccbf792	0.024898324
71	0x3d4a7bf3	0.049434613
72	0x3c35f5e5	0.011105989
73	0x3e1d06c0	0.15334606
74	0x3e0863d2	0.13319328
75	0x3a53e31c	0.0008082853
76	0xbe375d24	-0.17906624
77	0xbe162661	-0.14663078
78	0x3db58d66	0.0886486
79	0xbddf0e48	-0.10891396
80	0xbb075f20	-0.0020656064
81	0xbe1b4745	-0.15163906
82	0xbe146c48	-0.14494431
83	0xbdebdeb3	-0.11517086
84	0x3e2daa85	0.1695958
85	0xbc9edf8f	-0.01939371
86	0xbd7b4a0c	-0.061349913
87	0x3e6c4503	0.23073201
88	0xbe25bf40	-0.16186237
89	0xbdfe7b4a	-0.12425859
90	0x3c0e02f4	0.008667696
91	0xbd2096e7	-0.03920641
92	0xbe831a8d	-0.25606194
93	0xbe242727	-0.1603056
94	0x3d92ba9a	0.07164498
95	0xbdbb7b7b	-0.091544114
96	0x3d2e92cf	0.042620476
97	0xbd7f1f16	-0.062285505
98	0xbe66e121	-0.22546817
99	0xbe1f98b9	-0.15585603
100	0xbdd6061d	-0.10450385
101	0xbdf8a86b	-0.12141498
102	0xbdf8a296	-0.12140386
103	0xbd8bb92a	-0.068224266
104	0x3d9594b2	0.07303752
105	0xbd94d2b2	-0.072667494
106	0x3dbd4ead	0.09243522
107	0xbe1b4f50	-0.15166974
108	0xbdf8df99	-0.12152023
109	0x3c5f5e29	0.013633289
110	0xbeb76163	-0.35816488
111	0xbe8117ec	-0.25213563
112	0x3e52a2d1	0.20569922
113	0x3db4cd4f	0.08828222
114	0x3deaf1ed	0.11471925
115	0x3c2862ba	0.0102774445
116	0xbd1baabf	-0.038004633
117	0xbd6cbf49	-0.05779961
118	0xbd5b2418	-0.05350122
119	0xbda26fea	-0.07931502
120	0xbddfec7b	-0.10933777
121	0xbd124869	-0.035713587
122	0xbe17557a	-0.147787
123	0xbd54099c	-0.051766977
124	0x3dd2b131	0.10287703
125	0xbd82ab67	-0.06380349
126	0x3d5948ce	0.053047948
127	0x3e3618f7	0.17782961
128	0x3de7c288	0.11316401
129	0x3da48031	0.08032263
130	0xbd91ff4f	-0.071287744
131	0x3e00bb6e	0.12571499
132	0x3d7f8854	0.062385872
133	0x3dd65e8e	0.104672536
134	0xbde8d3f2	-0.1136855
135	0xbe296197	-0.16541134
136	0xbe3646c4	-0.17800432
137	0x3d581184	0.05275108
138	0xbe491c5f	-0.19639729
139	0x3dacc97c	0.084368676
140	0xbdf2aabc	-0.11848971
141	0xbe06fccc	-0.13182372
142	0x3de1d250	0.11026442
143	0x3db0f20e	0.08639918
144	0x3e2fb92a	0.17160478
145	0x3cd968e2	0.02653927
146	0xbd7c8608	-0.06165126
147	0x3b0b239b	0.002123094
148	0x3da51535	0.080606855
149	0xbe0a08b8	-0.13479888
150	0xbe358d79	-0.17729749
151	0xbea5a90e	-0.3235554
152	0xbd761e90	-0.06008774
153	0x3e1775c4	0.14791018
154	0xbe01e0ed	-0.12683459
155	0xbe1ffdcf	-0.15624164
156	0xbe186232	-0.14881209
157	0x3d2a8454	0.041630104
158	0x3d8a1958	0.06743115
159	0x3da7b545	0.08188871
160	0xbd89c970	-0.06727874
161	0x3d522fbc	0.051315054
162	0x3d6ee42b	0.058323067
163	0xbda39a0d	-0.07988367
164	0xbe38102a	-0.17974916
165	0x3d2d0f1e	0.042250745
166	0x3df3f1c1	0.11911345
167	0xbc8125bd	-0.015765065
168	0xbdb7db5f	-0.089773886
169	0x3cf2f268	0.029656604
170	0xbc1bd32c	-0.0095107965
171	0xbdb7472f	-0.08949124
172	0x3e336b5a	0.1752142
173	0x3e2777e2	0.16354325
174	0x3d8a5d7c	0.06756112
175	0x3c0a6ef3	0.008449304
176	0xbb373dc0	-0.002796039
177	0x3e5ca00a	0.21545425
178	0xbd35fe64	-0.04443206
179	0xbdaab503	-0.083353065
180	0x3db47d9a	0.08813019
181	0x3e612071	0.21985032
182	0xbe12d1d9	-0.14337863
183	0x3d4ae081	0.04953051
184	0xbcb13f67	-0.021636678
185	0xbe1cef75	-0.1532572
186	0xbe81f761	-0.25384048
187	0xbdfdc987	-0.12391954
188	0xbe82d287	-0.25551245
189	0x3cebc713	0.02878145
190	0x3df35877	0.11882108
191	0x3e34f1a4	0.17670304
192	0x3d36c5d3	0.044622254
193	0xbd15932b	-0.036517303
194	0xbe464231	-0.19361188
195	0xbce8761f	-0.028376637
196	0xbcd7028c	-0.026246332
197	0xbd2e5fd1	-0.042571846
198	0xbebab8f5	-0.36469236
199	0xbe32ec88	-0.17473042
200	0xbdd04d63	-0.1017101
201	0x3c097b53	0.008391219
202	0xbc7d2b9b	-0.015452291
203	0xbe457936	-0.1928452
204	0xbd97ff92	-0.07421793
205	0xbd9feed1	-0.078092225
206	0xbe36b3fb	-0.17842095
207	0xbcf82985	-0.030293236
208	0xbe2e61a1	-0.1702943
209	0xbe6e8dfa	-0.23296347
210	0xbeac4f23	-0.33654127
211	0xbe9a8fb3	-0.3018776
212	0xbe81a053	-0.2531763
213	0xbe8ade50	-0.27122736
214	0xbc7d74f0	-0.015469775
215	0xbdccf5f6	-0.10007851
216	0x3d526062	0.05136145
217	0xbda5ad9d	-0.08089755
218	0xbd2d3830	-0.042289913
219	0xbe12faed	-0.14353533
220	0xbd8461c9	-0.064639635
221	0xbe0b2c4a	-0.13591114
222	0x3e35fe10	0.17772698
223	0x3e1b2eba	0.15154544
224	0xbc5d10be	-0.013492761
225	0x3d12878f	0.03577381
226	0xbd0e3696	-0.034720026
227	0xbc7e2ce8	-0.015513636
228	0x3ccc5972	0.024944995
229	0xbd45c0cc	-0.04827957
230	0x3d72c023	0.059265267
231	0x3dd946c1	0.10609198
232	0x3dae7a7c	0.08519456
233	0xbdc2baf6	-0.09508316
234	0x3b80af26	0.0039271293
235	0xbd92f568	-0.07175714
236	0x3e2ec37e	0.17066762
237	0x3e159fc5	0.14611728
238	0x3da105b3	0.07862415
239	0xbd2266f4	-0.039648965
240	0xbe795899	-0.24350204
241	0x3cb68c16	0.022283595
242	0xbdaefc87	-0.085442595
243	0xbdbf2296	-0.093327686
244	0xbdfc2399	-0.12311477
245	0xbe1c6da2	-0.15276197
246	0xbadd6bb7	-0.0016893063
247	0x3dfb33ad	0.12265716
248	0x3c646cbd	0.013941941
249	0x3db9a240	0.0906415
250	0xbe595a2e	-0.21225807
251	0x3dc1dcb8	0.09465927
252	0xbe27a9b8	-0.16373336
253	0x3d94b214	0.07260528
254	0xbdf1c3a0	-0.11804891
255	0xbc823d1f	-0.015898285

encoder.rnn.weight_hh_l0 f4 [128, 32]
0	0xbcbbbec1	-0.022918107
1	0xbebd8a6b	-0.37019667
2	0xbeacdf7b	-0.33764252
3	0xbe0758d4	-0.13217479
4	0x3e5f4fd2	0.21807793
5	0xbe7842c8	-0.24244225
6	0x3eb3ef18	0.35143352
7	0xbe101d60	-0.14073706
8	0x3e8feb9f	0.28109452
9	0x3e11730b	0.14204042
10	0xbe297031	-0.16546704
11	0x3e60f1f4	0.21967298
12	0xbcbb7b26	-0.02288587
13	0xbcd1eacc	-0.025624655
14	0x3eb39da6	0.35081214
15	0xbdc47fbe	-0.095946774
16	0xb939344e	-0.0001766246
17	0xbd8636d4	-0.065534264
18	0xbe383079	-0.17987241
19	0xbe0eaf96	-0.13934168
20	0x3caee902	0.021351341
21	0x3da0fd24	0.07860783
22	0x3e6d211f	0.23157166
23	0xbe2fdac3	-0.17173295
24	0xbda6d99b	-0.08146974
25	0xbe8a8b53	-0.2705942
26	0x3ea4f243	0.3221608
27	0xbeb3e4fd	-0.35135642
28	0xbd345103	-0.04402257
29	0x3e31d7dd	0.17367502
30	0x3e0c7d81	0.13719751
31	0xbdf9a9bf	-0.121905796
32	0x3dede6af	0.11616265
33	0xbe390269	-0.18067326
34	0x3dd4f535	0.10398332
35	0x3cd1b85a	0.025600601
36	0xbe95f141	-0.29285625
37	0x3ccd6966	0.025074672
38	0xbdc5a65c	-0.09650871
39	0x3bf765ee	0.0075499928
40	0x3daac85d	0.083389975
41	0xbdc08e8d	-0.094021894
42	0x3d2c534a	0.04207162
43	0x3c52717d	0.0128444405
44	0x3e100eb1	0.14068104
45	0xbd0e4273	-0.03473134
46	0xbdc33ff1	-0.0953368
47	0x3db64271	0.088993914
48	0xbcbe34b4	-0.02321849
49	0x3e2cedcc	0.16887587
50	0x3edad570	0.42740965
51	0x3ea5f98f	0.3241696
52	0xbcc6875b	-0.024234464
53	0xbd3259f6	-0.043542825
54	0x3ef90401	0.48635867
55	0xbc146d29	-0.009059229
56	0x3e70ed9a	0.23528138
57	0x3e9ff763	0.3124343
58	0x3d27a793	0.040931296
59	0x3bc79dc6	0.006091806
60	0x3eba3362	0.36367327
61	0x3cbab798	0.022792622
62	0x3e2eb401	0.17060854
63	0x3c9e6c8e	0.019338872
64	0xbd57bfd3	-0.052673172
65	0xbe6d335c	-0.23164123
66	0x3e025d29	0.1273085
67	0xbd49605b	-0.049164157
68	0x3c8c43af	0.017122118
69	0xbc64ca4c	-0.013964247
70	0x3e308e64	0.17241818
71	0x3c92665f	0.01787108
72	0xbd95bc40	-0.073112965
73	0xbdd6e645	-0.10493139
74	0xbdc9859e	-0.098399386
75	0xbd8002b6	-0.06250517
76	0xbd58f57d	-0.05296849
77	0x3d63fb46	0.055659555
78	0x3c4e16a4	0.01257864
79	0xbdd9f9b4	-0.1064333
80	0xbd9a02e9	-0.07520086
81	0x3de4720a	0.11154564
82	0xbda47ef3	-0.08032026
83	0x3d3f01b6	0.04663249
84	0xbc8eb834	-0.01742182
85	0x3c857fe8	0.016296342
86	0x3dd905b9	0.10596795
87	0x3dd64b5a	0.10463591
88	0xbe3452c4	-0.17609698
89	0xbe93077c	-0.28716648
90	0x3e52fcb9	0.20604219
91	0xbe356396	-0.1771377
92	0xbe58ccff	-0.2117195
93	0x3e402492	0.1876395
94	0x3e4ae9a3	0.19815688
95	0x3d70ed3d	0.058819998
96	0xbe3657a9	-0.17806877
97	0xbe344e1d	-0.17607923
98	0xbee57bbf	-0.44820973
99	0xbd6a82c7	-0.057253625
100	0x3d2b26bf	0.041784998
101	0xbe1d8f66	-0.15386733
102	0x3d506e94	0.050886706
103	0x3e86c783	0.2632409
104	0x3e0370b6	0.12835965
105	0x3e22e0f7	0.1590613
106	0x3e113882	0.14181712
107	0x3d26df83	0.0407405
108	0xbe1dfc74	-0.15428334
109	0x3b901fb3	0.00439831
110	0x3da46653	0.08027329
111	0x3db5ff4b	0.08886584
112	0x3c09db24	0.008414064
113	0xbc852fb7	-0.016258104
114	0xbdc379c1	-0.09544707
115	0xbe3f8e9c	-0.18706745
116	0x3bcfffec	0.006347647
117	0xbd3b2a5a	-0.045694686
118	0xbcc2d8e1	-0.023785057
119	0x3de18e1a	0.11013432
120	0xbdca073c	-0.09864661
121	0xbea420a2	-0.32056147
122	0x3e108f4e	0.14117166
123	0xbddb2e15	-0.10702149
124	0x3d819ac6	0.06328349
125	0x3df111ef	0.11770999
126	0x3ddda140	0.108217716
127	0xbe387337	-0.18012701
128	0x3e4cb16e	0.19989559
129	0xbd43a5d6	-0.047765575
130	0x3e8bbd0f	0.27292678
131	0xbd60dd36	-0.054898463
132	0xbb182548	-0.002321558
133	0x3e2357b7	0.1595143
134	0xbe9613c1	-0.29311946
135	0xbd826c36	-0.06368296
136	0x3d8a5550	0.06754553
137	0xbec19d18	-0.37815166
138	0x3e047710	0.12936044
139	0x3def13be	0.116736874
140	0x3d109bb9	0.03530476
141	0x3db245a8	0.08704692
142	0x3eccf0ba	0.4002741
143	0xbe1b1846	-0.15145978
144	0x3d3d0c99	0.046154592
145	0xbe557d38	-0.20848548
146	0x3dc80058	0.097656906
147	0x3da3c18b	0.079959
148	0x3cc4c887	0.0240214
149	0x3c47ce3d	0.012195167
150	0x3e04d227	0.12970792
151	0x3d24998a	0.04018549
152	0xbe369d67	-0.17833482
153	0x3e657565	0.22408064
154	0x3e2017e5	0.15634115
155	0x3e20a8c9	0.15689386
156	0x3ea1171e	0.3146295
157	0xbe877f0e	-0.26464123
158	0xbd814f93	-0.06314006
159	0x3deaf08d	0.11471663
160	0x3e17b953	0.1481679
161	0xbe3e97f9	-0.1861266
162	0x3ce136c1	0.027491929
163	0x3c8bc242	0.017060403
164	0xbe6e6418	-0.2328037
165	0x3f26a79c	0.650995
166	0xbe24f588	-0.16109288
167	0x3d977c3e	0.07396744
168	0x3e423d04	0.18968588
169	0xbd632d55	-0.055463154
170	0xbd1f6e09	-0.038923297
171	0xbe095f42	-0.13415244
172	0x3ba2c500	0.004967332
173	0xbdc5a2a8	-0.09650165
174	0x3e88c384	0.26711667
175	0xbe5a165a	-0.21297589
176	0x3de70737	0.11280673
177	0x3e1accd2	0.15117195
178	0x3d9d38de	0.07676862
179	0x3d9d4fa1	0.07681204
180	0xbdeb6365	-0.114935674
181	0xbe8f6b28	-0.2801144
182	0xbe5d2b8f	-0.21598648
183	0x3e086b5a	0.13322201
184	0xbb999e99	-0.0046880958
185	0x3d002b69	0.0312914
186	0x3da754a8	0.08170444
187	0xbc0b22b8	-0.008492164
188	0xbdbee54e	-0.0932108
189	0xbe0daf51	-0.13836409
190	0x3d9be6c7	0.07612377
191	0x3e52943d	0.20564361
192	0x3da1d1ca	0.07901342
193	0x3ea300ae	0.31836456
194	0xbec451e7	-0.38343737
195	0x3ee42b41	0.4456425
196	0xbc64a29f	-0.0139547875
197	0x3e91aa58	0.28450274
198	0xbe9ac1a3	-0.30225858
199	0xbc6a9913	-0.014318722
200	0x3cf04ed9	0.029334472
201	0x3d3f1244	0.04664828
202	0x3e7ac88b	0.24490564
203	0xbeaaf7e7	-0.3339226
204	0x3e0f7731	0.14010312
205	0xbe88a6c6	-0.26689738
206	0x3c077a2d	0.008268875
207	0x3e42af32	0.19012144
208	0x3ebb31af	0.36561343
209	0x3e417c14	0.18894988
210	0x3e80db96	0.2516753
211	0xbd6c35c0	-0.057668447
212	0x3e18b57f	0.14912985
213	0x3e427877	0.18991266
214	0xbeb4d2f9	-0.3531721
215	0x3e80df3a	0.25170308
216	0x3dabe8c5	0.08394007
217	0xbb2cbe7f	-0.0026358662
218	0xbd8933fc	-0.06699368
219	0xbe320a01	-0.17386629
220	0xbee51241	-0.4474049
221	0xbe843c56	-0.25827283
222	0xbe89cc0e	-0.26913494
223	0xbee75c91	-0.4518781
224	0xbe176de6	-0.14788017
225	0xbe7acdd4	-0.2449258
226	0xbe853df0	-0.26023817
227	0x3ed0ffcd	0.4082016
228	0x3e6ee368	0.23328936
229	0xbdf50c0b	-0.11965188
230	0x3d8ccc79	0.068749376
231	0x3e558359	0.20850886
232	0x3e605084	0.21905714
233	0x3ed25c20	0.4108591
234	0xbe6ca2a3	-0.23108916
235	0xbce55718	-0.027995631
236	0x3d80b6c5	0.062848605
237	0xbd733456	-0.059376083
238	0x3ef05633	0.46940765
239	0x3e60dfb2	0.21960333
240	0xbd0cabc3	-0.034343492
241	0x3ea36986	0.31916445
242	0x3d36fe61	0.04467619
243	0xbebd9de1	-0.37034515
244	0xbde661bb	-0.11249109
245	0x3d8d5ae8	0.069021046
246	0xbe707df0	-0.23485541
247	0xbda6e09d	-0.0814831
248	0xbd37a0de	-0.04483115
249	0xbe81727d	-0.2528266
250	0x3e937171	0.28797486
251	0xbefa1cf8	-0.48850226
252	0xbe2add9a	-0.16686097
253	0x3e60d3e3	0.21955828
254	0x3df376d5	0.118879
255	0x3c6b6a1b	0.014368559

encoder.rnn.bias_ih_l0 f4 [128]
0	0x3eb59133	0.3546234
1	0x3dd42d85	0.10360245
2	0xbd76053b	-0.060063582
3	0x3d93753c	0.07200095
4	0xbd948593	-0.0725204
5	0x3e289037	0.16461264
6	0x3e5d31bb	0.21601002
7	0xbe214205	-0.1574784
8	0xbd03aac2	-0.03214527
9	0xbcb761f3	-0.022385573
10	0x3e1982f2	0.14991358
11	0x3ccc2325	0.024919102
12	0x3c94660e	0.01811507
13	0x3d8b8b75	0.06813709
14	0xbe39ece8	-0.18156779
15	0x3d23bc92	0.039974757
16	0xbd156692	-0.03647477
17	0xbd2e8a05	-0.042612094
18	0x3de1c90c	0.11024675
19	0xbe850086	-0.25976962
20	0x3d4c5f6c	0.04989569
21	0x3e171a5b	0.14756148
22	0xbd6195d5	-0.05507453
23	0xbd487cb5	-0.048947055
24	0x3d912043	0.070862316
25	0xbd4a9bb1	-0.049464885
26	0xbdd121d4	-0.1021153
27	0xbe97c3ed	-0.29641667
28	0xbd919f07	-0.0711041
29	0x3e3f3e9f	0.18676232
30	0xbe21c727	-0.15798627
31	0xbb8fec2a	-0.0043921666
32	0x3e30743c	0.1723184
33	0x3e4f7e83	0.20263104
34	0xbcb1c26e	-0.021699157
35	0x3c740547	0.014893836
36	0x3d27a896	0.04093226
37	0x3e7d17b0	0.24716067
38	0x3d953e1c	0.07287237
39	0x3e89c9e8	0.26911855
40	0x3dafd6ab	0.085858665
41	0x3ccd2beb	0.025045356
42	0x3e98fd47	0.29880735
43	0x3dacb089	0.08432109
44	0x3e2ebf3e	0.1706514
45	0x3e7168d1	0.2357514
46	0x3ebc14b8	0.36734557
47	0x3d96150f	0.07328235
48	0x3d95881d	0.07301352
49	0xbe2921da	-0.1651682
50	0x3d46eec5	0.048567552
51	0xbd7c1804	-0.06154634
52	0xbd42c6d6	-0.047552906
53	0x3e5058d6	0.20346388
54	0x3eb37b8f	0.35055205
55	0x3e73fd95	0.23827203
56	0xbba42dde	-0.0050103506
57	0x3dcf479f	0.101210825
58	0x3d65aec4	0.056074873
59	0x3e40ba89	0.18821158
60	0x3e3fada5	0.18718584
61	0x3e590687	0.21193896
62	0xbdc41913	-0.09575095
63	0xbdfb8366	-0.12280922
64	0xbecc1967	-0.3986313
65	0xbd16390e	-0.036675505
66	0x3d82d1b1	0.06387652
67	0xbe3ab23a	-0.1823205
68	0xbdc3f3e5	-0.095680036
69	0xbd9ffbf8	-0.07811731
70	0xbd965004	-0.073394805
71	0xbdd2f222	-0.103000894
72	0x3dd724eb	0.105050884
73	0x3db8778c	0.09007177
74	0x3db55715	0.088545
75	0xbd3e9497	-0.046528425
76	0x3dbd4b95	0.09242932
77	0x3d39266a	0.04520265
78	0xbea266f8	-0.31719184
79	0xbe6f40d9	-0.23364581
80	0xbe79344f	-0.2433636
81	0x3decc68f	0.115613095
82	0x3db90175	0.09033481
83	0x3e1da2b1	0.15394093
84	0x3df87310	0.121313214
85	0xbebd37f6	-0.36956757
86	0xbe1143cd	-0.1418602
87	0xbdf54e12	-0.11977781
88	0x3de36720	0.11103654
89	0xbdbf047a	-0.09327026
90	0xbe7cc623	-0.24684958
91	0xbdf211b5	-0.118197836
92	0x3d550a09	0.052011523
93	0xbd13d9aa	-0.036096253
94	0x3dfe31bc	0.1241183
95	0x3d402349	0.04690865
96	0x3e8edd8e	0.27903408
97	0xbbb18901	-0.0054179435
98	0x3cbe5dba	0.023238052
99	0x3e04d3b7	0.12971388
100	0x3d6b7f1f	0.05749428
101	0x3e11d2e3	0.14240603
102	0x3eb9ee2d	0.36314526
103	0x3de76231	0.112980254
104	0xbe4164bb	-0.18886082
105	0xbdbe6629	-0.09296829
106	0xbc61e53e	-0.013787566
107	0x3e44846b	0.19191138
108	0x3e8d9489	0.27652386
109	0x3e441f9b	0.19152682
110	0x3e9dc10d	0.3081135
111	0x3e0b8fe4	0.13629109
112	0x3d1443fb	0.036197644
113	0xbe78961a	-0.24276009
114	0x3e38f463	0.18061976
115	0x3c7d9f4c	0.015479874
116	0xbe1c89b1	-0.152869
117	0x3ec2ab0e	0.3802113
118	0x3ea3c892	0.3198896
119	0x3eacc995	0.33747545
120	0x3e98f6f0	0.29875898
121	0x3e6818fa	0.22665778
122	0xbd9eb8f7	-0.07750123
123	0x3e458c56	0.19291815
124	0x3d0689fd	0.03284644
125	0xbd1e7634	-0.038686946
126	0x3e793905	0.24338157
127	0x3dffb261	0.12485195

encoder.rnn.bias_hh_l0 f4 [128]
0	0x3ea17111	0.31531575
1	0x3eb5716d	0.354381
2	0xbd010ee7	-0.031508353
3	0xbe22de88	-0.15905201
4	0xbe610ccd	-0.2197754
5	0x3e5b12d6	0.21393904
6	0x3e66bcca	0.22532955
7	0xbe3e0030	-0.18554759
8	0x3dd4c486	0.10389046
9	0xbdeac4bb	-0.114633046
10	0x3d814db8	0.06313652
11	0x3dbca754	0.09211603
12	0xbd60f7ee	-0.054923944
13	0x3e60508c	0.21905726
14	0xbdd044d1	-0.10169376
15	0xbe2c329c	-0.16816181
16	0x3e99875a	0.29986078
17	0xbdba2024	-0.090881616
18	0x3d4002a7	0.04687753
19	0xbe46835a	-0.19386044
20	0xbd9e4c4a	-0.07729395
21	0xbda0e835	-0.0785679
22	0xbe35f7d0	-0.17770314
23	0xbd62992a	-0.05532185
24	0xbca22104	-0.019791134
25	0xbe36fd80	-0.1787014
26	0xbdf69ead	-0.12041984
27	0x39f65e91	0.00046991234
28	0xbdefe918	-0.11714381
29	0x3e9c614d	0.30542985
30	0xbcedb077	-0.029014809
31	0xbde28efb	-0.110624276
32	0x3e8de0dc	0.27710617
33	0x3e35f213	0.17768125
34	0x3cc4acf2	0.024008248
35	0x3e0db4b6	0.13838467
36	0xbc833638	-0.016017064
37	0x3e5708d1	0.20999457
38	0x3d38d8cd	0.045128632
39	0x3deca295	0.115544476
40	0x3d0787d4	0.03308852
41	0x3d674acc	0.056467816
42	0x3e9e7ca2	0.30954462
43	0x3da71024	0.081573755
44	0x3e0c6b8a	0.13712898
45	0x3ea293a9	0.3175328
46	0x3dcf1996	0.10112302
47	0xbd711520	-0.058858037
48	0x3eb8e136	0.36109322
49	0xbe3a9b01	-0.18223192
50	0x3e84746b	0.2587007
51	0x3d5ffcb0	0.05468434
52	0x3c97a63c	0.018511884
53	0x3e720d47	0.23637877
54	0x3ef8fa14	0.48628294
55	0xbd402867	-0.04691353
56	0xbd6f4a8f	-0.058420714
57	0x3dd71945	0.10502867
58	0x3e5dd008	0.21661389
59	0x3dfa0f15	0.12209908
60	0x3d067b02	0.032832153
61	0xbcd16e70	-0.025565356
62	0x3e11c16b	0.1423394
63	0xbdf7906f	-0.120880954
64	0xbeaadfab	-0.3337377
65	0x3e110b3f	0.14164446
66	0x3d299ac8	0.041407377
67	0xbe22dada	-0.15903798
68	0x3d235c29	0.039882813
69	0x3e463e71	0.19359757
70	0x3df67bbd	0.1203532
71	0x3e2380e5	0.15967138
72	0x3d113b92	0.0354572
73	0x3ce3f8f7	0.027828677
74	0x3d3d6f72	0.04624886
75	0x3cdf66aa	0.027270634
76	0x3daadc00	0.08342743
77	0x3dd16aeb	0.10225471
78	0xbe752483	-0.2393971
79	0xbc366204	-0.011131767
80	0x3d5338d6	0.051567875
81	0xbda8d995	-0.082446255
82	0x3e6a790b	0.22897737
83	0x3e14ce10	0.14531732
84	0x3e888eb7	0.26671383
85	0xbe980f53	-0.2969919
86	0x3d0f27fd	0.034950245
87	0xbe5da439	-0.21644677
88	0xbd22cd60	-0.039746642
89	0x3e150e14	0.14556152
90	0xbe668624	-0.22512108
91	0x3d85f9fd	0.06541822
92	0xbcde3b45	-0.027127871
93	0xbe373411	-0.17890956
94	0x3e1924f6	0.14955506
95	0x3e3df698	0.185511
96	0x3ecb30f8	0.39685798
97	0x3e1edd86	0.15514192
98	0xbd80d2fc	-0.06290242
99	0x3d4fbb9d	0.05071603
100	0x3e9dcfa1	0.3082247
101	0x3e1f70f2	0.15570429
102	0x3ecccef7	0.40001652
103	0x3e2d6038	0.16931236
104	0xbd973808	-0.07383734
105	0x3e0f6a63	0.14005427
106	0xbd4bddac	-0.04977195
107	0x3ee398d5	0.4445254
108	0x3e81325a	0.25233728
109	0xbdddb67c	-0.10825822
110	0x3eb46775	0.3523518
111	0x3e004e53	0.12529878
112	0x3decfdb7	0.1157183
113	0xbe39bde0	-0.18138838
114	0x3e4d5502	0.20051959
115	0x3c6857e3	0.01418111
116	0xbd236ff8	-0.039901704
117	0x3ea70fac	0.32629144
118	0x3ea5e43f	0.324007
119	0x3d10d02e	0.035354786
120	0x3dc2e8d6	0.09517066
121	0x3e51defd	0.2049522
122	0xbe30d788	-0.17269719
123	0x3d8e96ba	0.069623426
124	0x3e83cc16	0.25741643
125	0xbc126fd7	-0.0089377975
126	0x3e418360	0.18897772
127	0x3e2e49c9	0.17020334

decoder.rnn.weight_ih_l0 f4 [256, 32]
0	0xbc474265	-0.012161826
1	0xbdd2407b	-0.10266205
2	0xbedb2212	-0.4279943
3	0xbd49639c	-0.04916726
4	0xbe5e2438	-0.21693504
5	0x3efe17eb	0.49627623
6	0xbdff9a9a	-0.1248066
7	0x3ddf7a4f	0.109120004
8	0x3e66a574	0.22524053
9	0xbcc3f126	-0.0239187
10	0x3e1fa520	0.15590334
11	0xbe25daa1	-0.16196682
12	0x3d86d2c2	0.065831676
13	0x3da254b1	0.0792631
14	0xbed7a80a	-0.4212039
15	0xbcd701a8	-0.026245907
16	0x3e45e768	0.19326556
17	0x3ddb475c	0.1070697
18	0x3e0afc78	0.13572872
19	0xbe867e29	-0.26268128
20	0xbe4232f6	-0.18964753
21	0xbddd48b8	-0.108048856
22	0xbe27c54b	-0.16383855
23	0xbd364184	-0.044496074
24	0x3e5358c1	0.20639326
25	0xbe9230fc	-0.28552997
26	0x3dbc6f6a	0.09200938
27	0x3e52f810	0.20602441
28	0xbd4b45a1	-0.04962695
29	0x3d55cc96	0.05219706
30	0xbc85bd83	-0.016325718
31	0xbe0326a1	-0.12807705
32	0x3e69fd8b	0.22850625
33	0xbd928313	-0.07153907
34	0x3e31e810	0.17373681
35	0x3e089f37	0.13341986
36	0xbe351c39	-0.17686547
37	0xbd8dfbe8	-0.06932813
38	0xbe233be6	-0.15940818
39	0xbefc8d38	-0.4932649
40	0xbebc1bf1	-0.36740068
41	0xbcde0f02	-0.027106766
42	0xbccb4c1e	-0.024816569
43	0xbe5e8a71	-0.21732499
44	0x3dd75d72	0.1051587
45	0xbe3b0b7d	-0.18266101
46	0x3ee7b710	0.45256853
47	0x3e14ca08	0.14530194
48	0x3e2782e8	0.1635853
49	0xbe493177	-0.19647776
50	0x3e2b8857	0.16751228
51	0x3db92ffc	0.090423554
52	0x3d35529d	0.04426824
53	0x3db30862	0.08741833
54	0xbdd7e650	-0.105419755
55	0x3e34e960	0.1766715
56	0xbe2f7630	-0.17134929
57	0x3e098cac	0.13432568
58	0xbd66c644	-0.056341425
59	0xbe966f88	-0.29381967
60	0xbd493846	-0.049125932
61	0xbe26fbd1	-0.16306998
62	0xbdc4824c	-0.09595165
63	0xbbc8a533	-0.006123209
64	0x3e16546f	0.14680646
65	0x3e1ce1ba	0.15320483
66	0x3ec06315	0.37575594
67	0xbf0300f3	-0.51173323
68	0xbea5d361	-0.32387832
69	0x3edd151e	0.43180174
70	0xbe3f1ed1	-0.186641
71	0xbe029fc0	-0.12756252
72	0xbdb41ff7	-0.08795159
73	0x3c89ab69	0.016805368
74	0x3d760076	0.060059033
75	0xbd7a9596	-0.061177813
76	0x3daa797e	0.08323954
77	0xbe1dfe4c	-0.15429038
78	0x3e93fbfe	0.28903192
79	0x3e831033	0.25598297
80	0x3e8b466d	0.27202168
81	0x3e9eb2d7	0.3099582
82	0x3de0489f	0.109513514
83	0xbe6118f8	-0.21982181
84	0xbe340c8a	-0.17582908
85	0xbe954971	-0.29157594
86	0xbe951beb	-0.29122862
87	0xbd53f7a5	-0.051749844
88	0x3edfe167	0.43726656
89	0x3de08c20	0.10964227
90	0x3e10e8b4	0.14151269
91	0xbe9393a5	-0.2882358
92	0x3e0a1cef	0.134876
93	0xbe25a421	-0.16175891
94	0xbc50d487	-0.012745983
95	0x3cb7edd4	0.022452272
96	0x3df16c03	0.1178818
97	0xbdaa32fe	-0.08310507
98	0x3ec9622e	0.39332718
99	0x3dbda3b5	0.0925974
100	0xbed43946	-0.41449946
101	0x3ed5cc0f	0.41757247
102	0xbe1fb7c3	-0.15597443
103	0x3c9dc46f	0.019258706
104	0x3dc85793	0.097823285
105	0x3e1c9104	0.15289694
106	0x3dea4c38	0.11440319
107	0x3da2621e	0.079288706
108	0x3dd9c0fe	0.106325135
109	0xbc6630cb	-0.014049719
110	0xbde7742f	-0.11301457
111	0x3e0fb79b	0.14034884
112	0x3dcf88c3	0.10133507
113	0x3ea0f45a	0.31436425
114	0x3c44fff3	0.012023914
115	0xbe1a8964	-0.15091473
116	0xbeb7ed70	-0.35923338
117	0xbe836581	-0.2566338
118	0xbf451f5a	-0.77000964
119	0xbdd6061a	-0.104503825
120	0x3f87e8a0	1.0617867
121	0xbbeca7db	-0.0072221584
122	0x3dcf7a25	0.10130719
123	0xbe9001b5	-0.28126302
124	0x3d5e5e74	0.054289296
125	0xbe34ab84	-0.17643553
126	0xbd10c494	-0.03534372
127	0x3c03e861	0.008051009
128	0x3def281e	0.116775736
129	0x3d4776f9	0.048697446
130	0x3e36e55f	0.17860936
131	0x3cad4854	0.021152653
132	0xbf125772	-0.5716468
133	0x3e89aec6	0.26891154
134	0xbddd92ae	-0.108189926
135	0xbe5f1a22	-0.21787313
136	0xbe223cdb	-0.15843527
137	0x3d590726	0.052985333
138	0x3b1175d8	0.0022195484
139	0x3c4f9d02	0.012671711
140	0x3def25f1	0.116771586
141	0xbe3d3c78	-0.18480098
142	0x3ec1ecfb	0.37876114
143	0x3d8f55b4	0.069987684
144	0x3ea95a0f	0.33076522
145	0x3dd29d2f	0.10283887
146	0x3db59219	0.088657565
147	0x3ca5968c	0.020213388
148	0xbd90349e	-0.07041286
149	0xbdda839f	-0.10669636
150	0xbefa70de	-0.48914236
151	0x3d0c5bf6	0.03426739
152	0x3eba283e	0.36358827
153	0x3e17b01d	0.14813276
154	0x3d4fea14	0.050760344
155	0xbdf27e2d	-0.11840472
156	0xbdf72d23	-0.12069156
157	0xbe164467	-0.14674531
158	0xbe3dce4c	-0.18535727
159	0xbe0c45bd	-0.13698478
160	0x3e3c1e56	0.18370947
161	0x3d7698c6	0.06020429
162	0x3d5ed723	0.05440439
163	0xbe4b4614	-0.19850951
164	0xbe7e985b	-0.24862806
165	0x3d71a618	0.05899629
166	0x3d5e069c	0.054205522
167	0xbdc1f79b	-0.09471055
168	0xbe6029df	-0.21890973
169	0x3ea47bb7	0.32125637
170	0x3be56f90	0.0070018247
171	0xbddcd491	-0.10782731
172	0x3d0d8bb4	0.03455706
173	0xbe2cd3b7	-0.16877638
174	0xbc9e18d5	-0.01929895
175	0x3e5af038	0.21380699
176	0x3d5f68f4	0.05454345
177	0x3eaafb76	0.33394974
178	0xbcc4baf2	-0.024014924
179	0xbed57e97	-0.41698143
180	0xbeae3c8a	-0.34030563
181	0xbcd3e77b	-0.025867214
182	0xbe9bb4fa	-0.30411512
183	0x3d8f0af8	0.06984514
184	0xbe1575da	-0.14595738
185	0xbe57a06f	-0.21057294
186	0x3dfbf903	0.123033546
187	0xbf13397d	-0.57509595
188	0x3c9bb624	0.01900775
189	0xbe41d5be	-0.18929192
190	0x3d31dbbd	0.04342245
191	0xbc8d03d3	-0.017213738
192	0x3e8ad18c	0.27112997
193	0x3e1be8a7	0.15225469
194	0xbdbd7491	-0.09250749
195	0x3ea886e3	0.3291541
196	0xbed678ed	-0.41889134
197	0x3de1951c	0.110147685
198	0xbecb2e30	-0.39683676
199	0xbe851f00	-0.26000214
200	0xbe5d97d1	-0.21639945
201	0xbe85c96e	-0.2613024
202	0x3ec7c4f6	0.39017457
203	0xbeb56999	-0.35432127
204	0x3e676fac	0.22601193
205	0xbed8a8db	-0.42316326
206	0x3d6c21a1	0.05764926
207	0xbe88795d	-0.26655093
208	0x3e80f137	0.25184032
209	0xbe34d845	-0.17660625
210	0x3ece9587	0.40348455
211	0x3ed2ad90	0.41148043
212	0x3e044079	0.1291522
213	0xbe3b68f4	-0.18301755
214	0xbe1652df	-0.1468005
215	0x3e8ca7ce	0.27471775
216	0x3e07130a	0.13190857
217	0xbc321c98	-0.010871075
218	0xbde9929b	-0.11404916
219	0x3e7a66b0	0.24453235
220	0xbe6be0a6	-0.23034915
221	0xbeb68fda	-0.35656625
222	0xbe81d523	-0.25357923
223	0xbef03aa3	-0.46919736
224	0x3e5fa4da	0.2184023
225	0xbd663ea9	-0.0562121
226	0xbbde9b33	-0.0067934035
227	0x3e2088f0	0.15677238
228	0xbef118e5	-0.47089306
229	0x3e9a4966	0.30134124
230	0xbda6ad83	-0.081385635
231	0x3d801c10	0.062553525
232	0x3d4be24c	0.04977636
233	0x3ed06c34	0.40707552
234	0x3e0febea	0.14054838
235	0x3bee9c5f	0.0072818245
236	0x3e4bc324	0.19898659
237	0x3d472b5d	0.04862534
238	0x3d1cb8c7	0.038262155
239	0x3cc6dbd2	0.02427474
240	0x3df5d0a1	0.120026834
241	0x3e3540e9	0.17700543
242	0x3db71636	0.08939783
243	0xbd5187eb	-0.051155012
244	0xbe60efa3	-0.21966414
245	0xbe9a7370	-0.30166197
246	0xbed76d57	-0.42075607
247	0x3e0d18e7	0.1377903
248	0x3e16c569	0.14723743
249	0xbdc17638	-0.094463766
250	0xbe6be7f9	-0.2303771
251	0xbdbdbe5b	-0.09264823
252	0xbdaa0481	-0.0830164
253	0xbe279dc2	-0.16368774
254	0xbd3442c2	-0.044008978
255	0xbdadbf49	-0.084837504

decoder.rnn.weight_hh_l0 f4 [256, 64]
0	0x3d7b68e4	0.06137933
1	0x3e553e35	0.20824511
2	0xbe1ea8e8	-0.1549412
3	0x3d8804af	0.06641518
4	0xbe464f29	-0.19366135
5	0x3e967c1c	0.29391563
6	0x3e8b5dc5	0.27219978
7	0xbe497970	-0.19675231
8	0x3dd8d5cb	0.10587653
9	0xbe744f5d	-0.238584
10	0x3dc0576e	0.09391676
11	0xbe57f89f	-0.21090935
12	0xbc4415c2	-0.011968078
13	0x3ec878b2	0.39154583
14	0x3e927f51	0.2861276
15	0x3c396325	0.011315142
16	0xbd85eb77	-0.06539052
17	0xbe7e0a6a	-0.2480866
18	0xbe919dde	-0.28440756
19	0xbf00efff	-0.50366205
20	0xbc9707db	-0.018436363
21	0x3e20b17a	0.15692702
22	0x3d32df2d	0.04366987
23	0x3d84033d	0.0644593
24	0xbe49e3de	-0.1971583
25	0x3db9ad2d	0.09066234
26	0x3e45d0e3	0.19317965
27	0xbda29839	-0.079391904
28	0x3e0e1daa	0.13878503
29	0x3eecc558	0.4624431
30	0x3ebbaa3e	0.36653322
31	0xbd62047f	-0.05518007
32	0xbde71da2	-0.11284949
33	0xbd264522	-0.040593274
34	0xbe21b76d	-0.15792628
35	0xbd8f458f	-0.06995689
36	0x3de07fd9	0.10961885
37	0xbe00d924	-0.12582833
38	0x3d905fea	0.07049544
39	0xbe9b85af	-0.3037543
40	0x3db49388	0.08817202
41	0x3e455ae7	0.19272958
42	0xbedd28ae	-0.431951
43	0x3e14caa4	0.14530426
44	0x3e0f3cd6	0.13988051
45	0x3dc31ecc	0.095273584
46	0x3ea46834	0.3211075
47	0xbd8bffdd	-0.068359114
48	0xbe39082b	-0.18069522
49	0xbe4bde04	-0.19908911
50	0xbb0ef106	-0.0021811142
51	0x3e6bf9d0	0.23044515
52	0x3e58f6ff	0.21187972
53	0xbd7bf24e	-0.061510377
54	0x3e8f611d	0.2800378
55	0x3e4c3074	0.19940358
56	0x3e9cc515	0.30619112
57	0x3ea18d64	0.31553185
58	0x3d816062	0.06317212
59	0xbe208eca	-0.1567947
60	0x3ec101dc	0.3769673
61	0x3cdb4049	0.026764052
62	0xbc9db95c	-0.019253425
63	0xbdd5ae11	-0.10433591
64	0x3eb5c999	0.3550537
65	0xbe37c347	-0.17945586
66	0xbde0c298	-0.10974616
67	0xbc67b710	-0.014142767
68	0x3c2070e9	0.009792545
69	0xbe1e673f	-0.15469073
70	0x399b729d	0.00029649297
71	0xbb8e0360	-0.0043338984
72	0x3da8f6a6	0.082501695
73	0x3d9b1603	0.07572558
74	0x3e10002c	0.14062566
75	0x3d643c20	0.055721402
76	0xbcbf3094	-0.023338594
77	0xbe1b7852	-0.15182617
78	0x3e70a1ac	0.23499173
79	0x3c8513e3	0.016244834
80	0x3d8cc40b	0.0687333
81	0xbd84d222	-0.06485392
82	0x3e1329a0	0.14371347
83	0x3dfce4e2	0.123483434
84	0xbd4ae036	-0.04953023
85	0x3e055970	0.13022399
86	0x3e082f1b	0.1329922
87	0x3e42a8f6	0.19009766
88	0x3c62860b	0.013825904
89	0xbdee3fa6	-0.11633234
90	0x3da61918	0.08110255
91	0x3d005724	0.031333104
92	0xbd9afd01	-0.07567788
93	0xbe3e7dbd	-0.18602653
94	0xbe99a42c	-0.30008066
95	0x3d1082ef	0.035281118
96	0x3d83f5a6	0.06443338
97	0xbe03cf11	-0.12871958
98	0xbd71598b	-0.058923285
99	0x3da03a35	0.07823602
100	0xbe2a52e8	-0.16633189
101	0xbbe603f9	-0.0070195165
102	0xbcc21ddf	-0.023695884
103	0x3e374d93	0.17900686
104	0x3d2f5df7	0.04281422
105	0xbddd6857	-0.10810917
106	0x3e186928	0.14883864
107	0xbdd588a7	-0.10426455
108	0xbdeb40eb	-0.114869915
109	0xbc149487	-0.009068615
110	0x3dade65b	0.084912024
111	0x3d53263a	0.051550128
112	0xbd21db7b	-0.039515954
113	0x3d656e23	0.056013238
114	0xbe177189	-0.14789404
115	0x3c384e5a	0.011249149
116	0xbd366d39	-0.044537757
117	0xbdad4ece	-0.084622964
118	0xbe2717cb	-0.1631767
119	0x3d2fa841	0.04288507
120	0xbe4df308	-0.2011224
121	0xbdf6a34e	-0.12042867
122	0xba7ee6ad	-0.00097237044
123	0x3e00fa86	0.12595567
124	0x3da759b4	0.081714064
125	0xbd7a45e5	-0.061101813
126	0x3d43223f	0.04764008
127	0xbdc75025	-0.09732083
128	0xbbee5f85	-0.0072745704
129	0xbcea9f3f	-0.028640388
130	0x3c4f68db	0.012659277
131	0xbd32cf51	-0.043654744
132	0xbdb961ec	-0.0905188
133	0x3d82e430	0.063911796
134	0x3de291b4	0.11062947
135	0xbdac4164	-0.0841091
136	0x3b9938ac	0.0046759453
137	0x3f0389b1	0.51381975
138	0xbd3a3519	-0.045460794
139	0xbe9e2331	-0.30886224
140	0xbca4dc1a	-0.020124484
141	0xbe0d8817	-0.13821445
142	0x3d16c59e	0.036809556
143	0x3db8e73d	0.0902848
144	0x3e098004	0.1342774
145	0xbec7984f	-0.3898339
146	0xbeb83ae2	-0.35982424
147	0xbe8f538b	-0.27993426
148	0xbd9cd916	-0.07658593
149	0x3ef8c87e	0.48590463
150	0xbded23d0	-0.11579096
151	0x3e0da559	0.13832606
152	0xbd27191e	-0.040795438
153	0x3e628e5b	0.22124617
154	0xbc5bcfdb	-0.013416256
155	0x3e2722f8	0.16321933
156	0xbdb5e61e	-0.08881782
157	0xbe978772	-0.29595524
158	0x3f07f906	0.53114355
159	0xbb0ed9ca	-0.0021797293
160	0xbc80c49f	-0.015718756
161	0x3d8324d1	0.064035065
162	0xbebb52f6	-0.36586732
163	0x3c64f242	0.013973774
164	0xbe6891d2	-0.22711876
165	0xbe7b1ec1	-0.2452345
166	0x3e9089e0	0.2823019
167	0x3e20d662	0.1570678
168	0x3a17c3df	0.000578938
169	0x3db18a63	0.08668973
170	0x3d9bf875	0.07615749
171	0x3e6f4eb9	0.23369874
172	0x3d457d4d	0.0482152
173	0x3f2f767f	0.68540186
174	0x3ed63f64	0.41845238
175	0xbe558b54	-0.2085393
176	0x3cfbf566	0.030756664
177	0xbe7be7f2	-0.24600199
178	0x3ca28ad0	0.019841582
179	0x3e4cac00	0.19987488
180	0x3bd1a7c5	0.0063981735
181	0xbdae8340	-0.08521128
182	0xbe2eacff	-0.1705818
183	0x3c4ad269	0.012379267
184	0x3e07ab2b	0.13248889
185	0x3e1c8c9b	0.15288012
186	0xbc59cbff	-0.013293265
187	0xbe78eb82	-0.24308589
188	0xbcc222e6	-0.023698281
189	0x3c61caba	0.013781244
190	0x3e5d5ffd	0.21618648
191	0xbdd2f81c	-0.10301229
192	0x3d031f2c	0.03201215
193	0x3dcafc18	0.09911364
194	0xbd397ffa	-0.045288064
195	0x3e303943	0.17209344
196	0xbda40624	-0.08008984
197	0x3dec3aa2	0.11534621
198	0x3e4a3766	0.19747695
199	0x3d2be33f	0.041964766
200	0xbd93dcfc	-0.07219884
201	0xbe6dee5d	-0.2323546
202	0x3c5a171c	0.013311174
203	0xbc8ec4a9	-0.01742776
204	0xbbb4c4af	-0.0055166106
205	0x3d50c10f	0.050965365
206	0x3e681e6d	0.22667857
207	0x3e4337d7	0.1906427
208	0x3d014d08	0.031567603
209	0x3d804d1e	0.06264709
210	0x3de7a2bc	0.11310336
211	0xbd8694ba	-0.06571336
212	0xbc8addc2	-0.016951445
213	0x3ca8c230	0.020600408
214	0xbe59d453	-0.21272402
215	0x3e01c461	0.12672569
216	0xbdced4ce	-0.10099183
217	0x3d1b8383	0.037967216
218	0x3e75302e	0.2394416
219	0xbcb8e3ba	-0.022569526
220	0x3d8cd3e1	0.0687635
221	0x3e456029	0.19274963
222	0x3ef1df94	0.4724089
223	0xbdbeb0cd	-0.09311066
224	0xbda53f00	-0.08068657
225	0x3d318a1f	0.043344613
226	0xbe1a1a3d	-0.15049072
227	0xbe2bc04c	-0.16772574
228	0xbe0c77ad	-0.13717528
229	0xbd004d4b	-0.031323712
230	0x3d9a7b7e	0.075430855
231	0x3c5ffa0b	0.013670455
232	0xbc8f5c55	-0.017500082
233	0x3e184883	0.14871411
234	0x3de15d2e	0.11004101
235	0xbca5c070	-0.020233363
236	0x3cfaa1ca	0.030594725
237	0x3ea61ac8	0.32442307
238	0x3e4408c0	0.19143963
239	0xbe99d6aa	-0.30046588
240	0xbdd15b91	-0.10222543
241	0xbce5cfce	-0.02805319
242	0xbdf8cc57	-0.1214835
243	0x3ec17823	0.3778697
244	0xbdaa708b	-0.08322247
245	0x3b776581	0.003774971
246	0x3e9297aa	0.28631335
247	0xbd85f90f	-0.06541645
248	0x3e8dcefb	0.27696976
249	0xbb8728a5	-0.0041247183
250	0x3b3f5e55	0.0029200513
251	0xbd985555	-0.07438151
252	0x3d839bbc	0.06426188
253	0xbc3ce417	-0.01152899
254	0xbd07239e	-0.03299295
255	0xbcdd2153	-0.02699343

decoder.rnn.bias_ih_l0 f4 [256]
0	0x3bd4ac59	0.006490272
1	0x3dd12392	0.102118626
2	0x3d1ff944	0.039056078
3	0x3c026bcb	0.00796027
4	0x3e48aff3	0.1959837
5	0x3ca1fc93	0.019773757
6	0x3eb551a4	0.3541385
7	0x3e44d66f	0.19222425
8	0x3e65758c	0.22408122
9	0xbd852aa7	-0.06502276
10	0x3ec79862	0.38983446
11	0x3e226cb7	0.15861784
12	0x3d5f7c0f	0.05456167
13	0xbd3e20e5	-0.04641809
14	0x3d4b8093	0.049683165
15	0xbd7ced6a	-0.061749853
16	0x3dbe1b50	0.09282553
17	0x3e96f498	0.29483485
18	0x3e0e380f	0.13888572
19	0x3e166385	0.14686401
20	0x3eaa103f	0.3321552
21	0x3ea800b8	0.32813048
22	0x3e33505b	0.17511122
23	0x3e1052f6	0.14094147
24	0x3e37cdc4	0.17949587
25	0x3e4c9c88	0.19981587
26	0xbd911b49	-0.07085282
27	0x3e112782	0.14175227
28	0xbd5d8b3b	-0.05408786
29	0x3d9b17af	0.07572877
30	0x3d806e54	0.062710434
31	0x3e822f57	0.25426742
32	0x3dc6135a	0.0967166
33	0x3bfc214c	0.007694399
34	0x3e86ada1	0.26304343
35	0xbdf0b872	-0.1175393
36	0x3e4feb0a	0.20304504
37	0x3e7da975	0.24771674
38	0xbd96a2de	-0.07355283
39	0x3ddf4b13	0.10902991
40	0x3dbcb4f3	0.09214201
41	0x3c90a5bd	0.017657155
42	0x3e35425c	0.17701095
43	0x3dc8a4e6	0.09797077
44	0x3e13c3b2	0.1443012
45	0xbd2eade5	-0.042646307
46	0x3e2842fd	0.16431804
47	0xbd9eaba8	-0.077475846
48	0x3e055c39	0.13023461
49	0x3e24b43e	0.16084382
50	0x3ed2a045	0.411379
51	0xbc9d45fe	-0.019198414
52	0x3c0ee343	0.008721176
53	0x3e445a44	0.19175059
54	0x3dff63b1	0.124701865
55	0x3ce3b7c9	0.027797597
56	0x3e0e46b7	0.13894163
57	0x3ec30bd7	0.3809497
58	0x3e50649a	0.20350876
59	0x3e8c8c55	0.27450815
60	0x3d1710b9	0.036881182
61	0x3dcd39a8	0.10020763
62	0x3e98dba3	0.2985507
63	0x3e2b086c	0.16702431
64	0x3c1580e4	0.009124968
65	0xbcb1353f	-0.021631835
66	0x3e0d1a41	0.13779546
67	0xbd390cc7	-0.0451782
68	0x3d6fe519	0.058568094
69	0x3d439b0b	0.047755282
70	0xbdacebad	-0.08443389
71	0x3d9c54fc	0.07633397
72	0x3dd6d5bf	0.104899876
73	0x3e815015	0.2525641
74	0x3d23a4ae	0.039951973
75	0xbd907520	-0.0705359
76	0x3db1a96a	0.08674891
77	0x3b769bf2	0.0037629572
78	0x3df7e9f0	0.12105167
79	0x3dfe8aa5	0.12428788
80	0x3dd23405	0.10263828
81	0x3dadf564	0.0849407
82	0xbdccc46f	-0.09998404
83	0x3d59bc5a	0.05315814
84	0x3d7d347a	0.061817624
85	0x3c938aa3	0.018010443
86	0xbe1763dd	-0.14784189
87	0xbc41a7b6	-0.011819771
88	0x3da044c8	0.07825619
89	0x3d6b7c3f	0.057491537
90	0x3de59407	0.112098746
91	0x3df94083	0.12170508
92	0x3d305274	0.043047383
93	0x3e5e5b54	0.21714526
94	0x3d5a9d88	0.05337289
95	0xbe0ae736	-0.13564762
96	0xbe2050c5	-0.15655811
97	0x3c891434	0.016733266
98	0x3d1899ca	0.03725604
99	0xbcc5b146	-0.024132382
100	0xbcfa8df2	-0.030585263
101	0xbcc9c7e3	-0.024631446
102	0x3e17ee52	0.14837006
103	0x3cd76e08	0.026297584
104	0xbc61ca96	-0.01378121
105	0xbe05a10f	-0.1304972
106	0x3d800d5b	0.06252547
107	0x3e125f53	0.14294176
108	0x3dc9d634	0.09855309
109	0x3e77a1e5	0.24182852
110	0x3cfea2a9	0.031083422
111	0x3cad259b	0.021136096
112	0xbcb5a738	-0.022174463
113	0x3d733ac3	0.05938221
114	0x3e2116c7	0.15731345
115	0x3e9c9961	0.3058577
116	0xbc0c1a3f	-0.008551179
117	0x3d6d9508	0.058003455
118	0x3c83944f	0.01606193
119	0xbc906a89	-0.017628925
120	0xbd028276	-0.0318627
121	0xbb83e0a1	-0.0040245806
122	0xbdb32ef7	-0.08749192
123	0x3e8234dc	0.25430954
124	0x3da5fd3e	0.08104943
125	0x3d8cad75	0.06869022
126	0xbd64028b	-0.055666488
127	0x3e2a65b7	0.16640364
128	0x3ccc0deb	0.02490898
129	0xbd8ac867	-0.06776505
130	0x3e1ae53f	0.15126513
131	0x3e219146	0.15778074
132	0x3e38adb1	0.18035008
133	0xbce2fc59	-0.02770822
134	0xbd81530e	-0.063146695
135	0x3d0fa32e	0.03506773
136	0xbd62d2bc	-0.055376753
137	0xbd661ff1	-0.056182805
138	0xbe601ab2	-0.21885183
139	0x3b5e7773	0.003394571
140	0x3c9ba289	0.018998401
141	0xbc8cc626	-0.017184328
142	0xbd0c7541	-0.03429151
143	0xb9e80078	-0.00044250838
144	0xbd602abb	-0.05472825
145	0xbd4bd2fe	-0.049761765
146	0xbda9e705	-0.082960166
147	0xbc75d10f	-0.015003457
148	0x3d71d7ec	0.05904381
149	0x3e460a10	0.19339776
150	0x3d30bd7c	0.043149456
151	0xbe102343	-0.14075951
152	0x3c25701b	0.010097529
153	0x3cc1455b	0.023592642
154	0xbd4165ac	-0.047216102
155	0x3e255151	0.16144301
156	0xbcd24bcc	-0.025670908
157	0x3e219972	0.15781191
158	0x3dc5e588	0.0966292
159	0x3deeb44a	0.11655481
160	0x3da00ff6	0.07815544
161	0xbda42668	-0.08015138
162	0x3ddb9c5c	0.107231826
163	0xbe1dd2f0	-0.15412498
164	0xbb9ec0d8	-0.004844766
165	0x3e17fa3f	0.14841555
166	0xbcb7da9e	-0.022443112
167	0x3cedde05	0.029036531
168	0xbda8fb78	-0.08251089
169	0xbcf5b68c	-0.029994272
170	0xbe7fa577	-0.24965464
171	0xbd24c313	-0.0402251
172	0xbd980af9	-0.07423968
173	0x3e482a56	0.195474
174	0xbaa3b4a8	-0.0012489753
175	0xbdd482d3	-0.10376515
176	0x3e15285b	0.14566176
177	0x3e0ee02d	0.13952704
178	0x3e2ad199	0.16681518
179	0x3e04e287	0.12977038
180	0xbdc2ae4d	-0.095059015
181	0x3ce16777	0.027515156
182	0xbda7f469	-0.082009144
183	0x3dad3810	0.08457959
184	0xbd84e8b3	-0.06489696
185	0xb9ca1b49	-0.0003854877
186	0x3c4a6947	0.012354202
187	0xbe481d97	-0.19542538
188	0x3d3d8bee	0.046276025
189	0xbd8b6e32	-0.068081275
190	0xbd9d385b	-0.076767646
191	0x3b6d5862	0.003621601
192	0x3e1c2c3c	0.15251249
193	0x3d3ecc0d	0.046581317
194	0x3e73520e	0.2376177
195	0x3e5f2ac2	0.21793655
196	0x3d1c466b	0.038153093
197	0x3e48c759	0.19607295
198	0x3deeec5c	0.11666176
199	0x3e156503	0.14589314
200	0xbc36d09c	-0.011158135
201	0x3de55822	0.111984506
202	0x3ddecac1	0.10878516
203	0x3e790639	0.2431878
204	0xbd5ee9b9	-0.054422114
205	0x3da876a8	0.08225757
206	0x3e4bac17	0.19889866
207	0x3e1601af	0.1464908
208	0x3df3b15b	0.11899062
209	0x3e50c85a	0.20388928
210	0x3e562118	0.20911062
211	0x3e650e48	0.22368729
212	0x3e22c070	0.15893722
213	0x3da4599e	0.080249056
214	0x3c449a18	0.011999629
215	0x3d877f2b	0.06616052
216	0x3e096d8a	0.13420692
217	0x3db579c2	0.08861114
218	0x3e07762a	0.1322867
219	0x3e21ad20	0.15788698
220	0xbc9b34d5	-0.01894609
221	0x3e678ab0	0.22611499
222	0x3e77c966	0.24197921
223	0x3cf4ab7b	0.029866925
224	0x3c11ec84	0.008906487
225	0x3d686b08	0.056742698
226	0x3d4b9fd9	0.04971299
227	0x3d3bda45	0.045862455
228	0x3e154797	0.1457809
229	0x3e86a0e4	0.26294625
230	0x3e28f7cc	0.16500777
231	0x3dce34b8	0.10068649
232	0x3e2100c8	0.15722954
233	0x3d92da7f	0.07170581
234	0x3e6d5c2b	0.2317969
235	0x3e2540c5	0.16137989
236	0x3d2a4446	0.041569017
237	0x3ea96f25	0.3309261
238	0x3e274fe0	0.16339064
239	0x3e8fa133	0.28052673
240	0x3deb846b	0.11499866
241	0x3e83862c	0.25688303
242	0x3e8fe6f1	0.28105882
243	0x3e3f8250	0.18702054
244	0x3dfe02b8	0.12402862
245	0x3b263d07	0.0025365965
246	0x3ee44f46	0.4459173
247	0x3de979d8	0.11400193
248	0x3dad9db5	0.08477346
249	0xbc4d8c82	-0.012545707
250	0x3d6fe97b	0.058572274
251	0x3e3b20ff	0.18274306
252	0x3de7fd5b	0.113276206
253	0x3e5a1c78	0.21299922
254	0x3e6d8d2e	0.23198387
255	0x3d9f3ac6	0.07774882
