detector_dev/test_detection_normalizing/models/cnn_lstm_ae_absolute_values_mixed_detector.pt (torch, 129255 bytes, 12 tensors)

encoder.cnn.weight f4 [8, 4, 16]
000000 0d de a3 3d 23 dd d4 3d 78 2d 1c 3e 58 13 da 3d
       0.08001337 0.10393741 0.1525172 0.10648221
000010 a4 f0 c8 3d 05 bc cd 3d f7 dc ca 3d eb 01 a0 3d
       0.098115236 0.100456275 0.09905427 0.07812866
000020 9f 2e c5 3d ec 73 f1 3d 58 cc fa 3d d4 32 97 3d
       0.09628033 0.117896885 0.12246007 0.073827416
000030 ca e7 a3 3d a4 02 cf 3d f5 7d 1a 3e a9 eb ee 3d
       0.08003195 0.101079255 0.15087111 0.11666042
000040 6e 6a b4 3e 65 f3 90 3e 2a 2d 8b 3e 2a cf 62 3e
       0.3523745 0.28310695 0.27182895 0.2214934
000050 4d 7b 35 3e ab 77 14 3e 4c 53 db 3d eb 21 8d 3d
       0.17722817 0.14498775 0.10709247 0.06891235
000060 44 00 a2 3d 6b 68 20 3d bd 45 a1 3d c2 9f cf 3d
       0.07910207 0.03916208 0.0787463 0.10137893
000070 c1 d9 ae 3d db 3c b7 3d af 66 b4 3d c6 d6 06 3e
       0.08537627 0.08947154 0.08808648 0.13167867
000080 eb c9 19 be d5 5d 01 be ae 4d ed bd 63 af 13 bd
       -0.15018432 -0.1263345 -0.11587082 -0.036055934
000090 82 ff 85 bd 71 6d 99 bd ce 01 a3 bd da 54 8c bc
       -0.06542875 -0.074915774 -0.079593286 -0.017130304
0000a0 d8 0c 94 bc 6c 0b a0 bd 53 d3 59 bd a2 49 d3 3b
       -0.01807253 -0.078146785 -0.05318005 0.0064479867
0000b0 ad ee 02 bb 82 b8 2a bb db 71 a4 bc 2e 26 94 bd
       -0.0019978688 -0.0026049917 -0.020073822 -0.07233845
0000c0 d5 61 8b 3e fc 72 55 3e 7d bd 43 3e b8 2b 32 3e
       0.27223077 0.20844644 0.19115253 0.1739949
0000d0 3e fe 4a 3e 71 46 36 3e 62 e8 02 3e 31 fe 09 3e
       0.19823548 0.17800309 0.1278396 0.13475873
0000e0 78 29 1d 3e ef 3d 3f 3e 5e 29 23 3e 66 ef 0e 3e
       0.1534785 0.1867597 0.15933749 0.13958511
0000f0 12 14 fc 3d 4d 70 0e 3e 7e 01 18 3e b6 7c ba 3d
       0.123085156 0.13910027 0.14844319 0.09105818
000100 0f 93 95 bb 5c cf 5f 3c b3 8a e0 3d c8 59 b7 3d
       -0.00456465 0.013660278 0.10963955 0.08952671
000110 cd 92 3a 3c e6 49 dd 3c 4b bf a4 bd 30 72 14 3d
       0.011387539 0.027012777 -0.08044299 0.03624171
000120 92 66 3a bd c3 37 d0 3d 89 1e 81 bd ab 8f 82 3c
       -0.045507975 0.10166886 -0.06304652 0.015937647
000130 7f 66 6c 3d 54 c7 e8 bc 1b 3f 00 bd cf 4d 13 bd
       0.057714935 -0.02841536 -0.031310182 -0.035962876
000140 90 c7 d8 3d d5 5e d3 3d 34 0d 05 bb b2 f2 7a bb
       0.105849385 0.10320822 -0.002030206 -0.003829163
000150 a6 43 c8 bb 6c f8 a1 bd 1a 5a 59 3d ba c6 05 3b
       -0.00611158 -0.07908711 0.053064443 0.002041264
000160 e8 90 62 bd 4b 39 0c bd 95 09 b7 bd 4b 4b 14 bd
       -0.055313975 -0.034234326 -0.089373745 -0.036204617
000170 a1 c7 ca 3d 7e f1 82 3d b7 b2 22 3b a7 1e 4f 3c
       0.099013574 0.06393717 0.002482576 0.012641585
000180 cc d7 a1 bd 88 d8 03 ba d6 0c 7a bd 5c 68 fd bc
       -0.07902488 -0.0005029519 -0.061047398 -0.030933551
000190 4c 97 12 bc 08 89 a2 bd f5 2f c3 bc 4c e6 9f bb
       -0.008947205 -0.07936293 -0.023826579 -0.0048797484
0001a0 e8 20 ff bd 83 f8 a7 bd 0d 72 c6 bd c9 fb 12 be
       -0.12457448 -0.08201697 -0.09689722 -0.14353861
0001b0 c4 ca c2 bd 5b e3 a2 bd ae 9a 9a bd 90 17 81 3c
       -0.09511331 -0.07953521 -0.07549034 0.015758306
0001c0 f1 e4 6c bc 0c 9d 0c 3d c6 e2 9c bb ea 44 36 ba
       -0.014458881 0.03432946 -0.0047877757 -0.0006953018
0001d0 c7 6f 24 3d 50 5a a3 bd 49 17 fa bb 52 93 54 bb
       0.04014566 -0.0797621 -0.0076321703 -0.0032436443
0001e0 5a 02 98 3d 17 fb 7e bc 7e ad 98 bd 15 11 8d 3c
       0.074223235 -0.015562794 -0.07454966 0.01722006
0001f0 71 84 2d 3d 57 4f 02 3e 8b ae 73 3d a0 2d 37 bc
       0.042362634 0.12725578 0.05949263 -0.011180311
000200 16 89 29 bc a1 7b 1d 3e ab 43 a6 3d 1d 93 04 3e
       -0.010347625 0.15379192 0.081183754 0.12946744
000210 9e 97 25 bd f9 83 bf 3d 32 63 04 3e 83 65 a5 3d
       -0.040427797 0.09351344 0.12928465 0.080760024
000220 e8 f8 29 3e e1 68 03 bd 8a 6f 25 3e ef ac 12 3d
       0.16598856 -0.032082442 0.1615583 0.035809454
000230 d7 15 d2 bc 1c 14 4f 3d 17 f7 ef 3d 8f e2 4f 3d
       -0.02564518 0.050556287 0.117170505 0.050753172
000240 fe 39 c9 3d e0 9d 4c 3c 0b e8 9b ba c9 fc 40 3d
       0.09825514 0.012488812 -0.0011894716 0.047116075
000250 cf c9 f1 bc 7c 87 95 3d c9 d9 09 3d 1e 77 84 3d
       -0.029515175 0.07301232 0.03365496 0.06468032
000260 0c d7 07 bd 45 e1 9b bb 36 6d d4 3c cd 47 c8 bc
       -0.03316407 -0.004757079 0.025930982 -0.0244483
000270 4f 51 ca bd 33 f9 0b be e5 78 9a bd 5d 46 d9 bd
       -0.0987879 -0.1366928 -0.0754259 -0.10609124
000280 78 a7 f4 bd 6f e4 0f be 6e 2b e2 3c e1 67 22 be
       -0.11946005 -0.14051984 0.0276086 -0.15859939
000290 c2 0e 4a bc 93 7a 50 3d 84 6e fe bd b6 32 1f 3c
       -0.01233262 0.050898146 -0.12423423 0.00971668
0002a0 61 4b c8 bd b1 c7 6d bd a5 bc 32 ba 40 b3 4c bd
       -0.097800024 -0.05805177 -0.00068182714 -0.049975634
0002b0 dd fa 60 3b 36 56 d4 bd c4 8c fe bb ca 26 0b bd
       0.0034329214 -0.10368006 -0.0077682454 -0.03397254
0002c0 80 a2 b1 3d 97 ad 0e 3d 8f 98 9f 3c 8b b0 0b 3d
       0.086735725 0.034833517 0.019481925 0.03410391
0002d0 34 83 5a 3d 9c 0e 33 3c e4 e0 23 bd db 6d fc 3c
       0.05334778 0.010928776 -0.040009394 0.030814102
0002e0 6c eb 80 3d a9 45 d8 3c e7 33 af 3d da 92 30 3d
       0.06294903 0.026400404 0.085548215 0.0431088
0002f0 03 de 1b 3d 0b ec d5 3d ac 57 7c ba fe 66 a3 3c
       0.038053524 0.10445412 -0.0009626101 0.019946571
000300 0b 8a fa 3d 87 ca ca 3d 1e e4 03 3e 0d b0 48 3d
       0.12233361 0.0990191 0.12879989 0.04899602
000310 75 a8 fd bc 17 82 fb 3d ae dc 61 bc cb ee c2 bd
       -0.030964116 0.12280672 -0.013785524 -0.095182024
000320 d8 22 c6 bc 77 16 c1 bb b8 b5 18 3d aa 67 23 3d
       -0.024186537 -0.0058925706 0.037282676 0.039893784
000330 d2 0f 4b 3d 68 0e b9 3d 63 a9 2f 3c 24 59 52 bd
       0.049575634 0.09035951 0.010721537 -0.051354542
000340 e5 46 0a 3e 7d a7 eb 3d 48 ac a4 3d 00 92 4e 3d
       0.13503607 0.11506555 0.080406725 0.050432205
000350 bc 3b 3f bc 6f ae cc 3d 93 bd 18 3e 26 32 ec bc
       -0.011671957 0.09994208 0.14916067 -0.028832506
000360 51 f4 61 3d 98 1a 00 3d f6 5f 59 bd ad 93 8c 3c
       0.05516464 0.03127536 -0.05307003 0.017160261
000370 b1 71 9e 3d 45 27 1c 3e 24 2b 8e 3d ef d3 a8 3c
       0.07736529 0.15249355 0.06941822 0.02060887
000380 8a 83 01 bb d8 92 36 3d ac bd 0d be c0 1d 09 bd
       -0.0019762241 0.044573635 -0.13841885 -0.033475637
000390 af 8d b2 bd 7e dd c6 bd 44 95 0f be 1e e4 60 bc
       -0.0871843 -0.09710215 -0.14021784 -0.013726262
0003a0 ad 9d b0 3d 4a 3d 5a bd 25 ca df bd a9 42 1b bd
       0.08623824 -0.053281106 -0.10927228 -0.03790537
0003b0 5d a8 a5 3a 7e b6 0c bd 5a 27 2c 3d 4a 72 84 bd
       0.0012638677 -0.034353726 0.042029716 -0.064671114
0003c0 a3 f6 3c bd e1 b6 13 bd 74 13 87 3d 50 f8 02 3d
       -0.04613365 -0.03606308 0.06595507 0.03197509
0003d0 4c be f0 3d bb 3c 97 bd f2 93 a0 bd 93 22 88 3d
       0.11755046 -0.0738463 -0.07840718 0.066472195
0003e0 04 8d 01 bc ba 13 be 3d 1a c5 0c 3d a2 6a 96 bd
       -0.007907156 0.09281106 0.03436766 -0.07344557
0003f0 eb 7e 4c 3d 29 3f 31 3d 79 e1 28 bd e8 aa 7c bd
       0.049925726 0.043273125 -0.041230652 -0.061686426

encoder.cnn.bias f4 [8]
000000 ad 2a 6d 3d 82 da af bc a0 b9 9b 3d 8e ca 81 3c
       0.057902027 -0.021466497 0.076037645 0.015843656
000010 4a 3a 32 3e 2c 60 23 3c ee e0 43 be 04 51 f8 3e
       0.17405048 0.00997166 -0.19128773 0.4849931

encoder.rnn.weight_ih_l0 f4 [128, 8]
000000 3e 38 aa 3d 3f dc 53 bd 2d 9f a2 bd 44 b2 99 bd
       0.083115086 -0.051723715 -0.079405166 -0.075047046
000010 be a7 75 3d 0d 68 a4 3d 8d 50 3c be 35 07 66 3c
       0.059974425 0.080276586 -0.18390103 0.014039804
000020 17 ec 15 be e1 af 6e be 9e ba 8b bd ec 54 4e be
       -0.14640842 -0.2330928 -0.06822704 -0.20149583
000030 a1 8c 8f be af f2 64 be ea 47 a2 bd 50 ca d6 bd
       -0.2803698 -0.22358201 -0.07923873 -0.10487807
000040 91 68 70 3d c0 22 1e be 41 f9 7b be 60 45 c6 bc
       0.058693472 -0.15442944 -0.24606802 -0.024203002
000050 4e d9 62 bd 4d b1 56 be f6 dd 02 be 5e 38 d7 bc
       -0.05538302 -0.20966072 -0.12779984 -0.026271995
000060 da b4 eb bd 19 c5 bf bd 2a bb 05 be 07 ce 8c be
       -0.11509104 -0.09363765 -0.13059679 -0.27500936
000070 76 73 00 be aa ef a2 be f5 30 d4 be 5b eb e2 be
       -0.12544045 -0.31823474 -0.414436 -0.44320187
000080 d3 63 a2 bc 1a b4 9d bd 66 78 5f bd 79 e0 a9 bc
       -0.01982299 -0.07700367 -0.05455818 -0.02073692
000090 e4 83 78 bd ed 71 5a bc aa 04 65 3c be 3f 65 3d
       -0.060672656 -0.013332826 0.013978163 0.055968992
0000a0 1a d1 8e 3d b4 98 73 bd 45 55 e2 3d 3e 34 b6 3d
       0.06973477 -0.0594718 0.1105142 0.08896683
0000b0 a6 e2 22 bd c7 d7 89 bd c6 b6 ae bd 94 59 e6 3c
       -0.03976693 -0.067306094 -0.08530955 0.028118886
0000c0 80 d7 7e bd 7b 1d e9 3d 5a 4d 14 3e 96 0f 22 3e
       -0.062217236 0.11382576 0.14482632 0.15826258
0000d0 80 89 56 bd a1 e4 00 be e5 60 0f 3e 11 10 ac 3d
       -0.052377224 -0.12587215 0.14001806 0.08401502
0000e0 10 15 85 be 9c 1d d6 bc 82 95 7a be a3 ef a4 be
       -0.25992632 -0.026137166 -0.24471095 -0.32214078
0000f0 b0 84 87 be 93 b8 bd be 65 50 b4 be df 84 cf bd
       -0.2646842 -0.3705488 -0.35217586 -0.10132765
000100 c0 1b ce bd e3 7d 57 be 97 1d 8e be 43 96 6a bd
       -0.10063887 -0.21044116 -0.2775695 -0.057272207
000110 d8 1c 41 be 40 3f 8c be 57 de 70 be 9f e5 a1 be
       -0.1885866 -0.27392006 -0.23522316 -0.316205
000120 0f 89 3b ba 88 52 84 be 0c b4 51 be 35 81 dd bd
       -0.0007153907 -0.25844216 -0.20478839 -0.1081566
000130 20 14 88 be 92 08 34 be 56 60 79 be 68 01 06 be
       -0.26577854 -0.17581394 -0.24353155 -0.13086474
000140 e1 0f d6 bd d0 b6 30 bd 24 5c 94 3d 1c f9 22 3e
       -0.104522474 -0.043143094 0.07244137 0.1591534
000150 1b ce 06 be f1 15 8c 3c e2 64 29 be 42 8b 13 3d
       -0.1316456 0.017100306 -0.1654239 0.03602148
000160 20 7b 9a 3d 0d d6 cd 3d cf d5 b8 3d b4 1d 28 be
       0.075430155 0.100505926 0.09025156 -0.16417581
000170 73 b0 3e be c9 49 1a be 98 e2 0c bd 7c 11 29 be
       -0.18621998 -0.1506721 -0.034395784 -0.16510576
000180 cc 17 08 bd 43 2a 35 be 1f ca 38 be 6c 6c d3 3c
       -0.03322582 -0.17691903 -0.18045853 0.025808536
000190 db a8 7d be 04 f5 c5 bd 91 bb 73 bc 82 0c 98 bc
       -0.24771444 -0.09665874 -0.014876262 -0.018560652
0001a0 fb 31 cd bd bb 16 5e be 7e 00 16 be 7f 4c 63 be
       -0.10019299 -0.21688358 -0.14648625 -0.2219715
0001b0 1b c9 8a be f2 37 f9 bd e8 50 8f be b2 f5 60 be
       -0.27106556 -0.12168874 -0.27991414 -0.21968725
0001c0 ec 5e 0c 3d 8c b9 99 3d 50 50 f3 bc 5b 22 86 3c
       0.034270212 0.075060934 -0.029701382 0.016373804
0001d0 96 ad 46 bd e2 87 0a 3d d3 93 28 be 30 4c 54 be
       -0.04850539 0.033820994 -0.1646264 -0.20732188
0001e0 58 ed 3e bc 98 ed ce bd 2d dd cf bd f5 14 99 be
       -0.011653267 -0.10103911 -0.10149608 -0.298988
0001f0 4b db 8c be 70 29 ef bb 64 ae a5 bd 2b 39 95 be
       -0.27511057 -0.007298641 -0.08089903 -0.29145178
000200 e6 88 f6 3d 8e 49 b4 3c 67 ef 1c be 61 a8 38 3d
       0.1203783 0.02200773 -0.153257 0.045082454
000210 70 92 b4 bd be 4a a6 bd eb 02 82 be 4b 2b 79 be
       -0.08816993 -0.08119725 -0.2539285 -0.24332921
000220 b1 15 80 be ad 01 86 be 88 6f 8a be 7d 89 d7 bd
       -0.2501655 -0.26173154 -0.27038217 -0.10524271
000230 a0 0c b2 bc 98 0d 3b bd 98 42 99 3b 2f f3 42 bd
       -0.021734536 -0.04566726 0.004677128 -0.0475952
000240 9f 87 1d 3e 82 20 42 be 29 02 ab 3d 81 95 45 be
       0.15383767 -0.18957713 0.083500214 -0.19295312
000250 50 cd ad bc 44 cd df 3c 15 df 42 3e 53 98 14 3e
       -0.021216065 0.027319558 0.19030412 0.14511232
000260 4e c7 e4 bd ea 53 01 be 1f 28 0c 3e ea 48 bc bd
       -0.11170827 -0.12629667 0.1368718 -0.09193595
000270 f3 6c 38 be 97 49 e4 3a fb 1f 4a 3d 2e 81 8b bd
       -0.18010311 0.0017416951 0.049346905 -0.068117484
000280 2b 1d 99 be d1 43 a3 3b 63 b1 01 3d 91 99 e7 bd
       -0.29905066 0.0049824496 0.03166331 -0.11308587
000290 95 97 92 bd 61 98 54 be 4c 71 03 3e 3f fb 0c 3e
       -0.07157818 -0.20761253 0.12836188 0.13767718
0002a0 4c 85 d8 bd 0c 98 22 be 2f c6 45 3c ec 52 11 be
       -0.10572299 -0.15878314 0.012071176 -0.14191788
0002b0 7c ce 9f 3d d1 e9 bf 3b 56 29 87 bd 4d 91 1a 3d
       0.07803056 0.0058567305 -0.06599681 0.037736226
0002c0 2a ca 3c 3c 47 4e 62 be ad ee b6 be e0 25 c0 be
       0.011522809 -0.22100173 -0.3572897 -0.37528896
0002d0 31 60 13 be ff 60 2b be 43 b9 9c be 3f 4a 80 be
       -0.14392163 -0.1673622 -0.30610093 -0.25056645
0002e0 ce 35 dd 3c 86 0a 27 bd 82 76 c8 ba ff f7 21 bd
       0.027003195 -0.04078152 -0.0015294107 -0.039543148
0002f0 e2 94 4b 3e 5b 45 6b bd 61 b5 d6 bd 50 5c dd bc
       0.19881013 -0.05743919 -0.10483814 -0.027021557
000300 b7 2c e3 3d 50 90 85 3d 43 69 35 3e 7a 7a 91 bd
       0.11092513 0.06521666 0.17715935 -0.07103439
000310 9b bf d6 3d af 99 60 bb 8a 95 35 bd b3 74 c8 bd
       0.104857646 -0.003427129 -0.044332065 -0.097878836
000320 88 49 27 be 8b ac e3 3d b2 f2 7d 3d 21 a7 87 3d
       -0.16336644 0.11116894 0.06199903 0.06623674
000330 fe 47 4f be 9c 05 96 bd 78 28 10 3d 2d 76 5c bd
       -0.20242307 -0.07325289 0.035194844 -0.05382364
000340 f0 20 b6 bd d6 d7 3b be de 4a f9 3c eb 42 1c be
       -0.08893001 -0.18344054 0.030431207 -0.15259902
000350 8c 51 5d be 80 dc 26 be 9c 15 87 3d 43 dd a2 3d
       -0.21613139 -0.16295052 0.065959185 0.079523586
000360 1d ce f3 bc cd bf 13 be 1c a7 81 3d 6c 57 5c be
       -0.029761368 -0.14428635 0.06330702 -0.21517724
000370 92 7c 4c be 93 37 42 be b0 c5 e2 3c 3a 66 d6 3d
       -0.19969395 -0.18966512 0.027682155 0.10468717
000380 31 14 5d be 40 9f 6a be 9f 3c 92 be 6c 51 8c be
       -0.21589734 -0.22912312 -0.28561875 -0.2740587
000390 69 04 4a be bb e7 70 be 6c e1 7b be 7f 82 2a be
       -0.19728245 -0.23525898 -0.2459771 -0.16651343
0003a0 0c 79 b7 bc 67 c0 69 3d 98 ca 0c 3e 63 be 02 3e
       -0.022396587 0.057068255 0.13749158 0.1276794
0003b0 07 54 11 3e 56 53 ec 3d 35 05 03 bc 48 fa e6 3c
       0.1419221 0.115393326 -0.007996847 0.028195515
0003c0 d3 95 fd 39 63 62 7c 3d 7c c9 b7 3d c6 67 5b be
       0.00048367548 0.061617266 0.08973977 -0.21426305
0003d0 5f 80 10 be b1 86 3f be ae 5a 5a bd d6 1e 50 be
       -0.1411147 -0.18703724 -0.053309135 -0.20324263
0003e0 f4 19 08 3d 16 85 b0 bd 5d 11 44 bd 50 03 18 3e
       0.033227876 -0.08619134 -0.04786812 0.14845014
0003f0 84 8b 11 be 0d 55 16 be 9b b2 1e 3d 2c a7 85 bd
       -0.14213377 -0.14680882 0.03874455 -0.06526026

encoder.rnn.weight_hh_l0 f4 [128, 32]
000000 ac 0e 26 be ed 79 e3 3d d6 5a 7c bc b5 9d aa 3d
       -0.16216534 0.1110724 -0.015402516 0.083308615
000010 15 9f 88 be 33 ee 4f 3e 81 56 5e 3e 4f 06 1e be
       -0.2668387 0.2030571 0.21712686 -0.15432094
000020 86 cd e0 3d 60 d7 00 3e 5a a9 81 3d 1c ab 99 bc
       0.109767005 0.12582159 0.06331129 -0.01875835
000030 ff 7d af 3d 7f c4 4a 3e f6 c0 5c 3e 55 2b cf 3d
       0.08568954 0.1980152 0.21557984 0.10115687
000040 37 6c 56 3d 31 ac 19 be 31 a7 88 bd e4 be 0f 3d
       0.052349295 -0.15007092 -0.06672514 0.035094157
000050 c0 43 8f be 75 da 59 3e 65 28 4d 3e 27 8c 21 bd
       -0.27981377 0.21274741 0.2003494 -0.0394403
000060 7a 96 7b be 14 7b 48 bd 11 8b 24 be c1 7e a8 3d
       -0.24569121 -0.0489455 -0.16068675 0.082273014
000070 80 ba ec bd a5 09 47 3c 79 71 a3 be 74 ec b1 bc
       -0.115590096 0.0121482955 -0.3192251 -0.021719195
000080 0d 21 74 be eb 98 e3 bd c6 48 2f bd 81 50 cc 3d
       -0.23840733 -0.11113151 -0.04279401 0.099762924
000090 7a 40 08 bd 18 4c eb 3c 84 9d 54 bd e6 5c ae be
       -0.033264615 0.028722808 -0.05190803 -0.3405525
0000a0 b7 62 91 3e e7 28 28 be 05 d5 59 3e 87 87 51 3d
       0.28395626 -0.16421853 0.21272667 0.05115464
0000b0 e4 7b 77 3d fc e1 71 3e 9c 0f 53 be ab e7 77 be
       0.060420886 0.23621362 -0.20611423 -0.24209468
0000c0 e1 97 37 3d dc 7e b7 bd 34 f1 1b be e3 ca fd 3c
       0.044822577 -0.089597434 -0.1522873 0.030980533
0000d0 80 29 21 bc fc 81 92 3d cc cd e5 3d c7 ed c4 3d
       -0.0098365545 0.07153699 0.11220893 0.09615665
0000e0 64 ab f3 3c 87 60 f1 bd b1 ae 52 3e 0b 6c 71 3d
       0.029744811 -0.11785989 0.20574452 0.05894093
0000f0 92 e1 84 3c d0 ca 2e be 9f e8 92 bd 8b c2 12 3d
       0.016220842 -0.17069554 -0.07173275 0.035830062
000100 1b 00 6c be 3b f4 97 3d 20 4e 8d bd 79 77 7a 3e
       -0.23046915 0.0741963 -0.06899667 0.24459638
000110 0a 0d 0b 3e f3 63 0f 3e 72 ac be 3b 49 f8 fd 3d
       0.13579193 0.14002971 0.005818897 0.12400872
000120 40 6c 03 be d2 33 7e 3e 99 d5 a2 bc 83 c6 8d 3e
       -0.12834263 0.24824455 -0.019877242 0.27690515
000130 d8 fc 1c be 45 7b b0 bd bd 4f 7c bd 8a 74 d2 3e
       -0.15330827 -0.08617262 -0.06159948 0.41104537
000140 6b d5 12 3e 5f 3b 32 be 85 18 1c bf c1 fc b2 3e
       0.14339225 -0.17405461 -0.60974914 0.3495846
000150 e4 eb bf 3c 27 21 4d be f0 2d 0a 3f ca 01 55 be
       0.023427911 -0.20032178 0.53976345 -0.20801464
000160 71 2f 62 3e 2e b6 33 3e d8 84 46 be 57 cd c6 3e
       0.2208841 0.17549965 -0.19386613 0.38828537
000170 00 83 89 3e 79 e6 03 3e 85 30 59 3e c4 33 d9 3d
       0.26857758 0.12880887 0.21209915 0.10605577
000180 f6 03 b6 bc 68 5f b1 3d cb ba b3 3c 9c 52 4d 3d
       -0.022218686 0.086607754 0.021939656 0.05012761
000190 f0 5c 8e bc 1d 23 5b be 05 b6 55 3e cd 80 47 be
       -0.0173783 -0.21400113 0.20870216 -0.19482727
0001a0 8f 86 39 3e 0e 0d 77 be b4 40 1e 3e 06 7d e3 bc
       0.18117736 -0.24126074 0.1545437 -0.027769577
0001b0 e2 2c 00 bc 6b 0f 6f 3e a6 90 17 be 81 df 0c be
       -0.007823201 0.23345725 -0.14801273 -0.13757135
0001c0 f9 4f f5 3d 41 40 b7 3c 1c df c3 3e b1 c9 1e bd
       0.11978144 0.022369506 0.38256156 -0.038766567
0001d0 3f a9 a0 be 9e 06 b3 3e 51 b0 4f 3e 83 46 50 3d
       -0.31379125 0.34965986 0.20282103 0.050848495
0001e0 9a 76 29 3d ee 80 d1 be 31 05 1a 3e cd 75 9e 3e
       0.041372873 -0.40918678 0.15041043 0.3094925
0001f0 91 a8 07 3c 79 6f 63 be ea b1 8a be 03 16 25 be
       0.008279935 -0.22210492 -0.27088863 -0.16121678
000200 c3 aa 76 3e 4a eb 03 3e 59 f3 55 3e 00 ce 9e be
       0.24088578 0.12882724 0.20893611 -0.3101654
000210 22 d0 e1 be d7 7b be 3e e7 14 aa be 7b 5f 19 3e
       -0.44104105 0.37203857 -0.33219072 0.14977829
000220 4f 78 15 be e9 8e 56 3e 56 12 6e bd 69 be c1 be
       -0.14596675 0.20952953 -0.058122955 -0.37840584
000230 50 ab da 3d 7e 31 b0 be 36 f3 4b 3d 30 7a 8d 3e
       0.106772065 -0.3441276 0.04979249 0.27632284
000240 f5 5d 08 be 4c 78 2b be a1 f0 6e bc 42 b2 23 3e
       -0.13317092 -0.16745108 -0.014583738 0.15985969
000250 91 cb ef bc 3e 20 7e be 17 59 89 be 1c c9 a7 bd
       -0.029271873 -0.24816987 -0.26825783 -0.081926554
000260 85 bf 76 3e 47 17 65 3e cd ce 89 be 37 96 d9 be
       0.24096496 0.22372161 -0.2691559 -0.42497417
000270 97 cf 44 3e d1 93 c4 3d af 77 90 3d cf ad 0a 3d
       0.19219814 0.09598506 0.07054078 0.033857163
000280 e4 5d 65 3e ac 8e b0 3e 86 5f 1a 3e 39 44 89 3c
       0.22399098 0.3448385 0.15075502 0.016756164
000290 43 d4 8e 3e be 2f d9 3e e5 65 92 be 85 99 33 3e
       0.27896318 0.42419237 -0.28593364 0.17539032
0002a0 50 00 6b be c7 c7 c0 3e 55 dd e4 3e ee 51 02 3d
       -0.22949338 0.37652418 0.44700113 0.031816415
0002b0 5c 7c ab be bb 25 a0 bd 3d c3 c7 be eb fb 82 bd
       -0.33493316 -0.078196965 -0.39016142 -0.06395706
0002c0 c3 ad e2 3d 76 13 a8 be 61 c0 94 bb 17 48 16 bf
       0.11068299 -0.32827348 -0.004539535 -0.5870375
0002d0 3c f0 72 3e 7d 3a dc bd 8f 75 7c 3e 71 cd 95 3e
       0.23724455 -0.10753343 0.2465422 0.29258302
0002e0 4b 93 17 3e 7d c9 0e bf ef bc 34 bd 05 c9 89 bd
       0.14802282 -0.55776197 -0.044125494 -0.067277946
0002f0 7d 24 bc 3e 4f d9 22 3c 38 98 89 3e c4 cb 20 3e
       0.36746588 0.009939506 0.26873946 0.1570273
000300 0b aa 47 3d ea 30 a5 be fe 69 a3 bd ec d5 81 bc
       0.04874615 -0.3226388 -0.07979201 -0.015849076
000310 32 ce 9d be 55 cc cf 3c 81 0d e6 bd 5b 21 73 3b
       -0.30821377 0.025365988 -0.112330444 0.0037098739
000320 36 79 71 3e a7 88 6a be 2e 7c fc bd 82 d0 6b bd
       0.23581395 -0.22903691 -0.12328373 -0.057571895
000330 e1 30 7e 3e 20 4e bb 37 e1 ba b8 bd f1 50 eb bd
       0.24823333 2.2328517e-05 -0.09020019 -0.11490048
000340 5d 09 0a 3e 06 08 b0 3d 8d 9f 21 3d fd 25 67 be
       0.13480134 0.0859528 0.0394588 -0.22573085
000350 b9 ee 14 be 1e e7 16 3e e7 ac a8 bb ea 90 21 be
       -0.1454419 0.14736602 -0.0051475647 -0.15777937
000360 93 4e 3c be 3a 0d c1 bd 0e 18 62 3d a2 b1 d4 3c
       -0.18389349 -0.09426351 0.05519872 0.025963608
000370 1d 56 12 3d 7b 64 74 be aa 65 0b bd c0 0f f3 3d
       0.035726655 -0.23866455 -0.0340325 0.118682384
000380 1e 0b 2a bb 9b f7 9c 3c fc 0e 26 be 1f 2d f3 3d
       -0.0025946568 0.019161036 -0.16216654 0.118738405
000390 96 d3 3d 3c 77 33 ab 3d e2 48 d7 bd 3b b0 80 bc
       0.011586091 0.083594255 -0.10511948 -0.015709033
0003a0 78 e7 1b bc eb bd 10 bc 93 b7 b7 bd bb 0e c0 bd
       -0.009515636 -0.0088343425 -0.08970561 -0.093778096
0003b0 0b 45 8f 3d 66 9c 1c 3e 66 9d 03 3d 4f e7 25 3d
       0.06995591 0.15294036 0.03213253 0.040503796
0003c0 f0 1d 06 3d cb be f9 bc 33 be 95 bd 56 2b eb bd
       0.032743394 -0.030486485 -0.07311668 -0.11482875
0003d0 a8 b3 01 bd 1c 54 5e 3d ba 2d 84 3e 96 96 a3 bd
       -0.031665474 0.05427943 0.25816137 -0.07987706
0003e0 d8 9b 4d 3e 9e 58 c3 bd 67 10 b4 3d 12 eb f7 3d
       0.20078981 -0.09538387 0.08792191 0.12105383
0003f0 eb 05 e1 bd 5d f3 4c be c4 10 d1 3d 39 65 61 3d
       -0.10987457 -0.2001471 0.10208276 0.055028174

encoder.rnn.bias_ih_l0 f4 [128]
000000 82 1f cd 3d ce 77 c1 3d 33 35 ee bd 6d 45 97 3e
       0.10015775 0.09446679 -0.11631241 0.29545155
000010 58 81 4b be 61 36 2c bd 25 f5 87 3e 2d 99 16 bc
       -0.1987356 -0.042044047 0.26554218 -0.009191793
000020 8d 53 3a 3e aa 9d 03 3d cb fc f6 bd f1 cc b4 bd
       0.18195935 0.032132782 -0.12059935 -0.08828152
000030 07 bc b0 bd 80 42 5c bd 75 b2 2b be 7c 5c 1a bd
       -0.08629613 -0.053774357 -0.16767295 -0.037685856
000040 20 97 09 be fd 85 c5 3e e2 ae 31 3d d1 60 a1 be
       -0.13436556 0.38578787 0.043379672 -0.31519178
000050 0f 3e 80 3e 51 90 54 3e 4e 80 a4 3b c6 ff 1a be
       0.25047347 0.20758177 0.005020178 -0.15136632
000060 71 48 ba 3e 87 83 41 be 01 b7 35 be 7c 65 08 bd
       0.36383393 -0.1889783 -0.17745592 -0.033299908
000070 b9 c9 88 3e 58 b5 96 3d bd 7b 80 3e 97 90 84 be
       0.26716402 0.07358807 0.25094405 -0.25891563
000080 1f 68 13 3e 9a 5c 01 3e 5d 3d 79 bd f4 10 b7 bd
       0.14395188 0.12632981 -0.060849536 -0.089387804
000090 f3 4c 88 bd 2c 11 03 3f 3c d7 e8 39 48 ac 64 3e
       -0.06655302 0.5119808 0.0004441085 0.22331345
0000a0 c6 23 24 3e 30 b5 8d 3e 09 a8 87 3d 0d d9 a5 be
       0.16029271 0.27677298 0.06623847 -0.3239216
0000b0 0e 3d 2e 3e 04 8d 91 bd 03 57 4a 3e 14 02 7a 3e
       0.17015478 -0.07106975 0.19759755 0.24414855
0000c0 b6 06 75 3d 2b 11 01 3f a2 15 b7 3e 66 52 7a 3d
       0.059820853 0.5041682 0.35758692 0.061113738
0000d0 02 b4 1b be 7d 0c 50 3d 01 c1 e2 bd b7 e1 97 3d
       -0.15205386 0.05079316 -0.11071969 0.074160986
0000e0 0d 6d 86 3e 64 8d 57 bd 80 5e b5 3e a1 b1 67 bd
       0.26255074 -0.052625075 0.3542366 -0.056565885
0000f0 23 ee a9 3e 0a 74 76 be db 07 72 3e dd 43 ef 3c
       0.33189496 -0.24067703 0.23635809 0.029207164
000100 76 f2 87 be c0 d6 b5 bd b4 61 02 3e c0 33 c0 3d
       -0.2655217 -0.08878851 0.12732583 0.093848705
000110 13 82 8f be 8b 8a c5 3d 08 73 64 3e 9b 2e 8c be
       -0.28028926 0.096455656 0.22309506 -0.27379307
000120 7e da 49 3d 9b 43 d4 3d 37 0b ba bd eb 08 f1 3c
       0.049280636 0.10364457 -0.0908417 0.029423198
000130 10 57 63 3e 96 18 47 3e 7b 3f f6 bd 63 23 af 3d
       0.2220118 0.19442973 -0.12023827 0.08551671
000140 d1 fd eb bd 66 44 a9 3d c8 fe 31 be 96 6f 05 3e
       -0.11523021 0.08264999 -0.17382348 0.13030848
000150 41 5b b5 be 70 d9 9a 3e 6c a5 90 bb 71 f4 71 be
       -0.35421184 0.30244017 -0.004414251 -0.23628403
000160 ae 07 94 be 80 8d 1a 3d b3 2f 19 bd c8 cf 68 bc
       -0.2891211 0.0377326 -0.037399005 -0.014209695
000170 9d 96 49 3b 8e 41 b3 be d7 92 5d be 5c 57 39 be
       0.0030759939 -0.35010952 -0.21638046 -0.18099731
000180 0e c0 97 3e f3 34 de 3e 90 0f cc bd 08 3c 5d be
       0.29638714 0.43399772 -0.09963906 -0.21604931
000190 45 c9 d1 bd 47 6e ee 3e b5 70 17 bd d7 7a ac 3e
       -0.10243467 0.4656851 -0.03697272 0.3368747
0001a0 87 63 8f 3e 19 ef 04 be d8 09 e1 3d e5 e9 91 bd
       0.2800562 -0.12981834 0.10988206 -0.0712469
0001b0 66 6a 05 3c 62 14 bd 3d d8 a3 cf 3d 55 d7 22 3e
       0.008143043 0.09232403 0.101386726 0.15902455
0001c0 de db f1 3d 2e e2 8f bd 88 c0 c8 3e dd 52 cb 3e
       0.118095145 -0.07025562 0.3920939 0.39711657
0001d0 cd e0 d3 3e f9 05 8a 3d 91 bb 4b be af 72 a5 be
       0.41382447 0.067394204 -0.1989577 -0.3231406
0001e0 7a f4 ba 3c 13 7d ae bd 88 cb 47 3f 48 f6 94 3d
       0.022821654 -0.0851995 0.7804494 0.07273537
0001f0 dc ba 40 bd bc ab 53 3e b6 aa a8 3e 57 06 53 be
       -0.047053203 0.2067098 0.32942742 -0.20607887

encoder.rnn.bias_hh_l0 f4 [128]
000000 c3 da 90 3e 23 a0 6d 3e 1d ec 0e be 50 a5 7d 3e
       0.28291902 0.23205619 -0.13957258 0.24770093
000010 33 13 43 bc 59 7e 72 be a6 db 8f 3c 73 c7 fd bc
       -0.011906433 -0.2368101 0.017560791 -0.030978894
000020 2f db 15 3e 43 e0 08 be 26 c6 ca bd f8 fd ab be
       0.14634393 -0.13366799 -0.09901075 -0.335922
000030 9c c0 b3 bd ec 5e b9 bd a8 ea 8b be 7d b1 08 bd
       -0.08776972 -0.09051308 -0.27327466 -0.03337239
000040 f0 11 3d be 64 2e dc 3e 5f 68 65 be d9 cb 5f be
       -0.18463874 0.43004143 -0.22403096 -0.21855105
000050 8a 18 81 3e 32 f4 8f 3e 7e 13 5c bd b5 9e 98 3c
       0.25214034 0.28115994 -0.053729527 0.018630365
000060 3c c8 ad 3e 0e df 9b 3d 9d 58 5a 3c 21 93 08 be
       0.3394183 0.07610904 0.013326791 -0.13337375
000070 41 28 41 3e 9f e4 47 3c bc ba 03 3e d1 f8 0b be
       0.18863012 0.012200504 0.12864202 -0.13669135
000080 cd df 30 3e 14 a0 35 3e ec 7d 9e bd f0 81 01 be
       0.17272873 0.17736846 -0.077388614 -0.12647223
000090 56 ff 30 3e bb 3b 9a 3e 4f 3c 68 3e 91 11 7b 3e
       0.17284903 0.30123696 0.22679256 0.2451842
0000a0 a2 9d 83 3e 7e 25 0b 3e 42 e1 0c 3e 15 1a 9d bd
       0.25706202 0.13588521 0.13757804 -0.076709904
0000b0 45 11 62 3e 8c 5e 47 3e e7 7e 8d 3d 64 5b 7e 3e
       0.220769 0.1946966 0.0690897 0.2483955
0000c0 b0 d2 16 bc 4d c4 9b 3e c0 b6 a6 3e 13 c9 44 3e
       -0.009205505 0.30423203 0.32561302 0.19217329
0000d0 ce f3 02 3e 4a 50 13 be 64 2f f6 bd 55 e3 06 be
       0.12788317 -0.14386097 -0.12020758 -0.13172658
0000e0 40 8e af 3b 16 52 a2 bd c9 2c 31 3e 3f e6 7e be
       0.0053575337 -0.07925813 0.1730224 -0.2489252
0000f0 e5 b2 cf 3d 81 e6 82 be f7 9c c8 3c a7 ea e0 bc
       0.10141543 -0.25566486 0.02448891 -0.027455641
000100 bb cc 39 be 49 72 48 be fd ec 57 bd 8d 14 37 be
       -0.18144505 -0.19574846 -0.052716244 -0.17878933
000110 7f 84 f3 bd 18 fc 12 3e 52 4c 0c 3d 71 74 46 bc
       -0.11890506 0.14353979 0.034252472 -0.012112723
000120 fe fe 12 3e 81 98 b5 bb c0 6b 0a be 2f a3 3b be
       0.14355084 -0.0055418615 -0.13517666 -0.18323968
000130 1b 08 c3 3e 69 3d d6 bc d9 50 88 bd 01 f1 99 3a
       0.3809212 -0.02615233 -0.066560455 0.0011744798
000140 f3 98 57 3d 00 5f fd 3c 26 7b d6 bb 67 1b e1 3c
       0.052636098 0.030929089 -0.006545442 0.027478887
000150 0b 25 9e be 71 78 8c 3e ea 74 7e be 0a 13 d0 bd
       -0.30887637 0.2743564 -0.24849287 -0.101598814
000160 0f 92 85 be 56 e5 f8 3d 80 5d 53 be 8e f7 94 3d
       -0.26087996 0.12153117 -0.20641136 0.0727378
000170 c1 d1 60 be 20 b3 93 be fd c9 b2 be 72 ff 75 3d
       -0.21955015 -0.288476 -0.3491973 0.060058065
000180 a9 e8 30 3e fb fa 23 3e 9e bb fa 3c 27 f4 33 bd
       0.17276253 0.1601371 0.030607041 -0.043934014
000190 f3 09 dc bd a6 36 e3 3e 6a 17 71 3e 46 dc c7 3d
       -0.10744085 0.4437763 0.23544088 0.09758811
0001a0 87 76 50 3d e4 aa 15 be c6 b6 ed bc ad 45 64 be
       0.050894286 -0.14615971 -0.029017817 -0.22292204
0001b0 ed 7d 91 3e ea 3b 21 3e ae c8 6c bd 77 2e 1a 3e
       0.28416386 0.15745512 -0.05780857 0.15056787
0001c0 0b 3e 2f 3e b6 a2 a1 3d 7c 0b e2 3e 4d 7a c2 3e
       0.17113511 0.07892363 0.44149387 0.37983933
0001d0 a8 b0 e5 3e b5 46 aa bd ec be 8b be 0f d3 8f be
       0.4486134 -0.083142675 -0.272941 -0.28090712
0001e0 19 42 82 bd 38 b3 ac 3d d2 be 1f 3f a4 96 2e be
       -0.063602634 0.08432621 0.62400544 -0.17049652
0001f0 98 9c 0f bd b0 7e ec 3e fd d9 d1 3e ae 16 15 3d
       -0.03506145 0.46190405 0.40986624 0.036398582

decoder.rnn.weight_ih_l0 f4 [256, 32]
000000 52 40 a3 be cb af 85 be 60 36 20 3e 83 8e 12 bb
       -0.3188501 -0.26110682 0.15645742 -0.0022362776
000010 1e e0 95 3d 81 68 aa be 7f 59 76 3e 10 6e 5d be
       0.073181376 -0.33282855 0.24057578 -0.21624017
000020 3d 7f a4 3e 26 e1 5d be 05 0d 72 3d 1f fa 83 3c
       0.32128325 -0.21667919 0.059094448 0.016110478
000030 8e 7b 8d 3e c1 27 11 3e 6d 75 c4 bd 86 29 82 bd
       0.27633327 0.14175321 -0.0959271 -0.06355576
000040 69 70 81 3e 5f e1 b3 3c c0 48 17 3f fb b0 99 be
       0.25281075 0.021958051 0.5909538 -0.30017838
000050 28 a7 9a be 93 f1 34 3e 07 bb 95 bd be 60 62 3e
       -0.30205655 0.17670278 -0.07311063 0.22107217
000060 af e8 25 be 36 76 4a bd 2b 84 99 3e 0f f0 12 bd
       -0.16202043 -0.04942914 0.2998365 -0.03587347
000070 12 62 bc bd 6d 8b 70 be da 49 1e be e2 76 90 bd
       -0.09198393 -0.23490687 -0.1545786 -0.07053925
000080 c4 ac c2 bd 8e 1b 14 3e 45 c9 52 3d 87 27 a6 bd
       -0.09505609 0.14463636 0.051461477 -0.08113008
000090 85 f0 6c 3f 4f f7 bb be 2d 73 d5 3d 4a aa a6 bc
       0.92554504 -0.3671212 0.10422359 -0.020344872
0000a0 23 5a 02 3e 0e c1 ec bd 5d 6b b2 bc fa 09 68 be
       0.12729697 -0.1156026 -0.02177971 -0.22660056
0000b0 cb ef 00 3e 57 27 8c 3d 90 44 c1 bd 75 28 4c be
       0.12591474 0.06843441 -0.094369054 -0.19937308
0000c0 53 23 c0 3d 97 36 49 3c b5 3f b5 3e a1 e8 54 3d
       0.093817376 0.012281082 0.35400167 0.051979665
0000d0 2c d5 bb be f8 ee cc 3e c1 fc 71 be ea 56 74 3e
       -0.36686075 0.4002607 -0.23631574 0.2386128
0000e0 c5 b8 7a 3e a0 42 aa bd e5 ec 9a 3e af e4 a8 be
       0.24484546 -0.08313489 0.3025886 -0.32986972
0000f0 90 af 6c 3c d5 25 91 3e d5 98 1b be 1d d6 44 3e
       0.014446154 0.28349176 -0.1519502 0.19222303
000100 c6 19 28 bd 89 90 34 3e 15 34 a3 bd e3 c3 28 3e
       -0.041040204 0.17633261 -0.07968918 0.16480975
000110 94 a4 8e 3e a4 3d 3c 3e 70 56 90 3d 90 9b ff bd
       0.27859938 0.18382889 0.07047737 -0.12480843
000120 d5 f7 e9 3d c2 de 0c be 0f 5f 18 3e 63 a6 bb 3e
       0.11424223 -0.1375685 0.14880012 0.3665038
000130 03 25 ad 3d 1b f2 a4 3e c5 89 8f be e4 b0 84 be
       0.08454325 0.32215962 -0.28034797 -0.25916207
000140 f7 47 8f 3e 00 c4 8b bc 7b 41 05 be 2e 3a 7b be
       0.27984592 -0.017061234 -0.1301326 -0.24533913
000150 23 f7 1e be 06 45 ae 3e 3c cc a8 3e fb 78 87 3d
       -0.15523963 0.34037036 0.32968318 0.06614872
000160 59 4c fd bd 05 95 84 be 13 1f 9d 3e f2 19 ec 3e
       -0.12368078 -0.25894943 0.3068777 0.46113545
000170 3b 1d 3d 3d 34 54 67 be bb bf d3 bd 82 cc eb 3e
       0.046170454 -0.22590715 -0.10339304 0.46054465
000180 5c 9e a7 be a6 8e 8b 3e 61 40 54 3d c0 d3 fa 3d
       -0.32738006 0.2725727 0.05181921 0.12247419
000190 f4 3d 3b 3f f7 24 2c bd ef 92 8d 3e 23 8b 66 be
       0.7314141 -0.04202744 0.27651164 -0.22514014
0001a0 82 46 13 3e 75 47 8f bd 23 b2 0d be 74 30 1b 3e
       0.14382365 -0.06996051 -0.13837485 0.15155202
0001b0 a8 0d f0 3d fc 1a 34 3d e9 70 8d be e7 ee d8 bd
       0.11721355 0.043971047 -0.27625206 -0.10592442
0001c0 35 05 76 3e 29 50 37 3e f2 c9 ab 3e 88 10 94 bd
       0.24025424 0.17901672 0.3355251 -0.072297156
0001d0 c7 c5 1e be 72 39 56 3e e3 0e 80 3d 0d fd bb 3d
       -0.15505134 0.20920351 0.062528394 0.09179125
0001e0 03 17 57 3d ff b9 8e bd d6 70 3a 3e f0 dd e5 bd
       0.05251218 -0.0696907 0.18207106 -0.11223972
0001f0 07 e3 8c 3d 78 1b 40 3d ae 10 39 be 67 a8 05 3f
       0.068792395 0.046901196 -0.18072769 0.52210087
000200 9e 49 28 be 53 6a fb 3d 56 f4 4b 3e 24 78 dc 3b
       -0.16434333 0.12276139 0.19917426 0.006728189
000210 64 dc 6b 3d f8 ad fa bd a7 43 fa 3d 03 c7 21 be
       0.057583228 -0.12240213 0.12219935 -0.15798573
000220 c0 48 ac 3d 74 d6 80 bd f3 25 38 be 40 d0 f7 bd
       0.084123135 -0.06290904 -0.17983226 -0.121002674
000230 b9 56 60 3e b5 a7 0b 3e 56 c0 2d 3e ed ae c5 bd
       0.21908082 0.13638194 0.16967902 -0.09652505
000240 7b 54 34 3d f3 8e 1c 3a dd fc 4c 3e 12 4c 7f be
       0.04402588 0.0005972229 0.20018335 -0.24931362
000250 4b 6a de bd b5 83 10 3e 9c 80 98 be 08 64 b2 be
       -0.108601175 0.14112742 -0.2978562 -0.34841943
000260 ba 28 c2 bd d4 d9 a1 bc e4 47 06 3e f5 d4 3d be
       -0.09480424 -0.019757189 0.13113362 -0.18538268
000270 28 cd 10 3e e2 f6 8d 3c 1a f5 ac bc e8 74 9d bd
       0.14140761 0.017329637 -0.021112967 -0.07688314
000280 19 fb 8c bd 5a 97 9f 3e 7f 4b f1 3d f3 d1 d7 3d
       -0.068838306 0.3117016 0.11781978 0.105380915
000290 dc 37 a3 3d b8 d4 8d 3e c3 db 8f bd c6 71 4d bd
       0.07969639 0.27701354 -0.07024338 -0.05015733
0002a0 18 b6 38 3e 25 68 1d be 7c f6 8f 3e d5 10 d9 3d
       0.18038213 -0.15371759 0.2811774 0.105989136
0002b0 04 d4 40 3e 4d 57 4a 3e 85 81 25 be 49 c8 f2 bd
       0.18830878 0.19759865 -0.16162689 -0.118546076
0002c0 10 53 47 3e e2 6b 0a 3c 9e c2 b3 be 1d 76 27 bf
       0.1946528 0.008448573 -0.3510942 -0.654146
0002d0 77 b6 19 bd 35 7f b2 3e 0b bb 31 3e 6a 13 d3 3e
       -0.037527528 0.34862676 0.17356507 0.4122575
0002e0 7a 29 a6 bc bb 5c 1d bf da da ca 3e cc d6 c1 3e
       -0.02028345 -0.6146962 0.39620095 0.3785919
0002f0 4a ea fb 3d 95 f9 d2 bd 0b 53 dc bd 5c ca 67 3e
       0.123005465 -0.1030151 -0.10758027 0.22635788
000300 36 82 9d be 0b 7e a1 3e fe 9c e2 be 5d a0 f7 3e
       -0.30763406 0.31541476 -0.442604 0.48364535
000310 fb b8 2e 3e 15 5f c4 bd 69 e6 ca be c3 0f 4f be
       0.17062752 -0.09588448 -0.39628914 -0.20220856
000320 21 d0 08 3d f4 4e 59 bd 1e 4e be 3d bd 5d 05 3f
       0.033401612 -0.05305381 0.092922434 0.5209616
000330 69 ef 4c 3c b0 92 63 bc 2a d6 df bc 92 f7 37 be
       0.012508252 -0.0138899535 -0.027323801 -0.17965534
000340 8e 99 96 3e f0 2f 2a 3e 55 e7 3b 3e c5 1b d9 bd
       0.29414028 0.16619849 0.18349965 -0.10601
000350 bb d6 34 3d 73 f7 0e 3e e4 bc 75 3e 07 e7 31 3e
       0.044150095 0.13961582 0.23997837 0.17373286
000360 ab 30 85 be 88 55 f4 be 9a 59 93 be b7 56 cc 3e
       -0.26013693 -0.47721505 -0.28779298 0.39909908
000370 17 d0 92 3e 71 5a de bc 89 f3 0a be 18 df 0f 3f
       0.28674385 -0.027142735 -0.13569464 0.5619979
000380 f9 99 f8 bd 14 60 dc 3e 2b 58 9d be 2c f5 75 3f
       -0.12138743 0.43042052 -0.3073133 0.9607723
000390 b1 5a 10 bf 17 b6 6f 3e 42 9d 55 be a9 7c 89 3c
       -0.56388384 0.23409306 -0.2086077 0.016783075
0003a0 a6 04 ba bd 20 fb af 3c 56 34 02 be 49 bc 85 3f
       -0.09082918 0.02148205 -0.12715277 1.0448085
0003b0 72 54 60 be 92 23 0d be 6e 61 5f be 9f f0 ae 3e
       -0.21907213 -0.137831 -0.2181451 0.34167954
0003c0 ca d6 ab 3d a0 65 9f 3a 38 67 c7 be 62 71 04 3f
       0.08390577 0.0012161024 -0.38945937 0.5173551
0003d0 47 8b 56 3e c5 f0 38 be 05 8d 5e 3f 36 64 cd be
       0.20951568 -0.18060596 0.8693393 -0.40115517
0003e0 bd 35 f2 bb 30 47 95 be ae 39 47 be 73 ea e0 3f
       -0.00739166 -0.29155874 -0.19455597 1.7571548
0003f0 d6 dc 71 3d 8f 30 a5 3c 73 0c 9e bd 88 8c 20 3e
       0.059048496 0.020164756 -0.07717218 0.15678608

decoder.rnn.weight_hh_l0 f4 [256, 64]
000000 b1 c7 9a 3b 76 f3 eb 3c b5 15 e4 3d 76 e1 28 3d
       0.004723512 0.028802615 0.11136953 0.04123064
000010 a7 0c 50 bd 31 0f 41 be dc a7 54 3d fa 4c 0d 3d
       -0.050793316 -0.18853451 0.051917896 0.03449724
000020 cd 99 c3 bd a5 26 1a 3d f6 cb 00 be 05 14 e8 3b
       -0.095508195 0.03763451 -0.12577805 0.0070824646
000030 ac 7a 37 3d bd 4a f0 3d da cf 8c bd d2 45 d9 3b
       0.044794723 0.11733005 -0.06875582 0.0066306377
000040 79 b7 1e bd 95 ed 9c 3e 01 eb d7 bd 53 af a0 bd
       -0.038749192 0.3065001 -0.1054287 -0.078459404
000050 e3 94 1b 3e 0c 75 a3 3d 9a 7b 19 be 81 b5 3a bd
       0.15193515 0.07981309 -0.14988557 -0.045583252
000060 9c af a2 3d 45 23 39 be d1 c2 91 3c d0 6a 06 bd
       0.07943651 -0.1807986 0.017793091 -0.032816708
000070 57 37 91 bd 19 35 1f 3e 5a da c8 3d 7f 5e d3 3d
       -0.07090633 0.15547599 0.09807272 0.10320758
000080 f9 36 5c 3e a5 03 b2 3e 29 7c 3d bd 6e f7 0c be
       0.21505345 0.34768406 -0.046260986 -0.13766262
000090 d6 7e a0 3d 7c 75 a8 bd bd db ce 3d 95 e1 61 3d
       0.07836692 -0.08225533 0.101005055 0.055146772
0000a0 db ee 9c bd af 30 64 bd 17 33 c8 bc f6 8f 42 3d
       -0.076627456 -0.05571049 -0.024438424 0.047500573
0000b0 d9 6b b3 3d 6a be 14 3e 14 92 4a 3d c4 68 be bd
       0.08760805 0.14525762 0.049455717 -0.09297326
0000c0 70 5f a1 3a 66 69 f1 3c b7 a5 15 bd a8 3a a2 3d
       0.0012311768 0.029469203 -0.03653499 0.07921344
0000d0 3a d7 6c bc 74 bf 2e 3d 0b 9a 0d 3e 5e c0 fe bc
       -0.014455611 0.042663053 0.13828294 -0.031097587
0000e0 57 ea ba 3d fb 7c 94 3d c4 63 68 bd d8 21 8c bd
       0.09126728 0.07250401 -0.05673577 -0.06842393
0000f0 9a 9d c4 bb 0e c7 88 3d b3 06 f9 be 79 0b 0d 3e
       -0.006000233 0.06678592 -0.48637924 0.13773908
000100 52 c6 24 3e 72 4f b0 3d 2d a7 73 3d 3d c0 75 bd
       0.16091278 0.08608903 0.059485603 -0.059997786
000110 3c b0 0d 3e c1 5a 04 3d 8e 8d 6b bd 0a 2c 6a 3e
       0.1383676 0.032313112 -0.057508044 0.22868362
000120 56 b0 f2 bd 89 63 87 be e5 7c 31 3e 51 a7 9a be
       -0.1185004 -0.26443127 0.173328 -0.30205777
000130 25 a2 5c be 91 6f e9 bd af 5d c1 3d 6d e6 32 bd
       -0.21546228 -0.11398233 0.09441697 -0.043676782
000140 7e 3d 02 be ac c4 8b be 05 26 3c be 68 86 74 be
       -0.1271877 -0.27298486 -0.18373878 -0.23879397
000150 d7 4e 44 be ce a5 f5 bc cb a8 7e be a3 fa 6f 3e
       -0.191707 -0.029986288 -0.24869077 0.23435454
000160 ef 9e d6 bd ed ca 2d 3e 8d 24 12 3e ca 0a 0d be
       -0.10479533 0.16971941 0.14271756 -0.13773647
000170 03 40 87 3c f4 34 97 3d ba 0b 29 be bf f7 c0 bb
       0.016510015 0.07383147 -0.1650838 -0.0058889086
000180 a5 9e 8c be 1b 33 d8 3d 0a 39 c4 3b de 0c 01 3e
       -0.27464786 0.105566226 0.005988245 0.12602565
000190 08 aa 84 3e 3c bc 7f bc 1a d7 96 3d 47 7f 90 bc
       0.25910974 -0.015608843 0.07365246 -0.017638816
0001a0 ef fc 6f 3c c3 4f be 3c c1 ce 99 3d 72 1b fd 3d
       0.014647706 0.023231393 0.07510138 0.123587504
0001b0 ef a9 97 be 20 9e 12 3f 6f 13 59 bc ec 42 0c 3e
       -0.29621837 0.5727253 -0.013249262 0.13697404
0001c0 77 3c 20 be 7f 63 33 be b2 36 58 3c 82 c0 5f bf
       -0.15648066 -0.17518423 0.013196634 -0.8740312
0001d0 14 1d ba bc af f1 bf 3d 7e 3f 23 be bb 7c 33 3e
       -0.022718944 0.09372269 -0.15942189 0.1752805
0001e0 ec 54 2b 3d 0a 2b 88 3c 04 26 13 3e 62 03 06 3c
       0.041829035 0.016622085 0.1436997 0.008179517
0001f0 49 d3 35 be fa aa 8c 3d 61 0d 86 be 8f dd a8 3d
       -0.1775638 0.06868549 -0.26182082 0.08245384
000200 6d 1f 47 bc e1 a4 4e 3e 12 d0 bf bd 31 7c 39 be
       -0.012153489 0.20180084 -0.09365858 -0.18113782
000210 e0 6d 08 3e c6 46 2a 3e 98 2c 21 3e 2e c4 cf bc
       0.13323164 0.1662856 0.15739667 -0.0253621
000220 8b db 8e 3e 7a 83 77 3e 2f e7 c1 bd d6 44 c2 bb
       0.27901873 0.24171248 -0.09467923 -0.005928616
000230 ab 84 21 3e 76 50 70 3e f0 d0 6a be 51 69 0c 3e
       0.15773265 0.23468193 -0.22931266 0.1371205
000240 10 87 bb 3d b0 5f ea bb 81 7a 47 3d 58 05 1c 3e
       0.091566205 -0.00715252 0.048700813 0.15236413
000250 bf 88 31 be 14 a5 b2 3d 0c 43 0c 3e 6a db 32 be
       -0.1733732 0.087228924 0.13697451 -0.17466512
000260 a7 e5 65 3e 71 bd a8 bd 69 6c 50 be e5 dd d6 3d
       0.22450887 -0.08239258 -0.20353855 0.10491542
000270 e7 84 9b bd 9b dc ae bd c4 62 44 3e 8a e4 0e be
       -0.075937085 -0.08538171 0.19178301 -0.13954368
000280 85 35 16 3c df d4 49 3d bb 3f dd bd a6 c6 6f be
       0.0091680335 0.049275275 -0.10803171 -0.23415622
000290 be 87 0f bd 20 ae 05 3e e2 d4 86 be 23 14 db 3d
       -0.035041563 0.13054705 -0.26334292 0.106972
0002a0 f9 af 68 be 61 29 cf 3d 43 f3 82 be 64 00 59 be
       -0.22723378 0.10115314 -0.2557622 -0.21191555
0002b0 da 8c 26 3e e1 d0 72 b9 7e 51 f3 3d a7 09 dd bc
       0.16264668 -0.00023156732 0.11880778 -0.026982142
0002c0 b7 09 88 3e 80 b7 46 bb 27 a3 82 3e 92 e7 a5 bd
       0.26569912 -0.0030321777 0.255151 -0.08100809
0002d0 69 dd 85 3e b8 b3 01 3e 30 55 40 3e ec cd e0 bb
       0.26145485 0.12666214 0.18782496 -0.0068604853
0002e0 c2 4b 65 3e 58 f0 25 be a4 1a 95 bd 52 11 4d be
       0.2239218 -0.16204965 -0.07280472 -0.20026138
0002f0 a5 b9 b5 3d 9e 94 bf bc 20 08 0a 3e 72 6b 2a 3d
       0.088732995 -0.023386296 0.13479662 0.041606374
000300 e1 19 2d 3e 2c 7b 37 3e 87 9a 19 3e cb 7e 3f 3e
       0.16904403 0.1791808 0.15000354 0.18700711
000310 90 4b f1 bd dc cc 02 be d3 43 bb bd 6b c5 18 3e
       -0.117819905 -0.1277346 -0.09143796 0.14919059
000320 18 63 8f bd 8c d5 86 be bf 3f 53 be c5 00 92 3c
       -0.070013225 -0.26334798 -0.20629786 0.017822633
000330 58 cc 54 be ae 8a ba bc 53 44 3e 3e 94 ca 0a be
       -0.20781076 -0.022771206 0.18580751 -0.1355384
000340 36 12 4b be 74 49 63 be d0 55 27 be a0 08 88 be
       -0.19831166 -0.22195989 -0.16341329 -0.2656908
000350 a5 38 93 be 90 63 a1 bb ea 0a 23 be a2 f4 93 3e
       -0.28754154 -0.004925199 -0.15922132 0.28897578
000360 9d ea d8 bd 7b 6b da 3d 3b f4 da 3d a6 14 85 3d
       -0.10591624 0.106650315 0.106911145 0.06498079
000370 06 ac 24 be c6 91 7c 3d 95 99 d3 bd 36 56 cb 3d
       -0.16081247 0.061662458 -0.10332028 0.09928553
000380 86 22 66 be e9 25 d5 3d cf d1 c4 3d 20 4b 16 3e
       -0.22474107 0.104076214 0.0961033 0.14677095
000390 ff 5e 43 bd 7e 6d db bc bd f8 5a 3d 84 51 5e 3b
       -0.047698017 -0.026785608 0.05345987 0.0033923099
0003a0 d2 e5 89 3a 0b 1e f6 bc 2a b4 41 3e 9e 0f 95 3d
       0.0010520762 -0.030043622 0.18916383 0.07278369
0003b0 27 f1 8c be 0e 0f 90 3e 86 c9 1d be 6a cd 7b 3e
       -0.27527735 0.28136486 -0.15408906 0.24590078
0003c0 77 ed 3c be a9 46 34 3d 76 83 ae bd 97 9c d7 be
       -0.1844996 0.0440127 -0.08521168 -0.42111656
0003d0 73 71 93 3b 36 f0 85 bd 00 02 9c bd 13 4e 65 3e
       0.004499608 -0.06539957 -0.07617569 0.22393064
0003e0 b8 49 47 3d ab 8e 84 3e ac 7c ab 3b e4 a1 a5 3d
       0.048654288 0.25890097 0.005233368 0.08087519
0003f0 ff 94 62 be 40 76 33 3e a7 73 63 be 8e d5 2f 3e
       -0.2212715 0.17525578 -0.22212087 0.17171308

decoder.rnn.bias_ih_l0 f4 [256]
000000 d4 30 41 3e 98 77 7c 3d 3e b4 42 3e 30 8d 35 3e
       0.18866283 0.06163749 0.1901407 0.1772964
000010 c1 27 68 3e 98 99 34 3e 1e 05 41 3e 42 c3 71 3d
       0.22671415 0.17636716 0.18849608 0.059024103
000020 e0 ac 38 3e 49 34 63 3e 12 8b 06 3e 02 0b bb 3c
       0.18034697 0.22187914 0.13138989 0.022832397
000030 89 b8 07 3f ea f1 9a 3e f3 ab ce 3e 72 3e 08 3f
       0.53015953 0.3026269 0.40365562 0.53220284
000040 1b e9 34 3e 1d 24 8d 3d e4 37 bf 3e b9 86 72 3e
       0.17667048 0.06891654 0.3734733 0.23684205
000050 1f db 95 3e c5 79 e6 bd cb 8e 13 3f 25 80 36 bc
       0.2926874 -0.112536944 0.5763976 -0.0111389505
000060 f9 df 6d 3e 73 c2 b4 3d 3e 0b 1c 3e 82 54 1c bd
       0.2322997 0.08826151 0.15238664 -0.03816653
000070 07 f1 e0 3d 7b 9f b4 3e f3 e8 60 3d c4 c0 37 3e
       0.10983472 0.35277924 0.054909658 0.17944628
000080 4e 9c 8d 3c 1e de 01 3d 87 2d 4f 3f 71 dd 38 be
       0.017286446 0.031705968 0.80928844 -0.18053223
000090 5c 93 7b 3d 72 a5 11 3e 2b 9a 9c 3e 68 ab f1 3d
       0.06141983 0.14223269 0.3058637 0.11800271
0000a0 8e 2b 04 3f 89 c5 96 3e 7e 92 9a 3e 8b 50 50 3e
       0.5162896 0.29447582 0.3018989 0.20343225
0000b0 53 3f 93 3d b9 29 08 3e 5b 81 0b 3d 35 a5 0e 3e
       0.071898125 0.13297166 0.03405891 0.13930209
0000c0 35 41 d4 3d a5 19 27 3e 2d ec 3a 3e 1d 48 1d bd
       0.10364 0.16318376 0.18254156 -0.03839885
0000d0 92 45 4d 3c 56 5e 21 3e 57 34 2a 3e 33 5e 3a 3e
       0.012528794 0.15758643 0.16621529 0.18199997
0000e0 03 ae 40 3e 02 d3 63 3e 7d bb e4 3c 36 90 9a 3d
       0.1881638 0.22248462 0.027921433 0.07547037
0000f0 4a da 21 3e 5c fb 7d 3d bd e3 4f 3d e6 19 30 3c
       0.15805927 0.062007293 0.050754298 0.010748362
000100 1c 13 ca 3d 2f 4a 26 bd 45 65 e0 bd dd fc 62 be
       0.09866926 -0.04059809 -0.10956816 -0.22166772
000110 80 f4 01 3e d8 12 41 3d f6 63 44 3d 3a cc 19 3d
       0.12690926 0.04713711 0.047946893 0.03754828
000120 59 f4 83 3e 98 87 4a 3d d2 dc da bd e3 9c a0 bc
       0.2577236 0.04944572 -0.106866494 -0.01960606
000130 fa 26 22 3e 8b c2 e2 3d c5 d6 cd 3d 23 ba 97 3d
       0.15835181 0.110722624 0.1005073 0.0740855
000140 30 4a 1f bd 09 d8 94 bc c6 32 10 3d ea 05 8c 3d
       -0.03888911 -0.01816942 0.03520467 0.068370655
000150 03 22 3a 3e b1 ba ff 3c 92 3b c8 3c 95 8c 2c bc
       0.18177037 0.031216951 0.024442468 -0.010531564
000160 5f e7 20 be 27 98 37 bd 81 31 0a 3b 0a 81 49 bd
       -0.15713261 -0.04482284 0.0021086636 -0.049195327
000170 28 5d 22 bd 70 a8 9e 3d 25 74 4b 3e 5d 31 26 3e
       -0.039639622 0.07746971 0.19868524 0.16229768
000180 7d 47 9c 3d 3a 2b b3 3d a6 94 65 bd ea c3 32 3e
       0.07630823 0.08748479 -0.056049965 0.17457548
000190 1f 4d 31 3e c3 12 81 bd 8d e4 93 3d 21 bf b3 3d
       0.17314576 -0.06302407 0.07221327 0.08776689
0001a0 97 28 63 3e 4c 00 10 3e 36 e2 1b bc 3e 67 68 bc
       0.22183453 0.14062613 -0.009514382 -0.014184771
0001b0 fb 17 80 3e 63 27 bc bd d8 3a 77 3e 43 8d b1 3d
       0.25018296 -0.091872 0.24143541 0.08669522
0001c0 15 74 09 3d f7 03 a5 bd 82 69 3b 3d 21 37 31 3e
       0.03355797 -0.08057397 0.045754917 0.17306186
0001d0 ce 28 c4 bd 9f 9a 66 3b 1f a2 0f bd aa 21 5a 3d
       -0.095780954 0.0035187376 -0.03506672 0.05325476
0001e0 f0 60 ca bc a4 92 26 3e e0 2c 36 3e fc e6 88 3b
       -0.024704427 0.16266876 0.17790556 0.004177926
0001f0 5a 00 43 bd c5 77 10 3e e0 20 a4 bd fb 8a 77 bc
       -0.047607757 0.14108188 -0.08014083 -0.015108819
000200 48 52 0b bd 19 e8 7b 3d 38 33 02 bc dd ff 83 3c
       -0.034014016 0.061500642 -0.007946782 0.016113216
000210 03 ad f7 3d f4 0d ef 3d eb 21 59 3c 38 3c 17 be
       0.12093546 0.11672583 0.013252716 -0.14769065
000220 10 8e 53 3e d2 b4 6c 3e 05 23 28 3c 8e ab d4 bd
       0.20659661 0.23115852 0.010262256 -0.10384284
000230 61 b1 e4 bc ac 15 4c 3e 6f 7f 47 be 11 67 fe bc
       -0.027916612 0.19930142 -0.19482206 -0.031055005
000240 09 79 5c 3d 52 84 05 3e 18 0d 86 3d d5 d1 14 3d
       0.053826366 0.13038757 0.06545466 0.036332924
000250 7a 4f e3 3c 3a b1 84 bd 64 ac 1a 3e b6 f8 e3 bb
       0.027747858 -0.06479116 0.15104824 -0.006957139
000260 82 0b bc 3e 95 e6 0f be c1 4d 24 3d 3a c2 0a be
       0.3672753 -0.14052804 0.040113214 -0.13550654
000270 05 a6 da 3d 79 b4 1c be 9d ca 69 3d 7c 84 0a be
       0.10676197 -0.1530322 0.057077993 -0.13527101
000280 6a 14 d2 3e 33 16 1a 3e e8 aa 02 3d 1b ac 53 3d
       0.410312 0.15047531 0.03190127 0.051677804
000290 3d c5 e0 bd 9e a2 66 3e f7 77 3e be 06 b2 01 3d
       -0.1097512 0.22522971 -0.1860045 0.031663917
0002a0 be fb b0 be c5 5b ba 3e 76 84 cc bc eb 48 91 be
       -0.34567064 0.3639814 -0.024965506 -0.28375944
0002b0 b2 e0 93 3e 5a 5c e1 bd c5 c3 c3 bb b8 d3 55 be
       0.28882366 -0.11003943 -0.0059742653 -0.20881546
0002c0 33 8a 52 bc a8 9b 07 be 7f f2 cd 3b 31 b5 b1 3d
       -0.012850332 -0.13242972 0.0062850113 0.08677138
0002d0 49 c5 fd 3d b0 80 d9 bd df 15 a4 3e 16 0c 79 be
       0.12391145 -0.10620248 0.32047936 -0.24321017
0002e0 56 05 29 3e e4 ca e2 bd 14 72 33 be af fb 25 be
       0.16505942 -0.110738546 -0.17523986 -0.16209291
0002f0 4b 87 a7 3e d8 c1 89 3e 8d 21 8e bd 84 fa 28 3d
       0.32720408 0.26905704 -0.06939993 0.041254535
000300 b4 6c e1 3c 28 98 5a bb 5b c0 0f bc cc 44 b3 3d
       0.027517654 -0.0033354852 -0.008773888 0.08753356
000310 0b ed 1f 3e db bd 2d 3d 54 61 9e 3c 7e 2e 92 3c
       0.15617768 0.04241739 0.019333519 0.017844435
000320 da 8f 53 3b df 7d 82 bd 53 29 7d bd e1 0f 34 3e
       0.0032281787 -0.06371664 -0.061806988 0.17584182
000330 38 7e 9b 3b 90 28 62 3d 86 0c 92 3c da 36 a9 3c
       0.004745271 0.055214465 0.017828237 0.020656038
000340 52 d3 34 3e c9 35 ef bc 5b c2 56 3e 2c 18 aa 3d
       0.17658737 -0.029200451 0.20972578 0.08305392
000350 ae b6 25 3e ba 5a ea 3d 29 b1 f5 3d 42 68 e5 3d
       0.16182968 0.11443086 0.11996681 0.11201526
000360 f5 6e 06 3e 70 5e 77 bd 0e c8 11 3e 0e 5b 89 3e
       0.13128264 -0.060392797 0.14236471 0.26827282
000370 84 6a 9e 3d a6 1f 3a 3e e6 e6 c7 3d d9 f9 11 3e
       0.0773516 0.18176135 0.09760837 0.14255466
000380 da 5e 72 3e 65 b0 54 3e 36 b1 a1 bc 62 e8 c0 3d
       0.23668995 0.20770414 -0.019737821 0.094193235
000390 75 0d 91 3d 8d 52 be bb 4c 3b d1 3d 44 96 39 bc
       0.07082645 -0.0058081807 0.10216388 -0.01132733
0003a0 73 39 ac 3b 11 98 4d bd 5d ee 0e 3e 30 85 91 3e
       0.005255872 -0.05019385 0.13958116 0.28421926
0003b0 7e 20 e8 3d 4c 02 38 3e 0d c4 14 3e 0d 23 a0 3d
       0.113343224 0.17969626 0.14527912 0.078191854
0003c0 da ed 49 3d ec 46 a1 3e 49 bc 10 3e 23 31 26 3e
       0.0492991 0.31499422 0.14134325 0.16229682
0003d0 62 31 71 3d 0e 6d 67 3d 8c 12 ba bc c3 ad 71 3e
       0.058884986 0.056500487 -0.022713922 0.23601441
0003e0 b1 26 2a 3d 82 86 2a 3e a7 c5 ea 3d 25 e3 6d 3e
       0.041540805 0.16652873 0.114634804 0.2323118
0003f0 7f 1f 0e 3e 86 1d 9d 3c 52 10 1a 3f 22 d6 e5 3c
       0.13879202 0.019179117 0.6018115 0.028056208
