detector_dev/test_detection_normalizing/models/cnn_lstm_ae_normalized_mixed_detector.pt (torch, 129255 bytes, 12 tensors)

encoder.cnn.weight f4 [8, 4, 16]
0	0xbe508744	-0.203641
1	0xbe424a3c	-0.1897363
2	0xbe41d2a5	-0.18928011
3	0xbe423667	-0.18966065
4	0xbe41d012	-0.18927029
5	0xbe417886	-0.18893632
6	0xbe42e8f5	-0.19034179
7	0xbe42dd88	-0.1902982
8	0xbe4aba2c	-0.19797581
9	0xbe424059	-0.18969859
10	0xbe420485	-0.18947037
11	0xbe45404d	-0.1926281
12	0xbe43781d	-0.19088788
13	0xbe443bf1	-0.19163491
14	0xbe42f1b8	-0.19037521
15	0xbe441991	-0.19150378
16	0x3d381767	0.044944193
17	0x3d6d2d0b	0.057904284
18	0x3d46519d	0.048417676
19	0x3d3e589b	0.04647122
20	0x3d43722f	0.047716316
21	0x3d4b5328	0.04963985
22	0x3d580c06	0.05274584
23	0x3d52362a	0.051321186
24	0x3d652d54	0.05595143
25	0x3d6f02d2	0.0583523
26	0x3d8aba22	0.06773783
27	0x3d8b6bce	0.068076715
28	0x3d995a5a	0.07487936
29	0x3da4089d	0.08009455
30	0x3daab62c	0.08335528
31	0x3db5fd96	0.08886258
32	0xbe133619	-0.14376105
33	0xbe132bc5	-0.14372166
34	0xbe134baa	-0.14384332
35	0xbe12c358	-0.1433233
36	0xbe126509	-0.14296354
37	0xbe17b93c	-0.14816755
38	0xbe10fc61	-0.14158775
39	0xbe18d668	-0.1492554
40	0xbe0fdc7a	-0.14048949
41	0xbe0ff88b	-0.14059655
42	0xbe11abf4	-0.14225751
43	0xbe10cdee	-0.14141056
44	0xbe0ff71f	-0.14059113
45	0xbe0fc5da	-0.14040318
46	0xbe0edbe8	-0.13951075
47	0xbe0f3399	-0.13984527
48	0x3d8f3b1c	0.06993696
49	0x3da1cabc	0.07899997
50	0x3da9b6c9	0.082868166
51	0x3da410bd	0.08011005
52	0x3db8314b	0.08993777
53	0x3dcc842e	0.09986149
54	0x3dbb57dc	0.09147617
55	0x3dca34c3	0.09873345
56	0x3dc8df6e	0.09808241
57	0x3db91a2d	0.09038196
58	0x3db82fee	0.08993517
59	0x3db8ab8a	0.090170935
60	0x3db485d2	0.08814587
61	0x3dc00307	0.093755774
62	0x3dabd1ac	0.08389601
63	0x3da94dd4	0.08266798
64	0xbe1645c5	-0.14675052
65	0xbe178394	-0.14796287
66	0xbe03f96a	-0.12888113
67	0xbe1b2ca5	-0.1515375
68	0xbe18e589	-0.1493131
69	0xbe14f4c5	-0.14546497
70	0xbe222c77	-0.15837274
71	0xbe25eba6	-0.16203174
72	0xbe262c6a	-0.1622788
73	0xbe28ac58	-0.16471994
74	0xbe2b20e3	-0.16711764
75	0xbe2dd97d	-0.16977496
76	0xbe3197c4	-0.1734305
77	0xbe345c82	-0.17613414
78	0xbe367e70	-0.1782167
79	0xbe2cf663	-0.16890864
80	0xbd87ee8a	-0.066372946
81	0xbd85e840	-0.06538439
82	0xbd5e5ba7	-0.054286625
83	0xbd7bdcee	-0.06148999
84	0xbd6e065a	-0.058111526
85	0xbd654c27	-0.055980828
86	0xbd5c39f3	-0.053766202
87	0xbd50bba7	-0.05096021
88	0xbd4701e9	-0.048585806
89	0xbd3bc3f0	-0.045841157
90	0xbd3ea177	-0.046540704
91	0xbd8051f1	-0.06265629
92	0xbd5ab6c0	-0.05339694
93	0xbd4b892e	-0.04969137
94	0xbd5029bd	-0.050821055
95	0xbd3cb672	-0.04607243
96	0xbe1120fb	-0.14172737
97	0xbdfd4ba0	-0.1236794
98	0xbe12687c	-0.1429767
99	0xbe198bb4	-0.14994699
100	0xbe0588ac	-0.13040417
101	0xbe136dd1	-0.1439736
102	0xbe14d0e9	-0.14532818
103	0xbe15a89e	-0.14615104
104	0xbe2208d3	-0.15823679
105	0xbe15c3ed	-0.14625521
106	0xbe16668f	-0.1468756
107	0xbe17e062	-0.14831689
108	0xbe1896ec	-0.14901322
109	0xbe18d0f8	-0.14923465
110	0xbe18bcf8	-0.14915836
111	0xbe269409	-0.16267408
112	0xbd1a494a	-0.03766755
113	0xbd2529a4	-0.040322915
114	0xbd4ba71c	-0.049719915
115	0xbd2c3c5a	-0.042049743
116	0xbd2577d7	-0.04039749
117	0xbcde51fd	-0.027138704
118	0xbd33f303	-0.043932926
119	0xbd18ba38	-0.037286967
120	0xbd445f8d	-0.047942687
121	0xbd56bc2c	-0.05242555
122	0xbd654ced	-0.055981565
123	0xbd790f14	-0.060805395
124	0xbd8905ba	-0.066905454
125	0xbd940573	-0.07227602
126	0xbd8d55bc	-0.06901118
127	0xbd8e5c92	-0.0695125
128	0xbd48c763	-0.049018275
129	0xbdb4be4c	-0.08825359
130	0xbd3d7ab6	-0.046259604
131	0xbd750511	-0.059819285
132	0xbdb64af9	-0.08901019
133	0xbc90d8c7	-0.017681492
134	0xbd9202eb	-0.07129463
135	0xbdb610b7	-0.08889907
136	0xbc874acb	-0.016515156
137	0x3c851960	0.016247451
138	0xbd86e0ac	-0.065858215
139	0xbc9f2fb8	-0.019431934
140	0xbcfe2454	-0.031023182
141	0xbcfe42cf	-0.031037716
142	0x3ca362d3	0.019944584
143	0xbc77be80	-0.015121102
144	0xbb496023	-0.0030727468
145	0x3be6ef74	0.007047588
146	0x3d507ae8	0.050898463
147	0x3d41f7f3	0.047355603
148	0xb8bfcbf0	-9.145576e-05
149	0x3b9c0da6	0.004762369
150	0x3d18f2e3	0.03734101
151	0x3c397343	0.011318984
152	0xbcf9fa72	-0.03051493
153	0xbc77d70e	-0.015126957
154	0xbd47e7a1	-0.048804883
155	0xbd4456b8	-0.047934264
156	0xbd9ad6ef	-0.075605266
157	0xbd73fe45	-0.059568662
158	0xbdde02bb	-0.108403645
159	0xbdcf5ccf	-0.10125124
160	0xbd78a122	-0.060700543
161	0xbd750d5d	-0.059827197
162	0xbc81f13d	-0.015862102
163	0xbd684c5e	-0.056713454
164	0xbd46e967	-0.048562434
165	0xbc7ddcb0	-0.0154945105
166	0xbd73bc2c	-0.059505627
167	0xbd760e63	-0.060072314
168	0xbd41af7d	-0.0472865
169	0xbd7690ff	-0.060196873
170	0xbd7d5826	-0.061851643
171	0xbd7f54b9	-0.062336657
172	0xbd2d43be	-0.042300932
173	0xbd860b6b	-0.065451466
174	0xbcf45eea	-0.029830415
175	0xbd8a7ffa	-0.06762691
176	0x3d92490e	0.0714284
177	0x3d7b68d0	0.061379254
178	0x3da3d72e	0.08000027
179	0x3c058dc3	0.008151474
180	0x3bf21c15	0.0073886015
181	0xbc48652d	-0.012231153
182	0xbce92473	-0.028459763
183	0xbd82be90	-0.06384003
184	0xbd544a49	-0.051828656
185	0xbdcf0004	-0.10107425
186	0xbe29e1ac	-0.16589993
187	0xbe1af9fc	-0.15134424
188	0xbe2b7afb	-0.16746132
189	0xbe3ad210	-0.18244195
190	0xbe35f892	-0.17770603
191	0xbe76e8ea	-0.24112287
192	0x3dadb694	0.0848209
193	0x3da5f2a3	0.0810292
194	0xba8b4d9b	-0.0010627987
195	0x3da30546	0.0795999
196	0x3d679478	0.056538075
197	0x3d80eb12	0.06294836
198	0x3e01ed9b	0.12688296
199	0x3d66e574	0.056371167
200	0x3bde111f	0.0067769433
201	0x3d8a270e	0.0674573
202	0x3cfc0027	0.030761791
203	0x3d2a696a	0.041604437
204	0x3d81519f	0.06314396
205	0x3d6f27c6	0.05838754
206	0x3daa1b21	0.08305956
207	0x3deb0322	0.11475207
208	0x3e1188a8	0.14212286
209	0x3e018e14	0.12651855
210	0x3de81bb0	0.11333406
211	0x3da17edd	0.078855254
212	0x3d1b8a68	0.03797379
213	0xba4e60b0	-0.0007872684
214	0xbd19b08b	-0.03752188
215	0xbce92ccf	-0.02846375
216	0xbda72b62	-0.081625715
217	0xbe1f0007	-0.15527354
218	0xbe5cb523	-0.21553473
219	0xbe4f1826	-0.20224056
220	0xbe3ca2cc	-0.18421477
221	0xbe7dcd52	-0.24785355
222	0xbeb1673c	-0.34649074
223	0xbeb3aba2	-0.35091883
224	0x3d2825bf	0.041051622
225	0x3d1cdea0	0.03829825
226	0x3d2d2e38	0.042280406
227	0x3d315750	0.04329616
228	0x3de0399b	0.10948487
229	0x3ba5134c	0.0050377008
230	0xbc2b268b	-0.010446201
231	0x3d1b9f1c	0.037993535
232	0x3d26463e	0.040594332
233	0x3dd0f16e	0.10202299
234	0x3dcf54bc	0.10123584
235	0x3cfadaa2	0.03062183
236	0x3cea07e0	0.028568208
237	0x3dbad5d2	0.09122814
238	0x3c391edc	0.011298861
239	0x3c962e23	0.018332547
240	0xbd289879	-0.041161034
241	0x3bb92b42	0.0056509087
242	0xbd4bda7d	-0.049768914
243	0xbe1d14d5	-0.15339978
244	0xbe56e8c1	-0.20987226
245	0xbe7f507e	-0.24933049
246	0xbe81a256	-0.25319165
247	0xbe9d8aad	-0.30769864
248	0xbec6777f	-0.38763043
249	0xbedb882e	-0.42877334
250	0xbf02d056	-0.51099145
251	0xbf016ec1	-0.5055962
252	0xbee8c6ad	-0.45464078
253	0xbf09a64b	-0.5376937
254	0xbf156f99	-0.5837341
255	0xbf0ab15f	-0.54176897

encoder.cnn.bias f4 [8]
0	0x3d4b6873	0.049660157
1	0xbd100b68	-0.035167128
2	0x3d7d7c70	0.06188625
3	0x3b8fac15	0.0043845274
4	0xbd15ef7c	-0.036605343
5	0xbc715d45	-0.01473171
6	0x3e2f29d9	0.17105807
7	0xbe3fc23b	-0.18726437

encoder.rnn.weight_ih_l0 f4 [128, 8]
0	0xbe22e2d5	-0.15906842
1	0xbdc97da9	-0.09838421
2	0xbdc9a926	-0.09846716
3	0xbe182d1f	-0.14860962
4	0xbe1f114e	-0.15533945
5	0xbc7f10a4	-0.015567932
6	0xbd58f6ae	-0.052969627
7	0x3db7e3eb	0.08979019
8	0xbb8fede6	-0.0043923734
9	0xbe84346d	-0.25821248
10	0xbe3746be	-0.1789808
11	0xbe66c149	-0.2253467
12	0xbe9005e2	-0.28129488
13	0xbe5bca7d	-0.21463962
14	0xbe576e32	-0.2103813
15	0xbd9b726c	-0.075901836
16	0xbe8b6f56	-0.2723338
17	0xbdb60e6c	-0.088894695
18	0xbebb0f28	-0.36535
19	0xbe265188	-0.16242039
20	0xbe394f15	-0.18096574
21	0xbe92dd94	-0.28684676
22	0xbde5699e	-0.112017855
23	0xbe39ce6e	-0.18145153
24	0xbe1373e4	-0.14399678
25	0xbd831fa6	-0.06402521
26	0xbddad7ee	-0.106857166
27	0xbdc8a7c8	-0.09797627
28	0xbe2e6829	-0.17031921
29	0xbe32bca6	-0.17454776
30	0xbe4f0718	-0.2021755
31	0xbe0bb5cc	-0.13643569
32	0x3d2d2bd4	0.042278126
33	0xbd61344c	-0.054981515
34	0x3cdf6e74	0.027274348
35	0x3cdba21a	0.026810694
36	0x3d86534d	0.06558857
37	0x3e03f6b0	0.12887073
38	0x3e387757	0.18014275
39	0x3e703856	0.2345899
40	0xbdba48b6	-0.090959
41	0xbd4375e2	-0.047719844
42	0x3e1022fa	0.14075842
43	0x3d7e689b	0.06211148
44	0x3d8f9ec2	0.070127025
45	0x3dc152d5	0.09439627
46	0x3dd08be8	0.10182935
47	0xbde4e255	-0.11175982
48	0x3d8211fc	0.063510865
49	0x3ca94eef	0.020667521
50	0x3e2ff9e4	0.1718517
51	0xbd04415d	-0.032288898
52	0x3e641698	0.22274244
53	0xbdf04017	-0.11730974
54	0xbc947f73	-0.018127179
55	0xbdcbc8fe	-0.099504456
56	0xbe01842a	-0.12648073
57	0xbe7fa40d	-0.24964924
58	0xbe0406dc	-0.12893242
59	0xbe54b76d	-0.20773096
60	0x3d84f87e	0.064927086
61	0xbe1c6a64	-0.1527496
62	0xbe39f9db	-0.18161719
63	0x3d4d49f9	0.050119374
64	0xbe1ee6fe	-0.15517804
65	0xbd94ab6c	-0.07259259
66	0xbe0a80da	-0.13525715
67	0xbe6e0157	-0.23242699
68	0x3c3aa317	0.011391423
69	0xbe11e364	-0.14246899
70	0xbcea742f	-0.028619854
71	0xbe819849	-0.25311497
72	0x3d6c7df9	0.057737324
73	0xbd4b5b14	-0.049647406
74	0x3d8c1c7f	0.06841373
75	0xbe09b2d3	-0.13447122
76	0xbd12148e	-0.035664134
77	0xbd4c2bad	-0.04984634
78	0xbd892203	-0.0669594
79	0x3d48c88e	0.04901939
80	0xbc26eda3	-0.010188493
81	0xbd74b165	-0.05973949
82	0x3c9e316e	0.01931068
83	0x3ba875b2	0.0051409835
84	0xbd00e832	-0.03147144
85	0x3d2e4160	0.042542815
86	0x3d76f701	0.060294155
87	0x3e0a51f6	0.13507828
88	0x3dd96723	0.10615375
89	0xbcb5b9b3	-0.022183275
90	0xbc917651	-0.017756613
91	0xbd136419	-0.035984132
92	0xbd605feb	-0.054778975
93	0xbd331e73	-0.04373021
94	0xbcd6cd1f	-0.026220856
95	0xbdabfa75	-0.0839738
96	0xbca3217e	-0.019913431
97	0x3e13d93a	0.14438334
98	0x3d0a8ffb	0.033828717
99	0xbd02d1ad	-0.031938244
100	0x3e4a8b93	0.19779806
101	0x3df86b08	0.121297896
102	0x3e17cdaf	0.14824556
103	0x3e2acab1	0.16678883
104	0x3bb46881	0.005505622
105	0x3e25ba58	0.16184366
106	0xbc0deb79	-0.008662098
107	0xbe0c8930	-0.13724208
108	0x3cf58402	0.029970173
109	0x3dca93ac	0.098914474
110	0x3dd8b42e	0.105812415
111	0xbe2e2fb9	-0.17010392
112	0x3dd50b9f	0.10402607
113	0x3da05378	0.078284204
114	0xbda706c1	-0.08155585
115	0x3d59f0d4	0.053208187
116	0xbd49c281	-0.04925776
117	0xbcc49be2	-0.024000112
118	0x3e195e17	0.14977299
119	0x3d02dd47	0.031949308
120	0xbc9dde82	-0.019271139
121	0x3e1ff259	0.15619792
122	0xbdc179e9	-0.09447081
123	0x3e1bf722	0.15230992
124	0x3e2903ce	0.16505358
125	0xbc11f702	-0.008908989
126	0xbd91cc41	-0.071190365
127	0x3e357c48	0.17723191
128	0xbdb3ea93	-0.08784976
129	0x3c814d16	0.015783828
130	0x3c0bb7be	0.008527694
131	0x3ce4be71	0.02792284
132	0x3d68001a	0.05664072
133	0x3dba83e2	0.09107186
134	0xbc44e491	-0.012017385
135	0x3dd8162b	0.10551103
136	0xbe59c2a5	-0.21265657
137	0xbe58f9c4	-0.21189028
138	0xbe8b866a	-0.27250987
139	0xbe772629	-0.2413565
140	0xbe72ce18	-0.23711431
141	0xbdf55275	-0.11978618
142	0xbdb1b45a	-0.086769775
143	0xbeaf6135	-0.3425385
144	0xbc9d1b25	-0.019177983
145	0x3e3749f4	0.17899305
146	0x3e44a880	0.19204903
147	0x3d0c7f40	0.034301043
148	0xbc871ff0	-0.016494721
149	0x3b9032c5	0.0044005834
150	0x3e0716cb	0.13192289
151	0x3e2a0e4d	0.16607018
152	0xbde7d904	-0.11320689
153	0xbd846d3b	-0.064661466
154	0x3d504939	0.05085108
155	0x3df35c6a	0.11882861
156	0x3dc9c6a0	0.09852338
157	0xbcb25e88	-0.021773592
158	0x3e105489	0.14094748
159	0xbdbec246	-0.093143985
160	0xbe08720d	-0.13324757
161	0xbe541293	-0.2071021
162	0xbdb2790b	-0.08714493
163	0xbe5fef60	-0.21868658
164	0xbe213735	-0.15743716
165	0xbea03bb9	-0.31295565
166	0xbd7ef325	-0.0622436
167	0xbea971a8	-0.33094525
168	0x3eb35278	0.35023856
169	0x3da1ef89	0.07907016
170	0x3e61fc99	0.22069015
171	0x3e862fb1	0.2620826
172	0x3e9144cd	0.28372803
173	0x3e4607c1	0.19338895
174	0x3eba748f	0.36417052
175	0x3ed9690c	0.42462957
176	0x3cac1035	0.021003822
177	0x3d49bad2	0.04925043
178	0x3e7cc3f1	0.2468412
179	0x3e758681	0.2397709
180	0x3db95162	0.09048726
181	0x3db2b2e5	0.08725528
182	0x3df7907c	0.12088105
183	0x3defca63	0.11708524
184	0xbdba2f3a	-0.09091039
185	0xbca2c76e	-0.019870486
186	0x3d521c48	0.051296502
187	0xbe4b3dd6	-0.19847807
188	0x3cb18282	0.021668676
189	0xbdf59a70	-0.11992347
190	0x3d08a804	0.033363357
191	0xbe336a04	-0.1752091
192	0x3e739d4e	0.23790476
193	0x3eb4a5d7	0.35282776
194	0x3e40ffeb	0.18847625
195	0x3e1954d2	0.14973763
196	0x3e088b6f	0.1333444
197	0x3ead710c	0.3387531
198	0x3dabd547	0.08390289
199	0x3e68ab3f	0.22721575
200	0x3e01c4d2	0.12672737
201	0xba1014c5	-0.0005496259
202	0xbdfd0792	-0.123549595
203	0x3db19ca5	0.08672456
204	0x3e3f9180	0.18707848
205	0xbcff56de	-0.031169351
206	0x3e291f5a	0.16515866
207	0x3df7ffba	0.12109323
208	0x3e014f53	0.12627916
209	0x3d957211	0.07297147
210	0x3de0522e	0.109531745
211	0x3e5868d9	0.21133746
212	0x3d621624	0.055196896
213	0xbcc8e05a	-0.024521042
214	0x3d98833b	0.07446905
215	0x3e1ecfa1	0.15508892
216	0x3d012805	0.031532306
217	0x3dae4578	0.08509344
218	0x3e23277a	0.15933028
219	0x3e03a386	0.12855348
220	0x3e853d64	0.260234
221	0x3e0deee9	0.13860668
222	0x3d3af9f6	0.045648538
223	0x3e1d1dd9	0.15343417
224	0x3e344027	0.17602597
225	0x3e874eee	0.26427406
226	0x3d177721	0.036978845
227	0x3bc99aa1	0.0061524664
228	0x3e351ce0	0.17686796
229	0x3dcad7db	0.099044524
230	0x3da3699d	0.079791285
231	0x3e2c7099	0.16839828
232	0x3cb290fb	0.021797648
233	0x3ccb0c4a	0.024786133
234	0x3d0e2c7b	0.03471039
235	0x3e339f1c	0.17541164
236	0xbd12fe3c	-0.035886988
237	0xbd1f619a	-0.03891144
238	0xbd41a35a	-0.047274925
239	0xbd394079	-0.0452275
240	0x3d827be8	0.063712895
241	0x3ebc62ba	0.36794072
242	0x3d81ba05	0.063343085
243	0x3e057e67	0.130365
244	0x3e121c2b	0.14268558
245	0x3e8606cc	0.2617706
246	0x3ec2311d	0.37928095
247	0x3ea1764b	0.31535563
248	0xbdd5a7fb	-0.1043243
249	0x3e02c111	0.12768961
250	0x3d1b88fc	0.037972435
251	0x3dafc858	0.085831344
252	0x3d030c76	0.031994306
253	0xbdad22d2	-0.08453907
254	0xbdb08827	-0.08619719
255	0xbd909e8a	-0.07061489

encoder.rnn.weight_hh_l0 f4 [128, 32]
0	0x3ec3d60b	0.3824924
1	0x3ecd27ca	0.4006942
2	0xbd2c26b5	-0.0420291
3	0x3ea9ab88	0.3313868
4	0x3e902e8e	0.28160518
5	0xbd8fee15	-0.070278324
6	0xbbdd0e5f	-0.006746098
7	0x3e494f27	0.196591
8	0xbe26aa89	-0.16275991
9	0xbe120b18	-0.14262044
10	0x3de842b7	0.1134085
11	0x3ecee235	0.40406957
12	0xbe853f17	-0.26024696
13	0x3df7c462	0.12098004
14	0x3deb855e	0.11500047
15	0x3ee814a5	0.4532825
16	0x3e2d4f2e	0.16924736
17	0x3df970a5	0.12179688
18	0xbe82bb6b	-0.25533614
19	0x3e3d56af	0.18490098
20	0xbdc2364b	-0.09483012
21	0xbdb3ea6a	-0.08784945
22	0x3d833205	0.06406025
23	0x3e56c9bb	0.20975392
24	0x3dd3bef2	0.10339154
25	0x3e014f62	0.12627938
26	0x3e753a82	0.239481
27	0x3e6fde2b	0.23424594
28	0xbd966cef	-0.07344996
29	0xbd80f97f	-0.062975876
30	0xbe647e70	-0.22313857
31	0xbe1087dc	-0.14114326
32	0x3cf5fcc0	0.030027747
33	0xbd4b7d46	-0.049680017
34	0x3e305596	0.17220148
35	0x3d9088b1	0.07057322
36	0x3e60f87f	0.21969794
37	0x3ddf76f4	0.109113604
38	0xbdcc9a26	-0.09990339
39	0x3e09fb3b	0.13474743
40	0x3dc7cfd1	0.09756435
41	0x3d6ba873	0.057533693
42	0x3d804562	0.06263234
43	0xbe0b30b2	-0.13592795
44	0x3c6ece36	0.014575532
45	0x3dd0165c	0.10160515
46	0xbd7801c5	-0.060548563
47	0x3d19744e	0.037464432
48	0xbe043d5a	-0.12914029
49	0xbdb34b76	-0.087546274
50	0x3dd9b978	0.106310785
51	0x3e079569	0.13240589
52	0x3e0195f4	0.12654859
53	0x3da77a05	0.0817757
54	0x3e543323	0.20722632
55	0x3d60e25f	0.054903384
56	0x3c0b5c5a	0.008505905
57	0x3ddeef03	0.108854316
58	0x3db6d754	0.08927789
59	0x3e83b5c8	0.25724626
60	0xbdfb3a91	-0.1226703
61	0x3d31f870	0.04344982
62	0xbddb7f29	-0.10717613
63	0xbe52a78f	-0.20571731
64	0xbe9b3b12	-0.30318505
65	0x3e06a8bf	0.13150309
66	0xbe43ec56	-0.19133124
67	0xbdc04320	-0.09387803
68	0x3e451693	0.19246893
69	0x3ec69c88	0.387913
70	0xbd4afa07	-0.04955485
71	0xbe777503	-0.2416573
72	0x3e836279	0.25661066
73	0x3df8c83a	0.12147565
74	0x3d6d61da	0.057954647
75	0xbe2a79e2	-0.16648057
76	0xbe03d497	-0.12874065
77	0x3dce66e2	0.10078217
78	0x3dd51929	0.104051895
79	0x3dd32061	0.1030891
80	0xbf07a623	-0.5298788
81	0xbeb8dd64	-0.36106408
82	0x3e97fbbe	0.29684252
83	0x3d357811	0.044303957
84	0xbdef4e14	-0.11684814
85	0x3de66077	0.11248868
86	0x3e99b5b0	0.3002143
87	0xbdba0fc7	-0.090850405
88	0x3e8e56bf	0.27800557
89	0x3eb41daa	0.35178882
90	0xbea397d6	-0.3195178
91	0x3d6ff618	0.058584303
92	0x3e7135da	0.23555699
93	0x3f00c394	0.5029843
94	0x3eea9faf	0.45824954
95	0xbe207ff7	-0.15673815
96	0xbe138879	-0.14407529
97	0xbe2268dc	-0.15860313
98	0x3daa5e86	0.0831881
99	0x3e6488ab	0.2231776
100	0x3e1700a8	0.14746344
101	0xbc148ee7	-0.009067274
102	0x3d7cd543	0.06172682
103	0xbe5e9c21	-0.21739246
104	0xba3cd78a	-0.00072037487
105	0x3dfa6f91	0.12228311
106	0x3d2a5bb9	0.04159138
107	0xbdb11c4d	-0.08647976
108	0x3e69fc26	0.22850093
109	0xbd913978	-0.070910394
110	0x3ca0e847	0.019642008
111	0x3c80a5a5	0.015703985
112	0xbd270a10	-0.04078108
113	0xbeecf3ae	-0.46279663
114	0xbd05e28b	-0.03268675
115	0x3e445a98	0.19175184
116	0xbb655e92	-0.0034998995
117	0x3db81d57	0.08989971
118	0x3d1d3e7a	0.03838966
119	0xbc6296d4	-0.013829906
120	0xbd2c8b9d	-0.042125333
121	0x3d910c48	0.070824206
122	0xbdce8038	-0.100830495
123	0xbdc54aca	-0.096334055
124	0xbc2890f6	-0.010288468
125	0x3e73144a	0.23738208
126	0x3c5be68e	0.013421668
127	0xbce1e5ae	-0.02757534
128	0x3d523d13	0.051327776
129	0xbdd884aa	-0.10572179
130	0xbe16f979	-0.14743604
131	0xbe0d793b	-0.13815777
132	0x3cf1fb94	0.029538907
133	0xbd616768	-0.055030257
134	0xbc9f7276	-0.019463759
135	0x3b3124b1	0.0027029926
136	0xbd16c88a	-0.036812343
137	0x3de06890	0.10957444
138	0x3d005865	0.0313343
139	0x3db926e9	0.09040625
140	0xbe921eea	-0.2853921
141	0x3bfdc92c	0.007744929
142	0x3e1fb7ed	0.15597506
143	0x3dc0f225	0.094211854
144	0xbdaa904f	-0.08328306
145	0xbcdaa219	-0.026688622
146	0xbdbd78a9	-0.0925153
147	0xbead2ccc	-0.3382324
148	0xbe8f634f	-0.28005454
149	0xbe234c04	-0.15946966
150	0xbe006646	-0.12539014
151	0x3da0be37	0.078487806
152	0x3d471def	0.04861253
153	0x3e01890d	0.12649937
154	0xbe36bb27	-0.1784483
155	0x3e6e3519	0.23262443
156	0x3ddd42a8	0.10803729
157	0x3e639303	0.2222405
158	0x3e204b3c	0.156537
159	0x3d8ca932	0.06868209
160	0x3d5d72d2	0.05406458
161	0x3d63c97d	0.055612076
162	0x3de01017	0.10940569
163	0xbcfb428c	-0.03067138
164	0x3d6aad3c	0.057294115
165	0x3d84ff10	0.06493962
166	0x3d2aae89	0.041670356
167	0x3e128485	0.14308365
168	0x3e58903d	0.21148773
169	0x3d9fa83b	0.07795759
170	0xbdf01c92	-0.11724199
171	0x3d067913	0.03283031
172	0x3e5c4e2a	0.21514192
173	0x3e186b4a	0.14884678
174	0x3e1336de	0.14376399
175	0x3e4b0d2a	0.1982924
176	0xbe69fb99	-0.22849883
177	0xbd72a43e	-0.059238665
178	0x3cca74a5	0.024713824
179	0x3cb6f1b2	0.022332046
180	0xbc2adc7a	-0.010428542
181	0x3cb96ace	0.022633936
182	0x3db655ff	0.08903121
183	0x3d543e30	0.05181712
184	0xbdf5e696	-0.120068714
185	0x3e44a98d	0.19205303
186	0xbd07c5f7	-0.03314778
187	0x3cb28439	0.021791564
188	0xbdfc33c1	-0.12314559
189	0x3e95cdfa	0.2925871
190	0x3d3836ed	0.044974256
191	0x3e585f68	0.21130145
192	0x3e47ec92	0.19523838
193	0xbdc8d983	-0.09807112
194	0xbd939bdd	-0.07207463
195	0x3e4618e7	0.19345437
196	0x3e25cafc	0.16190714
197	0xbe3dafd6	-0.18524107
198	0x3e22b376	0.15888771
199	0xbd5cec81	-0.053936485
200	0x3d8ae220	0.06781411
201	0xbe0ac31d	-0.13550992
202	0xbe028c0c	-0.12748736
203	0xbe2591fc	-0.1616897
204	0x3e960e27	0.29307672
205	0x3df11985	0.117724456
206	0x3cd9253e	0.026507016
207	0xbdeca18a	-0.11554249
208	0xbc197bca	-0.0093678925
209	0x3dbed790	0.09318459
210	0xbd77f3f7	-0.060535397
211	0xbe9e7466	-0.3094818
212	0x3e0db51f	0.13838623
213	0x3e9f5987	0.3112299
214	0xbd8f8d09	-0.07009322
215	0xbcbe2e2c	-0.023215376
216	0x3d353b68	0.044246107
217	0xbdadc542	-0.084848896
218	0x3d4e987a	0.05043838
219	0xbd51a36d	-0.051181246
220	0x3e3fc150	0.18726087
221	0x3d16daf6	0.03682991
222	0xbd0870cb	-0.033310693
223	0x3e78597e	0.24252889
224	0xbe01fc47	-0.12693892
225	0xbeac4048	-0.33642793
226	0x3e128529	0.14308609
227	0x3de8320a	0.11337669
228	0x3c575f7a	0.013145322
229	0x3e0bd8bc	0.13656896
230	0x3e37305e	0.17889544
231	0xbe0907ef	-0.13381933
232	0xbd1a3f2c	-0.0376579
233	0x3ca66e5d	0.020316297
234	0xbe966472	-0.2937351
235	0xbd554b6a	-0.052073874
236	0x3e9b95c2	0.30387694
237	0xbdcc8464	-0.09986189
238	0xbd8177b7	-0.06321662
239	0xbe3f23cb	-0.18665998
240	0xbe0cf5b6	-0.13765606
241	0xbe8b1dc1	-0.27171138
242	0x3de4ba83	0.11168387
243	0xbe93725f	-0.28798196
244	0x3e27060c	0.163109
245	0x3dfd1b42	0.12358715
246	0xbd91c24c	-0.07117137
247	0xbe0ecad5	-0.13944562
248	0xbe1bfa08	-0.15232098
249	0xbe9f72eb	-0.31142363
250	0x3d8f03c4	0.0698314
251	0x3d2c16b4	0.04201384
252	0xbe7bcd06	-0.24589929
253	0xbe229b69	-0.15879597
254	0xbcb55a58	-0.022137806
255	0xbd4506e8	-0.04810229

encoder.rnn.bias_ih_l0 f4 [128]
0	0x3d82b740	0.063826084
1	0xbe62b9db	-0.2214121
2	0x3cd0780a	0.025447864
3	0x3e369677	0.17830835
4	0xbe275866	-0.16342315
5	0xbdefd76c	-0.1171101
6	0x3c9efe53	0.01940838
7	0xbec6d7b0	-0.38836432
8	0xbb57b311	-0.0032913128
9	0xbbd11658	-0.0063808374
10	0xbe403bf7	-0.18772875
11	0x3b798c45	0.0038077992
12	0xbee1fc6f	-0.44137904
13	0xbd8caefb	-0.068693124
14	0xbd7a01da	-0.061036922
15	0xbe02f12c	-0.12787312
16	0xbe63a7e4	-0.22232014
17	0xbce75103	-0.028236872
18	0xbdffda18	-0.1249277
19	0x3e42e365	0.19032057
20	0x3dfe5cce	0.12420045
21	0xbdf45e0c	-0.119320005
22	0xbe893425	-0.26797596
23	0x3b48d731	0.0030645842
24	0xbc59a29b	-0.013283397
25	0xbe85ec1e	-0.26156706
26	0xbd57b9ab	-0.0526673
27	0x3e104ffa	0.14093009
28	0x3dc7bac6	0.09752421
29	0x3dbdfd61	0.09276844
30	0xbdd03926	-0.1016715
31	0xbed45ff9	-0.4147947
32	0x3eeee64c	0.46660078
33	0x3eaf5e6a	0.3425172
34	0x3cc4becb	0.024016758
35	0x3eba2967	0.36359712
36	0x3e454b32	0.19266966
37	0x3dd763fe	0.10517119
38	0x3e18a0bb	0.14905064
39	0x3de2a3f0	0.11066425
40	0xbe03fc57	-0.12889229
41	0x3c8e2396	0.017350953
42	0xbcf7275c	-0.030170135
43	0x3c2ddb52	0.010611372
44	0xbd827baa	-0.06371243
45	0x3ddab2b5	0.10678617
46	0x3e971945	0.29511467
47	0x3df512f6	0.11966507
48	0x3e18049e	0.14845511
49	0x3e85aef2	0.26110035
50	0xbe9408cd	-0.28912964
51	0xbdd521f0	-0.10406864
52	0xbdd6f699	-0.104962535
53	0xbd3b6931	-0.045754615
54	0xbd9d163f	-0.07670259
55	0x3e4c1950	0.19931531
56	0x3e24f982	0.16110805
57	0x3d08dd89	0.033414397
58	0xbdae9b35	-0.08525697
59	0x3eb8a306	0.36061877
60	0x3e455976	0.19272408
61	0xbd0219b0	-0.03176278
62	0x3e97dd8e	0.2966122
63	0x3e517782	0.20455745
64	0xbc44721c	-0.011990096
65	0x3df671e4	0.12033442
66	0x3dda545f	0.10660624
67	0xbc9f9b1f	-0.019483147
68	0x3e2d3920	0.16916323
69	0xbdb883c0	-0.09009504
70	0xbdc343e6	-0.09534435
71	0xbcfb18ab	-0.030651411
72	0xbdaa0115	-0.08300988
73	0x3cd521a3	0.026017016
74	0x3e1c2f7f	0.15252493
75	0x3d33431f	0.043765184
76	0xbe0da8d4	-0.13833934
77	0xbd3ac5a7	-0.045598652
78	0x3d97162d	0.073772766
79	0x3dae491a	0.08510037
80	0x3de491a8	0.11160594
81	0xbdad50bd	-0.08462665
82	0xbde1d9cf	-0.11027872
83	0x3d845202	0.06460954
84	0xbd964999	-0.073382564
85	0xbe305795	-0.1722091
86	0x3d2897f7	0.04116055
87	0x3e20984c	0.15683097
88	0x3d550ae6	0.052012347
89	0x3d5b6c3a	0.05357001
90	0x3da9b29c	0.0828602
91	0xbd090fa3	-0.033462178
92	0xbe186a82	-0.1488438
93	0x3d824336	0.06360476
94	0xbc10f2bd	-0.008846936
95	0x3d0406d4	0.032233074
96	0xbd028ce2	-0.031872638
97	0xbd35e23c	-0.044405207
98	0xbd25c70c	-0.04047303
99	0x3e459659	0.19295634
100	0xbc9efdbf	-0.019408105
101	0x3a5d6506	0.00084455346
102	0x3d8fdc0a	0.07024391
103	0xbc8527ef	-0.016254393
104	0xbe303043	-0.1720591
105	0xbdbc2a01	-0.09187699
106	0x3d880127	0.06640845
107	0xbdb18192	-0.08667292
108	0xbdc2a8c6	-0.09504847
109	0xbe7393b8	-0.23786819
110	0xbdd2995c	-0.10283157
111	0xbdfee22e	-0.12445484
112	0xbdbfa0e7	-0.093568616
113	0x3ea7019d	0.32618418
114	0xbde0877e	-0.10963343
115	0xbe1c514a	-0.15265384
116	0xbdca28f4	-0.098710924
117	0x3e4ef70f	0.20211433
118	0xbd971b10	-0.07378209
119	0x3c49b0f8	0.012310259
120	0xbe0901f1	-0.13379647
121	0xbe8bb571	-0.27286866
122	0x3dd938c8	0.10606533
123	0xbdcba2f5	-0.09943191
124	0xbdd9e987	-0.10640245
125	0x3c70c27c	0.014694806
126	0x3dbaa894	0.09114185
127	0xbdeaccc5	-0.11464838

encoder.rnn.bias_hh_l0 f4 [128]
0	0x3c64233c	0.013924416
1	0xbe38ec34	-0.18058854
2	0x3db1c1a8	0.08679515
3	0xbcd5422f	-0.026032535
4	0xbe921a99	-0.28535917
5	0xbd7a2e1b	-0.061079126
6	0xbd669fa8	-0.056304604
7	0xbe4eaf75	-0.20184119
8	0x3de83ea8	0.11340076
9	0x3d5fbdf7	0.054624524
10	0xbde4d059	-0.11172552
11	0xbe6f092b	-0.23343341
12	0xbee15530	-0.44010305
13	0xbe86b5de	-0.2631063
14	0x3c78ecd3	0.015193182
15	0xbdefcea9	-0.11709339
16	0xbe1cbb84	-0.15305907
17	0x3ade224f	0.0016947481
18	0xbda1b098	-0.07895011
19	0xbe1d89ad	-0.1538455
20	0x3dcb08d0	0.0991379
21	0xbddd981e	-0.1082003
22	0xbea13a6d	-0.31489888
23	0xbe119fea	-0.14221159
24	0xbe5bc7c6	-0.21462926
25	0xbe69b689	-0.22823538
26	0xbe3878d1	-0.18014838
27	0x3e9a6ddf	0.3016195
28	0x3cb01e1f	0.021498738
29	0x3b0d68ef	0.0021577438
30	0xbdeee836	-0.116653845
31	0xbec8c111	-0.39209798
32	0x3e7e623c	0.24842161
33	0x3eb5eed7	0.35533783
34	0xbd83d9d6	-0.06438033
35	0x3e9f279f	0.31084916
36	0xbc629f19	-0.013831877
37	0x3d5120e4	0.051056758
38	0x3e5cf229	0.21576752
39	0xbe089afe	-0.13340375
40	0x3d33139e	0.04371988
41	0x3e49d17c	0.19708818
42	0x3e00f3c2	0.12592986
43	0x3e7e79d9	0.24851169
44	0xbd273c48	-0.040828973
45	0x3e4c625e	0.19959399
46	0x3d99af51	0.07504142
47	0x3e5684e1	0.20949127
48	0x3e28067e	0.16408727
49	0x3e214c31	0.15751721
50	0xbe2f1867	-0.17099153
51	0xbd6e084b	-0.058113378
52	0xbe013dd4	-0.12621242
53	0x3d879381	0.06619931
54	0x3df0af6d	0.1175221
55	0x3e11531f	0.14191864
56	0xbd06b012	-0.032882757
57	0x3e241c1e	0.16026351
58	0xbd2035e4	-0.039113894
59	0x3ead727e	0.33876413
60	0x3e1c130b	0.1524164
61	0x3e388512	0.18019512
62	0x3b8bd24e	0.0042670136
63	0x3cf23aa2	0.029568974
64	0xbdf3362a	-0.11875565
65	0xbe1265c4	-0.14296633
66	0x3c9c0c58	0.019048855
67	0x3dcbb4eb	0.09946617
68	0xbd3130c3	-0.043259393
69	0x3c1c5a36	0.009542992
70	0xbbe0bfa1	-0.0068587814
71	0x3aea0c4f	0.0017856451
72	0xbdc99be5	-0.09844188
73	0x3d3afc23	0.045650613
74	0xbd31ae02	-0.043378837
75	0xbc7db240	-0.015484393
76	0x3cd78988	0.026310697
77	0x3dd8f72d	0.1059402
78	0xbe6ac6b0	-0.22927356
79	0xbd77231c	-0.060336217
80	0x3d2704fb	0.040776234
81	0x3e00c98e	0.12576887
82	0xbe27cdbe	-0.16387078
83	0x3d6a82e7	0.057253744
84	0x3d3b2b76	0.045695744
85	0xbbe3338c	-0.006933635
86	0x3b4c7025	0.0031194773
87	0xbd66f75c	-0.056388244
88	0x3e7bf4c3	0.24605088
89	0x3c4301a3	0.011902246
90	0xbca3e9a1	-0.020008864
91	0xbdd4b545	-0.10386137
92	0x3dce4f17	0.10073679
93	0xbe2f66a6	-0.17129001
94	0xbdf69f40	-0.12042093
95	0xbe4c1ec2	-0.19933608
96	0xbc9d9733	-0.019237136
97	0xbe320f5f	-0.17388676
98	0xbcb00da3	-0.021490877
99	0xbd44313b	-0.047898512
100	0xbd971552	-0.073771134
101	0xbe6b705d	-0.22992082
102	0xbde68cd6	-0.11257331
103	0x3ded734e	0.11594258
104	0xbe62f6af	-0.22164415
105	0x3db1465b	0.08655997
106	0x3d125e26	0.03573432
107	0xbc9c8d0d	-0.019110227
108	0xbe21d5b0	-0.15804172
109	0xbc2c6266	-0.010521507
110	0xb9a80158	-0.00032044458
111	0xbdca19f3	-0.09868231
112	0xbe58a876	-0.21158013
113	0x3e7a3a4a	0.24436298
114	0xbded98d3	-0.116014145
115	0xbe096c96	-0.13420328
116	0xbd7246fa	-0.05914972
117	0x3d496892	0.04917199
118	0x3ca8830e	0.020570304
119	0xbe3b753a	-0.18306437
120	0xbdbbac7c	-0.09163758
121	0xbe32ed3e	-0.17473313
122	0xbe51284f	-0.20425533
123	0xbdb0e22a	-0.08636887
124	0x3dde543e	0.10855912
125	0x3c364ae8	0.0111262575
126	0xbd7f3775	-0.062308747
127	0x3d13175e	0.035910957

decoder.rnn.weight_ih_l0 f4 [256, 32]
0	0x3f8063e2	1.0030482
1	0x3f3fc715	0.7491315
2	0xbee0c21f	-0.43898103
3	0xbe871ed0	-0.26390696
4	0xbd2d0fb3	-0.0422513
5	0x3e833fa5	0.25634494
6	0xbedef5b3	-0.4354683
7	0x3ec97ab0	0.39351416
8	0x3f09995a	0.5374962
9	0xbe19df8a	-0.1502668
10	0x3ed531ef	0.4163966
11	0x3ea25f57	0.31713364
12	0x3d6ea17d	0.058259476
13	0x3f09c554	0.53816724
14	0xbda1a5e3	-0.078929685
15	0x3eea562e	0.45768875
16	0xbec4848f	-0.38382384
17	0xbd0919f0	-0.033472
18	0x3f186db7	0.5954241
19	0x3ddf414c	0.10901126
20	0x3e802551	0.2502847
21	0x3e2a51b4	0.1663273
22	0x3ea9fd29	0.33200958
23	0x3c7c66c4	0.015405361
24	0x3e7709e6	0.2412487
25	0x3e8fa077	0.28052112
26	0xbe6ecded	-0.23320742
27	0xbe3ea20a	-0.186165
28	0x3f140a87	0.57828563
29	0x3f0429ae	0.516261
30	0x3ee2c8b3	0.44293746
31	0xbd9aa4b0	-0.07550943
32	0x3d0e79f5	0.034784276
33	0xbce32e2c	-0.027731977
34	0xbf1a32c4	-0.6023371
35	0xbe02a567	-0.12758408
36	0x3ca03be1	0.019559802
37	0x3ea9ef5f	0.33190438
38	0xbbb5264f	-0.0055282484
39	0x3e885827	0.26629755
40	0x3e85fa3f	0.26167485
41	0xbe2f22b7	-0.17103086
42	0x3db4858c	0.088145345
43	0x3e029357	0.12751518
44	0xbd12dac3	-0.03585316
45	0x3e146952	0.14493302
46	0xbe9a662a	-0.3015607
47	0x3d15d129	0.036576424
48	0xbe9e7cba	-0.30954534
49	0xbdc74dfa	-0.0973167
50	0xbe030c6d	-0.12797709
51	0xbd200edf	-0.039076682
52	0xbd174fdd	-0.036941398
53	0xbe681003	-0.22662358
54	0x3def6f1a	0.11691113
55	0x3d838e68	0.06423646
56	0xbddc8c61	-0.10768963
57	0x3e380d70	0.17973876
58	0xbe96cf16	-0.2945487
59	0x3c60a9ac	0.013712328
60	0x3e2a0aa9	0.16605629
61	0x3df28748	0.11842209
62	0x3e3f1b11	0.18662669
63	0xbdeebef1	-0.11657513
64	0x3e504f6b	0.20342796
65	0xbd13a27e	-0.036043637
66	0xbe5cf51e	-0.2157788
67	0xbe0428c5	-0.12906177
68	0xbe5bc78d	-0.21462841
69	0x3e218637	0.15773855
70	0xbdf741f1	-0.12073124
71	0xbe6dd06d	-0.2322404
72	0x3d2f787a	0.042839505
73	0xbdebf0f9	-0.11520571
74	0xbdafc693	-0.08582797
75	0xbdd168a4	-0.10225037
76	0x3e6b9cdc	0.23009056
77	0x3bc7069e	0.006073787
78	0x3d767f5c	0.060180053
79	0xbd162df2	-0.03666491
80	0x3e13ce93	0.1443427
81	0x3c141905	0.009039168
82	0x3e956f39	0.2918642
83	0xbd033b3a	-0.032038905
84	0x3d452df7	0.04813954
85	0x3df02631	0.117260344
86	0xbda5a5b6	-0.080882475
87	0xbdb5b82f	-0.08873021
88	0xbe501549	-0.2032062
89	0xbdc2f886	-0.09520058
90	0xbd214999	-0.03937683
91	0xbe174cfe	-0.14775464
92	0x3d4952da	0.04915128
93	0xbe1f8435	-0.15577777
94	0xbd9196ec	-0.07108864
95	0x3d120420	0.035648465
96	0x3d26d562	0.04073084
97	0x3d0dd362	0.03462542
98	0xbe427490	-0.18989778
99	0xbe4b7812	-0.19870022
100	0xbe16b2cf	-0.14716648
101	0x3b8b4421	0.004250065
102	0xbe01d765	-0.12679823
103	0x3d9b8db5	0.07595388
104	0x3e1d05ef	0.15334295
105	0xbd005da0	-0.031339288
106	0x3e51a269	0.20472111
107	0x3e2800d0	0.1640656
108	0xbe08e8cb	-0.13370053
109	0x3e255b2b	0.16148059
110	0xbe700d7a	-0.23442641
111	0xbdc06ad4	-0.09395376
112	0xbdf9932b	-0.12186273
113	0xbce1c81f	-0.027561245
114	0x3dd753f4	0.1051406
115	0x3d0cd9c7	0.034387376
116	0x3dce3f8b	0.100707136
117	0xbe37c376	-0.17945656
118	0x3c5848d7	0.01320096
119	0xbd4ea462	-0.050449736
120	0xbd769dd5	-0.060209114
121	0x3dfc614c	0.123232454
122	0xbe4a0665	-0.19729002
123	0xbe061489	-0.13093771
124	0x3a31640a	0.0006766921
125	0x3e1a1a0d	0.15049
126	0x3c4ca83c	0.012491282
127	0xbd90da5f	-0.07072901
128	0x3f5a1f98	0.8520446
129	0x3e0e5aa7	0.13901769
130	0xbe4f6254	-0.20252353
131	0x3b47a0aa	0.0030460753
132	0x3e1ce355	0.15321095
133	0x3dfae32f	0.12250363
134	0xbe244e10	-0.16045403
135	0xbc3628b4	-0.011118103
136	0x3e4c08ea	0.19925275
137	0xbd939c90	-0.07207596
138	0x3c75912b	0.014988224
139	0x3ea781a3	0.32716092
140	0x3e0769c5	0.13223942
141	0x3d1d0ad5	0.03834041
142	0x3dae0293	0.08496585
143	0x3eb55841	0.35418895
144	0xbe4a0a7c	-0.19730562
145	0xbd135aa6	-0.03597512
146	0x3d97c2ac	0.074101776
147	0xbe0a76c2	-0.13521865
148	0xbc079d1c	-0.008277204
149	0x3e7a36d6	0.24434981
150	0x3d6442fe	0.05572795
151	0xbd14f72e	-0.03636854
152	0xbe19c361	-0.15015937
153	0xbdd9b37b	-0.10629936
154	0xbe771ff4	-0.24133283
155	0x3e309983	0.1724606
156	0x3e60dbac	0.21958798
157	0x3e23dbb4	0.16001779
158	0x3de3e40e	0.11127482
159	0x3db260fe	0.08709906
160	0xbe029930	-0.12753749
161	0x3e0a3181	0.13495447
162	0x3e0886b8	0.13332641
163	0x3e4b017e	0.19824788
164	0x3d84c2d8	0.06482476
165	0x3d2fff08	0.042967826
166	0x3e33409a	0.17505112
167	0x3d228e7b	0.03968666
168	0x3e153a3f	0.14573
169	0xbd71d57a	-0.059041478
170	0xbda02636	-0.07819788
171	0x3d50f99e	0.051019304
172	0xbcdcd37c	-0.026956312
173	0xbda7d887	-0.08195596
174	0x3d51b341	0.05119634
175	0x3dd79da8	0.105281174
176	0xbd707f0e	-0.05871492
177	0x3d8a93f1	0.06766499
178	0x3c9d1ef6	0.019179802
179	0xbd8e6a4e	-0.0695387
180	0x3ea1a277	0.31569263
181	0xbd505b50	-0.050868332
182	0xbda277a8	-0.07932979
183	0xbd260e9a	-0.04054127
184	0x3bffc770	0.007805757
185	0xbdd434ca	-0.10361631
186	0x3e11b996	0.14230952
187	0x3e117b91	0.14207293
188	0xbe0493e7	-0.12947045
189	0xbe39fb46	-0.1816226
190	0xbdcce83d	-0.100052334
191	0xbd6604b0	-0.056156814
192	0x3c485a91	0.012228624
193	0x3cd5e3ba	0.026109565
194	0xbcdfb992	-0.027310167
195	0xbc0dffd8	-0.008666955
196	0xbeac7b6b	-0.3368791
197	0x3e30b06d	0.17254801
198	0xbb205c0d	-0.002446893
199	0x3ea0db35	0.31417242
200	0xbd5c9cb6	-0.05386039
201	0xbe709141	-0.2349291
202	0x3e24ea29	0.1610495
203	0xbd9b630c	-0.07587251
204	0xbe2dc7d1	-0.16970755
205	0x3d01d1f1	0.031694356
206	0xbdd52cd3	-0.1040894
207	0xbd8f23ad	-0.069892265
208	0xbcbf6a4a	-0.023366112
209	0x3e522aa7	0.20524083
210	0x3df36611	0.11884702
211	0xbc4e0f65	-0.0125769125
212	0x3cb794b2	0.02240977
213	0xbdf12ced	-0.11776147
214	0xbd8a1b04	-0.06743434
215	0xbe665225	-0.22492273
216	0xbd1de79e	-0.038550965
217	0xbe039424	-0.1284948
218	0x3e0049ae	0.12528107
219	0xbe6b2ad3	-0.22965555
220	0x3d052423	0.032505166
221	0xbd8b95df	-0.06815695
222	0xbdbbac9d	-0.09163783
223	0xbdace142	-0.08441402
224	0xbde32aa4	-0.110921174
225	0xbeab3c0f	-0.3344426
226	0x3ea74552	0.32670075
227	0x3c932c08	0.017965332
228	0x3e0d79f9	0.1381606
229	0xbc97f425	-0.018549034
230	0x3da70496	0.081551716
231	0x3dba2d55	0.09090678
232	0xbe1ccd57	-0.15312706
233	0x3df832b8	0.12119049
234	0xbdfe1552	-0.1240641
235	0x3dbd1edd	0.09234402
236	0x3d06a051	0.032867733
237	0x3c6a7db2	0.014312195
238	0x3cd862a2	0.02641422
239	0xbdad6b0b	-0.084676825
240	0xba754e87	-0.000935771
241	0xbdfff31c	-0.12497541
242	0xbd3cede7	-0.04612532
243	0x3d84e102	0.06488229
244	0x3e914051	0.28369382
245	0x3c61f665	0.013791655
246	0x3e6c8a27	0.23099576
247	0xbdd52065	-0.104065694
248	0xbd2b6f07	-0.04185393
249	0x3db2570b	0.087080084
250	0xbdf56af4	-0.1198329
251	0x3e26c709	0.16286863
252	0xbc550e81	-0.013003946
253	0xbd758e73	-0.059950303
254	0xbe0faef3	-0.14031582
255	0xbcbf82cc	-0.023377798

decoder.rnn.weight_hh_l0 f4 [256, 64]
0	0x3ed778eb	0.4208444
1	0xbeadeca2	-0.339696
2	0x3e29ba04	0.16574866
3	0xbe2de378	-0.16981304
4	0xbe71c957	-0.23611961
5	0xbef5bcf2	-0.47995716
6	0xbe831177	-0.25599262
7	0xbd292446	-0.04129436
8	0x3ea4ffcd	0.3222641
9	0xbddf67cd	-0.1090847
10	0xbc8e2227	-0.01735027
11	0x3c400a47	0.0117212
12	0xbee748c3	-0.451727
13	0x3ea52230	0.32252645
14	0xbd8b56f3	-0.068036936
15	0xbe93d7e7	-0.28875658
16	0xbe5078ce	-0.20358583
17	0xbe6f047b	-0.23341553
18	0xbd29af16	-0.04142674
19	0xbe0580bc	-0.1303739
20	0x3df9e451	0.12201751
21	0xbd90b5e7	-0.07065945
22	0x3e0219a4	0.12705094
23	0x3e07394e	0.13205454
24	0x3e940f96	0.2891814
25	0xbe80a048	-0.25122285
26	0x3eb731fd	0.35780326
27	0x3e8276da	0.25481302
28	0xbeac1617	-0.33610603
29	0x3e92311a	0.28553087
30	0x3d879207	0.066196494
31	0x3d72870b	0.05921082
32	0x3eb54a5b	0.3540829
33	0xbe91a855	-0.2844874
34	0x3e6062a1	0.21912624
35	0xbe94c733	-0.29058227
36	0x3e89c99a	0.26911622
37	0x3f180078	0.59375715
38	0xbe8abb2e	-0.27095932
39	0x3d9ba15b	0.075991355
40	0x3e9f7bba	0.31149083
41	0xbde6b3cd	-0.11264763
42	0xbe5f44b3	-0.2180355
43	0x3e56f756	0.20992789
44	0x3f2eff24	0.68358064
45	0x3e36b4b3	0.17842369
46	0x3e27d2ce	0.1638901
47	0x3e3e6215	0.18592103
48	0x3d7f1374	0.06227441
49	0x3f21b24b	0.6316268
50	0xbd7a9b0a	-0.061183013
51	0xbea65971	-0.32490113
52	0xbccc9861	-0.024975004
53	0x3e1dc2a1	0.15406276
54	0x3edb6217	0.42848274
55	0x3c92475b	0.01785629
56	0xbeae2c84	-0.34018338
57	0xbeacfafb	-0.33785233
58	0xbe622733	-0.22085266
59	0xbec9fbc0	-0.39449883
60	0x3eaefa37	0.34175274
61	0xbdf7e257	-0.12103718
62	0x3ba816b3	0.005129659
63	0xbe27e50e	-0.16395971
64	0x3e585c29	0.21128906
65	0x3e9192e5	0.28432384
66	0xbe9dedc1	-0.30845454
67	0xbe82bdbb	-0.25535378
68	0xbe007bf9	-0.12547292
69	0xbe45d0b1	-0.1931789
70	0xbee44934	-0.445871
71	0xbc2a54aa	-0.010396162
72	0xbe3fc333	-0.18726806
73	0x3e80792f	0.25092456
74	0xbd886e20	-0.0666163
75	0x3e2adacf	0.16685031
76	0x3b1f4884	0.0024304697
77	0x3e7f64a0	0.24940729
78	0x3df20aa9	0.118184395
79	0xbe2a13b9	-0.16609086
80	0xbeaab4f7	-0.3334119
81	0x3e21c0b7	0.15796171
82	0x3d87ade8	0.06624967
83	0x3d9e0563	0.07715871
84	0xbe87a089	-0.26489666
85	0xbe80659c	-0.25077522
86	0x3cdc5f8f	0.026901035
87	0x3e8963e6	0.2683403
88	0x3f0c5d86	0.54830205
89	0xbdc7b356	-0.097510025
90	0x3d571f3e	0.05252003
91	0xbc60c300	-0.013718367
92	0x3e84fdf6	0.25975007
93	0xbd7cd42c	-0.06172578
94	0x3e842787	0.25811407
95	0xbe638e8d	-0.22222348
96	0xbd9ce8bf	-0.0766158
97	0xbf1000b0	-0.5625105
98	0x3d5b3ba6	0.053523682
99	0xbeb1b531	-0.3470855
100	0x3e4119ae	0.18857452
101	0x3e1b2cdf	0.15153836
102	0xbe97edc2	-0.29673582
103	0x3c5b1cb5	0.0133735435
104	0x3ecfeb58	0.4060924
105	0x3cf3e908	0.029774204
106	0xbdc75af3	-0.09734144
107	0xbe2c81d3	-0.16846399
108	0x3de6bf63	0.11266973
109	0x3ea736cd	0.32658997
110	0xbe2caa31	-0.16861798
111	0x3e3de5d6	0.18544707
112	0xbd20dfe3	-0.039276015
113	0x3e0990bc	0.13434118
114	0xbea84658	-0.32866168
115	0xbe8a0ffc	-0.2696532
116	0x3d97103c	0.07376143
117	0x3e71fc8a	0.23631492
118	0x3ef85652	0.48503357
119	0xbe2bac90	-0.16765046
120	0xbf1df9ea	-0.61709464
121	0xbe941765	-0.289241
122	0xbd325c99	-0.04354534
123	0xbe99f03f	-0.30066106
124	0x3ebdf5db	0.37101635
125	0xbdafb985	-0.08580307
126	0xbf0ba661	-0.5455075
127	0x3e0fd80b	0.14047258
128	0x3e38768b	0.1801397
129	0xbe4d5853	-0.20053224
130	0x3e3b9c5f	0.1832137
131	0x3d82dc3c	0.063896626
132	0xbea3b97b	-0.31977448
133	0xbcea26cb	-0.028582951
134	0xbe1b6688	-0.15175831
135	0xbe05c793	-0.13064413
136	0xbe4c9040	-0.19976902
137	0x3d4fcd69	0.050733004
138	0xbdb2025b	-0.086918555
139	0x3d03f586	0.03221657
140	0x3c006dde	0.007838694
141	0x3e057255	0.13031895
142	0x3b20b084	0.0024519274
143	0x3da1fa0f	0.07909023
144	0xbdc52bbe	-0.09627484
145	0xbe10a697	-0.14126049
146	0x3d15758d	0.03648906
147	0xbb19be46	-0.002345936
148	0xbe51690b	-0.20450227
149	0x3d2d343f	0.042286154
150	0x3e074dc4	0.13213259
151	0x3e5682ea	0.20948377
152	0x3ce1b2b6	0.027551036
153	0xbe84f7b6	-0.25970238
154	0x3d2b6f6e	0.041854315
155	0x3daff080	0.085907936
156	0x3e1c6442	0.1527262
157	0x3e7c9745	0.2466708
158	0x3c0ffdd2	0.008788543
159	0xbe455ca7	-0.19273625
160	0xbd1b3d4e	-0.03790026
161	0xbce8156a	-0.028330524
162	0xbd07ac76	-0.033123456
163	0x3d669c6a	0.05630151
164	0x3bed5759	0.0072430787
165	0x3db5c4ba	0.08875413
166	0xbccdbbbd	-0.025113935
167	0x3d087af2	0.033320375
168	0x3e9c9abd	0.30586806
169	0x3d6015bf	0.05470824
170	0xbddba6a5	-0.10725144
171	0x3dc3ad21	0.09554506
172	0xbbb342f3	-0.0054706275
173	0x3c024754	0.007951576
174	0x3d26ebda	0.04075227
175	0x3c8bed3c	0.017080896
176	0x3d959b3b	0.073049985
177	0x3e184a30	0.1487205
178	0xbda1659d	-0.07880709
179	0xbe62519b	-0.22101443
180	0x3df8d6d0	0.12150347
181	0xbde638ff	-0.1124134
182	0x3e0c804d	0.13720818
183	0x3cb656cc	0.022258185
184	0xbe20da6c	-0.15708321
185	0x3c274c68	0.010211088
186	0xbe34fe26	-0.17675075
187	0xbcee1784	-0.029063947
188	0xbdd33557	-0.10312908
189	0xbe10306f	-0.14080976
190	0xbea0b04f	-0.31384513
191	0x3da1f241	0.079075344
192	0x3ea977e7	0.3309929
193	0xbe48ae55	-0.19597752
194	0xbd3c58cb	-0.045983117
195	0x3e7aabc4	0.24479586
196	0x3de28cfd	0.11062048
197	0xbdfbf51f	-0.123026125
198	0x3d90bf76	0.07067768
199	0xbe46723b	-0.19379513
200	0xbdc09094	-0.09402576
201	0x3ec9d52b	0.39420447
202	0xbc714411	-0.014725701
203	0xbc91f30c	-0.01781609
204	0x3d5f1e10	0.05447203
205	0x3d31aa60	0.043375373
206	0xbde15acd	-0.11003647
207	0xbe308964	-0.1723991
208	0xbe321b2d	-0.17393179
209	0xbddc18db	-0.10746928
210	0x3d49dc42	0.04928232
211	0x3ed06c78	0.40707755
212	0x3c52efe2	0.012874575
213	0xbe359915	-0.17734177
214	0xbbcc1a73	-0.006228739
215	0x3a98c202	0.0011654499
216	0xbd03ce60	-0.032179236
217	0xbe2dd72f	-0.16976617
218	0xbe2038f0	-0.1564672
219	0xbe02fd81	-0.12792017
220	0x3d11deff	0.035613056
221	0xbe6442e4	-0.22291142
222	0xbe2f4aa8	-0.17118323
223	0xbd354746	-0.044257425
224	0x3d67a8cf	0.056557473
225	0x3e88621c	0.26637352
226	0xbc47cb67	-0.012194491
227	0x3dbe7d91	0.09301294
228	0x3d826219	0.06366367
229	0x3e2fcf38	0.17168891
230	0xbe46634d	-0.19373818
231	0x3ab0c893	0.001348751
232	0xbd86cea2	-0.06582381
233	0xbe112c4b	-0.14177053
234	0x3c51d207	0.012806422
235	0xbcc18c07	-0.02362634
236	0xbd11f5b7	-0.035634723
237	0xbe0a6845	-0.13516338
238	0xbe9de002	-0.30834967
239	0x3e00e641	0.12587835
240	0xbce5c1c0	-0.028046489
241	0x3de75b63	0.112967275
242	0xbd33f7fc	-0.04393767
243	0xbe0a59d8	-0.13510835
244	0xbdd0c813	-0.10194411
245	0x3d4289b7	0.047494616
246	0xbd38aa5e	-0.04508435
247	0xbddf01fc	-0.1088905
248	0xbe2de67d	-0.16982456
249	0xbe48b543	-0.19600396
250	0x3e1abe75	0.15111716
251	0xbd95571d	-0.07292006
252	0x3e3e3fbc	0.18579
253	0x3e8aff62	0.27147967
254	0xbd5cc22c	-0.053896114
255	0xbe1db6a1	-0.15401699

decoder.rnn.bias_ih_l0 f4 [256]
0	0xbe6516cc	-0.22371978
1	0xbe0c5cc0	-0.13707256
2	0xbe84d95b	-0.2594708
3	0xbca50237	-0.020142658
4	0xbe4c4e11	-0.19951655
5	0xbe279f2c	-0.16369313
6	0x3d55bea7	0.052183773
7	0xbdc5d552	-0.09659828
8	0xbe7fbc70	-0.24974227
9	0xbe2cace3	-0.16862826
10	0xbcb1fa80	-0.021725893
11	0x3ce63ec6	0.028106105
12	0xbe6c31b2	-0.23065832
13	0xbe896132	-0.26831967
14	0xbe37b347	-0.17939483
15	0xbe8d9858	-0.27655292
16	0xbe5a4713	-0.21316175
17	0xbe9cce7d	-0.30626288
18	0xbe954272	-0.29152256
19	0xbdd3b126	-0.10336523
20	0xbe824de4	-0.2545005
21	0xbe2f5d87	-0.17125522
22	0xbe635401	-0.22200014
23	0xbd4188bb	-0.047249537
24	0xbdbebea2	-0.09313704
25	0x3d3943ff	0.04523086
26	0xbe387f95	-0.18017419
27	0xbe8ed79c	-0.27898872
28	0xbe13b8ae	-0.14425918
29	0xbe40f411	-0.18843104
30	0xbe152c99	-0.14567794
31	0xbd018597	-0.03162154
32	0xbe6efdf5	-0.23339064
33	0x3ba0f709	0.0049122614
34	0xbe4fd2b2	-0.20295218
35	0x3db86816	0.09004228
36	0xbde279d9	-0.11058397
37	0xbe12d738	-0.14339912
38	0xbe3c0bd2	-0.18363884
39	0xbe2a3015	-0.16619904
40	0xbe074187	-0.1320859
41	0xbe76aa52	-0.2408841
42	0xbd9b0d9b	-0.075709544
43	0xbe7cea82	-0.24698833
44	0xbe2ffde0	-0.1718669
45	0xbe68d9ea	-0.22739378
46	0xbd899d4c	-0.06719455
47	0xbe543866	-0.2072464
48	0xbdc36530	-0.09540784
49	0xbe4bb559	-0.19893397
50	0xbd66c89e	-0.056343667
51	0xbdb0d963	-0.08635213
52	0xbe17c0f2	-0.14819697
53	0xbde2147e	-0.11039065
54	0xbdd6867c	-0.104748696
55	0xbe96d53e	-0.29459566
56	0xbe1b6049	-0.15173449
57	0xbd4eb247	-0.050462987
58	0xbe236a1a	-0.15958443
59	0xbc205653	-0.009786206
60	0x3b73e75a	0.0037216754
61	0xbe45989e	-0.192965
62	0xbb723c0f	-0.0036962067
63	0xbdd88554	-0.10572305
64	0xbdc2651b	-0.094919406
65	0xbe860142	-0.26172835
66	0x3df15dad	0.11785445
67	0x3e4c81e0	0.19971418
68	0xbd3789f5	-0.0448093
69	0xbe4ef319	-0.20209922
70	0x3dc07dd3	0.09398999
71	0x3e0768ad	0.13223524
72	0x3d290f1a	0.041274168
73	0x3de7106f	0.11282431
74	0xbd876885	-0.066117324
75	0x3d88bcdf	0.06676649
76	0x3caf49e8	0.021397546
77	0xbe01225d	-0.12610765
78	0xbe564162	-0.20923379
79	0x3c2f41ea	0.0106968675
80	0xbd83c5a4	-0.06434181
81	0xbe87939d	-0.26479807
82	0xbe2f3de8	-0.17113459
83	0x3dc8fb2b	0.098135315
84	0xbe271e36	-0.16320118
85	0xbe53e23a	-0.20691767
86	0x3de8a959	0.113604255
87	0xbe44e5fa	-0.19228354
88	0xbde60839	-0.11232037
89	0xbe8cee6b	-0.27525648
90	0x3e83e456	0.25760144
91	0xbe869c3a	-0.26291066
92	0xbc618ff2	-0.013767229
93	0x3e39d00a	0.18145767
94	0x3cbe634c	0.023240708
95	0x3e01314f	0.12616466
96	0xbe12faae	-0.14353439
97	0x3e18c6b0	0.14919543
98	0xbe8cf5f6	-0.27531403
99	0x3e17ac23	0.14811759
100	0x3d401723	0.046897065
101	0xbcb90103	-0.02258349
102	0x3cc63013	0.024192845
103	0x3cb14717	0.021640344
104	0x3d8ea105	0.06964306
105	0xbdece99f	-0.11567997
106	0xbe0a29c2	-0.13492492
107	0xbe7f33ce	-0.24922106
108	0xbe3991d9	-0.18122043
109	0xbe9e5af0	-0.30928755
110	0xbc81a5f6	-0.015826207
111	0x3d1f3d61	0.038876895
112	0x3c4fd056	0.0126839485
113	0xbde5840f	-0.11206829
114	0xbd9f3061	-0.077728994
115	0xbec7c9a5	-0.3902103
116	0x3e865f94	0.26244795
117	0x3ca0e21b	0.019639065
118	0xbca7ca4d	-0.020482207
119	0xbe8d126e	-0.27553123
120	0xbe810251	-0.2519708
121	0xbd990e76	-0.07473461
122	0x3e3748f4	0.17898923
123	0x3d113de9	0.035459433
124	0xbe09af95	-0.13445885
125	0xbe219ca8	-0.15782416
126	0x3dc9ecbd	0.09859607
127	0xbd87eed2	-0.06637348
128	0xbc0b3d96	-0.00849857
129	0x3cd609ca	0.026127715
130	0xbe073759	-0.13204707
131	0x3e00481e	0.1252751
132	0xbc82dae7	-0.015973521
133	0x3e1592c2	0.14606765
134	0x3cf2eeca	0.02965488
135	0x3e38f6c9	0.18062891
136	0x3dec3482	0.115334526
137	0xbe05736f	-0.13032316
138	0xbd7bb97e	-0.061456196
139	0xbcb2abae	-0.021810379
140	0x3b85ad70	0.0040795133
141	0x3d4241e4	0.04742612
142	0x3e29a44d	0.16566582
143	0x3dd555a6	0.10416727
144	0x3dcb9a6e	0.099415645
145	0x3c71db96	0.014761826
146	0xbc6b0fde	-0.014347045
147	0xbd001ac2	-0.03127552
148	0x3e061be0	0.13096571
149	0x3d8e7758	0.06956357
150	0x3d975473	0.07389154
151	0xbe07feae	-0.13280746
152	0xbd88f61e	-0.06687568
153	0x3e0aabec	0.13542145
154	0x3cbe5a35	0.023236373
155	0xbe00bfa2	-0.12573102
156	0xbd1490a6	-0.03627076
157	0x3dc41db6	0.095759794
158	0x3c9295d5	0.017893711
159	0x3e12e710	0.14345956
160	0xbc84d243	-0.016213542
161	0x3d5b7dbb	0.053586703
162	0xbd59c65f	-0.053167697
163	0x3e490bbc	0.19633383
164	0xbdf3d022	-0.119049326
165	0x3c9284a1	0.017885508
166	0xbe055dbe	-0.13024041
167	0xbc02a50f	-0.007973923
168	0xbe172d88	-0.14763463
169	0xbd7cdbf5	-0.061733205
170	0x3e09eedb	0.13470022
171	0x3cd13b16	0.02554087
172	0xbcb04c6a	-0.021520812
173	0x3d6ab198	0.057298273
174	0xbbc84d37	-0.0061127204
175	0xbd990597	-0.07471769
176	0x3c608c25	0.013705288
177	0xbce2c3b6	-0.027681213
178	0x3d25e186	0.04049828
179	0x3d01ecc4	0.031719938
180	0x3e049697	0.1294807
181	0xbd2c9be2	-0.04214085
182	0xbc272d65	-0.010203694
183	0x3c17f1ae	0.0092739295
184	0x3d9a6d70	0.07540405
185	0x3d3b78c5	0.04576947
186	0xbc3a55d2	-0.011373
187	0x3df83f63	0.12121465
188	0x3cf9c413	0.030489003
189	0x3d267673	0.040640306
190	0x3c5bb7fe	0.013410566
191	0x3dc1986f	0.094529025
192	0xbe408445	-0.18800457
193	0xbdcf297a	-0.10115333
194	0x3b2e9cb9	0.0026643707
195	0xbcd0e8da	-0.025501657
196	0xbe128eea	-0.1431233
197	0xbdedcfe7	-0.1161192
198	0x3d8103e2	0.06299569
199	0xbb3e0d9a	-0.0028999806
200	0x3c2d4910	0.0105765015
201	0xbd4eaa1f	-0.05045521
202	0xbcd05b87	-0.025434269
203	0x3e1017a9	0.14071526
204	0xbd5542b1	-0.052065555
205	0xbe9c092f	-0.30475757
206	0xbe2283ec	-0.15870637
207	0xbe084a04	-0.13309485
208	0xbdd28b34	-0.10280457
209	0xbdf55e90	-0.11980927
210	0xbe839731	-0.25701287
211	0xbe62e75a	-0.22158566
212	0xbe4c7b69	-0.19968952
213	0xbe5cc916	-0.21561083
214	0xbc6a40fa	-0.014297718
215	0xbe530ac7	-0.2060958
216	0xbe47adae	-0.19499847
217	0xbde4f8d3	-0.11180272
218	0xbde4e097	-0.111756496
219	0xbd17c786	-0.037055515
220	0xbe4af99d	-0.19821782
221	0xbd1b7f09	-0.037962947
222	0xbcd9c09a	-0.026581097
223	0xbca93922	-0.020657126
224	0xbeaed785	-0.34148803
225	0xbcb141b0	-0.021637768
226	0xbdd58e30	-0.10427511
227	0xbdb949c4	-0.09047273
228	0xbdf5669c	-0.11982462
229	0xbcce7089	-0.025200145
230	0xbd92f8f3	-0.071763895
231	0xbe76f9e1	-0.24118759
232	0xbe38ed1b	-0.18059199
233	0xbe5bda05	-0.21469887
234	0xbc97dd45	-0.018538127
235	0xbe086e97	-0.13323437
236	0xbe3abff3	-0.18237285
237	0xbe065cc8	-0.1312133
238	0xbdf21e2b	-0.1182216
239	0xbd248d5d	-0.040173877
240	0xbe3d2d92	-0.18474415
241	0xbe220444	-0.1582194
242	0xbea3c8a1	-0.31989005
243	0xbe5bfa66	-0.21482238
244	0x3e27f84f	0.16403316
245	0xbd184ccd	-0.037182618
246	0xbe25f7f1	-0.16207863
247	0xbd38c699	-0.045111272
248	0xbe394a2b	-0.18094699
249	0xbe2630e4	-0.16229588
250	0xbc3958f2	-0.01131271
251	0x3cc75923	0.024334496
252	0x3c8d3f78	0.017242178
253	0x3bdd50c8	0.0067540146
254	0xbcd871cb	-0.026421448
255	0xbe833cbd	-0.25632277
