detector_dev/test_detection_normalizing/models/cnn_lstm_ae_normalized_all_hv_detector.pt (torch, 129255 bytes, 12 tensors)

encoder.cnn.weight f4 [8, 4, 16]
000000 5c 5d 16 3d 54 c8 f7 3c 43 16 dc 3c 0c 57 d2 3c
       0.03671013 0.030246891 0.026866084 0.025676273
000010 65 02 c7 3c 97 0f a3 3c 67 06 71 3c 6a 0b 32 3c
       0.024293134 0.019904895 0.014710999 0.010866979
000020 a0 4c 62 3b 16 3f db ba 22 7a fa bb 8e b6 64 bc
       0.0034530535 -0.0016727175 -0.007643954 -0.01395954
000030 c8 37 a0 bc 8f 66 d9 bc aa df 0a bd f1 f6 28 bd
       -0.019557849 -0.026538162 -0.03390471 -0.041251127
000040 2b 5a c1 be e0 20 bb be de 00 b0 be b6 ba a0 be
       -0.37764105 -0.3654852 -0.34375662 -0.3139245
000050 0f 33 93 be 47 b8 85 be d6 ef 68 be ca 0f 43 be
       -0.28749892 -0.26117155 -0.2274774 -0.19048992
000060 57 0f 22 be a1 f0 08 be 40 04 e1 bd d1 74 e1 bd
       -0.15826164 -0.13373043 -0.10987139 -0.11008609
000070 91 ac ee bd c0 5c e9 bd e7 bc e7 bd c6 f8 df bd
       -0.11654008 -0.11394644 -0.11315327 -0.10936122
000080 ae 25 13 be db 9d 16 be 88 97 19 be e0 37 1c be
       -0.14369842 -0.14708655 -0.14999211 -0.1525569
000090 4a 77 1e be 0c 59 20 be 51 e3 21 be 05 5a 23 be
       -0.15475193 -0.15658969 -0.1580937 -0.15952308
0000a0 0e c5 24 be c6 0c 26 be 00 29 27 be b2 3a 28 be
       -0.16090795 -0.1621581 -0.16324234 -0.1642864
0000b0 2c 37 29 be 7c 4d 2a be 4e 93 2b be 4e fc 2c be
       -0.16524953 -0.1663112 -0.16755411 -0.16893122
0000c0 a1 36 e5 be 00 74 cb be ed c2 ac be f2 9d 94 be
       -0.4476824 -0.39736938 -0.33742467 -0.29026753
0000d0 e0 4e 81 be 1f d5 61 be 70 0b 49 be a7 79 38 be
       -0.2525549 -0.22053955 -0.1963327 -0.18015157
0000e0 fe 16 2e be 17 4b 2a be 82 32 2d be fe 6b 37 be
       -0.17000958 -0.16630207 -0.16913798 -0.1791229
0000f0 c1 99 4a be e2 16 65 be da d2 80 be a8 88 92 be
       -0.19785215 -0.2237201 -0.25160867 -0.28619885
000100 f1 e7 11 3e 41 e4 f0 3d 9d 2b 0f 3e ad 80 1d 3e
       0.14248635 0.11762286 0.13981481 0.15381117
000110 ff 2d 14 3e 87 f9 11 3e e7 80 2c 3e a9 d9 20 3e
       0.14470671 0.14255343 0.16846047 0.15708031
000120 e1 e0 1c 3e 89 04 14 3e d6 94 17 3e ac 55 34 3e
       0.1532016 0.14454855 0.1480287 0.17610806
000130 be d2 1a 3e 00 b4 1d 3e ac f1 1a 3e ab b3 21 3e
       0.15119454 0.15400696 0.15131253 0.15791194
000140 d4 7a 0e bd 7f 5a 22 bb 49 b4 12 3d 2e 67 75 3d
       -0.034785107 -0.0024773178 0.035816465 0.059912853
000150 2b 39 a7 3d c6 43 d8 3d 7c 61 f8 3d 9d dd 0d 3e
       0.08165201 0.10559802 0.12127969 0.1385407
000160 c2 02 18 3e 1c 35 1c 3e 9e f9 2b 3e ff af 32 3e
       0.14844802 0.15254635 0.1679444 0.1744995
000170 e2 ba 39 3e e8 a7 46 3e 80 e2 50 3e 2e 3f 5f 3e
       0.18137696 0.19399989 0.20398903 0.21801445
000180 16 58 4f 3e 90 ba 3e 3e 95 33 45 3e a7 71 4d 3e
       0.20248446 0.18625855 0.19257958 0.20062886
000190 bd 3e 52 3e 73 77 4e 3e ab bb 4b 3e ca d5 54 3e
       0.20531745 0.20162754 0.19895808 0.20784679
0001a0 f5 5c 4c 3e 5b 0a 5c 3e 55 ea 5e 3e 1d 58 76 3e
       0.19957335 0.21488325 0.21769078 0.2405705
0001b0 c6 79 75 3e 0a 0a 84 3e 76 f3 65 3e ad 62 70 3e
       0.23972234 0.2578891 0.22456154 0.23475142
0001c0 e1 2c 86 3e 41 f0 92 3e 15 e8 9c 3e b2 ac a5 3e
       0.26206115 0.28698924 0.30645815 0.3235832
0001d0 15 57 ab 3e 55 ab af 3e 6f 05 b7 3e ad d8 b8 3e
       0.33464876 0.34310403 0.35746333 0.3610281
0001e0 61 14 be 3e 85 d6 c0 3e 76 fa c3 3e 9c 05 c9 3e
       0.37124923 0.37663665 0.38277024 0.39262092
0001f0 ff 1a cc 3e eb 77 d0 3e 5e 05 d4 3e c4 42 d7 3e
       0.39864346 0.4071649 0.41410345 0.42043126
000200 48 5b b5 3d 6b f4 14 3e f9 f0 bc 3d fa aa f1 3d
       0.08855301 0.14546363 0.092256494 0.11800189
000210 30 d6 d4 3d 59 2a 03 3e 67 40 43 3e b0 98 30 3e
       0.103924155 0.12809123 0.19067536 0.17245746
000220 84 b8 16 3e d8 d8 16 3e 8d 8e 26 3e 84 57 51 3e
       0.14718825 0.14731157 0.16265316 0.20443541
000230 3c 29 31 3e 68 f8 3f 3e 5c 2c 18 3e 17 59 2f 3e
       0.17300886 0.18747103 0.14860672 0.17123829
000240 19 09 a4 3e 7d d2 a3 3e 88 39 a3 3e 11 21 a1 3e
       0.3203819 0.31996527 0.3187983 0.3147054
000250 14 64 b9 3e 22 92 af 3e c0 83 8e 3e a3 2b 8a 3e
       0.36209166 0.34291178 0.27834892 0.26986417
000260 62 e0 89 3e e8 70 89 3e c3 29 84 3e 87 63 71 3e
       0.26929003 0.26843953 0.25813112 0.23573123
000270 29 cd 71 3e 66 4e 62 3e c4 08 54 3e 0e d1 2c 3e
       0.23613419 0.22100219 0.20706469 0.16876623
000280 47 11 69 3e 5f ce 41 3e a2 e7 49 3e 2e 27 52 3e
       0.22760497 0.1892638 0.19717267 0.20522758
000290 f2 09 5d 3e bb fd 35 3e 68 29 47 3e b4 e1 78 3e
       0.21585825 0.17772572 0.19449389 0.24304849
0002a0 2e c9 67 3e 72 33 6b 3e af 6b 76 3e 18 ab 8c 3e
       0.22635338 0.22968844 0.24064516 0.27474284
0002b0 c2 2f 8b 3e a8 e3 79 3e 2a 11 97 3e cf 9b 78 3e
       0.27184874 0.2440325 0.29505283 0.24278186
0002c0 7f f6 2e 3e c0 f2 73 3e 83 63 4e 3e 59 f9 4d 3e
       0.17086218 0.2382307 0.20155148 0.2011465
0002d0 47 6e 31 3e 37 0f 4d 3e 77 0b 6a 3e aa 1c 58 3e
       0.17327224 0.20025335 0.22855936 0.21104684
0002e0 4d 47 5a 3e ac 96 52 3e eb 06 40 3e a9 5b 58 3e
       0.21316262 0.2056529 0.18752639 0.21128716
0002f0 2c d3 37 3e f3 a7 19 3e 21 1c 1d 3e a5 c0 0f 3e
       0.1795165 0.15005474 0.15342762 0.14038332
000300 04 4c 62 bc b4 e2 3d 3c a4 25 c8 3b 85 ba df 3c
       -0.013812069 0.011589695 0.0061080027 0.02731062
000310 bf a9 7a 3c 84 53 fe bb d0 0c d3 3c e6 45 b9 3c
       0.01529926 -0.0077614207 0.025762945 0.022616338
000320 d4 a4 9d 3d 1e bd c3 bc 2c 59 e4 3c 5f 90 63 3c
       0.07697454 -0.023893889 0.027874552 0.013889401
000330 28 14 49 3c 84 99 cb 3d 44 7f 50 3c d2 26 72 3d
       0.012272872 0.0994139 0.012725655 0.059119053
000340 8c 63 94 3e eb 93 63 3e 3e f7 e2 3d cf 07 c0 3d
       0.28982198 0.22224395 0.11082314 0.09376489
000350 c7 3f 2b 3d 1a 29 88 3c 8e c6 90 ba f2 96 24 bc
       0.04180887 0.016621161 -0.0011045502 -0.010045754
000360 81 c7 86 38 5d 83 54 bc 1b c1 14 3c e6 81 8c bb
       6.4267784e-05 -0.012970773 0.009079243 -0.004287946
000370 3f 06 cb 3c cf c0 0a 3d bb f1 2f 3d 01 87 4f 3d
       0.024783252 0.033875283 0.04295514 0.05066586
000380 e2 71 a3 3d 44 70 f2 3d c1 62 0b 3e 29 1e 9b 3d
       0.07980706 0.11837819 0.1361189 0.07574112
000390 c7 c7 02 3e 58 5f e5 3d 9c 9e ff 3d 9a 84 ff 3d
       0.12771522 0.11199826 0.12481424 0.124764636
0003a0 1f c4 02 3e ae f6 03 3e 6c 77 09 3e 84 fb ef 3d
       0.12770127 0.1288707 0.13424462 0.11717895
0003b0 5e 11 12 3e 81 11 15 3e 7f 22 1b 3e 0a 37 1d 3e
       0.14264438 0.14557458 0.15149878 0.15353027
0003c0 31 d5 02 3e 4c 9c 05 3e 1a 8c e5 3c 37 11 30 3d
       0.12776639 0.13047904 0.028020907 0.042985167
0003d0 25 e6 d4 3c 9a 24 4f 3c 6d 3f 2f bd b3 bb 32 3d
       0.025988648 0.012643004 -0.042785097 0.043636035
0003e0 3f d2 ee 3a 8e c9 51 3b 6d c1 48 3c 46 d6 90 3c
       0.0018220617 0.0032011005 0.012253148 0.017680299
0003f0 ff a4 ff 3c fc 6f 92 3d ce 76 63 3d 99 c5 56 3d
       0.031206606 0.071502656 0.055533223 0.052434538

encoder.cnn.bias f4 [8]
000000 4c 34 49 be 25 97 5e 3e 87 7d 06 3e c4 be 28 bc
       -0.19648856 0.21737345 0.13133822 -0.010299388
000010 be b5 57 be b2 e9 8a 3d 71 83 5e 3d 10 bd 0c 3e
       -0.21065423 0.06782855 0.05432457 0.13743997

encoder.rnn.weight_ih_l0 f4 [128, 8]
000000 7b 55 05 be c7 91 56 be 03 be 82 bd 9f de 29 be
       -0.1302089 -0.20954047 -0.06383898 -0.1658883
000010 1d 5e 10 bd 3d 54 8a 3d a3 0f 87 bc 59 b2 34 be
       -0.035246003 0.067543484 -0.016486948 -0.17646159
000020 75 74 84 be bf 79 ac be f6 64 3b be 6e 1c 0e be
       -0.258701 -0.33686635 -0.18300232 -0.13878033
000030 61 94 05 be 2a 6b 44 be 90 24 93 be 47 e7 a1 be
       -0.13044883 -0.19181505 -0.28738832 -0.31621763
000040 49 e2 13 3d 42 42 f0 bd 42 17 34 3e 15 89 6e bd
       0.036104474 -0.11731388 0.17586997 -0.0582362
000050 70 63 8f 3d 8d 18 46 3e 58 9b cf 3e b7 7b e4 3e
       0.07001388 0.19345303 0.40548205 0.44625637
000060 50 e0 20 be 59 a9 9b 3d cc b4 d7 bc f3 1f bc bc
       -0.15710568 0.0760066 -0.026331328 -0.022964453
000070 61 91 33 3e f5 5e 10 3e 28 f2 6c 3d cb af cc 3d
       0.17535926 0.14098723 0.057848126 0.09994467
000080 82 00 35 be e8 fc 59 3c e5 1e 12 3e b0 de 53 bd
       -0.17675975 0.013304926 0.14269598 -0.051726043
000090 f6 e8 a3 3d ea 6f 1b 3e f3 bf 08 3e d5 d4 2c bd
       0.08003418 0.1517941 0.13354473 -0.04219516
0000a0 c1 4d 3e be 0e fa 82 be f4 6f 22 be 7b 63 f5 3d
       -0.18584348 -0.25581402 -0.15863019 0.11981865
0000b0 48 d5 2f be fc 05 a1 3c e1 6f 70 3e 11 f5 a7 bd
       -0.17171204 0.019656174 0.23480178 -0.082010396
0000c0 f9 81 f6 3d 0e df 97 3d ca 53 88 bd aa a5 d6 bd
       0.12036509 0.07415591 -0.066566065 -0.10480817
0000d0 7f 2b 08 3e 33 9a a4 3d a5 c9 b9 3d d9 9f 62 3d
       0.13297842 0.08037224 0.09071664 0.055328224
0000e0 f7 5b 90 bc aa ec f0 bd ec cb 83 3d 57 9c c6 3d
       -0.017621977 -0.1176389 0.064353794 0.09697788
0000f0 b8 c7 fc bb 5c a4 55 3d 1e 63 02 be ee ed 01 be
       -0.007714238 0.0521587 -0.12733123 -0.12688419
000100 96 b7 b7 bd 5f c1 17 be f5 93 5e 3d 52 7a 9f bd
       -0.08970563 -0.14819859 0.05434032 -0.077870026
000110 7e cb 6d 3d 09 5b d6 bd dd 00 2f be 28 71 ef bd
       0.058055393 -0.10466582 -0.17090173 -0.11691505
000120 e0 6b 62 3e 13 50 fd 3d 3f f6 cd 3c 86 11 be bd
       0.22111464 0.123687886 0.025141833 -0.09280686
000130 6c 5a 64 3d 3b 12 46 3e 22 bb 68 3e 82 2e 17 3e
       0.055750296 0.19342892 0.22727636 0.14763835
000140 46 18 a8 3d a2 b3 25 be f0 4f 86 bd 5a 47 2f 3e
       0.08207755 -0.16181806 -0.065582156 0.17117062
000150 ae 76 58 3d a2 f0 fd 3d 29 7b 13 3e 51 b1 83 3d
       0.052847557 0.12399413 0.1440245 0.06430305
000160 f1 cc 49 ba a0 7a 80 bd b9 6b 2f bd a8 3a 95 3e
       -0.000769808 -0.06273389 -0.04282734 0.29146314
000170 0c a1 a1 3e f3 f9 05 3e 44 0f b5 3d 4e f7 e1 3d
       0.31568182 0.1308363 0.08840802 0.11033498
000180 dd 61 04 be 22 ec 83 bd 51 1a af 3d 97 2d 36 bd
       -0.12927957 -0.06441523 0.08549941 -0.04447707
000190 b8 1e 51 3a f4 74 9b 3d 41 f5 17 3c ad 1a ff bd
       0.0007977295 0.075906664 0.009274782 -0.1245626
0001a0 6f a4 40 3d 8d bf 6d be bf 7b 82 be 57 8d eb bd
       0.047031816 -0.23217602 -0.25485036 -0.11501568
0001b0 61 72 46 3d d1 3a 5f be cd ac ef bd 2a 16 24 bd
       0.048448924 -0.2179978 -0.11702881 -0.0400602
0001c0 f3 e6 11 be 19 9f 5b bd d3 85 3a be e7 ad b3 bd
       -0.14248256 -0.053618524 -0.18215112 -0.087734036
0001d0 10 25 12 be b8 18 28 bd 7e 91 56 3c a2 91 6f be
       -0.1427195 -0.0410392 0.0130962115 -0.23395398
0001e0 5b b6 b4 bd 90 2e f9 bd 07 6d 9e bd 97 31 ba bd
       -0.08823844 -0.12167084 -0.07735639 -0.0909149
0001f0 e9 02 80 be e6 fb 82 be a5 cb 8e 3d 1b f1 5d be
       -0.2500222 -0.25582808 0.06972436 -0.21674006
000200 20 8b ec 3d d3 fd ec bc f5 f8 76 3d 34 e5 0e 3e
       0.115499735 -0.028929627 0.060296018 0.13954622
000210 b2 04 04 bd 4d 75 1f 3e e5 a9 c0 3c 4b eb a7 bd
       -0.03223104 0.1557209 0.023518512 -0.081991754
000220 76 4b ff bd 83 39 f9 bd bd a4 24 be 7e 8a 28 bd
       -0.12465565 -0.121691726 -0.16078468 -0.0411477
000230 7e 08 3d be 76 af aa 3d 4c 8c b0 bd d8 ea db 3d
       -0.18460271 0.08334248 -0.086205095 0.10738152
000240 ea 58 77 be 4c 14 8d 3c bd 6f ab bd 24 7d 07 3e
       -0.24155012 0.017221592 -0.08370922 0.13231331
000250 68 b0 64 3d ea cc b9 bc 53 03 31 bd f8 5c 2c be
       0.055832297 -0.022680718 -0.04321606 -0.1683234
000260 9a 16 64 3e d2 45 28 3d 47 91 03 3e 55 eb e0 bd
       0.22274247 0.04108221 0.12848388 -0.10982386
000270 53 c1 05 3e 93 94 13 3c 50 1c 85 3c c0 91 6a bd
       0.13062029 0.009007591 0.016248852 -0.057267904
000280 12 91 d1 bd 7f 67 8c 3d 52 cb d9 3d 9d 45 2a 3e
       -0.10232748 0.06855678 0.106344834 0.16628118
000290 f9 fa 16 3e 2e eb 63 3d 36 aa f3 3b a9 38 c7 3c
       0.14744176 0.055644207 0.007436062 0.02431901
0002a0 c1 73 02 be f9 3f 52 be 70 e7 d4 3d 5a 4a f9 3c
       -0.12739469 -0.20532216 0.10395706 0.030430961
0002b0 5b ea 13 3d 4d e0 0e be 7c e8 56 bc b5 3f 12 3e
       0.03611217 -0.13952751 -0.013116952 0.14282115
0002c0 88 e6 37 3e 8a 7a 28 be a6 96 03 3d 98 0b c0 3d
       0.17959034 -0.16452995 0.03212609 0.09377211
0002d0 ab 16 17 be b3 67 73 3d 38 90 3d bd c6 6f e9 3d
       -0.14754741 0.059425067 -0.046280116 0.11398272
0002e0 24 19 00 3c db 7b 1a be 20 cd 0a 3e 01 84 84 bd
       0.007818494 -0.1508631 0.13554811 -0.0647049
0002f0 4b ee 3a be f0 8b 80 bb e6 cc 49 be 61 81 55 be
       -0.18254964 -0.003922932 -0.19707069 -0.20850135
000300 81 d3 a0 bd 9b f2 88 be c7 a9 1c be 44 bf 99 bc
       -0.07852841 -0.26747593 -0.1529914 -0.01876796
000310 b7 69 24 3d 63 43 53 bd 22 04 20 be 94 de 29 be
       0.04013988 -0.051577937 -0.15626577 -0.16588813
000320 6d 1e 20 be 3b dc 32 bc f3 89 42 3e 9e ac 06 be
       -0.15636607 -0.010916765 0.18997936 -0.13151786
000330 4b fb 99 3d 1c 5b cf 3a b0 05 bb bd c2 81 f2 3d
       0.075186335 0.0015819999 -0.09131944 0.118411556
000340 56 c7 ca bc 6e a6 62 bc e0 8e 7a bc 2b e6 85 3d
       -0.024753254 -0.013833625 -0.015292853 0.06538042
000350 74 14 97 3a 88 50 83 3d 4f 26 2a be 76 c8 7f 3d
       0.0011526481 0.064118445 -0.16616176 0.062447034
000360 54 25 ad 3a 31 b7 8a 3d 0b ca b2 3d 13 24 b0 bd
       0.0013209977 0.06773222 0.08729943 -0.086006306
000370 ce 58 21 bc d2 16 35 3e a1 42 aa 3d e2 3a ab bd
       -0.009847833 0.17684487 0.0831349 -0.083608404
000380 6c 7f c6 bd 82 24 ed bd dc 7e 06 be 17 65 6d 3e
       -0.096922725 -0.11579229 -0.1313433 0.23183094
000390 d0 02 f7 3d 77 82 8f 3d c9 c9 02 be 49 9d 02 be
       0.12061083 0.07007306 -0.12772287 -0.12755312
0003a0 33 52 b4 3d 6c 19 df 3d da 3e 7f bc 33 1a 2a 3e
       0.08804741 0.10893521 -0.01557895 0.16611557
0003b0 ae c8 91 bc e6 f1 2f 3e 7a b9 19 bd c8 8f 28 bd
       -0.017795887 0.1718212 -0.0375304 -0.041152745
0003c0 4f 93 e6 bd 72 a1 3b 3d 3e 76 7e 3d 86 82 17 bd
       -0.11258566 0.045808263 0.062124483 -0.03698971
0003d0 3a ec 8c be 33 88 e9 bb 2e b6 25 be 0f 0f c7 3c
       -0.27523977 -0.007126832 -0.16182777 0.024299173
0003e0 87 85 e4 3d b8 a9 9d bd a2 14 e4 bc ad 6e 60 3d
       0.11158281 -0.07698387 -0.02784187 0.05479305
0003f0 53 79 3a bd 66 71 9e 3d 85 aa 62 bd de 4a 54 3e
       -0.04552586 0.07736473 -0.0553384 0.20731685

encoder.rnn.weight_hh_l0 f4 [128, 32]
000000 4c 48 eb bd cd 0e a7 3d 3e e1 32 be d5 f7 b5 be
       -0.11488399 0.0815712 -0.17468736 -0.35540643
000010 e3 94 13 3c ca f4 8a bd 01 80 bf 3d 25 76 18 bd
       0.009007665 -0.06784971 0.09350587 -0.037222046
000020 50 a8 a6 3e 89 30 96 be 89 6b 00 3e 0e 38 9f bd
       0.32550287 -0.29333904 0.12541021 -0.077743635
000030 b9 12 b0 bd cc 04 19 be 64 fa 00 3e 37 cf 24 be
       -0.08597321 -0.14943236 0.12595516 -0.16094671
000040 ee 56 a1 3d 02 1c 14 3e 34 b4 a6 3c 48 d4 85 3d
       0.07877909 0.14463809 0.0203496 0.0653463
000050 c3 c2 10 be 6a 6d 40 3d 1e 76 83 bd 53 ba 34 3d
       -0.14136796 0.046979345 -0.064190134 0.044123005
000060 d4 c2 0e 3e fc 29 0c be d8 45 95 3e 0a 2b 09 3e
       0.13941509 -0.13687891 0.2915485 0.13395324
000070 1d 61 a3 3d 78 46 51 3e e5 30 00 be bf 54 f2 3d
       0.07977507 0.20437038 -0.12518652 0.1183257
000080 80 5e af 3d 81 51 0c 3d c0 b6 00 be 63 71 a1 be
       0.08562946 0.034257416 -0.12569714 -0.3153182
000090 72 4e e4 bd 87 b1 bb 3d 44 30 d3 3d 81 6e b5 bd
       -0.11147775 0.0916472 0.1031194 -0.088589676
0000a0 ae 65 97 bc 6e e0 6e bc 28 02 02 be f4 21 d1 3e
       -0.018481102 -0.014579875 -0.12696135 0.40846217
0000b0 a6 6d fe 3d 3a b1 98 bd 25 0b 0d 3e 9f f0 5c 3d
       0.124232575 -0.07455678 0.13773783 0.05394041
0000c0 6f a5 d6 3d bf 2c 70 be 99 0f 2a be d1 15 38 3d
       0.10480773 -0.2345457 -0.16607513 0.04494268
0000d0 6a b5 72 3c b5 f4 8b 3d 5c fb fa bc e5 cc d9 bd
       0.01481376 0.068337835 -0.030637436 -0.10634784
0000e0 1b bf 63 3d 8b d3 11 be 34 70 59 bd 2d 09 92 bb
       0.055602174 -0.14240853 -0.05308552 -0.0044566602
0000f0 2f 69 9a 3d e2 da 6b 3e c2 b9 17 3d eb 27 d0 bb
       0.075395934 0.23032716 0.037042387 -0.006352415
000100 d0 57 78 bd 50 08 f8 3c 62 a0 b7 bd 26 68 3f bd
       -0.06063062 0.030277401 -0.089661375 -0.046730183
000110 c3 8b 0a 3e 0c 23 f0 3d 73 40 b0 bd 3a 52 62 3c
       0.13529877 0.11725435 -0.08606043 0.01381355
000120 26 b5 0b 3e 0b 2a 3f 3d 88 9f a8 3d 08 c1 38 3e
       0.13643321 0.046670955 0.08233553 0.18042386
000130 fe e0 b2 bc 1d f6 e5 3d 23 79 88 3d 6d b7 98 bc
       -0.0218358 0.11228583 0.0666373 -0.018642152
000140 14 73 d8 bd 7e 9c 90 bd 24 22 e4 3b cc 5d e3 3c
       -0.105688244 -0.070610985 0.0069620777 0.027754687
000150 d1 13 f5 3d bc 1e 1f 3b b0 12 db bd 68 b9 14 3d
       0.1196667 0.0024279794 -0.10696924 0.03630963
000160 e4 02 3f 3e 1f e0 50 be 44 43 02 3d c0 a0 03 3d
       0.18653446 -0.20397995 0.03180243 0.032135725
000170 42 5d f3 3d 6d 63 2c bd f0 78 4d be 7b be 82 3d
       0.11883022 -0.042087007 -0.20065665 0.063839875
000180 e6 af a5 bd be 61 81 3d d0 c9 c9 be 60 73 0e be
       -0.080901906 0.06317471 -0.39411783 -0.139112
000190 f7 f6 a7 3e b3 9d ae bd 2f 9f 0f 3e 1c 36 bd 3d
       0.32805607 -0.085261725 0.14025567 0.09238836
0001a0 d8 a3 92 3d 3c 9b 08 3d 1b 97 af 3e 5a c0 6d bd
       0.07160157 0.033351168 0.34294972 -0.05804477
0001b0 6d 76 5c 3e 94 90 06 bd e9 9f bf 3d 8b 76 66 3d
       0.21529551 -0.032852724 0.09356672 0.056265395
0001c0 4f 6a d6 3d d2 4f 6e 3e f5 a9 b3 3e d8 be 80 be
       0.104694955 0.23272637 0.35090604 -0.25145602
0001d0 2f 83 4a 3d 98 53 81 3e 51 02 0c 3d b3 9f fc bd
       0.049441513 0.2525909 0.034181897 -0.12335148
0001e0 9e 87 a4 3e cd cc f1 bd d8 fe 9f 3e 25 4f 7c 3e
       0.32134718 -0.11806641 0.31249118 0.24639566
0001f0 fb 0f 39 bd 02 96 52 3d d0 fe 88 3d 87 36 d4 be
       -0.045181256 0.05141259 0.066892266 -0.4144785
000200 3a b7 67 3d 16 5a 32 be e7 5a 22 be 10 6c b8 be
       0.056571223 -0.17417178 -0.15854989 -0.36019945
000210 b5 f5 75 bd 39 ef df 3d d9 ec 34 3d bc ce 18 bd
       -0.060048778 0.109343 0.044171188 -0.037306532
000220 05 3b fa 3d 97 b3 2e 3d 9a b7 24 bc 7a 0e b0 bc
       0.12218288 0.04265174 -0.01005354 -0.021491278
000230 d2 ee b8 3d 9c d1 e1 3d 3a 5e ec 3d aa 44 8f 3d
       0.09029926 0.11026308 0.1154141 0.069955185
000240 35 32 11 3e 54 fc 58 3e 63 3c 23 3e b2 80 80 3d
       0.14179309 0.21190006 0.15941004 0.06274547
000250 68 26 20 3c d4 b7 60 be 0e cf 82 3d ad 8c 2e bd
       0.009774782 -0.21945125 0.06387149 -0.042614628
000260 c7 59 ae 3e 22 d0 a1 bd 54 3e 47 bc a0 52 f7 3c
       0.3405287 -0.07901026 -0.012160856 0.030190766
000270 65 67 df bd 16 2f 11 be 40 65 5c be e1 30 4f be
       -0.10908393 -0.14178118 -0.21522999 -0.2023349
000280 fb 68 11 be a2 d9 c5 be 21 ad 9c 3e 78 1a ff 3d
       -0.14200203 -0.38642603 0.30600837 0.124562204
000290 ee cc 17 3e 2c 25 7c 3d 2d a6 94 3e 53 f3 6d 3e
       0.14824268 0.061558887 0.29033032 0.23237352
0002a0 e6 26 c4 bc 1a 26 44 3e 2e 61 5e ba f9 07 ef 3d
       -0.02394433 0.1915516 -0.0008483109 0.116714425
0002b0 f7 ec 20 3e c1 97 c5 bc c5 3e 66 3d 24 51 1b bd
       0.15715395 -0.024120213 0.056212205 -0.03791918
0002c0 20 9c 53 3d 3b 9c a7 3e c0 28 27 3e 5b b6 f2 bd
       0.051662564 0.32736382 0.16324139 -0.11851188
0002d0 69 78 af 3e 18 dc 9a be 09 75 ea 3d 41 e1 c0 bc
       0.34271553 -0.30246043 0.11448104 -0.02354491
0002e0 ce 06 11 3e 66 57 c6 bb 30 21 a9 bc 3f e9 2d 3e
       0.14162752 -0.006052899 -0.020645708 0.16983508
0002f0 f4 8c 5a bd e0 26 2d bc e0 17 84 be d1 4d 35 be
       -0.05335708 -0.010568351 -0.25799465 -0.17705466
000300 07 ae 04 3e d5 67 90 bd 60 6d 0c be 22 d7 61 be
       0.12957011 -0.070510544 -0.13713598 -0.22054723
000310 51 93 40 bd a3 b5 bc 3d ee 60 12 be 7a 97 b9 3d
       -0.047015492 0.09214332 -0.14294788 0.09062095
000320 8e 7f 3d 3d b0 55 c2 3d 7a db 66 3e 24 13 68 3e
       0.046264224 0.09489 0.22544661 0.22663552
000330 af 5e 6c be 15 d4 45 be bc 04 76 3e 0a 04 64 bd
       -0.23082994 -0.19319184 0.24025244 -0.055667914
000340 82 9c 99 bd ce 1d 44 3c 87 26 35 3e 0b 34 1d be
       -0.075005546 0.011969997 0.17690478 -0.15351884
000350 60 c5 19 3e a3 24 77 3d 83 16 e5 bc 16 09 d8 bd
       0.15016699 0.060337674 -0.027964836 -0.10548608
000360 01 96 18 3d 79 da e1 3d b2 53 c8 3d 7b f8 af bc
       0.03725243 0.110279985 0.097815886 -0.02148079
000370 ff 21 6b 3d 95 34 88 3c 2b 2a 36 be a5 13 d1 3d
       0.057405468 0.016626636 -0.17789523 0.10208825
000380 2c 1e a7 be 1a 77 0a 3e 22 c6 65 bc 86 6b 0c be
       -0.32640207 0.13521996 -0.014024289 -0.13712892
000390 56 e9 29 3e 9a 7f 05 3e 2e 9a 35 3e d9 85 02 3d
       0.16592917 0.13036957 0.17734596 0.03186593
0003a0 ed 47 7a 3d 5f 17 f1 bc 23 be fe bd 14 e0 62 bd
       0.06110375 -0.02943009 -0.124386095 -0.05538948
0003b0 e3 84 19 bd df 61 17 3e b7 8e 6f bd e7 dd 0e bd
       -0.037480246 0.14783429 -0.058485713 -0.03487959
0003c0 54 47 a2 3d 79 e6 57 bc 80 48 87 3d cb 55 b4 3c
       0.07923761 -0.013177508 0.06605625 0.022013566
0003d0 d5 45 77 3d 19 fe f5 bd 57 f0 13 3e 9e fe 5d 3d
       0.06036933 -0.12011356 0.14447151 0.0541979
0003e0 70 da d1 3c b7 3b eb 3a d4 4d 3a 3e a8 65 16 3e
       0.025616854 0.0017946874 0.18193752 0.14687216
0003f0 76 0c 32 be c8 f6 98 be 64 45 26 3e c8 2f 1e be
       -0.17387566 -0.2987578 0.16237408 -0.15447915

encoder.rnn.bias_ih_l0 f4 [128]
000000 26 8e 49 3e 41 82 74 bd c6 98 f1 3d 41 4a 24 3e
       0.19683132 -0.059694532 0.11796717 0.1604395
000010 c9 17 06 be 33 d8 4d 3e 8c 64 08 be 95 31 9f bd
       -0.13095011 0.20102005 -0.13319606 -0.07773129
000020 3e e5 72 3d 31 6e 06 3e af b0 48 3d 40 85 d7 bd
       0.059300654 0.13127972 0.048996624 -0.10523462
000030 35 2a 76 bd 79 93 ad 3c 30 20 ed 3d a0 be 4e 3e
       -0.060098846 0.021188485 0.11578405 0.20189905
000040 e6 2f 07 be 21 22 20 be 45 90 8a 3e 03 4f a2 3d
       -0.13201866 -0.15638019 0.27063194 0.079252265
000050 89 42 3a 3e 69 bf d7 bd 5e 41 16 3e 93 17 10 be
       0.18189444 -0.105345555 0.14673373 -0.14071493
000060 4a f3 1b be 4a 39 46 3b 55 34 0f 3e 98 95 aa 3d
       -0.15229526 0.003024655 0.13984807 0.08329314
000070 a9 a8 8c 3c fa 0e cf bd e1 06 51 3c f8 d9 40 be
       0.017170267 -0.101102784 0.012757988 -0.18833148
000080 98 34 59 3e bc 6d 1e 3d 5f 12 71 3d 35 35 40 3e
       0.21211469 0.03867887 0.05885541 0.18770297
000090 7b db bb 3d 5d 6c 6f bc 62 a3 88 3d 84 83 1d 3e
       0.09172722 -0.014613238 0.06671788 0.153822
0000a0 d1 64 50 3e f9 4d 96 3e b6 66 45 3e 28 f8 61 3e
       0.20350958 0.29356363 0.19277462 0.2206732
0000b0 4a f0 6d 3e 80 2e 40 3e ea 41 14 be ab 20 e3 3d
       0.23236194 0.18767738 -0.14478269 0.11090215
0000c0 c4 48 3d 3e ed 55 78 3e a1 7b 5d 3e ed 09 f8 bc
       0.18484789 0.24251528 0.21629192 -0.03027817
0000d0 2c c0 d2 3e 3e a9 93 3e 45 cc 31 3e e3 0b 0b 3d
       0.4116224 0.2884006 0.17363079 0.033946883
0000e0 b8 4b 82 3e 1b 15 da 3d 4c 3c 71 3d 49 2f 98 3d
       0.25448394 0.10648557 0.058895394 0.07430894
0000f0 6d 8e 8f 3e 43 7e 43 3e 5e ca cd 3d 64 11 aa 3e
       0.2803835 0.19091134 0.10048364 0.33216393
000100 41 c5 f6 bd e1 40 81 3e d8 0a 21 be 8a 0a 9f bb
       -0.12049342 0.2524481 -0.15726793 -0.0048535513
000110 ab 01 81 3d 18 77 0c be 7b 1c 9b bd 66 84 43 3d
       0.06299146 -0.13717306 -0.075737916 0.047733687
000120 10 8f e5 3d 6f 98 42 be 83 e4 32 3d 13 7d 7f bd
       0.11208928 -0.19003461 0.043674957 -0.06237514
000130 ca 5c d2 bc 73 7f 25 be 16 33 51 b9 68 d3 71 bd
       -0.02567901 -0.161619 -0.00019950824 -0.059039503
000140 b4 2d dc 3d 46 10 22 bc df 14 80 bc e2 dd c0 3c
       0.10750905 -0.009891575 -0.015634952 0.023543302
000150 12 88 19 3d 3a b8 3d bd 03 dc aa 3d c6 7b 17 bd
       0.037483282 -0.04631827 0.08342745 -0.036983274
000160 5d df f3 bc fd 1e 90 bd f5 59 9a bd 41 b2 2e 3e
       -0.029769594 -0.070371605 -0.07536689 0.17060186
000170 34 be 83 bd e5 54 45 3e 2b a8 08 3e c3 bb 60 bd
       -0.06432763 0.19270666 0.13345401 -0.054866564
000180 ef 86 b2 bd 22 a2 b7 3d cf 9f 7d bc e4 2c 34 3e
       -0.08717143 0.08966471 -0.015479996 0.1759525
000190 86 98 53 3a ef 71 76 3e 7c 61 cf 3d 90 cd e3 3c
       0.0008071739 0.240669 0.101260155 0.02780798
0001a0 41 d0 aa 3a 50 c5 8d 3d 05 7f 29 3d 8c 5b 25 3e
       0.0013032035 0.069224 0.0413809 0.16148204
0001b0 5a cd 77 3d 1a 46 5d 3e b3 e1 2b 3e cf 29 1d be
       0.060498573 0.21608773 0.16785316 -0.1534798
0001c0 74 68 2d bd 76 eb 9c 3c 57 23 f5 bd 70 24 6f 3d
       -0.042335942 0.019155245 -0.11969631 0.05838436
0001d0 de cb ca 3d 8d 02 4f 3b 55 bd d8 bd 91 5a 00 bc
       0.09902166 0.0031587214 -0.10582987 -0.007834093
0001e0 af ac 97 bd 26 b2 2a bb 48 45 78 3d 38 f0 3a 3d
       -0.07405984 -0.0026046126 0.060612947 0.045639247
0001f0 2d 22 a1 bc e6 8d de 3e de 53 86 3d 27 13 66 3e
       -0.019669617 0.43467635 0.06558965 0.22468244

encoder.rnn.bias_hh_l0 f4 [128]
000000 fd 94 10 bc b5 41 d0 bd c3 7b 42 3e 36 06 00 3e
       -0.008824584 -0.101687826 0.18992524 0.1250237
000010 cf 3d 58 3d 47 7f 0e 3e 2f e9 e1 bd 61 c2 8d bd
       0.05279332 0.1391574 -0.11030804 -0.069218405
000020 54 5d 30 be fa c8 04 3e b6 fe f3 bd c0 15 41 3e
       -0.17223102 0.12967291 -0.11913817 0.18855953
000030 53 e1 ee bd e1 64 44 3e 60 58 e4 3c 57 bb 3d bd
       -0.11664071 0.19179107 0.027874172 -0.04632124
000040 79 96 22 3e 25 0b bc 3d 11 fb 5c 3d e8 9e 30 bd
       0.15877713 0.09181813 0.053950373 -0.043120295
000050 a6 df 4b bc 5f 88 89 bd a6 9f 41 3e c1 a0 0c 3e
       -0.012443459 -0.06715464 0.18908557 0.13733198
000060 b8 e7 84 3d d0 05 24 be 67 0d b4 bd 27 0c db bd
       0.06489509 -0.16017842 -0.08791619 -0.10695677
000070 c4 7b 0a 3e f0 2c b2 bc 40 f5 9b 3c 39 76 44 be
       0.13523775 -0.021749943 0.019037843 -0.19185723
000080 4b fa 77 3e 4f 47 74 3e 5c db b1 3d 3c 82 3b 3d
       0.24216573 0.23855327 0.086844176 0.045778498
000090 a3 f5 ef 3d 81 7d 60 3e e9 a5 96 3c 89 e1 42 3e
       0.11716773 0.21922876 0.018389659 0.19031347
0000a0 04 39 09 3d 49 cf 99 3d 47 03 2b 3e 7c 74 85 3e
       0.03350164 0.0751024 0.16700469 0.26065433
0000b0 07 e7 f8 3e 06 d5 9b 3d 2f 46 c7 bd 2b c6 9f bd
       0.4861376 0.0760899 -0.09730183 -0.078014694
0000c0 fb 68 87 3e a8 17 16 3e 71 83 33 bc b1 a5 87 3e
       0.2644728 0.14657462 -0.010956631 0.264936
0000d0 27 5a 6c 3e 85 57 11 3e 5b 14 82 3e 6b af 8d 3d
       0.23081265 0.14193542 0.25406155 0.06918224
0000e0 b8 93 00 3e ab 13 83 3d cc a9 1e 3e a9 25 9c 3e
       0.1255635 0.06400236 0.1549446 0.30497482
0000f0 98 b3 71 3e 42 cf 63 3d 50 8b d9 bd 52 4e a3 3e
       0.23603666 0.05561758 -0.10622275 0.3189569
000100 2f 6c a6 3d 65 54 85 3e 27 ce a3 3d 06 b1 95 3d
       0.08126103 0.2604095 0.07998305 0.07309155
000110 84 14 06 3e 43 e4 e7 bd 92 99 0b 3e b5 ad 3a 3e
       0.13093764 -0.11322834 0.13632801 0.18230326
000120 a6 53 7e bd e7 ca 89 3d a5 e2 1c 3e ad ab ab 3c
       -0.062091492 0.06728154 0.15320833 0.020955885
000130 fd 88 95 bd 1f 6d e5 bd 64 02 91 be 20 b3 dc bd
       -0.07301519 -0.11202454 -0.28322136 -0.10776353
000140 02 a3 08 3d 44 72 eb bd 49 d5 d8 3d c3 99 1b 3b
       0.03335858 -0.11496404 0.10587556 0.0023742772
000150 4b af ca 3d 3d 9c 56 bd 7e b6 37 3e 2f c3 7b 3c
       0.09896716 -0.052395094 0.17940709 0.01536636
000160 d0 89 c3 bd 30 07 b0 bd 0b 86 08 3e f3 3c d9 3a
       -0.0954777 -0.08595121 0.13332383 0.001657395
000170 8d 70 13 3d 34 d4 a4 bd 99 a7 3a 3e 54 3f e8 3d
       0.03599601 -0.08048287 0.18227996 0.11340204
000180 2f f3 c7 3d bb e2 46 3e 31 4d 54 bd a2 c9 30 3e
       0.097631805 0.19422428 -0.051831428 0.17264417
000190 25 1c a8 3c a4 20 2c 3e c5 b3 57 3b d6 f9 85 3d
       0.020521233 0.16809326 0.0032913547 0.06541793
0001a0 90 ac ee 3d 2d bf 0f 3e 21 b5 00 3e 57 46 00 3e
       0.116540074 0.14037772 0.12569095 0.12526833
0001b0 30 ee 51 bc fe fa 4a 3d e1 9e 95 3d 0d 59 db 3c
       -0.012813136 0.04955577 0.07305694 0.026775861
0001c0 84 aa 20 3e 00 bd f5 3d d9 53 88 bd da cc 75 3d
       0.15690047 0.119989395 -0.06656618 0.060009815
0001d0 1b 26 c7 3d bc 56 2e 3e 51 f8 bb bb 39 bd b3 3d
       0.09724065 0.17025274 -0.0057363887 0.08776326
0001e0 68 cf 93 3d 76 54 a1 bd 90 e4 4a bd 19 8c b5 bd
       0.07217294 -0.07877438 -0.04953438 -0.08864612
0001f0 8f c4 af bb 2b 89 c9 3e 94 6d 49 3c 5b bb af 3d
       -0.005364008 0.39362463 0.012294192 0.08580657

decoder.rnn.weight_ih_l0 f4 [256, 32]
000000 b2 54 dd 3c de 0c 53 3e 7c 26 83 be d5 90 93 be
       0.027017925 0.20610377 -0.256153 -0.28821436
000010 e4 2c de bd b5 70 6b bc d0 27 75 3d ba 03 a2 3d
       -0.10848406 -0.014370133 0.05985242 0.07910867
000020 15 69 1e 3e c8 bf 83 3e 89 89 96 3c 6e af fe 3d
       0.15469773 0.25732255 0.018376129 0.12435804
000030 fa 94 a2 3d 9c d4 3d be a9 7f 51 3d d5 74 0e 3e
       0.07938571 -0.18538135 0.051147137 0.13911755
000040 61 d9 4f 3e 2c c0 80 bd 6c 82 bb bd 7d 62 4d 3d
       0.20297767 -0.06286654 -0.091557354 0.050142754
000050 d7 f5 a5 3d 5c c6 f5 3b 4e c2 76 3d ea bd 8e ba
       0.08103531 0.007500453 0.060243897 -0.0010890339
000060 b4 e8 3f 3e 0a 35 fa bc c8 6e 55 be 9f b9 b8 bd
       0.18741113 -0.03054287 -0.20843041 -0.090197794
000070 d7 30 8e 3d 58 2f e4 ba e3 1e 5f 3c 97 5d 2a bd
       0.06942909 -0.0017409129 0.013618204 -0.04159316
000080 ba e2 f2 bd 30 eb 07 bd ac 42 84 3e 71 50 0a 3e
       -0.11859651 -0.033183277 0.25832117 0.13507248
000090 44 2e 55 3e 20 a5 86 3d 93 8d 8f bd 80 f0 b9 3d
       0.2081843 0.06574464 -0.07009425 0.09079075
0000a0 ba bc 5e 3b 84 54 af 3d 61 a3 94 bd 57 c0 5e 3d
       0.0033987002 0.08561042 -0.072577246 0.05438265
0000b0 2b 1b b6 bd c3 a8 51 bd 34 8c 84 bd 71 4f d6 bd
       -0.08891901 -0.051186334 -0.06472054 -0.10464371
0000c0 b4 e3 b1 bb f0 10 a8 bd e9 13 29 bd 75 ed 48 3d
       -0.0054287557 -0.082063556 -0.041278753 0.04905458
0000d0 f4 9d 1b 3e f9 94 98 bd 05 bd 0c 3d b2 2c 0b be
       0.15196973 -0.07450289 0.03435995 -0.13591269
0000e0 dd de 83 3d ca cb 55 3e 72 0d 23 3d 50 9c 90 3d
       0.06438992 0.2087852 0.039807744 0.07061064
0000f0 f3 df 66 be 85 15 8e 3d f1 5e 64 bc b8 a9 a8 3d
       -0.22546367 0.06937698 -0.013938651 0.08235496
000100 ae b8 69 3d d1 5d 09 be 95 04 ad 3e f0 f9 59 be
       0.05706089 -0.13414694 0.33792558 -0.2128675
000110 18 8f eb bb 1e 62 8a be 46 3d d2 bc d1 8e a3 3d
       -0.007188689 -0.27027982 -0.025663983 0.079862244
000120 0a fe ad bd 10 fb 00 3e 65 bf 20 3d 49 20 1c 3d
       -0.0849572 0.12595773 0.039245028 0.038116727
000130 19 a6 8d 3e 5f e2 25 bf ad d1 a5 3d 47 68 04 be
       0.27665785 -0.6479854 0.08096633 -0.12930404
000140 73 4c ac 3e 6e 66 50 be b5 a1 ab bd c8 8b c7 3b
       0.33652076 -0.20351574 -0.083804525 0.0060896613
000150 54 5a 23 3d 9c f7 da 3d 60 cc 0e 3e 7a 1b 7c bd
       0.039881065 0.10691759 0.1394515 -0.06154964
000160 3d dc 54 3e e0 03 27 bb 6a 50 00 bd 8f 8b 4f 3e
       0.20787139 -0.0025484487 -0.03132669 0.20268081
000170 6d e9 e1 bd 14 40 e2 be a2 4f f8 3c 8c df 89 be
       -0.110308506 -0.44189513 0.03031141 -0.26928365
000180 ed 08 bc 3d d2 ca 91 bc 26 71 ac 3c d7 9e 8c be
       0.0918139 -0.017796908 0.021050047 -0.27464935
000190 22 ed fe bd 1c 92 dd bd 21 bc b1 3e bd 61 e6 3d
       -0.12447573 -0.10818884 0.34713843 0.11249111
0001a0 1d de 2d 3e a7 51 f9 3e 6d 77 9b 3d 83 89 3c 3d
       0.1697926 0.48695108 0.07591138 0.04602958
0001b0 1a 62 8c be 0c d2 68 be b2 76 8e 3d c3 0d 83 be
       -0.27418596 -0.22736377 0.06956233 -0.25596437
0001c0 ed 82 d7 3d 21 97 09 3e d2 49 de bd c4 cc d8 be
       0.10523019 0.13436557 -0.10853924 -0.42343724
0001d0 47 d4 db 3e 3a 21 51 3e 21 f3 6c 3e 67 bb 94 be
       0.42935392 0.20422831 0.23139621 -0.29049227
0001e0 d1 c8 84 3d 55 c4 56 3b 3b 60 52 3d 31 62 02 bb
       0.06483615 0.0032770832 0.051361304 -0.0019894952
0001f0 ee 99 a3 be b7 0e a0 be 46 15 c2 be a4 b8 be bd
       -0.31953377 -0.31261227 -0.37906855 -0.09312561
000200 c9 fd 4c be ec e0 48 3d c6 43 36 bd 1e 3c 24 be
       -0.20018686 0.049042627 -0.044498228 -0.16038558
000210 2a 32 5b 3c e1 bc 72 bc 82 b2 ed 3d 4f 89 05 3d
       0.013378659 -0.01481554 0.11606313 0.03260165
000220 af 84 31 3e 68 61 f3 bc 0a 5c 8d 3d 06 5b 6d 3d
       0.17335771 -0.029709533 0.06902321 0.057948135
000230 54 66 9a 3e 6d ed b3 bc 23 f5 47 3c b9 1a 52 bd
       0.30156195 -0.0219638 0.012204441 -0.051295016
000240 45 56 8b 3e aa d5 66 3d 90 38 ab 3d 43 4e 25 be
       0.27214256 0.05635611 0.08360398 -0.16143136
000250 67 78 d2 3d e9 d8 b7 3d be f6 f6 3d 52 7a 7e bd
       0.10276871 0.08976919 0.12058781 -0.062128372
000260 5d 33 43 3e fa 33 30 be 35 d6 99 bc 79 6d 94 3e
       0.19062562 -0.17207327 -0.0187789 0.2898977
000270 8d 35 b7 3d d8 37 ae 3d c5 97 f5 bc 6a d6 6c be
       0.08945761 0.08506745 -0.029979596 -0.23128667
000280 83 35 7e bd 26 67 c7 3d ce 14 e5 3c df d4 ad be
       -0.06206275 0.09736471 0.027964022 -0.3395147
000290 43 ce bb be e3 46 e5 3d 64 a7 83 3c e8 bb 7a bc
       -0.36680803 0.11195161 0.016071029 -0.015303589
0002a0 ec b9 f3 bd 81 51 73 3e 8f d2 07 3e 18 cd f4 3d
       -0.11900696 0.2376156 0.13263915 0.11953181
0002b0 81 5e 10 bd 41 0b 4d 3e d3 b4 97 3e d6 82 f5 3d
       -0.035246376 0.20023824 0.29630145 0.119878456
0002c0 d3 43 c2 bd 13 84 ae bd 22 f7 76 3d ac 72 a9 3d
       -0.09485593 -0.08521285 0.060294278 0.08273825
0002d0 b7 2a 80 bd c3 7b 83 bd 01 d6 8e bc bd 86 ea 3d
       -0.06258147 -0.0642009 -0.01743603 0.114514805
0002e0 b6 c1 8f 3e d2 75 16 bd 50 a9 ad be 84 fb ab 3c
       0.28077477 -0.036733456 -0.33918238 0.020993955
0002f0 74 49 a3 3e 4e 75 64 3e 2e 19 a6 be 87 e0 1b 3e
       0.31891978 0.22310373 -0.32441086 0.15222369
000300 7e 4a 91 bd 35 cb 0a bc 95 49 b9 be 6e a9 66 3e
       -0.070942864 -0.0084713 -0.3618895 0.2252557
000310 35 d1 88 be 27 b8 21 3f c2 0d b1 bd 2b 8c b3 bd
       -0.26722112 0.6317162 -0.08645202 -0.08766969
000320 7e 7a 1b 3d de 16 4b bf 59 fd f2 3d 0f 16 62 be
       0.037958615 -0.7933177 0.118647285 -0.22078727
000330 6b 49 a9 be 70 5a 08 3f 35 9e e0 bd 32 32 ac bd
       -0.33063826 0.53262997 -0.109676756 -0.084080115
000340 d5 89 4a be d9 cf 9b 3d d6 70 93 3d 7c 08 e9 bc
       -0.19779141 0.07608003 0.07199256 -0.028446428
000350 25 df 7b 3d 50 7e 4b bd c9 e7 bc 3d e3 58 ca bc
       0.061492104 -0.049681008 0.09223897 -0.024700588
000360 28 3d 78 be 85 a0 ec 3d db 94 a6 bd 59 4e 3b bf
       -0.2424208 0.11554054 -0.08133861 -0.73166424
000370 f8 51 d8 bd 23 b5 ac 3e 4b 7c d1 3c 00 76 cf 3e
       -0.10562509 0.33731946 0.025571963 0.40519714
000380 1c 6d 1e 3e a6 f3 21 3e c8 cd 87 3d fe 4c 85 be
       0.1547131 0.15815601 0.066310465 -0.26035303
000390 c2 92 02 bd 88 58 09 be 4a 22 3a bd 18 b7 c9 bd
       -0.03187824 -0.13412678 -0.045442857 -0.098493755
0003a0 af 02 68 3d f5 cb 36 3e 86 90 83 3d 98 7a a4 3d
       0.056643184 0.17851241 0.0642405 0.080311954
0003b0 96 8b bf 3d 40 a7 84 be 93 06 3c 3d fc 06 51 bd
       0.09352796 -0.25908852 0.045904707 -0.05103205
0003c0 85 f8 78 3d 91 43 61 bd 97 da 87 bc dd d6 20 3b
       0.06078388 -0.054996077 -0.016583724 0.002454213
0003d0 cf b9 4e 3d 39 ab 57 3d bb 01 be 3d 99 ef a4 3d
       0.05047017 0.052653525 0.09277674 0.08053512
0003e0 11 a6 e5 bc 46 5c d7 bd 43 6d 89 3d 5f ef db 3d
       -0.028033288 -0.10515647 0.06710293 0.10739016
0003f0 7e d0 2a 3d 3c 64 ca bd bf 44 b9 bd 78 94 69 be
       0.04170274 -0.098823994 -0.090463154 -0.22810543

decoder.rnn.weight_hh_l0 f4 [256, 64]
000000 7d 3c 3a 3b 2a da 8d 3e b6 c5 c9 3c 1c 66 05 3d
       0.0028417401 0.27705508 0.024630409 0.032568082
000010 bc d3 ff 3d a6 5b 03 3c 81 8b 3d bd 0f 4f 4d bd
       0.12491557 0.008017456 -0.04627562 -0.050124224
000020 a8 c9 1a be b8 78 6c 3d 11 8f cc 3d b0 67 04 3e
       -0.15115988 0.057732314 0.09988225 0.12930179
000030 da 9d 97 3d f0 e9 d5 bb 4a cc 2d be 34 5b 07 3e
       0.07403155 -0.0065281317 -0.16972461 0.13218385
000040 71 ef 57 be 4b c7 c0 bc 63 2c ff bc 27 86 1a 3e
       -0.21087433 -0.02353253 -0.031149095 0.15090238
000050 9c 23 2d bd be 3f c7 3d c6 13 1c be a0 8a 85 3e
       -0.042270288 0.09728955 -0.15241918 0.26082325
000060 18 ab 80 bd 51 b3 f3 3d e5 9f e2 3d c8 17 88 3c
       -0.062826335 0.11899436 0.11065654 0.016612902
000070 8a 71 06 3e 89 90 a8 bd e0 50 e0 bc 2e 84 09 be
       0.13129249 -0.08230693 -0.027382314 -0.13429329
000080 7e 87 47 3e 15 e3 87 bc 52 38 43 be ff 52 47 3e
       0.1948528 -0.016587773 -0.19064453 0.19465254
000090 d6 6f 03 bd de 36 f6 bd 3e 40 95 3d d4 74 0c 3e
       -0.032089077 -0.12022184 0.07287644 0.13716441
0000a0 5f df a2 3d f2 16 38 3d fa e1 7b 3e 9e 9c b2 bd
       0.07952761 0.044943757 0.24597922 -0.087212786
0000b0 91 d6 68 be 3d 37 1f be dd 3d 0e 3e a4 ef 8b bd
       -0.227381 -0.15548415 0.13890786 -0.06832817
0000c0 fe 49 2a 3e e9 47 2f be 47 37 88 bc 41 da b2 bd
       0.16629788 -0.17117275 -0.01662792 -0.08733035
0000d0 f3 10 00 be df a8 ce 3b 2c c1 2c 3e e6 e4 51 ba
       -0.12506466 0.006306752 0.16870564 -0.0008006826
0000e0 6e 7c f8 3d 56 0f ff bd 14 0d 94 bc 3b e5 f2 3d
       0.12133108 -0.12454097 -0.018072642 0.118601285
0000f0 9f b3 8c be b6 3e 40 be b8 78 34 3e 99 49 6a be
       -0.2748079 -0.18773922 0.17624176 -0.22879638
000100 da 78 59 3e 3b 97 9c bb e1 15 ed 3d be d4 bf 3b
       0.21237507 -0.0047787703 0.11576439 0.0058542183
000110 be 89 1d 3d db 3c 51 3e 6a 90 b4 3c b5 e7 85 bd
       0.03846144 0.20433371 0.022041518 -0.06538335
000120 51 7b 1d 3c 68 d9 23 bd 8f b3 c1 39 39 70 0d bd
       0.00961192 -0.040002257 0.0003694561 -0.034530852
000130 d0 47 1e be 67 b4 11 bc a3 7a 54 bd 04 73 69 3d
       -0.15457082 -0.008893109 -0.051874768 0.056994453
000140 9e ef bf bc 70 a9 f1 bc 90 17 90 3e 16 5d 42 3e
       -0.023429688 -0.02949974 0.28142977 0.18980822
000150 df 67 be bc c0 f9 19 bc e3 68 2f bc 15 37 58 3e
       -0.023242889 -0.009397924 -0.010706159 0.21114762
000160 19 86 87 bd 64 af 7a 3b 0b 4b fe bc 3c 5f 01 be
       -0.06617374 0.0038251514 -0.031041643 -0.12633985
000170 9b 22 2e 3e 37 27 31 3d db 15 11 bd b1 ca a3 bd
       0.17005388 0.04325029 -0.035421234 -0.07997645
000180 0e 38 af 3c 57 0b 03 3e dd 6b c0 bd 9f 94 e0 3c
       0.021389034 0.12797295 -0.09395573 0.027414618
000190 19 d9 8b bd 6a 2d 15 3e fe 91 c4 bd d2 2c f3 bd
       -0.068285175 0.14568105 -0.09598158 -0.11873783
0001a0 85 d5 b8 bc 76 b8 e0 bd 43 08 35 bd cf b1 05 3e
       -0.022562752 -0.10972683 -0.044197332 0.1305611
0001b0 1e 26 f2 ba 3c cd 0f 3e 22 be 35 3e 70 82 60 be
       -0.0018474495 0.14043134 0.17748311 -0.21924758
0001c0 c9 3b 33 be 46 02 ac 3d b6 93 44 3e 40 c3 92 3d
       -0.17503275 0.08398871 0.19196972 0.07166147
0001d0 36 c4 b5 3d 2e b2 55 3d 98 f7 21 3b 4e 66 85 bd
       0.08875315 0.05217188 0.0024714228 -0.06513654
0001e0 72 c4 94 3d fb 89 05 3e cc f4 11 be 56 f3 b6 bc
       0.072640315 0.13040917 -0.14253539 -0.022332828
0001f0 56 63 4e 3e 79 54 34 3e ca 73 1d be 35 23 b6 3d
       0.20155081 0.17610349 -0.15376201 0.08893434
000200 1a b7 da bd a2 f1 8c bc 35 65 de 3b 0e f1 f7 bd
       -0.10679455 -0.017205063 0.006786967 -0.121065244
000210 bd 1f b0 3d 8c 9a 81 bd 46 15 0a be 41 ce 93 be
       0.085998036 -0.063283056 -0.13484678 -0.28868297
000220 f7 b6 84 3c 42 99 a6 3c 39 59 30 bd c3 a5 c6 3d
       0.016200526 0.02033675 -0.04305384 0.09699585
000230 b7 ee 09 3e 9d 13 e0 bd b5 80 d7 bd fe 97 83 bd
       0.13469969 -0.10941241 -0.10522596 -0.064254746
000240 f0 f4 44 be ab 07 5a bc 7d c8 c9 3d cb e7 b9 3e
       -0.19234061 -0.013307492 0.09852693 0.36309657
000250 e2 5f 6b 3c bc 22 cc 3d 47 0f cf 3d 51 23 01 3e
       0.014366122 0.099675626 0.10110336 0.12611128
000260 ea 95 17 be 92 df 96 3d cf 30 67 3e c2 38 3b be
       -0.14803281 0.073668614 0.22577213 -0.1828337
000270 dc 53 31 ba 3a 99 1e 3e 6c 4f 62 be 2e d5 9d bd
       -0.000676451 0.15488139 -0.2210061 -0.077066764
000280 b8 01 15 be c7 c5 91 3e 2f ef 12 be f0 b0 26 3b
       -0.14551437 0.28471205 -0.14349054 0.0025435053
000290 8e e1 8c bd d5 7a 99 bd fd f6 bb bd 1c d7 01 3e
       -0.06878959 -0.074941315 -0.09177969 0.12679714
0002a0 94 37 9b 3d 99 89 35 3d 06 bb d6 bc 93 98 6d be
       0.0757896 0.044320676 -0.026212227 -0.23202734
0002b0 e0 67 01 3e be 99 1e be 5e 1d 50 3d c6 ab fe bd
       0.12637281 -0.15488335 0.050809257 -0.12435107
0002c0 49 a0 f3 bd cc 26 3c be 9c e1 82 3d 06 1d 05 bc
       -0.11895806 -0.18374175 0.06390688 -0.0081245955
0002d0 8d 6b 53 bc 29 94 f0 3d 3d 05 17 3e fa 3f 14 be
       -0.01290406 0.11747009 0.14748092 -0.1447753
0002e0 15 83 0f 3e 42 46 82 bd 5d bc b1 bd f5 c0 19 3e
       0.14014848 -0.06361057 -0.086785056 0.15015014
0002f0 a5 f7 7e bd f4 d7 4c bd 38 6d 7e 3e 7d 61 7b 3e
       -0.06224789 -0.050010636 0.24846351 0.24548908
000300 51 8e 12 be 64 c9 27 3d 80 01 fb bd 82 1e a4 3d
       -0.14312102 0.040963545 -0.122561455 0.080136314
000310 3c 3d 7c 3d 05 29 7a be a7 5c 5b 3e db 1c 21 3e
       0.061581835 -0.2442971 0.21422063 0.15733664
000320 65 25 a2 3e 10 01 87 be 91 0a ac be 97 aa d9 bc
       0.31669155 -0.26367998 -0.33601812 -0.026570601
000330 62 89 78 bd 1d 01 97 bd 72 fe 74 be 96 55 35 bd
       -0.060677893 -0.07373259 -0.23925188 -0.044271074
000340 67 92 92 bd aa 42 80 be d5 ae 0a bc 89 bd a9 3c
       -0.0715683 -0.2505086 -0.008464535 0.02072026
000350 47 5e fa bd 52 f5 97 3d bd 8c 99 bd b4 fe fa 3d
       -0.12225013 0.07419838 -0.07497547 0.12255612
000360 c9 63 72 3e 33 af 95 be 31 e5 9e bc 10 c5 53 be
       0.23670878 -0.2923523 -0.019396396 -0.20680642
000370 5f 61 55 3e f3 93 50 bd fe a8 b3 3d 56 9d f7 3d
       0.20837925 -0.050922345 0.08772467 0.12090556
000380 58 26 6a 3e 4e 50 ec bd d6 8e ed 3c 2b f3 a7 3c
       0.2286619 -0.115387544 0.028998774 0.020501694
000390 0f 50 32 bc 41 3d ad 3d 56 eb 2c 3e 23 4d c2 3a
       -0.010883345 0.08458949 0.16886649 0.0014824014
0003a0 76 ee a0 3d 78 a2 5c 3e c2 77 ae bd 74 b3 26 3e
       0.07857983 0.21546352 -0.08518936 0.16279393
0003b0 fc f6 b8 bd 5c 6c 60 3d 37 b8 d1 3d 0b a2 88 3d
       -0.090314835 0.05479084 0.10240214 0.06671532
0003c0 8e 69 c2 3c 58 7a e5 bd 14 f0 88 3e bc 43 3f be
       0.023731973 -0.11204976 0.26745665 -0.18678182
0003d0 fe 3e 83 bd a1 b0 90 3e 6b e9 02 bd 8e 63 5d 3e
       -0.06408499 0.28259757 -0.031960886 0.21620008
0003e0 d6 81 3b bd 82 22 c8 bd 61 5d e2 bd 53 24 67 3e
       -0.045778118 -0.09772207 -0.11052967 0.2257245
0003f0 ff b7 b9 3d 63 a5 e7 bd bb ad e4 bd 66 cf 90 3e
       0.090682976 -0.11310842 -0.11165949 0.28283232

decoder.rnn.bias_ih_l0 f4 [256]
000000 de c3 93 bd 1e 37 d9 3d 5b ed bd bd 85 85 cf bb
       -0.07215093 0.10606216 -0.092737876 -0.0063330554
000010 3c 7f e5 bb 10 9d 0e bc e2 5b 29 3e a5 8a cc bd
       -0.007003693 -0.008704439 0.16538957 -0.09987382
000020 9e 08 e3 3d 0e 55 11 bc ce 00 2e be 05 86 67 3d
       0.11085628 -0.008870376 -0.16992494 0.056524295
000030 96 2a 28 bc 53 92 99 bd 05 ee 63 bd d5 cb aa bd
       -0.0102640595 -0.07498612 -0.055646915 -0.08339659
000040 12 c3 51 be 83 57 c3 3c 68 c0 2e 3e 41 b4 06 3c
       -0.2048457 0.02384544 0.17065585 0.008221687
000050 16 0e 97 3d d5 9b 25 bc 5c 34 56 3d 8c 32 2b be
       0.073757336 -0.010107954 0.052296028 -0.16718501
000060 36 1b 01 be 14 98 ad bd 1e b4 76 bd f9 9a d4 3c
       -0.12608036 -0.08476272 -0.060230367 0.025952803
000070 0f 3d 73 bd fe b1 64 3e 2a 21 2e be 6f 99 1a be
       -0.059384402 0.22333524 -0.17004839 -0.15097593
000080 e1 7a d9 3c ad 66 14 bc 16 4c 13 bd bf 9c 1e be
       0.026547851 -0.009057683 -0.035961233 -0.15489481
000090 88 33 a4 bd 1f 5a 51 be 17 22 0f 3e 1d 62 53 be
       -0.08017641 -0.20444535 0.13977848 -0.20642896
0000a0 1d 91 eb bc 53 96 64 3d de 36 09 be eb a8 bc bd
       -0.028755719 0.055807423 -0.13399836 -0.09211906
0000b0 e6 56 dc 3d cf 56 e6 3c 5b da 5a be 56 59 c4 3c
       0.10758762 0.028117565 -0.21372359 0.02396838
0000c0 d6 35 b7 bc 12 65 88 bd d5 e4 7b bd 96 bd 05 bc
       -0.022364538 -0.06659903 -0.061497528 -0.008162877
0000d0 94 7c a1 3d 3d 8e ae bd 38 e9 ef bc a9 c3 49 3d
       0.078850895 -0.085232235 -0.029286012 0.04925886
0000e0 64 60 28 3e 43 e3 2a 3d 17 19 86 bc 55 17 0a bd
       0.1644302 0.04172064 -0.016369386 -0.033713657
0000f0 68 8d 8d bd 50 d4 e1 3d 2e 0a c1 bd 04 a9 7c 3c
       -0.06911737 0.110268235 -0.0942577 0.015421156
000100 2a 16 db 3d b4 bc 42 3d d8 74 10 be 02 c7 d7 3d
       0.10697587 0.047543243 -0.14107072 0.105360046
000110 b0 06 d9 bc a0 b5 6d bd 09 9d 32 bd ab b4 0f 3e
       -0.026492447 -0.05803454 -0.04360679 0.14033763
000120 a7 78 ae 3d aa 74 3c 3c 0c 47 c0 3d 8d 7b 9a bd
       0.08519106 0.011502424 0.09388551 -0.07543097
000130 2e 91 28 3e dc b1 4b bd 36 bf f7 3d 89 54 0d 3e
       0.16461632 -0.049730167 0.120970175 0.13801779
000140 a1 28 4e 3e 54 d3 1b 3e ff f1 84 3d c9 e1 e1 3d
       0.20132686 0.15217334 0.064914696 0.11029393
000150 b6 75 d8 bb 88 0c 0a 3d 52 59 86 3e 0f cb 2c 3d
       -0.006605829 0.033703357 0.2624002 0.04218584
000160 a5 ab 22 3e 16 6e 2e bd 8b b8 e9 3d 09 62 68 3c
       0.1588579 -0.042585455 0.11412152 0.01418353
000170 e0 35 0d 3e 7b c2 a6 3d aa 43 2b 3d e7 f4 98 3d
       0.13790083 0.08142563 0.041812576 0.074685864
000180 4c fd b7 3d 60 d1 60 3d a1 5b 90 bc 5d b8 94 bd
       0.089838594 0.054887176 -0.017621817 -0.07261727
000190 73 d2 23 3e 9f 78 c6 3d 4c ce cb bd ce 85 c1 3e
       0.15998249 0.096909754 -0.099514574 0.37797397
0001a0 60 71 f6 3d 50 46 f0 3c f3 c8 a6 3d 5b 23 44 3e
       0.12033343 0.029330403 0.08143797 0.19154112
0001b0 ce 85 78 3c 00 d4 04 3e b8 9c 83 bc aa 02 58 3e
       0.01516862 0.12971497 -0.01606594 0.21094766
0001c0 e4 15 01 3e 02 7e f5 3d d0 f0 ae 3d a4 d3 6c 3e
       0.12606007 0.11986925 0.08542025 0.2312761
0001d0 f3 9e 4c 3e 67 06 e7 3c 64 fe ea bc 93 79 ff 3d
       0.1998251 0.028201295 -0.028685756 0.1247436
0001e0 b0 dc 19 3e 49 d0 51 3d bc 52 be bd 7e 5b b2 3b
       0.15025592 0.051224027 -0.09293124 0.0054430356
0001f0 8e c1 39 3e 22 b5 89 be ea f7 46 3e 95 62 7e bd
       0.18140242 -0.26896006 0.19430509 -0.062105734
000200 a0 0b 85 bd 9e f9 fa 3d 38 b8 fe bd 0a 17 77 3d
       -0.06496358 0.12254642 -0.12437481 0.060324706
000210 c8 2d bb bd 34 0a f8 3c 19 38 07 bd c0 b2 d6 3c
       -0.091395915 0.030278303 -0.033012483 0.026208282
000220 c8 bb 44 bc 33 27 04 be 0f 71 ab bd e6 7f 85 3d
       -0.012007661 -0.12905578 -0.083711736 0.06518535
000230 97 1a 6d 3d b0 50 07 3e 9b f5 08 3e 82 68 ee bd
       0.057886686 0.13214374 0.13374941 -0.11641027
000240 54 ab b5 3d 7a 5a 65 bc 43 75 3c be 89 62 e4 bd
       0.08870569 -0.013998622 -0.18404107 -0.111516066
000250 36 b0 38 bd 92 d0 60 bc 61 63 d3 bd f0 67 99 3d
       -0.045089923 -0.013721602 -0.103216894 0.07490528
000260 35 e4 b0 bb 99 7a a8 3b d9 1a 44 3d 7a 59 e7 bd
       -0.005398298 0.005141568 0.047877166 -0.11296363
000270 a9 55 05 be c8 fb 07 be 90 d1 89 3c 6d bb 74 3d
       -0.13020958 -0.1327964 0.01682356 0.059749056
000280 ef fe f7 3c 24 f2 7b bd 71 76 c6 3d 5e 42 e3 bc
       0.030272929 -0.06151022 0.0969056 -0.027741607
000290 0d 0e 77 3d 2e 5a 01 be 33 cd b6 3d 49 77 d8 bd
       0.060316134 -0.12632057 0.089258574 -0.10569627
0002a0 c1 0e 25 be 5a b5 60 bc 4a 35 93 bd cc 00 44 3d
       -0.1611891 -0.013715113 -0.071878985 0.047852322
0002b0 1d 40 d3 3d a1 50 a0 3d e1 a0 e4 3c bf 10 2e be
       0.10314963 0.07827879 0.027908744 -0.16998576
0002c0 10 23 5e be 05 e6 ab 3d 3f 37 48 3d 7c 20 c7 bd
       -0.21693063 0.08393482 0.04888081 -0.09722993
0002d0 7f 98 c9 3c 70 10 ea bc 14 1d 31 3d 4a f0 ce bb
       0.024608849 -0.028572291 0.04324062 -0.006315266
0002e0 bb 2c df 3d 2a 30 de 3c c4 24 72 3c 61 9d 7b 3d
       0.108972035 0.027122576 0.014779273 0.061429385
0002f0 b4 e0 7b 3d 70 d2 d0 bc 23 42 f7 3c 6a ab 61 bd
       0.06149359 -0.02549097 0.030182904 -0.055095114
000300 59 60 dd 3d dd 0a 02 bd 5a 9c 92 3c 4e df 67 3d
       0.108093925 -0.03174864 0.01789682 0.056609444
000310 9c f8 9b bd 05 51 80 3d 0c b4 15 3e 5b 58 23 3d
       -0.07615778 0.06265453 0.14619464 0.039879184
000320 37 6f 3d 3e ed 5e fc 3d cf 05 2f 3d 7e 22 47 3e
       0.18499456 0.12322793 0.04273015 0.19446751
000330 11 f4 46 bc ae f8 78 bd 2b 92 82 3d 49 e9 23 bc
       -0.012143151 -0.060784034 0.063755356 -0.01000435
000340 c9 8a e3 bd 4b 81 09 3e cd 41 f9 3d 1b b3 d6 bc
       -0.111104555 0.13428228 0.12170754 -0.026208451
000350 fb 4a 7a bc 48 9e 46 bd 1b 32 07 3c e3 04 84 3b
       -0.015276666 -0.048490793 0.008251692 0.004028903
000360 99 ab 14 be 59 0c 7a bd d7 fb 17 bd 7a e4 01 be
       -0.14518584 -0.061046932 -0.037105408 -0.12684813
000370 ac 1c ce bd 2e c4 83 bd 4c 56 f3 3d 04 d1 16 3d
       -0.100640625 -0.06433903 0.11881694 0.036820427
000380 6f 0f 30 3e a4 f9 a3 3d 12 8c 13 3e 7b 98 d4 3c
       0.17193387 0.080065995 0.14408901 0.025951615
000390 dd 5a 17 3d 33 01 04 3e 28 34 16 3e 62 26 64 3e
       0.03695189 0.12891082 0.14668334 0.22280267
0003a0 04 37 46 3d 6c dc 8e bd 16 a1 3f bd 64 7c eb 3d
       0.04839231 -0.06975636 -0.046784483 0.11498335
0003b0 c7 fc 85 bd ed 0d c1 bd d2 66 87 bd f2 80 1d 3d
       -0.06542354 -0.09426484 -0.06611408 0.03845305
0003c0 47 cc 97 bc f3 20 af bd 15 f0 93 3a 75 b2 ae 3b
       -0.018530024 -0.085512064 0.001128676 0.0053313323
0003d0 23 05 11 bd 86 17 d5 bd 15 09 fe bc 96 e6 e4 3d
       -0.03540529 -0.10404877 -0.03101019 0.11176793
0003e0 d7 4f 75 bd 7e ae f4 3d 19 53 23 be a4 9f 70 3d
       -0.059890594 0.11947344 -0.15949668 0.058745995
0003f0 4e bf b0 bd 2f 09 73 bd 08 39 08 3e 89 ce d1 3a
       -0.086302385 -0.05933493 0.13303006 0.0016006987
