Detectors/Recreate_Paper_Results/Full_Network_Detectors/Speed_Based_Detectors/cnn_lstm_ae_low_congestion_speed.pt (torch, 125861 bytes, 11 tensors)

encoder.cnn.weight f4 [8, 1, 16]
0	0x3cd7e3ae	0.026353683
1	0x3cdf5397	0.027261538
2	0x3ce819bf	0.02833259
3	0x3cf04dd6	0.02933399
4	0x3cfa163b	0.030528178
5	0x3d02e71a	0.031958677
6	0x3d02ff55	0.031981785
7	0xbb83f2c4	-0.0040267427
8	0xbbf5bd52	-0.0074993754
9	0xbc6624ec	-0.014046889
10	0xbc9c82f7	-0.019105418
11	0xbcb60abf	-0.022221921
12	0xbccac4fb	-0.02475213
13	0xbcdf232a	-0.027238447
14	0xbcef6ced	-0.029226745
15	0xbcfdb62c	-0.030970655
16	0xbdbac9b2	-0.091205016
17	0xbdb05a55	-0.086109795
18	0xbdaedd60	-0.08538318
19	0xbda7fb42	-0.082022205
20	0xbda4c949	-0.080462046
21	0xbda24ac7	-0.07924419
22	0xbd9c8dc4	-0.07644227
23	0xbd967851	-0.07347167
24	0xbd90962f	-0.07059895
25	0xbd8b2e01	-0.06795884
26	0xbd85e9c9	-0.065387316
27	0xbd809fdc	-0.06280491
28	0xbd758af1	-0.059946958
29	0xbd6c7b79	-0.05773494
30	0xbd6606e7	-0.056158926
31	0xbd68fa80	-0.05687952
32	0x3e230349	0.15919222
33	0x3e135b57	0.14390312
34	0x3e01c8da	0.12674275
35	0x3de611a1	0.11233831
36	0x3dc6758f	0.09690391
37	0x3da57844	0.080795795
38	0x3d8b3c14	0.06798568
39	0x3d5f1a7f	0.054468628
40	0x3d1d6496	0.038426004
41	0xbcc62aeb	-0.024190387
42	0xbcbe602b	-0.023239216
43	0xbcc4ee05	-0.024039278
44	0xbceda168	-0.029007629
45	0xbca42d76	-0.020041209
46	0xbc078637	-0.008271745
47	0x3d763db9	0.060117457
48	0xbe7cc339	-0.24683847
49	0xbe5a78c4	-0.21335131
50	0xbe3b434b	-0.18287389
51	0xbe321ad6	-0.1739305
52	0xbe313774	-0.1730631
53	0xbe3217fc	-0.17391962
54	0xbe2a92fb	-0.16657631
55	0xbe1999e6	-0.15000114
56	0xbe0cab4b	-0.13737218
57	0xbde777af	-0.11302125
58	0xbdadd139	-0.08487172
59	0xbd78528c	-0.060625598
60	0xbd391201	-0.045183185
61	0xbd14c39c	-0.03631936
62	0xbcd68b0b	-0.026189348
63	0xbcbe3a20	-0.023221076
64	0x3d6015bd	0.05470823
65	0x3e1c7a2b	0.15280978
66	0x3e633298	0.22187269
67	0x3e7f56df	0.24935482
68	0x3e3f19c4	0.18662173
69	0x3b6e057c	0.0036319187
70	0xbdf31637	-0.118694715
71	0xbe5b78da	-0.2143282
72	0xbea62c90	-0.32455873
73	0xbeb157cc	-0.34637296
74	0xbebcd8df	-0.3688421
75	0xbe9f42de	-0.31105703
76	0xbebf97d4	-0.37420523
77	0xbf0d1f67	-0.5512604
78	0xbf06a4c4	-0.5259516
79	0xbec5af74	-0.38610423
80	0x3e1d29ed	0.15348025
81	0x3d8eab6c	0.0696629
82	0x3d7de047	0.061981466
83	0xbd8ced82	-0.068812385
84	0x3d890645	0.06690649
85	0x3d8629fb	0.06550976
86	0x3d6adb03	0.057337772
87	0x3ded49a5	0.11586312
88	0x3d04722a	0.032335438
89	0x3da88d58	0.08230084
90	0xbabbcc9e	-0.0014327948
91	0x3c718732	0.014741706
92	0x3e34dbdb	0.17661993
93	0xbd90b81c	-0.07066366
94	0x3d4e5826	0.050377034
95	0x3dd00cbc	0.10158679
96	0xbe955028	-0.29162717
97	0xbe1ed861	-0.1551223
98	0xbdec128a	-0.115269735
99	0xbe0b20ed	-0.13586779
100	0x3d1627ed	0.03665917
101	0xbe2c77e3	-0.16842608
102	0xbaaa0613	-0.0012971781
103	0xbea5a17a	-0.3234976
104	0x3e16598b	0.14682595
105	0x3d5bf1d6	0.05369743
106	0xbe4bd691	-0.1990607
107	0x3c6d2d0c	0.014476072
108	0x3d149e99	0.036284063
109	0xbe1bfa1b	-0.15232126
110	0x3e53e888	0.20694172
111	0xbe0d2afa	-0.13785926
112	0xbde81c1b	-0.11333486
113	0xbe1a0884	-0.15042311
114	0x3c8af023	0.01696021
115	0x3d588256	0.052858673
116	0xb8b046b7	-8.405506e-05
117	0xbddd5170	-0.108065486
118	0xbcea5dac	-0.02860912
119	0xbe2504f7	-0.16115175
120	0xbd058e0f	-0.03260618
121	0x37f5133c	2.9215233e-05
122	0xbdc07c8c	-0.093987554
123	0x3d36de29	0.044645462
124	0xbd3651f9	-0.04451177
125	0xbd94ddca	-0.072688654
126	0xbe5e2d51	-0.21696974
127	0x3c081efe	0.00830817

encoder.cnn.bias f4 [8]
0	0xbb72c12d	-0.0037041411
1	0xbcf5e32f	-0.030015556
2	0x3d2f3cc1	0.04278255
3	0x3bea6375	0.0071529695
4	0x3de790a0	0.11306882
5	0xbf80679c	-1.0031619
6	0x4090b6c5	4.5223107
7	0x4081dbe3	4.0580916

encoder.rnn.weight_ih_l0 f4 [128, 8]
0	0x3d6fab49	0.05851296
1	0x3d3969dc	0.04526697
2	0xbd512fe0	-0.051071048
3	0x3e08afd5	0.13348325
4	0x3e3eb3cb	0.18623273
5	0xbde81fef	-0.11334216
6	0xbb801117	-0.0039082873
7	0x3e41418e	0.18872663
8	0x3f53bf9a	0.82714236
9	0x3f1a6537	0.6031069
10	0x3ec2dbb0	0.38058233
11	0x3dd1e1f6	0.10248177
12	0xbb91eb9a	-0.0044531347
13	0xbe5c5382	-0.2151623
14	0xbe8a45d7	-0.2700641
15	0xbf02c0bd	-0.51075345
16	0x3ef5533d	0.47915068
17	0x3dc2bd88	0.095088065
18	0xbddfd06d	-0.10928426
19	0x3e737042	0.23773292
20	0x3e279717	0.1636623
21	0xbe145008	-0.14483654
22	0xbdda66b8	-0.10664123
23	0xbe8169af	-0.25275943
24	0xbcb3b927	-0.021938873
25	0xbbc2e6b0	-0.0059479102
26	0x3cae3a5c	0.021268062
27	0x3bd5e898	0.0065279715
28	0x3c4287db	0.011873211
29	0x3d479f89	0.04873613
30	0xbfb0611b	-1.3779634
31	0xbfc6f630	-1.554388
32	0x3ca2b859	0.019863294
33	0x3e062e2a	0.13103548
34	0x3e1564c9	0.14589228
35	0x3e60108f	0.21881317
36	0x3e98e624	0.29863083
37	0x3ec366f6	0.3816449
38	0x3d8d1004	0.0688782
39	0x3e502677	0.20327173
40	0x3c9ddab2	0.019269321
41	0xbe520e92	-0.2051337
42	0xbe88c6fb	-0.2671431
43	0xbecf264c	-0.40458906
44	0xbea8a7ad	-0.32940426
45	0xbe9d4ff6	-0.30725068
46	0x3c8dc3a1	0.017305197
47	0xbd0f373c	-0.034964785
48	0x3f91c781	1.1389009
49	0x3f90fa22	1.1326334
50	0x3f8c0463	1.0938839
51	0xbed8dafe	-0.42354578
52	0xbe91a349	-0.2844489
53	0xbe178700	-0.14797592
54	0xbf537402	-0.8259889
55	0xbf42461b	-0.7588822
56	0x3e8ed8ad	0.27899686
57	0x3dd21465	0.10257796
58	0x3e3aeb50	0.18253827
59	0x3e34790c	0.176243
60	0x3e5b30ec	0.21405381
61	0xbd087778	-0.03331706
62	0xbc48ecdf	-0.012263506
63	0xbc26b903	-0.010175946
64	0x3f621461	0.88312346
65	0x3e916cd5	0.28403345
66	0xbeac2899	-0.33624724
67	0xbeaa187b	-0.33221802
68	0xbce351d9	-0.027748989
69	0x3ea19d51	0.31565335
70	0xbd1544a6	-0.03644242
71	0x3d85c3f1	0.065315135
72	0x3e31cc36	0.17363057
73	0x3e12adb3	0.14324073
74	0x3df4940c	0.119423
75	0x3c5218ba	0.012823278
76	0xbd0126e8	-0.031531245
77	0x3d40c2ef	0.047060903
78	0xbf969d30	-1.176672
79	0xbf4ee733	-0.8082153
80	0xbeeb2c62	-0.459323
81	0xbeb35406	-0.35025042
82	0xbeb1061a	-0.34574968
83	0xbe98d01d	-0.29846278
84	0xbf0d9721	-0.5530873
85	0xbf133522	-0.5750295
86	0xbe77cb12	-0.24198559
87	0xbdfd2a2a	-0.12361558
88	0x3f070303	0.5273897
89	0x3ef463cb	0.47732386
90	0x3f1fb7f0	0.6239004
91	0x3f6c2724	0.92247224
92	0x3f589aaa	0.84611
93	0x3f8665b3	1.0499786
94	0x3f1f70ca	0.6228148
95	0x3ef5aa48	0.47981477
96	0xbea2df94	-0.31811202
97	0xbe1d394f	-0.15353893
98	0xbe35b832	-0.17746046
99	0xbe38c3f0	-0.18043494
100	0xbeb85d8c	-0.3600887
101	0xbee36439	-0.444124
102	0xbdddb979	-0.10826392
103	0xbd091382	-0.03346587
104	0x3ef6654f	0.48124167
105	0x3e28a7f6	0.16470322
106	0x3de1d828	0.11027557
107	0xbdd48d9a	-0.10378571
108	0xbdb56102	-0.088563934
109	0xbe2c4784	-0.16824156
110	0xbee5f96a	-0.4491685
111	0xbf6c2ee4	-0.9225905
112	0xbdc42b6e	-0.09578596
113	0x3daf3c10	0.08556378
114	0x3e53c91d	0.20682187
115	0x3dca8115	0.09887902
116	0x3e991915	0.2990195
117	0x3ebfc8ce	0.3745789
118	0xbcf00a30	-0.029301733
119	0x3d482631	0.048864547
120	0xbf81a1ab	-1.0127462
121	0xbe4cd557	-0.20003258
122	0xbe780e0a	-0.24224105
123	0xbed577c1	-0.41692927
124	0xbeadb16e	-0.3392443
125	0xbe96bb2f	-0.29439685
126	0x3dd6df6b	0.10491832
127	0x3dde6081	0.108582504
128	0xbdac410f	-0.084108464
129	0x3d5d3b8b	0.054011863
130	0xbb891500	-0.0041834116
131	0x3de64447	0.112434916
132	0xbd75486b	-0.059883516
133	0xb845b984	-4.7141235e-05
134	0x3e905ebb	0.28197274
135	0x3e4745ca	0.19460216
136	0x3d17a09c	0.037018403
137	0xbd0edad9	-0.03487668
138	0xbdbb0a77	-0.091328554
139	0xbe0394d8	-0.12849748
140	0xbe03fa3b	-0.12888424
141	0xbec01328	-0.37514615
142	0xbdfd5218	-0.12369174
143	0xbe1edf64	-0.15514904
144	0x3d8999d2	0.06718792
145	0x3b58f7e6	0.0033106743
146	0xbd86086c	-0.06544575
147	0xbe17e0a4	-0.14831787
148	0xbe5ef3c0	-0.21772671
149	0xbea1687f	-0.31525037
150	0xbf9375cf	-1.1520327
151	0xbf8d9a78	-1.1062765
152	0xbf840a7c	-1.03157
153	0xbf4cbf22	-0.79979146
154	0xbf03ebf9	-0.5153194
155	0xbe1ca650	-0.15297818
156	0xbdac5da2	-0.084162965
157	0x3e770f5d	0.24126954
158	0x3eecce0e	0.46250957
159	0x3ef655c2	0.48112303
160	0x3e2f4330	0.17115474
161	0xbcfaddf1	-0.030623408
162	0xbcccb1cb	-0.024987122
163	0xbd28806a	-0.04113809
164	0xbbb2941e	-0.005449786
165	0x3b869bfe	0.004107951
166	0x3f050fdb	0.5197732
167	0x3f0bd003	0.54614276
168	0xbed5c623	-0.4175273
169	0xbe904b50	-0.2818246
170	0xbe48b6ee	-0.19601032
171	0xbc39317c	-0.011303302
172	0x3d2e321a	0.04252825
173	0x3dce6b68	0.1007908
174	0x3e338169	0.17529835
175	0x3e6f235b	0.23353331
176	0x3f05d33d	0.5227545
177	0x3efa0acd	0.48836365
178	0x3ecf53b3	0.40493545
179	0x3eb1e36f	0.3474383
180	0x3e9dd430	0.3082595
181	0x3e7a3f98	0.24438322
182	0x3c94bf0e	0.018157508
183	0xbc01714d	-0.007900548
184	0x3ebd18f6	0.36933106
185	0x3df055d2	0.11735119
186	0x3d38762b	0.04503457
187	0x3d604fd6	0.054763637
188	0x3e1ae2ec	0.15125626
189	0x3ebfcdf5	0.3746182
190	0xbd593269	-0.05302659
191	0xbd20d715	-0.03926762
192	0x3e88987b	0.26678833
193	0x3df39dc5	0.118953265
194	0x3e46c632	0.19411543
195	0xbe0ad090	-0.13556123
196	0xbe28c0ac	-0.16479748
197	0xbebca596	-0.36845082
198	0xbed361a8	-0.41285443
199	0xbea47ed8	-0.32128024
200	0xbe983bb2	-0.29733044
201	0xbe895a26	-0.2682659
202	0xbe7e4029	-0.24829163
203	0xbe462bd2	-0.19352654
204	0xbd807dca	-0.06273992
205	0xbd259205	-0.04042246
206	0xbf0e853d	-0.55672055
207	0xbeef3174	-0.46717417
208	0x3dae37d8	0.08506745
209	0x3ddfb8ed	0.10923944
210	0x3e0c560b	0.13704698
211	0x3e2b709a	0.16742173
212	0x3e850226	0.25978202
213	0x3ee81263	0.45326528
214	0x3e16703e	0.14691254
215	0x3eac94e9	0.3370736
216	0x3eba6998	0.36408687
217	0x3e91b6eb	0.28459868
218	0x3e39366f	0.18087171
219	0x3dd376b8	0.10325378
220	0x3dd5c08c	0.10437116
221	0x3d9c4fbb	0.07632395
222	0x3e477ccd	0.19481201
223	0x3e45a76a	0.19302145
224	0x3e8b5073	0.27209815
225	0x3e646cdd	0.22307153
226	0x3e038794	0.12844688
227	0xbda2bffd	-0.07946775
228	0xbe07580f	-0.13217185
229	0xbe5011d7	-0.20319305
230	0xbeab3566	-0.33439177
231	0xbed96706	-0.42461413
232	0xbe2cae6d	-0.16863413
233	0xbedabd85	-0.42722717
234	0xbe8c5b59	-0.27413443
235	0xbe82af7d	-0.25524512
236	0xbefaac86	-0.4895975
237	0xbefb5dd2	-0.49095017
238	0xbe37578c	-0.1790449
239	0xbc9b2842	-0.018940095
240	0xbe790ba2	-0.24320844
241	0xbe9626e0	-0.29326534
242	0xbebc91ed	-0.36830083
243	0xbeb453bb	-0.3522013
244	0xbef6f8de	-0.48236746
245	0xbf116999	-0.56801754
246	0xbe4aa9a7	-0.1979128
247	0xbe23cea8	-0.15996802
248	0x3ea19923	0.31562147
249	0x3e799e19	0.24376716
250	0x3e203673	0.1564577
251	0x3dae499b	0.08510133
252	0xbc06dcb7	-0.008231333
253	0xbdaa127d	-0.083043076
254	0xbf308ebd	-0.689678
255	0xbf4b35a7	-0.7937874

encoder.rnn.weight_hh_l0 f4 [128, 32]
0	0xc083c9d9	-4.1183896
1	0x3f24cc9b	0.64374703
2	0x40177034	2.3662233
3	0xbd6be224	-0.05758871
4	0xbe11768e	-0.14205381
5	0x3e541cde	0.20714137
6	0x40d9c038	6.804714
7	0x4046c12a	3.1055398
8	0x3f9a5a7d	1.2058865
9	0x3d73dab1	0.059534732
10	0x3e89107a	0.26770383
11	0xbf08a1e1	-0.5337201
12	0xbfddd6dd	-1.7331196
13	0x3df36c48	0.118858874
14	0x3f92a1ab	1.1455587
15	0xbf935f88	-1.1513529
16	0xbf291883	-0.66053027
17	0x3e3ed88c	0.18637294
18	0x40421467	3.0324953
19	0x3d90e9b4	0.07075825
20	0x3f3387b3	0.70128936
21	0x3e977418	0.2958076
22	0xbd857d4a	-0.065180376
23	0x3fe5dbd6	1.7957714
24	0x3fc55892	1.5417655
25	0x3d77eca5	0.060528416
26	0x3fd182e2	1.6368067
27	0xbf9665d5	-1.1749827
28	0x3f80b764	1.0055966
29	0x3e10db4b	0.14146154
30	0x3e2445b4	0.16042215
31	0xbf125bff	-0.57171625
32	0x3f0dcf24	0.55394197
33	0xbf175df7	-0.59127754
34	0xbd5bc6bd	-0.05365633
35	0x3e576989	0.21036352
36	0xbd3147a6	-0.04328122
37	0xbf665991	-0.8998042
38	0x3e94aeb1	0.2903953
39	0x3f152b38	0.5826907
40	0xbff7970d	-1.9342972
41	0x3c8ec8fd	0.017429823
42	0x3e265afb	0.16245644
43	0x3c40715b	0.011745776
44	0x3f1cf731	0.61314684
45	0x3f87775b	1.0583299
46	0x40312dcc	2.7684202
47	0xbd608357	-0.054812755
48	0x3e849a29	0.25898865
49	0x3e533183	0.20624356
50	0xbed12f9b	-0.40856633
51	0x3e2d1fb4	0.16906625
52	0xbe8c1ffe	-0.27368158
53	0x3e8860d7	0.26636383
54	0x3f8bcdab	1.092214
55	0x3e85a2eb	0.2610086
56	0x3d189a8c	0.037256762
57	0x3e55e934	0.20889741
58	0x3e59fd83	0.21288113
59	0x3fb121ac	1.3838401
60	0xbd720ac4	-0.0590923
61	0x3e4799c0	0.19492245
62	0x3e35a513	0.17738752
63	0x3e28c6dc	0.16482109
64	0xc0c8beee	-6.273307
65	0xbecc9253	-0.39955387
66	0x4089616d	4.293143
67	0xbfa50cc7	-1.2894524
68	0xbe1aa995	-0.15103753
69	0xbc7d1b29	-0.01544837
70	0xbf7e7ab2	-0.9940597
71	0x3eadcb88	0.33944345
72	0x3fc90017	1.5703152
73	0xc01d3cc8	-2.4568348
74	0xbeca7c9b	-0.3954819
75	0x3e6e9465	0.23298796
76	0x405d640d	3.4592316
77	0xbf57944c	-0.8421066
78	0xbfebe70d	-1.8429886
79	0xbfb6e5aa	-1.4288838
80	0x3f265b4f	0.64983076
81	0xbee89c83	-0.4543191
82	0x3f4617f2	0.7738029
83	0xbfb90815	-1.4455591
84	0x3ec465eb	0.38359007
85	0xbf38873f	-0.7208137
86	0x3ea18775	0.31548658
87	0xbf48a75f	-0.7838039
88	0x401b5b6a	2.4274545
89	0xbfd0cc8a	-1.631242
90	0xbfebadcc	-1.8412414
91	0x3e36b9ac	0.17844266
92	0xbe2f1ddf	-0.17101239
93	0xbf7b6e0a	-0.9821478
94	0xbf4436bb	-0.7664601
95	0x3f6335bc	0.8875387
96	0xbd2b7b9b	-0.041865926
97	0xbdec2a8c	-0.11531553
98	0xbebbce67	-0.3668091
99	0xbd561150	-0.052262604
100	0xbe0d7e02	-0.138176
101	0x3e9ac9c1	0.3023205
102	0xbd537fab	-0.051635426
103	0x3e46ef6e	0.19427273
104	0xbe79a71d	-0.24380155
105	0x3e0f4af9	0.13993444
106	0xbe11343c	-0.14180082
107	0x3edb3f39	0.42821673
108	0x3d967eff	0.07348441
109	0x3c7e9834	0.015539218
110	0x3e34effe	0.17669675
111	0x3ed5d319	0.41762617
112	0xbe66cfe4	-0.22540241
113	0xbe92eaa8	-0.28694654
114	0x3e4293fd	0.19001766
115	0xbe70b9cd	-0.23508377
116	0x3e26b65e	0.16280505
117	0xbe45a13b	-0.19299786
118	0x3e071573	0.13191776
119	0x3ebae7bc	0.36504924
120	0xbeb4d77b	-0.3532065
121	0xbdde6f3f	-0.10861062
122	0x3e9941fb	0.29933152
123	0x3d87ab26	0.06624441
124	0xbe3c5c66	-0.18394622
125	0xbd404502	-0.04694081
126	0xbe8927cb	-0.26788172
127	0xbe760e39	-0.24028863
128	0xbdab23e9	-0.08356459
129	0xbd048a23	-0.0323583
130	0xbda235ee	-0.079204425
131	0xbd9462af	-0.07245385
132	0xbcecd55f	-0.028910337
133	0x3dc33795	0.09532086
134	0xbc64a32a	-0.013954917
135	0x3c2602d2	0.010132508
136	0x3cfa7fda	0.030578543
137	0xbdc97f5e	-0.098387465
138	0xbdb06d58	-0.08614606
139	0x3c322f7c	0.010875579
140	0x3da0031b	0.07813092
141	0x2d705000	1.3660184e-11
142	0x3c86277a	0.016376246
143	0x3d4285ca	0.047490872
144	0xbe0c6812	-0.13711575
145	0xbcbd1622	-0.023081843
146	0x3b4d5e1f	0.0031336618
147	0xbc92d130	-0.017922014
148	0x3c8ecb18	0.017430827
149	0x3c1d9ec9	0.009620377
150	0xbc01bea1	-0.007918985
151	0x3d1c5b9e	0.03817331
152	0xbd097517	-0.03355893
153	0xbdc6e0d6	-0.09710853
154	0x3d877a77	0.06615155
155	0x3d439d1a	0.047757246
156	0xbb5b6de0	-0.0033482239
157	0xbdc33797	-0.09532087
158	0xbdceb3dc	-0.10092899
159	0xbbd43318	-0.0064758174
160	0x3e99a6d7	0.300101
161	0x3e2bac9f	0.16765068
162	0x3eea6b41	0.45784953
163	0xbe27b441	-0.16377355
164	0x3ec34607	0.38139364
165	0x3f8351ba	1.0259316
166	0x3c756c58	0.014979444
167	0x3e034c97	0.12822185
168	0x3e0ea8c0	0.1393156
169	0x3d36457c	0.04449986
170	0x3eb1d86f	0.34735438
171	0xbe2c5ab9	-0.16831483
172	0xbe2ae1c2	-0.16687682
173	0x3e0263f0	0.12733436
174	0xbf86328c	-1.0484176
175	0xbf6bf3ba	-0.9216877
176	0x3d19ccf6	0.03754898
177	0xbe817d24	-0.25290787
178	0x3d823bf3	0.06359091
179	0xbf55bef0	-0.8349447
180	0xbd52da41	-0.051477674
181	0xbe4d85f6	-0.20070633
182	0x3e03ce42	0.1287165
183	0xbf47d642	-0.78061306
184	0xbdc81907	-0.097703986
185	0x3e3f9aa2	0.18711331
186	0xbf01d2a7	-0.50712055
187	0xbd8f6ef2	-0.07003583
188	0x3fd27058	1.6440535
189	0x3e4e48eb	0.20145003
190	0xbdbde18b	-0.092715345
191	0xbe663e22	-0.2248464
192	0xbf7453a3	-0.9544012
193	0x3c39bfcd	0.011337233
194	0xbfb1227d	-1.383865
195	0x3fbb590f	1.4636554
196	0xbc476cb8	-0.012171917
197	0x3e8a1aee	0.2697367
198	0x3fcf62cf	1.6202029
199	0x40610626	3.5160003
200	0x3eed8b41	0.46395305
201	0x3f0da756	0.5533346
202	0x3fd5b5a5	1.6696059
203	0xbfa75c5f	-1.3075064
204	0xbf397f50	-0.7245989
205	0x3f710590	0.9414911
206	0xbc0c58ce	-0.008566095
207	0xbfe456a6	-1.7838943
208	0xbd307e6f	-0.043089326
209	0x3fd01edd	1.6259419
210	0x3fece2a7	1.8506669
211	0x3fe06d2b	1.7533315
212	0xbe15c2bf	-0.14625071
213	0x3fd4969e	1.6608465
214	0xbfb7f472	-1.4371474
215	0xbc20b5d7	-0.009808979
216	0x408cc50e	4.3990545
217	0x3fd50aa7	1.6643876
218	0xbc37f50e	-0.011227859
219	0x384ff880	4.958408e-05
220	0x3182a5a8	3.802331e-09
221	0x3fd431c7	1.6577691
222	0x3fe3d200	1.7798462
223	0x3fd2100b	1.6411146
224	0xbf9a8ada	-1.2073624
225	0xbfa916e3	-1.321011
226	0x40333135	2.7998784
227	0xc02c12c9	-2.6886466
228	0xc0265d9a	-2.599463
229	0xbf2075fb	-0.62680024
230	0xc041788b	-3.0229824
231	0x40a57e16	5.1716413
232	0x400c55aa	2.1927285
233	0xc087a19c	-4.2384777
234	0x3ec7f288	0.39052224
235	0xbf60d18d	-0.8781975
236	0x3fc56f47	1.5424584
237	0xbfc92380	-1.5713959
238	0xc0833585	-4.100283
239	0xc04e2d56	-3.221517
240	0xbf346204	-0.7046206
241	0x3f0af0d0	0.542737
242	0xbfd98c21	-1.6995889
243	0x3eda1556	0.42594403
244	0xbb8aef82	-0.0042399773
245	0x3ee9dcf6	0.45676392
246	0xbf151764	-0.58238816
247	0xc085725e	-4.170211
248	0xbf58c1fc	-0.84670997
249	0x3e728712	0.23684338
250	0xc0882e55	-4.255656
251	0xbea9e712	-0.33184105
252	0x3d40e16a	0.04708997
253	0x3f091104	0.5354159
254	0x3ef8ffc7	0.48632643
255	0x3f9699e8	1.1765718

encoder.rnn.bias_ih_l0 f4 [128]
0	0x3f00346f	0.5008001
1	0x3dde6929	0.108599015
2	0x3f9dcb90	1.2327747
3	0xbdb52bfe	-0.088462815
4	0xbdc8258c	-0.097727865
5	0x3f34a9a2	0.7057134
6	0x403c25e9	2.9398139
7	0x4017c67b	2.3714893
8	0xbef2a6b1	-0.473928
9	0x3cc45e42	0.023970727
10	0xbe1f1844	-0.155366
11	0xbf3ca007	-0.7368168
12	0xbe824a19	-0.25447157
13	0xbf6ea068	-0.9321351
14	0x3f830a2c	1.0237479
15	0x3f391bf4	0.7230828
16	0x3f6c9a7b	0.9242322
17	0x3eea6c60	0.4578581
18	0x3ed8ee5d	0.42369357
19	0xbf77d68a	-0.96811736
20	0xbf48156f	-0.78157705
21	0xbf08e82f	-0.53479284
22	0x3e922c11	0.28549245
23	0xbea0c4e1	-0.31400207
24	0xc02ab8ef	-2.6675375
25	0xbe5ea0f7	-0.2174109
26	0xbf2aea07	-0.6676335
27	0x3e8632a7	0.2621052
28	0xbf08f703	-0.5350191
29	0xbd4244fd	-0.047429074
30	0xbe9917f2	-0.2990108
31	0x3ec1c949	0.3784888
32	0x3f1dcf7f	0.6164474
33	0xbe996c32	-0.2996536
34	0x3b0004bd	0.0019534074
35	0x3e35f898	0.17770612
36	0xbe0f4bf1	-0.13993813
37	0x3e83b26d	0.25722066
38	0xbf304b4e	-0.68864906
39	0xbf84e0ff	-1.0381163
40	0xbefe8a70	-0.49714994
41	0x3efbddf8	0.49192786
42	0x3e01f981	0.12692834
43	0x3e4e2f67	0.2013527
44	0xbd090fd6	-0.033462368
45	0xbc05abd9	-0.008158647
46	0x3eb7878d	0.35845605
47	0x3e6509dc	0.22367042
48	0x3ea660da	0.32495767
49	0x3dd6d36b	0.104895435
50	0x3ba2bd2d	0.004966399
51	0xbe83f95a	-0.25776178
52	0xbf711665	-0.94174796
53	0x3e1e08bd	0.15433021
54	0xbe0b5dc5	-0.13609989
55	0xbdfe7e4b	-0.12426432
56	0x3e098e17	0.13433109
57	0x3e94f8f0	0.29096174
58	0xbe328b10	-0.1743586
59	0xbcc39d7d	-0.023878807
60	0xbec9af93	-0.39391765
61	0x3ea3563f	0.31901738
62	0x3d94054a	0.07227571
63	0x3da2954b	0.079386316
64	0x3f3b7442	0.7322427
65	0xbe0462c2	-0.12928298
66	0xbe642774	-0.22280675
67	0x3ea1d001	0.31604007
68	0x3e2aa178	0.16663158
69	0x3f19c4ce	0.60065925
70	0xbd8bf146	-0.06833129
71	0xbcf799ab	-0.030224642
72	0xbee2731c	-0.44228446
73	0xbf95e9a0	-1.1711922
74	0xbcc0629a	-0.023484517
75	0xbd67272f	-0.056433853
76	0x3e2338af	0.15939592
77	0xbd16e5f6	-0.0368404
78	0x3d4015c8	0.046895772
79	0xbf28acfd	-0.6588896
80	0x3f7cffb8	0.98827696
81	0x3f0ca11b	0.5493333
82	0xbe903a3a	-0.28169423
83	0xbe00eddf	-0.1259074
84	0x3e04d50e	0.12971899
85	0x3e0754f9	0.13216008
86	0xbf3a35d1	-0.7273837
87	0xbe25b3cb	-0.16181867
88	0xbec0b78f	-0.37640044
89	0x3e4f65b6	0.20253643
90	0x3e218126	0.15771922
91	0xbbb71bbc	-0.005588023
92	0x3cbf418c	0.023346685
93	0x3dee1464	0.11624983
94	0x3e58c3f3	0.21168499
95	0x3f147e16	0.5800489
96	0x3f250509	0.6446081
97	0x3f166719	0.58751065
98	0x3fff54bc	1.9947734
99	0x3de53b8c	0.11192998
100	0xbf51ad1e	-0.8190478
101	0x3fb210cb	1.3911375
102	0x3fce2619	1.6105376
103	0x3e3d2e73	0.1847475
104	0x3e571389	0.21003546
105	0x3f7608fc	0.9610746
106	0x3e96b172	0.29432255
107	0x3f466887	0.77503246
108	0xbf2048d9	-0.62611157
109	0xbf1129ea	-0.5670458
110	0x3f207cfb	0.62690705
111	0x3f817309	1.0113231
112	0x3f427c07	0.759705
113	0x3ea0499e	0.31306165
114	0xbfdf212d	-1.7432
115	0x3d9972d1	0.074926026
116	0xbe57d87d	-0.21078677
117	0xbd5263cd	-0.05136471
118	0xbf902756	-1.1262004
119	0xbeee97fb	-0.46600327
120	0x3e82896a	0.25495464
121	0x3f35cee8	0.7101884
122	0xbecb4e13	-0.39708003
123	0x3ec35796	0.3815276
124	0xbea50add	-0.3223485
125	0x3eefd006	0.46838397
126	0x3e8651a3	0.2623416
127	0x3d988521	0.07447267

encoder.rnn.bias_hh_l0 f4 [128]
0	0x3eb9a6ad	0.36259976
1	0x3df2c8d5	0.11854712
2	0x3fa3fd93	1.281176
3	0xbdb52f39	-0.08846898
4	0xbdc82552	-0.09772743
5	0x3f349533	0.7054016
6	0x403b0553	2.9222
7	0x40194417	2.3947809
8	0xbef2b4a9	-0.47403458
9	0x3cef972c	0.029246889
10	0xbe1f184d	-0.15536614
11	0xbf3e7238	-0.74393034
12	0xbe824a19	-0.25447157
13	0xbf50d249	-0.8157087
14	0x3f8333e1	1.0250207
15	0x3f391bfc	0.72308326
16	0x3f9312b5	1.1490084
17	0x3eea6c50	0.4578576
18	0x3ed8eedb	0.42369732
19	0xbf784e98	-0.96994925
20	0xbf4814d9	-0.7815681
21	0xbf0924eb	-0.5357196
22	0x3e922953	0.28547153
23	0xbea0c597	-0.3140075
24	0xc02038cf	-2.5034673
25	0xbe624fc0	-0.22100735
26	0xbf2b39d2	-0.668851
27	0x3e8639e8	0.26216054
28	0xbf08f6f8	-0.53501844
29	0xbd424501	-0.04742909
30	0xbe991f87	-0.29906866
31	0x3ec1c949	0.3784888
32	0x3ef782b6	0.48341912
33	0xbe994843	-0.29937944
34	0x3dc67b9f	0.096915476
35	0x3e35f8eb	0.17770736
36	0xbe0f4bf1	-0.13993813
37	0x3e831a15	0.25605837
38	0xbf303748	-0.6883435
39	0xbf8514c2	-1.039696
40	0xbef26433	-0.4734207
41	0x3efbc92d	0.49176922
42	0x3e01f981	0.12692834
43	0x3e444ba3	0.19169478
44	0xbd0908cd	-0.03345566
45	0xbc010aa8	-0.007876076
46	0x3eb77894	0.3583418
47	0x3e6502e0	0.22364378
48	0x3ea63082	0.32458884
49	0x3dd6d36b	0.104895435
50	0x3ba2bd2d	0.004966399
51	0xbe83f9cd	-0.2577652
52	0xbf71166f	-0.94174856
53	0x3e1e0a4e	0.15433618
54	0xbe0b5dc5	-0.13609989
55	0xbdfe7e4b	-0.12426432
56	0x3e09539c	0.134108
57	0x3e94fdd4	0.29099905
58	0xbe328b05	-0.17435844
59	0xbcc39db5	-0.023878912
60	0xbec9af94	-0.39391768
61	0x3ea35e12	0.31907707
62	0x3d940566	0.07227592
63	0x3da2954f	0.079386346
64	0x3f3ac32e	0.7295407
65	0xbe0462a4	-0.12928253
66	0xbe642776	-0.22280678
67	0x3ea243cb	0.31692347
68	0x3e2aa18a	0.16663185
69	0x3f17e5d6	0.59335077
70	0xbd8ba96e	-0.068194255
71	0xbca92407	-0.020647062
72	0xbee27fe8	-0.4423821
73	0xbf94f917	-1.1638516
74	0xbcc05601	-0.02347851
75	0xbd672e0f	-0.05644041
76	0x3e2338af	0.15939592
77	0xbd16e5f6	-0.0368404
78	0x3d409822	0.047020085
79	0xbf28ad01	-0.65888983
80	0x3f7cf237	0.9880709
81	0x3f0ca11b	0.5493333
82	0xbe903a32	-0.281694
83	0xbe00eddf	-0.1259074
84	0x3e04d511	0.12971903
85	0x3e0754f9	0.13216008
86	0xbf3a3542	-0.72737515
87	0xbe25b3cb	-0.16181867
88	0xbec0b78f	-0.37640044
89	0x3e4f65b6	0.20253643
90	0x3e218548	0.15773499
91	0xbbb71bbc	-0.005588023
92	0x3cbf41c0	0.023346782
93	0x3dee147e	0.11625002
94	0x3e58c3d7	0.21168457
95	0x3f147e16	0.5800489
96	0x3f25026a	0.6445681
97	0x3f168cc9	0.5880857
98	0x3ffef3f6	1.9918201
99	0x3de7e92e	0.11323772
100	0xbf51c40c	-0.8193977
101	0x3fa1f356	1.2652385
102	0x3fd507d8	1.6643019
103	0x3e3d356a	0.18477407
104	0x3e568fe6	0.2095333
105	0x3f76100d	0.9611824
106	0x3e96a482	0.29422385
107	0x3f497407	0.7869267
108	0xbf2cf2a2	-0.6755773
109	0xbf11a0b3	-0.5688583
110	0x3f14c952	0.5811969
111	0x3f80942c	1.0045218
112	0x3f42d3d2	0.7610446
113	0x3ea046ea	0.31304103
114	0xbfc1c5ff	-1.5138549
115	0x3d996f6b	0.074919544
116	0xbe57d892	-0.21078709
117	0xbd535b82	-0.05160094
118	0xbf66ad85	-0.9010852
119	0xbeedc6aa	-0.4644063
120	0x3e847828	0.25872922
121	0x3f35cfcf	0.71020216
122	0xbecb43d1	-0.39700177
123	0x3ec3579c	0.38152778
124	0xbea4f928	-0.3222134
125	0x3ef06676	0.46953171
126	0x3e86705b	0.26257595
127	0x3d988465	0.07447127

decoder.rnn.weight_ih_l0 f4 [256, 32]
0	0xbd4cfee3	-0.050047766
1	0xbeb0f397	-0.34560844
2	0xc07e251d	-3.9710152
3	0x3e274c31	0.16337658
4	0x3da20f84	0.079131156
5	0xbeceef7a	-0.4041708
6	0x3f812a04	1.0090947
7	0x4082138c	4.064886
8	0x3e4165de	0.18886515
9	0x3f0a06fa	0.53916895
10	0x3f2abbb4	0.6669266
11	0xbeac53b2	-0.33657604
12	0x3f260500	0.6485138
13	0x3ec7d48c	0.39029348
14	0x3e9dc5ad	0.30814877
15	0xbf6b81af	-0.91994756
16	0x3ed3619f	0.41285416
17	0x3f134468	0.57526255
18	0x3ec0aec8	0.37633348
19	0x3f1e2ac6	0.6178402
20	0x3be349df	0.0069362964
21	0x3f05394c	0.52040553
22	0xbedb3fa0	-0.4282198
23	0xbe92ddf7	-0.2868497
24	0x3fcf8d7c	1.6215053
25	0x3f082cee	0.5319356
26	0xbebb1407	-0.36538717
27	0x3dcdf63f	0.10056733
28	0x3daa9c36	0.08330576
29	0x3f03ee56	0.51535547
30	0x3f137c14	0.57611203
31	0xbc8e8389	-0.017396705
32	0xbd0b8526	-0.034062527
33	0xbedc3a90	-0.4301343
34	0x3fea8e14	1.8324609
35	0xbd228e6f	-0.039686617
36	0x3e33f62f	0.1757438
37	0x3d5c8590	0.053838313
38	0x3fa42804	1.2824712
39	0x4029d8a3	2.6538475
40	0x3dff4bd5	0.12465636
41	0x3e3cd08f	0.18438934
42	0x3f00f3b2	0.5037185
43	0xbea23ddc	-0.3168782
44	0x3f4c18d5	0.7972539
45	0x3fb3adbc	1.4037395
46	0x3f28af38	0.6589236
47	0xbf42204d	-0.7583054
48	0xbe9d148c	-0.3067974
49	0x3ee4fbee	0.44723457
50	0xbfc59f0d	-1.5439163
51	0x3edf05a1	0.43558982
52	0xbb9e6a7d	-0.0048344717
53	0x3e37e463	0.17958216
54	0xbde2db12	-0.110769406
55	0xbe181254	-0.14850742
56	0x3eedcd99	0.4644592
57	0x3edc7b6f	0.43062922
58	0x3c91618d	0.017746711
59	0x3df63cf6	0.12023346
60	0x3d1de082	0.038544185
61	0x3ee4418c	0.44581258
62	0x3ee966ed	0.4558634
63	0xbe853d64	-0.260234
64	0xbfb2a253	-1.3955787
65	0xbf2aba64	-0.6669066
66	0xc060b01d	-3.510749
67	0xbe84ca98	-0.25935817
68	0x3b8bdc92	0.0042682374
69	0xbf8421fe	-1.0322874
70	0xbf8cb810	-1.0993671
71	0xbfec0f9c	-1.8442264
72	0x404cf525	3.2024624
73	0xbf0cd335	-0.55009776
74	0x3f00cbe4	0.5031111
75	0x3f398232	0.7246429
76	0xbfebd2f3	-1.8423752
77	0x3f2164d2	0.63044465
78	0x3e918d5c	0.2842816
79	0xbf152c1b	-0.58270425
80	0xc06e13ca	-3.7199578
81	0x3ea31c50	0.31857538
82	0xbfd38348	-1.6524439
83	0x3ef9a23c	0.48756588
84	0x3cf41858	0.029796764
85	0x3f10c031	0.5654326
86	0x3eccc753	0.39995822
87	0x3d767072	0.06016583
88	0xbe347391	-0.1762221
89	0x3ea66ca1	0.32504752
90	0x3dfee587	0.124461226
91	0xbe434a00	-0.19071198
92	0xbbffb005	-0.0078029656
93	0x3ea4dc5d	0.32199374
94	0x3e846d40	0.258646
95	0x3b92ec7c	0.0044837575
96	0xbe4c1acf	-0.19932102
97	0xbee91625	-0.45524707
98	0xc02fa46d	-2.7444108
99	0xbf256d53	-0.6461994
100	0x3d499ef3	0.04922385
101	0xbf17548b	-0.5911338
102	0x40b25e90	5.5740433
103	0x3f3196a1	0.69370466
104	0x3f10e5fe	0.5660094
105	0xbccaccc9	-0.024755852
106	0x3ea9e063	0.33179006
107	0x3e1af0f3	0.15130977
108	0xbcb7febc	-0.022460334
109	0x3f2493b5	0.64287883
110	0xbe004b72	-0.1252878
111	0xbe66bf82	-0.22533992
112	0xbf60fd71	-0.8788672
113	0xbe295122	-0.16534856
114	0xbc851663	-0.016246026
115	0x3e7cb22c	0.24677342
116	0x3ce991aa	0.02851184
117	0x3e9b8f7a	0.303829
118	0x3ebbca3f	0.3667774
119	0xbd9d41df	-0.076785795
120	0x3f907c06	1.1287849
121	0x3e3dbf20	0.1852994
122	0xbd8e4d82	-0.06948377
123	0x3f1e7fa6	0.61913526
124	0x3c03b31d	0.008038309
125	0xbe9f03d4	-0.31057608
126	0xbd407b49	-0.046992574
127	0xbf10ec9e	-0.5661105
128	0xbfe4edde	-1.7885091
129	0x3eabfef3	0.33592948
130	0xbfd22603	-1.641785
131	0xbeab99d7	-0.33515808
132	0xbc1ca937	-0.009561828
133	0xbe14ff17	-0.14550434
134	0x4051ab99	3.2760985
135	0xbf8d88eb	-1.1057409
136	0x3e750c65	0.2393051
137	0xbeb4c7e0	-0.35308743
138	0x3e305130	0.1721847
139	0x3e982de0	0.297225
140	0xbf830340	-1.0235367
141	0x400b02c1	2.172043
142	0x3d4cf825	0.050041337
143	0xbfddea16	-1.7337062
144	0xc08ddae5	-4.4329705
145	0x3e39b1cc	0.1813423
146	0x3f5df978	0.86708784
147	0x3e0be16c	0.1366021
148	0xbca3dd7f	-0.020003079
149	0x3dc82333	0.09772339
150	0x3e380e70	0.17974257
151	0x3e2c503f	0.16827486
152	0x3fcd91e4	1.6060147
153	0x3e256358	0.16151178
154	0x3e093a6f	0.13401197
155	0x3db33e29	0.087520905
156	0xbcb6005a	-0.022216965
157	0x3e389128	0.18024123
158	0x3e29ddf4	0.16588575
159	0xbe99d8b0	-0.30048132
160	0xbf96b7c1	-1.1774827
161	0x3fba195f	1.4538993
162	0x3f38249f	0.7193088
163	0xbf2ef3ea	-0.68340933
164	0x3e5764fd	0.21034618
165	0xbe58cd82	-0.21172145
166	0x3f99cac6	1.2015007
167	0x402a7ab8	2.6637402
168	0x3d4bd5fc	0.04976462
169	0xbe9f5f14	-0.31127226
170	0x3ca1d5b9	0.019755231
171	0x3e630f92	0.22173908
172	0x3e342438	0.17591941
173	0x3ed12f75	0.4085652
174	0xbf942d11	-1.1576253
175	0x3f3cf521	0.7381154
176	0xbf104efd	-0.56370527
177	0x3c16f03e	0.009212552
178	0xbda2c0f8	-0.07946962
179	0x3e373870	0.17892623
180	0xbd3601e8	-0.04443541
181	0x3db8a3dc	0.09015629
182	0x3dd5c97a	0.10438819
183	0xbe9e8b3b	-0.309656
184	0x3f9a9189	1.2075664
185	0x3c5b7106	0.013393646
186	0xbe9d3cdb	-0.30710492
187	0xbc77c7ab	-0.015123288
188	0x3c87e10e	0.016586807
189	0x3cc743fe	0.024324413
190	0x3cc5e4d7	0.02415697
191	0xbe8e40e8	-0.27783895
192	0x3fbad2c2	1.4595568
193	0xbc790e4c	-0.015201163
194	0x400ce26c	2.2013197
195	0x3bb64487	0.0055623683
196	0x3d37740e	0.044788413
197	0xbf34ede9	-0.7067552
198	0xbf5f44d9	-0.8721443
199	0x3ffe9d88	1.9891825
200	0x3eae8779	0.34087732
201	0x3f422bfd	0.7584837
202	0x3f363534	0.7117493
203	0xbfbd0c10	-1.4769306
204	0xbf82e065	-1.022473
205	0x3e024418	0.12721288
206	0xbca147bd	-0.019687528
207	0xbf1211c5	-0.57058364
208	0xc0369e29	-2.8534033
209	0x3f223b5e	0.6337184
210	0xbe0f7bfe	-0.14012143
211	0x3f3c1d00	0.7348175
212	0xbcd11151	-0.025520952
213	0x3f1ca5bb	0.61190385
214	0xbed927bb	-0.42413124
215	0xbcb56c3b	-0.022146335
216	0xbf9ff69c	-1.2497134
217	0x3f3d0f71	0.73851687
218	0xbd2788d4	-0.040901974
219	0xbe03c921	-0.12869693
220	0x3c9b72e8	0.01897569
221	0x3f230c7b	0.6369092
222	0x3f2814d1	0.65656763
223	0xbc891bc6	-0.016736876
224	0x3f2b9526	0.6702446
225	0xbbdd8814	-0.0067606065
226	0xbed8760d	-0.42277566
227	0x3f3b1b62	0.7308866
228	0xbeb127a8	-0.34600568
229	0xbf783fb8	-0.9697223
230	0x3f0d7d75	0.5526956
231	0xbe1cad43	-0.15300469
232	0x3e264d26	0.16240367
233	0x3e9c97c3	0.30584535
234	0x3f3abc18	0.7294326
235	0xbe9ba0ed	-0.30396214
236	0xbeaa4871	-0.33258393
237	0xbe8cdaf7	-0.27510807
238	0x3f52305e	0.8210505
239	0x3d9d4764	0.07679632
240	0x3ecc05eb	0.39848265
241	0x3f3a5754	0.727895
242	0xbe7f2b27	-0.24918805
243	0x3ee4317a	0.44568998
244	0x3bedee0e	0.0072610443
245	0x3ee577fe	0.4481811
246	0xbeff1b72	-0.49825627
247	0x3ee5f4f9	0.44913462
248	0x3ddac658	0.10682362
249	0x3f47f1c4	0.7810328
250	0x3ef3a2a3	0.4758502
251	0x3dd4371d	0.103620745
252	0xbd71ba82	-0.05901576
253	0x3f469934	0.7757752
254	0x3f475d74	0.77876973
255	0x3f2f6341	0.68510824

decoder.rnn.weight_hh_l0 f4 [256, 64]
0	0x3f66506c	0.89966464
1	0xc00fe64b	-2.248431
2	0x3e906719	0.28203657
3	0xbf222249	-0.63333565
4	0x3ee79bda	0.45236093
5	0xc01371ef	-2.303829
6	0xbf88a635	-1.0675722
7	0xbe9f362b	-0.31096014
8	0x3f2bec27	0.67157215
9	0xbf0be03a	-0.5463902
10	0x3ef95865	0.48700252
11	0xbf3479ad	-0.7049816
12	0x3c9f9bd0	0.019483477
13	0x3eb611d3	0.35560474
14	0xbfb94a97	-1.4475888
15	0xbec94bf2	-0.39315754
16	0x3f690ced	0.9103535
17	0x4006ace2	2.104302
18	0x3f5090b3	0.81470793
19	0x3fc4fafd	1.5389096
20	0x3f4e8269	0.8066774
21	0xbe0360f8	-0.1282996
22	0x3edbb5d4	0.4291216
23	0x3f9720d4	1.1806893
24	0x3f82a6ca	1.020715
25	0xbf60762b	-0.8768031
26	0x3f50c391	0.8154841
27	0xbf85c362	-1.0450251
28	0xbf76dfc4	-0.9643519
29	0xbe878b45	-0.26473442
30	0xbf9a5941	-1.2058488
31	0xbfe3e451	-1.7804052
32	0x3eb8dc88	0.36105752
33	0xbfc0ab02	-1.5052187
34	0x3e70bd70	0.23509765
35	0xbeebd7dc	-0.46063125
36	0xbe9c8648	-0.30571198
37	0xbe9d9065	-0.30774227
38	0x3f8fdea0	1.1239815
39	0xbeb5430d	-0.35402718
40	0xbfa63f6b	-1.2988104
41	0x3e607495	0.21919473
42	0x3f90adb5	1.1303011
43	0xbf6b8407	-0.9199833
44	0xbec5f303	-0.38661966
45	0xbfdc5a55	-1.7215067
46	0x3ec0b59e	0.37638563
47	0x3fb2f8c4	1.3982167
48	0x3f5a9358	0.8538108
49	0xbe476acb	-0.19474332
50	0x405af0eb	3.4209545
51	0xbe8c63b6	-0.27419823
52	0x3fb6c8d9	1.4280044
53	0x3b74a45b	0.0037329409
54	0x3ec40595	0.3828551
55	0xbf987ba4	-1.1912732
56	0x3f106f7e	0.56420124
57	0xbf2f5900	-0.6849518
58	0xbf9052fd	-1.1275326
59	0xbf43be8c	-0.76462626
60	0xc01e069c	-2.4691534
61	0xbe5f966f	-0.2183473
62	0x3eca92a5	0.39565006
63	0xbed27937	-0.41108105
64	0xbf6a0e45	-0.91428024
65	0x400cf62b	2.202525
66	0x3f8d557a	1.104171
67	0xbf9f063a	-1.2423775
68	0xbea69dbd	-0.3254222
69	0x400c3df7	2.191282
70	0x3f24c2a8	0.6435952
71	0xbec78a78	-0.3897283
72	0xbf9e5b05	-1.2371527
73	0xbf8a8595	-1.0822016
74	0x3efa6bc3	0.4891034
75	0xbfaf8703	-1.3713077
76	0xbfae73ba	-1.3629067
77	0x3e1e73a3	0.154738
78	0x3f939647	1.1530236
79	0xbe85c13a	-0.26123983
80	0xbf909c06	-1.1297615
81	0xbc5eef0b	-0.013606797
82	0xbf44100c	-0.76586986
83	0xbf077157	-0.5290732
84	0x3fbf355b	1.4938158
85	0xbffc4a1e	-1.9710119
86	0x3ef2e960	0.47443676
87	0x3f3fed67	0.7497162
88	0xbf6e4c68	-0.93085337
89	0xbededed5	-0.43529382
90	0x3ecccd62	0.40000445
91	0xbe55e3b1	-0.20887639
92	0x4041d806	3.02881
93	0xbecbab6e	-0.39779228
94	0xbf9bc661	-1.2169915
95	0xbe1ce7ce	-0.15322801
96	0x3e1946b8	0.14968383
97	0x40a36dcd	5.1071534
98	0x3f1e54f9	0.6184841
99	0x3f1ccf6d	0.61254007
100	0xbedc62b1	-0.43044046
101	0xbec205f9	-0.37895182
102	0xc0159880	-2.3374329
103	0x3e5c7bdc	0.21531624
104	0xbfe3fe87	-1.781205
105	0x3ecf6167	0.40504
106	0xbe466bac	-0.19377011
107	0xc027208c	-2.6113615
108	0xbef896e3	-0.48552617
109	0x3f4bccc3	0.79609317
110	0xbf1bb5c6	-0.6082424
111	0xc084c08b	-4.148504
112	0xbfa9d41f	-1.3267859
113	0x40a35774	5.1044254
114	0xbc1e1186	-0.009647733
115	0xbed5d400	-0.41763306
116	0x3fc12815	1.5090357
117	0xbed231e0	-0.41053677
118	0x3b2b5bfa	0.0026147352
119	0x3ec02de4	0.37535012
120	0xc02c9fd4	-2.6972551
121	0x3d55eca9	0.05222765
122	0xbf95a3a6	-1.1690567
123	0x3ea12d9e	0.31480116
124	0x3f44edca	0.7692534
125	0xbfa54f9e	-1.2914922
126	0xbf8e4601	-1.1115113
127	0xbedbe594	-0.42948592
128	0xbf164b5c	-0.5870874
129	0x3f129b26	0.5726799
130	0x3da0260c	0.07819757
131	0x3d6ac6ce	0.0573185
132	0xbe56210b	-0.20911042
133	0xbdab6416	-0.08368699
134	0x3e4a2b85	0.19743164
135	0x3eb72ebd	0.35777846
136	0xbf3ebb71	-0.7450476
137	0x3e72dc86	0.23716936
138	0x3d3e07ab	0.04639403
139	0x3f850975	1.0393511
140	0x3fd594a5	1.6685988
141	0xbffceaa8	-1.9759111
142	0x3f445f57	0.7670798
143	0x3df0d0f3	0.11758604
144	0x3fa09974	1.254683
145	0x3e90b8b7	0.28265926
146	0xbe52adf3	-0.20574169
147	0xbefaa0ea	-0.48950893
148	0x3f87b387	1.0601662
149	0x3f3af0b3	0.7302353
150	0xbca668d7	-0.020313663
151	0x3d6b4941	0.057442907
152	0xbe4ff801	-0.2030945
153	0x3e2ae5dc	0.16689247
154	0x3ec19070	0.3780551
155	0xc086c67d	-4.2117295
156	0xbf442c5e	-0.766302
157	0x3dc7e327	0.09760123
158	0xc012ca60	-2.293602
159	0x3d1db031	0.038498107
160	0x3f12584f	0.57166
161	0xbc7b729a	-0.015347147
162	0xbe018526	-0.12648448
163	0x3ea81635	0.32829443
164	0x3d9b55dd	0.075847365
165	0x3f2218bd	0.63319
166	0xbf65e8b1	-0.89808184
167	0x3f557b82	0.8339158
168	0xbeaae986	-0.3338129
169	0xbeb9ad22	-0.36264902
170	0xbf312f25	-0.6921256
171	0xc0c7e31c	-6.2464733
172	0x3c503b52	0.012709456
173	0x3fd00316	1.6250942
174	0x3d9a6d2b	0.075403534
175	0xc023d03b	-2.5595844
176	0xbf765714	-0.9622662
177	0xc0336ecb	-2.8036373
178	0x3ecbbeed	0.39794102
179	0x3e61fa7a	0.22068205
180	0xbd879574	-0.06620303
181	0xc02a66db	-2.6625278
182	0xbe446ec8	-0.19182885
183	0x3edc5af7	0.4303815
184	0xbe5f603f	-0.21814059
185	0xbe8c72f7	-0.2743146
186	0xbffdd604	-1.9830937
187	0x3f585eab	0.8451945
188	0x3da077a9	0.07835323
189	0xbf608681	-0.87705237
190	0xbf0e1926	-0.55507123
191	0x3e74b3e4	0.23896748
192	0x3e67aa7b	0.22623627
193	0x3e418edf	0.18902157
194	0xbfaa4d37	-1.3304814
195	0x3f4dbb2a	0.80363715
196	0x3e704928	0.23465407
197	0xbef8462d	-0.4849104
198	0x3e9c6a00	0.30549622
199	0x3efc4f2c	0.49279153
200	0x3fea2490	1.8292408
201	0x40b7a6b4	5.7390995
202	0x3e8c1d93	0.27366313
203	0xc0222765	-2.5336545
204	0xbe2567e2	-0.1615291
205	0x4045cdfa	3.0906968
206	0xbdc51d3a	-0.09624715
207	0x3ec2c1cf	0.3803849
208	0xbf18572e	-0.59508026
209	0xbf183838	-0.59460783
210	0xbf98583a	-1.1901925
211	0x3d9d74fb	0.07688328
212	0xbf14d9db	-0.5814492
213	0x3ecabaf0	0.39595747
214	0x3d62d87c	0.055382237
215	0x3f007d68	0.50191355
216	0x3de8c59d	0.11365817
217	0xbedcd815	-0.43133608
218	0x3e5e0a60	0.21683645
219	0xbf36ee96	-0.71457803
220	0xbd3aabdb	-0.04557405
221	0xbdb6d87c	-0.0892801
222	0x3ebcd2c4	0.3687955
223	0x3e406189	0.18787207
224	0x3f0478f3	0.51747054
225	0x3fc59c56	1.5438335
226	0xbd882500	-0.06647682
227	0x3f0f799b	0.5604493
228	0x3ec0b83c	0.3764056
229	0x3d1afd1e	0.037839048
230	0x3f10f723	0.566271
231	0xbe818043	-0.25293168
232	0xbdd5f738	-0.10447544
233	0xbe477421	-0.19477893
234	0x3f29c163	0.6631071
235	0xbe3c00bf	-0.1835966
236	0x3e9a6084	0.3015176
237	0xbb56207f	-0.0032673178
238	0x3eba762f	0.36418292
239	0x3ee01464	0.43765557
240	0xbeb498a2	-0.352727
241	0xbf75170d	-0.957383
242	0xbdab6563	-0.08368947
243	0x3ee64268	0.4497254
244	0xbe623216	-0.22089419
245	0xbeb2af56	-0.34899396
246	0x3fd02090	1.6259937
247	0x3ee22322	0.4416743
248	0xbf0b2cce	-0.5436524
249	0x3e3f327e	0.18671605
250	0x3e46916f	0.19391416
251	0x3f13c3f2	0.57720864
252	0x3d430aa2	0.047617562
253	0x3fa73286	1.3062294
254	0x400d9949	2.2124808
255	0x3e61a4b9	0.22035493

decoder.rnn.bias_ih_l0 f4 [256]
0	0x3f28d9d0	0.65957355
1	0x3f0494ec	0.51789737
2	0x3f1c3241	0.6101418
3	0xbdfef4ac	-0.12449011
4	0x3e291d9a	0.16515198
5	0x3d7046be	0.058661215
6	0x3f10f00d	0.5661629
7	0xbd06a8fa	-0.032875992
8	0x3eea27be	0.45733446
9	0x3ee304f6	0.44339722
10	0x3f32e1a5	0.69875556
11	0x3ef1d35f	0.47231576
12	0x3f1ebe01	0.6200867
13	0x3c8d46aa	0.01724561
14	0x3f2c624c	0.6733749
15	0x3f671285	0.90262634
16	0x3e57f30b	0.21088807
17	0x3f156a00	0.5836487
18	0x3e653d15	0.22386582
19	0x3f7d315c	0.9890344
20	0x3f37e37e	0.718315
21	0x3f089798	0.53356314
22	0x3ee166ec	0.44023836
23	0x3f1d7c02	0.61517346
24	0x3f595f61	0.8491116
25	0x3e82f437	0.25576946
26	0x3f1e546a	0.61847556
27	0x3f56d31c	0.8391588
28	0x3e01eda8	0.12688315
29	0x3f38729f	0.720499
30	0x3f1729a7	0.5904793
31	0x3eb76d26	0.3582546
32	0x3ee38abd	0.44441786
33	0x3ef6dbc8	0.48214555
34	0x3dd56a34	0.10420647
35	0x3f082110	0.5317545
36	0x3f3c3b27	0.7352776
37	0x3f1e5157	0.61842865
38	0x3f39cb48	0.7257581
39	0x3e8d7715	0.27629915
40	0x3f052494	0.5200894
41	0xbebf9c38	-0.37423873
42	0x3e93c7a0	0.2886324
43	0x3e8787b4	0.2647072
44	0x3eef63f9	0.4675596
45	0x3ec85658	0.39128375
46	0x3f23e2f7	0.64018196
47	0x3d4e3e1e	0.05035221
48	0x3efa4b64	0.48885643
49	0x3e027b81	0.12742426
50	0x3eda6731	0.42656854
51	0x3dbfebc7	0.09371143
52	0x3f23cd35	0.63984996
53	0xbf1b9997	-0.60781235
54	0x3f118ad7	0.5685248
55	0x3f32e5c7	0.6988186
56	0x3e72d228	0.23712981
57	0x3ed45804	0.414734
58	0x3f14684d	0.5797165
59	0x3ebb6e35	0.3660752
60	0x3eedb35e	0.4642591
61	0xbe6b6e29	-0.22991242
62	0x3f3a44dc	0.7276132
63	0x3f2978ed	0.66200143
64	0x3e9644a9	0.2934926
65	0x3e102f3c	0.14080518
66	0x3e122243	0.14270882
67	0x3e9782b1	0.29591897
68	0x3c8dbddd	0.017302448
69	0x3ea2a02d	0.3176283
70	0x3e3ccef8	0.18438327
71	0x3ccfab79	0.02535032
72	0x3e52178a	0.20516792
73	0x3eac01f7	0.3359525
74	0x3e9034a8	0.28165174
75	0x3e1b1bef	0.15147375
76	0x3e660339	0.22462167
77	0xbdac87bb	-0.08424326
78	0x3eab9e76	0.33519334
79	0x3e908e12	0.2823339
80	0x3c29cdcb	0.010364006
81	0xbe907a48	-0.28218293
82	0xbc789bb2	-0.015173839
83	0xbeb5c2a9	-0.35500076
84	0x3f07e938	0.5309024
85	0x3ecb2669	0.39677742
86	0x3e53b37d	0.20673938
87	0x3e83b210	0.25721788
88	0x3e7c5aca	0.24644008
89	0xbd61a5cc	-0.055089757
90	0x3e2c6e8e	0.16839048
91	0x3e5f1c29	0.21788086
92	0x3ea20b38	0.31649184
93	0x3e3c691a	0.18399468
94	0x3e2becb8	0.1678952
95	0x3ed1cb13	0.40975246
96	0x3e031c3c	0.1280374
97	0x3e2f162b	0.170983
98	0x3df56c15	0.11983506
99	0x3e10a945	0.14127071
100	0xbeb6c1a7	-0.3569462
101	0x3e59bf9c	0.212645
102	0x3e1f264e	0.15541956
103	0x3e392ed9	0.18084277
104	0x3d4bdc80	0.049770832
105	0xbe05cb72	-0.1306589
106	0x3e153444	0.14570719
107	0xbd55de71	-0.05221409
108	0x3da4bd95	0.080439724
109	0xbdb136f6	-0.08653061
110	0x3e90b42e	0.28262466
111	0x3e18ec98	0.14934003
112	0x3df7daf3	0.12102308
113	0xbd3b95ce	-0.04579716
114	0x3e658a5a	0.22416058
115	0x3da4e597	0.08051603
116	0x3ea2e138	0.31812453
117	0xbc8779ea	-0.016537625
118	0x3e73dbde	0.23814341
119	0xbda863e2	-0.08222176
120	0x3e012e9a	0.12615433
121	0xbd12f4d1	-0.035878006
122	0x3e56f09d	0.20990224
123	0xbd7e809a	-0.062134363
124	0x3dc6b220	0.097019434
125	0x3e8e71f1	0.27821305
126	0x3e7b0577	0.24513803
127	0x3e868b53	0.2627817
128	0x3ed6afc6	0.4193098
129	0xbe92e3a0	-0.2868929
130	0x3dab6927	0.083696656
131	0x3ee05106	0.43811816
132	0x3ecd443c	0.4009112
133	0x3f5693f6	0.8381952
134	0x3ece7c9e	0.4032945
135	0x3ef7fcbc	0.4843501
136	0x3d94a941	0.07258845
137	0xbe39c434	-0.18141252
138	0xbf1b0ccf	-0.6056642
139	0xbed35fbb	-0.41283974
140	0x3f0b816a	0.54494345
141	0x3ee50dd7	0.4473712
142	0xbdc86bed	-0.0978621
143	0x3f118f47	0.5685925
144	0x3e827cdc	0.25485885
145	0x3e2e1d31	0.17003323
146	0xbf19bccd	-0.6005371
147	0x3f43fd49	0.7655836
148	0x3ed43634	0.41447604
149	0xbeb1515f	-0.34632394
150	0xbf0266eb	-0.5093829
151	0x3ee0c1ff	0.43898007
152	0x3f1afca0	0.60541725
153	0x3eed4051	0.46338132
154	0xbef1b4c8	-0.47208238
155	0xbf1c8e75	-0.6115487
156	0xbef22a3a	-0.4729784
157	0x3f0da3fc	0.55328345
158	0xbeb59592	-0.35465676
159	0x3e242e6d	0.16033335
160	0x3f20de4c	0.628392
161	0x3ee1798d	0.44038048
162	0xbea37cb3	-0.31931075
163	0xbeef62e6	-0.4675514
164	0x3f1e59c8	0.61855745
165	0x3ee2c54d	0.44291154
166	0xbf0b205b	-0.54346246
167	0xbd5cc7ed	-0.0539016
168	0xbefc9621	-0.4933329
169	0xbeef262c	-0.4670881
170	0x3e922a03	0.28547677
171	0xbdde06c6	-0.10841136
172	0x3f0c322d	0.5476406
173	0x3ebd1b2a	0.36934787
174	0x3ece7d93	0.4033018
175	0x3c05db05	0.008169894
176	0xbec0ba3e	-0.37642092
177	0x3eadff4c	0.3398384
178	0xbec39ad3	-0.3820406
179	0x3ec267ee	0.37969917
180	0x3e9e76d4	0.30950034
181	0x3d8a3bf4	0.067497164
182	0xbf03cefc	-0.5148771
183	0xbf0e288e	-0.5553063
184	0xbebabaf3	-0.36470756
185	0x3e2d4a27	0.16922818
186	0xbec6a2b0	-0.38795996
187	0xbed9fbfb	-0.42575058
188	0x3df9af11	0.121915944
189	0x3e01e6bf	0.12685679
190	0xbf128266	-0.5723022
191	0x3f1b54a2	0.60676014
192	0x3f7d33bb	0.9890706
193	0x3f7100ae	0.9414166
194	0x3f23fec6	0.6406063
195	0x3eea2aac	0.4573568
196	0x3f06268f	0.52402586
197	0x3f6f0a67	0.9337525
198	0x3f4f4608	0.80966234
199	0x3eed9769	0.4640458
200	0x3f061c80	0.5238724
201	0x3dbf4866	0.09339981
202	0x3fb6e672	1.4289076
203	0x3edfa13f	0.43677709
204	0x3f11d797	0.5696959
205	0x3ef519d8	0.4787128
206	0x3fab53a6	1.3384902
207	0x3f624662	0.88388646
208	0x3f985c59	1.1903182
209	0x3f5e085b	0.867315
210	0x3f1c72b0	0.611125
211	0x3f4803d1	0.78130823
212	0x3f887f31	1.0663816
213	0x3f664687	0.89951366
214	0x3f98f429	1.1949512
215	0x3f959111	1.1684896
216	0x3f3f4148	0.74708986
217	0x3f4b1261	0.7932492
218	0x3f3e2a0f	0.74282926
219	0x3f40d6f1	0.75327975
220	0x3fb3038e	1.398546
221	0x3f20ad23	0.62764186
222	0x3f7470dc	0.9548471
223	0x3f57fdad	0.84371454
224	0x3f4b6a03	0.79458636
225	0x3edce00c	0.43139684
226	0x3f8ccaf2	1.0999434
227	0x3f96f259	1.1792709
228	0x3f68ee7a	0.90988886
229	0x3f0863e9	0.5327745
230	0x3f862ebc	1.0483012
231	0x3f54eb96	0.83171976
232	0x3f13035d	0.57427007
233	0x3f209c2c	0.627383
234	0x3f599ce5	0.8500503
235	0x3f910758	1.1330366
236	0x3f923682	1.1422884
237	0x3f037029	0.5134302
238	0x3f474d6a	0.778525
239	0x3efba71f	0.4915094
240	0x3f174473	0.5908882
241	0x3f05cb78	0.52263594
242	0x3f081704	0.5316012
243	0x3f9a51b9	1.205619
244	0x3fa92ada	1.3216202
245	0x3dadb959	0.08482618
246	0x3f81e2c6	1.0147331
247	0x3f389026	0.72094953
248	0x3f79b960	0.97548485
249	0x3f70de3f	0.9408912
250	0x3ef5f1c4	0.48036015
251	0x3f814f7c	1.0102382
252	0x3f393a78	0.7235484
253	0x3eca3d0d	0.39499703
254	0x3dc08097	0.093995266
255	0x3f5cd435	0.862613

decoder.rnn.bias_hh_l0 f4 [256]
0	0x3f2774f0	0.6541281
1	0x3f04fcf0	0.5194845
2	0x3f04d3cc	0.51885676
3	0xbdfa8386	-0.12232117
4	0x3e1fbee9	0.1560017
5	0x3db38856	0.087662384
6	0x3f128100	0.5722809
7	0xbd06a40c	-0.03287129
8	0x3ee843fb	0.45364365
9	0x3ee8fc02	0.45504767
10	0x3f32e361	0.698782
11	0x3ef1d35f	0.47231576
12	0x3f1f0d2b	0.6212947
13	0x3c70fc95	0.014708658
14	0x3f2c60f1	0.6733542
15	0x3f6726d0	0.902936
16	0x3e58120a	0.21100631
17	0x3f173af3	0.59074324
18	0x3e6a87ca	0.22903362
19	0x3f7d153e	0.9886054
20	0x3f357b68	0.7089143
21	0x3f066195	0.5249265
22	0x3ee16390	0.44021273
23	0x3f1d7188	0.6150136
24	0x3f59a680	0.85019684
25	0x3e7f1a9b	0.24912493
26	0x3f1e5469	0.6184755
27	0x3f56d320	0.839159
28	0x3de17aac	0.11009726
29	0x3f38728d	0.7204979
30	0x3f142067	0.5786194
31	0x3eba35bf	0.3636913
32	0x3ee71369	0.45131996
33	0x3ef6dc69	0.48215035
34	0x3dd50d2c	0.10402903
35	0x3f07f960	0.5311489
36	0x3f3c3afc	0.73527503
37	0x3f1e5358	0.6184592
38	0x3f39cb09	0.7257543
39	0x3e8d6088	0.2761271
40	0x3f0523c7	0.52007717
41	0xbebfacb6	-0.37436455
42	0x3e93c840	0.28863716
43	0x3e8787c2	0.26470762
44	0x3eef630f	0.46755263
45	0x3ee4fb8b	0.44723162
46	0x3f23e26e	0.6401738
47	0x3d4a7f3c	0.049437746
48	0x3efa0a63	0.4883605
49	0x3e027b08	0.12742245
50	0x3edf5bfe	0.43624872
51	0x3dbfeb89	0.09371097
52	0x3f23ccfd	0.6398466
53	0xbf1b949a	-0.60773623
54	0x3f118b44	0.5685313
55	0x3f330cde	0.6994151
56	0x3e70f323	0.2353025
57	0x3ed4601a	0.4147957
58	0x3f1375e9	0.5760179
59	0x3ebb23a0	0.36550617
60	0x3edbb3ec	0.42910707
61	0xbe554007	-0.20825206
62	0x3f3a44dc	0.7276132
63	0x3f29761c	0.66195846
64	0x3e9644a9	0.2934926
65	0x3e102f3e	0.14080521
66	0x3e42e63a	0.19033137
67	0x3e9782b1	0.29591897
68	0x3e1a9e72	0.15099505
69	0x3ea10f55	0.3145701
70	0x3e3ccef4	0.18438321
71	0x3ccfab79	0.02535032
72	0x3e52178b	0.20516793
73	0x3eac01f7	0.3359525
74	0x3e9034a8	0.28165174
75	0x3e1b1bef	0.15147375
76	0x3e660339	0.22462167
77	0xbdac87bb	-0.08424326
78	0x3eae06de	0.33989614
79	0x3e908e14	0.28233397
80	0x3c29cd87	0.010363943
81	0xbe907a48	-0.28218293
82	0xbc789a14	-0.015173454
83	0xbeb5c2a9	-0.35500076
84	0x3ef966a9	0.48711136
85	0x3ecb2669	0.39677742
86	0x3e53b37d	0.20673938
87	0x3e83b210	0.25721788
88	0x3e7c5aea	0.24644056
89	0xbd61a5ca	-0.05508975
90	0x3e2c6e8e	0.16839048
91	0x3e5f1c29	0.21788086
92	0x3ea20c96	0.31650227
93	0x3e3c691a	0.18399468
94	0x3e278825	0.16360529
95	0x3ed1d115	0.4097983
96	0x3e031c40	0.12803745
97	0x3e2f162b	0.170983
98	0x3df56c15	0.11983506
99	0x3e10a945	0.14127071
100	0xbeb6c1a7	-0.3569462
101	0x3e59bf9c	0.212645
102	0x3e1f264e	0.15541956
103	0x3e4c83d6	0.19972166
104	0x3d4bdc80	0.049770832
105	0xbe05cb72	-0.1306589
106	0x3e153453	0.14570741
107	0xbd55de25	-0.052213807
108	0x3da4bd95	0.080439724
109	0xbdb867ec	-0.090041965
110	0x3e90b42e	0.28262466
111	0x3e1ebe29	0.15502228
112	0x3e4bb7b5	0.19894297
113	0xbd3b95ce	-0.04579716
114	0x3e0617fc	0.13095087
115	0x3da4e597	0.08051603
116	0x3ea2e138	0.31812453
117	0xbc8779ea	-0.016537625
118	0x3e73dbde	0.23814341
119	0xbda863de	-0.08222173
120	0x3e42d5d0	0.19026875
121	0xbd12f4d1	-0.035878006
122	0x3e56f1f5	0.20990737
123	0xbd7e809a	-0.062134363
124	0x3da06567	0.07831841
125	0x3e8e71f1	0.27821305
126	0x3e7b0577	0.24513803
127	0x3e868b53	0.2627817
128	0x3ed6bace	0.41939396
129	0xbe92ec08	-0.28695703
130	0x3dd90194	0.10596004
131	0x3ee05106	0.43811816
132	0x3ecd443c	0.4009112
133	0x3f518198	0.8183837
134	0x3ece2aa7	0.40266916
135	0x3ef7fcbc	0.4843501
136	0x3d965e8c	0.07342252
137	0xbe39c393	-0.18141012
138	0xbf1b0ccf	-0.6056642
139	0xbed35fbb	-0.41283974
140	0x3f0b816a	0.54494345
141	0x3ee50dd7	0.4473712
142	0xbdc89037	-0.09793132
143	0x3f118f47	0.5685925
144	0x3e8355d6	0.25651425
145	0x3e2eec29	0.17082275
146	0xbf19d59e	-0.6009158
147	0x3f43fd49	0.7655836
148	0x3ed3f0a4	0.41394532
149	0xbeb27731	-0.3485656
150	0xbf0266eb	-0.5093829
151	0x3ee0e0e8	0.4392159
152	0x3f1afca0	0.60541725
153	0x3eed4051	0.46338132
154	0xbef1b4c8	-0.47208238
155	0xbf1c8e75	-0.6115487
156	0xbef28a78	-0.47371268
157	0x3f0da3fc	0.55328345
158	0xbe7d9513	-0.24763899
159	0x3e801141	0.25013164
160	0x3f211475	0.6292184
161	0x3ee1798d	0.44038048
162	0xbea37cb3	-0.31931075
163	0xbeeedb27	-0.46651575
164	0x3f1e59c8	0.61855745
165	0x3ee2c575	0.44291273
166	0xbf0b205b	-0.54346246
167	0xbd53cec5	-0.051710863
168	0xbefc9621	-0.4933329
169	0xbeef262c	-0.4670881
170	0x3e92a33b	0.2864016
171	0xbddd8069	-0.10815508
172	0x3f0c322d	0.5476406
173	0x3ec04fd4	0.37560904
174	0x3ececf69	0.40392616
175	0x3c05dd59	0.008170449
176	0xbec05991	-0.37568334
177	0x3eadff4c	0.3398384
178	0xbec490eb	-0.38391814
179	0x3ec267ee	0.37969917
180	0x3e9ea34b	0.30983958
181	0x3d8a3bf4	0.067497164
182	0xbf03cefc	-0.5148771
183	0xbf0e28a4	-0.5553076
184	0xbebabaf3	-0.36470756
185	0x3e2d15da	0.16902867
186	0xbec694e4	-0.3878547
187	0xbed9f4d3	-0.425696
188	0x3e222ce0	0.15837431
189	0x3e01e6be	0.12685677
190	0xbf128266	-0.5723022
191	0x3f1b54a2	0.60676014
192	0x3f80db36	1.0066898
193	0x3f6c5ed6	0.9233221
194	0x3f2483c0	0.64263535
195	0x3ec458ee	0.38349098
196	0x3f14e18a	0.58156645
197	0x3f51fac9	0.8202329
198	0x3f5f25e2	0.8716718
199	0x3eed92a0	0.46400928
200	0x3f170288	0.5898824
201	0x3dae7fa6	0.08520441
202	0x3fb37687	1.4020547
203	0x3efa9816	0.48944157
204	0x3f3d885e	0.74036205
205	0x3f0f88f8	0.5606837
206	0x3f9c5d9b	1.2216066
207	0x3f624879	0.88391834
208	0x3faa1121	1.3286477
209	0x3f8b035c	1.08604
210	0x3f1537ca	0.5828825
211	0x3f37d4f7	0.71809334
212	0x3f5c483e	0.8604773
213	0x3f787599	0.9705444
214	0x3f939a83	1.1531528
215	0x3f8819e3	1.06329
216	0x3f3f367e	0.74692523
217	0x3f4157e2	0.75524724
218	0x3f570fab	0.8400828
219	0x3f3af586	0.7303089
220	0x3fb6518d	1.4243637
221	0x3f38c601	0.7217713
222	0x3f81940a	1.0123303
223	0x3f60d25c	0.8782098
224	0x3f7917be	0.9730185
225	0x3ef30347	0.47463438
226	0x3f884124	1.0644879
227	0x3f934717	1.150607
228	0x3f68881e	0.908327
229	0x3f087b1d	0.53312856
230	0x3f573597	0.84066147
231	0x3f35d025	0.7102073
232	0x3f30187b	0.68787354
233	0x3f209c23	0.62738246
234	0x3f77a3b2	0.96734154
235	0x3f9a8485	1.2071692
236	0x3f86ae65	1.0521971
237	0x3f0daca0	0.5534153
238	0x3f474a0c	0.7784736
239	0x3efaad12	0.48960167
240	0x3f3d87d6	0.74035394
241	0x3f0d722f	0.55252355
242	0x3f07d9f0	0.5306692
243	0x3f928585	1.1446997
244	0x3fa0648e	1.2530687
245	0x3dacd38c	0.08438787
246	0x3f744747	0.9542126
247	0x3f3f5595	0.7473996
248	0x3f66ea9a	0.90201724
249	0x3f619b90	0.88127995
250	0x3ef42c85	0.47690216
251	0x3f75966c	0.9593265
252	0x3f40d107	0.7531895
253	0x3ef47eaf	0.47752902
254	0x3e46ec44	0.19426066
255	0x3f5cc3c5	0.8623622
