Detectors/Deep_Learning/AutoEncoders/models/Trained_RDA_Detect/ae_high_congestion_speed.pt (torch, 92215 bytes, 8 tensors)

encoder.0.weight f4 [100, 100]
00000000: b157 9a96 4cfb 9296 8c15 8e96 bc8a 8f96
00000010: 7917 8e96 1227 8a96 8481 8996 1571 8c96
00000020: d293 8f96 4d82 9196 0c75 9196 bf0c 9596
00000030: 3be2 9c96 1e8c a396 7e04 a996 45b2 ab96
00000040: 2337 b796 1abb c296 4f1d ce96 4d48 d996
00000050: 99b7 e096 de54 f496 65e3 0397 6d45 0d97
00000060: 89fa 1197 6859 1797 566e 2097 830c 2d97
00000070: c130 3797 182a 4097 6451 5097 bf58 6797
00000080: a8da 8297 fe94 9397 934a a397 6062 be97
00000090: 55fb d997 85d5 f497 f0cb 0b98 06d3 2098
000000a0: 4018 3b98 3f50 5898 e7ab 7598 201d 8b98
000000b0: bfbf 9c98 6a2c b198 1b94 c398 73d4 d998
000000c0: b18b ef98 f3bb 0099 4a4e 0c99 d186 1799
000000d0: ebb5 2399 32e5 2b99 40b0 3699 d2ae 3f99
000000e0: a626 4899 96da 4f99 969f 5499 17d0 5c99
000000f0: 4dcf 5d99 78f9 6099 aad8 6199 ff9f 6099
00000100: bbd1 6499 081c 6899 a8a4 7099 9687 8199
00000110: 63d0 8699 7c18 8c99 3859 9399 7025 9999
00000120: 6054 9f99 7446 a099 639a a199 15fe a499
00000130: 092f a999 402a aa99 a93a ab99 0a65 ab99
00000140: 03ff aa99 a3fa a999 ea5e a399 4fb6 9c99
00000150: 79f8 9699 4ede 8799 c7d5 8499 4868 7e99
00000160: 648c 7a99 29e0 6899 0167 6799 1ac7 6999
00000170: 456d 6399 3e17 5799 aee0 5899 3dca 5c99
00000180: db07 6099 e558 4c99 a9d2 4f99 ed50 5099
00000190: af86 26bb f68a 2cbb fb48 2fbb 0329 35bb
000001a0: c13a 3abb b331 43bb 0373 48bb d773 4cbb
000001b0: ae1b 54bb 16bb 59bb 5e85 5fbb 0b11 65bb
000001c0: afe7 6cbb 5750 77bb 514d 7dbb 1995 7fbb
000001d0: 9b83 82bb 1a5c 84bb 8eae 85bb 49d6 83bb
000001e0: 46ba 84bb a7e8 86bb 6b9f 85bb 84ee 83bb
000001f0: 4b95 84bb 7ded 84bb 6c4d 83bb c157 81bb
00000200: ab7f 81bb 75bc 81bb 4991 7dbb 762c 7abb
00000210: cddb 79bb e862 7abb cd92 76bb 97c5 75bb
00000220: 6ca8 73bb f0e5 72bb 5bf9 6dbb 227a 6dbb
00000230: 3e38 6cbb a3c7 6ebb fd81 67bb 0d21 63bb
00000240: 95ab 5fbb 321f 5dbb 653e 56bb 5a78 4dbb
00000250: 9584 4abb 93f8 43bb 8075 3cbb 4694 31bb
00000260: 7f93 32bb ecb0 2ebb 9f46 28bb baca 22bb
00000270: 7fbd 22bb cf8d 1ebb 671a 1abb 71d0 10bb
00000280: 4b4e 0ebb d1c9 09bb 9ee4 01bb 932e efba
00000290: c629 e1ba cdcd d7ba 2a61 caba 2c3c b9ba
000002a0: c582 acba d0b9 93ba a73b 86ba 9b1f 66ba
000002b0: 8ebc 3eba 53f2 23ba 9055 03ba 113e b9b9
000002c0: 76ca 65b9 a1e8 c3b8 13b8 bc38 2b17 8c39
000002d0: ffcc f739 82c4 223a bef1 3f3a 3c6f 793a
000002e0: 8a63 893a 299a 993a ec56 ad3a 339a bd3a
000002f0: 2902 c73a b4f6 c73a a504 c73a 5c1e c83a
00000300: 077b cc3a 3943 d33a 7cba d23a a1fe dd3a
00000310: eb9b e43a 3ea8 e93a 814b f23a ce15 fe3a
00000320: c319 2eb9 4bd3 2cb9 a1df 2cb9 e0dd 2bb9
00000330: 5c92 2ab9 0d19 29b9 d7d3 28b9 346e 27b9
00000340: 8ec7 25b9 d337 24b9 51d5 23b9 2b56 22b9
00000350: 3aa7 20b9 1613 1fb9 7fad 1eb9 c650 1db9
00000360: 67c2 1bb9 503d 1ab9 65f3 19b9 5e34 19b9
00000370: 918a 17b9 707b 16b9 c5b6 16b9 bb76 16b9
00000380: f544 15b9 5fbd 14b9 ed58 15b9 8b72 15b9
00000390: 93a1 14b9 6568 14b9 cc4d 15b9 c454 15b9
000003a0: 1d89 14b9 394d 14b9 9f41 15b9 7aa3 15b9
000003b0: ed0d 15b9 1afe 14b9 5406 16b9 a178 16b9
000003c0: 6949 16b9 d4f5 16b9 74f5 18b9 b39e 1ab9
000003d0: d857 1bb9 d8da 1cb9 b586 1fb9 5dc5 21b9
000003e0: 086d 23b9 a596 24b9 ca5d 27b9 2cd3 29b9
000003f0: 2d8c 2bb9 abe8 2cb9 f9f1 2fb9 1672 32b9
-2.4935383e-25 -2.3746163e-25 -2.2954935e-25 -2.319045e-25 -2.295615e-25 -2.231976e-25 -2.221528e-25 -2.2689585e-25
-2.3196184e-25 -2.3508245e-25 -2.349988e-25 -2.4080292e-25 -2.534593e-25 -2.6422497e-25 -2.7306258e-25 -2.7739044e-25
-2.960004e-25 -3.1460468e-25 -3.3299591e-25 -3.510387e-25 -3.6305018e-25 -3.9473885e-25 -4.2615395e-25 -4.5647185e-25
-4.7168247e-25 -4.890358e-25 -5.183805e-25 -5.5915107e-25 -5.9192025e-25 -6.2091676e-25 -6.7311154e-25 -7.475214e-25
-8.45625e-25 -9.537263e-25 -1.0552453e-24 -1.2303296e-24 -1.4086741e-24 -1.582203e-24 -1.8068291e-24 -2.0786055e-24
-2.4181427e-24 -2.795786e-24 -3.1752296e-24 -3.5960067e-24 -4.051867e-24 -4.5798274e-24 -5.0555867e-24 -5.6307704e-24
-6.1921104e-24 -6.655401e-24 -7.253641e-24 -7.833743e-24 -8.4636405e-24 -8.8867784e-24 -9.444773e-24 -9.909773e-24
-1.0347563e-23 -1.0745792e-23 -1.0992371e-23 -1.1415757e-23 -1.1467296e-23 -1.1630908e-23 -1.1675982e-23 -1.16128395e-23
-1.18296785e-23 -1.199978e-23 -1.2440961e-23 -1.339305e-23 -1.3939442e-23 -1.448555e-23 -1.5235479e-23 -1.583495e-23
-1.6474293e-23 -1.6572068e-23 -1.6709366e-23 -1.7059825e-23 -1.7493188e-23 -1.7594653e-23 -1.7704678e-23 -1.7721795e-23
-1.7680586e-23 -1.7575422e-23 -1.689214e-23 -1.6203656e-23 -1.5609994e-23 -1.4048461e-23 -1.3734824e-23 -1.3152552e-23
-1.2953049e-23 -1.2039388e-23 -1.19632216e-23 -1.2086026e-23 -1.1757692e-23 -1.1119933e-23 -1.1212312e-23 -1.1414575e-23
-1.1582115e-23 -1.0564505e-23 -1.0744192e-23 -1.0769691e-23 -0.0025409868 -0.0026327944 -0.002674638 -0.0027642853
-0.0028416368 -0.0029784262 -0.003058613 -0.0031196976 -0.0032365131 -0.0033223084 -0.0034106593 -0.0034952785
-0.0036148836 -0.0037737095 -0.003865082 -0.0038998781 -0.0039829738 -0.0040392997 -0.0040796464 -0.0040233475
-0.004050526 -0.00411709 -0.004077842 -0.004026236 -0.0040461174 -0.004056631 -0.004007032 -0.0039472287
-0.003951987 -0.0039592334 -0.0038691333 -0.0038173473 -0.0038125396 -0.0038205925 -0.0037624121 -0.0037501806
-0.0037179245 -0.0037063323 -0.0036311958 -0.0036236127 -0.0036044265 -0.003643491 -0.0035325282 -0.003465715
-0.003412937 -0.0033740518 -0.0032690999 -0.0031352253 -0.003090178 -0.00299028 -0.002875656 -0.0027096434
-0.002724856 -0.0026655747 -0.002567686 -0.0024840073 -0.0024832187 -0.0024193411 -0.0023514272 -0.0022096897
-0.0021714147 -0.0021024833 -0.0019820104 -0.0018248133 -0.0017178587 -0.0016464532 -0.0015440334 -0.0014132312
-0.0013161531 -0.0011270586 -0.0010241166 -0.00087785133 -0.00072760216 -0.00062540657 -0.0005010003 -0.00035332193
-0.00021914564 -9.341655e-05 8.998825e-05 0.00026720142 0.00047264245 0.00062090915 0.0007322094 0.00095151714
0.0010481935 0.0011718917 0.0013224757 0.0014465511 0.0015183139 0.0015256018 0.0015183879 0.0015267837
0.001560063 0.0016118056 0.0016077305 0.0016936847 0.0017441487 0.0017826629 0.0018485637 0.001938516
-0.0001660353 -0.00016481911 -0.00016486507 -0.00016390486 -0.00016266986 -0.00016126428 -0.00016100645 -0.00015967415
-0.00015809966 -0.00015661055 -0.00015624358 -0.00015481624 -0.00015321086 -0.00015170532 -0.00015132687 -0.00015002777
-0.00014854372 -0.00014709425 -0.00014681889 -0.00014610725 -0.00014452102 -0.00014351099 -0.00014373202 -0.00014349345
-0.00014235436 -0.00014184926 -0.00014242875 -0.00014252418 -0.00014174571 -0.0001415327 -0.00014238729 -0.00014241325
-0.00014165459 -0.00014143148 -0.00014234193 -0.00014270647 -0.00014214935 -0.0001420904 -0.00014307472 -0.00014350053
-0.00014332462 -0.00014396693 -0.00014587288 -0.00014745705 -0.00014814676 -0.00014958845 -0.00015213604 -0.0001542768
-0.00015585509 -0.00015696378 -0.000159613 -0.00016195764 -0.0001636005 -0.00016489874 -0.00016779442 -0.00017017903

encoder.0.bias f4 [100]
00000000: e31a 0200 30fd 223c aee2 0080 ce21 02bd
00000010: 6b57 1cb5 0f27 04be 7ea4 4cb8 a9b5 0600
00000020: df0e 2bbb 3f1f 92bb e906 51bc 3212 f1bc
00000030: c340 0780 1fb9 c7bb 6988 a640 1d65 acbc
00000040: 5f89 0600 dd87 2dbc 8535 38b3 dd22 0800
00000050: 61fb dfbc bae1 0080 2bfe e8bc 8f57 2abd
00000060: f4f7 d0bc 192b 58b3 2673 98bd bdc0 ad3e
00000070: e462 0700 f51a 0480 82c2 26b1 0f69 8abc
00000080: a055 4dc0 eb1e 0480 171f b7a2 150b 6b3f
00000090: 2e2e 959d 521a d7ba be0b 760f 6386 1fbd
000000a0: d7f8 0abf eb76 e2bc ed6d 42bc 8244 0280
000000b0: e8ef 88b2 2f11 0800 ed92 9ebb 385d 90bc
000000c0: 4c28 54b3 3e45 31b2 952a 0700 ace7 0480
000000d0: a54a 65ba 2c31 0500 9666 9a40 a7cf 0500
000000e0: 6539 80bf 080e 9340 77fc 01bb 928a 5340
000000f0: 339a 0480 369e 0380 dd41 0700 a804 5940
00000100: f8ec f1bf 78c5 abb9 f28d c9ba bdcf 30b9
00000110: 771a 719b 225c 893a 33c4 0680 b787 10bc
00000120: e222 0280 ff40 aebc 7c70 6e3e 2851 cdbc
00000130: 0a43 80b9 d4e1 0180 14ae 0500 35b5 c2bc
00000140: 95c6 13bd 56df 41bd 38d3 06b5 57f8 00bc
00000150: d163 1004 7321 0280 be00 0db8 f345 0000
00000160: 785f 84b9 9c12 83ad 8ca7 24bd 2239 32ae
00000170: 52e4 0300 fed2 0480 7c45 d9bb 4968 d7bb
00000180: 5e43 d5aa 079e 6abf 34cf 369a 4a31 0200
1.93316e-40 0.00994806 -8.1317e-41 -0.03177052 -5.824174e-07 -0.12905525 -4.8790585e-05 6.1618e-40
-0.0026101393 -0.004459291 -0.012757995 -0.029427622 -6.6608e-40 -0.006095066 5.2041516 -0.021044308
6.00292e-40 -0.010591474 -4.2889514e-08 7.4719e-40 -0.027341546 -8.0975e-41 -0.02844151 -0.04158741
-0.025508858 -5.0330616e-08 -0.07443838 0.3393611 6.78324e-40 -3.77012e-40 -2.4266744e-09 -0.016895799
-3.2083511 -3.78433e-40 -4.9635167e-18 0.91813785 -3.948772e-21 -0.0016411042 1.2130998e-29 -0.03894652
-0.5428595 -0.027644595 -0.011867029 -2.08247e-40 -1.594158e-08 7.40848e-40 -0.0048392923 -0.017622575
-4.9396746e-08 -1.03185e-08 6.58124e-40 -4.5045e-40 -0.00087467796 4.76817e-40 4.8250227 5.33669e-40
-1.0017515 4.595463 -0.0019834319 3.3053327 -4.22658e-40 -3.32262e-40 6.66476e-40 3.3909092
-1.8900442 -0.00032762787 -0.0015377386 -0.00016862057 -1.9943604e-22 0.0010479728 -6.21396e-40 -0.008821419
-1.96185e-40 -0.021271227 0.23285097 -0.025063112 -0.0002446401 -1.72847e-40 5.21625e-40 -0.023768047
-0.036078054 -0.04733213 -5.0226254e-07 -0.007871709 1.6972952e-36 -1.9567e-40 -3.361771e-05 2.5093e-41
-0.00025248132 -1.490124e-11 -0.040198848 -4.052326e-11 3.57412e-40 -4.43032e-40 -0.0066305976 -0.006573711
-3.7883146e-13 -0.9164738 -3.7804095e-23 2.01353e-40

encoder.2.weight f4 [10, 100]
00000000: fa15 8411 ee57 34bc 2b9f 7b3b 0162 693d
00000010: 11e3 143c ee90 e7bc fd58 1427 a570 4b3b
00000020: 9907 133c 42ad 0fbd 7745 62bc 709a a816
00000030: b9e0 91b5 1c56 f9bb a616 383e d393 563a
00000040: 7fc0 0500 e253 7abc c979 c6bc ddac 0000
00000050: e70f 0200 8f45 0e80 29c6 50bb 605c 05bc
00000060: b29d c839 8115 2dbd 20d0 06be 5f6d 823d
00000070: 688f 0c80 1a05 0780 62ba 0000 8dff 4e3c
00000080: 505e f4bb b4c1 3535 20fe fc3c e805 953c
00000090: 4619 d5bb e875 e73c 66ae 01bd 35a5 483c
000000a0: 2624 ecbc 1ec2 15bd 4095 1fbd 9f16 0b00
000000b0: 7127 5aba ad45 0500 1cc3 c43b 1312 e93b
000000c0: 89bb ca36 05ef 863b 55f9 cea1 f72e 5e38
000000d0: 630e 3ebc eb10 cf9d 4efa 9ebc 9cb8 1636
000000e0: 27c7 c23c 764f 23bf 018b a83c 46d7 ed3e
000000f0: a8c8 0900 40ed a337 3028 0f80 1417 bab9
00000100: cd24 8e3c 74f5 39bc 2345 73bc d8bf 32bb
00000110: 7f8f fa3c 90de 4e3d 7212 0600 af5d 8737
00000120: 0596 95b5 acd7 473c deac 2a3d 1c02 0000
00000130: 2aa2 0b80 6837 4ea6 eb00 0a00 9a97 0300
00000140: b8f9 b83a 84c2 81bc 957a 0080 2ccd 94bb
00000150: bf7e d2bb e64f 4b39 789a 0d80 f6e9 0e00
00000160: 3d88 bebb cc82 0000 09a7 9b39 4040 e8bc
00000170: 4416 433b 2f4c 04a2 6523 023d e03d 0ebd
00000180: 330e 0600 c0e0 fbbc d9fa 0980 ff44 0700
00000190: 01cb 2a1a de30 8bbc 5370 bf3b b15a febc
000001a0: 0f69 43bb 83e1 f23b 7a4c f7b5 5e1a 3bbc
000001b0: e999 c83c 5336 4bbc e61b be3b 459d 0680
000001c0: 10c4 c3b2 f13c 093c 39b8 02bf 49c2 b4bb
000001d0: fe7d 0a00 279a 8fbd 3359 cebc 2d9e 0780
000001e0: a455 0180 5f4a 0580 21dd 103d 067e 1cbd
000001f0: 63e2 2d38 a148 2bbd 3bd9 193c 35b5 d9bd
00000200: 8236 0480 1dbe 0280 8323 0000 90f1 2a3c
00000210: bc74 8b3d 2532 11b6 bf0b ff3c 7dc7 8fbd
00000220: 0b66 73bc 301b 1f3c 0cf9 01bd 8b28 b03c
00000230: e8a4 ccbc d989 bd3c 5caf ccbc ff21 0080
00000240: 524f babc 7f95 0880 4032 d13c 80dd 0bbc
00000250: bed3 e636 dd2f 193b 423d 78ad 4164 773a
00000260: 499e fa3b 1a02 cfb5 c24d 00bf d6b6 1bba
00000270: 7b4a 09bc 2117 ccbd ef0e 81bc 7bf3 a6bc
00000280: ff9e 0b80 015d a138 7d23 0d00 4e61 bbbb
00000290: bb4b 153d 8584 06bc ed90 a4bc b597 90bc
000002a0: 8408 e63c 4fc3 533c 21a6 0280 4bc2 9638
000002b0: ac35 9f36 6d13 9f3b aec0 bbbc 894e 0200
000002c0: 3076 0f80 ec38 0600 7820 0580 3780 9eab
000002d0: 99c4 13bd 666a adbb de75 0280 444b 34bb
000002e0: 3a9c ba2e a217 3936 47cf 0400 9a79 0b80
000002f0: 0457 c4bb 250c 0a80 229b 273c a09e 92bb
00000300: d14e edbb 9d62 d011 5198 fb3c e1b1 2abb
00000310: 6042 0800 e9d2 983d be3f 0200 7772 0800
00000320: 7a8d eb39 5fa6 96bb 906c 633c 6a32 703c
00000330: 3243 cdbb e8f1 66bb 2d44 d2ba 2448 c7bc
00000340: 7b9e 9bbb 2522 ae3c f396 fd3b 4c59 eabb
00000350: 9fe5 6fbc 3af9 e93c fec2 5dba 8ec9 24ba
00000360: 5f5e 0380 cf71 22bc c776 e4bc b08a 0b00
00000370: a2c1 12a0 a31a 0400 8096 173d 2d76 503c
00000380: d1ed dfbc 23ea e13c 860d 51ba 03e4 00ba
00000390: 254d 0080 fbe5 0b80 e17e 0a00 d4be 8bbc
000003a0: bb08 82be 2309 94bb 9666 013d ecd7 d43b
000003b0: 9c64 fd3c 259e 3e3b 5b18 023d 4b99 d33c
000003c0: 06b8 35ba 4d90 4bbb 6751 203c a7d4 0800
000003d0: deee 26bb 9715 0500 04e1 043c 66c2 84bc
000003e0: d7ec de3c 3dd0 e5bb 80aa eebb 19c3 83bc
000003f0: fd53 97bc 365f 4e3b 8264 18ba 2da9 1dbb
2.0839472e-28 -0.011007292 0.0038394432 0.05697823 0.00908734 -0.02826735 2.0587367e-15 0.0031042483
0.008973979 -0.03507734 -0.013810507 2.7239328e-25 -1.0868745e-06 -0.007609142 0.1797739 0.00081854797
5.28232e-40 -0.015278788 -0.024227994 6.2012e-41 1.89376e-40 -1.31065e-39 -0.0031856394 -0.0081397
0.00038264465 -0.042256836 -0.13165331 0.06368517 -1.15347e-39 -6.44679e-40 6.6862e-41 0.01263417
-0.007457532 6.770963e-07 0.030882895 0.018191293 -0.006503257 0.028254464 -0.03166046 0.01224642
-0.02882583 -0.036562078 -0.038960695 1.018305e-39 -0.0008321917 4.84172e-40 0.006004704 0.0071127503
6.041901e-06 0.004117849 -1.4025101e-18 5.2972664e-05 -0.01160011 -5.4809937e-21 -0.019406464 2.2459199e-06
0.023776604 -0.6379312 0.020574095 0.46453303 8.98501e-40 1.9541592e-05 -1.391949e-39 -0.0003549388
0.017351532 -0.0113500245 -0.014848026 -0.0027274992 0.030586002 0.05050522 5.5763e-40 1.6136879e-05
-1.1145027e-06 0.012197416 0.041668765 7.57e-43 -1.068364e-39 -7.1545697e-16 9.18684e-40 3.29891e-40
0.0014112508 -0.015839823 -4.3974e-41 -0.00454106 -0.0064238007 0.00019389353 -1.249274e-39 1.369626e-39
-0.0058145807 4.6921e-41 0.00029688355 -0.02835095 0.002976791 -1.7929667e-18 0.031772036 -0.034726977
5.56107e-40 -0.030746818 -9.16507e-40 6.676e-40 3.531916e-23 -0.016991075 0.0058422475 -0.031049104
-0.0029817258 0.007412137 -1.8425192e-06 -0.011419861 0.024487453 -0.012403089 0.0058016656 -6.0743e-40
-2.2790147e-08 0.008376346 -0.5106235 -0.0055163247 9.63552e-40 -0.07011824 -0.025189018 -6.99591e-40
-1.22558e-40 -4.85857e-40 0.035367135 -0.038206123 4.1457253e-05 -0.04181731 0.009390171 -0.106302656
-3.86896e-40 -2.51871e-40 1.2739e-41 0.01043357 0.06809375 -2.1635872e-06 0.03113353 -0.07020471
-0.014855872 0.009711072 -0.03173165 0.021503707 -0.024980977 0.02313702 -0.024985962 -1.2196e-41
-0.022742901 -7.88313e-40 0.025536656 -0.008536696 6.879184e-06 0.0023374476 -1.411077e-11 0.0009437241
0.0076482636 -1.5423313e-06 -0.5011865 -0.00059400254 -0.008379574 -0.09965349 -0.015754191 -0.020379772
-1.067228e-39 7.6944016e-05 1.206592e-39 -0.0057183867 0.036449175 -0.008210306 -0.020088637 -0.017650465
0.028080232 0.012924983 -2.43267e-40 7.188747e-05 4.7448175e-06 0.0048546107 -0.022919025 2.11844e-40
-1.41993e-39 5.71433e-40 -4.70825e-40 -1.1262162e-12 -0.036076162 -0.0052922247 -2.25954e-40 -0.0027510682
8.486052e-11 2.7580904e-06 4.41699e-40 -1.053813e-39 -0.0059918184 -9.22712e-40 0.010229858 -0.004474476
-0.0072420617 3.2877389e-28 0.030712279 -0.0026045965 7.58495e-40 0.07462103 2.06537e-40 7.75746e-40
0.000449281 -0.0045974697 0.013880864 0.014660457 -0.006264114 -0.0035239402 -0.0016042046 -0.024326392
-0.004749117 0.021256516 0.007738942 -0.0071517583 -0.014642148 0.028561223 -0.0008459537 -0.00062861375
-3.0936e-40 -0.009914829 -0.027888669 1.059942e-39 -1.2430749e-19 3.76897e-40 0.037008762 0.012723488
-0.02733508 0.027577465 -0.00079747324 -0.0004916789 -2.7674e-41 -1.092692e-39 9.6387e-40 -0.017058767
-0.25397286 -0.0045176907 0.031591974 0.0064954665 0.030931763 0.002908596 0.03176151 0.025829932
-0.00069320237 -0.0031061352 0.009785033 8.10969e-40 -0.0025471966 4.66922e-40 0.0081102885 -0.016205978
0.027212543 -0.0070133493 -0.007283509 -0.01608424 -0.018472666 0.0031489856 -0.00058133167 -0.0024057135

encoder.2.bias f4 [10]
00000000: 3bf0 d13e 7aa0 a140 26b4 db3f 9dfc 00c0
00000010: a055 7ebf 8b7e d53e 4fe0 64be 0a6a 48bd
00000020: 0804 7c3f 0d46 d2bd
0.41003594 5.0508394 1.7164352 -2.0154183 -0.99349403 0.41698107 -0.22351192 -0.04892925
0.9844365 -0.102672674

decoder.0.weight f4 [100, 10]
00000000: dea5 cd3d 4bc6 1f3f 8582 5d3f b4e4 f53e
00000010: a991 ffbd 4bf9 aabe b36d edbd ee38 20be
00000020: 851b 083f 12bf 3e3e 48e8 6cbd 9977 80bd
00000030: c5a1 203b 3339 d33e 345c 583d 553f debd
00000040: 6496 c13c f931 09bc 6708 f1ba 3441 9e3b
00000050: a7c1 05bf c6f5 fcbe 71f0 5b3f c589 783e
00000060: 0753 c7be 8a03 953f 1039 8cbf 2dd0 3b3e
00000070: 1a44 8f3e 3a4f 85be 5786 c43c 2ce5 26bd
00000080: 90b5 163d 7e06 1ebc a835 2b3d c341 063b
00000090: 3f96 353d f91a d93c bb5b 1ebc 5fa7 a1bb
000000a0: b8fb 9f3d d372 ad3f 5d2d c53e 4df5 623f
000000b0: 09eb 47bf 4af6 8b3e b756 a4be 4672 5a3d
000000c0: bd41 833e a664 3ebe 8034 28bc 7c54 f8b9
000000d0: a5af 553d 63c0 95bb a65f 65bb de57 2a3d
000000e0: dc60 1dbd d510 093c b54e ad3c 840d 3cbc
000000f0: 388b 77bc 6226 d9bd 1837 3e3f 12d4 08bd
00000100: 35c2 2fbc 394e a7be 8d98 47bf e8f9 4b3e
00000110: 22a9 353e 2587 9cbe 1238 903e 2789 42be
00000120: c327 7e3b a577 d3bc 270f 963d 1fde e63d
00000130: bb2e 35bd 13ff 0e3b d5f1 713c 7cb4 73bb
00000140: 313c 133d 0403 f33e 1ea2 813e d5d3 e9bd
00000150: 213b 12bf 88fb bb3d 026e 7abe f084 40bd
00000160: 3de5 c13d b781 e63c 4bea b33e 02a4 6d3e
00000170: 2d7f 03bc 0b05 213d b95e d83d 2fe9 043c
00000180: a0b1 ed3c dbda 813c eb67 0e3c 8bfd b13b
00000190: 4c51 afbc af8f 1a3b 4443 82bb ee70 c33c
000001a0: c8f7 29bd 7ab9 5abb 1843 b43e ab97 733d
000001b0: df2e 8a3c 557e 5a3c 23e5 8b3c 27a2 66bb
000001c0: aa9b cabe b47a 3fbb 815b 4a3d 2850 693d
000001d0: 7658 c0bb 1933 05bd 5fb4 a13d d579 953d
000001e0: a1bf 13bd 4f9d 443c 40d1 b73d 9f08 863c
000001f0: 2e09 b5bd 395b 02be 40ea fabb 8dc3 153e
00000200: 8629 fe3e cf89 18be 2fc9 0080 0b1f 0880
00000210: 78a3 cc2b 8fda 0680 358f 0700 9025 0280
00000220: 069c 0580 61ab 0600 500b 0700 5377 0080
00000230: 9391 c43e 0f48 813e e5d9 cc3b 92d1 1f3d
00000240: d382 67be e893 283e ff57 2ebd 9dc5 06bc
00000250: 362d 4b3d 145f 88bc 1457 f83d 120e a83f
00000260: 1222 883f 6982 04c0 2929 62bf 2126 fb3f
00000270: 4b7c 9abe df93 0b3d a6bc 053f d523 6dbe
00000280: ffa0 d33c 30ed 48bb 16ca 4b3c 612c 07be
00000290: 9b69 25be 9e34 893c 4546 6e3e 2d8d 593d
000002a0: 3377 8d3c 2532 7f3c 15b6 40bd ee54 ae3e
000002b0: 092d 97bc a25a 43be 90ea 773e c417 61bd
000002c0: 80f9 793d f516 d7bc e64e b3bc 3cb7 e83c
000002d0: bb91 0880 bc82 0900 c3ff a82a 8619 0900
000002e0: d382 0680 6f30 0200 d638 0080 32d2 0300
000002f0: a920 0880 eb41 0300 5ff3 813c 8788 6bbc
00000300: 59f9 e93c 98a1 523c 831a 213d e87e 283d
00000310: 7637 abbd c19a ee3e 7ef7 91bd 24f2 893c
00000320: 6ca2 0200 9d53 2207 134b e338 078f 0400
00000330: 1dad 0200 8d24 9519 8cab 0380 e13d 0e80
00000340: ccf9 3428 8e37 4034 d728 033f 529f 0240
00000350: 1e77 363f 2837 993f 00a6 61bf ca92 a33f
00000360: 44ae 9bbe ba2b d03d 0723 d73e 7fca f8bd
00000370: fd89 713c 1c93 0f3c 9ac7 ab3d 1148 d83c
00000380: aa06 50bd 1f83 023c e221 0abc 8f76 813c
00000390: ff6c 763c 1817 73bc 3763 753e 84eb c53d
000003a0: ce6d 263f 96e2 84be e61e fabe a115 0f3f
000003b0: 0035 ecbd 1ce5 973c 8151 223e 6b53 6cbe
000003c0: d0ed c13f d88f 473f 5482 283f 6c71 5dbe
000003d0: 5d39 dcbe 875d 083f 7119 5fbf 298e 80bd
000003e0: 9078 fc3e 6b10 b7bd c707 c1bc adc8 853c
000003f0: 1e8e 50be e7f8 943b 24ed bdbd 6b69 f8bd
0.10041402 0.62411946 0.8652728 0.4802605 -0.12478954 -0.3339332 -0.11593189 -0.15646717
0.5316699 0.18627575 -0.05783871 -0.062728114 0.0024510485 0.41254577 0.052822307 -0.108519234
0.023631282 -0.008373731 -0.0018389345 0.00482955 -0.52248615 -0.4940626 0.8591376 0.24271305
-0.38930532 1.1641705 -1.0954914 0.18341132 0.27981645 -0.26037008 0.02398984 -0.0407459
0.036794245 -0.009645103 0.041799217 0.0020485974 0.04433274 0.02650212 -0.009665425 -0.0049332823
0.078116834 1.3550667 0.38511172 0.8865555 -0.7809301 0.2733634 -0.32097408 0.053331636
0.25636092 -0.18593082 -0.010266423 -0.00047365192 0.05216946 -0.0045700534 -0.0034999638 0.041587703
-0.03842245 0.0083658295 0.021155694 -0.011477832 -0.015108876 -0.10603024 0.74302816 -0.03340537
-0.010727455 -0.32676867 -0.7796715 0.1991955 0.177403 -0.30571857 0.28167778 -0.18997632
0.0038781024 -0.025813887 0.07327109 0.11272835 -0.04423402 0.0021819517 0.01476713 -0.0037186434
0.035946075 0.47463238 0.25318998 -0.11417357 -0.57121474 0.09178835 -0.24456027 -0.04700178
0.09467552 0.028138025 0.3513969 0.23207095 -0.008025927 0.03931145 0.10564942 0.008112236
0.029015362 0.015851429 0.008691768 0.005431836 -0.02140107 0.0023584177 -0.003975304 0.02385756
-0.04149607 -0.0033374713 0.35207438 0.059470814 0.016868053 0.013335784 0.017077034 -0.0035191865
-0.39571887 -0.0029217424 0.04940367 0.05696121 -0.0058699204 -0.032519434 0.07895731 0.07298628
-0.036071423 0.012000396 0.08975458 0.016361533 -0.088396415 -0.12730111 -0.0076573193 0.14625378
0.49641055 -0.1489632 -7.2171e-41 -7.4582e-40 1.4540444e-12 -6.29417e-40 6.94221e-40 -1.97146e-40
-5.15148e-40 6.12492e-40 6.46907e-40 -4.2805e-41 0.38392314 0.2525029 0.006251561 0.03901822
-0.22608499 0.16462672 -0.04256439 -0.008225826 0.049603663 -0.0166469 0.12125984 1.3129294
1.0635397 -2.0704596 -0.88344055 1.9621011 -0.30172953 0.034076568 0.5224098 -0.231582
0.025833605 -0.0030658953 0.012438318 -0.13200523 -0.16153567 0.016748723 0.23268993 0.05311315
0.017268753 0.01557592 -0.047048647 0.3404917 -0.018454092 -0.19077542 0.24210572 -0.054954305
0.061028957 -0.026256064 -0.021888208 0.028407685 -7.86962e-40 8.73418e-40 3.0020265e-13 8.35676e-40
-5.97944e-40 2.01046e-40 -2.0389e-41 3.5091e-40 -7.464e-40 2.99153e-40 0.015863119 -0.014375812
0.028561281 0.01285591 0.039331924 0.041136652 -0.08360188 0.46602443 -0.071272835 0.016839094
2.41937e-40 1.2212097e-34 0.00010838187 4.1865e-40 2.45772e-40 1.5421002e-23 -3.37046e-40 -1.307895e-39
1.0046173e-14 1.7901604e-07 0.5123419 2.0409741 0.7127551 1.1969957 -0.8814392 1.2779171
-0.30406392 0.1016459 0.4201891 -0.12147998 0.014742372 0.008763101 0.0838768 0.026401551
-0.050787605 0.007965832 -0.00843093 0.015803603 0.015040635 -0.014837049 0.23963629 0.09664062
0.650113 -0.2595412 -0.488517 0.5589238 -0.115335464 0.018541865 0.15851404 -0.23078696
1.51507 0.77953863 0.65823865 -0.21625298 -0.43012515 0.5326771 -0.87148196 -0.06277115
0.49310732 -0.08938678 -0.023563279 0.016331041 -0.20366713 0.004546273 -0.092737466 -0.12129482

decoder.0.bias f4 [100]
00000000: 1916 fdbf 7f23 65be 3e2e d2bf 36bb 1abd
00000010: b4bc 3ec0 97bb 60bd 0581 f3bf 0ad7 76bf
00000020: bfa7 f1bf 6f6b 1fc0 7fa7 91be 08d9 3cbe
00000030: 3bd5 b23e 1201 0380 7395 19c0 c0a2 e4bf
00000040: b759 6abd 93ab 5ac0 6f45 0100 3a58 753d
00000050: ff42 0500 d658 fcbe 1b6b 85bd edc8 1f3f
00000060: cb94 9dbf 2dfe 86be 2f06 74be d12f b8bf
00000070: 7aa7 4d3e 8697 0700 9b82 10bf e8bd 0cc0
00000080: f731 febd e077 11be dd01 a0be 3c9e c13e
00000090: 426c 69c0 2998 68bf ad0f 4bbe bad9 72bd
000000a0: 3a83 04c0 1c66 a6bc 94a4 adbd 18e2 08c0
000000b0: 16a5 dfbf 3545 cdbf ccdb 0380 19c5 32be
000000c0: e44e 803f 8cb6 b0c0 b9df 40be 8581 63c0
000000d0: b113 0f3f ba43 e6be 8423 7dbe cec5 01bf
000000e0: c843 5dc0 c32b 4eb0 faad bcbf 6ec6 0dc0
000000f0: 2cd8 b9bc a7f5 5eb0 14cc cf3c 9487 25bf
00000100: 1b83 0cc0 7c46 75bd 093e babf f506 c9bf
00000110: d2da 51bd 9c16 14bd 1ad8 cbc0 6c16 b290
00000120: afd6 febe 377a 8fc0 ddb3 38bd 8798 8fbf
00000130: 73ce 0780 a13a a3bf 89f7 05c0 3881 0ac0
00000140: 3305 51c0 40eb ab3e e1ea 68bd 9b03 f5c0
00000150: a954 8e3e c4ec 10c0 b6c8 31c0 0ac7 12bf
00000160: 5c0a bd3e c2c3 f9bd f859 89bd 9029 12be
00000170: 1d82 10c0 3038 5d3e f177 aabd 6e40 1fbd
00000180: 1e9a f4bd bc82 bfbf 8159 7ebd 43db 2ec1
-1.9772369 -0.22376822 -1.6420362 -0.037776195 -2.9802675 -0.0548664 -1.9023749 -0.96421874
-1.8879317 -2.4909322 -0.28448102 -0.18442166 0.34928307 -2.7589e-40 -2.3997467 -1.7862167
-0.057214465 -3.416722 1.16744e-40 0.059898593 4.83211e-40 -0.49286526 -0.06514569 0.62415963
-1.2311033 -0.26365796 -0.23830484 -1.4389592 0.20083418 6.97205e-40 -0.5644929 -2.199091
-0.12411874 -0.14205885 -0.31251422 0.37816036 -3.6472325 -0.9085718 -0.19830199 -0.05928967
-2.0705094 -0.020312361 -0.084786564 -2.1387997 -1.7472255 -1.6036745 -3.54355e-40 -0.17458
1.0024076 -5.5222836 -0.18835343 -3.5547802 0.5588942 -0.44973546 -0.2472058 -0.5069245
-3.457262 -7.500455e-10 -1.4740593 -2.2152362 -0.022686087 -8.111222e-10 0.025365867 -0.6466
-2.195502 -0.059881672 -1.4550182 -1.5705248 -0.051234074 -0.036154374 -6.3701296 -7.0243167e-29
-0.49773166 -4.483669 -0.045093406 -1.1218423 -7.16908e-40 -1.2752267 -2.0932333 -2.164137
-3.2659423 0.3357792 -0.056864623 -7.65669 0.27798966 -2.264451 -2.7778754 -0.5733496
0.36921966 -0.12195541 -0.06706613 -0.14273667 -2.2579415 0.21603465 -0.08323658 -0.038879804
-0.11943458 -1.4961772 -0.062097076 -10.928531

decoder.2.weight f4 [100, 100]
00000000: c72e 043e a917 503d 7c5c 373e 31f1 473b
00000010: 42a8 0abd 416c 60bc 8283 34be ad83 87bd
00000020: b17b e33d b57e 0d3d 1e7d 053e c5f1 f03e
00000030: 0b49 ccbe 9550 0880 4ed5 213c e011 79bd
00000040: 8979 e7bc 4d79 10be 5adb 0980 0242 83be
00000050: 9213 0600 fdf2 9ebb 10c5 453d 71ed 8c3d
00000060: 1fe9 4dbd 104b 3d3d 318c 163f fcd3 683d
00000070: 2d02 993e 30f7 0080 1be8 04be 010b 923d
00000080: f3b7 4ebd 5c40 98bd b37b 083d 2260 a5bc
00000090: ad5f 69bd 5466 bdbd 58e1 85be b1b7 3c3d
000000a0: 7373 b8bc 1fc5 bbbd bb26 cc3d 8783 573d
000000b0: d643 3dbc 30a1 883c feae 0680 b129 6cbd
000000c0: a101 bebc 1d33 1f3e 9f3b 81be 8b42 e23c
000000d0: da92 7e3d ec3d f13d 66ee 503d b83e 26bc
000000e0: cc10 b7bc 9145 4615 85fd 013d 823b 6abd
000000f0: 1bde a93e 08fe 2bb4 06dc 9ebe cffe 9bbd
00000100: 1741 9ebc 18c9 40bd 045d c03d 9c49 ad3c
00000110: bf04 ebbc 990c 563e 2793 cdbb 0805 2db5
00000120: b6b9 033d dc25 9bbb dbc4 dd3c 22e8 c03c
00000130: ec39 0280 94b7 c03d 4009 4fbd dba9 a43d
00000140: d41a 8a3d e678 e4bd 151f 4a3c 03c2 7abb
00000150: d4a4 1ebd 8a10 6e3d d3d9 1cbd 4e5a 8dbd
00000160: 28b7 29bd 1ed4 9e3c f0f0 0c3d d771 55be
00000170: d4f2 83bd 79d1 973d 0163 273c cad4 0c3b
00000180: 37f7 9e3c e4aa 9dbd 24d0 de3d da88 65bc
00000190: 5c98 993d 8129 053d e5f8 d63d dec5 9fbc
000001a0: 058c 25bd fbb9 85bc 08d2 22be f0ed 6abd
000001b0: 5926 383d e3da 813d d5ae e43d 5301 ee3e
000001c0: be53 c4be e63a 0980 4e70 0b3c ea1a 62bd
000001d0: 244c abbc 7c7a a4bd 0f5d 0600 a002 79be
000001e0: 1b5d 0980 6f26 eb3a bdcd 703d ad91 573d
000001f0: 9061 d33b c723 7e3d b00e 0f3f ee61 983d
00000200: 86d7 5b3e a199 0580 55ae a3bd a716 303d
00000210: c60d bdbc 5832 333b 7b61 9d3c 0cdc 9ebb
00000220: 1140 fdbd 7eac 73bd 61ed 49be ccdd 583d
00000230: dab1 08bd a4a1 c6bd 317b c13d 0118 573d
00000240: c988 b3bc 84a8 05ba 5394 0800 3b1e debc
00000250: da25 99bc 1c92 b23d 4621 16be 66e2 ad3c
00000260: 3cdc 263d 434c b73d 03b2 6f3d 7c7c 76bb
00000270: 43de eabc 06ad 3291 7d04 de3c f1dc e4bc
00000280: 253a a93e 8430 99b1 864a a1be 952a 2bbd
00000290: 744c 9fba 1f1d 14bd fae8 4a3d a143 fe3b
000002a0: 6b17 aebb 65d5 4c3e ee26 b6ba cdf7 d0b1
000002b0: 0c1d b23c fb28 70bc d1a5 6b3c 0cdc 3e3d
000002c0: 9509 0180 b0da 873d db4c a2bc 03e2 353d
000002d0: 8eb9 863d 693b cbbd 5b03 c73c 7028 81bc
000002e0: ac07 cebc 790c 113d d837 cbbd 65c8 3ebd
000002f0: c113 12bd 6795 e13c f0a1 b43c 9264 dbbd
00000300: 21df 59bd 3d5f 2a3d 7336 293b b316 1e3a
00000310: 8d54 c03c f2b3 8abc ea91 a63d 540a 3cbc
00000320: 332d d03c 7ee2 713b 3c80 683c aa64 e8bb
00000330: 272e 50bd b29e 403b 0036 eebd e639 dfbc
00000340: fc11 673d 3df3 8d3d e4c2 b73d 99ef eb3e
00000350: c725 bbbe 49fd 0580 f86a e33b 9c5a 58bd
00000360: 96e9 8fbc 99c4 80bc e9a7 0080 0b84 6bbe
00000370: 735d 0180 6d43 6bbc 97ac 503d 45a5 093d
00000380: 3690 173d f803 9d3d dd6e 073f e550 8f3d
00000390: 68ae 113e 85cd 0480 a6d8 6ebd e8b3 a93c
000003a0: 0b53 06bd c775 b33d 414c e93b 8d1e fa3a
000003b0: d19a e2bd 3268 c4bc 7eb6 0fbe 9483 513d
000003c0: 92b7 f9bc 081f d3bd 2e58 a03d 0441 503c
000003d0: e5a4 82bc d0d5 013b 1cf6 0e80 b1bd 4d3c
000003e0: ecdb a7bb 5cc1 5cbb 90a5 c3bd c7c6 e33c
000003f0: 1a17 253d 81e0 803d 458f 8d3c 8aa7 b0bc
0.12908469 0.050803814 0.17906374 0.0030508752 -0.03385187 -0.013697685 -0.17628291 -0.06616912
0.11107577 0.034544665 0.1303601 0.47059456 -0.39899477 -7.63591e-40 0.009877516 -0.060808063
-0.028256195 -0.14108773 -9.05208e-40 -0.25636297 5.58033e-40 -0.004850744 0.048283637 0.06881226
-0.05027115 0.046214163 0.58807665 0.05684279 0.29884472 -8.8674e-41 -0.12979166 0.07131005
-0.050468396 -0.074341506 0.033321094 -0.020187441 -0.05697601 -0.09248033 -0.26148486 0.04607362
-0.022515988 -0.09168457 0.09968325 0.05261567 -0.011551818 0.016678423 -6.13788e-40 -0.057656948
-0.023194136 0.15546842 -0.252408 0.02761962 0.062151767 0.11779389 0.051008604 -0.010146789
-0.022346877 4.004066e-26 0.031735916 -0.057185657 0.33177266 -1.6018032e-07 -0.3102724 -0.0761696
-0.019318147 -0.047066778 0.09392741 0.021153264 -0.028688787 0.20903243 -0.0062736454 -6.4454844e-07
0.03215953 -0.004734738 0.027071407 0.02354819 -2.0445e-40 0.09410015 -0.05054593 0.0804021
0.06743398 -0.11155872 0.012336512 -0.0038262613 -0.03873141 0.05812124 -0.03829367 -0.0690199
-0.041434437 0.019388255 0.034409463 -0.20844208 -0.064428 0.074130006 0.010216475 0.0021489137
0.01940499 -0.076986104 0.108795434 -0.014009679 0.07499763 0.032510284 0.104966916 -0.01950353
-0.040416736 -0.016324034 -0.15900433 -0.05735582 0.044958446 0.063405775 0.11166159 0.46485385
-0.3834514 -8.47648e-40 0.008510662 -0.05520145 -0.02091033 -0.080311745 5.84396e-40 -0.24317408
-8.5992e-40 0.0017940531 0.058789957 0.05262916 0.0064508393 0.06204584 0.55881786 0.074405536
0.21468934 -5.14289e-40 -0.079922356 0.042990353 -0.023077857 0.002734324 0.019211521 -0.004848009
-0.12365735 -0.059490673 -0.19719459 0.052945897 -0.033372737 -0.09698799 0.09447325 0.052513126
-0.02191581 -0.0005098658 7.87893e-40 -0.027114024 -0.018694807 0.087192744 -0.1466113 0.02122612
0.040737376 0.08950093 0.058519375 -0.003761082 -0.028670436 -1.4095041e-28 0.02710175 -0.027937384
0.33052173 -4.4584016e-09 -0.3150217 -0.041788656 -0.0012153522 -0.036160585 0.04953859 0.007759527
-0.0053128502 0.20003279 -0.00138971 -6.0817684e-09 0.021742366 -0.014658208 0.014382795 0.04659657
-9.5273e-41 0.06633508 -0.019812038 0.044404995 0.065783605 -0.09923441 0.024293592 -0.015766352
-0.025150143 0.035412285 -0.09922761 -0.04657783 -0.03566337 0.02753706 0.022049874 -0.10712542
-0.053191308 0.041594733 0.0025819808 0.0006030604 0.023477817 -0.016931508 0.081333 -0.011477072
0.025412178 0.0036908682 0.01419073 -0.007092078 -0.050825264 0.0029391465 -0.116313934 -0.027249288
0.056413636 0.0693116 0.08972719 0.46081236 -0.3655226 -5.50039e-40 0.006940242 -0.052820787
-0.017567437 -0.015718745 -6.0235e-41 -0.22999589 -1.25359e-40 -0.014359337 0.050945845 0.03360488
0.037002765 0.076667726 0.5290354 0.06997851 0.14226687 -4.41069e-40 -0.05831208 0.020715669
-0.03279404 0.087626986 0.007119686 0.0019082591 -0.11064685 -0.023975465 -0.14034459 0.051150873
-0.030483041 -0.10308653 0.07829319 0.012710813 -0.015947768 0.001981128 -1.373984e-39 0.012557433
-0.0051226523 -0.0033684587 -0.09553063 0.027804745 0.040305234 0.06292821 0.01728023 -0.021564264

decoder.2.bias f4 [100]
00000000: 5087 833f f350 813f 2b03 7f3f 3a98 7b3f
00000010: 0407 783f b4af 743f d848 713f dff2 6d3f
00000020: 74db 6a3f be10 683f 2b09 653f 7ec2 613f
00000030: 4623 5e3f c030 5b3f a04d 583f 5799 553f
00000040: 745d 523f 44b3 4f3f 2198 4c3f 7d50 4a3f
00000050: fb64 473f 53f2 443f f484 423f 609d 403f
00000060: 7a5b 3e3f a169 3c3f d2f4 393f 2f66 383f
00000070: ca5c 363f f5ac 343f f7b1 323f e5d4 313f
00000080: 2d87 303f b129 2f3f 90a6 2d3f 290d 2d3f
00000090: 8afd 2b3f 5c8a 2b3f a0ff 2a3f 7f2f 2a3f
000000a0: fd8a 293f f30e 293f fdd7 283f 1169 283f
000000b0: bbaf 273f 796b 273f bd89 273f 372e 273f
000000c0: dceb 263f 8ab3 263f dca2 263f e8ee 263f
000000d0: 7f57 263f 25a6 263f 8196 263f 9bb0 263f
000000e0: 74ef 263f af8c 273f 9d31 283f 7a2f 293f
000000f0: aaae 293f 931f 2b3f 5fda 2b3f 5991 2d3f
00000100: 32c5 2e3f 397b 303f 4539 323f 2b34 343f
00000110: 9805 363f d7af 373f a65d 3a3f af6f 3c3f
00000120: d4bd 3e3f b6fe 403f 0ad8 433f 2f95 463f
00000130: b938 493f ffc2 4b3f 10d7 4e3f d7fc 513f
00000140: bcbf 543f 691d 583f 14c4 5a3f c508 5e3f
00000150: 633d 603f e13f 633f 68be 653f 02d9 683f
00000160: ca13 6b3f e3f3 6d3f 349f 703f 4073 733f
00000170: 2fa0 753f 9b27 783f 9869 7a3f 9434 7d3f
00000180: ff75 7f3f 06ea 803f 30f9 813f 141d 833f
1.0275669 1.0102829 0.9961421 0.98279154 0.96885705 0.955806 0.94251776 0.92948717
0.9174111 0.90650547 0.89467114 0.88187397 0.86772573 0.8562126 0.84493446 0.83437103
0.8217385 0.8113291 0.7991963 0.79029065 0.7788846 0.7693226 0.7598412 0.75240135
0.7435833 0.73598677 0.7263919 0.7203092 0.71235335 0.7057641 0.698028 0.69465476
0.6895626 0.6842299 0.6783228 0.67598206 0.67183745 0.67007995 0.667963 0.66478723
0.66227704 0.66038436 0.6595457 0.6578532 0.6550252 0.65398365 0.65444547 0.65304893
0.6520364 0.65117705 0.65092254 0.6520829 0.6497726 0.65097266 0.650734 0.6511323
0.65209126 0.6544904 0.65700704 0.6608807 0.6628214 0.66845053 0.6713008 0.6779991
0.68269646 0.6893802 0.69618636 0.703921 0.71102285 0.71752685 0.72799146 0.73607916
0.74508405 0.7538866 0.76501524 0.77571386 0.78602177 0.79594415 0.8079691 0.8202643
0.83105063 0.84419876 0.8545544 0.8673213 0.8759367 0.88769346 0.8974366 0.9095613
0.9182707 0.92950267 0.93992925 0.9509773 0.95947546 0.96935433 0.97817373 0.9890835
0.9978942 1.0071418 1.0154171 1.0243249
