Detectors/Deep_Learning/AutoEncoders/models/Trained_RDA_Detect/ae_low_congestion_speed.pt (torch, 92215 bytes, 8 tensors)

encoder.0.weight f4 [100, 100]
000000 95 cb 9c bc db cc 9c bc 23 cf 9c bc 34 c6 9c bc
       -0.019140044 -0.019140651 -0.01914174 -0.01913748
000010 32 bd 9c bc f0 b8 9c bc e5 b9 9c bc fc bf 9c bc
       -0.019133184 -0.019131154 -0.01913161 -0.019134514
000020 b2 ca 9c bc 2a d9 9c bc 00 e8 9c bc 81 f8 9c bc
       -0.019139621 -0.01914652 -0.019153595 -0.019161465
000030 95 07 9d bc ae 18 9d bc 15 2b 9d bc 84 38 9d bc
       -0.019168654 -0.019176807 -0.019185582 -0.019191988
000040 d2 47 9d bc 2f 52 9d bc 60 5c 9d bc a1 77 9d bc
       -0.019199286 -0.019204227 -0.019209087 -0.019222083
000050 cb 88 9d bc e1 9b 9d bc e2 a5 9d bc 2a 9e 9d bc
       -0.019230267 -0.019239368 -0.019244138 -0.019240458
000060 ba 95 9d bc 47 80 9d bc 17 73 9d bc 2e 69 9d bc
       -0.019236434 -0.019226206 -0.019219918 -0.019215193
000070 fb 5b 9d bc 01 49 9d bc 89 21 9d bc 5d f4 9c bc
       -0.019208899 -0.01919985 -0.01918103 -0.01915949
000080 af c0 9c bc 49 87 9c bc ca 4c 9c bc eb 06 9c bc
       -0.019134847 -0.019107478 -0.019079585 -0.019046267
000090 2a c4 9b bc 0c 83 9b bc 59 48 9b bc b7 ea 9a bc
       -0.019014437 -0.018983386 -0.018955396 -0.018910749
0000a0 1c 9e 9a bc e1 5b 9a bc b4 22 9a bc 7d e0 99 bc
       -0.01887422 -0.01884264 -0.018815376 -0.018783802
0000b0 df a4 99 bc f0 42 99 bc cc cc 98 bc 1b 67 98 bc
       -0.018755374 -0.018708676 -0.018652342 -0.018603852
0000c0 7e 14 98 bc 80 cf 97 bc 8a 92 97 bc 5e 5d 97 bc
       -0.018564459 -0.01853156 -0.018502492 -0.018477138
0000d0 db 2a 97 bc c8 00 97 bc ba d9 96 bc ce c4 96 bc
       -0.018453052 -0.01843299 -0.018414367 -0.01840439
0000e0 64 aa 96 bc 9f 96 96 bc 75 82 96 bc 99 73 96 bc
       -0.018391795 -0.018382369 -0.018372754 -0.018365668
0000f0 4b 66 96 bc 1a 5a 96 bc 32 4e 96 bc 69 45 96 bc
       -0.018359324 -0.01835351 -0.018347833 -0.018343644
000100 ae 38 96 bc 3f 2b 96 bc f0 1b 96 bc ed 13 96 bc
       -0.018337574 -0.018331168 -0.018323869 -0.018320048
000110 2e 0c 96 bc 54 ef 95 bc 06 c9 95 bc 2b 9f 95 bc
       -0.018316355 -0.018302597 -0.018284332 -0.018264374
000120 d8 6d 95 bc 60 36 95 bc f4 05 95 bc 0e cd 94 bc
       -0.018240854 -0.018214405 -0.018191315 -0.018164184
000130 e7 97 94 bc 16 61 94 bc f3 2d 94 bc d4 f6 93 bc
       -0.018138839 -0.0181127 -0.018088317 -0.018062033
000140 c6 d8 93 bc 83 c0 93 bc 2e a7 93 bc 58 9d 93 bc
       -0.018047702 -0.018036133 -0.018024053 -0.018019363
000150 43 9c 93 bc 9e a3 93 bc 5c bd 93 bc 11 d5 93 bc
       -0.018018847 -0.018022355 -0.01803463 -0.018045934
000160 c5 0b 94 bc 3b 48 94 bc 66 7b 94 bc 19 b0 94 bc
       -0.018072018 -0.018100848 -0.018125247 -0.018150376
000170 cd e5 94 bc 9d 1d 95 bc a5 65 95 bc 24 ac 95 bc
       -0.018175984 -0.018202597 -0.018236944 -0.01827056
000180 5d e9 95 bc 3a 29 96 bc 4c 65 96 bc aa a9 96 bc
       -0.018299753 -0.018330205 -0.018358849 -0.018391449
000190 34 ba d3 3d 55 7b c3 3d f2 71 2b 3e 51 66 d1 3d
       0.1033825 0.09545008 0.16742685 0.102245934
0001a0 b1 e4 cb 3d 01 8c 1e 3e 25 56 c7 3d 28 95 3d 3e
       0.09955729 0.15483095 0.09733228 0.1851393
0001b0 f1 44 81 3d 93 ac 0b 3e 62 48 11 3e ae 13 24 3e
       0.06311978 0.1364005 0.14187768 0.16023132
0001c0 69 6b 26 3e 47 52 0b 3e 8a e9 a9 3d 03 2f db 3d
       0.16251911 0.13605605 0.08296497 0.10702326
0001d0 93 56 40 3e 23 29 f3 3d d3 d9 1b 3e 98 5b 26 3e
       0.18783025 0.118730806 0.15219812 0.16245878
0001e0 be 9f 0b 3e 44 69 17 3e 57 2f 81 3d e5 33 27 3e
       0.13635156 0.1478625 0.063078575 0.1632839
0001f0 21 04 0d 3e 4a a7 1b 3e 91 db dc 3d 55 4f 26 3e
       0.13771106 0.15200534 0.107840665 0.162412
000200 94 21 42 3d 4f d6 51 3e 97 16 bd 3d 17 7a 09 3e
       0.047395304 0.20491908 0.09232824 0.1342548
000210 b8 6f 29 3e 4f a2 11 3e 8d fc d0 3d b8 7c 9f 3d
       0.16546524 0.14222072 0.1020442 0.0778746
000220 ad 30 50 3e 04 08 d0 3d b6 e3 03 3e f1 a5 1e 3e
       0.20331068 0.10157779 0.12879834 0.15492989
000230 aa b9 d0 3d ba 74 36 3e 73 3e 7e 3d 7c b7 18 3e
       0.101916626 0.17817965 0.062071275 0.14913744
000240 00 d8 1c 3e 3c 21 b6 3d 9a 30 08 3e 6f ee 08 3e
       0.15316772 0.08893058 0.1329979 0.13372205
000250 41 39 19 3e 00 89 d1 3d c7 cb 0d 3e a9 da 61 3d
       0.14963247 0.10231209 0.13847266 0.05514017
000260 27 4f 19 3e 1f ec 0b 3e ed 80 20 3e 01 fe e5 3d
       0.149716 0.13664292 0.15674181 0.11230088
000270 5a d9 90 3d 3d 85 43 3e 10 d5 d1 3d 4d d2 b7 3d
       0.070727065 0.19093795 0.102457166 0.089756586
000280 b5 c4 3e 3e 66 dc 63 3d 6d 01 0d 3e 3c 7c 3c 3e
       0.18629725 0.05563011 0.13770075 0.18406767
000290 35 fa 1a 3d 18 4b 17 3e 0f e9 0e 3e f3 99 aa 3d
       0.037836272 0.1477474 0.13956092 0.08330145
0002a0 bf ef d3 3d 77 82 bc 3d 46 ac 2b 3e f4 9d e6 3d
       0.10348462 0.09204572 0.16764936 0.11260596
0002b0 69 d7 b2 3d 15 97 0d 3e e1 fb 9b 3d 2d 92 d0 3d
       0.087324925 0.13827164 0.076164015 0.10184131
0002c0 18 33 01 3e 55 9f 3b 3e 15 02 78 3d 9b e7 d4 3d
       0.12617147 0.18322499 0.06054886 0.10395738
0002d0 69 34 1b 3e 7d 49 f5 3d 16 ca 8f 3d ff 03 31 3e
       0.15156712 0.119769074 0.07020967 0.1728668
0002e0 a6 12 de 3d 7c ea e0 3d 81 4b 23 3e 1c c9 07 3e
       0.10843401 0.10982224 0.15946771 0.13260311
0002f0 b3 f2 90 3d 1a 66 22 3e 6f 39 f1 3d e9 d4 0d 3e
       0.07077541 0.15859261 0.11778533 0.1385075
000300 93 2a 9a 3d fd 43 21 3e 03 6f 27 3e 8f 82 19 3d
       0.07527652 0.15748592 0.16350941 0.037478026
000310 c7 f2 25 3e 37 13 11 3e 6c 56 f4 3d c9 62 cb 3d
       0.16205893 0.14167486 0.11930546 0.09930951
000320 e0 89 3f a8 e9 b3 3e a8 e2 3a 3f a8 bb 95 40 a8
       -1.0632527e-14 -1.05861305e-14 -1.0615398e-14 -1.0690609e-14
000330 7c ea 3f a8 4c 16 3f a8 fd 57 3d a8 de 09 3d a8
       -1.0653476e-14 -1.0607465e-14 -1.0510687e-14 -1.0493747e-14
000340 18 df 3c a8 19 7b 39 a8 f2 52 33 a8 f1 42 2f a8
       -1.0484472e-14 -1.02962555e-14 -9.954482e-15 -9.728967e-15
000350 6b 52 29 a8 d3 59 26 a8 d1 27 24 a8 95 e4 20 a8
       -9.399256e-15 -9.234329e-15 -9.112463e-15 -8.93135e-15
000360 be 9d 1c a8 4f 0a 1a a8 da 57 17 a8 1c 4f 16 a8
       -8.6939445e-15 -8.550953e-15 -8.401234e-15 -8.343827e-15
000370 75 dc 13 a8 7f 32 0e a8 42 f3 08 a8 b6 0f 05 a8
       -8.207943e-15 -7.893533e-15 -7.602265e-15 -7.38639e-15
000380 03 10 fd a7 2c 5c f3 a7 2e b6 ec a7 11 a2 e7 a7
       -7.0238966e-15 -6.754598e-15 -6.570068e-15 -6.4291092e-15
000390 dc 49 e7 a7 83 a4 e7 a7 82 01 e7 a7 f0 0b e2 a7
       -6.419546e-15 -6.4293744e-15 -6.4117014e-15 -6.2740544e-15
0003a0 0c a1 dd a7 cb 57 da a7 71 6a da a7 93 7d d7 a7
       -6.151443e-15 -6.060234e-15 -6.062256e-15 -5.9810635e-15
0003b0 52 12 d4 a7 2b b4 cd a7 77 8f c5 a7 63 bc c1 a7
       -5.8861683e-15 -5.709427e-15 -5.483403e-15 -5.377251e-15
0003c0 57 44 be a7 e0 38 bf a7 dd 16 c0 a7 c9 30 bd a7
       -5.2809688e-15 -5.3074813e-15 -5.3315494e-15 -5.251093e-15
0003d0 3d 45 ba a7 5e e9 b8 a7 ec cf b8 a7 19 4c b9 a7
       -5.170044e-15 -5.1323276e-15 -5.129569e-15 -5.143032e-15
0003e0 89 e3 b9 a7 d4 63 ba a7 aa f8 b5 a7 41 d1 b5 a7
       -5.159451e-15 -5.1733605e-15 -5.0507194e-15 -5.0464465e-15
0003f0 c1 de b4 a7 e3 2d b6 a7 ef e1 b4 a7 8c 88 b6 a7
       -5.0201546e-15 -5.05649e-15 -5.0204994e-15 -5.066319e-15

encoder.0.bias f4 [100]
000000 c9 9a de b8 cc b8 c3 bf e6 01 08 00 16 60 e6 bb
       -0.00010614616 -1.529077 7.35365e-40 -0.0070304973
000010 73 4d 08 00 3e 33 53 bb f2 3d 1e a0 8d d3 e4 b5
       7.62468e-40 -0.0032226588 -1.3403617e-19 -1.7048893e-06
000020 0a 4a 9b 9f 6d 64 07 00 92 a9 54 ba b9 63 03 80
       -6.576754e-20 6.78874e-40 -0.0008112426 -3.1128e-40
000030 29 90 01 80 20 8b b3 bb 1e 9d 02 00 2c db 1d bd
       -1.4355e-40 -0.0054792315 2.40034e-40 -0.038539097
000040 68 f4 51 bc 68 f6 d6 bb 4e e3 0a b9 b0 81 8e bc
       -0.012814619 -0.0065601356 -0.00013245383 -0.017395824
000050 6e 22 1c b9 a7 a2 06 80 91 e7 03 00 3b 09 94 bb
       -0.00014890145 -6.09362e-40 3.58577e-40 -0.004517702
000060 53 b6 20 bc ec c1 0d b1 1c f7 09 bd ff a3 a4 bd
       -0.0098090945 -2.0628432e-09 -0.033682927 -0.08039092
000070 5a da 29 a7 34 25 16 3f 52 97 32 bc 9c 5d 2c bb
       -2.357183e-15 0.5865052 -0.010900335 -0.0026300913
000080 bf f9 07 80 a1 ad 55 3f 4b af 32 bc 52 63 c6 bc
       -7.3244e-40 0.8346806 -0.010906051 -0.024217281
000090 79 24 09 80 d2 07 c7 bc 56 be ce bc 39 ed 01 00
       -8.39603e-40 -0.024295721 -0.025237244 1.76935e-40
0000a0 87 c3 06 3e 62 c7 28 be 25 d7 1d b9 a3 79 c2 bc
       0.13160525 -0.16482309 -0.00015052834 -0.023739642
0000b0 64 38 56 3d fb dd 03 00 0a 39 50 be 7b 90 ae be
       0.052299872 3.55138e-40 -0.20334259 -0.34094605
0000c0 a8 23 13 bb 94 36 05 b4 17 1b e1 bc 8f 00 d8 b1
       -0.0022451673 -1.2406446e-07 -0.027478738 -6.286491e-09
0000d0 01 51 0d 80 b9 20 dd bb 52 ab ab b7 b8 30 55 bb
       -1.22292e-39 -0.0067482856 -2.0464566e-05 -0.003253026
0000e0 5d b0 a6 b9 c5 67 e9 bc 96 ac 01 bd 53 08 f8 bc
       -0.00031793388 -0.028491864 -0.03165873 -0.030277407
0000f0 83 75 fa bc 49 58 06 00 29 0a 01 b7 f3 75 36 bc
       -0.030573612 5.82684e-40 -7.691365e-06 -0.01113652
000100 c2 e6 9c bb ea 70 77 bc 4b 7d 72 aa 4b cd 01 00
       -0.0047882507 -0.015102604 -2.1537387e-13 1.65481e-40
000110 20 9c 78 bc 3a d8 33 8b 3e 7d dd 3e 3b 90 07 00
       -0.015173942 -3.4636817e-32 0.43259615 6.94589e-40
000120 80 97 e7 bb 41 9c cc bc d7 21 01 bb 8c e6 06 80
       -0.0070676208 -0.024976851 -0.0019704008 -6.33718e-40
000130 10 26 00 bd 5f ab 62 bc 52 a8 02 00 2d df a7 bc
       -0.0312863 -0.013834803 2.44053e-40 -0.02049216
000140 be ce 58 3d de ea 00 00 02 74 a4 bc 18 0d 8e bc
       0.05293154 8.4254e-41 -0.020074848 -0.017340228
000150 12 63 b4 3e d8 77 07 80 46 36 06 00 33 f2 1b b8
       0.35231835 -6.8584e-40 5.70483e-40 -3.7180445e-05
000160 88 0f 01 00 d0 51 06 80 1e 5d 01 00 66 67 7e bb
       9.7407e-41 -5.80362e-40 1.2524e-40 -0.0038818954
000170 86 09 05 00 29 4c de bc d9 8c 34 be 70 6a 00 bc
       4.62594e-40 -0.027135925 -0.17631854 -0.007837877
000180 d8 98 b9 bb a0 5a e9 bc 27 1f 9d bc 4f 3e 01 80
       -0.0056639723 -0.028485596 -0.019179894 -1.14188e-40

encoder.2.weight f4 [10, 100]
000000 5a 8d 52 bb 37 43 56 be af 64 1a bb cf dc e2 3c
       -0.003212771 -0.20924078 -0.0023558547 0.02769318
000010 77 10 85 bb 48 1c f5 3c 65 59 6f bc e9 9b 2b bc
       -0.0040608007 0.029920712 -0.014608716 -0.010474184
000020 4a a0 a5 b9 79 eb ef 3b d4 2b aa 2b 61 ec 01 3d
       -0.00031590677 0.0073217717 1.2091391e-12 0.03171957
000030 5b 25 02 00 e5 ff 4b 85 a3 53 01 00 0b 28 85 bb
       1.97072e-40 -9.5920145e-36 1.21839e-40 -0.0040636114
000040 8e 4b 96 bc 98 85 01 bd e0 76 9c ba 99 bf 02 3c
       -0.018346574 -0.031621546 -0.0011937283 0.007980251
000050 f6 bd ca 3c 50 98 17 bb a2 df 0a 00 b4 8a aa 3c
       0.024748784 -0.0023131557 9.98579e-40 0.020818092
000060 42 8a b8 3a ab 3e 95 bc 40 1e 08 3c 3f d2 00 ba
       0.001407929 -0.018218359 0.008307993 -0.00049141416
000070 00 5f 06 00 39 50 06 bb 0b 2d ea bc 9f 48 55 b5
       5.85093e-40 -0.0020494594 -0.028585931 -7.945436e-07
000080 58 0a 87 bb 8d cc 0c ba 74 52 04 80 e0 3b 90 3b
       -0.004121106 -0.00053710566 -3.9692e-40 0.004401669
000090 7e dd 9f 3c e3 20 1e bd 60 6e 39 29 02 cc 01 bd
       0.019514795 -0.038605582 4.1173987e-14 -0.031688698
0000a0 fb 1a e3 ba 63 63 37 ba 38 13 cb bb f9 9d 0d 3d
       -0.0017326766 -0.0006995706 -0.0061973594 0.034574483
0000b0 f1 cf c1 bb d7 04 5a bb ab 47 54 ba 03 1f 50 b9
       -0.005914681 -0.0033267045 -0.00080978376 -0.00019847979
0000c0 3b c4 13 ba f4 b2 01 3d df 7b 12 ba cf d5 cd bc
       -0.00056368456 0.031664804 -0.0005587916 -0.025126366
0000d0 cf 9f 73 37 f7 20 dd bc 71 61 db bc c4 df d2 3c
       1.4521137e-05 -0.026993258 -0.026779862 0.025741465
0000e0 3d 78 7d 3c 7d 5d fa 3c 95 2f 7c 3b 3e 66 c1 3c
       0.015470562 0.030562157 0.003848051 0.023608323
0000f0 14 06 02 bd cb eb a3 b9 74 5f 12 99 21 73 8b bc
       -0.031744078 -0.00031265462 -7.5673e-24 -0.017022671
000100 63 04 dd 3c 4a 31 86 bb a5 c7 b9 3c 66 81 12 bd
       0.02697963 -0.004095231 0.022678206 -0.035767935
000110 51 15 d4 b9 15 8d ca 3a dd fb ed 39 49 a2 85 bc
       -0.00040451673 0.0015453423 0.00045391815 -0.016312735
000120 be d5 8f 3c 17 e5 23 3c 50 dd ae 39 5f 46 2f 3b
       0.017557975 0.01000335 0.00033352757 0.0026744825
000130 8a 6a b7 3c 1c c0 26 bb a1 cd f1 3c 8c 0f 00 3b
       0.022389669 -0.0025444096 0.029516997 0.0019540517
000140 eb 57 b2 b9 55 0b 02 bd b5 06 38 b9 a4 19 de 3c
       -0.0003401631 -0.03174909 -0.00017550106 0.027111836
000150 73 9f 0c bb 78 83 00 80 40 98 02 ba 53 a9 70 bc
       -0.0021457344 -4.7162e-41 -0.00049817935 -0.014688808
000160 f8 83 f9 bc c9 7e 10 00 08 65 0e 00 c1 b8 1e b6
       -0.030458435 1.51485e-39 1.32194e-39 -2.3651376e-06
000170 a5 6e b0 3a e7 f7 1d 3b a6 cf 49 ba cc 71 08 3c
       0.0013460709 0.002410406 -0.00076984835 0.008327913
000180 09 0d 78 3c 31 54 06 80 7b a7 04 80 eb ea 62 bb
       0.015139827 -5.81215e-40 -4.27423e-40 -0.0034624885
000190 f9 07 e0 bc b5 1e 0b 3c a3 9e d2 b2 c4 d7 3c bc
       -0.027347552 0.008491208 -2.4519357e-08 -0.011526052
0001a0 31 f8 45 83 a0 f6 d2 bc c2 ef 3c 31 0b 3c a1 bb
       -5.8178007e-37 -0.025752366 2.7493887e-09 -0.0049204878
0001b0 b1 13 f1 37 c1 87 02 2f 10 5b 0d 80 1c c2 f2 bc
       2.8738608e-05 1.187166e-10 -1.226529e-39 -0.029633574
0001c0 88 02 0a 00 6a 66 08 00 64 38 07 00 5f 56 f7 3b
       9.19263e-40 7.71423e-40 6.63078e-40 0.007548138
0001d0 83 db 4d bd de d2 01 bd 69 bc 97 3c 43 51 07 3d
       -0.05025817 -0.03169524 0.018522458 0.03303648
0001e0 7f 7b dc bc 60 b4 d8 34 8f c8 13 00 04 ec 87 bc
       -0.026914356 4.0364375e-07 1.816821e-39 -0.016592033
0001f0 22 b8 06 bc 3d 34 00 38 ec b7 f6 3b 72 04 8b be
       -0.008222612 3.056623e-05 0.0075292494 -0.2715183
000200 b6 38 11 00 cc e4 7a bd da d8 df 3c ec 9c 04 00
       1.581547e-39 -0.061253354 0.027325083 4.23635e-40
000210 fb 92 06 80 8e 46 c3 3e 4a 4c 09 00 61 7a de 3c
       -6.0374e-40 0.38139766 8.53887e-40 0.027157964
000220 07 5d 45 3c 4c f9 2f 3d f2 84 0a 00 61 6e d4 bc
       0.012046105 0.042962357 9.66047e-40 -0.025931539
000230 dd c2 8e bd 9e 02 77 be 56 f4 39 bc 14 64 1e 3d
       -0.06970761 -0.24122092 -0.011349758 0.03866966
000240 09 be 19 bc b2 68 02 80 6a f0 a1 3d ed 7a e6 bc
       -0.009383687 -2.21229e-40 0.079071835 -0.028134787
000250 38 40 7f bc 52 c3 00 bb 61 6e a8 3d 4e 9c 8b 3c
       -0.015579276 -0.001964767 0.08224178 0.017042305
000260 3a 09 00 00 54 fd e6 bc 4c ef f1 3c 05 31 0c 3d
       3.31e-42 -0.028196968 0.029533051 0.034226436
000270 53 55 e1 bc 5a 3e a4 3c 73 39 00 00 cc 1b 1c b9
       -0.027506506 0.020049263 2.0609e-41 -0.00014887674
000280 a1 ff fd 3c 49 4b 09 00 50 87 b2 95 7f 90 05 3b
       0.031005682 8.53527e-40 -7.210711e-26 0.0020380316
000290 78 44 2e bd c0 72 35 bc bd 83 2a 2f d6 e4 d5 37
       -0.042545766 -0.011074722 1.5508213e-10 2.5498139e-05
0002a0 b1 58 9e 3b 4c 98 87 ba 53 42 96 bc ec e7 3a 35
       0.00483235 -0.0010345071 -0.018342173 6.962789e-07
0002b0 08 66 3b 3d b6 85 bd 3b a2 f0 09 ba 7f 34 9b b7
       0.0457516 0.005783762 -0.00052619923 -1.8501885e-05
0002c0 bb 6d c8 3c 2b 04 9d af c0 d0 84 bc 15 e3 30 3a
       0.024466386 -2.8561095e-10 -0.016212821 0.0006747705
0002d0 89 f2 b8 bd 71 7c eb bc 5f cf f9 3c dd a5 f6 bc
       -0.09030635 -0.028745862 0.03049439 -0.030108387
0002e0 9a 67 66 3d 80 2e 0b 80 b2 95 e3 a3 5b 1b df 3c
       0.056251146 -1.026872e-39 -2.4674788e-17 0.027234724
0002f0 64 45 77 3c f2 5a 06 80 0d c1 13 80 d9 d5 00 00
       0.015092228 -5.83638e-40 -1.814128e-39 7.6714e-41
000300 be 65 00 00 cf 9a 2d 3c 52 2d 6b 3d ce 9c 07 bd
       3.6498e-41 0.010595991 0.057416268 -0.033108525
000310 4f 17 ff 3a e6 5e 02 00 c7 e1 10 00 c3 f0 4b 88
       0.0019461903 2.17714e-40 1.550362e-39 -6.1371104e-34
000320 16 1b 0a 3d a1 a1 aa bc 93 d7 81 b5 49 fb e5 3b
       0.033717237 -0.020829024 -9.673989e-07 0.007018481
000330 99 fc 06 80 8d f2 0e bd 65 49 e7 b2 34 71 1a bc
       -6.41628e-40 -0.034899283 -2.6925315e-08 -0.009426404
000340 f4 41 92 3a d0 60 96 34 1c ea 03 00 d2 28 01 bd
       0.0011158572 2.8010118e-07 3.59489e-40 -0.03153307
000350 12 49 0b 80 9b 28 09 00 8e 4d 03 00 93 91 dd 39
       -1.036403e-39 8.41086e-40 3.03328e-40 0.00042260866
000360 42 f9 51 bd 5f c7 01 3d db 8b e4 bc 49 98 2d bd
       -0.0512631 0.031684276 -0.02789872 -0.04238156
000370 1f 2b cc bc c6 b6 a1 b5 01 c7 0f 00 22 a6 44 3c
       -0.024922905 -1.2048629e-06 1.448922e-39 0.0120025
000380 10 9e 3b bd 53 a4 51 b9 ca cc 0f 3d 7f 9b e2 3e
       -0.045805037 -0.00019993009 0.03510741 0.4425926
000390 dc a8 11 80 fd ac 5a be c5 c2 0c bd da ba 05 00
       -1.621779e-39 -0.21355052 -0.034365434 5.26207e-40
0003a0 9d 45 8e 2c 42 09 1c 3e 43 fc 0b 00 b7 c4 cb bc
       4.0436114e-12 0.15237907 1.100685e-39 -0.024874074
0003b0 95 f8 c3 3a 2a 14 4b 3d ce 0a 01 00 aa b7 ef bc
       0.0014951403 0.049579777 9.5711e-41 -0.029262383
0003c0 6d e6 a6 3c 62 d3 9d 3c 72 de 83 bc 1f c3 0d bd
       0.020373547 0.019265834 -0.016097281 -0.03460991
0003d0 6d 1a cc 3a ea e6 02 00 b1 9e c6 bc fb 25 ec bd
       0.001557184 2.66507e-40 -0.024245592 -0.11530682
0003e0 71 b9 c0 3b ce 31 4f bb f0 9e 35 bd 77 df cd 3a
       0.0058814813 -0.003161538 -0.044341028 0.0015706857
0003f0 43 56 07 80 13 91 0c 3d 23 f7 06 bd 28 9f 1a bd
       -6.73793e-40 0.03431804 -0.03295053 -0.03774944

encoder.2.bias f4 [10]
000000 d0 20 4c 3f 81 6c fe 3d f7 32 ec be d9 e7 5d 3d
       0.7973757 0.12423039 -0.46132633 0.054176185
000010 cd ee 07 3f 97 a4 ed 3e 7e c0 ae be 6e f2 7f bd
       0.53098756 0.46414635 -0.34131235 -0.06248706
000020 76 11 c0 be 78 28 ba 3c
       -0.37513322 0.022724375

decoder.0.weight f4 [100, 10]
000000 a5 11 41 3e 05 49 4f ba 21 36 af 3e 28 f0 a2 3d
       0.18854387 -0.0007907304 0.34220985 0.079559624
000010 88 0e 10 3a bb 1b 18 3f 8a 73 5a 3e dd 05 c9 ba
       0.00054953294 0.59417313 0.21333137 -0.001533683
000020 ac 4d 42 3f 63 2c 8b bd f8 0e 94 3e 58 79 5f be
       0.7589977 -0.067955755 0.2891767 -0.21823633
000030 4e df d3 be e0 65 04 3c 72 c1 0c 3f 16 3f 50 be
       -0.41381305 0.0080809295 0.54982674 -0.20336565
000040 50 53 90 3f 5a 3e d4 bd cb cb 49 bf 66 a2 dc 3c
       1.1275425 -0.10363455 -0.7882659 0.026932906
000050 48 ee c5 3e 73 e2 12 be b6 27 b9 be e4 ba 11 3e
       0.38658357 -0.14344196 -0.3616311 0.1423145
000060 32 e6 3b be 2b 66 94 be f3 72 b6 3e c4 29 1c 3e
       -0.18349531 -0.28984198 0.35634574 0.15250307
000070 c6 29 be 3e 39 48 36 3e a0 5f 65 3d 15 4a cb 3e
       0.37141246 0.17800988 0.0559994 0.39704958
000080 9a 48 a0 3e f6 08 b0 3c b9 44 55 3d ce ac e4 3e
       0.3130539 0.021488648 0.052067492 0.4466309
000090 c6 58 20 3f e8 df 8e 3c 80 80 a7 3e 68 a1 76 3e
       0.6263546 0.017440751 0.32715225 0.24085009
0000a0 71 47 9c 3e 6f 69 25 3f 01 d4 92 bd 44 1c 59 3e
       0.30523255 0.64614004 -0.07169343 0.21202189
0000b0 8f 99 9c be 00 42 3a bf 4d 81 7d 3f 42 bb 17 bd
       -0.30585906 -0.7275696 0.9902542 -0.037043817
0000c0 a7 ee ab bf ce bb 59 be 9f 3e 55 3d 95 4c 1c 3c
       -1.3432206 -0.21263048 0.052061673 0.009539743
0000d0 34 0a b0 3b 9e 48 88 3c bf ea 5d 3d 8a 82 5d bc
       0.00537231 0.01663619 0.05417895 -0.0135198925
0000e0 e1 79 ed 3c 2a 1e 0f 3d 8e b6 36 3d 83 68 84 bd
       0.02898878 0.034940876 0.04460769 -0.064652465
0000f0 11 52 b7 bc ed e4 86 3e d0 a2 e7 3d b5 f5 bb bb
       -0.022378 0.26346532 0.11310351 -0.0057360777
000100 25 8d 22 bc 23 27 88 3e fe dd c8 3d 45 35 0d 3d
       -0.009921347 0.2659236 0.09807967 0.03447463
000110 d0 2d a0 3d 90 66 55 bc 72 c3 1d 3f 0b 8f 6b 3e
       0.07821238 -0.013024941 0.6162635 0.23003785
000120 33 8c db 3d 1b b9 38 3f 53 f4 9d 3f 1c 14 d8 bf
       0.107201 0.7215745 1.2340187 -1.6881137
000130 58 a7 79 3f c5 c7 cb 3d af 82 a8 3f 3e ca fe be
       0.9752097 0.099502124 1.3164881 -0.49763674
000140 a8 95 a3 3c 97 47 90 bc 93 69 8b 3e b6 91 f3 3c
       0.019968823 -0.017612262 0.27228984 0.029732566
000150 81 63 b2 bc 26 14 6e 3e fd 54 c9 3e f5 e0 cb bc
       -0.021775963 0.23249874 0.39322653 -0.024887541
000160 89 d8 71 bd e0 5a 8a bc 02 21 3a 3d 3f 59 a9 bb
       -0.059044395 -0.016889036 0.045441635 -0.0051681097
000170 b8 59 8f 3c 90 11 bb 3c 07 8a c1 3b bc ae 87 3c
       0.017498836 0.022835523 0.0059063467 0.016562812
000180 26 13 d4 3c 20 e0 f3 3c 96 0f 3b 3b b1 fd ca bc
       0.025888037 0.029769957 0.0028543225 -0.024779173
000190 24 0b 46 bd e9 b1 02 3e 9b be 93 3e 15 e6 71 3c
       -0.04835047 0.1276318 0.28856358 0.0147643285
0001a0 19 d1 b1 bd bf d9 10 3e 1b 0c 3e 3c 14 c9 81 be
       -0.0868246 0.14145564 0.011599566 -0.25348723
0001b0 97 95 e0 3c ec 81 8e bd 3b fd 72 3d 70 56 e9 bd
       0.02741508 -0.069583744 0.05932353 -0.1139344
0001c0 1c 7e 9f be 3c a2 06 bd 95 d3 3d bd 04 54 a7 be
       -0.311509 -0.032869563 -0.04634436 -0.32681286
0001d0 3e 99 04 3d 1d 5e 61 bb 6d 1d a2 be 02 77 79 3e
       0.032372706 -0.0034388371 -0.31663075 0.24361804
0001e0 0f 04 25 3b bc d7 8e bd 4b 16 07 3e 68 ab 3a bd
       0.002517942 -0.06974742 0.13192098 -0.045573622
0001f0 0e 60 37 bd d7 f2 c8 3d 4c d8 92 3e 46 93 0b 3c
       -0.04476934 0.09811943 0.28680646 0.008518999
000200 da 05 36 3e 24 d0 79 bc e9 57 59 bc 57 97 c4 3c
       0.1777567 -0.0152473785 -0.013265588 0.023997946
000210 1a e9 f6 bd f4 92 bd bc 3f ad 8a bd 59 23 b3 bd
       -0.12056179 -0.023141362 -0.06771325 -0.087469764
000220 6b 96 97 be e2 96 4e 3d 8d d4 c8 bc 47 eb af 3d
       -0.29606947 0.05043686 -0.024515415 0.085897975
000230 81 8d f5 bb 92 14 78 be 24 7c 97 be b0 a5 c9 3b
       -0.007493675 -0.24226597 -0.295869 0.0061537847
000240 1c cd d6 bc 51 75 d2 3d 27 6b bf 3d d9 7e 97 bd
       -0.02622085 0.102762826 0.093466096 -0.07397241
000250 75 cb 49 be 55 38 a8 3c 81 33 3c bc a4 7a 10 be
       -0.19706519 0.020534674 -0.011486889 -0.14109284
000260 7b 96 73 be 3d 19 e2 3b 62 3c 1f 3c f2 a5 39 be
       -0.23787872 0.0068999813 0.009718986 -0.1812971
000270 7c c3 64 3c e7 4c 14 3e 21 e1 ad bd 81 eb 53 3d
       0.013962623 0.14482461 -0.084902056 0.051738266
000280 63 35 88 3d 9b 16 63 3e c0 6c ed be f8 9a e3 3c
       0.06650808 0.22176592 -0.46372032 0.027783856
000290 17 d7 7a 3e f0 ab be be e5 c1 b8 3d 16 b7 43 be
       0.24496113 -0.37240553 0.090213574 -0.1911281
0002a0 10 f8 7b be 40 b9 9c be 1e 6a 83 3e 2b 15 93 bf
       -0.24606347 -0.30610085 0.25666898 -1.1490835
0002b0 c9 28 eb be 54 52 f7 3e 14 7e 59 bd 50 2f 55 be
       -0.45929554 0.48305 -0.053098753 -0.2081883
0002c0 64 62 f0 3e 12 80 01 3f ec f9 69 3e 11 42 5c be
       0.46950066 0.50586045 0.22849244 -0.21509577
0002d0 3d f4 50 3e e2 a7 9e be fe 44 70 bf 26 43 3f 3e
       0.2040567 -0.3098746 -0.93855274 0.18677959
0002e0 92 b5 1c be fe 9a 12 bf 3a 7b ab 3e 19 f0 7b 3e
       -0.15303639 -0.5726775 0.33492452 0.24603309
0002f0 85 12 4d bf 49 18 70 3d 8e 70 d0 3b 6d 39 8c 3e
       -0.80106384 0.05861691 0.006361074 0.27387562
000300 a9 aa da 3b fb c1 b2 bc e5 54 f9 bc ee b7 87 3c
       0.0066731763 -0.021821013 -0.030435989 0.016567197
000310 f7 57 72 3e b7 b5 2e bd a1 8f 84 ba 1e 93 35 3c
       0.23666368 -0.042653766 -0.0010113606 0.011082439
000320 24 b6 84 3e f4 f1 2e be 18 03 0b 3e 1e 8a 1b bf
       0.25920212 -0.17084485 0.13575399 -0.60757625
000330 db 73 00 3d 59 59 a2 3e 50 5c 63 be 2a 17 23 be
       0.03136049 0.31708792 -0.22203183 -0.15926805
000340 fc 92 a3 be 0b 73 6f 3e e5 e8 b8 be 10 44 af 3d
       -0.31948078 0.23383729 -0.36115184 0.08557904
000350 aa 04 35 be 13 86 33 be 28 67 01 3c de cd 1e be
       -0.1767756 -0.17531614 0.0078981295 -0.1550822
000360 92 5f 2d 3e 3d 54 0b be 3a 76 17 3e 2b 0e 4d 3d
       0.16930988 -0.13606353 0.14791194 0.05006234
000370 eb 59 17 3b c4 1e b0 be e4 2c a1 be d1 83 9d 3d
       0.0023094367 -0.34398472 -0.3147956 0.076911576
000380 b5 30 b1 3d f4 55 e9 be 68 ec 05 3d 1b f4 cb 3c
       0.08651868 -0.4557339 0.032696158 0.024896672
000390 6d f0 8f bd ac 33 20 3e b7 f8 4f 3e 59 35 0a bf
       -0.070282795 0.15644711 0.20309721 -0.5398765
0003a0 07 56 d2 be b4 47 5b 3e a6 2b 87 3d 02 59 b6 be
       -0.4108126 0.21414071 0.06600122 -0.35614783
0003b0 f4 76 93 be 60 10 66 3e 06 77 b9 3e 41 f1 0f be
       -0.28801692 0.22467184 0.3622362 -0.14056875
0003c0 99 46 f1 bc 1c 10 45 3d 88 f2 dc bc fa 6a 5c 3d
       -0.029452609 0.048111066 -0.026971117 0.05381296
0003d0 78 94 e5 3e df 8a 2c 3d c0 e7 56 3b 34 bc 89 3d
       0.44839835 0.042124625 0.0032791942 0.0672535
0003e0 1f 8f 29 bd d4 3e a8 3c fe 8c 98 3d 9b 73 df 3e
       -0.041396257 0.020537771 0.07448767 0.43642887
0003f0 30 7e e3 3e f7 6f bd 3d fd 01 32 be f8 65 3f be
       0.4443221 0.09249871 -0.17383571 -0.18691242

decoder.0.bias f4 [100]
000000 40 db 04 c0 d5 5f c3 bf 49 bf 07 bf be d5 c0 c0
       -2.075882 -1.5263621 -0.53026253 -6.0260916
000010 36 eb 77 bf 1f 6b 76 bd c8 fe 2f c0 56 eb 9f bf
       -0.9684328 -0.060160752 -2.7499256 -1.2493694
000020 3d 27 63 3f 55 81 df bc 6a 30 dd c0 f9 ba 02 bf
       0.8873175 -0.02728335 -6.91216 -0.5106655
000030 b3 47 0e bf 88 89 c0 bf 3c ad 1a 3e 24 53 c3 bf
       -0.55578154 -1.5041971 0.15105146 -1.5259748
000040 f7 5d 39 c0 ae 0a ad bf c4 cf 01 c0 20 ea bc be
       -2.8963602 -1.3518884 -2.028306 -0.36897373
000050 34 e3 a2 be fb ab c0 3d 29 c1 9b c0 71 ec 9b bf
       -0.31813967 0.09407803 -4.867329 -1.2181531
000060 9f 43 91 be bd 89 82 c0 3d d5 7c c0 50 a0 b9 3f
       -0.28371903 -4.0793138 -3.950515 1.4502048
000070 8a 47 18 c0 9d 1c 4e c0 55 a7 5a be fc 03 5e bd
       -2.3793664 -3.2204964 -0.21352895 -0.05420302
000080 7e 8b a5 bd 6b 3b e8 c0 33 67 05 3f 07 07 69 c0
       -0.08083247 -7.257253 0.52110595 -3.641054
000090 74 86 19 3f fa 3a ad bf 81 81 da bf a9 c2 2f 3e
       0.59970784 -1.3533623 -1.7070771 0.171641
0000a0 0c 5e 8c bf 92 2c e0 bf 03 09 34 c0 8e 33 cc be
       -1.0966201 -1.7513602 -2.81305 -0.39883083
0000b0 65 76 1c bd 5d 0e cb 99 76 1c 04 be 46 4a cd c0
       -0.038198847 -2.099551e-23 -0.12901482 -6.4153166
0000c0 80 dc 1d be db c0 bd bd a2 2c 6e bd 75 d2 66 be
       -0.15416145 -0.092653 -0.058148034 -0.2254122
0000d0 29 16 93 bf ec f0 af be 5b a2 2b bd eb cf 08 bf
       -1.1491138 -0.34363496 -0.04190288 -0.5344226
0000e0 e6 3d dd c0 15 e8 f1 3f 17 b6 94 be b1 28 c2 be
       -6.913806 1.8898951 -0.29045174 -0.3792167
0000f0 44 5a 76 bf b4 80 a7 be 12 b5 03 80 02 f9 b9 be
       -0.96231484 -0.3271538 -3.40462e-40 -0.3632279
000100 95 48 42 c0 b3 dd 00 bf 25 cf f5 be 99 7c 17 c0
       -3.03568 -0.50338286 -0.480096 -2.3669798
000110 e2 3d 19 be 33 67 c5 bf f2 c1 e0 bd 0f b3 07 00
       -0.14965013 -1.5422119 -0.10974492 7.07083e-40
000120 ed 3b 86 c0 ba cd 83 c0 89 22 65 c0 2e f6 e1 bf
       -4.194815 -4.118863 -3.5802329 -1.7653253
000130 7a 38 46 bd c0 a4 02 c0 72 a2 8c c0 f3 27 0d c0
       -0.048393704 -2.0413055 -4.3948298 -2.2055633
000140 7d 8d 3e c0 c3 8b 96 3f 8c 83 30 3e bc 60 71 bd
       -2.9773858 1.1761402 0.17237681 -0.058930144
000150 ad 19 34 c0 32 b8 83 bf ff 0a 98 c0 4e 37 c1 bf
       -2.8140671 -1.0290587 -4.7513423 -1.5095003
000160 d8 8c fe bf 95 ba b8 bd b3 c4 07 3d 58 35 c4 bf
       -1.9886732 -0.09019963 0.03314657 -1.5328779
000170 fe ad 95 c0 71 a2 34 c0 f7 9f 0c c0 cc 5c 2c bf
       -4.6774893 -2.8224146 -2.1972635 -0.67329097
000180 84 dd a2 c0 7c da b5 bf 5b 3f 97 bf 3e c3 9e c0
       -5.0895405 -1.4207301 -1.181621 -4.9613333

decoder.2.weight f4 [100, 100]
000000 c3 5a f6 bc 13 9d 72 bd 70 5a 8c 3d 7f 79 87 3e
       -0.030072575 -0.05923183 0.06853187 0.26459882
000010 b3 53 3b 3e 1b 21 17 3d a5 38 01 bd 7b 99 4a be
       0.18293647 0.036896806 -0.03154816 -0.1978511
000020 bd 0c 4d 3e 53 4d a0 ba 85 d8 9d 3d 09 19 e6 bc
       0.2002439 -0.0012230076 0.077073134 -0.02808811
000030 dd 0a 58 bd 9a 28 a9 bd 96 9c 5a 3d 0e ea 51 3c
       -0.052744735 -0.08259697 0.05337199 0.012812151
000040 73 2a 67 3d f3 ed 61 3d 46 2d eb bb cb a9 08 3d
       0.056436967 0.055158567 -0.007177028 0.033365052
000050 e1 d2 f4 3d e3 11 e4 3e 3a 6e 02 3c 3b 8e a6 bd
       0.119542845 0.44544896 0.00796085 -0.08132597
000060 98 19 66 be 96 31 77 3b e0 74 59 be 0c e0 33 3e
       -0.224707 0.0037718765 -0.2123599 0.17565936
000070 30 76 4c 3c 86 6d 0c bc 23 a6 a9 3c 68 83 78 3d
       0.01247935 -0.008571034 0.020709103 0.060672194
000080 cf 63 3e 3e b0 d7 0a be df 8f 60 3e 43 83 f7 3c
       0.18592761 -0.13558841 0.21929882 0.030213958
000090 f0 71 35 3c 34 72 a3 bc af f2 96 3d b6 47 81 bd
       0.011074528 -0.019951917 0.07370507 -0.06312506
0000a0 ba 36 86 3d 1b 96 4b 3c 4f d4 99 bc 85 f8 01 be
       0.06553407 0.012425925 -0.018777994 -0.12692459
0000b0 fb 59 e0 bc 92 f9 f4 0c 7b e6 af 3b f0 1d 91 3d
       -0.027386656 3.7744357e-31 0.0053680516 0.07085788
0000c0 2e e4 44 3e 7e 58 9d be c3 88 03 bb 07 77 ae 3d
       0.19227669 -0.30731577 -0.002007053 0.085187964
0000d0 9f 21 11 bd b6 5e c1 bd 31 d2 09 3f de c8 ec bd
       -0.035432454 -0.09441893 0.5383635 -0.1156175
0000e0 9b 17 8f 3c 6e 79 9c 3d c4 f1 59 3e 78 9b 22 3e
       0.01746731 0.076403484 0.21283633 0.15879619
0000f0 41 65 83 bd 18 18 88 bd c1 f8 04 80 51 dc 00 bd
       -0.06415797 -0.066452205 -4.56578e-40 -0.03146011
000100 f6 7d 8a bc 77 c1 91 be d9 e9 34 bb f2 0a e1 3d
       -0.016905766 -0.28467914 -0.0027605204 0.10988416
000110 28 1a 99 3e 4d 4b 57 bd 75 2a a1 3d 07 3a 03 80
       0.29902768 -0.052562047 0.07869426 -2.96323e-40
000120 fc 8f 96 3d b4 7a 4a 3d e0 20 aa bc 01 16 2a 3d
       0.073516816 0.049433425 -0.02076763 0.04152489
000130 0a e9 a2 bc 8e eb 6a bd 88 06 05 be 9a fd b6 bd
       -0.019886512 -0.05735355 -0.12990773 -0.089350894
000140 1c 22 8e bd f5 bf 73 3d b0 f5 42 3e 66 cf 99 3e
       -0.069400996 0.059509236 0.19039035 0.30041045
000150 a4 12 d0 3d 58 76 e7 bd b0 46 6a 3d 57 c7 51 3d
       0.101598054 -0.11301869 0.05719632 0.051215496
000160 53 0a a2 bd 8d e7 61 3d 9b ed ea be 92 a1 8a 3c
       -0.079121254 0.055152465 -0.45884404 0.016922746
000170 3e 0e 9f bb 8d 10 92 3d 40 c2 e6 ba 7d a3 8c bd
       -0.0048539927 0.07132063 -0.0017605498 -0.068671204
000180 07 94 95 be 67 d0 46 be 72 ce 82 be 17 84 78 bd
       -0.29214498 -0.19415437 -0.2554813 -0.060672846
000190 04 ec 1e bd 2f f1 67 bd 4a 8a 5a 3d 75 13 5c 3e
       -0.0387993 -0.056626495 0.05335454 0.21491797
0001a0 e6 82 fc 3d 08 9d 3a 3d 0a f1 a2 bc 16 34 1b be
       0.123296544 0.045559913 -0.019890327 -0.15156588
0001b0 ee bc 1c 3e cc 91 34 bb 8b 3b 9e 3d e5 95 9a bb
       0.15306446 -0.0027552722 0.07726201 -0.004717576
0001c0 dc a7 e2 bc 26 d5 87 bd e1 e7 23 3d 34 07 56 3c
       -0.027667932 -0.06632452 0.04001606 0.013063241
0001d0 f1 96 02 3d 98 6e 67 3d b3 2b a2 bc 66 27 95 3c
       0.03188223 0.056501955 -0.019796228 0.018207263
0001e0 33 ae d8 3d bc 45 e7 3e 64 1c 16 3b b2 cb 1e bd
       0.10580101 0.4517039 0.0022905106 -0.038768478
0001f0 48 02 53 be 95 b7 06 3d 0b d0 17 be 3d d2 28 3e
       -0.20606339 0.03288992 -0.14825456 0.1648645
000200 50 26 1f bc 9f 7a 09 bd 32 61 e4 3c bf 50 61 3d
       -0.009713724 -0.033564206 0.027878378 0.055008646
000210 18 7a 1d 3e b7 5f db bd b0 22 56 3e 9e 03 98 3c
       0.15378606 -0.107116155 0.2091167 0.018556412
000220 74 be e4 3b 20 02 58 bc b9 5a 80 3d a9 62 71 bd
       0.0069807116 -0.0131841 0.06267304 -0.05893198
000230 c6 e7 14 3d 85 d2 8f 3c 0a cc e3 bc d1 35 a6 bd
       0.03635385 0.017556438 -0.027807254 -0.081157334
000240 35 78 90 bc a7 56 8d 81 b7 a6 a1 bb ce 5f 52 3d
       -0.017635444 -5.191956e-38 -0.004933204 0.051360898
000250 d5 74 52 3e cd 0b a2 be fd 7e df bb 64 94 f9 3d
       0.2055238 -0.31649628 -0.006820558 0.121865064
000260 72 96 07 bd 8f 41 90 bd 66 fe 03 3f 92 f7 ed bd
       -0.03310246 -0.07043754 0.51560056 -0.11619486
000270 3b 08 87 3c 98 dd 9c 3d 20 a9 53 3e 1f 79 f5 3d
       0.016483417 0.07659453 0.20669985 0.11985993
000280 16 57 1e bd 99 7d 54 3c d4 c1 01 80 67 f8 52 bd
       -0.03865727 0.012969398 -1.61368e-40 -0.051506426
000290 76 43 9a bc 5c 5b 8a be eb c3 35 3c d5 4d a4 3d
       -0.018830996 -0.27022827 0.011094074 0.08022658
0002a0 39 fc 97 3e 7d 52 1e bd b0 8a 99 3d 48 88 03 00
       0.29684618 -0.038652886 0.07497156 3.24395e-40
0002b0 02 a5 4b 3d 58 b7 02 3d a0 88 d2 b9 d4 d3 2c 3d
       0.04971791 0.03191313 -0.00040156115 0.042194203
0002c0 87 f8 2f bd 89 3c 1e bd 32 a5 98 bd bd 83 67 bd
       -0.042961624 -0.03863195 -0.074533835 -0.05652212
0002d0 86 a9 19 bd a1 b3 77 3d d2 08 45 3e 59 f3 a8 3e
       -0.037515186 0.06047404 0.19241646 0.3299816
0002e0 c9 6e 62 3d 33 2a 11 be 7f 70 a8 3c cd d3 e1 3c
       0.055281434 -0.14176254 0.020561455 0.027566815
0002f0 31 95 85 bd bd 3d 7c 3d 8d d0 e0 be 05 62 ec 3b
       -0.06522597 0.061582316 -0.43909112 0.0072138333
000300 18 d8 90 bc 8d 69 74 3d a9 39 11 3d 1d e7 54 bc
       -0.017681167 0.059670974 0.03545538 -0.012994555
000310 c3 a1 3e be fb 32 27 be ac c0 60 be 04 55 26 bd
       -0.18616395 -0.16328041 -0.21948498 -0.04060842
000320 ca e8 56 bd 57 dc 31 bd 95 18 83 ba df 70 1f 3e
       -0.0524681 -0.043423023 -0.0010001833 0.155704
000330 52 b6 18 3d a4 6e 30 3d 5e 42 14 bc f9 a5 4f be
       0.03728325 0.043074265 -0.009049026 -0.20278157
000340 e0 ee ca 3d 0c 61 ce bb b4 f2 8c 3d d3 ef a0 3c
       0.09908843 -0.00629819 0.068822294 0.019645607
000350 25 60 2c bc 71 22 52 bd 90 b6 09 3d 64 17 9e 3c
       -0.0105209695 -0.051302377 0.03362137 0.019298263
000360 7d 24 f4 3b 54 70 2f 3d f6 ca 84 bb 94 03 be 3b
       0.007450639 0.042831734 -0.004052515 0.0057987664
000370 1e c8 cf 3d cc ff ea 3e 0d a4 86 bc bf 45 bc bb
       0.10145591 0.45898283 -0.016435647 -0.005745619
000380 b1 18 40 be 6a a0 d2 bc a5 01 a7 bd 29 6b 11 3e
       -0.18759419 -0.025711257 -0.081546105 0.14201035
000390 5e 6b 9b bc 57 28 b9 bc cf 62 01 3d 32 c0 31 3d
       -0.018972095 -0.022602243 0.03158837 0.043396182
0003a0 46 d7 d9 3d fd f1 a6 bd 71 53 4c 3e 60 36 37 3a
       0.10636763 -0.08151624 0.19953705 0.00069889985
0003b0 bf a2 aa 3a 76 02 37 bc 70 40 51 3d 71 91 4e bd
       0.0013018473 -0.01117002 0.051086843 -0.050431672
0003c0 7f fb bf 3c 8b 02 73 3c f1 59 12 bd ca 4d 6b bd
       0.023435352 0.014832149 -0.035730306 -0.057447232
0003d0 0b b9 14 bd bf 8f 01 80 3d 14 37 bc 52 0e 4b 3d
       -0.036309283 -1.43402e-40 -0.011174259 0.049574204
0003e0 13 cc 60 3e 38 ba 96 be 84 9e 82 bc 31 67 d6 3d
       0.21952848 -0.2943895 -0.015944727 0.10468901
0003f0 d7 ca db bc 63 63 3b bd 35 e9 fb 3e 6e 56 f2 bd
       -0.02683012 -0.04574908 0.4920136 -0.118328914

decoder.2.bias f4 [100]
000000 78 1f 18 3f 20 e5 0e 3f 9b 44 09 3f a2 28 07 3f
       0.5942302 0.55818367 0.5362031 0.52796376
000010 20 d1 06 3f 8e 7c 08 3f 77 19 09 3f 5e 3b 0b 3f
       0.5266285 0.53315055 0.5355448 0.5438746
000020 04 11 0e 3f 42 93 0f 3f 35 52 0f 3f 23 04 0f 3f
       0.55494714 0.5608407 0.5598481 0.5586569
000030 d2 99 0d 3f e3 71 0e 3f f7 45 0e 3f 41 9e 0b 3f
       0.55312836 0.5564253 0.5557551 0.5453835
000040 b2 83 09 3f 81 1d 08 3f 4e 85 07 3f 9c 8d 05 3f
       0.53716576 0.5317002 0.5293778 0.52169204
000050 06 78 04 3f 4a 1b 04 3f de 4b 03 3f c4 8a 03 3f
       0.5174564 0.5160414 0.5128764 0.51383615
000060 44 ec 05 3f 31 49 06 3f 9a 67 06 3f 0f 4b 09 3f
       0.5231364 0.5245543 0.52501833 0.53630155
000070 0f 07 0d 3f a5 78 11 3f 31 f4 14 3f df 4f 17 3f
       0.55088896 0.56824714 0.58185107 0.5910625
000080 ab fa 16 3f 87 e9 17 3f 12 8c 18 3f a6 5f 17 3f
       0.5897624 0.5934071 0.5958873 0.5913032
000090 b8 e3 15 3f 74 9d 15 3f 61 de 15 3f a1 50 16 3f
       0.58550596 0.5844338 0.5854245 0.5871678
0000a0 df 0e 15 3f 6a 86 11 3f e8 6b 0f 3f 1e ec 0b 3f
       0.58225816 0.56845725 0.56024027 0.5465716
0000b0 31 84 0b 3f cf f9 0a 3f 33 05 0c 3f a1 a6 0b 3f
       0.54498583 0.5428743 0.54695433 0.5455113
0000c0 6e 8e 0b 3f 78 ce 0a 3f e5 47 0a 3f 49 0f 0a 3f
       0.54514205 0.54221296 0.5401595 0.53929573
0000d0 95 3c 0b 3f 5d 49 0d 3f 9a c3 0d 3f 53 be 0f 3f
       0.54389316 0.5519007 0.5537659 0.56149787
0000e0 06 3c 11 3f 3d 6a 12 3f 8a c8 12 3f 7f fb 12 3f
       0.56732213 0.57193357 0.5733725 0.57415
0000f0 3a a4 12 3f c4 19 14 3f f8 4e 13 3f 64 52 13 3f
       0.5728184 0.57851815 0.5754237 0.57547593
000100 58 e4 12 3f 61 b4 14 3f b6 7b 15 3f e5 94 16 3f
       0.57379675 0.58087736 0.5839189 0.58820945
000110 3a 8d 17 3f 1a b6 19 3f 91 11 1a 3f 8c 70 1a 3f
       0.5919987 0.6004349 0.60183054 0.6032798
000120 c0 63 18 3f 5e 97 17 3f 1d 13 16 3f b4 04 15 3f
       0.59527206 0.59215343 0.58622915 0.582103
000130 a4 39 14 3f 5e 92 11 3f ad 45 10 3f 4a 71 0f 3f
       0.5790045 0.56863964 0.56356317 0.5603224
000140 28 8f 0f 3f 1a 97 0c 3f bc 9f 08 3f 84 55 03 3f
       0.56077814 0.5491806 0.53368735 0.5130236
000150 05 0e 00 3f a2 6e ff 3e 0f e5 fe 3e 4b c0 fc 3e
       0.5002139 0.49889094 0.49784133 0.49365458
000160 63 86 fa 3e b0 2d fb 3e 38 b1 ff 3e be 8a 03 3f
       0.48930654 0.49058294 0.49939895 0.5138358
000170 69 51 09 3f 27 9a 10 3f 98 29 1b 3f ea 9f 24 3f
       0.5363985 0.5648522 0.6061034 0.6430651
000180 c2 58 30 3f 6b 3a 3b 3f de ef 48 3f 7c e6 58 3f
       0.68885434 0.73136014 0.7849101 0.8472669
