Detectors/Deep_Learning/AutoEncoders/models/Trained_RDA_Detect/ae_medium_congestion_speed.pt (torch, 92215 bytes, 8 tensors)

encoder.0.weight f4 [100, 100]
0	0xbb13291b	-0.002245492
1	0xbb13aa9f	-0.0022532118
2	0xbb1425b2	-0.0022605476
3	0xbb1487e7	-0.0022664012
4	0xbb14d850	-0.002271194
5	0xbb1535d4	-0.002276768
6	0xbb158c06	-0.0022819056
7	0xbb15dc74	-0.0022866996
8	0xbb165450	-0.0022938438
9	0xbb16b8f3	-0.0022998422
10	0xbb171060	-0.0023050532
11	0xbb175f79	-0.0023097678
12	0xbb17a52f	-0.0023139229
13	0xbb17e67b	-0.0023178149
14	0xbb181f7b	-0.0023212123
15	0xbb1855b3	-0.002324444
16	0xbb1887af	-0.0023274233
17	0xbb18b6bf	-0.0023302285
18	0xbb18e6d0	-0.0023330934
19	0xbb1912d9	-0.0023357181
20	0xbb193d26	-0.0023382395
21	0xbb197398	-0.0023414847
22	0xbb19a7de	-0.0023446004
23	0xbb19f503	-0.0023491986
24	0xbb1a390b	-0.0023532535
25	0xbb1a7764	-0.0023569698
26	0xbb1aa690	-0.0023597814
27	0xbb1ad249	-0.0023623875
28	0xbb1b2403	-0.0023672588
29	0xbb1b724a	-0.0023719245
30	0xbb1bb7fe	-0.002376079
31	0xbb1bf6f6	-0.0023798323
32	0xbb1c317c	-0.0023833206
33	0xbb1c89ef	-0.0023885926
34	0xbb1cd444	-0.002393023
35	0xbb1d14a1	-0.0023968595
36	0xbb1d4c59	-0.0024001806
37	0xbb1d79b6	-0.0024028844
38	0xbb1da3f8	-0.0024054032
39	0xbb1dc8c8	-0.0024075974
40	0xbb1df31f	-0.002410121
41	0xbb1e0df4	-0.0024117203
42	0xbb1e1f8a	-0.0024127685
43	0xbb1e3fac	-0.0024146838
44	0xbb1e549f	-0.0024159325
45	0xbb1e676c	-0.002417053
46	0xbb1e7520	-0.0024178699
47	0xbb1e81ed	-0.0024186329
48	0xbb1e933f	-0.0024196652
49	0xbb1e9e89	-0.002420338
50	0xbb1ea5a1	-0.002420761
51	0xbb1ea975	-0.002420989
52	0xbb1ea622	-0.002420791
53	0xbb1ea62d	-0.0024207935
54	0xbb1ea036	-0.002420438
55	0xbb1e9a15	-0.0024200727
56	0xbb1e9558	-0.0024197903
57	0xbb1e90a0	-0.002419509
58	0xbb1e8f84	-0.0024194429
59	0xbb1e8bb6	-0.002419216
60	0xbb1e69ff	-0.0024172065
61	0xbb1e47d5	-0.0024151702
62	0xbb1e34b2	-0.0024140296
63	0xbb1e062f	-0.0024112572
64	0xbb1de35d	-0.0024091818
65	0xbb1dc019	-0.0024070798
66	0xbb1d9896	-0.0024047247
67	0xbb1d75e5	-0.002402657
68	0xbb1d5004	-0.0024003992
69	0xbb1d33f4	-0.0023987265
70	0xbb1d1dd4	-0.0023974078
71	0xbb1cf7ab	-0.0023951333
72	0xbb1cd3b0	-0.0023929887
73	0xbb1cb47b	-0.0023911286
74	0xbb1c90c8	-0.0023890007
75	0xbb1c6d7a	-0.0023868964
76	0xbb1c62dc	-0.0023862636
77	0xbb1c5402	-0.0023853783
78	0xbb1c4048	-0.0023842026
79	0xbb1c2df4	-0.00238311
80	0xbb1c1289	-0.0023814759
81	0xbb1bf3c6	-0.0023796423
82	0xbb1bbcc9	-0.0023763648
83	0xbb1b84d5	-0.0023730297
84	0xbb1b64ca	-0.0023711198
85	0xbb1b3d29	-0.0023687577
86	0xbb1b132d	-0.0023662553
87	0xbb1ae76d	-0.0023636476
88	0xbb1aba2f	-0.002360951
89	0xbb1a8fdc	-0.0023584282
90	0xbb1a8335	-0.002357674
91	0xbb1a716a	-0.0023566135
92	0xbb1a5ca1	-0.0023553746
93	0xbb1a455f	-0.0023539884
94	0xbb1a2d38	-0.0023525488
95	0xbb1a1fa7	-0.0023517401
96	0xbb1a1a64	-0.0023514265
97	0xbb1a1597	-0.0023511404
98	0xbb19ffd0	-0.0023498423
99	0xbb19e896	-0.002348458
100	0xbd01e33b	-0.031710844
101	0xbd01e345	-0.03171088
102	0xbd01e351	-0.031710926
103	0xbd01e35f	-0.03171098
104	0xbd01e36c	-0.031711027
105	0xbd01e37b	-0.031711083
106	0xbd01e38c	-0.031711146
107	0xbd01e39c	-0.031711206
108	0xbd01e3af	-0.031711277
109	0xbd01e3c3	-0.03171135
110	0xbd01e3d6	-0.031711422
111	0xbd01e3ee	-0.03171151
112	0xbd01e405	-0.031711597
113	0xbd01e41c	-0.031711683
114	0xbd01e437	-0.031711783
115	0xbd01e452	-0.031711884
116	0xbd01e46d	-0.031711984
117	0xbd01e489	-0.03171209
118	0xbd01e4a5	-0.031712193
119	0xbd01e4c2	-0.0317123
120	0xbd01e4dc	-0.031712398
121	0xbd01e4fa	-0.03171251
122	0xbd01e515	-0.03171261
123	0xbd01e4d7	-0.03171238
124	0xbd01e4fe	-0.031712525
125	0xbd01e526	-0.031712674
126	0xbd01e54c	-0.031712815
127	0xbd01e574	-0.031712964
128	0xbd01e592	-0.031713076
129	0xbd01e5b1	-0.03171319
130	0xbd01e5d1	-0.03171331
131	0xbd01e5ec	-0.03171341
132	0xbd01e60b	-0.031713527
133	0xbd01e628	-0.031713635
134	0xbd01e645	-0.031713743
135	0xbd01e605	-0.031713504
136	0xbd01e62e	-0.031713657
137	0xbd01e657	-0.03171381
138	0xbd01e67d	-0.03171395
139	0xbd01e6a2	-0.03171409
140	0xbd01e6c6	-0.031714223
141	0xbd01e6e7	-0.031714346
142	0xbd01e70a	-0.031714477
143	0xbd01e72c	-0.031714603
144	0xbd01e74b	-0.03171472
145	0xbd01e769	-0.03171483
146	0xbd01e788	-0.031714946
147	0xbd01e7a3	-0.031715047
148	0xbd01e7bd	-0.031715143
149	0xbd01e7d6	-0.031715237
150	0xbd01e7ef	-0.03171533
151	0xbd01e806	-0.031715415
152	0xbd01e80e	-0.031715445
153	0xbd01e815	-0.03171547
154	0xbd01e822	-0.03171552
155	0xbd01e82f	-0.03171557
156	0xbd01e83f	-0.031715628
157	0xbd01e84f	-0.031715687
158	0xbd01e85c	-0.031715736
159	0xbd01e887	-0.031715896
160	0xbd01e8ae	-0.03171604
161	0xbd01e8d3	-0.03171618
162	0xbd01e8f7	-0.031716313
163	0xbd01e91a	-0.031716444
164	0xbd01e928	-0.031716496
165	0xbd01e934	-0.03171654
166	0xbd01e947	-0.03171661
167	0xbd01e95f	-0.0317167
168	0xbd01e97b	-0.031716805
169	0xbd01e995	-0.0317169
170	0xbd01e9a9	-0.031716976
171	0xbd01e9be	-0.031717055
172	0xbd01e9d3	-0.031717133
173	0xbd01e9e5	-0.0317172
174	0xbd01e9f7	-0.031717267
175	0xbd01ea0a	-0.031717338
176	0xbd01ea1b	-0.0317174
177	0xbd01ea2f	-0.031717476
178	0xbd01ea43	-0.03171755
179	0xbd01ea5e	-0.03171765
180	0xbd01ea7d	-0.031717766
181	0xbd01ea92	-0.031717844
182	0xbd01eaad	-0.031717945
183	0xbd01eac7	-0.03171804
184	0xbd01eae6	-0.031718157
185	0xbd01eb03	-0.031718265
186	0xbd01eb1d	-0.031718362
187	0xbd01eb38	-0.031718463
188	0xbd01eb54	-0.031718567
189	0xbd01eb70	-0.03171867
190	0xbd01eb8b	-0.031718772
191	0xbd01eba6	-0.031718872
192	0xbd01ebc2	-0.031718977
193	0xbd01ebdc	-0.031719074
194	0xbd01ebf6	-0.03171917
195	0xbd01ec0e	-0.03171926
196	0xbd01ec24	-0.031719342
197	0xbd01ec37	-0.031719413
198	0xbd01ec46	-0.03171947
199	0xbd01ec57	-0.031719532
200	0xae2788b0	-3.8092807e-11
201	0xae2ab4cb	-3.88141e-11
202	0xae296156	-3.8512603e-11
203	0xae2cfcd0	-3.9332815e-11
204	0xae311cab	-4.0270603e-11
205	0xae33fe6c	-4.092586e-11
206	0xae370247	-4.1611405e-11
207	0xae39d4bf	-4.2253086e-11
208	0xae3b07d4	-4.252583e-11
209	0xae3ddfc4	-4.317237e-11
210	0xae3e45fc	-4.3263157e-11
211	0xae3be3e6	-4.2721292e-11
212	0xae3cabc0	-4.2898796e-11
213	0xae3b928e	-4.2649044e-11
214	0xae392546	-4.2097235e-11
215	0xae3a2c80	-4.2331028e-11
216	0xae3ccbcf	-4.292727e-11
217	0xae3cbfdb	-4.2916653e-11
218	0xae3ce17e	-4.294653e-11
219	0xae3f959f	-4.3561262e-11
220	0xae42a769	-4.4259183e-11
221	0xae448213	-4.468077e-11
222	0xae4741bf	-4.5305756e-11
223	0xae46e421	-4.5222607e-11
224	0xae4a092a	-4.5937622e-11
225	0xae4be957	-4.6364104e-11
226	0xae4ed726	-4.7030067e-11
227	0xae4e043a	-4.684273e-11
228	0xae4f2755	-4.7101285e-11
229	0xae4fccbd	-4.7248195e-11
230	0xae4e7424	-4.694213e-11
231	0xae4cbe68	-4.6553345e-11
232	0xae4ea581	-4.6985974e-11
233	0xae4f7323	-4.7168613e-11
234	0xae50dde4	-4.7490803e-11
235	0xae5148d8	-4.7585796e-11
236	0xae507abc	-4.7402735e-11
237	0xae516152	-4.7607536e-11
238	0xae52d202	-4.7934996e-11
239	0xae537625	-4.808078e-11
240	0xae55f614	-4.8649154e-11
241	0xae52b820	-4.7912008e-11
242	0xae560218	-4.8659826e-11
243	0xae5839f5	-4.916419e-11
244	0xae5b454d	-4.9856386e-11
245	0xae5d8dce	-5.037553e-11
246	0xae609d53	-5.1071435e-11
247	0xae62e310	-5.1588123e-11
248	0xae65c52f	-5.2243706e-11
249	0xae6946e8	-5.3041044e-11
250	0xae68d2e2	-5.2937994e-11
251	0xae6aa308	-5.335024e-11
252	0xae6ca926	-5.381042e-11
253	0xae6b498f	-5.3498147e-11
254	0xae6da65d	-5.403532e-11
255	0xae6f7eb1	-5.4454833e-11

encoder.0.bias f4 [100]
0	0x92819af9	-8.179248e-28
1	0xbcfb11d9	-0.030648159
2	0x0001b41a	1.56444e-40
3	0x0001dc1c	1.70796e-40
4	0xba62d930	-0.0008653579
5	0x000827df	7.48987e-40
6	0x3fa69013	1.3012718
7	0xbcff0f2c	-0.031135164
8	0xb0675d3a	-8.4169793e-10
9	0xbd018908	-0.031624824
10	0x9008369e	-2.6863346e-29
11	0xbca066d7	-0.019580288
12	0x0002a5c0	2.43131e-40
13	0xba64b3f9	-0.0008724328
14	0xba69eadd	-0.0008923242
15	0xb696d3fd	-4.495027e-06
16	0x0003c336	3.45535e-40
17	0x03137d18	4.334302e-37
18	0xab88f912	-9.732512e-13
19	0xbafff1c5	-0.0019527009
20	0x88be883d	-1.14672385e-33
21	0x3fad6896	1.3547542
22	0xb0addbec	-1.2649912e-09
23	0xbf24be1e	-0.64352596
24	0xba7e96df	-0.00097118126
25	0xb58921bd	-1.0217115e-06
26	0xbb101284	-0.0021983692
27	0xbcd769de	-0.026295599
28	0xbf2e373e	-0.6805304
29	0xb64b7c2b	-3.0321632e-06
30	0xc02baf86	-2.682588
31	0xbd01f7e5	-0.03173055
32	0xbc08d1ef	-0.008350833
33	0xbcbe323a	-0.02321731
34	0xbcd3ea4b	-0.025868556
35	0x9ef43c4f	-2.5859448e-20
36	0xa33f872a	-1.0382753e-17
37	0x3fa22864	1.2668576
38	0x3fcc563f	1.596382
39	0xaac4056e	-3.4820362e-13
40	0x80075763	-6.74197e-40
41	0xbca06831	-0.019580932
42	0xbce62cad	-0.028097475
43	0x8004ab94	-4.28893e-40
44	0x3e470a9c	0.19437641
45	0x00075693	6.73905e-40
46	0xbc079e51	-0.008277492
47	0xac6f9a9e	-3.4049773e-12
48	0xbd012f82	-0.031539448
49	0xbcf521df	-0.029923378
50	0x80095128	-8.55633e-40
51	0xbc567caf	-0.01309125
52	0xac89dcb2	-3.9182763e-12
53	0x00050387	4.60443e-40
54	0xbc330795	-0.010927101
55	0x00020aea	1.87586e-40
56	0x00081887	7.43483e-40
57	0xbb2db682	-0.0026506488
58	0xbc01d656	-0.007924637
59	0xbaea5f4a	-0.0017881182
60	0xb6be9f94	-5.6810186e-06
61	0xbb048141	-0.0020218643
62	0xbc5702d9	-0.0131232375
63	0x0004f05f	4.53571e-40
64	0x00064f40	5.79443e-40
65	0xb7ed1084	-2.8260292e-05
66	0xbfbcdd7f	-1.4755095
67	0xbb147148	-0.0022650529
68	0xbbfc9441	-0.007708103
69	0xbce41aba	-0.027844775
70	0x3fac43ad	1.3458153
71	0xbcfe524f	-0.031045107
72	0xbf56e1ec	-0.8393848
73	0x800019cc	-9.254e-42
74	0xbc79749b	-0.015225555
75	0xbf6c465a	-0.9229485
76	0x3f099911	0.53749186
77	0xbc2370a6	-0.009975588
78	0xbc0047b1	-0.007829593
79	0xba6016b6	-0.0008548306
80	0xbcfa60a7	-0.030563666
81	0x88c5cadc	-1.1904198e-33
82	0xbc600b38	-0.01367455
83	0xa40df7a9	-3.0784278e-17
84	0xaf639adc	-2.0700547e-10
85	0xb13be12c	-2.7340077e-09
86	0xbcc287d0	-0.023746401
87	0xbc98ed7e	-0.018667933
88	0xbd09c38e	-0.03363376
89	0xbd020c22	-0.031749852
90	0xbd010d7b	-0.031506997
91	0x00099cce	8.8277e-40
92	0x0005313a	4.76837e-40
93	0x98946f35	-3.8369394e-24
94	0x00055227	4.88648e-40
95	0xbba19ce7	-0.0049320343
96	0x8004e992	-4.51131e-40
97	0xbfb06b6a	-1.378278
98	0xba5f75ef	-0.00085243484
99	0x95abaf49	-6.93429e-26

encoder.2.weight f4 [10, 100]
0	0xbc01b172	-0.007915841
1	0x800022a1	-1.2423e-41
2	0xb2624b59	-1.3172063e-08
3	0x3ceb5d4c	0.02873101
4	0x3d3b1308	0.045672446
5	0x342970b6	1.5780356e-07
6	0x3de0731d	0.10959456
7	0xbd0857f0	-0.03328699
8	0x3ad1899c	0.0015986445
9	0x8000bf48	-6.8619e-41
10	0x85b72e96	-1.722635e-35
11	0xbc77a229	-0.015114346
12	0xbca23cda	-0.019804407
13	0xbca2ab84	-0.019857176
14	0x000467c8	4.04572e-40
15	0xbcb8b212	-0.022545848
16	0x8006e3bc	-6.32709e-40
17	0xbbfd4bc4	-0.007729979
18	0x3ce79043	0.028267032
19	0xbce555f5	-0.02799509
20	0x9e1e2177	-8.371371e-21
21	0x3dd67b2c	0.10472712
22	0xbc127e7b	-0.008941288
23	0x3c6a8aa4	0.014315281
24	0xbca60b06	-0.020268928
25	0x800d2eeb	-1.210692e-39
26	0x8000adbf	-6.2328e-41
27	0xbd085c51	-0.033291165
28	0xbd0e2f0f	-0.034712847
29	0x3cd83ebf	0.026397107
30	0x3bb5ef12	0.005552181
31	0xbb1b33d8	-0.0023682024
32	0xbbc0806b	-0.0058746836
33	0x3d0900be	0.033447973
34	0x3ce1058c	0.027468465
35	0x800272ff	-2.24924e-40
36	0xbca8d774	-0.020610549
37	0xbe862990	-0.26203585
38	0xbd98292c	-0.07429728
39	0xb8f30988	-0.00011588918
40	0x800e5c70	-1.318857e-39
41	0xbd0ede91	-0.034880225
42	0x3d81aac8	0.06331402
43	0x000a8bb7	9.68475e-40
44	0xbe13e411	-0.14442469
45	0xb958ca54	-0.00020674738
46	0x3cb3fb91	0.021970542
47	0x3caab98e	0.020840432
48	0xbaf2dd3b	-0.0018529067
49	0x1e453e94	1.0442034e-20
50	0xb8123158	-3.4855067e-05
51	0x3d2f2251	0.042757336
52	0xbd22716c	-0.03965895
53	0x8012e025	-1.733447e-39
54	0xbd08b83d	-0.03337883
55	0x39167a9a	0.00014350787
56	0xbaaf5937	-0.0013378029
57	0x0003ab0f	3.36871e-40
58	0x3c584fea	0.013202647
59	0x3c061d16	0.008185646
60	0x3c76fd56	0.015075048
61	0xb870804c	-5.7339945e-05
62	0x3c46cb2c	0.012133401
63	0x001f7960	2.890442e-39
64	0x80043df1	-3.89562e-40
65	0x3b2c4c05	0.0026290428
66	0xbcf5ae91	-0.029990466
67	0x3c9b8b71	0.01898739
68	0x8008023b	-7.35484e-40
69	0x21436b18	6.6210307e-19
70	0xbe10eaec	-0.14152116
71	0x3b9ca180	0.0047799945
72	0xbc91a3c8	-0.017778292
73	0x80022d58	-1.99937e-40
74	0x3cc0903b	0.023506274
75	0x3c533825	0.012891804
76	0x3eb282c2	0.34865385
77	0x00061972	5.60141e-40
78	0x8006a221	-6.09174e-40
79	0x8008a136	-7.92516e-40
80	0x3d5d90fe	0.054093353
81	0x800ffd2f	-1.468358e-39
82	0x0007f48f	7.3058e-40
83	0x80048662	-4.1555e-40
84	0x0005ca72	5.31801e-40
85	0xbc813f94	-0.015777387
86	0x3d5f15b3	0.054464053
87	0xbd82b9c4	-0.06383088
88	0xbd0d679f	-0.03452265
89	0xb28845ab	-1.5864165e-08
90	0xb4d142ad	-3.8977797e-07
91	0x80112de3	-1.577664e-39
92	0x800d9493	-1.24716e-39
93	0x3cb14efd	0.02164411
94	0xab829511	-9.27843e-13
95	0xbc97a72e	-0.018512335
96	0x3987675a	0.0002582621
97	0x3dbc5b1f	0.091970675
98	0xbd2da675	-0.042395074
99	0xbbaeae82	-0.0053308615
100	0xbc5dd007	-0.013538367
101	0x89974ddd	-3.642515e-33
102	0xb2f8f265	-2.8981228e-08
103	0xbcf663ef	-0.030076949
104	0xbd04e6a9	-0.032446537
105	0xb41b6877	-1.4473504e-07
106	0xbe193dde	-0.14965007
107	0xbcf599ff	-0.029980658
108	0xbaf34db9	-0.0018562592
109	0x0100ad44	2.36342e-38
110	0x87465d0c	-1.4923208e-34
111	0x3d68660f	0.056737956
112	0x3c9f92ea	0.019479234
113	0xbcf186ff	-0.029483316
114	0x00064075	5.74136e-40
115	0x3bbb102a	0.005708714
116	0x80021347	-1.90586e-40
117	0x3c8e1a5f	0.01734656
118	0xbcf45e04	-0.029829986
119	0xbbdac50b	-0.0066763214
120	0x998cb5d3	-1.4549099e-23
121	0x3cd83e54	0.026396908
122	0x3b570840	0.0032811314
123	0x3cdb7896	0.026790898
124	0xbca503be	-0.020143386
125	0x800d42a2	-1.217765e-39
126	0x8005b541	-5.24199e-40
127	0xbcf6a8dc	-0.030109815
128	0xbdac6ca2	-0.084191576
129	0x3ce48ae5	0.027898261
130	0xbd28bf82	-0.04119826
131	0xba9a37ca	-0.0011765894
132	0xbb08b3cb	-0.0020859118
133	0x3cf361cf	0.029709725
134	0x3d00c2ea	0.031435885
135	0x0002f222	2.70532e-40
136	0x34465a84	1.8473116e-07
137	0xbe13358c	-0.14375895
138	0x3e93c4c7	0.28861067
139	0xbb2f45b4	-0.0026744427
140	0x0001ee07	1.77224e-40
141	0xbafc755d	-0.0019261051
142	0x3cf920c7	0.030411137
143	0x00029567	2.37266e-40
144	0x3e08fbb7	0.13377272
145	0x390ddd70	0.000135293
146	0x3d0d1ee3	0.034453284
147	0xbc9e1830	-0.019298643
148	0xb9b86abf	-0.00035174747
149	0x0e102b4a	1.7770213e-30
150	0x9df0eadf	-6.3770322e-21
151	0xbd2b44e0	-0.04181373
152	0xbcbdc7c4	-0.023166545
153	0x800cff9b	-1.19372e-39
154	0xbd0c0618	-0.0341855
155	0x39024d9f	0.00012426682
156	0x39038257	0.00012541689
157	0x000385b1	3.23466e-40
158	0xbb980eb2	-0.0046404237
159	0xbb4611d4	-0.0030223029
160	0xbc9cf84f	-0.019161372
161	0xb283c37f	-1.5339308e-08
162	0xbccd86ff	-0.025088785
163	0x0000c9a9	7.2342e-41
164	0x0000f9c1	8.9595e-41
165	0xbb1048ad	-0.0022015974
166	0xbc3b8913	-0.011446255
167	0x3ce5631d	0.028001362
168	0x80009e6b	-5.683e-41
169	0x8006f85d	-6.40109e-40
170	0x3e918de4	0.28428566
171	0xbb916c29	-0.0044379425
172	0xbcd70c0d	-0.026250863
173	0x0001d4be	1.68153e-40
174	0xbd826375	-0.06366626
175	0x3d22c553	0.039738964
176	0x3d91189f	0.07084774
177	0x3ab5fadd	0.0013883967
178	0x000df623	1.282159e-39
179	0x00080ac7	7.3855e-40
180	0x3c0b8cbc	0.00851744
181	0x00070e96	6.48081e-40
182	0x00075d31	6.76279e-40
183	0x00143da6	1.858825e-39
184	0x80040abd	-3.71194e-40
185	0xbc8b28f6	-0.016987305
186	0x3d5b5bbf	0.053554293
187	0xbd8ddfa7	-0.06927424
188	0xbc8445b1	-0.016146513
189	0x36aefa9f	5.2147802e-06
190	0xa2a423cc	-4.449019e-18
191	0x0009ed47	9.11639e-40
192	0x0009ff12	9.18021e-40
193	0x3bd9f8e8	0.0066519864
194	0x95c9953a	-8.141869e-26
195	0xbd30124b	-0.042986196
196	0x3b7ca926	0.0038552969
197	0x3da7bdd0	0.08190501
198	0xbd2f38e1	-0.042778853
199	0x39e61906	0.00043887662
200	0xbc8355f6	-0.0160322
201	0xaecbcc08	-9.2676145e-11
202	0xb59eab89	-1.1821841e-06
203	0xbcfedee1	-0.031112136
204	0x3c7eacc9	0.015544125
205	0x3a5949a9	0.0008288869
206	0x3cbfca7c	0.023411982
207	0xbd0ae3c4	-0.03390862
208	0xbbe5e078	-0.007015284
209	0x8be23a27	-8.713953e-32
210	0x83084130	-4.004164e-37
211	0xbc71cc7b	-0.014758225
212	0xbc03c84d	-0.008043361
213	0x3d37f29a	0.044909097
214	0x8007d619	-7.19652e-40
215	0xbc79c8c1	-0.015245617
216	0x0006bc1e	6.18497e-40
217	0x3c96e832	0.018421266
218	0xbcf9d34b	-0.03049626
219	0x3bac7afd	0.005263685
220	0x34d8717f	4.0315715e-07
221	0x3cdcfacd	0.02697506
222	0x3bb1a6fe	0.0054215183
223	0xbd96aedd	-0.07357571
224	0x3c472149	0.012153932
225	0x8001cbfa	-1.65008e-40
226	0x0008c49c	8.05214e-40
227	0x3c80129d	0.015633876
228	0x3b8b399d	0.0042488114
229	0x3cfd5b46	0.030927312
230	0xbc77e099	-0.015129232
231	0xbbb15284	-0.005411448
232	0xbcc97148	-0.02459015
233	0x3d0c83b1	0.03430528
234	0xbcf66416	-0.030077022
235	0x00038785	3.24122e-40
236	0x3b23473a	0.002491428
237	0xbc99f50c	-0.018793605
238	0x3d15d76e	0.036582403
239	0x3c977c7f	0.018491982
240	0x800f03c9	-1.37889e-39
241	0x3cd748c6	0.026279818
242	0x3c682957	0.014170012
243	0x800cb5d1	-1.16725e-39
244	0x3cabc79c	0.020969205
245	0xb9f93caf	-0.00047538194
246	0xbcbc6910	-0.022999316
247	0x3b8a2ddd	0.004216893
248	0x308559ab	9.702509e-10
249	0x2f273c91	1.5210079e-10
250	0x00045b50	4.00099e-40
251	0x3b2032eb	0.0024444412
252	0x3c06d6a0	0.0082298815
253	0x0009036d	8.27748e-40
254	0x3cd3f38b	0.025872966
255	0x3bfaae84	0.0076501984

encoder.2.bias f4 [10]
0	0xbeb8ecad	-0.3611807
1	0xbe446a82	-0.19181255
2	0xbe3d427c	-0.18482393
3	0xbe7add46	-0.24498472
4	0xbf5ec2dd	-0.8701609
5	0x3e824280	0.2544136
6	0x3fb24dd2	1.3929999
7	0xbf4b509e	-0.7941989
8	0x3fa4a7be	1.2863691
9	0xbf38999b	-0.72109383

decoder.0.weight f4 [100, 10]
0	0xbdd89f60	-0.10577273
1	0xbde7e9e0	-0.11323905
2	0x3cbdb117	0.023155732
3	0x3cc124a7	0.023577048
4	0x3d456b3c	0.04819797
5	0x3e785c9d	0.24254079
6	0xbc215f2c	-0.009849351
7	0xbead3ccd	-0.3383545
8	0xbd8093b4	-0.06278172
9	0x3ce469c9	0.027882474
10	0x3ba1c20c	0.0049364623
11	0xbe301877	-0.17196833
12	0xbc007173	-0.007839548
13	0x3ba7cbb4	0.005120719
14	0xbd65d54d	-0.056111623
15	0x3e4e585a	0.20150891
16	0x3d076f9c	0.033065423
17	0xba27793f	-0.00063886115
18	0x3d495434	0.049152568
19	0xbd1fd8d0	-0.039025128
20	0x3c1b8c5d	0.009493914
21	0x3d8c0597	0.06837004
22	0x3c32efda	0.010921443
23	0x3ea79366	0.32729644
24	0x3c3c8f31	0.011508749
25	0xbc13ce55	-0.009021361
26	0x3d311292	0.0432306
27	0xbcd6598e	-0.02616575
28	0xbe852e2b	-0.26011786
29	0xbc9e7647	-0.019343508
30	0x3ceb655a	0.028734852
31	0x3d203e70	0.039122045
32	0x3b04cb63	0.002026283
33	0xbca88648	-0.020571843
34	0x3cc8e4bf	0.024523137
35	0xbce798b6	-0.02827106
36	0x3d361d6f	0.044461664
37	0x3d086819	0.0333024
38	0xbd3e5bf9	-0.04647443
39	0xbc228b6a	-0.009920934
40	0xbebd2edf	-0.36949822
41	0x3e983567	0.29728243
42	0xbd8f973b	-0.07011267
43	0x3c888c2b	0.0166684
44	0x3e441e7d	0.19152255
45	0x3ed937d9	0.4242542
46	0x3dcf996c	0.10136685
47	0xbf506c62	-0.8141538
48	0x3dad9cf5	0.08477203
49	0xbd9eba7a	-0.07750411
50	0x3dff1b15	0.12456337
51	0xbf4005d0	-0.7500887
52	0xbe374a17	-0.17899357
53	0x3d7ba9da	0.06144128
54	0x3e3050f2	0.17218378
55	0xbe96d79b	-0.2946137
56	0x3d345587	0.044026878
57	0x3efe90da	0.49719888
58	0xbf15eb54	-0.5856221
59	0x3d851a49	0.06499154
60	0x3df6e3d9	0.12055177
61	0xbe34f8a4	-0.17672974
62	0x3b0ea502	0.0021765833
63	0xbdb8a50c	-0.09015855
64	0x3d7d18a9	0.061791096
65	0xbdf83e85	-0.121213
66	0x3cb78b9f	0.022405444
67	0x3d2ccf9b	0.042190176
68	0xbeb9ad2c	-0.36264932
69	0x3d5fbafd	0.054621685
70	0x3d3483a3	0.04407085
71	0x3ca0178d	0.01954248
72	0x3beb58d6	0.007182221
73	0x3aa86da0	0.0012850054
74	0x3d0d42a5	0.034487385
75	0x3c6ae3db	0.014336552
76	0x3d8feb8e	0.0702735
77	0x3995556f	0.00028483148
78	0xbcf4d067	-0.02988453
79	0xbb0fe22d	-0.002195488
80	0xbe439878	-0.19101131
81	0x3cc2e3c7	0.023790253
82	0xbc7317f1	-0.014837251
83	0xbd6bac47	-0.057537343
84	0x3ef7793b	0.4833468
85	0x3e0157f4	0.12631208
86	0x3c92a6d8	0.017901823
87	0x3e36dee1	0.17858459
88	0xbe1afcb1	-0.15135457
89	0x3bb36374	0.005474502
90	0x3e44c058	0.19213998
91	0x3c99e192	0.018784318
92	0xbddc1dcb	-0.1074787
93	0x3de2b208	0.11069113
94	0xbdb2c143	-0.08728268
95	0x3e144d95	0.1448272
96	0xbcc93e65	-0.024565885
97	0x3e20c1a4	0.15698868
98	0x3e0870bd	0.13324256
99	0x3d1bd990	0.03804928
100	0xbc38ebda	-0.0112867
101	0xbb593ea3	-0.0033148907
102	0x3e2801e2	0.16406968
103	0xbd9203c9	-0.07129628
104	0xbb80d91c	-0.0039321315
105	0xbb9944bb	-0.0046773828
106	0x3cc7fb31	0.02441177
107	0x3b864613	0.004097709
108	0x3cbee78e	0.023303773
109	0xbee4730a	-0.44619018
110	0x35fb8316	1.8739108e-06
111	0x3a1cbc8c	0.00059790234
112	0xbb15e91e	-0.0022874544
113	0xba743e23	-0.00093171204
114	0x388327aa	6.253955e-05
115	0x3723ace1	9.755809e-06
116	0x3d2726c3	0.04080845
117	0x39267248	0.00015873567
118	0xbbcaa127	-0.0061837616
119	0x3bb4ef33	0.005521679
120	0xb30f042a	-3.329857e-08
121	0x30b27591	1.2984619e-09
122	0xb8b7fe0f	-8.773442e-05
123	0xba35c9ab	-0.0006934653
124	0x9d385a6f	-2.439895e-21
125	0x800421a4	-3.7941e-40
126	0x3b8780bc	0.0041352194
127	0xa8834c2e	-1.457696e-14
128	0xa193b5f7	-1.0009273e-18
129	0xb9426bcf	-0.00018541444
130	0xbec8b428	-0.39199948
131	0x3f1dec04	0.61688256
132	0x3d823382	0.063574806
133	0x3df58189	0.119875975
134	0x3f17df2a	0.59324896
135	0x3e2e1a0f	0.17002128
136	0x3e81c7a4	0.25347626
137	0x3f228f2e	0.63499725
138	0xbec132ac	-0.37733972
139	0xbad4a61c	-0.0016223821
140	0xbe8eed3e	-0.27915376
141	0xbd0bf080	-0.034164906
142	0x3daa6023	0.08319118
143	0xbccd9f7e	-0.025100466
144	0xbeefcf5b	-0.46837887
145	0xbdd096d7	-0.101850204
146	0xbd03dedc	-0.032194957
147	0x3e2086f0	0.15676475
148	0xbdc9559f	-0.09830784
149	0xbd4a9600	-0.049459457
150	0x3e0ff365	0.14057691
151	0xbdaf2f1a	-0.08553906
152	0x3c49df0a	0.012321243
153	0xbd7e36ac	-0.062063858
154	0xbdeb2104	-0.114809066
155	0x3e930b4d	0.2871956
156	0xbd776b57	-0.0604051
157	0x3b2ca163	0.0026341311
158	0xbd87814c	-0.06616458
159	0x3cc8701b	0.024467519
160	0xbdb0bbb7	-0.08629554
161	0x3b5c7949	0.0033641628
162	0x3c6c9a56	0.014441093
163	0x3c1f2290	0.00971283
164	0x3d8f1542	0.069864765
165	0xbe7d1b71	-0.247175
166	0xbb091765	-0.0020918485
167	0xbe676b0c	-0.22599429
168	0xbdf771ce	-0.120822534
169	0x3c27a21e	0.010231523
170	0xb630fba2	-2.6372513e-06
171	0xb500fb1b	-4.804912e-07
172	0xba02fb5c	-0.0004996562
173	0xb9681b52	-0.00022135422
174	0x3660ed51	3.3516737e-06
175	0xb4c0820d	-3.585741e-07
176	0x3cb929c9	0.022602933
177	0x3473462a	2.2656664e-07
178	0xb9b8a298	-0.00035216357
179	0x3a299ebf	0.00064704934
180	0x3a1fa76c	0.00060903165
181	0xbd63425f	-0.05548322
182	0xbd6539ef	-0.055963453
183	0xbe334c08	-0.17509472
184	0xbe0ffd20	-0.14061403
185	0xbd4b0e2b	-0.04957406
186	0x3d86c185	0.0657988
187	0xbde0404c	-0.10949764
188	0xbc9ef4e9	-0.019403892
189	0xbb923255	-0.0044615665
190	0x3dc7539f	0.09732746
191	0xbce8504d	-0.028358603
192	0x3ab134f0	0.0013519805
193	0xbc49a73b	-0.012307937
194	0xbdcfce97	-0.10146826
195	0x3e91a9ed	0.28449956
196	0x3aa5ecee	0.0012659112
197	0x3e805240	0.25062752
198	0x3dfd7b9e	0.12377094
199	0xbc291138	-0.010319047
200	0x3f6e19e7	0.93008274
201	0x3e4154a8	0.1887995
202	0xbd08fdde	-0.03344523
203	0xbf42c158	-0.7607627
204	0x3f916164	1.1357846
205	0x3f6155a9	0.8802133
206	0x3f0b0333	0.54301757
207	0x3f0e4915	0.55580264
208	0xbdd02dce	-0.101649866
209	0x3e06427b	0.13111298
210	0xbe2de655	-0.16982396
211	0x3d4352a2	0.047686227
212	0xbd9f8bd0	-0.07790339
213	0x3d1c299a	0.03812561
214	0x3d4b5e05	0.04965021
215	0xbd60be84	-0.05486919
216	0xbd4005db	-0.046880584
217	0xbe8bbc43	-0.2729207
218	0x3cdb5178	0.026772246
219	0x3a06c546	0.00051410904
220	0x3dd9ec31	0.10640753
221	0x3e66045d	0.22462602
222	0xbcebe45c	-0.028795414
223	0xbe377deb	-0.17919128
224	0x3ebd8aaf	0.3701987
225	0x3ef543fe	0.47903436
226	0x3dd9d473	0.106362246
227	0x3e367488	0.1781789
228	0x3d114121	0.035462502
229	0x3ce14433	0.02749834
230	0x3cc447af	0.023959963
231	0x3cde9e9f	0.027175246
232	0xbcded4a8	-0.027201012
233	0xbc9dc305	-0.019258032
234	0xbc9b9492	-0.018991742
235	0xbcd96616	-0.026537936
236	0x3d98fe3b	0.074703656
237	0xbbca34ea	-0.0061708586
238	0xbb5c29cc	-0.0033594249
239	0xbcc63db5	-0.024199346
240	0x3e0d9154	0.1382497
241	0xbe236939	-0.15958108
242	0xba9a2611	-0.0011760612
243	0x3dbbb8a5	0.091660775
244	0x3b77c703	0.003780783
245	0xbecbb362	-0.39785296
246	0x3d26c64a	0.040716447
247	0xbec87e91	-0.39159063
248	0xbd955411	-0.07291425
249	0xbd682390	-0.05667454
250	0xbea553e7	-0.32290575
251	0xbbdd47a5	-0.0067529255
252	0x3d8f4c03	0.0699692
253	0x3d57145b	0.052509647
254	0x3e66115b	0.22467558
255	0xbd8f090e	-0.06984149

decoder.0.bias f4 [100]
0	0xbfc23354	-1.5171914
1	0x3fd64fd1	1.6743108
2	0x3f7b68b2	0.9820663
3	0xbd1ca59e	-0.038243882
4	0xc0c8acb5	-6.2710824
5	0xc0e0695c	-7.0128613
6	0xbefb38d2	-0.49066788
7	0xbc0576a7	-0.008145965
8	0x3f70fc4d	0.9413498
9	0xc03a3fb1	-2.9101374
10	0xbe6db111	-0.23212077
11	0xa4b65990	-7.908164e-17
12	0x00065077	5.79878e-40
13	0xbfda0fa3	-1.7036022
14	0xc1092b5a	-8.573084
15	0xc0c0fecf	-6.0311046
16	0xbf9f8554	-1.2462564
17	0xb374ff0d	-5.7042644e-08
18	0x40203219	2.5030577
19	0x3f3b774d	0.73228914
20	0xc00c1d8a	-2.189303
21	0xc0e13f06	-7.0389433
22	0xc0502ed2	-3.2528577
23	0xbb79b29b	-0.0038100842
24	0xc093c973	-4.618341
25	0xc03c99bf	-2.946884
26	0xc0b6bb93	-5.7103972
27	0xc096f5ed	-4.71752
28	0xc047d125	-3.1221402
29	0x3ed5c928	0.41755033
30	0xc02f6d00	-2.7410278
31	0xbd9e5829	-0.07731659
32	0xbfabc788	-1.3420267
33	0xc05b49d2	-3.4263806
34	0xc04286e8	-3.039484
35	0x3e484db0	0.19560885
36	0xc0a9ff01	-5.3123784
37	0xc0a917ee	-5.284171
38	0xbde70cab	-0.11281713
39	0xc0957f51	-4.6717916
40	0xbd2bd17e	-0.041947834
41	0xbfa79945	-1.3093649
42	0xbee28cfa	-0.44248182
43	0xbfb730d9	-1.4311782
44	0xc0a7c0a8	-5.2422676
45	0x3e82b823	0.2553111
46	0xc0027320	-2.0382767
47	0xc0cf0d41	-6.470368
48	0x3eae489f	0.3403978
49	0x3eddb67d	0.4330329
50	0x9a4ac523	-4.1931867e-23
51	0xbe819b2e	-0.25313705
52	0xbf76aa9c	-0.9635408
53	0x3e7b9805	0.2456971
54	0xc0bff42b	-5.9985557
55	0xc0e6e707	-7.2157016
56	0xc11890e4	-9.535374
57	0xc000d9eb	-2.0133007
58	0xc0a6e8dc	-5.215925
59	0xbcab5ac2	-0.0209173
60	0xbe88a6c2	-0.26689726
61	0xc07f1201	-3.9854739
62	0xc0a45342	-5.1351633
63	0x3edf9664	0.43669426
64	0xbfd5f555	-1.6715494
65	0xc11ef52e	-9.934858
66	0xbfd60898	-1.6721373
67	0xbb8f7135	-0.004377509
68	0xc0f753ac	-7.728964
69	0x80068e96	-6.02163e-40
70	0xba3a3465	-0.00071031443
71	0x3ec3850b	0.3818744
72	0x4020f92e	2.5152087
73	0xbf64f81d	-0.8944109
74	0xbd8ed363	-0.069739126
75	0xc05ca8f9	-3.4478133
76	0xc040d5b2	-3.013043
77	0x3eb716a8	0.35759473
78	0xb899b747	-7.3297466e-05
79	0xc052d2bf	-3.294113
80	0xbe734923	-0.23758368
81	0xc0010bab	-2.0163372
82	0xc06dd13b	-3.7158954
83	0xada5ce41	-1.8849923e-11
84	0xc0be7d17	-5.9527698
85	0xc0de05be	-6.938201
86	0xc0058fbf	-2.0868986
87	0xc0ea4364	-7.3207264
88	0x3e2c24a1	0.16810848
89	0xc00e1d0f	-2.2205236
90	0xc0836edf	-4.107284
91	0xc0825832	-4.073266
92	0xbcc42392	-0.023942742
93	0xc0ead8b9	-7.3389554
94	0xbd298007	-0.041381862
95	0xc04a266a	-3.1585946
96	0x3dda84df	0.106698744
97	0xc0b6cc42	-5.712434
98	0xbc60eb44	-0.013727967
99	0xb4f52c8f	-4.5667227e-07

decoder.2.weight f4 [100, 100]
0	0x3d13a078	0.036041707
1	0x3e4874d2	0.19575813
2	0xbe8e3fb4	-0.27782977
3	0x3c8d0a81	0.017216923
4	0xbddc8cf5	-0.10769073
5	0x3e539c8d	0.20665188
6	0x3d751935	0.059838492
7	0x3c7a69a0	0.015283972
8	0xbaf253d0	-0.0018488113
9	0x3c09d927	0.00841359
10	0xbe2e3322	-0.17011693
11	0xa5a4f7f1	-2.8617477e-16
12	0x00029a9f	2.39139e-40
13	0xbcf5fd81	-0.030028107
14	0xbdeaabbc	-0.11458537
15	0xbd36fc16	-0.044674
16	0xbd44aa84	-0.04801418
17	0xb339458d	-4.3136925e-08
18	0xbd280a9a	-0.041025735
19	0x3e1c2d56	0.1525167
20	0xbc0dc11d	-0.008651999
21	0xbd78d780	-0.06075239
22	0x3dce55b9	0.10074944
23	0x3b555c33	0.0032556176
24	0xbd10cd6e	-0.035352163
25	0x3c4e3cd5	0.012587746
26	0xbc988176	-0.01861642
27	0xbdff4b0f	-0.12465488
28	0x3d7b44e9	0.061345015
29	0x3de443b3	0.11145725
30	0xbdb62c18	-0.08895129
31	0x3ce66500	0.028124332
32	0x3cad2be9	0.021139102
33	0xbd39ceaf	-0.045363124
34	0xbe06a6a5	-0.13149507
35	0xbc253012	-0.010082262
36	0xbba17516	-0.004927288
37	0x3d2f2622	0.042760976
38	0x3ecd47b6	0.40093774
39	0xbcc3070c	-0.023807071
40	0x3ca01485	0.019541034
41	0x3d0fc3d3	0.035098862
42	0xbbb42639	-0.0054977206
43	0xbcfa217e	-0.030533548
44	0x3d8dd93f	0.06926202
45	0x3dd7e389	0.10541446
46	0xbcfca18b	-0.030838748
47	0xbc040cc9	-0.008059689
48	0x3e226565	0.15858991
49	0xbe3f5848	-0.1868602
50	0xa894e3d7	-1.653011e-14
51	0x3f195d37	0.5990786
52	0x3d13a317	0.036044206
53	0xbcba9737	-0.022777183
54	0x3b31af82	0.0027112667
55	0x3e66e0dc	0.22546715
56	0x3d824146	0.06360106
57	0x3bea2cad	0.007146439
58	0x3deec290	0.116582036
59	0x3c59dbfc	0.013297077
60	0x3c13f2c8	0.0090300515
61	0xbc239592	-0.009984391
62	0x3d16877d	0.036750305
63	0xbdbc4f3f	-0.091948025
64	0xbd3f3f47	-0.046691205
65	0xbec6c59c	-0.3882264
66	0xbe09d087	-0.13458453
67	0x3b097232	0.0020972607
68	0x3d299d15	0.04140957
69	0x00040cc8	3.71927e-40
70	0xb963f1f8	-0.00021738547
71	0x3eb30e61	0.34971908
72	0x3ca7bb14	0.020474948
73	0x3c74f164	0.01495013
74	0xbe3eb31a	-0.1862301
75	0x3e16787d	0.146944
76	0xbd2b0792	-0.041755266
77	0x3cda2088	0.02662684
78	0x38c97d7a	9.607799e-05
79	0xbd10d500	-0.035359383
80	0xbe0d9f9f	-0.13830422
81	0xbc312b76	-0.010813585
82	0xbcbe2c60	-0.023214519
83	0x257f6ac3	2.2153897e-16
84	0xbddec769	-0.10877878
85	0xbd30c404	-0.043155685
86	0xbd7e5525	-0.06209292
87	0x3c3e9ae8	0.011633612
88	0xbe47f34b	-0.19526403
89	0xbd4ce395	-0.050021727
90	0xbd7a7eef	-0.06115621
91	0x3cfadce1	0.030622901
92	0x3efbf2a4	0.49208558
93	0x3dbc520e	0.09195338
94	0x3e0b0648	0.13576615
95	0x3e1f24f4	0.1554144
96	0xbe9efb3e	-0.31051058
97	0xbd29b8cb	-0.041435998
98	0x37e8c9ba	2.7750491e-05
99	0x2ab1a0ee	3.1553183e-13
100	0x3d32033a	0.04346011
101	0x3e0deb00	0.13859177
102	0xbe84b817	-0.259217
103	0x3c7cd7e0	0.015432328
104	0xbdb41656	-0.08793323
105	0x3e2a71ad	0.16644926
106	0x3d473e91	0.048643652
107	0x3c9cd88f	0.019146232
108	0x3a9feedf	0.0012201926
109	0x3b76858a	0.0037616217
110	0xbe30ce19	-0.1726612
111	0x999fa1e5	-1.6505603e-23
112	0x0004022d	3.68123e-40
113	0xbccee148	-0.025253907
114	0xbdc227c1	-0.09480239
115	0xbd09f95a	-0.033685066
116	0xbd4bc9e8	-0.0497531
117	0xb1c13fd5	-5.624296e-09
118	0xbd03767b	-0.032095414
119	0x3e061973	0.13095646
120	0x3ddb53ce	0.10709344
121	0xbd739f4e	-0.059478097
122	0x3daadac1	0.08342505
123	0x3a27abf5	0.0006396168
124	0xbd0442ad	-0.03229015
125	0x3c529f60	0.012855381
126	0x3c0535ca	0.0081305
127	0xbdb02a75	-0.08601848
128	0x3d494a94	0.04914339
129	0x3ddfd78a	0.10929783
130	0xbd832fab	-0.06405576
131	0x3d1def5f	0.03855836
132	0x3ccc2f55	0.024924913
133	0x3a0f721d	0.00054720213
134	0xbdb00acb	-0.085958086
135	0xbc2a42b0	-0.010391876
136	0x3be33701	0.006934047
137	0x3d156401	0.036472324
138	0x3ece8588	0.4033625
139	0xbca76d93	-0.020437991
140	0x3c8585f5	0.016299227
141	0x3cfb32d7	0.03066389
142	0xbc886a3c	-0.016652219
143	0xbce1cfd1	-0.027564915
144	0x3d387b5a	0.045039512
145	0x3ddacc85	0.1068354
146	0xbc1e493d	-0.009661016
147	0xbb698237	-0.0035630593
148	0x3e1835c4	0.1486426
149	0xbe24a079	-0.1607684
150	0xa86ef169	-1.32640015e-14
151	0x3f121abf	0.5707206
152	0x3cfdef56	0.030997913
153	0xbca3b28c	-0.019982599
154	0x3c96a5f6	0.018389683
155	0x3e187254	0.14887363
156	0x3d60d885	0.05489399
157	0x3c592e03	0.013255599
158	0x3e04310e	0.12909338
159	0x3ca77f11	0.020446332
160	0x3c24860e	0.010041727
161	0xbc0fbd42	-0.00877315
162	0x3c8f0e7e	0.017462965
163	0xbd96063b	-0.07325407
164	0xbd390935	-0.045174796
165	0xbe65c912	-0.22439983
166	0xbe088e15	-0.1333545
167	0xba48cb3e	-0.000765968
168	0x3cec91f0	0.028878182
169	0x00090669	8.28819e-40
170	0xb9ec387c	-0.00045055512
171	0x3eb0e19e	0.34547132
172	0x3c733202	0.014843466
173	0xbba4ef13	-0.0050333827
174	0xbe40f3eb	-0.18843047
175	0x3d9993e9	0.07498915
176	0xbc89adea	-0.016806561
177	0x3cc7a9ba	0.024372924
178	0x383c8f81	4.495634e-05
179	0xbcf2e9a7	-0.02965243
180	0xbe033002	-0.12811282
181	0xbc28f32a	-0.010311881
182	0xbc91961c	-0.017771773
183	0x1c382fdf	6.0942365e-22
184	0xbd93a462	-0.07209088
185	0xbd33d4a4	-0.04390396
186	0xbd2b7c87	-0.041866805
187	0xbd38f1cf	-0.04515248
188	0xbe35f95c	-0.17770904
189	0xbd54fce3	-0.051998984
190	0xbd83fc5f	-0.0644462
191	0x3aa69f62	0.0012712295
192	0x3eff310c	0.49842107
193	0x3d426be7	0.047466185
194	0x3defa775	0.11701862
195	0x3e04d975	0.12973578
196	0xbe9ca833	-0.30597076
197	0xbd0fc961	-0.03510416
198	0x3ad481e7	0.001621303
199	0x2a8781dd	2.4070928e-13
200	0x3d54b9de	0.05193507
201	0x3da8cb5a	0.08241911
202	0xbe71c676	-0.23610863
203	0x3c75eeb7	0.015010527
204	0xbd51c652	-0.051214524
205	0x3e0bf74c	0.13668555
206	0x3d20ec6d	0.039287973
207	0x3c709769	0.0146845365
208	0x38aa6d3a	8.126577e-05
209	0xbb047841	-0.0020213278
210	0xbe34eec4	-0.17669207
211	0x9c87e123	-8.991747e-22
212	0x00028b01	2.33536e-40
213	0xbcd9c4b4	-0.026583053
214	0xbd8ad6ff	-0.067792885
215	0xbd03031a	-0.03198538
216	0xbd5540ec	-0.052063867
217	0x30e623ea	1.674491e-09
218	0xbcb99276	-0.022652846
219	0x3dcea449	0.10089929
220	0x3e1bfb4e	0.15232584
221	0xbd759fd7	-0.05996689
222	0x3d98aa99	0.07454414
223	0x393f9ca2	0.0001827353
224	0xbc53bc3f	-0.012923299
225	0x3c959cd2	0.018263254
226	0x3ce713fd	0.028207773
227	0xbd7417bb	-0.059592944
228	0x3cde932d	0.027169788
229	0x3de4aa49	0.11165292
230	0xbd42377e	-0.047416203
231	0x3d35d267	0.04439011
232	0x3cd5068d	0.0260041
233	0x3c8e3503	0.017359262
234	0xbd35704d	-0.04429655
235	0xbc3d9d6a	-0.011573175
236	0x3c3eb5e5	0.011640047
237	0x3ca658ff	0.020306109
238	0x3ecf73df	0.4051809
239	0xbcb48966	-0.022038173
240	0xba2e04a2	-0.00066382636
241	0x3c74e8e2	0.014948102
242	0xbcd0b32b	-0.025476059
243	0xbcdba5e2	-0.026812498
244	0x3d1e1b54	0.03860028
245	0x3de10885	0.10987953
246	0xbba687cc	-0.005082106
247	0xbb4f41fd	-0.0031625025
248	0x3e0a5b9d	0.1351151
249	0xbe074483	-0.13209729
250	0x2c1b7ea1	2.2097118e-12
251	0x3f0ac2f4	0.54203725
252	0x3c0b5012	0.008502977
253	0xbc6b21a3	-0.014351281
254	0x3d0a27d7	0.0337294
255	0x3d9983fb	0.074958764

decoder.2.bias f4 [100]
0	0x3f4da806	0.8033451
1	0x3f4293ed	0.76006967
2	0x3f3e0286	0.742226
3	0x3f3d799a	0.74013674
4	0x3f3ea259	0.7446647
5	0x3f426725	0.75938636
6	0x3f48b255	0.78397113
7	0x3f4d70e2	0.8025037
8	0x3f506941	0.81410605
9	0x3f520662	0.8204099
10	0x3f53e118	0.8276534
11	0x3f564f4a	0.83714736
12	0x3f55a371	0.83452517
13	0x3f549348	0.83037233
14	0x3f4f114e	0.8088578
15	0x3f4a13de	0.78936565
16	0x3f418816	0.75598276
17	0x3f3d29cd	0.7389191
18	0x3f3acfdc	0.7297342
19	0x3f3e26ab	0.7427775
20	0x3f4110d5	0.7541631
21	0x3f498002	0.7871095
22	0x3f4fba49	0.81143624
23	0x3f586931	0.8453551
24	0x3f616382	0.8804246
25	0x3f6b3e02	0.9189149
26	0x3f73f5c9	0.95296913
27	0x3f7c0d70	0.98458004
28	0x3f7f560b	0.99740666
29	0x3f815ee1	1.010708
30	0x3f81a4df	1.012844
31	0x3f82e230	1.0225277
32	0x3f82a8ef	1.0207804
33	0x3f825a95	1.0183893
34	0x3f81121c	1.0083652
35	0x3f7bc21f	0.9834308
36	0x3f74dfb2	0.9565383
37	0x3f6e747d	0.93146497
38	0x3f67648b	0.9038779
39	0x3f6066ec	0.87657046
40	0x3f57c5be	0.84286106
41	0x3f4d75c0	0.802578
42	0x3f43221d	0.7622393
43	0x3f3807f5	0.7188714
44	0x3f305103	0.68873614
45	0x3f2c44cd	0.6729248
46	0x3f2b3040	0.668705
47	0x3f2cd7b8	0.6751666
48	0x3f2edc23	0.6830465
49	0x3f3277d4	0.69714093
50	0x3f33c0da	0.70216143
51	0x3f37143d	0.71515256
52	0x3f3a8e99	0.72873837
53	0x3f3da9b4	0.7408707
54	0x3f3f9e01	0.7485047
55	0x3f40289f	0.7506198
56	0x3f3f0da8	0.7463021
57	0x3f3e4a2c	0.7433193
58	0x3f3ce927	0.7379326
59	0x3f3b6941	0.7320748
60	0x3f391c6d	0.72309
61	0x3f365c84	0.7123492
62	0x3f356319	0.70854336
63	0x3f32b907	0.6981358
64	0x3f317cf4	0.6933129
65	0x3f30156b	0.6878268
66	0x3f319953	0.6937458
67	0x3f35d6a0	0.71030617
68	0x3f3aa0f8	0.7290187
69	0x3f41c7da	0.75695574
70	0x3f49eed5	0.78880054
71	0x3f542e83	0.8288347
72	0x3f5f25cd	0.87167054
73	0x3f6a32bc	0.91483665
74	0x3f731802	0.9495851
75	0x3f7bd42e	0.98370636
76	0x3f8187b5	1.011954
77	0x3f82b744	1.0212178
78	0x3f834500	1.0255432
79	0x3f82212a	1.0166371
80	0x3f7f5057	0.99731964
81	0x3f796394	0.9741757
82	0x3f7258a9	0.94666535
83	0x3f6b766e	0.91977584
84	0x3f653aff	0.89543146
85	0x3f60832c	0.8770015
86	0x3f5aa1c5	0.8540309
87	0x3f5677cf	0.83776563
88	0x3f516b77	0.81804603
89	0x3f4ec97f	0.8077621
90	0x3f4bf28a	0.7966696
91	0x3f4a3783	0.78990954
92	0x3f4a068d	0.78916246
93	0x3f4d12e0	0.80106926
94	0x3f502936	0.8131288
95	0x3f553efb	0.83299226
96	0x3f5d09c1	0.8634301
97	0x3f65f490	0.898263
98	0x3f6d4445	0.92682296
99	0x3f779635	0.9671357
