Detectors/Deep_Learning/AutoEncoders/models/Trained_RDA_Detect/ae_Train_X.pt (torch, 92215 bytes, 8 tensors)

encoder.0.weight f4 [100, 100]
00000000: 0ffa 56bb d4f8 56bb 78f1 56bb 8fea 56bb
00000010: 5be3 56bb 30d6 56bb 3dcf 56bb 3dc3 56bb
00000020: dfba 56bb ffb2 56bb b8a8 56bb a79f 56bb
00000030: b894 56bb ce8c 56bb a687 56bb 5784 56bb
00000040: 7c81 56bb 7078 56bb 1f6d 56bb 8f64 56bb
00000050: 6155 56bb 0a51 56bb af53 56bb 5f4e 56bb
00000060: ed48 56bb 9a3e 56bb 4336 56bb 642f 56bb
00000070: 8328 56bb 5d15 56bb f90b 56bb e207 56bb
00000080: 2b09 56bb 1b02 56bb 14f5 55bb 35e8 55bb
00000090: 32e5 55bb 1cde 55bb 9fd2 55bb f8c4 55bb
000000a0: e8be 55bb 9ab2 55bb f4a6 55bb 7c9c 55bb
000000b0: c08c 55bb db7c 55bb 0e6c 55bb c560 55bb
000000c0: 8c50 55bb a53e 55bb d823 55bb 160f 55bb
000000d0: 46f8 54bb 96e7 54bb e2d0 54bb 66c0 54bb
000000e0: dbaf 54bb c0a1 54bb 2093 54bb 7f83 54bb
000000f0: 2b7c 54bb c37a 54bb 4d77 54bb e477 54bb
00000100: 5e76 54bb c46f 54bb 1272 54bb 3f6f 54bb
00000110: 2d6e 54bb 0579 54bb 2a82 54bb 4c8b 54bb
00000120: 698e 54bb 7492 54bb 11a1 54bb 98ad 54bb
00000130: 5bc5 54bb 1fe0 54bb 0ced 54bb 0ef5 54bb
00000140: d2fa 54bb 8e09 55bb a80f 55bb 7e16 55bb
00000150: d31d 55bb 7d1d 55bb eb15 55bb 7d14 55bb
00000160: cc0e 55bb cc08 55bb 3705 55bb 9001 55bb
00000170: 05fd 54bb 1ffb 54bb faee 54bb e4e0 54bb
00000180: 21d6 54bb e5c8 54bb 9cbf 54bb 9cb9 54bb
00000190: 8f44 2ebb 2ad8 d739 466a 5bbb 194c 3e3a
000001a0: 6faa 3639 b718 ffba a1db 7eba ae61 bfba
000001b0: c987 44bb 02ce 3bbb 115a 55ba dc86 8839
000001c0: 8933 40ba 1f31 073a 0b61 08b9 b8af 5bbb
000001d0: 2b16 8b39 db57 853a eb75 1fbb 0813 75ba
000001e0: 77eb 51bb 0c26 26bb fa48 11bb 343e 65ba
000001f0: 924e 0dba 2a62 b63a f45e 63ba f670 9fb9
00000200: 3d5d 95ba f27c 58ba 4986 d8ba 3770 2bbb
00000210: 3ad5 7f3a 3932 3cba bcf2 41ba 4644 43bb
00000220: d391 cc3a f98c b438 7de4 24ba 3dfc 95ba
00000230: 202a 37ba 8fd2 40bb 1c43 70ba fb73 a4b9
00000240: 9c49 9cba 1eb1 41bb a46c c7b9 7361 cab9
00000250: 2f0a 14bb f61c 43bb c77b b4ba 4c39 723a
00000260: a4ab 0bba 26b0 dab9 5763 16ba bd81 a3ba
00000270: 33cb 833a 5d36 b239 f655 57ba df82 b53a
00000280: 9357 3cba 6ec8 443a ff40 f6ba 8653 aa3a
00000290: 64aa 8837 9a7d 65ba ab19 38bb 4b10 6f3a
000002a0: 65cf feb7 b43d 2ebb cd52 e13a e068 8bba
000002b0: ead0 fc3a ba83 a1b9 f728 043b f4e0 8f38
000002c0: 39a1 0cba 9b27 b337 2cbf 15bb 4cb5 59ba
000002d0: f47c deba 5da5 e1ba f7ed 433a 73b9 453a
000002e0: 276d 143a dc8c 0c3b f85f 5939 f6b8 253b
000002f0: 830a 833a abff 1038 7ff8 f039 e715 d63a
00000300: 61e2 9b3a 5ca2 1dba 0924 933a c500 b13a
00000310: 8de5 743b 51ed 513b f186 a937 13b8 6f3a
00000320: 78ba 31be c51e a6bd d259 8abd 16a2 0abd
00000330: 2ec8 a6bd d1aa e5bb d4ef e0bc f396 06be
00000340: c518 22be 3021 10be f91a 01be ad20 383d
00000350: d764 11bd 8225 41bc 1dff d6bd 7f3e a6bc
00000360: b446 98bd 5e33 9a3d b8ea 433d df15 afbd
00000370: c3b6 12bc 0432 aa3d b446 48bd f3ee 383d
00000380: 6e65 bb3d ec5e fa3d 710b 18bc 436f 603d
00000390: 8b0a 07bd 594a 093e 1edd 763c da4e b43a
000003a0: dcb5 ce3c b84f 6c3d 1878 2b3e b6f1 bd3d
000003b0: 30cb 0e3d e679 1c3e f858 c13c 6265 c83b
000003c0: 2563 a43d 1f60 593d 24d9 353e 1657 a63d
000003d0: be9e 223e 6cd8 be3d 8ceb 133e 86f9 1d3e
000003e0: aaa2 9f3d e510 253e 3426 dd3c 9275 0a3e
000003f0: 12dd f83d 4082 1b3e 5aec 413e daa4 7f3c
-0.0032802855 -0.0032802122 -0.0032797735 -0.0032793616 -0.0032789323 -0.0032781474 -0.0032777332 -0.003277018
-0.0032765192 -0.0032760499 -0.0032754373 -0.0032748969 -0.0032742452 -0.0032737735 -0.0032734661 -0.003273269
-0.0032730987 -0.0032725595 -0.003271885 -0.0032713746 -0.0032704698 -0.0032702112 -0.0032703688 -0.0032700521
-0.0032697276 -0.0032691122 -0.003268615 -0.0032682056 -0.0032677955 -0.0032666542 -0.0032660945 -0.0032658507
-0.0032659273 -0.0032655064 -0.0032647299 -0.0032639627 -0.0032637832 -0.0032633608 -0.003262676 -0.0032618623
-0.003261501 -0.0032607676 -0.0032600733 -0.0032594493 -0.0032585114 -0.003257564 -0.0032565626 -0.00325589
-0.003254923 -0.003253856 -0.0032522585 -0.0032510213 -0.0032496615 -0.0032486669 -0.0032473137 -0.0032463311
-0.003245345 -0.0032445043 -0.0032436326 -0.003242701 -0.0032422643 -0.0032421804 -0.0032419742 -0.0032420093
-0.0032419185 -0.003241525 -0.0032416624 -0.003241494 -0.0032414303 -0.0032420766 -0.0032426217 -0.003243166
-0.0032433516 -0.0032435926 -0.0032444636 -0.0032452103 -0.0032466266 -0.003248222 -0.0032489924 -0.0032494697
-0.0032498133 -0.0032506916 -0.0032510553 -0.0032514627 -0.0032518997 -0.0032518797 -0.0032514285 -0.0032513433
-0.003251004 -0.0032506464 -0.003250433 -0.0032502152 -0.0032499444 -0.0032498313 -0.0032491074 -0.0032482678
-0.0032476264 -0.0032468375 -0.003246284 -0.0032459265 -0.0026591157 0.0004116905 -0.0033480092 0.0007259264
0.00017420364 -0.0019462322 -0.00097220583 -0.0014601254 -0.002998816 -0.0028656726 -0.0008138726 0.0002604042
-0.0007331898 0.0005157161 -0.00013006122 -0.0033521485 0.00026528662 0.0010173278 -0.002433176 -0.0009348844
-0.0032031217 -0.0025352268 -0.0022168742 -0.0008744926 -0.0005390431 0.0013914753 -0.0008673512 -0.00030411006
-0.0011395585 -0.00082583644 -0.0016519512 -0.0026159415 0.0009759251 -0.00071791146 -0.0007398536 -0.0029795333
0.0015607424 8.609327e-05 -0.0006290151 -0.0011442971 -0.0006987173 -0.0029422378 -0.00091652735 -0.0003136693
-0.0011923793 -0.0029555033 -0.0003803718 -0.00038601048 -0.0022589078 -0.00297719 -0.0013769799 0.0009240105
-0.00053280056 -0.0004171144 -0.00057368487 -0.0012474578 0.0010055065 0.0003399131 -0.00082144083 0.0013848207
-0.00071846804 0.0007506673 -0.0018787681 0.0012994863 1.6291808e-05 -0.0008754373 -0.0028091471 0.00091195543
-3.0375735e-05 -0.002658707 0.0017190814 -0.0010636114 0.0019288335 -0.00030806457 0.0020166019 6.860672e-05
-0.00053646 2.1356906e-05 -0.0022849543 -0.00083049084 -0.0016974495 -0.001721542 0.0007474119 0.00075425877
0.0005662017 0.0021446263 0.00020730484 0.0025287247 0.000999764 3.4570385e-05 0.0004596151 0.0016333432
0.0011893028 -0.0006013268 0.0011225949 0.0013504258 0.0037368268 0.003203232 2.0209207e-05 0.00091445557
-0.17356288 -0.081113376 -0.06755413 -0.033845983 -0.0814365 -0.0070088883 -0.027458109 -0.1314352
-0.15829761 -0.1407516 -0.12607946 0.044953037 -0.03549656 -0.011788728 -0.10497878 -0.020293472
-0.074353606 0.07529329 0.047831267 -0.085490935 -0.008954707 0.08310321 -0.048895553 0.045149755
0.091502056 0.12225136 -0.009280072 0.054793607 -0.03296904 0.13407268 0.015067367 0.001375641
0.025233202 0.057693213 0.16745031 0.09274618 0.034861743 0.15280876 0.023601994 0.0061156014
0.08026723 0.053070184 0.17758614 0.08122079 0.15880868 0.09318623 0.14445323 0.15427217
0.077946976 0.16119726 0.026995756 0.13521412 0.12151541 0.15186405 0.18937817 0.0156032685

encoder.0.bias f4 [100]
00000000: 92c0 1dbb 7782 31bb 58a4 873d f4b8 d8ba
00000010: a4de 83bd 1af6 31ba a57f 833d fae3 39bc
00000020: 74f5 55bd 3233 32be ab6e 36be a17d 1abe
00000030: 02c8 a3bb 481d 66bb b1e2 aabd 047b 38b3
00000040: 03b0 11ba 4588 fcbc 9079 89bb 9d72 dfbb
00000050: 42da 8cbc 7800 0f3c 7134 f93b fc97 87bb
00000060: d5c8 c0b9 719b 8dbb cd5f dcbd 8103 85bb
00000070: 8bae 92bb 5aae 2ebe f7d3 9cbb b3ec fbba
00000080: c660 b3bb 62d7 b4bb 7e80 8e3c 0ba6 ed3c
00000090: 4e81 9ebb 9ef6 a9bb 9baf 52bb 3f65 6abd
000000a0: a80b 093c 45d4 75ba 23c2 b7bd f807 9dbb
000000b0: d0eb b8bd 8d6d 85ba b91d 1ebb 3721 a6bb
000000c0: 12ab 36be 987b 38bb df15 9fbd a193 51bb
000000d0: 27ee f2ba 9499 96bb 9b25 03b6 a15a 4cbb
000000e0: a276 96bd d4cd a0ba 9ca8 acb2 b5cd 32bc
000000f0: 5f25 353d b1af 8ebd be2a 03bb 8f59 a338
00000100: 0ee9 fcb9 cbf2 b23c 94d7 7abb f16b 90bd
00000110: 9ae2 13bb c0d5 4ebd 8ac7 20bb 019e 53bc
00000120: 941a fe3d 6b6d 82bb ea0b 5cae 3f77 1fba
00000130: bd9c dd3d 7d92 92bb c82b adbb 52db 99bc
00000140: 0325 6704 6839 64bb 6be2 fcbc 8bd2 6f3d
00000150: acd8 a9bd d2e4 6fba a6c1 88b8 989c 6ebb
00000160: 8238 413d a67f c6bc 355e 93ba f3c0 82bb
00000170: 3fc6 05b6 a4a6 acb8 0352 30be 9caf debc
00000180: 1265 b83d c8e9 efba 370b 5cb8 8309 82bb
-0.002407108 -0.002708582 0.06623143 -0.0016534613 -0.0643895 -0.0006788686 0.06420831 -0.011345858
-0.052236035 -0.17402342 -0.17815654 -0.15086986 -0.004998208 -0.0035112668 -0.08344019 -4.295272e-08
-0.0005557539 -0.030826697 -0.0041953996 -0.006819083 -0.017193917 0.008728139 0.0076051285 -0.004137991
-0.00036770725 -0.0043215086 -0.1076046 -0.0040592556 -0.0044763735 -0.17058697 -0.0047860104 -0.0019220322
-0.005474183 -0.0055188397 0.017395254 0.02900984 -0.0048371917 -0.0051868698 -0.0032148126 -0.057225462
0.0083645955 -0.0009377639 -0.089725755 -0.0047922097 -0.09029353 -0.0010179743 -0.0024126603 -0.0050698775
-0.17838696 -0.002814984 -0.077678435 -0.0031978863 -0.001853411 -0.0045959447 -1.954241e-06 -0.0031181949
-0.07346846 -0.0012268373 -2.010011e-08 -0.010913302 0.044225093 -0.06967104 -0.002001449 7.789127e-05
-0.00048238825 0.021844288 -0.0038275467 -0.07051838 -0.0022565485 -0.050496817 -0.0024532997 -0.012916089
0.12407413 -0.003980329 -5.003279e-11 -0.00060831377 0.10820911 -0.004473029 -0.00528476 -0.018781338
2.7170914e-36 -0.0034824256 -0.030869683 0.0585504 -0.0829328 -0.00091512233 -6.521055e-05 -0.0036409255
0.04717303 -0.02423079 -0.0011243286 -0.0039902865 -1.9933939e-06 -8.232638e-05 -0.17218785 -0.027183346
0.09003653 -0.0018303925 -5.2462532e-05 -0.003968419

encoder.2.weight f4 [10, 100]
00000000: 5ad8 f139 02ae c43b 4fc8 27be 55cf ed3a
00000010: 1968 9bbd f61b 0937 e7ce c0bd 6607 3cbd
00000020: 0643 b13d 4042 223d 0451 993d a777 b9bc
00000030: c38f d13b cd7c d9bb 72a0 c43b e12a 813b
00000040: d896 c03a b31a 8abc a2c1 eaba 2dc4 8fbb
00000050: ae5f aabd 30e7 993c d3a3 4a3d e553 0700
00000060: 3026 0880 dada 0d34 3fa9 0b3d a444 9b3a
00000070: 0d55 d23b 90e2 263d e1cd 4d92 6755 ae3b
00000080: 4607 a9bb d54a da2f 8086 3ebd 1824 1abd
00000090: 15b0 a6bb 484e cba6 b769 0280 4c02 88bc
000000a0: 9c10 87bd f11a c8b9 5e0f 493c 2bac 2e3b
000000b0: d0b1 cdbc c737 47bb 6523 743b 3c04 e7ba
000000c0: ace9 863d a4ca dcbb a970 7e3c 24de 443b
000000d0: 76f8 390a cb6e 9638 12ab 3cbb bef5 803b
000000e0: 1a53 3c3d 7d85 02b2 1773 0400 72c1 b939
000000f0: 8765 84bd 0650 a9bd 5c9c 0180 5677 ec3b
00000100: 0e4a 0e3c 5bcf 51bd 9f46 a63b 1ac1 91bc
00000110: 778e 92bb 26d3 7abc b139 25bb 224f 6cbc
00000120: 71e8 9fbc 7ea7 523b 8553 7139 261a fd3a
00000130: 0371 0d3d aa2f 0500 90d7 ac3c 1f59 0280
00000140: 9e85 0c80 4a5e 08bb e89b 5180 f5d2 ad3d
00000150: 176d 543d f075 923b ccaf 1436 4cda 9f3b
00000160: 08e4 9c3d 2dee 01bd 6f54 05bb b1c3 333c
00000170: 7ab7 79ad d9b8 0b3c 7550 2bbd 4093 c03d
00000180: 5c6e 1c3c 8522 01bb 5624 083c c154 83b8
00000190: f163 b23b b9b1 653c 474d a5be 1743 e33b
000001a0: b483 1f3d 80b0 9f3a 6db6 03be 1ea4 d2bd
000001b0: d901 7d3d 9a1b 78bd b204 1cbd 67e1 96bd
000001c0: c29e 003c e721 f4bb b621 743c 5d30 a93b
000001d0: 93aa 3b3a 739d a5bc 763b 7bbb 96ef a4bb
000001e0: 8b5a 92bd 94ca ebbc 8991 f73a 0013 0700
000001f0: f0e5 0f00 b29d cb32 2981 8e3c c2ca df39
00000200: 8713 e13b 9d65 013c c53a c9ae 1b66 dc3b
00000210: d6c4 97bb 08df 0d39 529b 3b3d f2a3 ac3d
00000220: 0794 8bbb ec48 8f32 a8ed 021b 25f0 9e3b
00000230: 4931 4d3d a7e6 71bb c99e 52bc 51e9 3c3b
00000240: 1ba9 b43d 1f39 cebb ded5 fc3b a470 7430
00000250: ab7f 523d 14f2 1cbc 7f8b d63d f81f 173c
00000260: 40b4 0632 d864 1239 b063 24bb 24b9 963b
00000270: 5d51 7c3d 3cf0 f6b8 7162 0900 a001 0b3c
00000280: ff64 d8bd 810a 12be a921 0c80 94f5 223c
00000290: cbb3 90b9 0890 1fbe f765 bd3b 06c0 d03d
000002a0: 52d7 903b 85c1 dbbd 37ac 8b3b 1e42 58bb
000002b0: 05dd 2bbc 8286 0bbc c007 d5b9 c121 863a
000002c0: c767 87be 25a3 9e2f 7533 013a b49a 7dbb
000002d0: 5ce0 0680 0fd1 a62b 8eb5 0180 e187 053d
000002e0: f8b3 b9bd 77d9 0dba 2b10 f839 1d94 b53b
000002f0: f6d3 34be 58d7 e7bc 5c7c babb 89c0 543c
00000300: ce48 6e19 b99f 933c 0b52 8c3d 52f7 f5bc
00000310: a19b afbd 005d 7fb9 0992 9d3b 88da aaba
00000320: 8019 cbbb 06b4 b4bc 422d 9abe 4286 06bb
00000330: 6a2a c2bc 54aa 013a ce40 263d b223 c9bd
00000340: cd7a 41bd 8fc7 bebd 9aeb 17ba 6ca8 e83c
00000350: 52d6 473b 8ea5 bfbb 7853 fb3c 2b78 7d3b
00000360: 410c 64b8 c3a1 acbc 72ab f93b 6500 fabb
00000370: d684 9bbd c808 3fbd c31e 4d3a 6e05 0080
00000380: fd2d 0080 b75a 4c3a 7ec4 22bb b260 b83b
00000390: 7920 133b 982f 783d 6708 8e37 a196 3a3c
000003a0: 6470 cbbb 7fdd 6c37 3d45 153d 973b c0bc
000003b0: 4bd0 19bb 0b87 2d94 96d4 0f00 0c63 c1bd
000003c0: 5262 b23c 4fe9 81bb 5697 d1bc 77b6 31ba
000003d0: 0076 c6bb c0b6 a7ba 0961 473b d41d 1e3b
000003e0: 6b0e bd3c 456b a4ba a435 123a b594 6fbb
000003f0: e743 c62b e5c0 7ab0 5571 45bb 2470 22bb
0.00046128297 0.0060021887 -0.16385005 0.0018143455 -0.075882144 8.1723465e-06 -0.094144635 -0.045905493
0.08655362 0.039613962 0.07486156 -0.022640062 0.0063953116 -0.006637192 0.006000572 0.003941879
0.0014693392 -0.016858434 -0.001791049 -0.0043873996 -0.08319031 0.018786997 0.04947264 6.72944e-40
-7.48383e-40 1.3211266e-07 0.034096953 0.0011846018 0.0064188302 0.04074341 -6.494036e-28 0.0053202393
-0.0051583378 3.970714e-10 -0.046514988 -0.037632078 -0.0050869086 -1.4107173e-15 -2.21594e-40 -0.016602658
-0.06594965 -0.00038167046 0.01227173 0.0026652913 -0.025109202 -0.0030398236 0.0037252542 -0.0017625163
0.06587538 -0.006738024 0.01552979 0.0030039633 8.954156e-33 7.173194e-05 -0.002878849 0.0039355448
0.04597769 -7.597348e-09 4.08628e-40 0.00035430078 -0.06464677 -0.082672164 -1.47927e-40 0.0072163744
0.008684648 -0.05122314 0.0050743367 -0.017792273 -0.0044725495 -0.015309131 -0.0025211389 -0.014423164
-0.019520016 0.003214329 0.00023014664 0.0019310161 0.034531604 4.76276e-40 0.021098882 -2.15642e-40
-1.149959e-39 -0.0020808154 -7.494604e-39 0.084875025 0.05186185 0.0044696257 2.2156046e-06 0.004878318
0.07660681 -0.031721283 -0.0020344516 0.010971949 -1.4194751e-11 0.008527958 -0.041824777 0.09403086
0.009547796 -0.0019704413 0.008309444 -6.2623534e-05 0.005444043 0.014019423 -0.3228552 0.006935488
0.03894396 0.0012183338 -0.12862559 -0.10285209 0.06176934 -0.060573198 -0.038090415 -0.07367211
0.007850351 -0.0074503305 0.014900615 0.005163236 0.00071589014 -0.02021668 -0.0038335002 -0.0050334437
-0.07146176 -0.02878312 0.0018887977 6.49664e-40 1.460018e-39 2.3704022e-08 0.017395573 0.0004268494
0.006868783 0.007897762 -9.150861e-11 0.006726039 -0.004631619 0.00013529893 0.045802422 0.084297076
-0.0042595896 1.6680552e-08 1.0830139e-22 0.004850405 0.05009583 -0.003691116 -0.01285524 0.002882559
0.08821317 -0.0062934305 0.0077159246 8.8926755e-10 0.051391285 -0.0095792 0.104758255 0.009223931
7.840811e-09 0.00013961212 -0.0025083832 0.004599707 0.06160103 -0.00011774941 8.61834e-40 0.008484274
-0.105661385 -0.1426182 -1.114101e-39 0.009946246 -0.00027599777 -0.15582287 0.0057799774 0.101928756
0.0044201994 -0.1073027 0.004262473 -0.0032998393 -0.010489707 -0.008515956 -0.000406323 0.0010233448
-0.26446363 2.8855954e-10 0.0004928627 -0.0038696947 -6.31498e-40 1.1853035e-12 -1.56965e-40 0.032600287
-0.090675294 -0.0005411128 0.00047314292 0.005541338 -0.17658982 -0.028300926 -0.0056910943 0.012985357
1.23190144e-23 0.018020498 0.06851586 -0.030025158 -0.08574606 -0.0002435334 0.0048086685 -0.0013035098
-0.006198108 -0.022058498 -0.30112654 -0.0020526801 -0.023701865 0.00049463403 0.040589146 -0.098212615
-0.047236253 -0.093154065 -0.00057953 0.028400622 0.0030492735 -0.005848593 0.03067945 0.0038676362
-5.437085e-05 -0.021073228 0.007619315 -0.0076294416 -0.07593696 -0.046639234 0.0007824713 -1.948e-42
-1.6497e-41 0.00077955 -0.0024836357 0.0056267614 0.0022449775 0.060592264 1.6931632e-05 0.011388452
-0.0062084664 1.4118267e-05 0.036442984 -0.023465915 -0.00234701 -8.7609005e-27 1.453794e-39 -0.0944272
0.021775398 -0.00396458 -0.025584858 -0.00067792035 -0.006056547 -0.0012795553 0.0030422828 0.0024126666
0.023078164 -0.0012544176 0.0005577451 -0.0036557142 1.4087593e-12 -9.122359e-10 -0.0030127366 -0.002478608

encoder.2.bias f4 [10]
00000000: 566f 543d 3a46 903d 77d8 63bc 5a52 b73d
00000010: d240 3cba 7c76 fe3b f34f c13d b04d 93bc
00000020: 4b9d fb3b ed6a 863d
0.05186399 0.07044645 -0.01390659 0.08951254 -0.000718129 0.0077655893 0.09439077 -0.01798138
0.007678663 0.06563363

decoder.0.weight f4 [100, 10]
00000000: 4293 45be daf4 6c3d ba61 923e b602 03be
00000010: 7974 34be 89ac 973e 2b89 3abe 8fa3 7cbe
00000020: f3b8 083e f702 40be 82d9 2e3e 9639 c53e
00000030: 4ba2 11bf b7b4 a7bc 9696 6dbd 8b57 b43e
00000040: a8dd b03d 840d 07be 6b37 bd3b 0ddd 813e
00000050: fdcb 1c3b 71e9 373b b2d3 a73a db6c 923b
00000060: 5866 20ba 046a 5cbb 6fd7 903b c272 993b
00000070: d1b4 bf3a 1354 923b 8b56 1cbe 6d87 263d
00000080: f78d 8ebe c8e8 8c3d 9396 8b3d 9c58 97be
00000090: c018 253e 3db5 a7be 7df5 acbd c077 853d
000000a0: ead9 97be 878d 7c3e 4f5e 87ba 86de 5f3e
000000b0: 01ac 823e 01b2 823c 6f9f 433e 8aef 9dbe
000000c0: 27a3 fabc 4c9f 23be 910a 44bd f390 35bd
000000d0: 9ab8 0d3d aedc 63be 8055 4bbe f0fb 41be
000000e0: b05c 1f3e 24b4 ddbc f4a0 903d fbaf c5bd
000000f0: 7ed0 0700 383e 558f b970 0680 d5b1 3438
00000100: 0a56 3128 ab13 0600 113f 9137 a18b 3639
00000110: 3745 991f 1fb2 6c37 b295 5d3e bd70 9f3e
00000120: f766 953e d252 803e 266b 86be f0b4 bebc
00000130: f619 c5bd dda5 95be a7f8 7dbb 5e42 0bbe
00000140: a062 0180 cfdd 2620 e4a9 4300 29bb 5d38
00000150: a73c 5023 23c0 f129 a342 e237 ce2c 3739
00000160: 96dc 0100 e39a dfb7 e70e 853a 151f d33b
00000170: e3af 843c 3a9b f23c 00a3 4937 b7c8 30bc
00000180: 7b85 f03c abd9 f63c f73d 06b6 ab2c f03c
00000190: f180 333e 116e 2d3e 4f88 2abe d3d9 26be
000001a0: 31c3 023e 47da 6c3d 7485 48be 8802 993e
000001b0: bc3f c63c b5f7 7bbe b2e1 333b 57db 24be
000001c0: b4e7 6b3e 9373 7ebe 54f5 da3d ecc2 95bd
000001d0: 3109 fc3d a279 d03d 248e a53d 4eb7 4dbd
000001e0: 8526 a93c b21b 8a3c 5676 e73c 756a e83c
000001f0: a099 da3c 52cf f93c 70cb bd3c f209 bd3c
00000200: 3540 843c 6d15 bc3c 789b f0bd 0153 853e
00000210: 8478 7a3e cde5 4cbe 6aa5 71bd b42b 173d
00000220: 19fe 87bd 99c2 3cbe 95b3 3cbe 8764 f6bd
00000230: 5649 463b 8f31 4c3b 295f ab3b 3f49 9a3c
00000240: ee17 1339 b7be 5bbb 08aa 9a3c 6783 a43c
00000250: 301a 7ab1 4f2e 9d3c de7a 713c 30d7 1e3c
00000260: 042d 4e3c 7872 9c3c fa26 093c 3641 5fbc
00000270: c054 9f3c 1301 a23c b52e 543c 82cd a03c
00000280: ba4c cc3b 57ac b73b 3afc b83b 0dd4 0a3c
00000290: 0a6e 2339 7ff8 e3ba 5387 053c 30c7 203c
000002a0: 3bb4 b03b ee76 083c 8a12 85bc 3bf0 8d3e
000002b0: c516 9f3e 7198 2e3e 0edf 203d 7f1a 5abe
000002c0: 2db2 e33d 4bcc 6c3e 61ee ec3d c293 5b3e
000002d0: a124 2021 c387 8b2d 7e90 8a29 a490 3138
000002e0: 108a f7a8 8c91 1bb5 d86c 0d37 d65e 9038
000002f0: 1ea9 0400 c94a a636 a1ef 3b3b d202 cd3a
00000300: d5b1 4a3b 5b04 ef3b 77fa cd38 63e2 e237
00000310: adc2 ec3b bc28 bc3b 018c 2d3b 14bf 123c
00000320: 03d0 58be 1dd0 a3b9 ec5c 313f 031d bb3d
00000330: 1b84 fe3d 143f 4b3e 4cdf 2fbe 7d52 703e
00000340: 77a7 2e3e 88f0 0b3d 5482 04be e85f 1dbe
00000350: efb3 5bbe b717 89be 4638 49be 56e3 4dbe
00000360: 1bd0 75be 545f 513e a1f2 533d 4dd3 89be
00000370: 122b 143d a334 273d 1cb1 263d aec5 2b3d
00000380: 30b3 d43c e3b1 02bd 4bac 2a3d 6502 2b3d
00000390: 6026 bd3b 770e 2a3d 426a 963e 1596 193e
000003a0: 3568 933e 2764 1d3e 81f5 db3d 4277 7dbd
000003b0: 5ceb 83bd cb9d 30be 98e8 3e3e a74e 2cbe
000003c0: f801 71be 26df d1bd 24b0 bbbd 67dd bc3d
000003d0: 5782 403d d4f1 573e 7176 91be 429a 59be
000003e0: 0cb0 54bd f47f 9a3e dab4 843e 5078 163d
000003f0: 4b99 853e 0012 a0be 3d44 763e 4a34 6fbe
-0.19294456 0.057850696 0.28590184 -0.12794003 -0.17622556 0.2962382 -0.18216388 -0.24671768
0.13351803 -0.18751131 0.1707516 0.38520497 -0.56888264 -0.020471914 -0.058004938 0.3522304
0.086360276 -0.1318875 0.0057744286 0.2536396 0.0023925297 0.0028062726 0.0012804179 0.004468543
-0.0006118766 -0.0033632526 0.004420213 0.0046828697 0.0014626031 0.004465589 -0.15267389 0.040656496
-0.27842686 0.06880337 0.06815829 -0.2955979 0.16122723 -0.3275546 -0.08445261 0.06516981
-0.29658443 0.24663363 -0.0010327789 0.2186223 0.25521854 0.01595402 0.19103788 -0.30846816
-0.030595375 -0.15978736 -0.04786164 -0.044327687 0.034599878 -0.22252151 -0.19856834 -0.18943763
0.15562701 -0.027063437 0.07061949 -0.09652706 7.17641e-40 -1.0513694e-29 -5.9145e-40 4.3080963e-05
9.8441305e-15 5.58069e-40 1.7314715e-05 0.00017408888 6.491253e-20 1.4108168e-05 0.21639135 0.311407
0.29180118 0.25063187 -0.26253623 -0.023279637 -0.09624092 -0.29228106 -0.0038752945 -0.13599536
-1.27215e-40 1.4134137e-19 6.213924e-39 5.2864812e-05 1.1288546e-17 1.07358804e-13 2.697233e-05 0.00017468931
1.70967e-40 -2.6655796e-05 0.0010151536 0.0064429143 0.01619715 0.029615033 1.2018485e-05 -0.010790042
0.029360523 0.030133089 -2.0003624e-06 0.029318174 0.17529656 0.16936518 -0.1665356 -0.16294031
0.12769772 0.057825353 -0.19582158 0.29884744 0.024200313 -0.24606211 0.0027447757 -0.16099297
0.23037606 -0.24848776 0.10691324 -0.07312569 0.123064406 0.101794496 0.08083752 -0.05022364
0.02064825 0.01685891 0.02825467 0.028371075 0.026684582 0.030494366 0.023168296 0.023076031
0.016143898 0.022959435 -0.11748403 0.2603989 0.24460036 -0.20009537 -0.05899564 0.036906913
-0.06640262 -0.18433608 -0.1842788 -0.12030893 0.0030256114 0.003115747 0.00522985 0.018833755
0.00014027927 -0.0033530423 0.018879905 0.020082189 -3.6394674e-09 0.01918712 0.0147387665 0.009694859
0.012583975 0.019097552 0.008371109 -0.013626387 0.019449592 0.019775903 0.012950589 0.019629244
0.0062347325 0.0056052613 0.005645302 0.008473408 0.00015585884 -0.0017392783 0.00814994 0.009813115
0.005392579 0.008329136 -0.016244192 0.27722344 0.3107206 0.1705034 0.03927522 -0.2129917
0.11117969 0.23124807 0.11568905 0.21443084 5.4258587e-19 1.586276e-11 6.1534965e-14 4.2334796e-05
-2.7482384e-14 -5.79538e-07 8.429597e-06 6.88412e-05 4.2801e-40 4.9558917e-06 0.0028676766 0.0015641099
0.003092875 0.0072942204 9.8218145e-05 2.7046719e-05 0.0072253556 0.0057421606 0.0026481154 0.008956689
-0.211731 -0.0003124484 0.6928241 0.09136393 0.12427541 0.19848281 -0.17175025 0.23468967
0.1705607 0.034164935 -0.12940341 -0.15368617 -0.21455358 -0.26775905 -0.19650373 -0.20106253
-0.24005167 0.20446521 0.05174506 -0.26919022 0.036173888 0.040821683 0.04069625 0.04193657
0.02596435 -0.031907927 0.041668218 0.04175033 0.005772397 0.0415177 0.29377943 0.14998658
0.2879044 0.15370236 0.107401855 -0.06188131 -0.064413756 -0.17247693 0.18643415 -0.16826878
-0.23535907 -0.1024764 -0.091644555 0.09221917 0.0469993 0.21088344 -0.28410676 -0.21250251
-0.051925704 0.30175745 0.2591923 0.036735833 0.26093516 -0.31263733 0.24049468 -0.2335979

decoder.0.bias f4 [100]
00000000: 6665 3ebe 523d 1a3e 978c 5fbb 0e2d 303e
00000010: 9a81 d23d 77bd 923e 1d96 899d 9cfa 053e
00000020: 35e5 deb4 f86c d6bc 17ae b83d 2591 6e3d
00000030: 3811 b9bc 753b a1be 1fe3 89bc f711 a9bc
00000040: c6cd 08bc e786 883e d62c 72b4 785f b8bb
00000050: 6153 95be 4556 603e dbb4 30bd 947c 25be
00000060: 20d0 373e ada1 07bd 92ac 003d f7a1 953e
00000070: 6330 1abd 8b56 efbd 22d3 023d 4b71 e0bb
00000080: 4e0d 993e c4d4 7b3d 9028 aebc e1d8 b73b
00000090: b4c9 ce3c 53d2 bcbc 8e4b 58be e865 9ebc
000000a0: 9c60 f9bd 3b63 9dbe 665a 89bc f9eb 0480
000000b0: 6fb5 473e f392 38be 5ef0 01bd 45aa ad3d
000000c0: ec27 37be 1401 46be 1e94 be3d 3a83 ff3d
000000d0: 1c31 473e 9953 37bd 90c1 3a3d cb32 66bb
000000e0: 181a 773e 0d8e d5bb fb7c 90bb cb5c f0bb
000000f0: d1d4 48be 93e0 abbc f1f0 b4ba e4e1 5e3e
00000100: 117e 65bd df4c 5dbe 9398 61be 1239 ce3d
00000110: ed40 bb39 d8b0 30bd a170 21bd a311 b7bc
00000120: f422 d4bd caa5 25bd a4d1 d73d 1912 f6bc
00000130: 7254 60be 2aab 24be 4e7c 8fbb 124e 8ead
00000140: f744 a9bb 61ca 253d d54e 873e 4e9b 823e
00000150: a202 d4bb e634 783d 79db 66bb 194c 8abe
00000160: 3c66 cabd e620 15bc 58d9 2b3e c5b4 0700
00000170: bcfa 9abc 3e72 30bd f114 c6bc e72a 44be
00000180: f024 1f3e 2b8a bb3d 2e22 82bc ad8b a03e
-0.18593368 0.15062454 -0.0034110898 0.17204687 0.10278626 0.28660175 -3.641881e-21 0.13083881
-4.1517492e-07 -0.026175007 0.0901758 0.05824389 -0.022591218 -0.31490675 -0.016831933 -0.02063845
-0.008349841 0.26665422 -2.2554318e-07 -0.005626615 -0.29165176 0.21907909 -0.043141227 -0.16160804
0.17950487 -0.03311317 0.031414576 0.29225132 -0.0376438 -0.11686429 0.031939633 -0.006849443
0.29892963 0.061482206 -0.021259576 0.005610571 0.025242664 -0.02304951 -0.21122572 -0.019335702
-0.1217663 -0.3073977 -0.016766738 -4.51993e-40 0.19502805 -0.18024807 -0.031723373 0.08479742
-0.17886323 -0.19336349 0.09305595 0.12476201 0.19452327 -0.04475746 0.04559475 -0.003512549
0.24131048 -0.006517178 -0.00440943 -0.0073352805 -0.19612433 -0.020981109 -0.0013804716 0.21765858
-0.05602843 -0.21611355 -0.22030859 0.10069479 0.00035715793 -0.0431374 -0.039414052 -0.022347277
-0.10358229 -0.040441312 0.10538033 -0.030037927 -0.21907213 -0.16080919 -0.004378832 -1.6178201e-11
-0.005165692 0.040476207 0.26427332 0.25509113 -0.0064700404 0.060597323 -0.003522603 -0.27011183
-0.09882781 -0.009102082 0.16782129 7.07696e-40 -0.018918388 -0.0430777 -0.024179908 -0.19156991
0.15541434 0.09157213 -0.015885439 0.31356564

decoder.2.weight f4 [100, 100]
00000000: d991 433c dbf2 dfbd b77b 0000 c67b e33d
00000010: fe7a a8bd e47c 96ba 8d32 3f2a 4d88 973e
00000020: ff82 c91b 5e9b 3895 276a d73d 409e ab3d
00000030: ad0b 0438 4803 5a3c a8fc 9cbc 73cc beba
00000040: 7c54 7cbb 705e 8bbc a103 0280 6cd6 c33a
00000050: 4484 ef3b c88d d73d a06d 12bd 2800 d73d
00000060: 9c6c 5a3d d96c 2c3d 25a0 d8bc a6bc c4bd
00000070: f448 9abb db39 b73d deb3 11be 79c0 4538
00000080: 24fa b9bc 1157 613d 01e2 96ba e39f 513d
00000090: 2181 cebc 7609 7abc b403 8e3d 1b13 0880
000000a0: b768 8fbc 1363 2f3e 5ffa a43c e140 0f00
000000b0: 9fb9 713d dd87 2f3d 0890 19b3 579e 8dbc
000000c0: a618 a9bc 1c78 0b3e 24d1 bf3d fce1 803d
000000d0: d167 1cbd 5b85 403c 1b02 893d 7939 0da0
000000e0: 355b 723d a14f b539 8e9b a43a 1a43 0e00
000000f0: 5f06 ab3a ef61 e1bd b687 1a32 2592 113e
00000100: 1cd1 983d a0b5 b53a 799f b6bb 355f e03b
00000110: 72c4 74bd db83 013d 7978 83bc 83ea acbc
00000120: 0eb2 aa3d 9673 213e 9130 153d 88e0 b039
00000130: a958 33bd 226d c33d 7fa6 e5bb f577 0580
00000140: 079a 623a e806 5e3c 260e 9dbc 63e1 333d
00000150: 8041 4f3c 77be 85bd 7c2f 2039 334c 383d
00000160: e34e 043e cb5b a83d 4d93 e13d 92af 0f00
00000170: 9544 c33c b63d 0abb e3ed 0e3e 6c63 1bbe
00000180: 6fc1 0f3d 88d9 9bbd 0e85 753c c830 0ebe
00000190: 50ea 7dbd e124 a4bd bf86 0180 d411 b33d
000001a0: 841b e9bb bab0 3a3e b766 a22a f43f a73e
000001b0: 00c4 2990 57e7 f616 10e1 f13c f27b dbbc
000001c0: e034 3238 5798 3abd 6c8b bdbc ba36 18bb
000001d0: 1a34 90bb 1e2f c2bd 9ae4 0200 00d7 873a
000001e0: 50e6 423b 4c36 9f3d 1b7f 12bd d7c7 a73c
000001f0: b8e7 c6bd 75eb 243c e7f4 95bd f1d5 b2bd
00000200: 9d95 28bc caea 813d 5104 c7bd ab8e 56ba
00000210: 4dd4 0fbd 4da2 87bd bfe4 0b3a bef7 1dbd
00000220: d4c4 e9bd fa1b dfbb fbf7 c33d ac94 0900
00000230: 7844 ab3d ced5 5b3e 5871 373c accb 0100
00000240: 31cf 5e3c 443e da3d b699 9daf eab4 3e3b
00000250: eb3c 0a3c 626c 083e 684e 343d 1891 283d
00000260: 7e8e f93c 0a0c b23c caf4 df3c 57cf d39f
00000270: a9ff 873d 1e19 823a 7d8e 8b39 7355 0400
00000280: c23a 0d3e be25 e3bd 668d 5035 7872 663e
00000290: 92a3 50bc 2d72 9d3d 8783 bc3d b26b b03d
000002a0: 81eb 053d c17e 013d 3a4f 5ebc a551 ce3d
000002b0: 6a88 33bd df8b 1a3e 5b6f e3bc c8f4 b9ba
000002c0: 8b46 94bb e412 b13b a73e 06bc 5c66 0400
000002d0: 06f4 943a 7d2c 0b3d 33b8 15bd deb8 f53c
000002e0: b1dc 523d ce68 3d3d 7dca d537 23c4 cc3d
000002f0: 5234 833c c7e2 eebc e241 1e3d 92e7 1480
00000300: 4e75 dc3c 9724 50bc 5680 6c3d 049f 0fbe
00000310: 21ef fa3a 5af0 8bbd 6eab 41bd 55b6 30be
00000320: 7260 80bd 8ee1 cdbd 7265 0700 e3f7 253e
00000330: 8848 313b 11d4 00bc 194a 0e2c 55b0 943e
00000340: f86e de18 a32e 3f95 6550 ed3c d5ec 453d
00000350: 0b1d 8738 509d f13d e632 99bc 9da0 29bb
00000360: 3732 14bb da6b a5bd 0606 0000 cdac 88ba
00000370: a093 683c dc01 6e3d f538 19bd b145 2abd
00000380: 78ef 403d 1c0f 923d 26ef ae3d d54b a93c
00000390: b3e0 e0bb 9f6a b23d 3dda 353c d705 f23a
000003a0: 8d41 10be d6a3 20be 805e 193a 9435 cf3d
000003b0: 5627 97bd e829 8bbc cb5c a73c e651 0900
000003c0: b36d 62bd eeed 623e 0b50 a63c 4133 0300
000003d0: 52eb 28bd 792e 243d fe93 9eb4 4904 5d3d
000003e0: 1d02 c73d 6042 7a3d d788 26bc 1dde 683d
000003f0: 47cf b2bd 1129 8b3d 9d2f 043d c756 a19d
0.011936628 -0.10934993 4.438e-41 0.11107592 -0.08226584 -0.0011481312 1.6981746e-13 0.29596177
3.3337315e-22 -3.7281067e-26 0.10518294 0.08379793 3.1482126e-05 0.013306446 -0.019163445 -0.001455678
-0.0038502505 -0.017012805 -1.84973e-40 0.0014941222 0.0073094685 0.105250895 -0.035749078 0.10498077
0.053326234 0.042095993 -0.02644355 -0.09606294 -0.0047084037 0.08946582 -0.1422877 4.7147714e-05
-0.022702284 0.055014674 -0.0011511446 0.05117787 -0.025208058 -0.015261045 0.069343 -7.41538e-40
-0.017505987 0.17127638 0.020138917 1.400807e-39 0.059014913 0.04285418 -3.5754084e-08 -0.017287416
-0.020641636 0.13620037 0.09366062 0.06293103 -0.038184945 0.011750544 0.06689855 -1.1962181e-19
0.059169013 0.00034582338 0.0012558566 1.309768e-39 0.0013048163 -0.110050075 8.994837e-09 0.14215906
0.074617594 0.0013863333 -0.00557321 0.006847287 -0.059757657 0.031619888 -0.016048657 -0.021107918
0.083347425 0.15766749 0.03642327 0.00033736625 -0.043785725 0.095423 -0.0070083733 -5.0221e-40
0.00086441677 0.013551451 -0.019171786 0.043916117 0.012649894 -0.06530469 0.00015276478 0.044994544
0.12920718 0.08220633 0.110144235 1.440515e-39 0.023836413 -0.0021093911 0.13957934 -0.15174645
0.035096582 -0.0760985 0.014985336 -0.13885796 -0.061991036 -0.080148466 -1.40173e-40 0.08743635
-0.007113876 0.18231478 2.8848254e-13 0.3266598 -3.3480366e-29 3.988944e-25 0.029526263 -0.0267925
4.248775e-05 -0.04555544 -0.02313777 -0.002322598 -0.0044007422 -0.09481643 2.65678e-40 0.0010363758
0.0029739328 0.07774028 -0.03576575 0.020481033 -0.097121656 0.010065903 -0.07322102 -0.08732212
-0.010289577 0.063436106 -0.0971762 -0.00081847113 -0.035114575 -0.06622753 0.0005336515 -0.038566343
-0.11414495 -0.006808755 0.09568783 8.79853e-40 0.08362669 0.21468279 0.011196457 1.64899e-40
0.013599203 0.106564075 -2.8667352e-10 0.0029099532 0.008437376 0.13322595 0.044020087 0.041153997
0.030463453 0.021734256 0.027338404 -8.970499e-20 0.0664056 0.0009925698 0.00026618308 3.97995e-40
0.13791946 -0.11091183 7.76918e-07 0.22504604 -0.012734311 0.07687793 0.09204774 0.08614291
0.032695297 0.031615023 -0.013568694 0.10074166 -0.043831266 0.15092419 -0.02776306 -0.001418733
-0.004525011 0.0054038633 -0.008193648 4.04062e-40 0.0011364229 0.033977974 -0.03655262 0.029995378
0.05148 0.046242528 2.548587e-05 0.099983476 0.01601616 -0.02916087 0.03863705 -1.919782e-39
0.026911404 -0.012704036 0.05773958 -0.14025503 0.0019144752 -0.06832953 -0.04728263 -0.17257054
-0.062683955 -0.10052787 6.7924e-40 0.16207843 0.0027051289 -0.007863061 2.0220546e-12 0.2904078
5.7497705e-24 -3.8608933e-26 0.028969 0.048321564 6.442711e-05 0.11797583 -0.018701028 -0.0025883086
-0.0022612938 -0.08077212 2.161e-42 -0.0010427475 0.014195353 0.058107242 -0.037407834 -0.04157037
0.047103375 0.07131788 0.08541708 0.020666042 -0.0068627237 0.087117426 0.011099395 0.0018464875
-0.14087506 -0.15687498 0.00058505684 0.10117641 -0.073805496 -0.016987756 0.02042999 8.55899e-40
-0.0552804 0.22161075 0.02030184 2.93893e-40 -0.041240044 0.040083382 -2.9537472e-07 0.053959165
0.097172 0.061098456 -0.010164461 0.05685245 -0.08730941 0.06794942 0.03227197 -4.270607e-21

decoder.2.bias f4 [100]
00000000: f99c 8a3d a803 c23d 4f6b d93d 7632 ef3d
00000010: 8b31 673d 7da7 eb3c 89d7 c83d 9286 f43d
00000020: f30c bd3d 164e d83c c815 f2ba 5a22 d93d
00000030: b371 d43c de28 603d ee7c 263d 086b ca3d
00000040: d23f fd3d dc39 ba3d a3f2 7c3d b152 d53d
00000050: f522 bd3d badc 293c 438e 0c3e 1e3c 25ba
00000060: d22c ec3c 5336 1d3e ef47 1f3e 42d4 243e
00000070: 84e6 2c3d 7944 443d 2944 de3d bce9 5c3c
00000080: 5b7b 1e3e 406f cd3d 133e 7c3d ff23 1b3e
00000090: ee9f 9d3d 4092 a03d 7093 973d ef02 233d
000000a0: 8e3d b13d 7deb ec3d 73dd e23d 1e0d fb3d
000000b0: 92f3 053e 49cd f13d e36d d73d 0049 0a3e
000000c0: e23a 043e 1e67 ad3c 70b8 e03d e475 a63c
000000d0: 9ecb fa3d 80d6 0e3e 3093 963d 058e 843d
000000e0: d812 4fbc ed05 de3d 2213 013e 3e3f 863d
000000f0: 522b 143e a60e c13d 083e e03d 2a17 353d
00000100: 98a5 8e3d 360f d53d 62b1 183e 069a 093e
00000110: 3571 d73d 31ef 443d c635 983d 2137 b83b
00000120: 85d3 7b3d 0674 cfbc f753 2c3d 3e29 ac3d
00000130: fa4c e73d 0c2d c43d ef78 17bc 8687 1b3d
00000140: 5c93 edbb b061 ebbb 627d 613c 63d0 bc3d
00000150: 0635 c23d d8d8 7f3c 3338 253c bdae a03d
00000160: fae7 d4bc 1ddd 893d f0ce 1cbd b141 e03d
00000170: 5bd6 b43c 64e7 783c 30e0 c4bd 2452 6abd
00000180: 8446 91bd 017e a13d 94d2 393d da44 e8bb
0.067682214 0.094733536 0.106161706 0.116795465 0.056443732 0.028766388 0.09806735 0.1193973
0.092309855 0.026404422 -0.0018469626 0.10602255 0.025933122 0.054726474 0.040646486 0.09883696
0.123656884 0.09093067 0.061754834 0.10416163 0.09235183 0.010367567 0.13726144 -0.00063032086
0.028829966 0.15352754 0.15554784 0.16096595 0.042212024 0.047916863 0.10852844 0.013483461
0.15476744 0.10030985 0.061582636 0.1515045 0.0769652 0.07840395 0.07401168 0.03979772
0.08654319 0.11568353 0.11077394 0.12258361 0.13081196 0.11806733 0.10519006 0.1350441
0.12913087 0.021167334 0.10972679 0.020319887 0.12245868 0.13949013 0.073522925 0.064724006
-0.01263877 0.10840974 0.12604955 0.06555031 0.1446965 0.09426622 0.109493315 0.044211544
0.06965178 0.10403292 0.14911416 0.13437662 0.105196394 0.048079673 0.074321315 0.0056218063
0.061481018 -0.025323879 0.042072263 0.08406304 0.11293979 0.095789045 -0.009245141 0.037971042
-0.0072502326 -0.007183276 0.013762804 0.09219434 0.0948277 0.015615664 0.0100842 0.07845829
-0.025989521 0.06731627 -0.03828329 0.1095003 0.022074869 0.015191887 -0.09613073 -0.05720724
-0.07093528 0.078853615 0.04536684 -0.007088286
