Detectors/Deep_Learning/AutoEncoders/models/Trained_RDA_Detect/cnn_lstm_ae_Train_X.pt (torch, 125861 bytes, 11 tensors)

encoder.cnn.weight f4 [8, 1, 16]
0.16030401 0.0020259987 -0.09782797 -0.020728348 -0.15496312 0.09612671 0.023925418 0.072434016
0.074100524 0.16699669 0.017530857 -0.035369817 -0.0126014445 -0.055187017 0.09323216 0.115197405
-0.14776856 0.039812163 -0.19524358 0.16202743 -0.102113284 -0.12957661 -0.21130522 0.0002464356
-0.08373209 0.05281852 -0.16903634 -0.12469854 -0.026097 0.08354917 0.1341013 0.24873029
0.037995625 0.09161553 0.04479795 0.08107802 0.10887537 -0.033354815 -0.24876863 -0.20021501
0.03886515 -0.18146916 -0.047252335 -7.6084885e-05 -0.26462528 -0.035577293 -0.26321548 -0.08483145
0.22786476 -0.21316732 -0.20895593 -0.006358442 -0.08759623 -0.17790507 0.18673427 0.1783217
-0.1961311 0.09493362 -0.0628749 -0.09649531 -0.14575996 -0.04460324 0.059267096 -0.18112734
-0.17544618 0.035265133 -0.16990945 -0.028991532 0.031665467 -0.016282724 -0.15358591 -0.1841205
-0.0059868745 0.120208815 -0.22446339 -0.1503327 0.07691605 -0.048918385 -0.085161634 0.07301434
-0.15470593 0.08001783 0.13710566 -0.16495188 0.19387747 -0.00087797403 -0.27089345 -0.12973353
0.06731417 -0.12989223 0.112938315 -0.14030588 -0.20107079 -0.16431879 0.00081781566 -0.045093134
0.12264341 -0.043821644 0.24920048 0.014506638 -0.065365754 -0.24823833 -0.14505292 0.17282304
-0.07929922 -0.23884618 -0.23753147 0.19471988 0.14436705 -0.22729114 -0.23569322 -0.224994
-0.2459636 0.105275005 0.0026793787 -0.28707287 0.11831527 0.088544294 -0.15845296 0.07134013
-0.07298229 -0.16007495 0.030780977 0.06990589 -0.13376877 -0.1734639 -0.042480078 -0.07421586
00000000: bc26 243e 9ec6 043b 085a c8bd 7fce a9bc
00000010: a7ae 1ebe 15de c43d 3dff c33c 4958 943d
00000020: 04c2 973d 2e01 2b3e df9c 8f3c f1df 10bd
00000030: 4a76 4ebc c80b 62bd 81f0 be3d 9eec eb3d
00000040: a450 17be 1412 233d efed 47be 85ea 253e
00000050: c520 d1bd bbaf 04be 6560 58be 0734 8139
00000060: bb7b abbd 3c58 583d dd17 2dbe f361 ffbd
00000070: 60c9 d5bc d41b ab3d da51 093e 27b3 7e3e
00000080: 4da1 1b3d eca0 bb3d 0e7e 373d 3c0c a63d
00000090: 0dfa de3d 0f9f 08bd 34bd 7ebe 2a05 4dbe
000000a0: 1031 1f3d 0dd3 39be aa8b 41bd c38f 9fb8
000000b0: f77c 87be 7fb9 11bd 2ec4 86be 1cbc adbd
000000c0: 6155 693e 8948 5abe 8bf8 55be 7a5a d0bb
000000d0: a765 b3bd bf2c 36be 4537 3f3e f799 363e
000000e0: 97d6 48be 8f6c c23d 8ec4 80bd 559f c5bd
000000f0: 1942 15be e3b1 36bd 0ec2 723d 7279 39be
00000100: 2aa8 33be 2c72 103d befc 2dbe a67f edbc
00000110: a6b3 013d 5963 85bc a045 1dbe 168a 3cbe
00000120: 8b2d c4bb 0a30 f63d bbd9 65be d1f0 19be
00000130: 2986 9d3d a55e 48bd 3969 aebd 8b88 953d
00000140: 3b6b 1ebe 63e0 a33d 6d65 0c3e 25e9 28be
00000150: d187 463e d727 66ba 8cb2 8abe ded8 04be
00000160: 03dc 893d 7802 05be 344c e73d 58ac 0fbe
00000170: 80e5 4dbe 2f43 28be ae62 563a 94b3 38bd
00000180: 782c fb3d 537e 33bd 692e 7f3e 40ad 6d3c
00000190: 7bde 85bd 3032 7ebe c188 14be 86f8 303e
000001a0: a167 a2bd 1894 74be 733b 73be a664 473e
000001b0: f5d4 133e 02bf 68be 9059 71be d464 66be
000001c0: e2dd 7bbe 6c9a d73d 8498 2f3b 37fb 92be
000001d0: 474f f23d b656 b53d 7e41 22be c61a 923d
000001e0: bd77 95bd b0ea 23be 6328 fc3c d22a 8f3d
000001f0: aefa 08be 85a0 31be 97ff 2dbd 7cfe 97bd

encoder.cnn.bias f4 [8]
0.16006146 0.0069338363 0.23536994 0.021153424 -0.23910129 0.082821585 0.060132504 0.098040685
00000000: 27e7 233e 3c35 e33b d104 713e f249 ad3c
00000010: f8d6 74be 5d9e a93d 804d 763d 8ec9 c83d

encoder.rnn.weight_ih_l0 f4 [128, 8]
0.029203977 -0.058907278 0.042005677 -0.04607352 0.19838753 -0.06863709 0.16876419 -0.028017044
0.045079805 -0.013950035 0.059394065 0.22575215 0.17718597 -0.009993784 -0.09978196 -0.1302697
0.17576444 -0.031039404 0.123994716 0.1682644 -0.019202052 -0.11292421 0.04792756 -0.05905216
0.12283438 0.12713435 -0.11262689 0.2362695 0.15740123 -0.08132762 0.13487308 0.002604082
0.02130147 -0.112517774 -0.050700173 -0.046387225 0.11653313 0.08308497 0.080386326 -0.2028876
0.14993553 -0.043566152 0.07653708 -0.026810661 0.04619503 0.20312276 0.22198579 -0.008243885
0.19591928 0.08356958 0.06430598 0.021292172 -0.17337158 -0.069678746 0.15014021 0.09771499
-0.1485531 -0.08858298 -0.019352317 -0.15181962 -0.10714674 0.054307077 0.08315086 -0.111858115
-0.18715875 -0.17751476 0.02769319 -0.041569162 -0.08173612 -0.22350131 -0.06765571 0.04819203
0.052808687 0.058773685 0.2261238 -0.033523813 -0.047088213 0.17318502 0.0070589404 -0.019835662
-0.0012723719 0.21448258 0.104884446 -0.055075683 0.16208342 0.0022315793 0.006050589 0.07723433
0.1518371 0.13251527 -0.0131183565 0.18726481 0.037474107 -0.044244878 0.05723822 0.23336682
0.019589705 0.10409855 0.13911283 0.17423545 0.0481669 0.090585984 0.08735556 -0.009964419
-0.0016667648 -0.010304746 0.15856868 0.018967895 0.16757584 0.14365098 0.104209594 0.0243143
0.08564324 0.039401036 0.13106973 -0.123656936 -0.10767354 0.118539624 0.024427906 0.016410923
-0.123909555 0.07965178 -0.14342959 0.021506447 0.019396951 -0.072102115 -0.039452214 -0.022869142
-0.17364055 0.073207 -0.061121628 -0.028867653 0.07151083 0.025011467 -0.03001038 -0.17957345
0.25197226 0.0070416024 0.066245414 0.111058846 -0.046564024 -0.062893 -0.028260428 0.15052958
0.032185156 -0.019248916 0.025278054 -0.15987836 0.024795324 0.007735199 -0.11133846 -0.17786622
-0.027649248 0.21630262 0.06215345 -0.08610411 0.07702627 -0.037338115 -0.0768344 -0.03805803
0.009621264 0.10010981 0.22419906 0.14155161 -0.022316601 0.16182564 0.009785861 0.08266881
0.17852585 -0.009664093 0.2296353 -0.058947533 0.12393768 0.011010336 0.1546173 0.2048115
0.056777142 0.22095771 0.3202463 0.07275924 -0.030170003 0.19270116 -0.04096851 0.119055554
-0.22669554 -0.25759134 -0.13371266 -0.02317365 0.013817262 -0.0450181 -0.28915825 -0.26096755
0.17621739 0.053741794 0.018712262 0.13300435 0.035343792 0.10019652 -0.03368155 -0.019162681
0.17101693 0.08329957 -0.052744716 0.037641466 0.037124094 0.11767481 -0.06338702 0.2701811
0.25691453 0.0069320574 0.20818195 0.08869873 -0.01945902 0.08232924 -0.04261281 -0.07648744
-0.10070643 -0.2055926 -0.053732425 -0.11500033 0.114977114 -0.02199836 -0.21810104 -0.18160167
0.06265612 0.00556012 0.13598503 0.025462048 0.18967234 -0.034519393 0.18538494 -0.07254725
-0.21584275 0.06722842 -0.18284172 0.07570103 -0.11804468 0.054550864 0.046178754 -0.05747207
0.089418516 0.26009563 0.029439317 0.03251984 0.12700675 0.10094058 0.14801627 -0.027246565
0.02287202 0.15703948 0.1394659 -0.17833267 0.124209456 0.032138318 0.17308305 0.1226814
00000000: 2e3d ef3c c248 71bd 250e 2c3d 96b7 3cbd
00000010: 1a26 4b3e 9a91 8cbd 85d0 2c3e 0084 e5bc
00000020: 9aa5 383d b08e 64bc 3147 733d 922b 673e
00000030: 3d70 353e f8bc 23bc 7c5a ccbd 6c65 05be
00000040: 98fb 333e 5946 febc f1f0 fd3d 814d 2c3e
00000050: 9f4d 9dbc cf44 e7bd b04f 443d ade0 71bd
00000060: 9790 fb3d 822f 023e eda8 e6bd a2f0 713e
00000070: ca2d 213e 188f a6bd 2b1c 0a3e 3fa9 2a3b
00000080: 6c80 ae3c b86f e6bd fcaa 4fbd 8800 3ebd
00000090: eca8 ee3d 7428 aa3d 96a1 a43d c4c1 4fbe
000000a0: b388 193e 6c72 32bd 79bf 9c3d 08a2 dbbc
000000b0: 0037 3d3d 6aff 4f3e 3e50 633e 5c11 07bc
000000c0: 109f 483e 8726 ab3d dbb2 833d ec6c ae3c
000000d0: 5288 31be bbb3 8ebd 5bbe 193e cc1e c83d
000000e0: 4e1e 18be fe6a b5bd c088 9ebc 9a76 1bbe
000000f0: c06f dbbd 1971 5e3d 004b aa3d de15 e5bd
00000100: 8ba6 3fbe 6ec6 35be d4dc e23c 6d44 2abd
00000110: 4465 a7bd 87dd 64be 148f 8abd 0265 453d
00000120: ec4d 583d adbc 703d ff8c 673e 4450 09bd
00000130: 92df 40bd 6a57 313e af4e e73b 667e a2bc
00000140: b7c5 a6ba 52a1 5b3e a8cd d63d 0a97 61bd
00000150: 32f9 253e b03f 123b 0544 c63b 082d 9e3d
00000160: 2f7b 1b3e 15b2 073e 60ee 56bc 59c2 3f3e
00000170: 737e 193d 1e3a 35bd a072 6a3d b6f7 6e3e
00000180: 977a a03c 9f31 d53d 9873 0e3e c76a 323e
00000190: a84a 453d 2585 b93d 79e7 b23d cd41 23bc
000001a0: 5977 daba 3dd5 28bc d45f 223e 8f62 9b3c
000001b0: 0099 2b3e 3e19 133e d76b d53d c82e c73c
000001c0: b965 af3d fb62 213d 2537 063e d93f fdbd
000001d0: f283 dcbd e7c4 f23d 081d c83c 3370 863c
000001e0: 4bc4 fdbd 7920 a33d 35df 12be 4a2e b03c
000001f0: 5be6 9e3c 46aa 93bd a598 21bd 1158 bbbc
00000200: d4ce 31be 8ded 953d ac5a 7abd db7b ecbc
00000210: 4574 923d d9e4 cc3c 54d8 f5bc 1ae2 37be
00000220: 8202 813e 3ebd e63b adab 873d d272 e33d
00000230: ebb9 3ebd 0cce 80bd 6a82 e7bc 6d24 1a3e
00000240: 95d4 033d e7af 9dbc ec13 cf3c 27b7 23be
00000250: 901f cb3c 8d77 fd3b 6b05 e4bd 9022 36be
00000260: ad80 e2bc 6f7e 5d3e 9e94 7e3d 5a57 b0bd
00000270: f3bf 9d3d daef 18bd 5b5b 9dbd bde2 1bbd
00000280: 82a2 1d3c 5f06 cd3d 7094 653e e8f2 103e
00000290: 4ed1 b6bc 9fb5 253e e054 203c 444e a93d
000002a0: 7bcf 363e 2556 1ebc 8425 6b3e f872 71bd
000002b0: 0ad3 fd3d b264 343c ff53 1e3e 1bba 513e
000002c0: 268f 683d bd42 623e 53f7 a33e cc02 953d
000002d0: 1527 f7bc 7453 453e 99ce 27bd 66d3 f33d
000002e0: e022 68be 03e3 83be f9eb 08be abd6 bdbc
000002f0: cc61 623c e664 38bd 8d0c 94be 8a9d 85be
00000300: 5572 343e 5b20 5c3d 754a 993c 4b32 083e
00000310: a7c4 103d d533 cd3d aaf5 09bd 0efb 9cbc
00000320: 101f 2f3e f798 aa3d d80a 58bd f02d 1a3d
00000330: 6f0f 183d 7eff f03d 0ed1 81bd 2d55 8a3e
00000340: 4d8a 833e 5026 e33b a62d 553e aea7 b53d
00000350: 8668 9fbc 3c9c a83d c58a 2ebd 72a5 9cbd
00000360: 2c3f cebd de86 52be 8816 5cbd 4b85 ebbd
00000370: 1f79 eb3d e835 b4bc e155 5fbe caf5 39be
00000380: da51 803d ab31 b63b a93f 0b3e c995 d03c
00000390: 7739 423e 3564 0dbd 8dd5 3d3e a793 94bd
000003a0: e205 5dbe 0eaf 893d dc3a 3bbe 2409 9b3d
000003b0: 69c1 f1bd ba70 5f3d ef25 3d3d d567 6bbd
000003c0: 0e21 b73d 412b 853e b92a f13c 8633 053d
000003d0: 0f0e 023e efb9 ce3d 9491 173e 3034 dfbc
000003e0: 1a5e bb3c f5ce 203e 26d0 0e3e d79c 36be
000003f0: 8761 fe3d 78a3 033d af3c 313e 6340 fb3d

encoder.rnn.weight_hh_l0 f4 [128, 32]
0.0045465142 -0.13399689 0.014896226 -0.38557234 0.058976956 0.14666614 -0.05866623 -0.37378255
0.31290153 -0.1530449 0.10221011 0.28851366 -0.031476513 -0.07768441 0.12618929 0.4578566
0.15457362 -0.1432946 0.23185119 -0.07244358 -0.24484955 0.018280746 -0.09053478 0.4687528
0.015651781 -0.19469738 -0.06135906 0.23668389 -0.09462489 -0.30292 -0.11474707 0.2669595
-0.24402367 -0.017987529 0.15497522 -0.07773704 0.017058915 -0.09884858 -0.009409473 -0.024040697
-0.014980752 0.043668333 0.03075946 -0.19548504 0.18002677 -0.16237365 0.30778575 0.03527193
0.09019856 0.25591427 0.05374388 0.04898524 -0.15407057 -0.013094473 -0.039481107 -0.0068040355
0.3871352 -0.07182466 -0.18144864 0.12970434 -0.03475192 0.13423939 0.17308705 0.10129387
-0.5934924 0.002583476 -0.21914369 -0.37131563 -0.10589947 -0.19651285 0.37029707 -0.3780665
0.30362484 0.097844906 -0.47187808 0.10770927 -0.32519773 0.06943562 0.5982546 0.13055441
0.0025899394 0.12743156 0.22029021 0.14843623 -0.18761453 0.022108532 0.116506875 -0.041302525
0.39885244 0.093978755 -0.40214717 0.11105464 -0.14144014 -0.18602179 -0.119513646 0.0365229
-0.16162926 -0.14891581 -0.15396695 0.009954005 0.13071007 0.04543449 0.3154068 -0.18755695
-0.10584117 0.36847237 -0.1392797 -0.05673599 -0.049659923 0.066023774 -0.017660659 -0.10003923
-0.53714305 0.03930518 0.16113515 -0.06285737 0.12048491 0.16788357 -0.22209476 -0.0857319
0.26894537 0.1292158 -0.23512413 -0.11584286 -0.14126872 -0.16141771 -0.122882254 0.1829994
0.4259974 0.12295523 -0.08967074 0.6067997 0.0801138 -0.26034856 0.36743516 0.40822276
0.24569456 0.24876016 -0.41550246 -0.08317041 -0.22015847 0.4204726 -0.3667957 -0.38549522
-0.40995264 0.22104053 -0.14699596 0.14881071 -0.046312954 0.2548184 0.14015654 -0.41043103
-0.18758696 0.01772433 0.08164151 -0.17950627 0.030781973 0.4212361 0.2024332 0.003187174
-0.26415688 -0.1408551 -0.057997137 -0.35244295 -0.099656366 0.084750086 0.15035015 -0.20530806
0.31159738 0.029185297 -0.20064701 0.00054238836 -0.2218528 0.14862543 0.3356208 -0.020501772
0.06803256 -0.13520546 0.17486903 0.16358525 0.12172221 0.107168205 -0.18887919 0.20153609
0.57209426 -0.05004088 -0.30784106 0.13012807 -0.15812358 -0.18334153 0.023674902 0.13553813
-0.34590968 -0.0021823244 -0.24836288 0.13487557 0.3962184 -0.21568768 -0.22145097 -0.04997787
-0.23451087 0.1506441 -0.1170479 0.23403251 -0.1485582 -0.03460802 0.21856372 -0.2217579
0.06454716 -0.16766468 -0.04148067 -0.1556127 -0.11946008 -0.27362347 0.16098781 0.12711306
0.17905033 0.008668333 -0.193954 0.004448649 0.07097464 -0.0013487899 0.027134381 0.07778005
-0.0023742237 0.06712588 0.09131431 0.14774373 0.12568592 0.031351093 -0.46713892 -0.024283974
-0.2704894 -0.08701972 0.345656 0.0055325143 0.083413094 0.17867291 0.009519728 -0.30101284
-0.4715765 0.32188132 -0.008115324 0.09011067 -0.014862015 0.19005148 0.15064009 -0.19391574
-0.118901476 -0.0989474 0.049862906 0.06750288 -0.04326124 -0.09257724 -0.03804665 0.008699898
00000000: edfa 943b 7b36 09be 4d0f 743c bd69 c5be
00000010: d291 713d a62f 163e 004c 70bd 6d60 bfbe
00000020: a134 a03e cdb7 1cbe 8953 d13d 10b8 933e
00000030: 84ed 00bd 0119 9fbd c437 013e 2e6c ea3e
00000040: 8c48 1e3e d2bb 12be 666a 6d3e 4d5d 94bd
00000050: d7b9 7abe 81c1 953c 4c6a b9bd 5e00 f03e
00000060: 2a38 803c c05e 47be a353 7bbd 435d 723e
00000070: b2ca c1bd 5518 9bbe 8300 ebbd eaae 883e
00000080: 57e1 79be 955a 93bc d3b1 1e3e 9934 9fbd
00000090: 23bf 8b3c 2071 cabd 312a 1abc fff0 c4bc
000000a0: d471 75bc 91dd 323d 43fb fb3c 3b2d 48be
000000b0: f058 383e 4745 26be 1896 9d3e 4d79 103d
000000c0: 06ba b83d 3207 833e 8b22 5c3d bfa4 483d
000000d0: adc4 1dbe 338a 56bc f1b6 21bd 63f4 debb
000000e0: 9636 c63e cf18 93bd accd 39be 37d1 043e
000000f0: 0758 0ebd 0d76 093e bb3d 313e 2973 cf3d
00000100: 1eef 17bf 894f 293b 3467 60be 151d bebe
00000110: d2e1 d8bd aa3a 49be 9497 bd3e ef91 c1be
00000120: b774 9b3e e962 c83d 019a f1be ae96 dc3d
00000130: 5180 a6be 4334 8e3d 3727 193f 0eb0 053e
00000140: f9bb 293b 6b7d 023e c293 613e abff 173e
00000150: 061e 40be f41c b53c 289b ee3d d62c 29bd
00000160: 6336 cc3e ef77 c03d 3ce6 cdbe 9d70 e33d
00000170: afd5 10be 7f7c 3ebe 92c3 f4bd 0999 153d
00000180: 2482 25be 637d 18be 83a9 1dbe 1f16 233c
00000190: dcd8 053e 8419 3a3d 007d a13e ee0e 40be
000001a0: 41c3 d8bd 69a8 bc3e 569f 0ebe ff63 68bd
000001b0: 3468 4bbd 7937 873d 16ad 90bc 5ee1 ccbd
000001c0: 3582 09bf 78fe 203d 9d00 253e 5dbb 80bd
000001d0: cbc0 f63d ace9 2b3e cf6c 63be 3594 afbd
000001e0: 35b3 893e 2651 043e 61c4 70be 053f edbd
000001f0: bfa8 10be af4a 25be b1a9 fbbd 3264 3b3e
00000200: 551c da3e f4cf fb3d 4ba5 b7bd 3a57 1b3f
00000210: b412 a43d 684c 85be 7620 bc3e 9302 d13e
00000220: 5b97 7b3e fcba 7e3e bdbc d4be 3f55 aabd
00000230: 3971 61be 2f48 d73e a5cc bbbe a15f c5be
00000240: 50e5 d1be 7358 623e 1c86 16be d661 183e
00000250: a7b2 3dbd 8f77 823e 3285 0f3e 0424 d2be
00000260: cc16 40be 9d32 913c aa33 a73d 7ed0 37be
00000270: 7a2a fc3c 42ac d73e a64a 4f3e e8df 503b
00000280: 923f 87be 523c 10be 688e 6dbd 6773 b4be
00000290: a318 ccbd 7491 ad3d 64f5 193e 473c 52be
000002a0: b189 9f3e 0116 ef3c 6976 4dbe 112f 0e3a
000002b0: 612d 63be 4431 183e 7dd6 ab3e 55f3 a7bc
000002c0: a854 8b3d 4d73 0abe de10 333e e482 273e
000002d0: 7e49 f93d 017b db3d 8c69 41be 7a5f 4e3e
000002e0: c574 123f aaf7 4cbd 589d 9dbe 4b40 053e
000002f0: 26eb 21be e2bd 3bbe def1 c13c 82ca 0a3e
00000300: 131b b1be 5405 0fbb d752 7ebe d21c 0a3e
00000310: 23dd ca3e 3bdd 5cbe 0bc4 62be 98b5 4cbd
00000320: 9e23 70be 7242 1a3e cfb6 efbd 38a6 6f3e
00000330: a41f 18be 24c1 0dbd 2bcf 5f3e 8114 63be
00000340: 4d31 843d 4ab0 2bbe a3e7 29bd f058 1fbe
00000350: 7da7 f4bd 6018 8cbe fdd9 243e ed29 023e
00000360: f858 373e a005 0e3c e19b 46be f9c5 913b
00000370: 275b 913d e1c9 b0ba ec48 de3c 264b 9f3d
00000380: dd98 1bbb 4b79 893d ff02 bb3d 224a 173e
00000390: cfb3 003e 016a 003d d52c efbe 2fef c6bc
000003a0: 967d 8abe 6537 b2bd d3f9 b03e 184a b53b
000003b0: 7cd4 aa3d 08f6 363e a2f8 1b3c 5b1e 9abe
000003c0: 7a72 f1be a1cd a43e 23f6 04bc f18b b83d
000003d0: cf7f 73bc db9c 423e 6541 1a3e d991 46be
000003e0: 9e82 f3bd efa4 cabd 0c3d 4c3d f33e 8a3d
000003f0: b332 31bd 2399 bdbd ced6 1bbd 048a 0e3c

encoder.rnn.bias_ih_l0 f4 [128]
-0.043899704 -0.17095093 -0.15099068 -0.015639791 0.43807775 -0.16560104 0.06376678 0.060521856
0.07073515 -0.11589987 -0.09794638 -0.39748156 -0.39623058 -0.14516403 -0.11241517 0.069233894
0.2515312 -0.41959926 -0.119259015 -0.2634542 -0.013458441 -0.39650688 -0.25429648 0.077872045
-0.041424923 -0.19880715 -0.4288047 0.12021109 -0.28170604 0.13303694 -0.2731202 -0.1323099
0.16438651 -0.1454839 0.08096198 0.061882626 0.05029037 -0.10190416 -0.029496105 0.06558253
0.019795628 0.048616767 -0.118743286 0.18112768 -0.19321595 -0.14474556 -0.15491682 0.12654227
0.1273086 0.115448795 -0.09408004 -0.10466814 0.06438517 -0.028517336 0.490013 0.08331588
0.24141802 -0.16576044 -0.15273964 0.12524539 -0.045380812 0.06329495 0.32843432 0.2504846
0.16123506 0.08185059 0.0871179 0.14008528 0.21144418 -0.03059357 0.17303254 0.24842674
0.17546023 -0.027031293 -0.06939879 0.045489747 0.019917984 0.25480625 -0.0766034 -0.11089432
0.09761138 0.074945495 0.2105333 -0.1544438 -0.11079752 -0.13978511 0.055403218 -0.2565635
-0.16416293 0.045685407 0.23839547 -0.19010846 -0.010616361 -0.0037895937 -0.11358729 0.19890319
0.09486474 0.076952495 0.07815445 -0.062676705 0.8333367 -0.17639984 0.09978598 0.1384004
-0.0715988 0.096928954 -0.12449219 0.010400334 -0.43964568 -0.06036931 -0.26968747 0.19714925
0.42438087 -0.24243587 -0.018456466 -0.065489404 0.1166324 -0.18994382 0.27979726 0.17879437
0.16731116 -0.23796105 -0.094920374 -0.039708067 -0.048171554 0.29420695 0.090219125 0.0033450976
00000000: 2dd0 33bd c30d 2fbe 4d9d 1abe 051f 80bc
00000010: ba4b e03e 5293 29be 2898 823d c4e5 773d
00000020: 97dd 903d e95c edbd 1d98 c8bd b482 cbbe
00000030: bcde cabe e1a5 14be ed39 e6bd 80ca 8d3d
00000040: b3c8 803e b7d5 d6be 123e f4bd 78e3 86be
00000050: cb80 5cbc f302 cbbe 2633 82be 617b 9f3d
00000060: 2ead 29bd 1a94 4bbe 4a8c dbbe 3b31 f63d
00000070: c63b 90be d63a 083e 69d6 8bbe 3f7c 07be
00000080: f054 283e bbf9 14be 65cf a53d a378 7d3d
00000090: 46fd 4d3d 21b3 d0bd d1a1 f1bc 2250 863d
000000a0: 712a a23c 6022 473d ae2f f3bd 8979 393e
000000b0: 67da 45be 2e38 14be 84a2 1ebe 4c94 013e
000000c0: 305d 023e 6b70 ec3d 09ad c0bd 405c d6bd
000000d0: 5fdc 833d 309d e9bc fce2 fa3e 84a1 aa3d
000000e0: 4936 773e 1bbd 29be c867 1cbe 5440 003e
000000f0: 3be1 39bd c8a0 813d 8b28 a83e 843f 803e
00000100: ce1a 253e 48a1 a73d df6a b23d 8472 0f3e
00000110: d384 583e 5e9f fabc 712f 313e 9463 7e3e
00000120: d9ab 333e bb70 ddbc f420 8ebd 7553 3a3d
00000130: 0a2b a33c f775 823e 3ee2 9cbd 901c e3bd
00000140: 7ae8 c73d 067d 993d 0b96 573e 8426 1ebe
00000150: cfe9 e2bd d423 0fbe 7cee 623d 4b5c 83be
00000160: 541a 28be 9f20 3b3d f11d 743e cbab 42be
00000170: 3ff0 2dbc d55a 78bb 74a0 e8bd 47ad 4b3e
00000180: 7248 c23d 4599 9d3d 710f a03d a55c 80bd
00000190: 8e55 553f 29a2 34be 985c cc3d d6b8 0d3e
000001a0: 64a2 92bd b082 c63d c3f5 febd 2a66 2a3c
000001b0: 3d19 e1be cf45 77bd 7a14 8abe 7ee1 493e
000001c0: 7348 d93e 1c41 78be 0432 97bc 4f1f 86bd
000001d0: f8dc ee3d a280 42be 9641 8f3e df15 373e
000001e0: 9e53 2b3e 10ac 73be 9d65 c2bd eda4 22bd
000001f0: 894f 45bd 4ba2 963e cec4 b83d 6d39 5b3b

encoder.rnn.bias_hh_l0 f4 [128]
-0.27710655 -0.21734944 -0.16337106 -0.10844732 0.3170839 0.022417272 -0.0201715 0.0010052565
0.025263 -0.28607312 -0.3457998 -0.44193107 -0.26905814 0.048810266 -0.16575682 0.23823206
0.35866714 -0.36132306 -0.050130405 -0.18246746 -0.18906921 -0.31535062 -0.1638372 0.029465303
0.03453077 -0.046088163 -0.1247241 0.079147585 -0.49564147 0.05336168 -0.15853117 0.03450437
-0.03994488 -0.054815236 -0.05148339 -0.03178793 0.17952146 0.025344659 0.005355253 0.21528982
0.06703024 0.07890923 -0.07516425 0.024831342 -0.17192917 -0.070654124 0.12191564 0.100301735
-0.017670274 0.07258055 0.018589322 -0.18108295 0.16336909 0.04657988 0.15593015 0.25135297
0.22146404 -0.055838395 -0.08328127 0.2195288 -0.14903158 0.218835 0.062408347 0.12873685
0.17147827 -0.08898914 0.14966907 0.08897466 0.18079488 0.042643163 0.06447434 0.16900186
0.079070464 -0.017375592 -0.14024138 0.07394939 0.13687618 -0.031082481 0.0036271322 -0.09822146
-0.13894296 -0.06067562 -0.07796097 0.05462789 -0.15126535 -0.021885883 0.082102396 -0.20971265
-0.2723963 0.11800743 0.0012191063 -0.13455212 0.07980801 0.12616825 0.06615878 0.0701176
-0.13056464 0.10618887 -0.024587642 0.02281218 0.87204397 -0.21788673 0.2805978 0.2758437
0.08178467 -0.20812641 -0.20014985 -0.1059759 -0.3576387 -0.07858438 0.04375725 0.017702404
0.24879563 -0.25224957 0.031532105 -0.3536252 -0.00048164243 -0.050808616 0.11802368 0.15212157
0.37833044 -0.13066153 -0.16787231 0.21185166 -0.17130268 0.10480696 0.08694671 -0.004262828
00000000: e9e0 8dbe da90 5ebe be4a 27be a119 debd
00000010: d258 a23e 6da4 b73c b43e a5bc d0c2 833a
00000020: 5af4 ce3c 2d78 92be ac0c b1be ca44 e2be
00000030: fdc1 89be 46ed 473d 28bc 29be 1bf3 733e
00000040: 38a3 b73e 56ff b8be 8a55 4dbd c0d8 3abe
00000050: 5c9b 41be a375 a1be f0c4 27be 3861 f13c
00000060: 2370 0d3d f1c6 3cbd 596f ffbd 2118 a23d
00000070: b8c4 fdbe c791 5a3d ff55 22be 7454 0d3d
00000080: 3e9d 23bd f185 60bd 3fe0 52bd 0f34 02bd
00000090: 79d4 373e 9a9f cf3c 1e7b af3b ef74 5c3e
000000a0: 2747 893d 2a9b a13d b7ef 99bd 196b cb3c
000000b0: 330e 30be 1cb3 90bd e8ae f93d ff6a cd3d
000000c0: 40c1 90bc 1da5 943d a248 983c cf6d 39be
000000d0: 3a4a 273e 8bca 3e3d 27ac 1f3e 56b1 803e
000000e0: 78c7 623e cdb6 64bd 5f8f aabd 28cc 603e
000000f0: bc9b 18be 4816 603e e59f 7f3d 98d3 033e
00000100: 0098 2f3e f03f b6bd d942 193e 5938 b63d
00000110: 4b22 393e 99aa 2e3d 1f0b 843d d30e 2d3e
00000120: b2ef a13d 4257 8ebc 709b 0fbe c772 973d
00000130: 4529 0c3e b0a0 febc 2eb5 6d3b 5528 c9bd
00000140: 1047 0ebe 0087 78bd 00aa 9fbd 7fc1 5f3d
00000150: 4ee5 1abe 064a b3bc 4d25 a83d eabe 56be
00000160: 8777 8bbe e1ad f13d 6bca 9f3a 08c8 09be
00000170: 6272 a33d 4032 013e 417e 873d d199 8f3d
00000180: bdb2 05be 8d79 d93d 066c c9bc 9ce0 ba3c
00000190: 463e 5f3f b31d 5fbe 84aa 8f3e 633b 8d3e
000001a0: b97e a73d 171f 55be 15f4 4cbe e509 d9bd
000001b0: 6b1c b7be d9f0 a0bd cd3a 333d a204 913c
000001c0: 48c4 7e3e db26 81be cf27 013d 5d0e b5be
000001d0: f484 fcb9 b21c 50bd 66b6 f13d c2c5 1b3e
000001e0: 87b4 c13e 23cc 05be b8e6 2bbe a4ef 583e
000001f0: f869 2fbe 08a5 d63d 1e11 b23d 31af 8bbb

decoder.rnn.weight_ih_l0 f4 [256, 32]
-0.33622158 0.118743286 -0.16882814 0.023981078 0.33032566 -0.100435585 0.15563853 -0.080210336
-0.025661781 0.00084410264 -0.07436502 -0.031219332 -0.1661111 -0.0810606 0.096822806 -0.105222784
0.09031031 0.046773978 -0.094449185 -0.055968054 -0.030629387 0.023757072 -0.096846424 -0.101084135
0.21238999 0.060658954 -0.0997541 -0.08739448 -0.22308896 0.029546026 0.02187788 0.026761554
-0.30327985 -0.21025012 -0.5443043 0.3933405 0.57381034 -0.058571633 0.26387528 -0.3935627
0.12565744 0.33910716 -0.23037024 0.23354328 -0.11653868 0.1987854 0.4728964 -0.7553561
0.28476304 0.05339853 0.14730905 0.026079834 -0.07616631 -0.16870522 -0.018908963 -0.10996539
0.18866241 -0.09901044 -0.35959223 0.057968557 -0.19333994 -0.18726973 -0.17642382 0.20442122
-0.37589806 0.028616963 -0.45309743 -0.031239567 0.35883003 -0.19385588 0.0855496 -0.022078143
-0.1670298 0.047355212 -0.22545761 -0.057477795 -0.05016522 0.013895177 0.09935491 -0.06637114
-0.0744358 0.12185903 -0.06608106 0.085831486 0.21320425 0.24357909 0.079721496 0.039017677
0.51082444 0.19902478 -0.35391968 0.04905565 -0.13314998 -0.039708756 0.054593217 0.009735872
-0.35816252 0.11872095 -0.47530246 -0.12693591 -0.105633326 -0.03798408 0.78158665 -0.03173712
0.5862358 0.16001625 0.09143008 -0.2008211 -0.058095463 0.13563013 0.1759266 0.504193
0.61483425 0.23567463 0.08620803 0.15202062 0.049711432 0.24134693 0.21349147 0.23459491
0.43443525 0.08683657 -0.3714371 -0.013425468 -0.14473195 0.16598074 0.12509695 -0.02599495
-0.14990781 0.04256253 -0.2395682 0.03360176 0.0012998605 -0.19007587 0.04397335 0.030457258
-0.20980392 0.27820024 -0.08989597 -0.2369195 0.13628319 0.0656179 -0.0066998424 -0.10702396
-0.23412584 0.20405108 -0.020480342 -0.018274121 0.18400398 0.08838205 -0.037531342 -0.014955571
0.38990304 0.10217493 -0.19682465 -0.069637656 -0.039577052 0.17766498 0.02357957 -0.04414891
-0.26014143 0.07669607 -0.21983963 -0.049519774 0.20403981 -0.04391604 0.2805647 -0.039498616
0.3464587 0.100030445 -0.03491884 -0.042442076 -0.11896329 -0.1474525 0.0072012357 0.10604452
-0.6797519 0.16890347 0.099893756 0.021274867 -0.05660685 0.03161139 -0.14763899 0.08361049
0.33652645 0.1220421 -0.32201913 -0.041782215 -0.17098153 -0.15701427 -0.04239485 0.004744801
0.020142687 0.006426536 -0.43171665 0.2631907 0.5081791 -0.15395351 0.15425546 0.13515005
0.11237377 0.34278074 -0.2947001 -0.13214386 -0.32931486 0.26233515 0.021566149 -0.13693191
0.090355806 0.09338028 -0.18224011 0.11200067 0.079854995 0.20841514 0.2556917 -0.2352686
-0.045011282 0.09695274 -0.24943823 -0.18323639 -0.16543838 0.332615 0.29826027 -0.10787357
-0.31204727 0.026700987 -0.23720722 0.04830023 0.69025177 -0.207828 0.1378027 -0.14384292
-0.41575795 0.0005944475 -0.13419174 -0.13801643 -0.1717231 -0.084998846 0.30528694 -0.26838717
-0.022669358 0.11560619 -0.06068399 0.08845807 0.16133443 0.055710457 -0.021363663 -0.12510307
0.281604 0.20926385 -0.34522918 0.015138996 -0.3882354 0.087126076 0.020204475 -0.16176772
00000000: 3c25 acbe ae2f f33d 49e1 2cbe f773 c43c
00000010: 7220 a93e 2cb1 cdbd b55f 1f3e 5145 a4bd
00000020: a838 d2bc c546 5d3a b04c 98bd afbf ffbc
00000030: 0719 2abe 1a03 a6bd 094b c63d 0b7f d7bd
00000040: 9df4 b83d 1296 3f3d 936e c1bd c23e 65bd
00000050: 7bea fabc 319e c23c 6b57 c6bd 3305 cfbd
00000060: c37c 593e 8675 783d e14b ccbd e1fb b2bd
00000070: 6f71 64be 820a f23c 3d39 b33c 0c3b db3c
00000080: 7f47 9bbe cf4b 57be 8757 0bbf ed63 c93e
00000090: 3ce5 123f cfe8 6fbd a91a 873e 0d81 c9be
000000a0: 58ac 003e 749f ad3e 2de6 6bbe f825 6f3e
000000b0: d5ab eebd 668e 4b3e 7a1f f23e 045f 41bf
000000c0: 76cc 913e 6bb8 5a3d 2fd8 163e 60a5 d53c
000000d0: 15fd 9bbd 10c1 2cbe f8e6 9abc 8935 e1bd
000000e0: b830 413e fcc5 cabd 791c b8be 7070 6d3d
000000f0: e8fa 45be a3c3 3fbe 72a8 34be cc53 513e
00000100: b675 c0be 1f6e ea3c 63fc e7be 1fea ffbc
00000110: 92b8 b73e 2882 46be a134 af3d 39dd b4bc
00000120: dc09 2bbe 8af7 413d 5cde 66be d66d 6bbd
00000130: 0c7a 4dbd 99a8 633c 967a cb3d 98ed 87bd
00000140: cc71 98bd 3a91 f93d 8255 87bd 6bc8 af3d
00000150: 3752 5a3e cc6c 793e 0645 a33d 00d1 1f3d
00000160: 64c5 023f 27cd 4b3e f634 b5be 94ee 483d
00000170: 7858 08be a6a5 22bd 239d 5f3d 3583 1f3c
00000180: 1461 b7be f823 f33d d85a f3be 7dfb 01be
00000190: 4956 d8bd 3295 1bbd 1016 483f c8fe 01bd
000001a0: 8d13 163f 4ddb 233e b23f bb3d 0ca4 4dbe
000001b0: 82f5 6dbd a0e2 0a3e 1a26 343e cb12 013f
000001c0: c765 1d3f b154 713e d68d b03d 4bab 1b3e
000001d0: 379e 4b3d a623 773e 829d 5a3e a639 703e
000001e0: 4c6e de3e 5fd7 b13d 012d bebe 7ef6 5bbc
000001f0: 9d34 14be dbf6 293e 6a19 003e 5df3 d4bc
00000200: 6f81 19be 0c56 2e3d 5e51 75be 00a2 093d
00000210: 1560 aa3a 40a3 42be 661d 343d 8081 f93c
00000220: d7d6 56be 4370 8e3e 611b b8bd 079b 72be
00000230: d28d 0b3e ad62 863d 5a8a dbbb 612f dbbd
00000240: afbe 6fbe c4f2 503e 64c6 a7bc 9cb3 95bc
00000250: 8a6b 3c3e a601 b53d 77ba 19bd 3608 75bc
00000260: 5fa1 c73e 1741 d13d 678c 49be 309e 8ebd
00000270: 8c1b 22bd cfed 353e f129 c13c 7dd5 34bd
00000280: 4231 85be d412 9d3d a41d 61be 3fd5 4abd
00000290: d0ef 503e 4ee1 33bd 2da6 8f3e 4dc9 21bd
000002a0: 0963 b13e c3dc cc3d 0f07 0fbd bed7 2dbd
000002b0: 06a3 f3bd cafd 16be 58f8 eb3b df2d d93d
000002c0: 3804 2ebf 08f5 2c3e 1995 cc3d a148 ae3c
000002d0: 96dc 67bd f27a 013d ad2e 17be fa3b ab3d
000002e0: 324d ac3e 35f1 f93d b1df a4be d423 2bbd
000002f0: c815 2fbe 59c8 20be 39a6 2dbd 477a 9b3b
00000300: 4702 a53c b195 d23b f709 ddbe eec0 863e
00000310: 0718 023f fda5 1dbe 25f5 1d3e c664 0a3e
00000320: 3824 e63d f580 af3e eee2 96be b850 07be
00000330: f59b a8be cb50 863e 7eab b03c e137 0cbe
00000340: 770c b93d 293e bf3d 279d 3abe 9b60 e53d
00000350: 048b a33d c76a 553e 06ea 823e 40ea 70be
00000360: c05d 38bd 288f c63d bc6c 7fbe 52a2 3bbe
00000370: ae68 29be 834c aa3e 92b5 983e d1ec dcbd
00000380: a9c4 9fbe 07bc da3c 73e6 72be 76d6 453d
00000390: 57b4 303f ddd0 54be 271c 0d3e 8f4b 13be
000003a0: 3ade d4be b2d4 1b3a 8f69 09be 2e54 0dbe
000003b0: 2ed8 2fbe e013 aebd 924e 9c3e 0b6a 89be
000003c0: 17b5 b9bc f0c2 ec3d c78f 78bd 8129 b53d
000003d0: da34 253e a630 643d d902 afbc 051b 00be
000003e0: 662e 903e 4349 563e e1c1 b0be 8d09 783c
000003f0: cac6 c6be 286f b23d db83 a53c 70a6 25be

decoder.rnn.weight_hh_l0 f4 [256, 64]
0.13969566 -0.035121206 0.016126662 -0.17458421 0.06732026 -0.11629874 -0.018234078 -0.03624675
0.021097004 0.008482662 0.1566206 -0.024233295 -0.011915091 0.002571166 -0.07228837 -0.022067076
-0.006763694 -0.22808102 0.1581232 0.18265897 0.11330925 -0.07529278 0.19123684 -0.06691529
0.023579957 -0.2226444 0.15311323 0.05252041 -0.031038748 -0.18326418 0.05428092 -0.039240938
-0.13775226 -0.21885848 -0.23655453 -0.17012289 -0.06688904 0.15143287 0.13397339 -0.09180592
-0.043097947 -0.17624158 0.18845478 -0.257945 0.092946805 0.05931721 -0.24637267 -0.18827249
0.29605436 0.27190882 0.32811168 0.36899006 0.13817534 0.035131585 -0.033566143 -0.08930471
0.12625575 0.04162311 0.03206907 -0.16947477 -0.030592911 0.11287315 -0.08615771 0.12171778
0.100938275 -0.049165595 -0.060830187 0.21885872 0.10447011 -0.2012362 0.22387367 -0.062335394
-0.05093593 -0.19614866 -0.04638493 0.21311636 0.09571768 -0.011265792 0.19805735 0.08184643
0.111518614 -0.079394564 0.088938884 0.029253682 0.10369624 -0.035952777 -0.05825029 0.22353126
-0.013079804 0.25651544 0.11267564 -0.12831102 -0.11466417 -0.072993316 0.06790022 0.2535475
0.026734892 -0.07634898 0.13246083 -0.30587217 0.2367117 -0.32662734 0.09223525 -0.24235132
0.16955125 -0.3575362 0.17379655 -0.06846817 -0.032694776 0.10673157 0.05308216 -0.31907064
0.28968072 0.0087359315 0.6592357 0.5035632 -0.22816572 -0.013979834 -0.1490514 -0.39572248
0.26095137 -0.031785302 -0.06432578 0.10575267 -0.06369141 -0.023000328 -0.13603593 -0.20392081
0.031016462 -0.009183298 0.20972458 0.018684043 -0.069742516 0.064692624 0.10761645 0.0795972
-0.11981377 0.37760907 0.14809023 0.12118324 -0.18179308 -0.092171185 0.33632338 0.17848955
0.03791063 -0.12743348 0.14839175 0.13840663 0.0025152 -0.16712151 0.006746816 -0.0017151355
-0.03344918 0.0094519425 0.026919272 -0.12075961 -0.03967146 -0.14114355 -0.04977223 -0.051501896
-0.03453444 0.06426388 -0.074655734 -0.19879746 0.27737337 -0.07134977 0.06917694 -0.090763435
-0.031332232 -0.09657975 0.17758927 -0.018267462 0.14564729 0.018880723 -0.003627438 0.1294645
0.09197017 -0.34851784 -0.4693237 0.18972467 0.07610113 0.02807241 0.48647586 -0.19686766
0.04064038 -0.0099577075 -0.12094454 -0.07842789 -0.039402705 -0.02784522 -0.057621527 -0.020656127
0.24834144 -0.083836675 0.10035902 0.07830472 0.35374182 -0.22216561 -0.008151307 -0.03590484
-0.37659442 0.04490143 -0.019509908 0.06871665 -0.38877785 -0.17269231 -0.33005857 -0.15276225
-0.1596563 -0.07540736 0.47347605 0.07963951 0.21919538 0.040025126 0.18166283 0.46824792
0.41882235 -0.013418988 0.30796525 -0.20249516 -0.052967757 -0.20710878 0.20355721 -0.008052614
-0.21372601 -0.12004025 0.16825438 -0.4124561 0.26505396 -0.19883987 0.4163109 -0.39784306
0.11187217 -0.26494798 0.0718613 -0.03182686 0.16278364 0.22379312 0.027172497 -0.42615655
-0.57038414 0.06607095 0.29106918 -0.32308716 0.017013893 0.13158424 -0.0125354985 -0.22224906
0.40762067 0.2048802 -0.43526253 -0.007662381 -0.16132617 -0.06300467 -0.3576617 -0.087064534
00000000: 610c 0f3e 41db 0fbd 101c 843c 34c6 32be
00000010: 34df 893d 092e eebd a25f 95bc 7977 14bd
00000020: a0d3 ac3c ddfa 0a3c 2761 203e e784 c6bc
00000030: 8437 43bc 0281 283b ed0b 94bd 03c6 b4bc
00000040: faa1 ddbb 128e 69be 0ceb 213e f40a 3b3e
00000050: ae0e e83d 1a33 9abd 97d3 433e e20a 89bd
00000060: c12a c13c e5fc 63be b7c9 1c3e a41f 573d
00000070: f944 febc 9ba9 3bbe ac55 5e3d 1bbb 20bd
00000080: ee0e 0dbe 701c 60be 5a3b 72be b234 2ebe
00000090: 1ffd 88bd 3811 1b3e 5230 093e be04 bcbd
000000a0: 7987 30bd ac78 34be 4afa 403e 5e11 84be
000000b0: e55a be3d 9af6 723d 1e49 7cbe 81ca 40be
000000c0: 7094 973e a237 8b3e 41fe a73e 44ec bc3e
000000d0: d67d 0d3e 23e6 0f3d a77c 09bd 63e5 b6bd
000000e0: 3049 013e ff7c 2a3d db5a 033d cb8a 2dbe
000000f0: fc9d fabc 0a2a e73d 7473 b0bd 2c47 f93d
00000100: bab8 ce3d dd61 49bd 1329 79bd 801c 603e
00000110: 6df4 d53d dd10 4ebe 243f 653e 6653 7fbd
00000120: 32a2 50bd 32db 48be 20fe 3dbd 2d3b 5a3e
00000130: a207 c43d 2894 38bc 8ccf 4a3e 1a9f a73d
00000140: df63 e43d 9e99 a2bd 9725 b63d 6ba5 ef3c
00000150: b25e d43d 3843 13bd db97 6ebd 61e5 643e
00000160: ad4c 56bc fe55 833e 7cc2 e63d f763 03be
00000170: 0cd5 eabd 857d 95bd 450f 8b3d fad0 813e
00000180: 2203 db3c db5c 9cbd d0a3 073e 479b 9cbe
00000190: 8d64 723e b33b a7be d6e5 bc3d f22a 78be
000001a0: d89e 2d3e fc0e b7be b9f7 313e 0a39 8cbd
000001b0: f5ea 05bd 1596 da3d ae6c 593d 3a5d a3be
000001c0: 0851 943e 2721 0f3c acc3 283f 85e9 003f
000001d0: 46a4 69be ac0b 65bc eea0 18be 239c cabe
000001e0: 6b9b 853e 4e31 02bd 3cbd 83bd db94 d83d
000001f0: a470 82bd 2f6b bcbc 014d 0bbe 9ed0 50be
00000200: 3c16 fe3c 8b75 16bc 0ac2 563e 470f 993c
00000210: 2ad5 8ebd 917d 843d 0366 dc3d db03 a33d
00000220: ec60 f5bd fa55 c13e f7a4 173e eb2e f83d
00000230: f727 3abe 3fc4 bcbd 9432 ac3e f7c5 363e
00000240: 2d48 1b3d ec7d 02be 02f4 173e 78ba 0d3e
00000250: 0ed6 243b e721 2bbe 6514 dd3b 66ce e0ba
00000260: 0202 09bd 52dc 1a3c ce85 dc3c d050 f7bd
00000270: 8a7e 22bd ef87 10be f7dd 4bbd a7f3 52bd
00000280: fc73 0dbd c89c 833d 1be5 98bd 9091 4bbe
00000290: e203 8e3e d41f 92bd a4ac 8d3d 2ee2 b9bd
000002a0: 3a56 00bd 9bcb c5bd f6d9 353e a5a5 95bc
000002b0: 9024 153e bfab 9a3c 50ba 6dbb 5892 043e
000002c0: db5a bc3d ee70 b2be 324b f0be 2f47 423e
000002d0: e9da 9b3d 1cf8 e53c 5d13 f93e ad97 49be
000002e0: 8776 263d a725 23bc c5b1 f7bd cd9e a0bd
000002f0: bb64 21bd a91b e4bc 8d04 6cbd 0a37 a9bc
00000300: 384d 7e3e 90b2 abbd 0889 cd3d 3a5e a03d
00000310: a61d b53e 627f 63be 0f8d 05bc f410 13bd
00000320: fcd0 c0be 90ea 373d 3ed3 9fbc 51bb 8c3d
00000330: e40d c7be 41d6 30be 70fd a8be b56d 1cbe
00000340: f17c 23be 2d6f 9abd 746b f23e 0a1a a33d
00000350: c174 603e 63f1 233d d205 3a3e 31be ef3e
00000360: e26f d63e 51db 5bbc 9fad 9d3e e45a 4fbe
00000370: b8f4 58bd 5314 54be 4d71 503e 1cef 03bc
00000380: feda 5abe aad7 f5bd e04a 2c3e 722d d3be
00000390: 27b5 873e ae9c 4bbe b426 d53e 16b2 cbbe
000003a0: 3c1d e53d 43a7 87be 042c 933d e25c 02bd
000003b0: c1b0 263e 062a 653e db98 de3c 3131 dabe
000003c0: b204 12bf 3550 873d 0507 953e ae6b a5be
000003d0: b860 8b3c 05be 063e b161 4dbc 4295 63be
000003e0: a8b3 d03e 1dcc 513e bbda debe b614 fbbb
000003f0: b032 25be 9808 81bd 6f1f b7be e44e b2bd

decoder.rnn.bias_ih_l0 f4 [256]
-0.024146257 -0.15128735 0.005724073 0.09294864 -0.040787615 -0.052218497 0.23918235 -0.07895029
0.054844346 -0.21875332 -0.046098944 -0.32294098 -0.30816865 -0.053203076 -0.061396323 -0.019480785
0.03718936 -0.043795966 0.031002384 -0.043076202 0.003071856 -0.021976186 -0.023148024 -0.03267561
0.05542856 -0.2806641 -0.21007404 -0.08685921 -0.118143246 0.28183687 0.1307622 0.15270442
-0.09144626 -0.07503822 -0.21937425 0.13417684 0.12738276 0.18554597 -0.0317129 0.08052254
-0.08916773 0.2526052 -0.33103654 -0.16560788 -0.018816838 -0.072184116 -0.03332242 -0.18042554
-0.29413348 0.026316598 -0.2605274 -0.31240162 -0.10844685 -0.10785747 -0.28904635 -0.24182618
0.2554552 -0.118604906 0.085989386 -0.11274788 -0.081757255 -0.21999773 -0.1980823 -0.043425813
0.06778566 -0.26787975 0.02884809 0.091214605 0.04246358 0.32883608 0.07503617 0.3912055
0.08667743 -0.04605286 -0.08012828 0.03207383 0.1668851 0.028759295 -0.07328072 0.1615345
0.14558834 -0.12764631 0.025511315 -0.20376846 0.012359404 -0.057978082 -0.018831564 0.002500852
-0.09137274 -0.14207375 -0.06452021 0.015021058 -0.02834644 -0.26199427 -0.111599416 0.054552823
-0.0010180254 -0.02426832 -0.2168048 0.07236927 0.02069016 -0.24058235 0.019317988 0.038235713
0.026325008 0.04809959 -0.020545147 -0.011281581 -0.14557981 -0.059711944 -0.031865787 -0.038052075
0.22768754 0.12367228 0.31455174 0.4573567 -0.049698032 -0.2742134 0.02194533 0.014152232
0.21214527 -0.0122966645 0.054177042 -0.20682454 0.04258644 -0.18255626 0.11927724 -0.114021294
-0.007898377 0.16567203 -0.023863567 0.21655461 -0.00545728 0.16556023 -0.09708303 -0.182148
0.12364618 -0.08230375 -0.11015926 0.05210791 0.105922155 0.008096586 -0.1703574 0.14033337
-0.00083477335 0.07449444 -0.03796273 0.026410267 -0.1159322 -0.1351155 -0.10466026 0.04129683
-0.11063526 0.025090573 -0.08090006 0.124172084 0.11398919 0.14018025 -0.18641993 0.10328048
-0.14647351 0.043767482 0.11214433 0.16443221 0.12660319 0.018451499 -0.13243535 0.07006334
-0.08690949 0.045047615 0.07859954 0.054029237 -0.12772624 -0.09113682 -0.03307727 0.05431124
-0.018508444 -0.08518177 0.08901594 -0.04551389 -0.1708253 -0.0031735983 -0.03185023 0.116609804
-0.01348297 -0.07718164 -0.06659115 0.03658679 -0.019561458 0.029335216 -0.109813236 -0.025499701
-0.07709581 0.040232792 -0.19265449 0.15585083 0.035278812 0.24053417 0.24408466 0.22077584
0.073036715 -0.15579009 -0.03589906 -0.075222634 0.15877415 0.10296163 -0.19037817 0.14017107
0.054657746 -0.11446029 0.13548954 -0.06462736 -0.0059300335 -0.055133697 -0.15030938 0.0710167
0.048897617 -0.25642577 -0.10979342 -0.06835542 -0.022247896 0.32803324 -0.0046307025 0.045178354
-0.19780695 -0.103292264 -0.051751435 0.09737044 -0.025077445 0.17408781 0.006479178 0.11182223
0.029181419 0.07106717 -0.23802944 -0.13967825 0.002526068 -0.06564719 -0.09501743 -0.14826612
-0.055638067 0.1382748 -0.0026370923 0.10350144 0.032246344 -0.13045245 -0.28494266 -0.17724831
0.3271203 -0.124824405 -0.016995333 -0.093488626 -0.0050407206 -0.22538939 0.0914312 -0.08278236
00000000: 5fce c5bc 12eb 1abe 0191 bb3b db5b be3d
00000010: ea10 27bd 10e3 55bd 38ec 743e b1b0 a1bd
00000020: 77a4 603d df00 60be 3fd2 3cbd 8558 a5be
00000030: 48c8 9dbe 78eb 59bd b67a 7bbd 2b96 9fbc
00000040: df53 183d 6663 33bd b6f8 fd3c ac70 30bd
00000050: 3151 493b 6707 b4bc eda0 bdbc dcd6 05bd
00000060: 0f09 633d 34b3 8fbe a61d 57be 3ee3 b1bd
00000070: 16f5 f1bd ec4c 903e 87e6 053e 8c5e 1c3e
00000080: 2d48 bbbd a3ad 99bd a5a3 60be a765 093e
00000090: a070 023e c3ff 3d3e 63e5 01bd 00e9 a43d
000000a0: 929d b6bd 7855 813e 9f7d a9be 1d95 29be
000000b0: c525 9abc 44d5 93bd 177d 08bd 79c1 38be
000000c0: aa98 96be e895 d73c d963 85be 1bf3 9fbe
000000d0: 6219 debd 61e4 dcbd e2fd 93be 48a1 77be
000000e0: 06cb 823e 21e7 f2bd 341b b03d 5ce8 e6bd
000000f0: 5970 a7bd 1647 61be 16d6 4abe 44df 31bd
00000100: 35d3 8a3d 8927 89be d452 ec3c b9ce ba3d
00000110: 4aee 2d3d 345d a83e 90ac 993d 164c c83e
00000120: f083 b13d eca1 3cbd 4c1a a4bd d95f 033d
00000130: ede3 2a3e 9d98 eb3c 3414 96bd 4d69 253e
00000140: 1c15 153e b7b5 02be 1bfd d03c aea8 50be
00000150: 197f 4a3c 6d7a 6dbd a744 9abc 56e5 233b
00000160: a221 bbbd c87b 11be 2c23 84bd e21a 763c
00000170: cb36 e8bc 1d24 86be 3c8e e4bd c872 5f3d
00000180: 446f 85ba 5bce c6bc 1402 5ebe 5736 943d
00000190: 697e a93c 385b 76be c240 9e3c 0d9d 1c3d
000001a0: 8ba7 d73c 1304 453d 4c4e a8bc 61d6 38bc
000001b0: e012 15be 8394 74bd b385 02bd 7edc 1bbd
000001c0: ec26 693e e447 fd3d ed0c a13e a82a ea3e
000001d0: 2a90 4bbd b365 8cbe b1c6 b33c c3de 673c
000001e0: 9c3c 593e f377 49bc bfe8 5d3d d0c9 53be
000001f0: 1e6f 2e3d 07f0 3abe a047 f43d ff83 e9bd
00000200: 3268 01bc eea5 293e 877d c3bc 7ec0 5d3e
00000210: fcd2 b2bb 9f88 293e 78d3 c6bd 0185 3abe
00000220: 353a fd3d de8e a8bd 2e9b e1bd 1b6f 553d
00000230: b7ed d83d 8ba7 043c 2c72 2ebe 8db3 0f3e
00000240: b1d4 5aba 8a90 983d cf7e 1bbd 585a d83c
00000250: dc6d edbd b85b 0abe 1e58 d6bd dd26 293d
00000260: bd94 e2bd bf8a cd3c eeae a5bd ef4d fe3d
00000270: 2a73 e93d 698b 0f3e dee4 3ebe b784 d33d
00000280: 27fd 15be 8845 333d edab e53d eb60 283e
00000290: 44a4 013e 9927 973c 229d 07be 5e7d 8f3d
000002a0: 9afd b1bd d983 383d ccf8 a03d c34d 5d3d
000002b0: abca 02be f1a5 babd 087c 07bd 7675 5e3d
000002c0: 059f 97bc c873 aebd fd4d b63d c66c 3abd
000002d0: d4ec 2ebe 25fc 4fbb 6375 02bd 1fd1 ee3d
000002e0: ade7 5cbc 6811 9ebd f160 88bd 08dc 153d
000002f0: 5a3f a0bc 6850 f03c c3e5 e0bd c0e4 d0bc
00000300: 68e4 9dbd 24cb 243d 3847 45be 5c97 1f3e
00000310: 8480 103d 974e 763e 54f1 793e 1013 623e
00000320: 4694 953d 7087 1fbe e50a 13bd 530e 9abd
00000330: b195 223e 8cdd d23d 7ff2 42be 0189 0f3e
00000340: cde0 5f3d 286a eabd c5bd 0a3e 595b 84bd
00000350: ba50 c2bb dfd3 61bd b4ea 19be 3471 913d
00000360: de48 483d 3d4a 83be 5fdb e0bd edfd 8bbd
00000370: 3841 b6bc f9f3 a73e 26bd 97bb f00c 393d
00000380: e88d 4abe e58a d3bd 50f9 53bd 276a c73d
00000390: 376f cdbc 1344 323e 494f d43b 0e03 e53d
000003a0: df0d ef3c aa8b 913d fdbd 73be d107 0fbe
000003b0: 638c 253b 0972 86bd 8098 c2bd 13d3 17be
000003c0: bee4 63bd e997 0d3e 11d3 2cbb 90f8 d33d
000003d0: be14 043d 5495 05be 01e4 91be 9580 35be
000003e0: 507c a73e f0a3 ffbd cc39 8bbc f776 bfbd
000003f0: a12c a5bb 7acc 66be 4840 bb3d cc89 a9bd

decoder.rnn.bias_hh_l0 f4 [256]
0.022526667 -0.08668872 -0.09840029 0.050741266 -0.04442027 -0.14030933 0.051077574 -0.08546056
-0.03290688 -0.18524109 -0.030741213 -0.25762394 -0.28327012 0.103354216 -0.12716483 -0.013792906
-0.17712529 -0.0044102003 -0.08982751 -0.12492388 0.104032904 -0.04064404 0.053359058 0.010669345
-0.055477906 -0.21502252 -0.1415252 0.04228867 -0.046635263 0.25261974 0.057457168 0.104487695
-0.11086272 -0.022635715 -0.27078497 0.052867547 -0.0990991 0.084873185 -0.08287754 0.03784367
0.10879349 0.28767642 -0.34977883 -0.12763368 -0.1957244 0.012557369 -0.11924953 -0.035984192
-0.1778974 0.053795524 -0.1673573 -0.36668506 -0.07150422 -0.09660296 -0.2823731 -0.14443848
0.19262329 0.01693698 0.075230524 -0.06413138 -0.140272 -0.122022726 0.03331617 0.15164635
-0.06908881 -0.23650259 -0.06689917 0.25166452 0.074301526 0.4254174 0.06249528 0.26808825
0.004260743 -0.11368349 -0.14671019 -0.07577779 0.27887517 0.053661503 -0.20869766 0.037720233
0.06545926 -0.061439805 0.11529757 -0.22704266 0.091709465 0.0027467615 -0.08825556 -0.101278305
0.05318261 -0.0189667 -0.013364629 0.04006578 -0.08675092 -0.25184056 -0.015764501 0.07626352
-0.14452788 -0.14944148 -0.1825056 0.12714992 -0.11187025 -0.23995808 -0.12309905 0.13945402
-0.004892168 0.25606644 -0.17883283 -0.074784115 -0.18889415 0.046942156 -0.13789305 -0.047271993
0.26923588 0.22953463 0.3790361 0.6482171 -0.09289182 -0.124792196 -0.020482752 0.039308574
0.25163236 -0.089939564 0.1068961 -0.11561669 -0.08261696 -0.2393913 0.11989359 0.023796728
-0.10054893 0.06802282 -0.1491316 0.13848327 -0.08736156 0.09103976 -0.23537989 -0.1637123
0.082238235 -0.00189742 -0.119583055 0.06948563 -0.04145789 0.06571147 -0.124293 0.033808205
0.013682989 0.08258634 -0.18793938 0.031324606 0.08901439 -0.14144391 0.08480507 -0.087230794
0.008567513 -0.072808556 0.024619184 0.13557823 -0.050693456 0.21492438 -0.028728707 0.18356778
0.021955531 -0.08799265 0.10591708 0.11395743 0.064779714 -0.21490695 0.013128445 0.07729725
0.020774191 -0.061189 0.0069085853 0.07104951 0.083685316 -0.08762649 0.05215876 0.014343723
-0.013434945 -0.12784244 0.051527552 0.035554223 -0.11351283 0.022777915 0.01664098 -0.07175317
-0.06526649 -0.11104835 0.022906821 0.11289396 -0.009814339 -0.09088604 -0.115086704 -0.17773125
-0.09139438 -0.08526941 -0.03262496 0.103457674 -0.08048682 0.12995787 0.08269981 0.13955939
-0.06725652 -0.117259264 0.043826926 -0.120978594 0.13934231 -0.11997409 -0.099334374 0.0066772513
-0.06665562 0.0063460297 0.008123103 -0.23925179 0.04466036 0.0036510632 0.08124875 0.048822768
0.12216336 -0.20006044 -0.1819976 0.12264339 0.010232205 0.10282204 0.052078582 0.08834787
-0.07308288 -0.022429474 -0.06175592 0.05413479 -0.032268547 0.10193343 -0.08481976 -0.055444494
0.033518214 0.09983254 -0.39701226 -0.24041799 -0.09922789 0.07097573 -0.043923866 -0.16303289
-0.0343225 0.20278014 0.007025531 0.1207217 -0.009190143 -0.2048407 -0.15937799 -0.11026065
0.32589686 -0.16252239 0.15371534 -0.061373148 -0.010444292 -0.2592099 0.057170037 0.02624026
00000000: d889 b83c db89 b1bd 1786 c9bd 13d6 4f3d
00000010: 07f2 35bd 40ad 0fbe b836 513d f205 afbd
00000020: 5dc9 06bd d7af 3dbe ffd4 fbbc 49e7 83be
00000030: c808 91be 60ab d33d 7f37 02be a4fb 61bc
00000040: 5560 35be 7183 90bb 7cf7 b7bd 17d8 ffbd
00000050: 340f d53d 5d7a 26bd 078f 5a3d 7ace 2e3c
00000060: cd3c 63bd dd2e 5cbe fbeb 10be e236 2d3d
00000070: 9e04 3fbd 6057 813e 3558 6b3d a5fd d53d
00000080: fe0b e3bd 896e b9bc 54a4 8abe a48b 583d
00000090: 78f4 cabd fed1 ad3d b3bb a9bd f701 1b3d
000000a0: 1fcf de3d 534a 933e 3616 b3be 67b2 02be
000000b0: fa6b 48be 6cbd 4d3c 1939 f4bd 2964 13bd
000000c0: bc2a 36be b258 5c3d b65f 2bbe 25be bbbe
000000d0: ce70 92bd c6d7 c5bd 3593 90be aee7 13be
000000e0: 0a3f 453e 6cbf 8a3c 7612 9a3d 5057 83bd
000000f0: 77a3 0fbe 0de7 f9bd 8976 083d 2e49 1b3e
00000100: 6f7e 8dbd bc2d 72be 6f02 89bd 2cda 803e
00000110: 662b 983d 4fd0 d93e 0dfb 7f3d dd42 893e
00000120: b49d 8b3b e4d2 e8bd 323b 16be 6331 9bbd
00000130: bac8 8e3e 2acc 5b3d d7b4 55be 8880 1a3d
00000140: 810f 863d 4ea8 7bbd 2221 ec3d df7d 68be
00000150: 2cd2 bb3d 0303 343b 55bf b4bd 006b cfbd
00000160: 02d6 593d 0e60 9bbc 51f7 5abc 041c 243d
00000170: 77aa b1bd 3ff1 80be 8e24 81bc 0c30 9c3d
00000180: 1eff 13be 3007 19be bfe2 3abe 9733 023e
00000190: 3b1c e5bd 92b7 75be 5b1b fcbd 09cd 0e3e
000001a0: 7b4e a0bb 241b 833e f41f 37be 6a28 99bd
000001b0: 786d 41be 6b46 403d d633 0dbe 47a0 41bd
000001c0: 49d9 893e 200b 6b3e 0511 c23e 8ef1 253f
000001d0: 113e bebd 0d93 ffbd 72cb a7bc 0702 213d
000001e0: f5d5 803e 3c32 b8bd 58ec da3d 71c8 ecbd
000001f0: 1533 a9bd fe22 75be c58a f53d 5bf1 c23c
00000200: 99ec cdbd 8c4f 8b3d f4b5 18be 8fce 0d3e
00000210: 9eea b2bd 0e73 ba3d 6d07 71be 32a4 27be
00000220: 856c a83d dab2 f8ba f6e7 f4bd 7b4e 8e3d
00000230: c0cf 29bd bc93 863d 548d febd 797a 0a3d
00000240: 9e2e 603c 0723 a93d 2e73 40be 3b4e 003d
00000250: 2d4d b63d acd6 10be 48ae ad3d 0fa6 b2bd
00000260: c15e 0c3c a71c 95bd 2cae c93c 05d5 0a3e
00000270: f1a3 4fbd 2315 5c3e 7758 ebbc 31f9 3b3e
00000280: 16dc b33c 7e35 b4bd 0eeb d83d 8362 e93d
00000290: 3aab 843d 9110 5cbe b018 573c 054e 9e3d
000002a0: a32e aa3c 51a1 7abd 6a61 e23b 6882 913d
000002b0: 3563 ab3d 8475 b3bd 6da4 553d ef01 6b3c
000002c0: 3e1e 5cbc 21e9 02be 8e0e 533d 4ea1 113d
000002d0: 6a79 e8bd c098 ba3c aa52 883c 53f3 92bd
000002e0: 70aa 85bd 516d e3bd 16a7 bb3c f334 e73d
000002f0: 52cc 20bc 7622 babd 94b2 ebbd 2eff 35be
00000300: fa2c bbbd baa1 aebd c0a1 05bd 9ee1 d33d
00000310: 46d6 a4bd ad13 053e 855e a93d a8e8 0e3e
00000320: c9bd 89bd a025 f0bd dd83 333d a0c3 f7bd
00000330: c0af 0e3e fab4 f5bd d26f cbbd d8cc da3b
00000340: be82 88bd 5bf2 cf3b c316 053c 6cfe 74be
00000350: c8ed 363d ad46 6f3b bf65 a63d 62fa 473d
00000360: c930 fa3d a5dc 4cbe 945d 3abe 752c fb3d
00000370: faa4 273c 5d94 d23d 5a50 553d baef b43d
00000380: 7aac 95bd 04be b7bc c7f3 7cbd 71bc 5d3d
00000390: 062c 04bd 79c2 d03d fbb5 adbd c419 63bd
000003a0: 654a 093d 0175 cc3d 3145 cbbe 2230 76be
000003b0: fe37 cbbd b95b 913d 83e9 33bd 18f2 26be
000003c0: c095 0cbd 99a5 4f3e 6d36 e63b f03c f73d
000003d0: 4192 16bc c3c1 51be fc33 23be 56d0 e1bd
000003e0: f4db a63e 456c 26be 8e67 1d3e 6962 7bbd
000003f0: 891e 2bbc 29b7 84be 212b 6a3d d0f5 d63c

decoder.output_layer.weight f4 [1, 64]
-0.21950169 0.22170192 -0.26083842 -0.07332717 -0.25124055 0.12790959 -0.13376988 -0.061951276
0.15072401 -0.11144601 -0.17957449 0.26033935 0.23064338 0.21806318 0.26694652 0.2566818
-0.15650463 0.2456564 -0.18167438 -0.24406788 -0.17182559 -0.25814986 -0.19268446 0.34847233
-0.216312 0.13797344 -0.16820477 0.17464653 -0.23577982 0.33791444 -0.18738014 0.22425267
0.16541465 0.19544365 0.1832641 0.14321198 0.21083756 -0.28340068 -0.24467176 0.12210521
-0.21798708 0.17124932 -0.19134913 0.0849752 -0.2856111 -0.18044098 0.25444818 0.15020111
0.22937407 -0.1560455 0.3615335 0.026452204 -0.02096045 -0.16825446 0.021854203 -0.35818413
-0.17185445 -0.3121924 0.22357795 0.21979462 0.24669789 -0.2524204 0.09957446 -0.1747829
00000000: 0dc5 60be d405 633e 9d8c 85be 8e2c 96bd
00000010: 9aa2 80be bbfa 023e f9fa 08be 9fc0 7dbd
00000020: 6557 1a3e ce3d e4bd 60e2 37be 334b 853e
00000030: c72d 6c3e f44b 5f3e 37ad 883e cc6b 833e
00000040: c042 20be 5a8d 7b3e d908 3abe eeec 79be
00000050: 0cf3 2fbe 382c 84be 134f 45be f76a b23e
00000060: e580 5dbe e948 0d3e df3d 2cbe 8ad6 323e
00000070: 4470 71be 1f03 ad3e 94e0 3fbe 7ea2 653e
00000080: 7562 293e 6122 483e 96a9 3b3e 29a6 123e
00000090: cde5 573e e519 91be 3c8b 7abe 4c12 fa3d
000000a0: 0138 5fbe fb5b 2f3e 07f1 43be 7a07 ae3d
000000b0: 9e3b 92be 85c5 38be 0847 823e 52ce 193e
000000c0: 09e1 6a3e 64ca 1fbe eb1a b93e 4bb2 d83c
000000d0: 40b5 abbc e64a 2cbe 9607 b33c e963 b7be
000000e0: 9dfa 2fbe afd7 9fbe 9ef1 643e d711 613e
000000f0: 5f9e 7c3e 3f3d 81be b2ed cb3d 4afa 32be
