Detectors/Deep_Learning/AutoEncoders/models/Trained_RDA_Detect/cnn_lstm_ae_medium_congestion_speed.pt (torch, 125861 bytes, 11 tensors)

encoder.cnn.weight f4 [8, 1, 16]
-0.29001462 -0.28177267 -0.22002733 -0.1762017 -0.1477912 -0.13215017 -0.15480348 -0.071616285
-0.08423915 -0.063537285 -0.07825333 -0.070664965 -0.098747246 -0.07445611 -0.083258055 -0.12292195
-1.2182732 -1.2559828 -1.285735 -1.2488365 -1.2686564 -1.2024531 -1.3377839 -1.2827077
-1.0862275 -1.197332 -1.1305318 -1.100438 -1.1446209 -1.1897551 -1.1373739 -1.0689079
0.16601852 0.06338201 -0.028751897 -0.018907763 0.12755689 0.014313065 -0.122692116 0.17916
0.65787625 0.9403926 0.844149 0.6175184 0.36037678 -0.016084941 -0.20385858 -0.2554374
-0.14938134 0.14360781 0.024829809 0.09094791 -0.031755574 -0.085099906 0.05091542 0.0857806
-0.033173688 -0.09068362 0.05204559 0.038756996 -0.08368556 -0.09531 -0.025504598 0.30044794
-0.35546464 -0.12253021 -0.23610045 -0.1484263 -0.094684035 -0.146411 -0.16537024 0.051597677
-0.058780443 0.090779245 0.014166219 0.11696715 0.008414421 0.06099534 0.04480183 0.12568213
-0.09576048 -0.030288156 -0.074287005 -0.03512154 -0.1750732 -0.07062607 -0.28287834 -0.29400975
0.011986585 -0.032923788 0.27047572 -0.049328715 0.22405358 -0.10555429 -0.010172088 -0.20494375
-0.31840548 -0.172833 -0.13896513 0.17116225 -0.10502019 -0.010694188 -0.032924727 -0.19170788
0.062066585 0.17987742 -0.041307013 -0.09839835 0.011516457 0.042215906 0.048376456 -0.21858849
-0.03903096 -0.0006151042 -0.060598772 -0.018808108 -0.062790506 -0.04693528 -0.068212666 -0.07060908
-0.054560065 -0.07952448 -0.04272347 -0.09139961 -0.013450402 -0.074350126 -0.009428297 -0.08552033
00000000: cc7c 94be 8244 90be d84e 61be 386e 34be
00000010: 9456 17be 6052 07be ce84 1ebe 8fab 92bd
00000020: 9385 acbd d61f 82bd 4843 a0bd cbb8 90bd
00000030: ff3b cabd 727c 98bd 3383 aabd 81be fbbd
00000040: 60f0 9bbf 0bc4 a0bf f792 a4bf e0d9 9fbf
00000050: 5563 a2bf fce9 99bf 813c abbf c42f a4bf
00000060: 8109 8bbf 2d42 99bf 44b5 90bf 27db 8cbf
00000070: f082 92bf e549 98bf 7895 91bf f9d1 88bf
00000080: c200 2a3e 6dce 813d 1989 ebbc 74e4 9abc
00000090: 469e 023e 5981 6a3c 0146 fbbd b875 373e
000000a0: 946a 283f 92bd 703f 261a 583f b015 1e3f
000000b0: 4e83 b83e 91c4 83bc 4ec0 50be b1c8 82be
000000c0: 6cf7 18be ed0d 133e e267 cb3c e642 ba3d
000000d0: 2212 02bd dc48 aebd b08c 503d bdad af3d
000000e0: 22e1 07bd 55b8 b9bd c22d 553d a8bf 1e3d
000000f0: 5663 abbd e431 c3bd 05ef d0bc 50d4 993e
00000100: 76ff b5be 1ef1 fabd 51c4 71be 10fd 17be
00000110: b4e9 c1bd c4ec 15be d156 29be 1658 533d
00000120: c3c3 70bd 78ea b93d 6e19 683c 798c ef3d
00000130: a4dc 093c 40d6 793d 2082 373d d1b2 003e
00000140: 121e c4bd de1e f8bc c923 98bd 9bdb 0fbd
00000150: 6446 33be 67a4 90bd 6ed5 90be 7288 96be
00000160: 6263 443c 18db 06bd cb7b 8a3e e80c 4abd
00000170: 4d6e 653e d92c d8bd d4a8 26bc c6dc 51be
00000180: 0b06 a3be 22fb 30be e04c 0ebe 2845 2f3e
00000190: d314 d7bd ad36 2fbc 14dc 06bd 124f 44be
000001a0: 8839 7e3d c931 383e 8b31 29bd 1385 c9bd
000001b0: 86af 3c3c 96ea 2c3d 6426 463d a9d5 5fbe
000001c0: eede 1fbd f23e 21ba 6b36 78bd 7613 9abc
000001d0: 4f98 80bd 353f 40bd 15b3 8bbd 7e9b 90bd
000001e0: 607a 5fbd bbdd a2bd cefe 2ebd b82f bbbd
000001f0: 135f 5cbc e144 98bd 2579 1abc 4825 afbd

encoder.cnn.bias f4 [8]
0.0023766053 -0.80342865 0.62227005 1.6574644 4.7136135 1.4130054 4.6458993 5.4243
00000000: d2c0 1b3b 80ad 4dbf 174d 1f3f cb27 d43f
00000010: ecd5 9640 5cdd b43f 35ab 9440 de93 ad40

encoder.rnn.weight_ih_l0 f4 [128, 8]
-0.0361762 -0.11025922 -0.12811507 0.036098953 0.47260082 0.4575667 0.2874692 0.2755463
-0.9739529 -0.76796037 -0.6341681 -1.0637212 -0.028893637 0.08219111 0.15833388 0.11435065
-0.4520249 -0.34239376 0.013555982 -0.16117246 0.4922765 0.25283286 -0.17196532 0.19158682
-0.5536588 -0.2534753 -0.49233398 -0.47995773 0.005712064 0.16521418 0.51369035 0.3838311
-0.7220163 -0.6508344 -0.12927413 0.06411722 0.24236816 0.12462154 0.0992156 0.047170945
-0.050014626 -0.49247232 -0.9614724 -1.2219884 0.789178 0.20976001 -0.2674586 -0.6435631
-0.74036497 -0.13759157 0.2660388 -0.08459733 0.038615674 0.18274672 -0.07998168 0.03177577
0.29760587 0.23178242 -0.04146654 -0.118712805 0.26005805 0.033302534 -0.045926996 -0.07955117
0.31718862 0.02813056 0.028275108 0.10375255 0.016241848 0.2179719 0.1019448 -0.15487033
0.09472749 0.13421121 -0.13952285 0.0015699331 0.43586335 0.24476108 -0.13786082 0.0075175725
-1.2766025 -0.97767186 0.36736906 -1.1203418 -0.08418515 0.22217207 0.3246407 0.21481986
-0.0055214996 0.27398586 0.43932843 0.52627784 -1.1426897 -0.9654531 -0.7639467 -0.7132383
-2.0263412 -0.6952178 -0.059680067 -0.09885422 0.50160295 0.439586 0.3675248 -0.0036838097
0.26268685 0.18257862 0.12942849 0.023712156 -0.1294051 0.05195191 0.08008979 0.1128377
-1.0745382 -0.8831817 -0.5809887 -0.35935462 0.3997132 0.2933437 -0.017351933 -0.23987903
0.032780223 0.14222014 -0.064574115 0.072172634 0.20148586 0.105449796 0.11341599 0.16161823
-0.70943266 -0.72385 -0.60778606 -0.6398576 0.1293503 0.061338745 -0.06598035 -0.14814647
0.6429062 -0.0820041 0.12940139 0.56708497 -0.8357581 -0.34569874 -0.004166461 0.7171665
0.76920867 0.8527495 0.7179142 0.479399 -0.003402463 -0.51730704 -1.0819868 -1.9605138
-0.89245915 -0.36261827 0.12604652 -0.078032546 0.18219797 0.4290901 -0.15014921 0.48622409
-0.26228774 0.13744903 0.08739194 0.15717638 -0.8431488 -0.71788216 -0.6194656 -1.0529104
-0.009994958 0.1925293 0.22731997 -0.3172998 -0.14801583 0.2191614 -0.16706721 0.10038678
-0.6934812 -0.8104272 -0.90391344 -1.6867709 0.9460297 0.09852738 -0.37062967 -0.62335706
0.25056124 -0.08737051 -0.46710256 0.46878207 -1.3963912 -0.80329907 -0.13629328 0.114589304
0.02351144 0.07857365 0.0023643908 -0.04185921 -2.1996422 -1.079605 -0.105685525 0.90600276
0.3861743 0.076207675 -0.15349971 0.384169 0.052331727 0.22664636 0.023092214 0.06374707
0.34386522 0.2095302 0.08958456 0.12985113 0.06340046 0.12984207 0.069419146 0.0046454514
-0.14827925 -0.50348383 -0.7543548 -0.9505307 0.4988687 0.2281114 -0.16598089 -0.43169367
0.115846366 0.14009732 -0.007266723 0.10225892 0.5915944 0.29746068 -0.006643171 -0.32949445
0.5566204 0.38730273 0.4534031 0.6969818 -0.23566301 -0.16953035 -0.016691832 -0.13725035
-1.1047329 -0.9898074 -0.062287793 -0.43011755 0.25662675 0.20794462 0.085719034 -0.082731076
-0.43103048 -0.3000776 0.0073824297 0.676814 -0.31192333 -0.12106482 0.08113702 0.15420693
00000000: 7f2d 14bd 96cf e1bd 9930 03be 7fdc 133d
00000010: bcf8 f13e 2f46 ea3e 2a2f 933e 6814 8d3e
00000020: fa54 79bf 0d99 44bf d758 22bf 0428 88bf
00000030: 59b2 ecbc d053 a83d 4722 223e ac30 ea3d
00000040: cf6f e7be 3c4e afbe e919 5e3c 650a 25be
00000050: aa0b fc3e 4f73 813e ad17 30be 562f 443e
00000060: 95bc 0dbf 84c7 81be 3313 fcbe 05bd f5be
00000070: 442c bb3b e82d 293e 3681 033f 8385 c43e
00000080: 0fd6 38bf 159d 26bf 7060 04be e44f 833d
00000090: 5c2f 783e 9439 ff3d 8c31 cb3d 5236 413d
000000a0: 23dc 4cbd 5525 fcbe 0e23 76bf 1e6a 9cbf
000000b0: 9207 4a3f 54cb 563e 55f0 88be 8dc0 24bf
000000c0: 8f88 3dbf cee4 0cbe 3d36 883e 5d41 adbd
000000d0: 782b 1e3d f521 3b3e 6fcd a3bd 4f27 023d
000000e0: cc5f 983e 5f58 6d3e d2d8 29bd b31f f3bd
000000f0: 5426 853e 3d68 083d f21d 3cbd b9eb a2bd
00000100: 8c66 a23e 0f72 e63c 33a1 e73c 387c d43d
00000110: a00d 853c 0734 5f3e 6fc8 d03d 5496 1ebe
00000120: 7c00 c23d aa6e 093e 14df 0ebe 37c6 cd3a
00000130: 7b29 df3e a6a2 7a3e 632b 0dbe f855 f63b
00000140: b667 a3bf b448 7abf cc17 bc3e 5c67 8fbf
00000150: 4469 acbd 1381 633e 4e37 a63e bdf9 5b3e
00000160: b2ed b4bb e047 8c3e a8ef e03e 25ba 063f
00000170: a843 92bf ef27 77bf 0392 43bf c996 36bf
00000180: 93af 01c0 cbf9 31bf 1673 74bd 1574 cabd
00000190: 0d69 003f 6b11 e13e 362c bc3e 126c 71bb
000001a0: e47e 863e e4f5 3a3e e788 043e ff3f c23c
000001b0: c582 04be 87cb 543d 1e06 a43d 7417 e73d
000001c0: 788a 89bf 3218 62bf adbb 14bf 54fd b7be
000001d0: 35a7 cc3e 2531 963e a425 8ebc d9a2 75be
000001e0: 8e44 063d 28a2 113e 6f3f 84bd 3fcf 933d
000001f0: 4f52 4e3e 10f6 d73d a446 e83d 407f 253e
00000200: 619d 35bf 3c4e 39bf de97 1bbf b5cd 23bf
00000210: 6874 043e 563e 7b3d b520 87bd b5b3 17be
00000220: 8095 243f c4f1 a7bd cc81 043e 7b2c 113f
00000230: 3ef4 55bf 6dff b0be cf86 88bb 3998 373f
00000240: dcea 443f cb4d 5a3f 3ac9 373f c973 f53e
00000250: dbfb 5ebb 3c6e 04bf 8b7e 8abf 1ef2 fabf
00000260: 3478 64bf 1aa9 b9be 5712 013e 87cf 9fbd
00000270: 1b92 3a3e b3b1 db3e b7c0 19be 5df2 f83e
00000280: 944a 86be 70bf 0c3e 8cfa b23d d8f2 203e
00000290: 9ad8 57bf 20c7 37bf 4c95 1ebf c5c5 86bf
000002a0: e4c1 23bc 6726 453e 91c6 683e 1f75 a2be
000002b0: 7691 17be d96b 603e ab13 2bbe 9697 cd3d
000002c0: fc87 31bf 2878 4fbf df66 67bf 1ce8 d7bf
000002d0: 012f 723f b9c8 c93d 2cc3 bdbe 5494 1fbf
000002e0: 9049 803e 4fef b2bd 1128 efbe 3404 f03e
000002f0: f2bc b2bf 02a5 4dbf 7790 0bbe ccad ea3d
00000300: 109b c03c 39eb a03d e5f3 1a3b 9074 2bbd
00000310: f0c6 0cc0 7f30 8abf a771 d8bd ccef 673f
00000320: a3b8 c53e c512 9c3d 072f 1dbe cdb1 c43e
00000330: cb59 563d fc15 683e e22b bd3c d38d 823d
00000340: 1a0f b03e 168f 563e 1c78 b73d b2f7 043e
00000350: 1ad8 813d 52f5 043e a02b 8e3d df38 983b
00000360: 84d6 17be 51e4 00bf 651d 41bf fb55 73bf
00000370: b86b ff3e 0996 693e e5f6 29be f406 ddbe
00000380: dc40 ed3d ac75 0f3e b11d eebb 206d d13d
00000390: bb72 173f c44c 983e f5ae d9bb 7fb3 a8be
000003a0: ad7e 0e3f 8b4c c63e 7324 e83e 666d 323f
000003b0: a551 71be 5d99 2dbe 4fbd 88bc 5b8b 0cbe
000003c0: e367 8dbf 0564 7dbf 7c21 7fbd 5e38 dcbe
000003d0: 9564 833e 6fef 543e 768d af3d e96e a9bd
000003e0: 07b0 dcbe c5a3 99be 4fe8 f13b af43 2d3f
000003f0: 6ab4 9fbe d5f0 f7bd 2a2b a63d 6ce8 1d3e

encoder.rnn.weight_hh_l0 f4 [128, 32]
-0.34519193 0.29726312 -1.4095844 0.86748403 0.31779334 2.0152073 -1.3134334 -6.8659854
-0.64537746 0.7247325 1.1034105 -1.1443497 1.711507 3.1259496 2.2705183 -5.2937264
1.4724951 -2.352005 -0.7669975 -1.1156384 0.76279885 2.3146384 -0.41435546 -1.8403838
1.1833396 -7.3445406 -1.9891082 -2.2419906 -0.36006147 -0.80671346 -1.9812063 0.4684024
0.07706974 0.091869295 0.6513527 0.2987603 -0.26236814 0.22577277 -0.28077143 -0.10617507
-0.047146395 -0.6390092 -0.8663874 -0.4506091 0.2680652 0.0211247 0.25094214 0.47851917
0.3924287 -0.27755946 -0.2755047 -0.08838461 0.66304904 -0.7042052 -0.16566923 -0.31332186
0.88634044 0.45134917 0.18179357 0.31079313 0.2495516 -0.8258037 0.36827382 0.1619129
-1.2821912 -0.6294105 -9.01345 2.0473702 0.62211466 -0.65135026 -1.8385191 6.9550877
-1.5741125 0.3288064 -0.3799329 0.5668592 0.040979758 1.0386835 1.252108 0.5802926
-0.3345149 -2.6476104 0.5175186 0.8676132 0.6219463 -3.969101 0.743276 0.8817063
-0.27884552 0.77936965 0.025717452 1.9175583 -0.6351148 0.59281474 1.8718495 0.6737082
2.5673456 -0.1586582 -2.7470737 3.0315998 0.013028614 -1.2356988 0.11035714 0.4662258
-0.86597615 -4.7819686 1.3790413 0.37866825 -0.19192459 2.3060749 -1.4643346 -0.21166539
-0.18217091 0.05926884 0.054695033 1.7169433 -1.2043307 1.3379529 0.87823826 1.9073255
-1.5007725 -1.6875815 -1.4069806 -3.218419 0.11689851 1.3769877 2.3291888 0.65400857
0.7665358 0.06650463 0.4302149 1.1180217 -0.49680707 -0.022459224 -0.8698958 0.22357681
0.14947768 -0.741286 -0.80986285 -0.4221594 0.44099465 -0.03720878 0.27269796 0.12628196
1.0034636 0.4589052 -0.66125876 -0.07044742 0.45491835 0.2910691 -0.057876468 -0.061807696
1.2403575 0.09549446 -0.22271805 -0.07423078 -0.31376028 -0.65087366 -0.4541548 -0.50790185
0.31117424 0.19734207 -0.46585375 0.027812492 -0.0053599635 -0.22950757 -0.33713025 -0.09858667
-0.054702073 -0.1445165 -0.8781729 0.22426593 -0.110293835 0.09035145 0.023973629 0.97427624
0.022507511 0.3855147 -0.0317066 0.059125938 -0.2952858 -0.8686522 -0.2691349 -0.09724096
0.2671764 0.04820315 0.0180589 0.0065720812 0.6202868 -0.711969 -0.22114068 -0.25049108
-7.457763 -1.0276064 3.172441 0.9887742 1.1213946 1.1861624 -0.27110338 3.9189298
1.3515611 -2.123352 -1.115431 1.2069976 -1.172963 -14.828852 0.7183295 4.341671
-1.3628353 -0.9048326 1.299005 1.5065944 -0.80894417 0.9518143 0.8642433 2.455026
-0.6765616 2.916275 -1.6859324 1.1247097 0.93996155 2.148664 4.9409537 0.8901692
0.41551092 0.43923885 1.692619 1.5822853 0.06562155 1.1017345 0.12128115 -2.198272
0.32925493 1.3264924 0.6557697 -0.19075553 0.18901217 -3.1533062 0.631809 -1.7132703
0.34027764 5.1755753 -0.4476368 -0.28174227 0.3811175 3.579965 -0.64086425 -0.025602382
0.10954628 1.2200447 -3.0283809 -0.45932814 -0.121607095 -1.3057252 -0.65874314 -1.8967996
00000000: ffbc b0be df32 983e 436d b4bf 6f13 5e3f
00000010: cfb5 a23e 28f9 0040 961e a8bf 27b6 dbc0
00000020: 7537 25bf 1288 393f 8e3c 8d3f 0d7a 92bf
00000030: a912 db3f 8f0f 4840 2c50 1140 3566 a9c0
00000040: b87a bc3f 4087 16c0 f359 44bf 3dcd 8ebf
00000050: c946 433f 0923 1440 6626 d4be b291 ebbf
00000060: ac77 973f 7a06 ebc0 199b febf c67c 0fc0
00000070: fa59 b8be c684 4ebf 2b98 fdbf 70d2 ef3e
00000080: bdd6 9d3d f825 bc3d 0dbf 263f 1cf7 983e
00000090: 1e55 86be fa30 673e 46c1 8fbe 5172 d9bd
000000a0: 941c 41bd 1b96 23bf 91cb 5dbf 3cb6 e6be
000000b0: d83f 893e b50d ad3c 7d7b 803e 7700 f53e
000000c0: 6aec c83e 461c 8ebe f40e 8dbe fe02 b5bd
000000d0: 95bd 293f cb46 34bf 32a5 29be b96b a0be
000000e0: 35e7 623f 3d17 e73e 1828 3a3e 4720 9f3e
000000f0: 748a 7f3e df67 53bf 638e bc3e 7fcc 253e
00000100: d71e a4bf 0c21 21bf 1737 10c1 1d08 0340
00000110: e842 1f3f e4be 26bf 9854 ebbf 1490 de40
00000120: 857c c9bf 5059 a83e 9186 c2be af1d 113f
00000130: 64da 273d 95f3 843f 1345 a03f 0e8e 143f
00000140: 8945 abbe 7372 29c0 197c 043f e61b 5e3f
00000150: df37 1f3f c005 7ec0 5647 3e3f 81b7 613f
00000160: d7c4 8ebe c584 473f 68ad d23c 8d72 f53f
00000170: e296 22bf b5c2 173f c498 ef3f 2478 2c3f
00000180: 644f 2440 4c77 22be 0ed0 2fc0 bb05 4240
00000190: f875 553c 612b 9ebf ed02 e23d 26b5 ee3e
000001a0: 9db0 5dbf e305 99c0 6d84 b03f cee0 c13e
000001b0: e187 44be bb96 1340 516f bbbf d0be 58be
000001c0: 038b 3abe e2c3 723d e607 603d ccc4 db3f
000001d0: 8227 9abf 0a42 ab3f 39d4 603f 3e23 f43f
000001e0: 5019 c0bf ac02 d8bf f117 b4bf 94fa 4dc0
000001f0: 7c68 ef3d 2241 b03f 6e11 1540 1b6d 273f
00000200: b13b 443f 9433 883d 2145 dc3e 561b 8f3f
00000210: 7f5d febe 68fc b7bc 7eb1 5ebf 52f1 643e
00000220: ad10 193e ebc4 3dbf 2c53 4fbf 4725 d8be
00000230: 0dca e13e 3c68 18bd 119f 8b3e 0f50 013e
00000240: 7f71 803f 9ff5 ea3e 4148 29bf bd46 90bd
00000250: 0feb e83e 0207 953e e00f 6dbd 112a 7dbd
00000260: 09c4 9e3f 9992 c33d 3310 64be 4f06 98bd
00000270: 30a5 a0be a89f 26bf fa86 e8be db05 02bf
00000280: 3b52 9f3e 0a14 4a3e 6284 eebe 06d7 e33c
00000290: a2a2 afbb 0804 6bbe 569c acbe cfe7 c9bd
000002a0: 480f 60bd 22fc 13be f0cf 60bf f8a5 653e
000002b0: bce1 e1bd 2e0a b93d 5864 c43c 2b6a 793f
000002c0: ac61 b83c 2f62 c53e c8de 01bd 0a2e 723d
000002d0: b32f 97be fe5f 5ebf 0dcc 89be 4526 c7bd
000002e0: 58cb 883e ab70 453d 42f0 933c 9d5a d73b
000002f0: 1ecb 1e3f 9a43 36bf b472 62be 5e40 80be
00000300: ffa5 eec0 9b88 83bf 4609 4b40 4e20 7d3f
00000310: dc89 8f3f 2bd4 973f 10ce 8abe bfcf 7a40
00000320: f4ff ac3f 00e5 07c0 71c6 8ebf e67e 9a3f
00000330: a723 96bf fa42 6dc1 71e4 373f f8ee 8a40
00000340: 6371 aebf 1ca3 67bf cc45 a63f 16d8 c03f
00000350: f716 4fbf 1aaa 733f 0d3f 5d3f 251f 1d40
00000360: 2433 2dbf 40a4 3a40 a2cc d7bf 7df6 8f3f
00000370: 52a1 703f b683 0940 4b1c 9e40 21e2 633f
00000380: d9bd d43e eae3 e03e bda7 d83f 5388 ca3f
00000390: 9764 863d a305 8d3f 4062 f83d 7db0 0cc0
000003a0: 1a94 a83e 81ca a93f 86e0 273f 6b55 43be
000003b0: 688c 413e c5cf 49c0 3cbe 213f 714c dbbf
000003c0: df38 ae3e 509e a540 a730 e5be 8640 90be
000003d0: d521 c33e 261e 6540 ae0f 24bf 16bc d1bc
000003e0: cd59 e03d 6d2a 9c3f fed0 41c0 0f2d ebbe
000003f0: 240d f9bd 0122 a7bf 64a3 28bf 54ca f2bf

encoder.rnn.bias_ih_l0 f4 [128]
1.5198783 0.64420015 -0.56569654 0.30741173 0.92948407 1.1871705 -1.0660841 0.35595685
1.3335965 0.15193765 0.8317437 0.28664428 -0.5833772 0.25023225 1.3393594 0.7984419
0.495481 0.506336 1.5608592 -1.1755093 0.16425742 0.03946728 0.6398799 0.78220344
0.47755846 0.87261856 0.41005853 1.2468199 2.165184 -0.9945016 1.2707318 1.0608765
0.7415879 -1.0487396 1.1139214 0.4603684 -1.2038172 0.813031 0.39738798 -0.1347881
-1.3206897 1.3920339 -0.51448286 1.0137404 1.111185 0.21508892 0.5245162 0.3848582
0.7108333 -0.7510886 0.05637673 1.0974604 0.258004 -1.3245883 -0.910615 -1.5575862
0.87740684 0.082669385 1.5135162 0.60520875 -2.560354 0.6912777 -1.5653579 0.08989913
1.0166605 0.57899916 0.7491913 0.35358202 -1.0690206 -0.84307486 -0.020022834 -2.386515
1.494522 -1.5111274 0.48372668 -1.2886347 1.0474218 1.2283152 0.71644455 1.9869299
0.6902532 0.19420907 -0.9357466 -0.57196456 0.6575008 0.5057555 -0.6357394 -1.5746208
1.1708283 -1.9121171 0.27799377 -0.4702178 -0.6989805 -0.25561237 -1.2037075 -0.953673
1.6337475 -0.7906798 0.29643333 -0.31123245 1.3003722 -1.4887708 1.3527846 0.66332644
-0.1412839 1.4508889 -1.1434324 1.4719906 1.666674 0.23050344 -0.65564317 1.1002755
1.0534248 0.677985 1.766503 0.23201333 -0.17776136 2.4173634 0.12760909 -0.48582074
2.0497859 0.93731594 1.0648143 0.4518189 -0.58131653 -0.33319706 -0.07334439 -0.9604385
00000000: 5f8b c23f 4dea 243f 7dd1 10bf 1265 9d3e
00000010: abf2 6d3f 34f5 973f 7275 88bf fa3f b63e
00000020: 4ab3 aa3f 8b95 1b3e 28ed 543f 0ac3 923e
00000030: 3558 15bf 711e 803e 2170 ab3f b066 4c3f
00000040: b0af fd3e 3c9f 013f 3cca c73f 1777 96bf
00000050: 1933 283e 71a8 213d 2bcf 233f 7c3e 483f
00000060: 8b82 f43e ee63 5f3f 31f3 d13e cb97 9f3f
00000070: 6092 0a40 a897 7ebf 57a7 a23f cdca 873f
00000080: b4d8 3d3f 193d 86bf fa94 8e3f 68b5 eb3e
00000090: af16 9abf cd22 503f 7076 cb3e e405 0abe
000000a0: 5c0c a9bf 2b2e b23f 26b5 03bf 3fc2 813f
000000b0: 4f3b 8e3f 4540 5c3e b246 063f 220c c53e
000000c0: 2cf9 353f 5847 40bf 49eb 663d 9579 8c3f
000000d0: 1a19 843e 1c8c a9bf 111e 69bf fc5e c7bf
000000e0: bc9d 603f 914e a93d e6ba c13f f6ee 1a3f
000000f0: d7dc 23c0 93f7 303f a65d c8bf 091d b83d
00000100: ee21 823f 4a39 143f 00cb 3f3f b408 b53e
00000110: abd5 88bf c1d3 57bf ed06 a4bc a9bc 18c0
00000120: 7f4c bf3f 9f6c c1bf 06ab f73e fbf1 a4bf
00000130: eb11 863f 6f39 9d3f e968 373f b853 fe3f
00000140: 6fb4 303f bede 463e 178d 6fbf 456c 12bf
00000150: f951 283f 3179 013f d1bf 22bf 2d8d c9bf
00000160: b4dd 953f 41c0 f4bf 3355 8e3e 63c0 f0be
00000170: 63f0 32bf a0df 82be 1613 9abf ea23 74bf
00000180: a31e d13f fe69 4abf 1cc6 973e dc59 9fbe
00000190: 9972 a63f 0b90 bebf 0c28 ad3f c3cf 293f
000001a0: baac 10be bab6 b93f fe5b 92bf 306a bc3f
000001b0: 9355 d53f 1809 6c3e 3bd8 27bf d4d5 8c3f
000001c0: a0d6 863f 6d90 2d3f c51c e23f e794 6d3e
000001d0: 1307 36be 15b6 1a40 f5ab 023e 7fbd f8be
000001e0: b12f 0340 f0f3 6f3f d64b 883f cf54 e73e
000001f0: 29d1 14bf ce98 aabe 9535 96bd 4cdf 75bf

encoder.rnn.bias_hh_l0 f4 [128]
1.5333879 0.6429818 -0.5006105 0.31835535 0.9214901 1.1810963 -1.0619159 0.35234573
1.3336776 0.3731388 0.8167936 0.28613296 -0.60053176 0.29332054 1.3356044 0.8729111
0.49534425 0.51264095 1.5631061 -1.1621277 0.19850476 0.014651066 0.640252 0.7875002
0.4720775 0.9455374 0.4080261 1.2374501 2.198583 -1.0232413 1.260275 1.0609117
0.7747545 -1.0455726 1.0804393 0.47692394 -1.2423557 0.8128806 0.39423186 -0.13177358
-1.3365448 1.3684947 -0.5103443 1.0483608 1.1084006 0.35480416 0.5302596 0.32584855
0.7109086 -0.78876495 0.055778846 1.0921723 0.30405197 -1.3973367 -0.9080874 -1.5536013
0.8781896 -0.07579231 1.5755537 0.6292509 -2.718983 0.6838689 -1.5676457 0.07107637
1.067418 0.5794858 0.76800215 0.4455625 -1.0712907 -0.843219 -0.1019944 -2.387705
1.5387837 -1.5418681 0.4935761 -1.2927264 1.0475013 1.2285162 0.7238874 1.9620205
0.6902535 0.21108273 -0.9357466 -0.57543725 0.63512796 0.50432783 -0.63571167 -1.6136904
1.1370021 -1.8973969 0.19452421 -0.45570412 -0.793897 -0.25560686 -1.1849884 -0.95400006
1.6800382 -0.92223567 0.24519107 -0.2395027 1.292255 -1.3746479 1.3747742 0.6630538
-0.27631313 1.4551015 -1.1514171 1.45993 1.6670771 0.16385166 -0.569489 1.10824
0.96715117 0.79310066 1.6156965 0.23361821 -0.26267153 2.4520948 0.093957566 -0.54713356
2.0418718 1.0820665 1.0080209 0.24097209 -0.6034271 -0.32372507 -0.16822067 -0.9029042
00000000: 0e46 c43f 759a 243f 0228 00bf 79ff a23e
00000010: c6e6 6b3f 2a2e 973f dcec 87bf a966 b43e
00000020: f3b5 aa3f 0c0c bf3e 6319 513f 0580 923e
00000030: 73bc 19bf 1c2e 963e 16f5 aa3f 1a77 5f3f
00000040: c39d fd3e 703c 033f dc13 c83f 9ac0 94bf
00000050: d544 4b3e 060b 703c 8ee7 233f 9d99 493f
00000060: 24b4 f13e bd0e 723f cce8 d03e c464 9e3f
00000070: 95b5 0c40 92f9 82bf b150 a13f f4cb 873f
00000080: 5056 463f 53d5 85bf d64b 8a3f 602f f43e
00000090: 8305 9fbf f118 503f c2d8 c93e a7ef 06be
000000a0: e613 abbf d62a af3f eda5 02bf b030 863f
000000b0: 12e0 8d3f e4a8 b53e 18bf 073f 9fd5 a63e
000000c0: 1bfe 353f 80ec 49bf 5c78 643d 4dcc 8b3f
000000d0: b3ac 9b3e eedb b2bf 6a78 68bf 68dc c6bf
000000e0: 09d1 603f 0039 9bbd beab c93f 9616 213f
000000f0: d103 2ec0 0812 2f3f 9da8 c8bf 7d90 913d
00000100: 27a1 883f 2e59 143f ca9b 443f c520 e43e
00000110: 0e20 89bf 33dd 57bf 71e2 d0bd 29d0 18c0
00000120: ddf6 c43f ef5b c5bf 02b6 fc3e 0f78 a5bf
00000130: 8614 863f 0540 9d3f af50 393f 7d23 fb3f
00000140: 74b4 303f 1226 583e 178d 6fbf db4f 13bf
00000150: bf97 223f a11b 013f 00be 22bf 688d cebf
00000160: 4989 913f e7dd f2bf 5b31 473e 0d52 e9be
00000170: d53c 4bbf e7de 82be b3ad 97bf 5939 74bf
00000180: 7e0b d73f a317 6cbf 5e13 7b3e 3240 75be
00000190: 9d68 a53f 76f4 afbf 9af8 af3f e5bd 293f
000001a0: ea78 8dbe c440 ba3f a361 93bf fcde ba3f
000001b0: c862 d53f bbc8 273e 08ca 11bf cfda 8d3f
000001c0: 3897 773f a508 4b3f 25cf ce3f 9d39 6f3e
000001d0: e27c 86be 1fef 1c40 d36c c03d f210 0cbf
000001e0: 07ae 0240 2881 8a3f d406 813f 63c1 763e
000001f0: 337a 1abf 4bbf a5be 0a42 2cbe bb24 67bf

decoder.rnn.weight_ih_l0 f4 [256, 32]
0.4515263 0.009031677 0.5284555 -0.52137303 -0.58130956 -0.4379665 1.160711 2.4343338
-1.3680173 1.8428255 0.29169738 -0.82067454 0.633758 -0.44565114 0.53733087 -4.057538
0.8954886 -0.6509729 -0.8716709 0.8246575 0.12947439 -0.08557127 -0.7099561 -0.6513499
0.6360542 -1.4331383 -0.92713934 -0.7254233 -0.95468235 -1.0291046 -0.10625253 0.150867
0.15113865 0.08040985 1.0092937 -0.8849888 -0.014512886 0.15990154 1.2452079 0.8169339
0.21181059 -0.44348606 -0.08761585 0.03602229 0.083484024 0.59206414 1.363674 -0.11756826
-0.041132785 -0.7662746 -0.024381403 -0.6544127 0.02336747 -1.973763 -0.08078282 -0.45237646
0.07029805 0.6331332 0.13703783 1.9255582 -0.42587018 -0.49076623 -2.5635414 -1.6147323
-0.8738801 0.21442918 -0.79495233 0.13762426 0.3152952 -1.0391225 -1.3134496 0.2376596
0.2803136 -0.15028311 -0.327448 0.69614476 -0.42473724 -0.34375703 0.003543533 -0.070261285
-0.653808 -0.29230407 0.6502014 -0.23803444 0.42952964 -0.32849094 0.3626652 -0.045304257
-0.53930223 -1.2768359 0.6054727 0.34671113 0.37295678 -1.5340986 -0.22983159 -0.1492587
0.3439671 0.06611018 -1.2020292 -0.23574957 -0.20294873 0.16145153 -3.2986953 -1.26369
-1.3696953 -1.8161582 0.01191084 -0.108867675 0.24680242 2.9986694 -2.1920657 2.4142737
0.27319062 -0.85284126 -0.2617893 0.22516668 0.13469589 -4.245301 -0.32764244 -0.37620926
0.28579247 0.28005475 -0.21811059 1.1562743 0.9570004 0.87506473 -0.555573 -1.1104432
0.07888145 1.6410228 -0.06930919 -0.30928972 0.11765076 -0.39921832 -0.97678727 0.27849907
1.0550941 -1.094384 1.0381912 -0.11177091 0.1307599 -1.4783496 0.010037383 0.6710666
0.2979171 0.65502894 -0.56006217 -0.75068355 0.64328027 0.8390237 -0.07914546 -0.06348021
0.093842134 0.28942996 0.13603732 -0.44603747 -1.8501707 -0.26306403 0.8343712 0.4494159
0.5087233 2.0013742 1.1595834 0.17114808 -0.31789008 -3.9786816 0.5096489 1.0222001
-0.82375205 -1.2720453 0.93126434 -0.10101775 0.16938592 -0.510447 -0.33804694 -0.21990047
0.103648975 0.3160387 -0.19083495 0.053520188 1.0244622 -1.0448 0.15939644 -0.79268086
0.24149525 2.4220414 0.7730004 0.30060014 -0.30439863 0.2017314 1.9847515 -1.0392228
0.3253274 0.52819127 1.6630015 2.1682756 -0.34690577 0.37785923 -1.0458508 -0.3486878
1.2989674 -0.8474396 0.26023346 -0.44397163 0.4491728 0.22131443 1.4606509 0.93593144
0.44366944 -0.00040851117 -0.44322613 -0.3875853 0.38845134 0.71620524 -0.33434346 -0.4238752
0.44963604 -1.2009088 0.5804484 -2.1144977 0.2694136 0.036803056 -2.0287955 2.2132144
-0.06573529 0.4466895 -0.6562413 1.0083954 -0.11287001 -0.32377285 -0.14774714 1.1486195
-0.48703405 -1.1741167 -0.04321911 0.07338105 0.04762942 -1.213369 -0.12461181 0.65458417
-0.2517128 0.15380597 0.26887283 0.22936815 0.023150759 0.11285221 0.03157513 -0.31105474
0.0020092505 0.38140315 1.3767247 -0.08123745 0.12287297 -0.049936768 -0.09085932 -0.6461584
00000000: 752e e73e 99f9 133c dc48 073f b478 05bf
00000010: b4d0 14bf 253d e0be 2e92 943f 20cc 1b40
00000020: 311b afbf b5e1 eb3f 5c59 953e ba17 52bf
00000030: f73d 223f 632c e4be 848e 093f 5ad7 81c0
00000040: be3e 653f 29a6 26bf d325 5fbf c11c 533f
00000050: ef94 043e fd3f afbd afbf 35bf debe 26bf
00000060: 73d4 223f 1371 b7bf 0159 6dbf 57b5 39bf
00000070: 1066 74bf b3b9 83bf ed9a d9bd e17c 1a3e
00000080: 17c4 1a3e ebad a43d 8930 813f a08e 62bf
00000090: 75c7 6dbc 3bbd 233e f962 9f3f 9422 513f
000000a0: e0e4 583e 9b10 e3be f06f b3bd 1c8c 133d
000000b0: acf9 aa3d 8491 173f df8c ae3f a1c7 f0bd
000000c0: da7a 28bd 922a 44bf 82bb c7bc 9787 27bf
000000d0: 236d bf3c 44a4 fcbf 7771 a5bd e39d e7be
000000e0: 6df8 8f3d 0415 223f a553 0c3e b178 f63f
000000f0: a80b dabe b645 fbbe 1011 24c0 8caf cebf
00000100: 9bb6 5fbf 5393 5b3e ff81 4bbf 60ed 0c3e
00000110: 5f6e a13e f701 85bf 1e1f a8bf 0a5d 733e
00000120: 4485 8f3e d1e3 19be 44a7 a7be 8b36 323f
00000130: 2977 d9be ec00 b0be 9e3a 683b 26e5 8fbd
00000140: f65f 27bf e1a8 95be 9973 263f 4dbf 73be
00000150: 4feb db3e f72f a8be 41af b93e f590 39bd
00000160: b60f 0abf 5c6f a3bf 4200 1b3f 1f84 b13e
00000170: 31f4 be3e 585d c4bf f958 6bbe 46d7 18be
00000180: 751c b03e c664 873d 18dc 99bf 5668 71be
00000190: cbd1 4fbe 8d53 253e d31d 53c0 98c0 a1bf
000001a0: 2d52 afbf df77 e8bf af25 433c 04f6 debd
000001b0: c6b9 7c3e 33ea 3f40 ce4a 0cc0 7683 1a40
000001c0: a4df 8b3e ce53 5abf 3f09 86be 1892 663e
000001d0: b8ed 093e 81d9 87c0 c0c0 a7be 809e c0be
000001e0: 6453 923e 5663 8f3e 6258 5fbe cc00 943f
000001f0: fafd 743f 3e04 603f 083a 0ebf 0123 8ebf
00000200: 998c a13d 090d d23f faf1 8dbd 395b 9ebe
00000210: e2f2 f03d 5866 ccbe bb0e 7abf 6e97 8e3e
00000220: 530d 873f c614 8cbf 73e3 843f 26e8 e4bd
00000230: ece5 053e 8f3a bdbf d673 243c 05cb 2b3f
00000240: 9788 983e faaf 273f 3c60 0fbf cc2c 40bf
00000250: 04ae 243f 42ca 563f 0417 a2bd ea01 82bd
00000260: 4e30 c03d 2a30 943e 5e4d 0b3e 065f e4be
00000270: 65d2 ecbf 54b0 86be 5a99 553f d719 e63e
00000280: b13b 023f 8416 0040 3b6d 943f 7141 2f3e
00000290: 7dc2 a2be b8a2 7ec0 5a78 023f 74d7 823f
000002a0: 6ae1 52bf 61d2 a2bf 5767 6e3f 65e2 cebd
000002b0: 8173 2d3e a8ac 02bf 7d14 adbe 972d 61be
000002c0: ea45 d43d d3cf a13e 3d6a 43be fc37 5b3d
000002d0: 9421 833f 02bc 85bf d238 233e 22ed 4abf
000002e0: 884a 773e ba02 1b40 5be3 453f 43e8 993e
000002f0: 23da 9bbe ad92 4e3e 560c fe3f 4105 85bf
00000300: 5091 a63e 8b37 073f 3cdd d43f 07c5 0a40
00000310: a29d b1be c476 c13e 70de 85bf 3587 b2be
00000320: 9044 a63f cdf1 58bf 523d 853e 4050 e3be
00000330: faf9 e53e 40a0 623e 9cf6 ba3f 3499 6f3f
00000340: a428 e33e 712d d6b9 89ee e2be 9571 c6be
00000350: 18e3 c63e 3a59 373f 112f abbe 2c06 d9be
00000360: b236 e63e 61b7 99bf 4498 143f ee53 07c0
00000370: 94f0 893e cdbe 163d c9d7 01c0 4ea5 0d40
00000380: 39a0 86bd 7cb4 e43e 6eff 27bf 1a13 813f
00000390: 6428 e7bd 8ec5 a5be 074b 17be f705 933f
000003a0: 875c f9be 7549 96bf 8606 31bd ce48 963d
000003b0: 1117 433d ad4f 9bbf 7a34 ffbd d492 273f
000003c0: 80e0 80be 507f 1d3e b3a9 893e 7cdf 6a3e
000003d0: a9a6 bd3c 0f1f e73d ec54 013d 9142 9fbe
000003e0: a1ad 033b 4647 c33e 8438 b03f d25f a6bd
000003f0: d3a4 fb3d 7f8a 4cbd 7314 babd a36a 25bf

decoder.rnn.weight_hh_l0 f4 [256, 64]
-0.53723043 0.5907507 2.9509223 -1.1163684 1.2529714 -0.23933902 -1.9373149 1.3390034
-0.14074534 -4.130347 0.34747168 -0.2202422 -0.5994705 -1.7629654 2.320522 -0.007948762
-0.20253481 0.84804064 0.14336058 -0.012549117 -0.28717607 2.9048595 0.095765814 0.9628183
0.13532604 -0.76679987 1.6841441 -1.2101442 0.20985992 -0.26716593 1.3584651 1.1429349
-0.9311728 0.30055076 0.82045895 0.93595064 0.67138314 0.06457426 0.85048515 0.6965367
-0.05675142 0.34738803 4.1087856 -0.28016707 -0.6170765 0.65372163 -0.24943142 -0.032281153
-0.94199765 -0.11244231 -0.121495634 0.80607456 -3.5383654 0.1846149 -1.4736333 1.123089
-0.23098122 0.41289043 0.046359826 -0.7819194 -0.2156839 -0.16633862 1.2814301 -0.16176103
0.3431387 -0.9625227 2.954986 -0.6667439 -1.3755577 0.4329005 -1.0777097 -0.57268655
0.36921585 -1.039471 0.56067485 0.19804616 -0.1746455 -1.6811705 -3.998154 -0.50955033
0.39487273 -0.005124629 -0.39208084 0.14912383 -1.8421761 -0.108696036 -0.08699435 7.2591023
-0.26284912 0.15666074 1.3639836 1.3755721 4.8709474 0.97176224 0.256148 -0.28671175
-9.896871 -1.5511981 -1.6759002 0.6935259 -0.6525534 -0.2708731 -0.6257213 -3.4606256
-0.6424974 -0.62882656 -1.2653391 0.24109872 0.14444476 0.5869813 0.5825977 -0.13464746
0.43820092 0.25389427 -0.46019122 -0.40656018 -1.8557512 -0.3624519 0.31407318 0.6734653
0.34783408 3.4625401 0.4042781 -3.1275053 0.4004093 -0.2788281 -0.19660594 0.4694296
1.0854168 -0.8639144 -2.2373981 -0.07582918 3.201644 0.023211213 2.351251 0.12524386
-0.63449764 -1.1099879 0.3920375 -0.63821226 -0.40317154 -0.3825496 -5.437664 -0.051498
0.34560227 -0.18158014 0.3401099 0.4365322 -1.1332649 -1.3668876 0.1502074 1.3131496
0.0298064 -0.33776122 0.20240155 0.30948177 -0.15048935 -0.81162214 -0.05481804 1.7381306
-0.47561437 -0.04804309 0.70170873 -0.77014774 0.009316935 -0.2208954 -1.7347901 0.10555811
0.86227435 0.051081624 -4.752451 0.4782243 -0.35018477 2.0373194 -0.33515018 0.9296153
-0.17104435 0.46344867 -0.20641416 -1.0118105 -3.3520532 -0.36902976 0.13636458 0.10677899
0.4972846 1.4911354 0.25953218 0.1984305 0.6148043 -1.9428781 -5.153518 0.20910145
-1.6416224 0.12822117 -0.8528581 -1.1394656 2.054621 0.58209616 0.4407868 1.5193375
0.16551615 -0.7591951 -0.5174187 0.031483114 -1.0804895 -1.1211479 2.8340352 -0.016490959
0.30099255 0.113785625 -0.34281448 0.1371391 -1.7066871 2.5726492 -0.29348958 0.5934027
0.07275034 -0.9585786 0.7938518 2.600331 -0.95533335 0.60724616 -0.28470102 -0.5452263
-1.4994937 0.6450344 -0.13828948 1.1137489 -0.17106585 -0.25154483 0.43493107 3.5078807
0.3929793 1.511635 5.6142955 0.05222894 0.19936031 2.16139 0.99978304 0.21822388
-0.5834221 0.17685986 0.010818227 -0.32986897 -2.0777946 -0.3144471 1.0070717 -0.33659253
0.5874765 0.0099607045 0.31976032 0.16458754 0.29868352 1.7997793 -1.7109644 0.86978024
00000000: ef87 09bf 703b 173f e9db 3c40 29e5 8ebf
00000010: 5e61 a03f 4a15 75be eff9 f7bf 7764 ab3f
00000020: 8c1f 10be cd2b 84c0 cfe7 b13e 2c87 61be
00000030: e676 19bf daa8 e1bf 6f83 1440 863b 02bc
00000040: 4965 4fbe 3119 593f 1ecd 123e d09a 4dbc
00000050: be08 93be 38e9 3940 de20 c43d 437b 763f
00000060: e992 0a3e ff4c 44bf 0992 d73f 01e6 9abf
00000070: 85e5 563e f9c9 88be 2fe2 ad3f b14b 923f
00000080: 5761 6ebf cae1 993e 9909 523f 769a 6f3f
00000090: c4df 2b3f 823f 843d 65b9 593f 3b50 323f
000000a0: 2d74 68bd d8dc b13e 2c7b 8340 0f72 8fbe
000000b0: baf8 1dbf 4d5a 273f f36a 7fbe 3e39 04bd
000000c0: c226 71bf 2748 e6bd b4d2 f8bd e75a 4e3f
000000d0: 9474 62c0 b00b 3d3e 04a0 bcbf 61c1 8f3f
000000e0: 5786 6cbe 6066 d33e cde3 3d3d df2b 48bf
000000f0: 3edc 5cbe ac54 2abe e705 a43f afa4 25be
00000100: e0af af3e e367 76bf 7e1e 3d40 baaf 2abf
00000110: 4612 b0bf 22a5 dd3e 64f2 89bf 969b 12bf
00000120: dc09 bd3e 630d 85bf 6388 0f3f 9dcc 4a3e
00000130: 45d6 32be 9830 d7bf c1e1 7fc0 e471 02bf
00000140: c22c ca3e 81ec a7bb d2be c8be ebb3 183e
00000150: 6dcc ebbf 079c debd 182a b2bd 914a e840
00000160: 2994 86be ac6b 203e 0497 ae3f bf12 b03f
00000170: cdde 9b40 69c5 783f d525 833e e2cb 92be
00000180: 9559 1ec1 a98d c6bf e683 d6bf ea8a 313f
00000190: bd0d 27bf e1af 8abe 452f 20bf e47a 5dc0
000001a0: b67a 24bf c7fa 20bf a2f6 a1bf 95e2 763e
000001b0: 54e9 133e 6844 163f 1f25 153f 06e1 09be
000001c0: df5b e03e 6efe 813e 2f9e ebbe a828 d0be
000001d0: 4189 edbf 4c93 b9be 33ce a03e 3968 2c3f
000001e0: 4f17 b23e 429a 5d40 8afd ce3e 0c29 48c0
000001f0: 7302 cd3e 8fc2 8ebe 1153 49be 1459 f03e
00000200: f0ee 8a3f 7e29 5dbf 8831 0fc0 544c 9bbd
00000210: bce7 4c40 7125 be3c e57a 1640 ed3f 003e
00000220: 706e 22bf 1514 8ebf 24b9 c83e e161 23bf
00000230: 806c cebe 8bdd c3be 5801 aec0 91ef 52bd
00000240: c8f2 b03e 25f0 39be e322 ae3e 2681 df3e
00000250: d30e 91bf 2cf6 aebf f8cf 193e 4915 a83f
00000260: 8d2c f43c 0aef acbe 5a42 4f3e 6574 9e3e
00000270: e119 1abe 78c6 4fbf e288 60bd 107b de3f
00000280: ba83 f3be d5c8 44bd 2fa3 333f 6728 45bf
00000290: 0fa6 183c 6732 62be 9a0d debf da2e d83d
000002a0: 03be 5c3f f73a 513d 1414 98c0 d1d9 f43e
000002b0: 6b4b b3be 7163 0240 ce98 abbe 45fb 6d3f
000002c0: 4026 2fbe 2549 ed3e 3c5e 53be 0283 81bf
000002d0: 0a88 56c0 78f1 bcbe 28a3 0b3e f1ae da3d
000002e0: 169c fe3e 86dd be3f 67e1 843e 5d31 4b3e
000002f0: d163 1d3f 3bb0 f8bf 9fe9 a4c0 b11e 563e
00000300: af20 d2bf 694c 033e e954 5abf 02da 91bf
00000310: e97e 0340 4104 153f cfae e13e a779 c23f
00000320: 117d 293e 9c5a 42bf 8d75 04bf 70f4 003d
00000330: 7b4d 8abf c681 8fbf d560 3540 0c18 87bc
00000340: b21b 9a3e 7008 e93d 6185 afbe 316e 0c3e
00000350: b974 dabf 49a6 2440 4444 96be 3de9 173f
00000360: 21fe 943d 6865 75bf df39 4b3f d36b 2640
00000370: ba90 74bf 7c74 1b3f 55c4 91be f393 0bbf
00000380: 69ef bfbf f920 253f c29b 0dbe 538f 8e3f
00000390: e32b 2fbe 7cca 80be 49af de3e 1e81 6040
000003a0: 9534 c93e 417d c13f 4fa8 b340 03ee 553d
000003b0: 1c25 4c3e 3754 0a40 c8f1 7f3f 1576 5f3e
000003c0: 275b 15bf c01a 353e ef3e 313c 96e4 a8be
000003d0: 96fa 04c0 36ff a0be bae7 803f db55 acbe
000003e0: dc64 163f 3932 233c a0b7 a33e a389 283e
000003f0: 0ced 983e 2b5f e63f e200 dbbf eba9 5e3f

decoder.rnn.bias_ih_l0 f4 [256]
0.6406471 0.11673096 -0.3131089 0.31241024 0.11399491 0.3650079 0.45444307 0.064428054
0.06421829 0.63109374 0.6027996 0.455458 0.83934605 0.74215335 0.46062252 0.42707017
0.8035954 0.80441767 0.6078228 0.7781425 0.075470984 -0.68793195 0.31436813 -0.04480561
0.2664126 0.16726528 0.21300411 0.9914377 -0.30610165 0.13343687 0.7981573 0.016070448
0.35641026 -0.29776254 0.7459425 -0.28298256 0.8021263 0.7411743 0.5005628 -0.2426737
0.2601007 0.40603486 -0.15721242 0.075067036 0.7955285 0.26858732 0.5984589 0.6944525
0.22350974 0.8353152 0.7413958 0.70204437 -0.0069422433 0.7970457 0.09841416 0.07547744
0.6586461 0.13737832 0.4478734 0.8020637 0.8041172 0.13097443 -0.19624165 0.12706412
-0.06829707 0.109999865 -0.09854127 0.4027682 -0.32815143 0.47192827 0.07208497 0.55807996
0.02665761 -0.41102648 0.12505658 -0.11305768 0.16418086 -0.012632649 0.11117611 0.1745765
0.45582807 -0.14924856 0.29329762 0.23076154 0.27626956 0.3077735 0.33076492 0.8293881
-0.062690504 0.085582465 0.3073196 -0.047966108 -0.02944193 0.0534195 -0.23492043 0.018667053
-0.09090636 0.11168604 0.04181757 0.35646266 -0.09622638 -0.027162835 -0.15337741 0.06987445
0.6180751 0.006726342 0.48577604 0.22599493 0.30494568 0.5019972 0.08545707 0.08089551
0.30905724 0.66283745 0.35691032 0.34128335 0.50617194 0.2967479 0.5100277 -0.39517316
-0.07106543 0.0032843791 0.5162071 -0.25717932 0.24895768 0.0066411174 0.4912643 0.004643436
0.35141635 -0.078006074 0.32744288 0.44710344 -0.33240846 -0.4484911 -0.25206274 -0.2052453
0.3116832 0.46255076 -0.7795971 -0.8118321 -0.5661607 0.94491625 -0.31405234 -0.4130964
-0.50057375 -0.50073034 0.44865373 -0.4867345 0.089136526 0.3068169 0.43870202 -0.13566178
-0.41977927 0.3195131 0.087696396 0.21944411 -0.31372866 -0.39494377 -0.49742988 -0.8525061
0.50122094 0.21091951 -0.3376593 -0.041663297 0.49959174 0.4654631 0.59524465 0.097067796
0.02773444 0.34932873 0.1323655 -0.4167185 0.63120615 0.8201302 0.58417207 0.6289269
0.5349863 -0.3625799 0.39965224 -0.38377064 -0.37242398 0.49721643 -0.3286171 -0.5132678
0.45568907 -0.33161357 -0.4601562 0.49941158 -0.5011914 0.31381476 -0.032548103 0.321371
0.34895954 -0.21634452 -0.0043010483 0.53054714 0.09071665 0.5873927 -0.63259184 0.14995262
-0.13427742 0.33520302 1.0128298 0.36624137 0.9471912 0.38310578 -0.2671526 0.83647925
0.5030176 0.8003307 0.74814874 0.5215433 0.2558163 0.11360884 0.9352299 0.86110044
0.8562449 0.56469554 0.21648362 -0.060478736 -0.1405796 0.40936258 0.38509214 0.56687206
0.13619724 0.4111211 0.69350016 0.31991145 0.59994066 0.47794017 0.49873248 -0.12356968
-0.05641983 0.508234 0.29156032 0.7829004 1.0762211 0.8212958 0.5701524 0.9903701
0.64219964 0.80093634 1.0214412 0.8100053 0.30904633 0.5302399 0.4206711 0.22532944
0.8378614 -0.11598928 0.9095106 0.61490417 0.6167799 -0.0017633443 0.12891494 0.04625916
00000000: 7301 243f a410 ef3d cf4f a0be 3cf4 9f3e
00000010: 2a76 e93d 51e2 ba3e c3ac e83e dbf2 833d
00000020: e184 833d 5c8f 213f 1351 1a3f ca31 e93e
00000030: 62df 563f c3fd 3d3f b7d6 eb3e f1a8 da3e
00000040: 6eb8 4d3f 51ee 4d3f 469a 1b3f 5934 473f
00000050: 8890 9a3d 4f1c 30bf dcf4 a03e 1686 37bd
00000060: 3b67 883e 9747 2b3e c01d 5a3e dcce 7d3f
00000070: 5bb9 9cbe ada3 083e 0954 4c3f 2ca6 833c
00000080: 687b b63e 5574 98be 16f6 3e3f 17e3 90be
00000090: 2658 4d3f 99bd 3d3f e224 003f 747f 78be
000000a0: eb2b 853e cde3 cf3e 4bfc 20be bfbc 993d
000000b0: c1a7 4b3f 4784 893e 9a34 193f a4c7 313f
000000c0: bddf 643e 38d7 553f 1dcc 3d3f 2eb9 333f
000000d0: c27b e3bb 300b 4c3f 5d8d c93d eb93 9a3d
000000e0: 089d 283f e7ac 0c3e aa4f e53e 0c54 4d3f
000000f0: a0da 4d3f 291e 063e 92f3 48be 191d 023e
00000100: 56df 8bbd 9c47 e13d 01d0 c9bd a237 ce3e
00000110: 7703 a8be 95a0 f13e 49a1 933d 54de 0e3f
00000120: 0f61 da3c 1072 d2be d50e 003e c98a e7bd
00000130: 071f 283e 2cf9 4ebc 4db0 e33d 2fc4 323e
00000140: 4c62 e93e 9dd4 18be 1b2b 963e c14c 6c3e
00000150: 3473 8d3e 7d94 9d3e 055a a93e c752 543f
00000160: e163 80bd dc45 af3d ff58 9d3e 1c78 44bd
00000170: 3430 f1bc 68ce 5a3d fb8e 70be a6eb 983c
00000180: 1d2d babd a7bb e43d e648 2b3d 4682 b63e
00000190: 5612 c5bd 9884 debc f80e 1dbe 561a 8f3d
000001a0: 2b3a 1e3f a568 dc3b a3b7 f83e 376b 673e
000001b0: d721 9c3e e382 003f 1e04 af3d 8cac a53d
000001c0: c03c 9e3e b7af 293f f3bc b63e b1bc ae3e
000001d0: 7c94 013f 57ef 973e 2d91 023f 2354 cabe
000001e0: c18a 91bd bd3e 573b 2626 043f 02ad 83be
000001f0: c3ee 7e3e bb9d d93b ff86 fb3e f727 983b
00000200: d8ec b33e a6c1 9fbd 98a6 a73e beea e43e
00000210: 7131 aabe a0a0 e5be 5e0e 81be d32b 52be
00000220: f194 9f3e 74d3 ec3e ad93 47bf 3ad4 4fbf
00000230: e8ef 10bf 08e6 713f 78cb a0be 5f81 d3be
00000240: 9a25 00bf dd2f 00bf f1b5 e53e 4435 f9be
00000250: 368d b63d 1b17 9d3e 8d9d e03e ecea 0abe
00000260: 4fed d6be 3997 a33e 2b9a b33d f5b5 603e
00000270: 0ba1 a0be 1236 cabe 21af febe d73d 5abf
00000280: 0450 003f 49fb 573e aee1 acbe 22a7 2abd
00000290: 7dca ff3e 2e51 ee3e f461 183f 7bcb c63d
000002a0: 5633 e33c 37db b23e d28a 073e 215c d5be
000002b0: ba96 213f 0ef4 513f 4d8c 153f 5a01 213f
000002c0: ddf4 083f 13a4 b9be 389f cc3e 967d c4be
000002d0: 5bae bebe 2793 fe3e 8040 a8be 8565 03bf
000002e0: 1450 e93e 41c9 a9be 9899 ebbe e0b2 ff3e
000002f0: 144e 00bf 54ac a03e 2951 05bd bd8a a43e
00000300: d3aa b23e 6b89 5dbe cfef 8cbb f0d1 073f
00000310: a7c9 b93d 5e5f 163f 8af1 21bf 2e8d 193e
00000320: 0580 09be bb9f ab3e 68a4 813f fd83 bb3e
00000330: 1f7b 723f 7126 c43e 3ac8 88be 8123 563f
00000340: c3c5 003f 79e2 4c3f ad86 3f3f dd83 053f
00000350: 5bfa 823e c0ab e83d 3a6b 6f3f 1471 5c3f
00000360: de32 5b3f e38f 103f e2ad 5d3e 8db8 77bd
00000370: 19f4 0fbe f997 d13e cc2a c53e 871e 113f
00000380: 4a77 0b3e 777e d23e 3a89 313f 6fcb a33e
00000390: b695 193f 93b4 f43e dd59 ff3e 1a12 fdbd
000003a0: 7b18 67bd a01b 023f 6547 953e 296c 483f
000003b0: 9dc1 893f 7140 523f 82f5 113f e588 7d3f
000003c0: 3267 243f 2a0a 4d3f 96be 823f 825c 4f3f
000003d0: 523b 9e3e cdbd 073f 3462 d73e c3bc 663e
000003e0: 167e 563f ca8b edbd b0d5 683f 5c6a 1d3f
000003f0: 4ae5 1d3f 0420 e7ba 4702 043e 3f7a 3d3d

decoder.rnn.bias_hh_l0 f4 [256]
0.64068186 0.117739975 -0.28325942 0.31690732 0.11399485 0.37446102 0.4544519 0.09242928
0.04770116 0.63109374 0.6019987 0.451104 0.8343034 0.7301397 0.46062252 0.42796656
0.8035954 0.80441767 0.6174183 0.7781425 0.06711291 -0.69087917 0.33986583 -0.019729061
0.26296103 0.16726528 0.22303116 0.98660135 -0.3042789 0.1334466 0.7981573 -0.012864785
0.3564099 -0.2708159 0.74594206 -0.28254303 0.8021263 0.7411743 0.49579594 -0.24027511
0.25860766 0.4185601 -0.10749699 0.06319409 0.7857492 0.3164099 0.59212613 0.6913938
0.19680634 0.82022035 0.7418821 0.69952995 0.05911505 0.7978227 0.10252423 0.075358324
0.6584608 0.13787138 0.44349885 0.8020637 0.8041172 0.12950207 -0.22001506 0.14879654
-0.06830934 0.10999936 -0.1040628 0.40276825 -0.32815143 0.47193593 0.07208497 0.55810684
0.026652426 -0.4106745 0.12505661 -0.11304655 0.16381383 -0.0112667205 0.11117611 0.1745871
0.45580283 -0.14924856 0.29328904 0.23076154 0.27626956 0.3077735 0.3307169 0.8298042
-0.06266007 0.08558253 0.30780306 -0.047966108 -0.031292032 0.0534195 -0.23492043 0.017860785
-0.09091526 0.07397885 0.041817494 0.31702808 -0.09622638 -0.027165312 -0.15341464 0.06987448
0.6180751 0.005789413 0.51897675 0.2258239 0.3049856 0.5019979 0.08546435 0.080896854
0.30901986 0.66286945 0.35691288 0.3412818 0.50617194 0.29664358 0.5100277 -0.33766317
-0.071148284 0.0032844518 0.5162959 -0.25717932 0.24895768 0.0066419966 0.47831085 0.003557527
0.38592008 -0.07077036 0.4131399 0.44710046 -0.33240846 -0.4484911 -0.25206274 -0.1852663
0.3116832 0.46255076 -0.7778583 -0.7105491 -0.54696923 0.9469336 -0.31405234 -0.4130964
-0.50057375 -0.50073034 0.44865373 -0.4867345 0.09047208 0.3068169 0.43870202 -0.110314846
-0.41977927 0.3195131 0.06008925 0.21944216 -0.31372866 -0.3907826 -0.49742988 -0.892563
0.6494344 0.19719069 -0.38037682 -0.086512625 0.49959174 0.4654631 0.56425637 0.06477115
0.003485139 0.34932873 0.06570287 -0.4167185 0.5409604 0.7972316 0.5274047 0.62743574
0.54400873 -0.35886258 0.39965224 -0.38377064 -0.36685655 0.49721643 -0.3286171 -0.48779616
0.47128665 -0.33161357 -0.45997816 0.49941158 -0.5011914 0.31381476 -0.001572197 0.321371
0.3134312 -0.19320501 0.035853192 0.5835986 0.16518396 0.5854081 -0.6403769 0.08610637
0.022498693 0.32000798 0.8716835 0.3662416 0.93828905 0.50968623 -0.1794672 1.0021179
0.58038896 0.86521137 0.6859871 0.59319663 0.371872 0.19918458 0.9227294 0.9293306
0.8271305 0.361295 0.22047892 -0.034327224 -0.059561785 0.34968555 0.37325594 0.5867623
0.017879607 0.38575423 0.7451527 0.41545704 0.7692605 0.5448412 0.5520054 -0.17725971
0.0751829 0.4447443 0.2716578 0.74373204 0.9726605 0.69238 0.5172788 1.0852798
0.48960662 0.6601733 0.9679758 0.89061344 0.29413462 0.51791066 0.45653814 0.2410404
0.7913134 -0.18406554 1.0516824 0.6628503 0.6853794 -0.06618552 0.29118508 0.09117468
00000000: ba03 243f a821 f13d 6107 91be ad41 a23e
00000010: 2276 e93d 5bb9 bf3e ebad e83e 904b bd3d
00000020: 4b62 433d 5c8f 213f 961c 1a3f 1af7 e63e
00000030: e894 553f 6fea 3a3f b7d6 eb3e 6f1e db3e
00000040: 6eb8 4d3f 51ee 4d3f 200f 1e3f 5934 473f
00000050: 7e72 893d 75dd 30bf e502 ae3e d79e a1bc
00000060: d4a2 863e 9747 2b3e 4862 643e e891 7c3f
00000070: 72ca 9bbe 3aa6 083e 0954 4c3f d2c6 52bc
00000080: 5c7b b63e 62a8 8abe 0ff6 3e3f 7ba9 90be
00000090: 2658 4d3f 99bd 3d3f f7d8 fd3e ae0a 76be
000000a0: 3968 843e 824d d63e 6227 dcbd e76b 813d
000000b0: dc26 493f 7a00 a23e 9495 173f 2fff 303f
000000c0: 9a87 493e f6f9 513f fceb 3d3f 6514 333f
000000d0: 9f22 723d 1c3e 4c3f 39f8 d13d 7755 9a3d
000000e0: e390 283f 282e 0d3e 4812 e33e 0c54 4d3f
000000f0: a0da 4d3f 319c 043e a14b 61be 1f5e 183e
00000100: c4e5 8bbd 5847 e13d e11e d5bd a437 ce3e
00000110: 7703 a8be 96a1 f13e 49a1 933d 17e0 0e3f
00000120: 3056 da3c ee43 d2be d70e 003e f384 e7bd
00000130: d0be 273e 0d98 38bc 4db0 e33d f6c6 323e
00000140: fd5e e93e 9dd4 18be fb29 963e c14c 6c3e
00000150: 3473 8d3e 7d94 9d3e ba53 a93e 0c6e 543f
00000160: ec53 80bd e545 af3d 5d98 9d3e 1c78 44bd
00000170: 132c 00bd 68ce 5a3d fb8e 70be c850 923c
00000180: c831 babd 3982 973d d248 2b3d 8151 a23e
00000190: 5612 c5bd ca89 debc ba18 1dbe 5a1a 8f3d
000001a0: 2b3a 1e3f 1eb5 bd3b a9db 043f 613e 673e
000001b0: 1327 9c3e ef82 003f ef07 af3d 40ad a53d
000001c0: da37 9e3e d0b1 293f 49bd b63e 7dbc ae3e
000001d0: 7c94 013f abe1 973e 2d91 023f 30e2 acbe
000001e0: 31b6 91bd f53f 573b f82b 043f 02ad 83be
000001f0: c3ee 7e3e 1ba5 d93b 29e5 f43e 6625 693b
00000200: 5197 c53e 0df0 90bd 1387 d33e 5aea e43e
00000210: 7131 aabe a0a0 e5be 5e0e 81be 73b6 3dbe
00000220: f194 9f3e 74d3 ec3e b921 47bf 8ce6 35bf
00000230: 2d06 0cbf 3e6a 723f 78cb a0be 5f81 d3be
00000240: 9a25 00bf dd2f 00bf f1b5 e53e 4435 f9be
00000250: 6d49 b93d 1b17 9d3e 8d9d e03e c0ec e1bd
00000260: 4fed d6be 3997 a33e 2520 763d 72b5 603e
00000270: 0ba1 a0be a814 c8be 21af febe 027f 64bf
00000280: 5541 263f 5bec 493e c0c0 c2be 882d b1bd
00000290: 7dca ff3e 2e51 ee3e 1b73 103f bda6 843d
000002a0: ee66 643b 37db b23e 3a8f 863d 215c d5be
000002b0: 617c 0a3f 5f17 4c3f ff03 073f a19f 203f
000002c0: 2844 0b3f d6bc b7be 389f cc3e 967d c4be
000002d0: 9fd4 bbbe 2793 fe3e 8040 a8be 6bc0 f9be
000002e0: 7c4c f13e 41c9 a9be 4282 ebbe e0b2 ff3e
000002f0: 144e 00bf 54ac a03e 2d12 ceba bd8a a43e
00000300: 0e7a a03e 89d7 45be ccda 123d b866 153f
00000310: fc25 293e 4edd 153f beef 23bf 8958 b03d
00000320: 2e4f b83c 16d8 a33e a626 5f3f 0584 bb3e
00000330: b633 703f cc7a 023f 40c6 37be 6645 803f
00000340: 5f94 143f 7e7e 5d3f da9c 2f3f bcdb 173f
00000350: 0266 be3e 0bf7 4b3e fe37 6c3f 9ce8 6d3f
00000360: d3be 533f a9fb b83e 3ac5 613e b49a 0cbd
00000370: 0ff7 73bd fc09 b33e 671b bf3e 0e36 163f
00000380: 4178 923c 9481 c53e 54c2 3e3f c9b6 d43e
00000390: 42ee 443f b67a 0b3f 3a50 0d3f 9283 35be
000003a0: 7ef9 993d 86b5 e33e bb16 8b3e 3965 3e3f
000003b0: 4700 793f d13f 313f 626c 043f 73ea 8a3f
000003c0: b8ad fa3e 1e01 293f 43cd 773f 3eff 633f
000003d0: d098 963e cb95 043f 5ebf e93e 4bd3 763e
000003e0: 8493 4a3f ad7b 3cbe 879d 863f 8fb0 293f
000003f0: 0675 2f3f 468c 87bd 3616 953e cab9 ba3d

decoder.output_layer.weight f4 [1, 64]
0.69538695 0.9928617 0.8924428 0.9512452 -6.897678 -0.8304494 -1.6271325 -0.6890534
0.85440254 0.41716337 -1.1447959 -0.87553424 -0.8639027 0.9199896 -2.8119678 -0.9341137
-0.81322724 -0.6525596 0.8663227 -0.8659661 0.9052914 2.2037656 0.96993244 -0.33911437
-1.0516276 0.7549733 1.560478 -1.0480585 -0.9770247 -0.7361047 -2.5060759 -0.76207674
0.4314342 0.63618034 -1.0490701 -1.5672458 -0.8028056 0.94554603 0.7312441 1.0626873
0.48040774 0.6250649 -1.6609156 -0.8618902 1.1642423 0.68781215 1.2639543 1.0904992
0.5334778 -0.647665 1.0968511 -0.9242311 -1.2625742 0.8826363 -0.7979649 -1.02604
1.0310204 -0.9036453 -0.84634614 1.4372865 -0.79215664 0.17622195 0.3410534 0.8765659
00000000: e104 323f 2f2c 7e3f 2277 643f ce84 733f
00000010: c7b9 dcc0 5598 54bf e145 d0bf ce65 30bf
00000020: 20ba 5a3f 7096 d53e ac88 92bf 0323 60bf
00000030: ba28 5dbf 7084 6b3f 48f7 33c0 1322 6fbf
00000040: a92f 50bf 250e 27bf 53c7 5d3f f4af 5dbf
00000050: 2dc1 673f 7f0a 0d40 7e4d 783f 66a0 adbe
00000060: bc9b 86bf ee45 413f bebd c73f c826 86bf
00000070: 4a1e 7abf 5c71 3cbf 8c63 20c0 7617 43bf
00000080: f2e4 dc3e b7dc 223f ee47 86bf 839b c8bf
00000090: ab84 4dbf 4e0f 723f d032 3b3f 2306 883f
000000a0: 01f8 f53e 4104 203f e298 d4bf d6a4 5cbf
000000b0: e405 953f 7514 303f 41c9 a13f 7a95 8b3f
000000c0: 0092 083f 60cd 25bf 9e65 8c3f 699a 6cbf
000000d0: 089c a1bf 74f4 613f 6d47 4cbf 4755 83bf
000000e0: 7af8 833f 4c55 67bf 24aa 58bf 01f9 b73f
000000f0: c7ca 4abf 8773 343e 8d9e ae3e 9f66 603f
