Detectors/Deep_Learning/AutoEncoders/models/Trained_RDA_Detect/cnn_lstm_ae_high_congestion_speed.pt (torch, 125861 bytes, 11 tensors)

encoder.cnn.weight f4 [8, 1, 16]
0.33070758 0.35770756 0.14274421 0.013880003 -0.03906787 -0.16126232 -0.054723326 -0.116045654
-0.028508073 -0.06085055 -0.03270089 -0.32078815 -0.0105378395 0.06686812 0.050394148 0.32863933
0.005746319 -0.028774768 -0.1312055 -0.051448494 -0.088627666 0.113467805 -0.09192154 -0.019527998
0.0029308114 -0.0445101 0.015224806 0.039577812 -0.036099877 -0.11803709 0.186174 0.28416532
0.8274847 0.14788875 0.11101369 -0.06516353 0.49995092 0.16996072 -0.18641426 -0.11655053
0.027139641 -0.42348132 -0.05384805 -0.13668554 -0.381834 0.06412798 -0.13694836 0.20961127
0.20968519 -0.12138089 0.23214096 -0.057944804 -0.08999117 0.08658608 0.15241006 -0.10873846
-0.111408904 0.04259545 0.012001157 0.05377146 0.038300976 -0.20312533 0.16019374 0.08063304
0.27629015 0.0010043635 -0.014840789 -0.010312212 0.17866495 0.15443796 -0.19164874 -0.056636624
-0.068817995 0.047400862 -0.053113528 -0.16679953 0.13196348 -0.011592391 0.165844 0.3878807
0.07482331 0.03409002 0.035289697 0.044516724 0.008235239 0.03865718 0.00080764893 -0.0035197062
-0.0063369796 -0.0072656586 -0.031137193 -0.021475144 -0.025555845 -0.051693447 -0.045548525 -0.06904541
0.22392061 0.13503085 0.028312324 0.17302161 0.065758295 0.09843404 0.09576206 0.034821678
-0.008862554 0.08319482 0.066354655 -0.114630535 0.07985018 -0.07949371 -0.08419219 -0.03527347
0.17383371 0.12189431 -0.0035712318 0.1920752 -0.19817911 0.17890036 0.10414285 -0.114388496
-0.07241993 0.18299697 -0.016178574 -0.09098581 0.18668683 -0.100897364 0.0628928 0.2101615
00000000: 8152 a93e 7225 b73e 8a2b 123e f468 633c
00000010: a105 20bd f321 25be 9125 60bd 58a9 edbd
00000020: c389 e9bc 6d3e 79bd 5ef1 05bd 583e a4be
00000030: e7a6 2cbc 27f2 883d 186a 4e3d 6a43 a83e
00000040: 9e4b bc3b 10b9 ebbc bc5a 06be a8bb 52bd
00000050: 6c82 b5bd cf61 e83d 5c41 bcbd 2ef9 9fbc
00000060: db12 403b 3950 36bd 7771 793c 581c 223d
00000070: 77dd 13bd 6ebd f1bd 66a4 3e3e 1e7e 913e
00000080: 0ad6 533f 2670 173e 255b e33d 7574 85bd
00000090: 91f9 ff3e 2f0a 2e3e 61e3 3ebe 0bb2 eebd
000000a0: f453 de3c 8bd2 d8be c68f 5cbd 4bf7 0bbe
000000b0: bf7f c3be 8855 833d 313c 0cbe 56a4 563e
000000c0: b7b7 563e 8b96 f8bd 5cb6 6d3e 8857 6dbd
000000d0: 4a4d b8bd 0b54 b13d 6211 1c3e 45b2 debd
000000e0: 5a2a e4bd 9178 2e3d 80a0 443c 763f 5c3d
000000f0: 7ce1 1c3d 1600 50be d409 243e ef22 a53d
00000100: e775 8d3e d9a4 833a c826 73bc 8df4 28bc
00000110: f2f3 363e fc24 1e3e 913f 44be cefb 67bd
00000120: 73f0 8cbd 6827 423d 928d 59bd 7fcd 2abe
00000130: 6f21 073e 03ee 3dbc 02d3 293e 4d98 c63e
00000140: f73c 993d faa1 0b3d ee8b 103d 2b57 363d
00000150: 19ed 063c fe56 1e3d 67b8 533a dfaa 66bb
00000160: 70a6 cfbb c314 eebb 6d13 ffbc a4ec afbc
00000170: 7e5a d1bc 82bc 53bd 1791 3abd ae67 8dbd
00000180: 724b 653e 8745 0a3e 3fef e73c 942c 313e
00000190: 49ac 863d c997 c93d e61e c43d 2da1 0e3d
000001a0: 3f34 11bc 0c62 aa3d f3e4 873d 6ac3 eabd
000001b0: 7e88 a33d 99cd a2bd f46c acbd ea7a 10bd
000001c0: 7701 323e b9a3 f93d 540b 6abb 5caf 443e
000001d0: 77ef 4abe a831 373e d948 d53d 8444 eabd
000001e0: e650 94bd 8f63 3b3e ee88 84bc c556 babd
000001f0: d52a 3f3e 47a3 cebd f1cd 803d 9434 573e

encoder.cnn.bias f4 [8]
2.0085459 -5.039558 3.1822543 1.8288863 2.3113532 -0.551792 -1.3084776 -2.6755283
00000000: 048c 0040 0f44 a1c0 0eaa 4b40 f218 ea3f
00000010: 36ed 1340 3e42 0dbf 327c a7bf db3b 2bc0

encoder.rnn.weight_ih_l0 f4 [128, 8]
-0.04922257 -0.17841816 -0.07143259 -0.20913492 -0.18801548 -0.19157417 -0.05040767 -0.052150127
-0.118432835 0.009056039 -0.07605161 -0.0028526697 -0.16917397 -0.27194068 -0.28936297 -0.20018905
0.22124869 0.07851377 -0.022879282 0.0215803 0.032262564 -0.17088245 -0.10275273 -0.079321444
0.3734113 0.065658264 -0.093731396 -0.14382915 -0.17258827 -0.15830849 0.09671498 -0.082343996
0.26589563 0.16705996 0.029609058 0.17936751 0.013201454 0.012252467 -0.035431195 -0.060293224
0.1769281 -0.19010694 -0.098241374 0.12316291 0.15550426 -0.079460554 0.19998567 0.20040804
0.078449436 0.0963389 0.54921687 -0.09110159 -0.5421742 -0.7857308 1.060722 0.58801097
0.21731928 0.1662634 0.18556377 -0.051020358 -0.23380707 -0.24892007 -0.014262875 -0.099569045
0.26113898 0.2100259 0.04313175 -0.19104329 -0.11490539 -0.36059397 -0.20409995 0.013297469
-0.09002589 0.025726138 0.07151715 0.14442956 0.0074290633 -0.02144728 -0.009513287 -0.19953902
-0.5925663 -0.5099618 -0.47642046 -0.2354159 -0.17747258 -0.009682452 1.2745485 1.2274194
-0.09380768 0.15364105 0.06795389 -0.09744569 -0.06396302 -0.10963396 0.058063824 0.09400408
0.69108677 0.2386394 0.045150172 -0.1963474 -0.21523806 -0.24939427 -0.12074665 0.094296515
-0.9806954 -0.55270475 -0.23336731 0.045056175 0.02482701 0.5645365 0.62798554 0.776589
-0.18805134 -0.16887589 0.014853146 -0.17993316 -0.009034351 0.20323162 -0.0021427313 0.073486865
0.115041025 -0.008839543 -0.2914954 0.027179409 0.015575465 -0.041336294 0.17778496 -0.033798464
0.17939974 0.19417968 0.121217705 0.009173471 -0.21998465 -0.15662906 0.2598317 -0.12570952
0.5327911 0.677436 0.2641736 0.03339734 0.035890136 0.35290334 -0.11136163 0.012037779
-0.070711054 -0.07847836 -0.19601291 -0.31657308 -0.34223083 -0.49877492 0.73542666 0.6222476
0.07037715 -0.48119754 -0.41297883 -0.106717184 0.11817471 0.34114638 0.21731621 0.2877138
-0.12815979 -0.4050615 -0.15414394 0.2431567 0.23555218 0.058280103 -0.047666814 -0.06353962
0.17087825 0.15945132 0.14135231 0.024989583 0.053366274 0.0119994795 0.02601973 0.008908461
0.08823939 0.20308638 0.056176912 -0.054690532 -0.045081414 -0.0075016906 0.06935882 -0.103934884
0.30423066 0.17217693 -0.01633642 0.31623432 0.011424011 0.06461511 -0.11794756 -0.30080828
0.0682775 0.4934058 0.16975449 -0.14483649 -0.29531464 0.31948215 0.47497553 0.33119628
0.14539874 -0.39258805 0.06711299 -0.28363055 -0.282067 -0.33559868 0.562839 0.9247576
-1.0626512 0.2832773 0.58064353 -0.20855299 0.4578754 0.9539607 0.011953296 0.2450076
-0.230709 -0.003586503 0.16464765 -0.33867672 -0.16391307 -0.19332057 0.24761562 0.5426039
0.70050746 0.33452192 -0.01278685 -0.021607753 -0.11386958 0.022565186 0.30908564 0.122315295
0.6162823 0.29853457 -0.2516829 -0.027964188 -0.40481505 -0.29264516 0.23429647 0.20759436
0.23282179 0.3598575 0.58446497 0.3251332 -0.34520644 -0.57290477 -0.046150208 0.30764145
-0.6453705 -0.4262312 0.31538054 -0.13471884 -0.4134638 -1.5474101 1.0487269 -0.44933522
00000000: 9b9d 49bd 40b3 36be 404b 92bd 7727 56be
00000010: 2187 40be 052c 44be 4678 4ebd 5f9b 55bd
00000020: ea8c f2bd c85f 143c f2c0 9bbd dbf3 3abb
00000030: f13b 2dbe cf3b 8bbe 6227 94be 5cfe 4cbe
00000040: 048f 623e d4cb a03d 556d bbbc 2bc9 b03c
00000050: c025 043d cffb 2ebe 0670 d2bd 4873 a2bd
00000060: c42f bf3e d777 863d 3ff6 bfbd f347 13be
00000070: fbba 30be 9f1b 22be 8112 c63d f8a3 a8bd
00000080: 7923 883e c411 2b3e b28e f23c 1eac 373e
00000090: e94a 583c 92be 483c 4d20 11bd 07f6 76bd
000000a0: a42c 353e 65ab 42be c632 c9bd d63c fc3d
000000b0: 823c 1f3e 37bc a2bd 0bc9 4c3e c437 4d3e
000000c0: 19aa a03d 544d c53d 7a99 0c3f 7893 babd
000000d0: eecb 0abf a725 49bf bdc5 873f e387 163f
000000e0: f288 5e3e f440 2a3e 6e04 3e3e b9fa 50bd
000000f0: 1f6b 6fbe e7e4 7ebe d5ae 69bc dbea cbbd
00000100: 02b4 853e 0811 573e ebaa 303d daa0 43be
00000110: 8453 ebbd c69f b8be 94ff 50be a1dd 593c
00000120: 7e5f b8bd 9fbf d23c 9577 923d 58e5 133e
00000130: 806f f33b 35b2 afbc 9edd 1bbc f553 4cbe
00000140: 6db2 17bf db8c 02bf 62ed f3be de10 71be
00000150: 5fbb 35be 26a3 1ebc 6824 a33f 141c 9d3f
00000160: 3e1e c0bd 1454 1d3e 692b 8b3d 9b91 c7bd
00000170: 0bff 82bd c587 e0bd 55d4 6d3d 3685 c03d
00000180: 10eb 303f e35d 743e 63ef 383d 4b0f 49be
00000190: 5e67 5cbe 3661 7fbe 054a f7bd 881e c13d
000001a0: db0e 7bbf 0f7e 0dbf d7f7 6ebe d38c 383d
000001b0: 0462 cb3c 7785 103f a9c3 203f 89ce 463f
000001c0: 8890 40be cded 2cbe 9c5a 733c 6640 38be
000001d0: d104 14bc f31b 503e 116d 0cbb 4880 963d
000001e0: a19a eb3d bbd3 10bc e33e 95be 5aa7 de3c
000001f0: 3c30 7f3c 3f50 29bd 430d 363e 4270 0abd
00000200: 91b4 373e 0ad7 463e fd40 f83d 534c 163c
00000210: a843 61be 5e63 20be a908 853e ffb9 00be
00000220: ff64 083f 726c 2d3f c341 873e a6cb 083d
00000230: 8901 133d bfaf b43e 9111 e4bd 1b3a 453c
00000240: f5d0 90bd 43b9 a0bd 9cb7 48be de15 a2be
00000250: e138 afbe 6d5f ffbe ec44 3c3f 9e4b 1f3f
00000260: e521 903d 865f f6be f671 d3be 8a8e dabd
00000270: 9505 f23d bdaa ae3e 2488 5e3e 394f 933e
00000280: 523c 03be 3964 cfbe e9d7 1dbe 12fe 783e
00000290: 9734 713e 1eb7 6e3d 473e 43bd 0f21 82bd
000002a0: b5fa 2e3e 3547 233e a9be 103e f4b6 cc3c
000002b0: 9896 5a3d 7799 443c 5427 d53c cbf4 113c
000002c0: dab6 b43d e0f5 4f3e c319 663d 2e03 60bd
000002d0: 4aa7 38bd bed0 f5bb ff0b 8e3d d0db d4bd
000002e0: 1fc4 9b3e 264f 303e f5d3 85bc 77e9 a13e
000002f0: c62b 3b3c ed54 843d 7e8e f1bd 8b03 9abe
00000300: 13d5 8b3d af9f fc3e 1fd4 2d3e 0450 14be
00000310: 7b33 97be 2a93 a33e fe2f f33e 8f92 a93e
00000320: 68e3 143e 4d01 c9be 8972 893d 0638 91be
00000330: 166b 90be 97d3 abbe 3716 103f eabc 6c3f
00000340: f404 88bf b909 913e 0ea5 143f ea8e 55be
00000350: a56e ea3e c536 743f c2d7 433c 46e3 7a3e
00000360: fb3e 6cbe 890b 6bbb 6599 283e 0967 adbe
00000370: d4d8 27be d4f5 45be f38e 7d3e 17e8 0a3f
00000380: 7554 333f 7546 ab3e f07f 51bc be02 b1bc
00000390: 7434 e9bd a0da b83c 7940 9e3e 7180 fa3d
000003a0: adc4 1d3f 86d9 983e 95dc 80be 2715 e5bc
000003b0: eb43 cfbe 96d5 95be 6aeb 6f3e 9e93 543e
000003c0: d668 6e3e 3e3f b83e 7f9f 153f dc77 a63e
000003d0: e6be b0be e3a9 12bf 0008 3dbd 2e83 9d3e
000003e0: 0037 25bf fa3a dabe 8f79 a13e bcf3 09be
000003f0: 87b1 d3be 8911 c6bf af3c 863f 440f e6be

encoder.rnn.weight_hh_l0 f4 [128, 32]
-1.3230083 -0.9714905 -3.1308086 -0.056921758 -1.1328048 0.6680263 -0.53544223 -0.34027663
0.38776612 0.7999324 1.205406 -0.6297274 -0.6544663 -1.4891436 -0.402004 -2.3205378
-1.7709466 -1.236085 0.18079521 1.2332715 -1.2727174 -3.022098 0.36287653 -0.32285413
-0.8616038 0.46229446 2.0967064 0.40328673 1.0686888 -1.0212001 1.1778185 -0.19976202
1.9412119 0.5673176 -2.6897151 1.3158796 -1.4561219 0.38537386 -0.42308152 -0.15497781
-0.39847958 2.2198367 1.1757407 0.14490487 0.6762202 -0.5294805 1.7050161 -1.1636137
-0.29307938 -0.35607073 0.94371194 0.3721265 0.06672515 -1.5972929 1.2970581 2.0504293
-1.0527121 1.1956154 -0.56341475 2.2087076 0.4251665 -1.2641282 0.7275747 0.3949027
0.26699606 -0.814267 -0.9811255 -0.015421294 -0.3782411 -0.28593975 0.2555287 0.37864622
-0.38963294 -0.57069874 -0.108259335 -0.2020942 -0.49415532 0.41998252 -0.26818496 0.34470487
0.07427168 0.34380051 -0.0697594 0.027681071 0.1288527 -0.01833357 -0.9410062 -0.009624259
-0.121175095 0.986826 -0.22151701 0.559467 -0.74777275 -0.27210355 0.096277826 0.3124792
-3.3386476 0.4976315 -0.53688705 0.4617618 0.7069334 0.21363424 0.24651937 0.6047452
0.7777918 0.13144827 0.049109478 -2.0955524 0.12042502 1.0288235 -1.2890978 0.18031096
-0.5294102 -0.01607968 -0.08656467 0.56923676 -0.01331525 -0.14817573 -0.063611045 -0.028362332
0.3127766 -1.5264487 1.5652962 0.10758832 -1.6091908 -0.2392869 0.12551329 0.21066064
0.5907281 2.6441674 2.3734822 0.08651051 2.4977338 -0.7128321 0.8289346 0.8051806
0.48200098 -1.1338894 -0.60322946 -0.49383608 0.6089519 0.51404077 0.27934992 0.7507017
0.72900647 1.0181026 -0.71901536 -1.5814745 1.7440552 0.7517211 -0.10304495 -1.1722686
0.20058066 0.8842693 0.58779013 -1.2397193 -0.8486843 0.33398288 -0.7058683 0.6807082
0.91790754 -2.1139548 -0.2680903 1.894291 -0.90649563 2.6891353 0.75276065 0.5976405
-1.3841178 -0.27378827 0.09635634 0.35068175 -0.7630047 -0.6586687 -0.679265 0.53085995
2.6501906 0.0062674535 -0.0009932084 1.7834296 0.3873152 0.2154118 0.3488642 -1.1318247
-1.7072424 2.1115072 -2.2401776 -1.0659875 5.198602 0.104746096 0.9367499 -0.793861
0.13621527 -0.7056147 0.29242438 -1.2165718 0.3615721 0.7333697 -0.38455558 -0.5879624
-0.58824426 -0.37639418 0.36167422 0.39291677 0.6934403 -0.5240723 -0.14328653 -0.6123364
0.91903824 -0.3006853 -0.58756775 0.14693017 -0.39104888 0.1702939 0.15899149 -0.037421443
1.0059482 0.64291424 -0.072978556 -1.2712762 0.16921887 -0.107206754 0.038831335 0.9920513
-2.4064274 0.8445614 -0.18199621 0.06842304 0.1442333 -1.3975517 -0.26675925 -0.58436924
-0.5920974 0.9994526 0.7027598 1.2928919 -1.3425511 -0.84269285 0.67661715 1.7463084
-0.12306949 -1.0685877 -0.061057378 1.8259494 -0.66723233 0.13887058 -4.928342 -1.5296859
-0.1231048 0.6946522 -0.2059055 0.16749972 -0.5692129 -1.0967499 -1.1221713 1.2949592
00000000: 5658 a9bf 9ab3 78bf 2b5f 48c0 ca26 69bd
00000010: bfff 90bf c603 2b3f be12 09bf bd38 aebe
00000020: 4889 c63e 5fc8 4c3f be4a 9a3f d135 21bf
00000030: 1a8b 27bf 429c bebf 78d3 cdbe b183 14c0
00000040: 61ae e2bf 0938 9ebf 6122 393e d7db 9d3f
00000050: 67e8 a2bf 0e6a 41c0 f4ca b93e 234d a5be
00000060: 1192 5cbf dcb1 ec3e 7030 0640 997b ce3e
00000070: cbca 883f afb6 82bf c2c2 963f 6a8e 4cbe
00000080: a279 f83f ba3b 113f 4b24 2cc0 be6e a83f
00000090: 3462 babf b94f c53e 249e d8be 81b2 1ebe
000000a0: 8405 ccbe ce11 0e40 ac7e 963f f161 143e
000000b0: c41c 2d3f 098c 07bf f83d da3f 4bf1 94bf
000000c0: 800e 96be e74e b6be 1b97 713f 5d87 be3e
000000d0: 32a7 883d 1874 ccbf 0006 a63f 3c3a 0340
000000e0: 45bf 86bf ed09 993f f33b 10bf 775b 0d40
000000f0: 6caf d93e f4ce a1bf 5642 3a3f b030 ca3e
00000100: b5b3 883e cd73 50bf 0a2b 7bbf 98a9 7cbc
00000110: d1a8 c1be b266 92be a8d4 823e ebdd c13e
00000120: f87d c7be 5019 12bf 12b7 ddbd c8f1 4ebe
00000130: ed01 fdbe f307 d73e 8a4f 89be 287d b03e
00000140: c01b 983d 9f06 b03e 04de 8ebd 6ac3 e23c
00000150: f6f1 033e 4830 96bc c8e5 70bf 11af 1dbc
00000160: a62a f8bd a1a0 7c3f 5bd5 62be 3b39 0f3f
00000170: 096e 3fbf 2851 8bbe 4f2d c53d 46fd 9f3e
00000180: 67ac 55c0 8ec9 fe3e 6e71 09bf 0b6c ec3e
00000190: 96f9 343f efc2 5a3e 936f 7c3e 95d0 1a3f
000001a0: 5d1d 473f 609a 063e 0527 493d 881d 06c0
000001b0: 65a1 f63d 7db0 833f 2801 a5bf 70a3 383e
000001c0: 6d87 07bf 88b9 83bc d148 b1bd 80b9 113f
000001d0: 3528 5abc 61bb 17be 8246 82bd 1f58 e8bc
000001e0: 4124 a03e ac62 c3bf a05b c83f 4457 dc3d
000001f0: f7f9 cdbf a007 75be 8e86 003e 6cb7 573e
00000200: f539 173f 0a3a 2940 22e7 1740 6c2c b13d
00000210: dfda 1f40 2a7c 36bf 0f35 543f 5120 4e3f
00000220: d5c8 f63e 4a23 91bf 3f6d 1abf 15d8 fcbe
00000230: 46e4 1b3f 2d98 033f f406 8f3e fd2d 403f
00000240: 2ba0 3a3f 3051 823f 6411 38bf c26d cabf
00000250: 333d df3f cb70 403f 3b09 d3bd e60c 96bf
00000260: 0465 4d3e 795f 623f 6a79 163f 1faf 9ebf
00000270: 6043 59bf ceff aa3e c9b3 34bf e542 2e3f
00000280: fdfb 6a3f 094b 07c0 2243 89be 2178 f23f
00000290: 1910 68bf cb1a 2c40 ecb4 403f f8fe 183f
000002a0: c62a b1bf fa2d 8cbe 7956 c53d 8f8c b33e
000002b0: 4754 43bf 839e 28bf 50e4 2dbf 70e6 073f
000002c0: b99c 2940 365f cd3b 8b2e 82ba 6c47 e43f
000002d0: 2e4e c63e e994 5c3e 549e b23e a2df 90bf
000002e0: eb86 dabf ef22 0740 125f 0fc0 4772 88bf
000002f0: f35a a640 1f85 d63d d7ce 6f3f 793a 4bbf
00000300: 047c 0b3e 2aa3 34bf a6b8 953e a0b8 9bbf
00000310: fa1f b93e 1ebe 3b3f 78e4 c4be b484 16bf
00000320: 2d97 16bf bdb6 c0be 5d2d b93e 632c c93e
00000330: 4e85 313f 9a29 06bf b4b9 12be 14c2 1cbf
00000340: 1746 6b3f 6cf3 99be d76a 16bf dd74 163e
00000350: 8f37 c8be 8661 2e3e aace 223e 3a47 19bd
00000360: e9c2 803f 0796 243f c875 95bd 2eb9 a2bf
00000370: b647 2d3e 378f dbbd 9b0d 1f3d 13f7 7d3f
00000380: e802 1ac0 2d35 583f 375d 3abe 6121 8c3d
00000390: e5b1 133e f9e2 b2bf ab94 88be 3999 15bf
000003a0: b293 17bf 20dc 7f3f 11e8 333f 7b7d a53f
000003b0: b7d8 abbf b8ba 57bf c836 2d3f 0987 df3f
000003c0: db0b fcbd 7bc7 88bf 4d17 7abd b6b8 e93f
000003d0: bdcf 2abf 1734 0e3e fab4 9dc0 bfcc c3bf
000003e0: 5f1e fcbd bad4 313f e4d8 52be 0c85 2b3e
000003f0: f0b7 11bf 4d62 8cbf 4fa3 8fbf 39c1 a53f

encoder.rnn.bias_ih_l0 f4 [128]
1.3127366 0.4300171 -0.67297536 -0.37180316 -0.5715692 -0.23474613 0.6674787 0.9894421
-0.17456017 -0.0018500646 -0.3076058 -0.11902862 -0.22348024 1.36817 -0.61347455 -0.1707469
-0.3122523 0.35109574 -0.30291304 -0.6079117 0.017424354 -0.97808295 0.014971587 -0.70485884
-0.4868469 -0.0717635 -0.26249242 -0.58774424 -0.66481024 0.7432841 -0.46821892 -0.01638501
-0.043564655 -0.82045686 0.25235313 0.035328615 0.28820983 0.49947277 0.34307724 -0.533258
-0.05893307 0.19155976 0.69315517 0.39693943 -0.4425644 0.34355298 0.09978764 0.5822706
0.20273125 1.6850542 0.4612522 0.1541207 0.6020409 0.42960647 -0.1408024 -0.14820124
0.81341857 0.28769088 -0.13469382 0.71054655 -0.40292925 0.14823058 0.8888827 0.4942686
0.22375157 0.4370197 0.6252457 0.0044578584 0.54300785 0.08285513 -0.8426303 -1.6182182
-0.37007123 -0.57917625 0.43126202 -0.4215564 -0.36573416 -0.9431372 -0.41648352 0.6133751
1.2464195 -1.0361869 0.13937148 0.08964545 -1.2114924 0.48333237 -0.23651592 -0.2884203
0.6013646 0.09063794 -0.05850474 -0.60635054 0.17246164 -1.0942832 0.20592436 0.51271677
-0.6556082 0.35328588 -0.15833503 -0.07389427 -0.25855514 0.7042903 -0.604451 0.12028577
-0.1814337 -1.1768092 -0.22312498 0.68507546 0.4970473 -0.25729862 -0.34572616 0.30467457
-0.5602146 0.4952945 0.090312146 1.2653661 0.3382822 -0.2583332 0.31104317 -0.24096102
1.1107668 -0.5953965 -0.30999732 -0.46907043 -0.5612056 0.03010322 0.5905846 0.11918166
00000000: c107 a83f 342b dc3e 1d48 2cbf fc5c bebe
00000010: 5c52 12bf 4a61 70be e2df 2a3f 144c 7d3f
00000020: e7bf 32be de7d f2ba 827e 9dbe 47c5 f3bd
00000030: 01d8 64be 3220 af3f ab0c 1dbf 46d8 2ebe
00000040: 89df 9fbe d2c2 b33e 6b17 9bbe 1aa0 1bbf
00000050: 85bd 8e3c a563 7abf 634b 753c a171 34bf
00000060: ff43 f9be bef8 92bd 6865 86be 6876 16bf
00000070: 0131 2abf de47 3e3f 64ba efbe db39 86bc
00000080: da70 32bd 7609 52bf 6e34 813e bdb4 103d
00000090: 3d90 933e e5ba ff3e d2a7 af3e 9983 08bf
000000a0: ce63 71bd 3e28 443e 9e72 313f a53b cb3e
000000b0: cd97 e2be 2de6 af3e 765d cc3d b00f 153f
000000c0: c898 4f3e dbaf d73f 4029 ec3e d1d1 1d3e
000000d0: 5a1f 1a3f 61f5 db3e 812e 10be 11c2 17be
000000e0: 333c 503f 384c 933e 2ded 09be 61e6 353f
000000f0: be4c cebe c2c9 173e d18d 633f c610 fd3e
00000100: 221f 653e 0cc1 df3e 1a10 203f 3a13 923b
00000110: 9002 0b3f f3af a93d 9fb6 57bf c621 cfbf
00000120: fa79 bdbe e544 14bf 60ce dc3e 3ed6 d7be
00000130: 8241 bbbe 7171 71bf 543d d5be 2706 1d3f
00000140: ad8a 9f3f c6a1 84bf 66b7 0e3e 0998 b73d
00000150: 2f12 9bbf 5777 f73e 3b31 72be d3ab 93be
00000160: 08f3 193f 62a0 b93d aba2 6fbd ca39 1bbf
00000170: c999 303e 7911 8cbf d6dd 523e 6841 033f
00000180: f0d5 27bf e3e1 b43e 9422 22be e155 97bd
00000190: 5761 84be 5e4c 343f 4dbd 1abf 6358 f63d
000001a0: c1c9 39be afa1 96bf e07a 64be 1b61 2f3f
000001b0: fc7c fe3e a5bc 83be 0503 b1be 4efe 9b3e
000001c0: 396a 0fbf 3e97 fd3e 93f5 b83d 84f7 a13f
000001d0: 5333 ad3e 4044 84be 0d41 9f3e 7cbe 76be
000001e0: 9b2d 8e3f e86b 18bf f8b7 9ebe 002a f0be
000001f0: 2cab 0fbf 079b f63c 8d30 173f 8415 f43d

encoder.rnn.bias_hh_l0 f4 [128]
1.3846378 0.3121538 -0.8232651 -0.66897327 -0.83814186 -0.3318626 0.5547456 0.74585384
0.018894136 -0.12581211 -0.31878546 -0.09594483 -0.21122155 1.4183332 -0.7007396 -0.24482743
-0.523043 0.32735667 -0.09585445 -0.40439907 0.017337142 -0.9962227 0.11419563 -0.5874317
-0.532199 -0.15345395 -0.49730644 -0.32567412 -0.7292955 0.95269936 -0.37765324 0.14884962
-0.14825848 -0.63502395 0.38654387 -0.024573125 0.20254299 0.48744503 0.43319994 -0.5722393
-0.17893346 0.4551074 0.6739516 0.23877756 -0.18003719 0.35396552 0.2863703 0.5359148
0.18500513 1.7825899 0.4208796 0.23711205 0.38765478 0.3508415 -0.37140733 -0.041260283
0.83470464 0.15938328 -0.31067148 0.7751654 -0.41461256 0.20969039 0.7439848 0.70975083
0.08440351 0.47293326 0.5486945 -0.085601196 0.3152812 -0.02668382 -0.81148475 -1.5965229
-0.17290752 -0.4049069 0.61894333 -0.23204674 -0.27460295 -0.84221756 -0.44552928 0.6885134
1.1182357 -1.0540923 -0.04423896 0.25419053 -1.2863073 0.42339164 -0.08292741 -0.27892062
0.54310185 -0.0009856785 -0.14966431 -0.61076754 0.056281265 -1.1121725 0.17670207 0.53142834
-0.8406588 0.34578383 -0.005550064 -0.061729666 -0.1839087 0.42853042 -0.82971746 0.13150305
0.063385606 -1.1588825 -0.23973624 0.8783204 0.53345865 -0.13840383 -0.57455015 0.085735254
-0.7101124 0.35032994 0.20517011 1.0885808 0.2247613 -0.12622945 0.44301626 -0.119362645
0.9600156 -0.42942104 -0.0143907145 -0.66076666 -0.6028201 0.04953062 0.84551626 0.1610815
00000000: d03b b13f 9fd2 9f3e 80c1 52bf d541 2bbf
00000010: 7790 56bf e5e9 a9be cf03 0e3f 47f0 3e3f
00000020: e0c7 9a3c e4d4 00be d937 a3be b97e c4bd
00000030: 764a 58be f18b b53f ac63 33bf 0bb4 7abe
00000040: 25e6 05bf 4b9b a73e 564f c4bd 650d cfbe
00000050: 9f06 8e3c 7308 7fbf 66df e93d ed61 16bf
00000060: 323e 08bf 0823 1dbe f39e febe c2be a6be
00000070: 1cb3 3abf 1be4 733f c45b c1be 096c 183e
00000080: 12d1 17be ee90 22bf 14e9 c53e 944d c9bc
00000090: 6e67 4f3e 6592 f93e 62cc dd3e 467e 12bf
000000a0: 553a 37be d603 e93e 1888 2c3f 1b82 743e
000000b0: ab5b 38be f83a b53e 219f 923e b631 093f
000000c0: fc71 3d3e e82b e43f 887d d73e 80cd 723e
000000d0: b07a c63e 7fa1 b33e 1a29 bebe 8b00 29bd
000000e0: 34af 553f 5f35 233e 5510 9fbe 3d71 463f
000000f0: 1948 d4be 14b9 563e ca75 3e3f 3bb2 353f
00000100: bfdb ac3d 4f24 f23e 3e77 0c3f ae4f afbd
00000110: 8a6c a13e 0798 dabc 77bd 4fbf dd5a ccbf
00000120: ab0e 31be f54f cfbe 1273 1e3f a99d 6dbe
00000130: c298 8cbe 929b 57bf 6a1c e4be 6a42 303f
00000140: 5922 8f3f 7fec 86bf e933 35bd 4325 823e
00000150: b8a5 a4bf cac6 d83e d9d5 a9bd afce 8ebe
00000160: b908 0b3f e231 81ba 9a41 19be 435b 1cbf
00000170: 2f87 663d ab5b 8ebf 63f1 343e b00b 083f
00000180: 6a35 57bf 940a b13e 50dd b5bb 3fd8 7cbd
00000190: 9052 3cbe 5768 db3e 5d68 54bf bca8 063e
000001a0: 50d0 813d 4356 94bf 6b7d 75be 9bd9 603f
000001b0: bf90 083f bcb9 0dbe b815 13bf f795 af3d
000001c0: edc9 35bf 725e b33e 1d18 523e 9e56 8b3f
000001d0: d427 663e 4b42 01be 07d3 e23e 6774 f4bd
000001e0: 95c3 753f 13dd dbbe 08c7 6bbc 0128 29bf
000001f0: 6b52 1abf 9fe0 4a3d c173 583f 8cf2 243e

decoder.rnn.weight_ih_l0 f4 [256, 32]
0.36274973 -0.9349919 -1.319324 1.1211655 -0.41994217 0.25228176 -0.24341522 0.2676232
-0.22341913 0.5962372 0.45391008 -0.05856734 1.6890029 -0.35837823 -0.74507993 0.049207848
1.1207861 -0.33876523 0.8105294 0.17461625 -0.61432076 -0.52121776 -0.045841765 0.5706501
-0.43379676 1.1190953 0.18454252 0.6223064 -0.0043437025 -0.28400952 0.40629584 -0.2780828
0.3672619 1.6544149 -0.86346304 1.2125225 -0.32327938 0.0040033017 -0.20734425 0.25237355
-0.112692714 0.7290073 -0.09816097 -1.341794 -0.6285453 -0.053177778 0.31935728 -0.12846057
0.22421104 0.029782416 -3.1553066 -0.10343627 -1.3335176 -0.28668728 -0.118240744 0.24810861
-0.13222386 0.6543638 0.1799884 0.03680616 -0.15502228 -0.17161745 0.0187516 -2.7648995
-0.7408527 0.47834444 -0.1683845 -1.708959 -0.35552332 0.49912181 -0.4765527 -0.4012564
-0.3834017 0.076244004 0.8075931 -0.5523142 -0.24382895 -0.17934562 -0.6110572 -1.91566
-0.4768536 -0.48367953 0.076921836 0.18985713 -0.602676 -1.7768452 0.35379532 -1.3142302
-0.5789528 0.7347233 0.06181727 -1.1451527 0.050906714 0.059246454 0.11123147 -0.3410849
-0.08956478 -1.072763 -1.523688 1.4577404 -0.93393004 0.25080088 -0.3145729 0.31294736
0.0005900753 0.8532378 -0.31092224 -0.53501624 0.81461287 -0.13239835 -1.0908216 -0.44644472
0.34729463 -0.020228546 0.6143855 -0.42135498 -0.85375136 -1.2130852 -1.0860189 0.4675929
-0.394144 0.030642105 0.25513217 1.237393 -0.3598838 -0.26541984 0.085074715 0.09344597
-0.5773666 0.46992567 -0.70027626 -0.16251996 -0.90719855 -0.61301 0.3535465 1.0614663
0.3737509 1.6046935 0.20385326 1.1991743 -0.1346335 0.5134832 -3.7204688 0.54388803
-0.05275979 0.52760255 0.26815602 -0.32131362 0.5346235 0.20978872 0.72353107 -0.65756035
0.054431755 -0.18793833 1.1542343 0.4079585 -0.8430925 -0.9032662 -0.34534484 0.43700236
0.5234698 -0.19678748 0.5156912 0.008890851 -0.8343683 0.35059118 -0.37916192 -0.15395391
-0.51587796 0.8257593 0.26560915 -0.4011884 -0.86411947 -0.41857448 0.35171473 -0.62834024
-0.22755359 -0.4552648 -0.15605763 1.4086686 -0.56161886 -0.7782559 0.15261775 0.2085472
-0.057027932 0.72111654 0.17674953 0.99705255 0.24366342 -0.13616735 0.39729124 -0.5099532
-0.7580045 -0.38366768 -0.34686232 1.4226012 -0.072290175 0.099684365 0.073029764 0.80821055
0.18593735 1.1023097 0.098914444 0.30381513 -0.109343655 0.03796415 -0.9042455 0.64041334
0.1730413 -0.02848665 -0.2125178 -0.035827987 -0.0600915 0.6932921 0.00018945342 -1.8696473
-0.47137105 -0.24818198 0.6768614 0.79471105 -0.26905453 -0.47160092 0.019174803 0.29349086
0.20515986 1.3868779 0.2715605 1.243837 0.68015075 0.31636587 -0.41269094 -1.1334766
-0.15067446 0.34467816 1.1433126 0.49693182 -0.57840735 -0.40766272 0.6806649 0.04366622
0.0055561485 -0.4168214 -2.0331242 -0.056465577 0.121720985 -1.4862468 0.29384562 0.077896334
-1.2436188 0.7179149 -0.2722484 -0.44190082 0.49435568 -0.5401221 0.5720341 1.1793462
00000000: 55ba b93e a15b 6fbf 9cdf a8bf 5a82 8f3f
00000010: a902 d7be 132b 813e d741 79be e805 893e
00000020: fcc7 64be 00a3 183f e766 e83e 4fe4 6fbd
00000030: 3f31 d83f 5a7d b7be 8fbd 3ebf 2b8e 493d
00000040: eb75 8f3f a372 adbe db7e 4f3f 9ace 323e
00000050: 2044 1dbf 876e 05bf 93c4 3bbd 2016 123f
00000060: 9c1a debe 843e 8f3f b7f8 3c3e 794f 1f3f
00000070: 9e55 8ebb b269 91be 0206 d03e de60 8ebe
00000080: c009 bc3e dec3 d33f ea0b 5dbf f033 9b3f
00000090: e084 a5be 212e 833b 0d52 54be 1b37 813e
000000a0: 70cb e6bd 39a0 3a3f 9e08 c9bd e8bf abbf
000000b0: 58e8 20bf f1d0 59bd cc82 a33e 2b8b 03be
000000c0: 9497 653e 41fa f33c 8bf0 49c0 65d6 d3bd
000000d0: b4b0 aabf adc8 92be 3428 f2bd 2f10 7e3e
000000e0: b165 07be 6384 273f e14e 383e 0ec2 163d
000000f0: 29be 1ebe 7cbc 2fbe f59c 993c 1df4 30c0
00000100: 86a8 3dbf 90e9 f43e fd6c 2cbe 2bbf dabf
00000110: 2707 b6be e58c ff3e b7fe f3be 7b71 cdbe
00000120: 3a4d c4be d125 9c3d 6cbe 4e3f 7764 0dbf
00000130: 4cae 79be 61a6 37be 3f6e 1cbf 5934 f5bf
00000140: 2826 f4be d8a4 f7be 3289 9d3d e869 423e
00000150: f948 1abf aa6f e3bf a924 b53e b238 a8bf
00000160: 4036 14bf d416 3c3f 1b34 7d3d 5d94 92bf
00000170: 8f83 503d 69ac 723d 53cd e33d aea2 aebe
00000180: bd6d b7bd 4c50 89bf 3508 c3bf 3d97 ba3f
00000190: 0a16 6fbf f968 803e b30f a1be a33a a03e
000001a0: 48af 1a3a cb6d 5a3f 3331 9fbe d3f6 08bf
000001b0: 788a 503f 6f93 07be 0ba0 8bbf 6794 e4be
000001c0: 9ad0 b13e 56b6 a5bc 5e48 1d3f d7bb d7be
000001d0: 738f 5abf 6046 9bbf ab02 8bbf 5668 ef3e
000001e0: 3ecd c9be 2705 fb3c afa0 823e e562 9e3f
000001f0: b042 b8be 1ce5 87be a73b ae3d 9a60 bf3d
00000200: 4cce 13bf 199a f03e 4e45 33bf a26b 26be
00000210: 2a3e 68bf 39ee 1cbf 0c04 b53e 21de 873f
00000220: 475c bf3e 9966 cd3f e9be 503e 8b7e 993f
00000230: 5ddd 09be a373 033f 291c 6ec0 3f3c 0b3f
00000240: a61a 58bd f610 073f bf4b 893e 3883 a4be
00000250: 16dd 083f dbd2 563e 5539 393f e055 28bf
00000260: d5f3 5e3d e872 40be f3bd 933f f0df d03e
00000270: e9d4 57bf 743c 67bf 0ad1 b0be c6be df3e
00000280: 1e02 063f a882 49be 5704 043f efaa 113c
00000290: 2999 55bf b080 b33e 8321 c2be 18a6 1dbe
000002a0: 9410 04bf f664 533f ecfd 873e 9168 cdbe
000002b0: ef36 5dbf 654f d6be f413 b43e e8da 20bf
000002c0: cf03 69be 7818 e9be 92cd 1fbe 414f b43f
000002d0: 41c6 0fbf c73b 47bf d447 1c3e 668d 553e
000002e0: 1f96 69bd 189b 383f d4fd 343e d63e 7f3f
000002f0: e782 793e 746f 0bbe c269 cb3e 4b8c 02bf
00000300: 950c 42bf 1770 c4be f097 b1be cc17 b63f
00000310: df0c 94bd 5127 cc3d a190 953d e3e6 4e3f
00000320: 5c66 3e3e 7c18 8d3f a893 ca3d a88d 9b3e
00000330: 91ef dfbd 4c80 1b3d a27c 67bf 21f2 233f
00000340: bd31 313e d65c e9bc 449e 59be 5ec0 12bd
00000350: 8122 76bd 977b 313f 04a8 4639 9a50 efbf
00000360: 8c57 f1be 6b23 7ebe ca46 2d3f 2f72 4b3f
00000370: 84c1 89be ad75 f1be 7a14 9d3c 6f44 963e
00000380: 6d15 523e 3785 b13f fa09 8b3e 0d36 9f3f
00000390: 5c1e 2e3f b5fa a13e 3a4c d3be c315 91bf
000003a0: 684a 1abe a879 b03e 1158 923f d96d fe3e
000003b0: 8112 14bf 2bb9 d0be 0e40 2e3f 5adb 323d
000003c0: 5a10 b63b 9d69 d5be b51e 02c0 7348 67bd
000003d0: da48 f93d 563d bebf ef72 963e 1d88 9f3d
000003e0: e72e 9fbf 45c9 373f 2464 8bbe d340 e2be
000003f0: 301c fd3e 7145 0abf d470 123f d1f4 963f

decoder.rnn.weight_hh_l0 f4 [256, 64]
0.29668656 0.8091387 1.4271816 -0.48259667 1.6338509 0.23773111 0.2703954 0.34243736
0.56396335 0.6294218 -1.9696733 -0.19025373 0.27973595 0.41652903 0.98493844 -0.3446904
-0.28092283 -0.21944961 -0.27359793 -1.0702262 1.498073 -0.81797874 0.30131796 0.041627098
-0.18508573 0.22523785 -0.5104233 0.03387208 2.9841955 0.61201215 0.015833648 -0.55665195
0.22428475 0.13270873 -0.07497539 -0.21687004 -0.10478837 0.30297408 0.10380919 -1.5716581
0.023135154 -0.69662905 -0.46515572 -0.49763477 0.52709424 0.34969914 -0.45943925 0.3983316
-0.12506062 0.26533297 0.12276179 0.34530616 -0.19118129 0.5385987 -0.06800689 0.89495903
-0.27975142 -0.5272687 0.13727105 0.5344714 0.5436149 -0.76981723 1.0122753 0.03911673
0.07379416 -0.14004023 0.15460104 0.292964 -0.10745695 -0.26049116 -1.4336224 0.04086786
0.7052844 0.3647389 -0.65826744 -0.014391103 -0.8185433 0.18802494 0.14679445 -0.8374792
2.0337465 0.42126837 -0.140789 -0.4286463 0.7227111 0.4359823 -0.2462912 0.42100808
-0.24008268 0.51675117 -0.8160789 0.27394614 -0.45148534 0.58117706 -0.62219304 0.5873522
-0.040232807 2.243602 0.7616943 -0.008683694 -0.106219664 -1.726146 -0.44862628 -0.6577329
0.5536413 -1.4183321 -0.30436093 1.0453352 -0.106600836 -0.15815507 -0.24648602 0.8650791
0.07197347 -0.71436554 0.61753994 -0.12196327 -0.32629693 0.05148764 0.060059775 0.5179407
0.336442 -1.215361 -0.22123715 -0.53893954 -0.13692383 0.68284976 -1.4043092 0.3781973
-0.30475956 0.32640588 2.2611125 -0.7220586 -0.07508096 -0.03148141 -1.0126363 2.620258
0.36443695 0.07460942 -1.3663301 -1.3238645 0.08339221 -0.82537997 1.9038262 -0.22546297
-1.6787008 -1.2729485 -0.13386786 1.8644642 -0.18732107 -1.1614499 1.1259434 -0.21314928
1.2781585 0.08750399 -2.811013 1.2038485 -1.1219834 1.5594213 1.8409871 1.1620653
1.035835 -0.09774412 -0.7596992 1.9827867 -0.06953589 1.2591597 -1.8677456 -0.7361114
-2.1839771 -0.5829713 0.51818883 -0.32736716 0.3335497 1.6968006 0.69763035 0.98540175
0.82311696 -0.09144737 1.2900683 1.928991 -0.3795187 -0.1416394 0.5665098 0.637298
-0.42405602 -1.8031992 2.2640429 1.6477844 1.7613379 -0.12545511 -0.29908556 -1.1385396
0.36543643 0.108524 -2.5437489 -0.04054746 -2.73882 -0.1519094 -0.37381023 0.16063178
0.8394072 0.15960039 0.713715 -0.7635356 1.0411605 0.077195145 0.6196853 -0.983828
-0.18647693 -1.1820052 1.4159193 0.36822373 0.052932 -0.1629948 0.7754225 -0.5318961
-0.06253217 0.18729292 -0.07911233 0.2817316 -0.08408808 0.28969124 -0.036431257 -0.58810014
0.063732736 0.40690684 -0.493095 0.83467764 -0.14199506 0.9044399 0.52697515 -0.53986275
0.011419332 1.15157 0.7476688 0.79545546 0.46597168 0.2755839 -0.08907386 0.2770918
-0.18156701 0.16138199 -0.15795626 0.1324679 -0.31807774 0.6989507 -0.0722079 0.111328125
-0.56136423 -0.93147683 0.50553626 0.30515912 0.37521335 -0.86871815 -0.7266059 0.27392498
00000000: 4de7 973e b723 4f3f e3ad b63f e916 f7be
00000010: 0722 d13f c96f 733e 4471 8a3e f353 af3e
00000020: e75f 103f c921 213f 411e fcbf e0d1 42be
00000030: 8d39 8f3e 4b43 d53e ed24 7c3f 437b b0be
00000040: 1ed5 8fbe 66b7 60be 0715 8cbe 2cfd 88bf
00000050: dbc0 bf3f 0e67 51bf 5946 9a3e 2d81 2a3d
00000060: 1d87 3dbe c0a4 663e 1aab 02bf 73bd 0a3d
00000070: 0ffd 3e40 d4ac 1c3f 91b5 813c be80 0ebf
00000080: e7aa 653e cce4 073e b38c 99bd 2e13 5ebe
00000090: 499b d6bd 6b1f 9b3e ea99 d43d 182c c9bf
000000a0: ef85 bd3c 4856 32bf e428 eebe fcc9 febe
000000b0: a6ef 063f c40b b33e 9f3b ebbe 1ff2 cb3e
000000c0: e40f 00be b9d9 873e 896a fb3d f8cb b03e
000000d0: 07c5 43be 9be1 093f 3247 8bbd 091c 653f
000000e0: 943b 8fbe 15fb 06bf c890 0c3e 1ed3 083f
000000f0: 592a 0b3f be12 45bf 3d92 813f dd38 203d
00000100: 6421 973d b566 0fbe bc4f 1e3e 61ff 953e
00000110: 6412 dcbd 195f 85be f080 b7bf 0f65 273d
00000120: 858d 343f 0fbf ba3e 3784 28bf a9c8 6bbc
00000130: 0e8c 51bf 9c89 403e 4951 163e 0965 56bf
00000140: e728 0240 7db0 d73e fe2a 10be 8777 dbbe
00000150: 9803 393f 1239 df3e c333 7cbe 5f8e d73e
00000160: 3cd8 75be ce49 043f 8cea 50bf ab42 8c3e
00000170: 1629 e7be 05c8 143f 0b48 1fbf b75c 163f
00000180: 28cb 24bd 2d97 0f40 66fe 423f 0d46 0ebc
00000190: b289 d9bd 5af2 dcbf 58b2 e5be 2f61 28bf
000001a0: 70bb 0d3f e88b b5bf 32d5 9bbe 8bcd 853f
000001b0: 8a51 dabd 67f3 21be d566 7cbe d375 5d3f
000001c0: d466 933d a9e0 36bf 1917 1e3f e1c7 f9bd
000001d0: 6410 a7be b4e4 523d 3d01 763d c397 043f
000001e0: 2042 ac3e f390 9bbf fe8b 62be f1f7 09bf
000001f0: c335 0cbe 3ecf 2e3f 67c0 b3bf 14a3 c13e
00000200: 7209 9cbe ac1e a73e 11b6 1040 d5d8 38bf
00000210: 0cc4 99bd a7f2 00bd 119e 81bf 4fb2 2740
00000220: 7b97 ba3e d3cc 983d e8e3 aebf 6474 a9bf
00000230: 89c9 aa3d 1a4c 53bf 94b0 f33f c4df 66be
00000240: abdf d6bf faef a2bf a814 09be c3a6 ee3f
00000250: 18d1 3fbe 64aa 94bf ea1e 903f ce43 5abe
00000260: b39a a33f 4b35 b33d a3e7 33c0 b517 9a3f
00000270: 279d 8fbf 1e9b c73f 77a5 eb3f 8ebe 943f
00000280: 3e96 843f 122e c8bd a67b 42bf f4cb fd3f
00000290: d568 8ebd 252c a13f 4a12 efbf cc71 3cbf
000002a0: 48c6 0bc0 9b3d 15bf 06a8 043f ab9c a7be
000002b0: 07c7 aa3e c330 d93f e797 323f 4a43 7c3f
000002c0: cbb7 523f c248 bbbd f520 a53f 2de9 f63f
000002d0: 4650 c2be eb09 11be c906 113f f625 233f
000002e0: df1d d9be 3bcf e6bf 14e6 1040 99ea d23f
000002f0: 8573 e13f 4e77 00be be21 99be aabb 91bf
00000300: 7c1a bb3e d541 de3d c8cc 22c0 1815 26bd
00000310: d448 2fc0 238e 1bbe 0e64 bfbe a87c 243e
00000320: 64e3 563f 496e 233e 07b6 363f 1277 43bf
00000330: bf44 853f 7d18 9e3d b2a3 1e3f 27dc 7bbf
00000340: cff3 3ebe f24b 97bf d83c b53f d287 bc3e
00000350: 3acf 583d 1ce8 26be 1782 463f 582a 08bf
00000360: de10 80bd b7c9 3f3e a505 a2bd 203f 903e
00000370: 5f36 acbd 6952 943e f138 15bd bb8d 16bf
00000380: 4f86 823d 1856 d03e f376 fcbe 6fad 553f
00000390: 2767 11be 6089 673f d8e7 063f 7234 0abf
000003a0: 2618 3b3c a566 933f 3967 3f3f f8a2 4b3f
000003b0: d793 ee3e 5519 8d3e 5b6c b6bd fade 8d3e
000003c0: b4ec 39be 5241 253e 49bf 21be aaa5 073e
000003d0: 16db a2be 6fee 323f bce1 93bd 0000 e43d
000003e0: 91b5 0fbf 4475 6ebf d36a 013f d13d 9c3e
000003f0: f71b c03e 5064 5ebf d802 3abf e53f 8c3e

decoder.rnn.bias_ih_l0 f4 [256]
0.28263918 0.045611758 0.41102317 0.075170085 -0.28652185 0.5460584 0.17772432 0.35584718
-0.1005704 0.19736886 0.15156795 -0.10567204 -0.1343127 -0.28784737 0.1390717 0.08724449
0.25033036 0.13042966 -0.047421265 0.10022491 -0.29705906 0.04157021 -0.12851486 0.338594
0.3330446 0.029043343 0.5337836 0.4823537 0.099632874 -0.1478096 -0.18955322 0.1286095
0.33664292 0.1881675 0.45229995 -0.09854612 0.21733162 0.047448497 0.124651305 0.029040884
0.1099041 -0.008610202 0.3278483 -0.15809682 0.25815135 0.681662 0.29946184 0.3478092
-0.15945046 -0.20153306 0.09563868 0.35921836 -0.03476736 0.610488 0.1110072 -0.003291779
0.45462796 -0.18816023 0.2593076 0.7817606 0.28533313 0.20277505 -0.17692415 -0.05890285
-0.17635782 -0.23910372 0.22229081 -0.2130431 -0.025488589 -0.035056397 0.105306864 0.29327577
0.2881696 -0.15886176 0.23725282 -0.0860764 0.17566113 0.31515983 0.20801899 0.34379834
-0.14274676 0.28126788 0.5061545 -0.35574776 -0.05017887 0.33490172 0.39296797 0.02560064
-0.083468825 -0.06050194 0.24612452 0.090912886 0.46231717 0.36003742 -0.11371983 0.13958834
-0.13574685 0.2715385 -0.34915277 0.6430163 0.17265026 0.5114583 -0.092526704 0.45979735
0.41759598 -0.04778759 0.18263589 0.10728887 -0.23246978 0.15123318 0.09636047 0.15800793
0.35434037 0.12913083 0.5193195 -0.5606217 0.10422015 0.18453696 0.11689775 -0.32182163
-0.41523054 0.39134324 0.047252234 -0.007224331 0.30639493 0.42161292 -0.16766186 0.21614376
0.2506536 -0.20907477 -0.48061883 0.31214747 0.025238039 0.018168166 0.02925619 -0.3988967
-0.13366546 0.19873913 0.46616513 -0.21147689 -0.07880803 -0.04156574 -0.29513735 0.22495554
0.3929726 0.22073992 0.5048907 -0.24159841 -0.39697745 0.41994688 -0.5421026 -0.24933802
-0.41405794 -0.13256118 0.4882804 -0.004929523 -0.6041235 0.25995344 -0.1479086 0.2610945
0.034613177 -0.1864392 0.15736428 0.44662023 -0.24578905 -0.41917682 0.59427136 0.318586
0.2477226 -0.044245273 0.38007534 0.47809312 -0.36809382 -0.19044374 0.17529598 -0.12711519
-0.024501517 -0.27533835 -0.45147264 -0.35823402 -0.48668233 0.206247 -0.09925714 -0.12608789
-0.2761301 0.355397 -0.37592122 0.52499443 -0.25811312 -0.13841258 -0.56933117 0.41779608
0.45202166 -0.045029707 0.230235 0.10870626 0.01723947 0.16809787 0.08409461 0.51059735
-0.09326701 -0.041762866 0.32576746 0.28734908 0.3380375 0.21293235 -0.044171173 0.19490315
0.26680398 0.29809782 0.6340686 0.009969749 0.12419077 0.3869407 0.16172376 -0.13437769
0.5794158 0.17082182 0.44115865 0.7043334 0.12783049 0.30284834 -0.21742688 0.42166987
0.41722772 0.021086434 0.2873559 0.5446264 0.2784024 0.38466403 0.033265736 -0.070029505
0.032725364 -0.09941282 0.6690196 0.07732001 0.0878565 0.19569255 0.2717074 0.258861
0.23331293 0.060150042 0.5043376 0.45400617 0.38936353 0.36401033 0.58938926 0.20688704
0.10936022 -0.045626406 0.18699585 0.79896975 0.14125207 0.15681024 0.113421574 0.17347795
00000000: 15b6 903e 65d3 3a3d a171 d23e c6f2 993d
00000010: feb2 92be 7cca 0b3f 5dfd 353e 9a31 b63e
00000020: dbf7 cdbd 101b 4a3e a134 1b3e 956a d8bd
00000030: 4589 09be bb60 93be d068 0e3e 3dad b23d
00000040: 4d2b 803e 5a8f 053e cd3c 42bd b842 cd3d
00000050: 2018 98be 8645 2a3d 6699 03be 315c ad3e
00000060: d284 aa3e 4eec ed3c 0ba6 083f 10f7 f63e
00000070: 520c cc3d 665b 17be 3d1a 42be 35b2 033e
00000080: 765c ac3e fbae 403e dc93 e73e 8cd2 c9bd
00000090: 2e8c 5e3e 5b59 423d 2f49 ff3d 26e7 ed3c
000000a0: 6715 e13d ce11 0dbc bbdb a73e 22e4 21be
000000b0: 6a2c 843e 6781 2e3f 1053 993e 0c14 b23e
000000c0: fb46 23be af5e 4ebe 36de c33d 78eb b73e
000000d0: 3868 0ebd f148 1c3f be57 e33d e3ba 57bb
000000e0: ffc4 e83e 13ad 40be f7c3 843e 7621 483f
000000f0: 2f17 923e 43a4 4f3e 9b2b 35be 1d44 71bd
00000100: 2597 34be 9bd7 74be 34a0 633e f827 5abe
00000110: 72cd d0bc 4c97 0fbd 20ab d73d 3e28 963e
00000120: f78a 933e a8ac 22be 67f2 723e d348 b0bd
00000130: 83e0 333e a15c a13e ee02 553e 5606 b03e
00000140: 352c 12be 5802 903e 5793 013f 9224 b6be
00000150: 5c88 4dbd 3d78 ab3e 1933 c93e 6fb8 d13c
00000160: b4f1 aabd e2d0 77bd 1108 7c3e 8930 ba3d
00000170: d6b4 ec3e d356 b83e f1e5 e8bd 3ff0 0e3e
00000180: 3901 0bbe 1807 8b3e 27c4 b2be b79c 243f
00000190: 3bcb 303e eeee 023f a47e bdbd 8f6a eb3e
000001a0: 24cf d53e ecbc 43bd e704 3b3e 44ba db3d
000001b0: 8f0c 6ebe dfdc 1a3e a358 c53d d5cc 213e
000001c0: 1a6c b53e df3a 043e 1ff2 043f e784 0fbf
000001d0: 6071 d53d 42f7 3c3e 1668 ef3d cec5 a4be
000001e0: 1999 d4be 245e c83e 8f8b 413d 15ba ecbb
000001f0: ccdf 9c3e a6dd d73e 8daf 2bbe ca54 5d3e
00000200: ab55 803e b217 56be ac13 f6be cbd1 9f3e
00000210: 01c0 ce3c 68d5 943c adaa ef3c 303c ccbe
00000220: 99df 08be 4582 4b3e 32ad ee3e 668d 58be
00000230: 1b66 a1bd d640 2abd 3e1c 97be bf5a 663e
00000240: b433 c93e a509 623e 8440 013f 9365 77be
00000250: a140 cbbe 4703 d73e 3cc7 0abf 7752 7fbe
00000260: 67ff d3be 1ebe 07be e3ff f93e d687 a1bb
00000270: d6a7 1abf 9e18 853e 5a75 17be 2eae 853e
00000280: 8cc6 0d3d ebe9 3ebe 1a24 213e 68ab e43e
00000290: 20b0 7bbe 589e d6be 2b22 183f b41d a33e
000002a0: feaa 7d3e 883a 35bd 3c99 c23e 9fc8 f43e
000002b0: cb76 bcbe af03 43be ca80 333e 7c2a 02be
000002c0: 68b7 c8bc 26f9 8cbe 6c27 e7be 736a b7be
000002d0: 6d2e f9be 6a32 533e 5447 cbbd 2f1d 01be
000002e0: ed60 8dbe 98f6 b53e bf78 c0be 0966 063f
000002f0: 6727 84be 07bc 0dbe b0bf 11bf 5ee9 d53e
00000300: 626f e73e 1271 38bd b9c2 6b3e 63a1 de3d
00000310: ca39 8d3c d921 2c3e cb39 ac3d 82b6 023f
00000320: c602 bfbd 8a0f 2bbd feca a63e 6b1f 933e
00000330: 4013 ad3e f00a 5a3e d5ec 34bd b194 473e
00000340: 889a 883e 47a0 983e 5252 223f 2858 233c
00000350: bb57 fe3d 171d c63e ea9a 253e 4e9a 09be
00000360: 9854 143f eaeb 2e3e 8cdf e13e 324f 343f
00000370: ffe5 023e f00e 9b3e 27a5 5ebe 1de5 d73e
00000380: df9e d53e 75bd ac3c 5020 933e a36c 0b3f
00000390: c28a 8e3e aff2 c43e a741 083d a16b 8fbd
000003a0: 080b 063d f398 cbbd de44 2b3f f459 9e3d
000003b0: 1cee b33d a163 483e 3b1d 8b3e 6e89 843e
000003c0: 96e9 6e3e e45f 763d 451c 013f 7f73 e83e
000003d0: a85a c73e 905f ba3e 37e2 163f 32da 533e
000003e0: 40f8 df3d c1e2 3abd d77b 3f3e 4889 4c3f
000003f0: 62a4 103e dd92 203e 9249 e83d 34a4 313e

decoder.rnn.bias_hh_l0 f4 [256]
0.28601155 -0.05756078 0.6409185 0.10316125 -0.4474829 0.38932708 0.06555468 0.44863188
-0.10804165 0.13920748 0.29263693 -0.0495316 -0.12831995 -0.38030252 0.11449603 -0.11613779
0.24698752 0.1333092 0.0111489445 -0.0375328 -0.257709 0.1271792 -0.044018127 0.3694278
0.4600552 0.011000467 0.5832796 0.447571 0.2359238 -0.14081675 -0.26931664 -0.03783743
0.193307 0.1915802 0.44314826 0.07095841 0.41990763 0.11782255 0.31669006 -0.09718305
0.1411528 -0.12463379 0.403235 0.060263418 0.23422351 0.59291154 0.11790797 0.4199711
-0.057371028 -0.06734064 0.1833228 0.4624064 -0.21894044 0.4297038 0.10640263 -0.027781881
0.3763002 -0.21848933 0.3032836 0.78176063 0.31663406 0.32444227 -0.14811453 0.06639266
-0.26483113 -0.23910372 0.12556107 -0.26758134 0.052745167 0.04357258 0.09285081 0.28815013
0.32491276 -0.10970896 0.32015547 0.092671975 0.08727208 0.3969326 0.01831522 0.32057187
-0.011488944 0.05271449 0.34986952 -0.3907707 -0.15832958 0.43881166 0.30822343 0.025456158
-0.18904024 -0.09483139 0.34978685 0.10698367 0.34142026 0.3891815 -0.13959838 0.019536242
-0.20121516 0.29214385 -0.3491526 0.63617283 0.110381104 0.29327852 -0.017126948 0.34154668
0.18597122 0.020869136 0.2153279 0.100066476 -0.08384933 0.021141872 0.24355498 0.24973792
0.5078261 0.295612 0.4893309 -0.56065553 0.21464798 0.3037515 0.11568862 -0.32169744
-0.4152337 0.45135686 -0.031665746 0.057237815 0.37305006 0.29630908 -0.12005247 0.28179157
0.18302687 -0.20907477 -0.48061883 0.11644046 0.07261673 0.00850758 0.029671056 -0.40198097
-0.17689969 0.01756665 0.55983496 -0.119015455 -0.071051784 0.01539706 -0.26887533 0.05894476
0.26493186 0.23011342 0.6211632 -0.24159841 -0.32676524 0.61190295 -0.4183187 -0.20881753
-0.41405794 -0.06472377 0.4882779 0.16997266 -0.55209965 0.050451174 0.011606757 0.05958107
0.08374626 -0.23618041 0.28205028 0.5333231 -0.1428431 -0.42113256 0.59770954 0.19827776
0.27709058 0.112015896 0.56398386 0.44472805 -0.5383025 -0.1550984 0.24476111 -0.15189263
0.11791019 -0.3024491 -0.29031527 -0.36523315 -0.28080067 0.053344615 -0.11521246 -0.14759634
-0.18431865 0.32426873 -0.43043458 0.43433234 -0.46119067 -0.37129864 -0.5386572 0.49231055
0.5690979 -0.13873327 0.3027615 -0.014224555 0.0062426697 0.1708348 0.2989249 0.4101458
-0.22085291 -0.08322213 0.3918604 0.365563 0.227818 0.23297213 -0.063999556 0.40943104
0.3498214 0.2851623 0.5068951 -0.056380104 0.10857275 0.44825497 0.1960873 -0.13708001
0.6248265 0.2672558 0.41578823 0.52202916 0.17887902 0.1942285 -0.19003241 0.43830097
0.42104292 0.053482447 0.2630161 0.5116495 0.27448526 0.54075325 0.086139336 -0.075826004
0.016958058 -0.013059815 0.60442114 0.10428514 0.1810869 0.12105295 0.41372207 0.2506517
0.28436142 0.1187794 0.55868256 0.48905933 0.35318053 0.21636252 0.50608015 0.19405906
0.23745692 -0.064418636 0.25221255 0.7989765 0.1762698 0.26505575 -0.066571854 0.015756607
00000000: 1b70 923e dac4 6bbd 3c13 243f 3546 d33d
00000010: 7b1c e5be e155 c73e 8841 863d 14b3 e53e
00000020: f144 ddbd 688c 0e3e 82d4 953e a6e1 4abd
00000030: 4e66 03be 03b7 c2be e57c ea3d a6d9 edbd
00000040: 4cea 7c3e 3582 083e 10aa 363c febb 19bd
00000050: 6ff2 83be 443b 023e 5a4c 34bd a425 bd3e
00000060: 5b8c eb3e 4e3b 343c d051 153f 0728 e53e
00000070: 0296 713e 4432 10be dfe3 89be 6cfb 1abd
00000080: 45f2 453e 9a2d 443e 54e4 e23e a552 913d
00000090: 22fe d63e f34c f13d 3325 a23e e807 c7bd
000000a0: 5c8a 103e 0040 ffbd d174 ce3e c6d6 763d
000000b0: 4ad8 6f3e 0dc9 173f bc79 f13d 7406 d73e
000000c0: e2fd 6abd e4e9 89bd f9b8 3b3e 88c0 ec3e
000000d0: ec31 60be 2302 dc3e 9fe9 d93d d496 e3bc
000000e0: 6baa c03e abbb 5fbe fd47 9b3e 7721 483f
000000f0: dc1d a23e 4c1d a63e 56ab 17be e0f8 873d
00000100: f297 87be 9bd7 74be 1593 003e 6c00 89be
00000110: 510b 583d 2979 323d 9128 be3d 6a88 933e
00000120: f75a a63e 17af e0bd 6beb a33e ceca bd3d
00000130: b4bb b23d c03a cb3e cd09 963c ff21 a43e
00000140: 203c 3cbc 26eb 573d 1922 b33e 1913 c8be
00000150: 2621 22be ecab e03e 76cf 9d3e 6f89 d03c
00000160: c493 41be f636 c2bd 4317 b33e 411a db3d
00000170: a3ce ae3e cc42 c73e e1f2 0ebe 780a a03c
00000180: 590b 4ebe e193 953e 21c4 b2be 39dc 223f
00000190: 7d0f e23d 9a28 963e d04d 8cbc 35df ae3e
000001a0: 3d6f 3e3e c0f5 aa3c eb7e 5c3e a7ef cc3d
000001b0: 33b9 abbd b831 ad3c 7a66 793e 4cbb 7f3e
000001c0: e400 023f 755a 973e 9489 fa3e 1f87 0fbf
000001d0: aecc 5b3e 5185 9b3e 28ee ec3d 87b5 a4be
000001e0: 8399 d4be 3f18 e73e f1b3 01bd 3372 6a3d
000001f0: 6b00 bf3e d3b5 973e 12de f5bd fc46 903e
00000200: 656b 3b3e b217 56be ac13 f6be 5678 ee3d
00000210: 15b8 943d 6063 0b3c b710 f33c 73d0 cdbe
00000220: 3125 35be efe7 8f3c 5851 0f3f 60be f3bd
00000230: 9983 91bd f343 7c3c 07aa 89be 1070 713d
00000240: 26a5 873e daa2 6b3e 8d04 1f3f 9365 77be
00000250: c64d a7be aca5 1c3f de2d d6be 43d4 55be
00000260: 67ff d3be e58d 84bd 90ff f93e 500d 2e3e
00000270: 6756 0dbf e4a5 4e3d 442a 3e3c 480b 743d
00000280: 2983 ab3d 47d9 71be e568 903e dd87 083f
00000290: 7645 12be b09e d7be 7e03 193f 5309 4b3e
000002a0: d1de 8d3e 9768 e53d 3f61 103f 65b3 e33e
000002b0: 31ce 09bf 1dd2 1ebe a8a2 7a3e be89 1bbe
000002c0: e67a f13d 9cda 9abe 34a4 94be d7ff babe
000002d0: 1bc5 8fbe e27f 5a3d 83f4 ebbd 7f23 17be
000002e0: 07be 3cbe 8d06 a63e ec61 dcbe cf60 de3e
000002f0: 2f21 ecbe db1a bebe 70e5 09bf 2110 fc3e
00000300: 66b0 113f 1810 0ebe 8e03 9b3e 1c0e 69bc
00000310: 4f8f cc3b 51ef 2e3e af0c 993e a1fe d13e
00000320: 4427 62be 5d70 aabd eda1 c83e 132b bb3e
00000330: 1f49 693e 3f90 6e3e 3312 83bd f2a0 d13e
00000340: ca1b b33e cb00 923e e1c3 013f d3ee 66bd
00000350: 645b de3d ad81 e53e 1ccb 483e b45e 0cbe
00000360: a1f4 1f3f c1d5 883e 32e2 d43e b4a3 053f
00000370: 102c 373e d6e3 463e db97 42be fc68 e03e
00000380: f092 d73e 6910 5b3d 0caa 863e 76fb 023f
00000390: 5589 8c3e ce6e 0a3f d269 b03d aa4a 9bbd
000003a0: a0eb 8a3c d6f8 55bc 58bb 1a3f 7393 d53d
000003b0: d86e 393e 9cea f73d 61d3 d33e 6b55 803e
000003c0: d297 913e 9d42 f33d d205 0f3f fc65 fa3e
000003d0: 14d4 b43e 238e 5d3e 788e 013f 6bb7 463e
000003e0: e827 733e ebed 83bd 0122 813e b989 4c3f
000003f0: 1280 343e 63b5 873e d356 88bd 0014 813c

decoder.output_layer.weight f4 [1, 64]
0.97717506 -0.963031 -1.8784748 1.1626732 -2.03836 1.2954574 -0.82741815 -1.0303665
-1.1636322 -0.9444358 1.9071324 -0.26734513 -1.1906028 -1.2179518 -1.0158894 -1.072725
-1.2282445 1.0810797 0.5561668 -1.2394562 -1.228284 0.9740669 -1.2286736 -0.95256805
-1.855128 -1.2343547 -0.7760834 -0.91157806 -0.86002547 -0.83860517 0.25403163 1.1770664
-1.2184461 -1.175012 1.0840459 -0.9582218 1.2444394 -0.99895877 1.3568448 0.93107706
0.932461 -1.9520879 3.7592502 1.91758 -1.2507377 -1.0197101 -1.2688892 -1.0912211
-1.1319728 -1.1392651 -0.86652535 -1.2492143 -2.5683823 -1.1631179 0.8974922 -1.0192375
1.099477 1.053494 -1.0876851 0.1947617 -0.813905 0.93637437 -1.0456955 0.8608508
00000000: 2528 7a3f 3389 76bf dd71 f0bf 7ad2 943f
00000010: 7e74 02c0 8cd1 a53f add1 53bf 0de3 83bf
00000020: e6f1 94bf 8bc6 71bf ea1c f43f 76e1 88be
00000030: ac65 98bf d8e5 9bbf aa08 82bf 0e4f 89bf
00000040: 1e37 9dbf d260 8a3f f360 0e3f 80a6 9ebf
00000050: 6938 9dbf 735c 793f 2d45 9dbf 80db 73bf
00000060: d674 edbf 56ff 9dbf 67ad 46bf 2e5d 69bf
00000070: a12a 5cbf d4ae 56bf 6f10 823e 1daa 963f
00000080: 0bf6 9bbf cb66 96bf 04c2 8a3f 064e 75bf
00000090: ca49 9f3f c3bb 7fbf 17ad ad3f 115b 6e3f
000000a0: c4b5 6e3f 04de f9bf 8e97 7040 4373 f53f
000000b0: 2c18 a0bf dc85 82bf f66a a2bf 22ad 8bbf
000000c0: 7ce4 90bf 70d3 91bf 9bd4 5dbf 41e6 9fbf
000000d0: 6060 24c0 0ce1 94bf 0cc2 653f 6076 82bf
000000e0: aabb 8c3f e4d8 863f 4439 8bbf 9c6f 473e
000000f0: 145c 50bf 3bb6 6f3f 5ad9 85bf b860 5c3f
