Detectors/Deep_Learning/AutoEncoders/models/Trained_RDA_Detect/lstm_ae.pt (torch_old, 6073 bytes, 16 tensors)

encoder.lstm.weight_ih_l0 f4 [32, 1]
0	0x3ec85a61	0.39131454
1	0x3f5088dc	0.8145883
2	0x3f2278bf	0.63465494
3	0x3f5a3fe0	0.85253716
4	0x3f2381fd	0.6387022
5	0x3dd5121a	0.10403843
6	0x3f402f52	0.75072205
7	0x3f953b67	1.1658753
8	0xbcb01d1a	-0.021498252
9	0xbecfd329	-0.4059079
10	0x3dc6a50d	0.0969945
11	0x3dc37a8a	0.09544857
12	0x3eec0d74	0.46104014
13	0xbe63fcff	-0.22264479
14	0x3f1f0388	0.62114763
15	0x3dd752a6	0.10513811
16	0x3e2a5462	0.16633752
17	0x3e477a75	0.19480307
18	0xbeb4cfa1	-0.35314658
19	0x3f413cfa	0.7548367
20	0x3ec759cf	0.38935706
21	0x3e6dd0a8	0.23224127
22	0x3f377c61	0.7167416
23	0xbf31998b	-0.6937491
24	0x3e88b4fb	0.26700577
25	0x3efa9226	0.48939627
26	0x3e70a93d	0.2350206
27	0x3f35c4c8	0.7100339
28	0x3d9b8694	0.07594028
29	0x3e6c37cb	0.23068158
30	0x3f21c2b7	0.63187736
31	0x3d5d7311	0.054064814

encoder.lstm.weight_hh_l0 f4 [32, 8]
0	0x3dc51e76	0.096249506
1	0xbe922466	-0.28543395
2	0xbe8c7bcb	-0.27438197
3	0x3f0765c1	0.5288964
4	0x3ef646d6	0.4810092
5	0x3c5a1632	0.013310956
6	0xbe0bb915	-0.13644822
7	0xbea7b6d9	-0.3275669
8	0x3e993a28	0.29927182
9	0xbe230566	-0.15920028
10	0xbdbaf032	-0.09127845
11	0x3e6c93e3	0.2310329
12	0xbe7adb7d	-0.2449779
13	0xbe3991eb	-0.1812207
14	0xbd0e664e	-0.034765534
15	0x3e94a5de	0.29032797
16	0x3c83ed3b	0.016104331
17	0xbde302fc	-0.110845536
18	0xbdc6c989	-0.097064085
19	0x3e0d0c56	0.13774237
20	0x3ea5284d	0.3225731
21	0xbd2a7487	-0.041615035
22	0x3eb29f65	0.34887233
23	0xbc81490a	-0.015781898
24	0x3efc5132	0.49280697
25	0x3ddc8655	0.10767809
26	0xbd375126	-0.044755124
27	0x3e2ca24f	0.16858791
28	0xbb1847b1	-0.002323609
29	0xba043832	-0.0005043774
30	0x3e852fd1	0.26013044
31	0xbe88faf0	-0.2675395
32	0xbdbbf3f0	-0.09177387
33	0xbe9169f0	-0.28401136
34	0xbf0fbbe9	-0.56146103
35	0x3d98f70d	0.07468996
36	0x3dfda028	0.12384063
37	0xbe4448ec	-0.19168442
38	0x3ec7208a	0.38892013
39	0x3e1d68c8	0.15372002
40	0x3e4f670e	0.20254156
41	0xbf0e829f	-0.5566806
42	0x3e8ed83e	0.27899355
43	0xbcc73ad3	-0.024320042
44	0x3ecafb69	0.39644936
45	0x3d25907a	0.040420987
46	0x3e1ccf90	0.15313554
47	0xb9ba8ef2	-0.00035583187
48	0x3e9cd4c4	0.30631077
49	0xbea88986	-0.32917422
50	0xbec02a18	-0.37532115
51	0x3e83a92e	0.2571501
52	0x3e6f3407	0.2335969
53	0x3ef250a5	0.47327152
54	0x3cba4469	0.022737699
55	0xbed45e55	-0.4147822
56	0x3e75c086	0.23999223
57	0xbc0d3dfb	-0.008620734
58	0xbd2e8b3e	-0.04261326
59	0x3ea129d5	0.31477228
60	0x3f1a183f	0.60193247
61	0x3e6db172	0.23212221
62	0xbdda19da	-0.10649462
63	0xbd31e691	-0.043432776
64	0x3ea45eab	0.32103476
65	0xbe9c886b	-0.3057283
66	0xbe5850f9	-0.21124639
67	0x3e3814f9	0.1797675
68	0x3e9f06bc	0.31059825
69	0x3f0b8213	0.5449535
70	0x3e3da6c2	0.18520644
71	0xbe88b6fd	-0.2670211
72	0xbebf601f	-0.37378022
73	0xbdcc58a8	-0.09977847
74	0x3c912eb0	0.017722458
75	0x3e7063f7	0.23475634
76	0xbea7286d	-0.3264803
77	0xbee2ad7f	-0.44272992
78	0x3e35f980	0.17770958
79	0x3ed75c11	0.4206243
80	0xbf0501a0	-0.51955605
81	0xbe6e3995	-0.23264153
82	0xbe43bf70	-0.19115996
83	0x3e336ec2	0.1752272
84	0x3ee9f3e0	0.45693874
85	0x3ef28a4a	0.4737113
86	0x3eb4df25	0.35326496
87	0xbdf4c907	-0.119524054
88	0xbd8663d2	-0.06562008
89	0xbea2d7a5	-0.3180515
90	0x3dbe845d	0.0930259
91	0x3ece18c8	0.40253282
92	0x3f1bc291	0.6084376
93	0xbeb9597f	-0.36201093
94	0x3e92bc52	0.28659302
95	0xbd02a25e	-0.031893127
96	0x3d3dd68d	0.04634719
97	0x3e521b78	0.20518291
98	0xbdb41835	-0.087936796
99	0x3dd7ba33	0.105335616
100	0x3e459f1e	0.1929898
101	0x3ef98201	0.48731998
102	0x3ee57293	0.44813976
103	0x3e83c82a	0.2573865
104	0xbe2c2dbe	-0.16814324
105	0x3f0f9e87	0.5610127
106	0xbe02540b	-0.12727372
107	0x3f199251	0.59988886
108	0x3ef73177	0.48279926
109	0x3eb0a1fa	0.34498578
110	0x3d81faff	0.06346702
111	0xbea48ff5	-0.3214108
112	0x3d9cbcc1	0.076531895
113	0xbe07268c	-0.13198298
114	0x3edbb24a	0.4290946
115	0x3e84ccbe	0.25937456
116	0xbe1cee02	-0.15325168
117	0x3e3e3c3f	0.1857767
118	0xbd43b525	-0.047780175
119	0xbe88e340	-0.26735878
120	0x3e9bb05b	0.30407986
121	0xbdee8fa0	-0.11648488
122	0xbe4b65e7	-0.19863091
123	0x3e3316cf	0.1748917
124	0x3d30f037	0.043197837
125	0x3ea9f9fc	0.33198535
126	0x3f43de68	0.7651124
127	0xbf37205d	-0.7153376
128	0x3d867349	0.06564958
129	0xbd6047ce	-0.05475598
130	0xbecc700c	-0.39929235
131	0x3d6a3a5e	0.05718457
132	0x3e4397e6	0.19100913
133	0xbe5cd309	-0.21564879
134	0x3df69878	0.120408
135	0xbec12363	-0.3772231
136	0x3e552b6a	0.20817342
137	0xbef52293	-0.4787794
138	0xbdcbfade	-0.099599585
139	0x3e8a2418	0.26980662
140	0xbdc5cec4	-0.09658578
141	0x3e9cf3ee	0.30654854
142	0x3de23be8	0.110465825
143	0xbea31947	-0.31855223
144	0xbe2a60d4	-0.166385
145	0x3db72f59	0.08944578
146	0x3e972d39	0.2952669
147	0xbddd9c9a	-0.10820885
148	0xbe835413	-0.2565008
149	0xbf0f1e93	-0.5590603
150	0xbd560e63	-0.052259814
151	0x3c77c801	0.015123368
152	0xbe9ad2a7	-0.3023884
153	0xbe917bb3	-0.28414688
154	0xbd19f5ff	-0.037588116
155	0xbe6e1fef	-0.23254369
156	0xbe2240fb	-0.158451
157	0x3e91534f	0.28383872
158	0xbe572213	-0.21009092
159	0xbdbe8215	-0.09302155
160	0xbeb2a407	-0.34890768
161	0x3dc84143	0.09778073
162	0xbecc0fdf	-0.3985586
163	0x3e8637d1	0.2621446
164	0xbe71ae0a	-0.23601547
165	0x3e09d19e	0.13458869
166	0xbd1f8911	-0.038949076
167	0xbed1188a	-0.40839034
168	0x3dada74a	0.084791735
169	0x3d26acb3	0.040692043
170	0x3d3cc87a	0.046089627
171	0x3ed62f48	0.41832948
172	0x3e639408	0.22224438
173	0x3eacc578	0.33744407
174	0x3ef508f9	0.47858408
175	0x3e5b96b1	0.21444203
176	0x3ed90526	0.4238674
177	0x3e9408df	0.28913018
178	0x3e06991a	0.13144341
179	0x3edad887	0.42743322
180	0x3c896231	0.016770454
181	0xbe0e22d2	-0.1388047
182	0xbd5ddea8	-0.05416742
183	0x3cb033ea	0.02150913
184	0xbef8830d	-0.48537484
185	0x3d96685f	0.07344126
186	0x3d8f5c6e	0.070000514
187	0xbe8220d5	-0.25415674
188	0xbf215b34	-0.6302979
189	0xbe644d0b	-0.22295015
190	0xbe3df593	-0.1855071
191	0x3e0c445e	0.13697955
192	0x3eb6223e	0.35573
193	0x3da2572a	0.079267815
194	0xbeac9f5a	-0.33715326
195	0xbec15fb9	-0.37768343
196	0x3f1b0140	0.6054878
197	0x3e6540ef	0.22388051
198	0x3efe1524	0.49625504
199	0xbdffbea2	-0.12487532
200	0xbe3e3694	-0.18575507
201	0x3e15e4d1	0.14638068
202	0x3d4b2f4d	0.049605656
203	0xbec1883c	-0.3779925
204	0x3c7c9b53	0.015417892
205	0xbdd824cd	-0.10553894
206	0xbdb780c3	-0.08960106
207	0x3ea58254	0.32325995
208	0x3edfd864	0.4371978
209	0x3daee1b3	0.085391425
210	0xbc69e731	-0.014276312
211	0x3f1161ef	0.5679006
212	0xbd20873f	-0.03919148
213	0x3f047606	0.5174259
214	0x3f003be7	0.50091404
215	0x3d4da3b5	0.05020495
216	0x3e3d2c5b	0.18473952
217	0xbe6b4ceb	-0.2297856
218	0xbf416735	-0.75548106
219	0x3f175dfe	0.59127796
220	0x3d392e63	0.045210253
221	0x3eadc406	0.33938617
222	0xbddc21d5	-0.107486404
223	0x3ed731f0	0.42030287
224	0x3e22825b	0.15870039
225	0xbd88bf49	-0.0667711
226	0xbe814cfa	-0.2525404
227	0x3f06be51	0.5263415
228	0x3ed8196c	0.42206895
229	0x3bc4fcc1	0.006011576
230	0x3f0014f1	0.50031954
231	0xbf0710f8	-0.5276027
232	0xbcaed814	-0.021343268
233	0xbd528cae	-0.051403694
234	0x3d6b864f	0.057501134
235	0x3eac95bc	0.33707988
236	0x3e04e4b3	0.12977867
237	0x3dd0f796	0.10203473
238	0xbe04e50a	-0.12977996
239	0xbe823e8c	-0.25438344
240	0x3dfe777a	0.12425132
241	0xbe14ae45	-0.14519604
242	0x3e38b941	0.18039419
243	0x3e467501	0.19380571
244	0x3ea70dbe	0.32627672
245	0x3f0286b8	0.50986814
246	0x3d927f27	0.07153159
247	0x3caf3714	0.021388568
248	0xbdf2b17b	-0.11850258
249	0xbed92a94	-0.42415297
250	0x3e78037f	0.24220084
251	0x3e8d2d99	0.2757385
252	0x3cbe974e	0.023265507
253	0x3e9a7358	0.30166125
254	0x3f1b51f7	0.60671943
255	0xbdcdce74	-0.100491434

encoder.lstm.bias_ih_l0 f4 [32]
0	0x3dfa43ea	0.12219985
1	0x3f67da11	0.9056712
2	0x3f2c3270	0.6726446
3	0x3f88da75	1.0691668
4	0x3ea9103e	0.33020204
5	0x3ef0945a	0.46988183
6	0x3f82545e	1.0181997
7	0x3e8be346	0.27321833
8	0x3e40f0ff	0.18841933
9	0x3b73ada7	0.0037182362
10	0x3e415b91	0.18882586
11	0x3d145b85	0.036220092
12	0x3dbdc3e4	0.09265879
13	0x3eef69ba	0.4676035
14	0x3d8454bf	0.064614765
15	0x3e884e87	0.26622412
16	0x3e7b94b3	0.24568443
17	0x3f5a2524	0.8521292
18	0xbf2d2df2	-0.6764823
19	0x3dd3dc46	0.10344748
20	0x3f0b12ac	0.54325366
21	0x3e570729	0.20998825
22	0x3db12c3a	0.08651014
23	0xbeae1968	-0.34003758
24	0x3f29e767	0.66368717
25	0x3f82adc1	1.0209275
26	0x3ed97a91	0.42476323
27	0x3edeaa99	0.4348953
28	0x3f1c3451	0.6101733
29	0x3e367a91	0.17820193
30	0x3ee00ab2	0.4375816
31	0x3f25c4ac	0.6475322

encoder.lstm.bias_hh_l0 f4 [32]
0	0x3e814103	0.25244913
1	0x3f1d1aec	0.61369205
2	0x3f3ba601	0.73300177
3	0x3f88fc4f	1.0701998
4	0x3f53c192	0.8271724
5	0x3cb3472e	0.021884527
6	0x3f667907	0.90028423
7	0x3ea04ff3	0.31310996
8	0x3e74192e	0.2383773
9	0x3e418e03	0.1890183
10	0x3e00edda	0.12590733
11	0x3e89de51	0.26927426
12	0xbc751374	-0.014958251
13	0x3ee81962	0.45331866
14	0x3c27cdc7	0.010241932
15	0xbe06fb14	-0.13181716
16	0x3ed4eb3b	0.41585717
17	0x3edadb1b	0.4274529
18	0xbe9176a9	-0.28410843
19	0x3eba5dd7	0.3639972
20	0x3e8f71ba	0.28016454
21	0x3e9e43fd	0.30911246
22	0x3ef9d786	0.48797244
23	0xbf3a2f53	-0.7272846
24	0x3f08c272	0.534217
25	0x3f6e6f3f	0.931385
26	0x3e90bbff	0.2826843
27	0x3f278ab1	0.65446
28	0x3f291b78	0.6605754
29	0x3eee4a5d	0.4654111
30	0x3eb57265	0.3543884
31	0x3f0ee9f1	0.55825716

encoder.lstm.weight_ih_l1 f4 [32, 8]
0	0x3e4d0acd	0.20023651
1	0x3f02912f	0.5100278
2	0xbe91a517	-0.28446266
3	0x3f6a542a	0.91534674
4	0x3f04502b	0.51684827
5	0x3ecff50c	0.40616643
6	0x3f3e61fd	0.7436827
7	0xbef76aff	-0.4832382
8	0x3f486aec	0.7828815
9	0x3f21a10b	0.6313636
10	0xbf5647c0	-0.8370323
11	0x3f7eb42d	0.99493676
12	0x3f2ca162	0.6743375
13	0x3e3812ea	0.17975965
14	0x3f2fefbe	0.6872519
15	0xbe857956	-0.26069134
16	0xbd47b5f1	-0.048757497
17	0x3d926599	0.071482845
18	0xbf19129c	-0.5979402
19	0x3e753950	0.23947644
20	0x3efd4ae4	0.494712
21	0x3eaf2a6f	0.34212062
22	0x3f107d83	0.56441516
23	0xbf17534f	-0.59111494
24	0x3e5d615f	0.21619175
25	0x3f1d9915	0.6156171
26	0xbefa200c	-0.48852575
27	0x3f36b20e	0.7136544
28	0x3d8036de	0.06260465
29	0x3eed2171	0.46314576
30	0x3d9aebf3	0.07564535
31	0xbebcab47	-0.36849424
32	0xbe5af0fa	-0.21380988
33	0x3fbd7732	1.4802
34	0xbd3762da	-0.044772007
35	0x3e9b17bf	0.30291554
36	0x3ecb7f9f	0.39745805
37	0xbcf811c9	-0.030281918
38	0xbc180188	-0.009277709
39	0xbe20ea42	-0.15714362
40	0x3f0765b0	0.5288954
41	0xbe7174a1	-0.23579647
42	0xbf0791c3	-0.5295679
43	0x3f0c9e01	0.54928595
44	0x3dcc0527	0.0996192
45	0x3ea53788	0.3226893
46	0x3ea8b31c	0.3294915
47	0xbe70af60	-0.235044
48	0x3db41596	0.0879318
49	0x3f632ca6	0.88740003
50	0xbe69667c	-0.22793001
51	0x3f3dda26	0.74160993
52	0x3e0837a7	0.1330248
53	0x3e97a847	0.29620573
54	0xbd8a92b9	-0.067662664
55	0x3d88be99	0.066769786
56	0x3d837a49	0.064198084
57	0x3f704196	0.93850076
58	0xbe677132	-0.22601774
59	0x3f4841b5	0.7822526
60	0x3f13ac9e	0.5768527
61	0xbd2b4a6e	-0.04181903
62	0x3d084624	0.033270016
63	0xbed2f6b3	-0.41203842
64	0xbdf209ee	-0.118183
65	0x3e8a1faa	0.26977283
66	0xbd221174	-0.039567426
67	0x3eff34d2	0.49844986
68	0x3e29fbe8	0.16600001
69	0xbdfb862b	-0.1228145
70	0x3e6b7560	0.22993994
71	0x3e7cfdc1	0.24706174
72	0x3e26c199	0.16284789
73	0x3e6689c0	0.22513485
74	0x3d9fac0f	0.077964894
75	0x3c670837	0.01410108
76	0x3eced6dc	0.403983
77	0x3efda3f0	0.49539137
78	0x3e72488a	0.23660484
79	0xbede4d99	-0.43418577
80	0x3ec16913	0.37775478
81	0xbe686d51	-0.22697951
82	0xbe16d501	-0.14729692
83	0xbe808f29	-0.25109223
84	0xbd562c95	-0.05228861
85	0xbd973ffa	-0.073852494
86	0x3d50c509	0.050969157
87	0xbd0c335b	-0.034228664
88	0x3e173ab9	0.14768495
89	0x3e288f22	0.16460851
90	0xbe03eaea	-0.12882581
91	0x3edb2b28	0.42806363
92	0x3e9784af	0.29593417
93	0xbe0c9096	-0.1372703
94	0x3d501375	0.050799806
95	0xbe0f782f	-0.1401069
96	0x3dfdaf26	0.123869225
97	0xbcb7d96a	-0.022442538
98	0xbe0a8a25	-0.1352926
99	0xbd87f635	-0.06638757
100	0x3e42cee2	0.19024232
101	0xbe401fe6	-0.18762168
102	0xbe808019	-0.2509773
103	0x3e00e773	0.12588291
104	0x3eb756dd	0.3580846
105	0x3e91cd39	0.28476885
106	0x3e023040	0.12713718
107	0xbe4e044d	-0.20118828
108	0x3eeff29a	0.46864778
109	0x3eb2866e	0.34868187
110	0x3ee1191c	0.4396447
111	0x3d6c2c5d	0.057659496
112	0x3eed35b0	0.46330023
113	0x3e5628b7	0.20913969
114	0xbdd543c8	-0.10413319
115	0x3e298fa3	0.165587
116	0x3ea8db3b	0.3297976
117	0xbdd7b795	-0.10533062
118	0x3ccc2d2d	0.024923885
119	0x3d9e1d3f	0.07720422
120	0xbe948e3a	-0.2901476
121	0x3e4ab426	0.19795284
122	0xbccc5aaa	-0.024945576
123	0x3d9654c9	0.0734039
124	0x3ebcf1e4	0.36903298
125	0x3ea565e8	0.3230431
126	0x3e932eaa	0.2874654
127	0x3e913f24	0.28368485
128	0x3e768fdb	0.24078314
129	0x3e89fbee	0.2695002
130	0xbe7e9357	-0.24860893
131	0x3f037076	0.51343477
132	0x3d4154fd	0.04720019
133	0x3e251c56	0.1612409
134	0x3ee1f34e	0.4413094
135	0xbec120f4	-0.37720454
136	0xbe8deae2	-0.27718264
137	0xbea5949e	-0.32339948
138	0x3f28f875	0.66004115
139	0xbef05dc3	-0.46946535
140	0xbebd9e6e	-0.37034935
141	0xbf1c7b67	-0.611258
142	0xbf2fe15d	-0.6870325
143	0x3e8c3ae4	0.2738868
144	0x3f020d11	0.5080119
145	0x3dfc4364	0.12317541
146	0xbedbeaef	-0.42952678
147	0x3e801b56	0.25020856
148	0x3eab3cd2	0.3344484
149	0x3eb6b270	0.35683012
150	0x3ed9734c	0.42470777
151	0xbecbd173	-0.39808235
152	0x3e36fc84	0.17869765
153	0x3e794f72	0.24346712
154	0xbf05b2aa	-0.52225745
155	0x3ed07cfa	0.4072035
156	0x3e8b424b	0.27199015
157	0x3e800e72	0.2501102
158	0x3f00551f	0.50129884
159	0xbe02b834	-0.1276558
160	0x3ebc2eed	0.36754552
161	0x3f08d49a	0.53449404
162	0xbf00f617	-0.50375503
163	0x3f01c7e3	0.5069563
164	0x3ead09c5	0.33796516
165	0xbe0638a5	-0.13107546
166	0x3e6a2a8e	0.22867796
167	0x3e21fc0c	0.15818805
168	0xbe691cf3	-0.2276495
169	0xbe8b5554	-0.27213538
170	0x3c32095e	0.010866491
171	0xbef62f4f	-0.4808297
172	0xbf011c43	-0.5043375
173	0xbf036b89	-0.5133596
174	0xbec5ac16	-0.38607854
175	0x3e887783	0.2665368
176	0xbdb3793e	-0.087633595
177	0xbe555ab4	-0.20835382
178	0xbdcee751	-0.10102714
179	0xbeedc946	-0.46442622
180	0xbebfc095	-0.37451616
181	0x3d8a7a30	0.06761587
182	0xbe8ad08e	-0.2711224
183	0x3e8daf6e	0.27672905
184	0xbd0313ad	-0.032001186
185	0xbef58ff9	-0.47961405
186	0x3e6c0bde	0.23051402
187	0xbecf9458	-0.40542865
188	0xbe9d1088	-0.30676675
189	0xbea18a13	-0.31550655
190	0xbf02ea2a	-0.51138556
191	0xbcdee4e7	-0.027208759
192	0x3f00e0aa	0.5034281
193	0x3f287b20	0.65812874
194	0xbf3a69ce	-0.72817695
195	0x3f138aae	0.57633483
196	0x3ea3bba6	0.31979102
197	0x3ed5736b	0.4168962
198	0x3f0a4e76	0.5402597
199	0xbf25d6e8	-0.64781046
200	0x3f28bf8c	0.6591728
201	0x3f4ff273	0.81229323
202	0xbf1045ec	-0.5635669
203	0x3f1fd87f	0.6243972
204	0x3e7c5068	0.24640048
205	0x3ef641b6	0.48097008
206	0x3f1bb738	0.60826445
207	0xbf15a631	-0.5845671
208	0x3f110246	0.56644094
209	0x3d6fb5dd	0.058523048
210	0xbd368026	-0.044555806
211	0x3e5659e1	0.20932724
212	0x3f2a2050	0.66455555
213	0x3e6b0232	0.22950056
214	0x3f1dd80e	0.616578
215	0xbe5d5c41	-0.21617223
216	0x3f0177b1	0.5057326
217	0x3ebfbd04	0.37448895
218	0xbe89c2bb	-0.2690638
219	0x3eb89608	0.36051965
220	0x3f0eaad7	0.5572943
221	0x3effbaf2	0.49947315
222	0x3e4f345a	0.20234814
223	0x3c892415	0.016740838
224	0xbddf7cd2	-0.109124795
225	0x3fcd4112	1.6035483
226	0x3c6b7e43	0.014373365
227	0x3ed1a9d1	0.40949872
228	0xbd38733c	-0.04503177
229	0x3e9a2c02	0.301117
230	0x3edc9edf	0.4308996
231	0xbe4158e9	-0.18881573
232	0x3e634614	0.22194701
233	0x3e48bca1	0.19603206
234	0x3d4aaa41	0.049478773
235	0x3e1b4e12	0.151665
236	0x3e19e524	0.15028816
237	0x3ed108d1	0.4082704
238	0x3ebe14e5	0.37125316
239	0xbe4ac157	-0.19800316
240	0x3eda6c85	0.4266092
241	0x3f4f2717	0.8091902
242	0xbd76bebe	-0.0602405
243	0x3e0e7448	0.13911545
244	0x3e16d036	0.14727864
245	0x3f174559	0.5909019
246	0x3ee3ed69	0.44517067
247	0xbeccc887	-0.3999674
248	0x3ee184f9	0.44046763
249	0x3f9d657c	1.2296596
250	0xbe081688	-0.13289845
251	0x3f642a24	0.891268
252	0x3e9b9944	0.3039037
253	0xbd16f35e	-0.036853187
254	0x3f064086	0.52442205
255	0xbd60dfda	-0.05490098

encoder.lstm.weight_hh_l1 f4 [32, 8]
0	0x3de5dcef	0.1122378
1	0xbd57d310	-0.05269152
2	0x3bfe14a6	0.0077539263
3	0xbdf947c4	-0.12171891
4	0x3e9d9d55	0.30784097
5	0xbebdc100	-0.3706131
6	0xbec8bb54	-0.3920542
7	0x3dea82e4	0.11450747
8	0x3e84db3f	0.25948521
9	0xbefcf806	-0.49407977
10	0x3db74674	0.08948985
11	0xbe9b4401	-0.3032532
12	0xbcd5e4ca	-0.026110072
13	0xbec726cc	-0.38896787
14	0x3e96bf6f	0.29442927
15	0x3e50af4e	0.20379373
16	0x3e88df91	0.26733068
17	0xbe1a3840	-0.1506052
18	0x3db4a865	0.08821181
19	0xbea95afd	-0.3307723
20	0xbe3b65bf	-0.18300532
21	0x3bfe07a4	0.0077523757
22	0xbe935a3b	-0.28779778
23	0x3e954469	0.29153755
24	0xbcd3dfda	-0.025863577
25	0xbe90814f	-0.28223655
26	0x3d977458	0.07395238
27	0xbe35f68e	-0.17769834
28	0x3ea79ea1	0.32738212
29	0x3cc32900	0.023823261
30	0xbebf8a9a	-0.37410432
31	0xbcd12b5e	-0.025533374
32	0xbf1fabf2	-0.6237174
33	0xbc388510	-0.011262193
34	0xbef27ecc	-0.47362363
35	0xbe3bb8db	-0.18332236
36	0x3de21508	0.11039168
37	0x3e7e7525	0.24849375
38	0x3e8c2e45	0.2737905
39	0xbde52597	-0.1118881
40	0x3ebcba9a	0.36861116
41	0x3e459a89	0.19297232
42	0xbe37a05a	-0.17932263
43	0x3e19b938	0.15012062
44	0xbe43f50a	-0.19136444
45	0xbda09580	-0.07841015
46	0xbe26331a	-0.16230431
47	0xbda13e55	-0.07873217
48	0x3d5e17ec	0.054222032
49	0xbc9fba35	-0.01949797
50	0xbd1574fa	-0.03648851
51	0x3ec84ae0	0.39119625
52	0x3e8b7aae	0.27242035
53	0x3e5ef5d0	0.21773458
54	0xbeb8d858	-0.36102557
55	0x3c4b27b5	0.012399604
56	0x3e794aec	0.24344987
57	0xbe6a87cd	-0.22903366
58	0x3dc7fb44	0.09764722
59	0x3e577ea9	0.21044411
60	0xbe48bd79	-0.19603528
61	0x3e923294	0.28554213
62	0xbe7f2ee7	-0.24920236
63	0xbe9b0d42	-0.30283552
64	0x3e99aa43	0.30012712
65	0x3d6761ed	0.056489874
66	0x3e838c9a	0.25693208
67	0x3e417d8c	0.18895549
68	0x3e830d2e	0.25595993
69	0x3e18eec2	0.14934829
70	0xbd549ad3	-0.051905464
71	0x3d3d4f35	0.046218116
72	0x3e39fe2f	0.1816337
73	0xbe6834eb	-0.22676437
74	0x3bd77719	0.006575477
75	0xbd8ee2b3	-0.06976833
76	0x3d687159	0.05674872
77	0xbe912f1a	-0.28356248
78	0x3e5d9a3b	0.21640866
79	0x3d5e9ad3	0.05434687
80	0x3e840aa9	0.25789383
81	0xbefb3f25	-0.49071613
82	0x3eb3edeb	0.35142455
83	0x3e85d535	0.26139227
84	0xbee4fc4b	-0.44723734
85	0xbeaacfea	-0.3336175
86	0xbe537c8f	-0.20652984
87	0xbd6feb1a	-0.05857382
88	0x3d21f4c0	0.039540052
89	0x3dbe788f	0.093003385
90	0x3c123576	0.008923879
91	0x3c97f3dc	0.018548898
92	0xbe6cf6ad	-0.23140974
93	0x3d437282	0.047716625
94	0xbe0c44a1	-0.13698055
95	0x3d9ae075	0.07562343
96	0xbf0533b7	-0.52032036
97	0xbe83a4d7	-0.257117
98	0xbd8e89bf	-0.06959867
99	0xbea700bb	-0.32617745
100	0x3e587b3f	0.21140765
101	0xbe2f1217	-0.17096744
102	0x3ec848ee	0.3911814
103	0x3e9a2aa0	0.30110645
104	0x3dc7973f	0.09745645
105	0xbe4930c1	-0.19647504
106	0x3e9ec8cc	0.3101257
107	0xbeb2bfd9	-0.34911993
108	0xbeb5ab02	-0.3548203
109	0xbe9b36ca	-0.30315238
110	0x3eea2f6e	0.4573931
111	0x3cf5e476	0.030016165
112	0x3e2aff8c	0.16699046
113	0x3e58868f	0.2114508
114	0x3e652290	0.22376466
115	0x3d2f49ce	0.042794995
116	0xbe053414	-0.13008147
117	0xbdf62b91	-0.120200284
118	0xbeaaf080	-0.33386612
119	0xbd896625	-0.06708936
120	0x3ec353b6	0.38149804
121	0x3d57e8ac	0.052712128
122	0x3ea6fb01	0.32613376
123	0x3eb1f5db	0.34757885
124	0x3d40c30f	0.047061022
125	0xbea5d430	-0.3238845
126	0xbf01d444	-0.50714517
127	0xbd991315	-0.07474343
128	0xbddbdb65	-0.107352056
129	0x3e39b161	0.18134071
130	0x3ca4cfb4	0.020118572
131	0x3e8252ee	0.25453895
132	0xbc6fb0b8	-0.014629535
133	0xbe26c4f0	-0.16286063
134	0xbeb90b65	-0.36141506
135	0xbdeb4da4	-0.11489418
136	0xbe6213dc	-0.22077888
137	0xbcf741cc	-0.030182742
138	0xbe891feb	-0.26782164
139	0x3eb5c9cc	0.3550552
140	0xbe314f38	-0.17315376
141	0x3ee2a005	0.4426271
142	0xbe8d6ece	-0.276236
143	0xbe816aca	-0.25276786
144	0xbd9fcd26	-0.07802801
145	0xbeb1c570	-0.34720945
146	0x3e3e810b	0.18603913
147	0x3e001956	0.12509665
148	0x3c8d0690	0.017215043
149	0xbe6f354a	-0.23360172
150	0xbd78d774	-0.060752347
151	0xbdd58864	-0.10426405
152	0x3b916d2b	0.0044380627
153	0x3b8a0c5b	0.0042128987
154	0x3f02d5c7	0.5110745
155	0x3e93072b	0.28716406
156	0xbea4aea8	-0.32164502
157	0x3ded97a1	0.116011865
158	0xbebf633a	-0.3738039
159	0x3efae8fd	0.4900588
160	0xbf01bf5d	-0.5068262
161	0x3e4a434f	0.19752239
162	0x3e331589	0.17488684
163	0x3ea12dbe	0.3148021
164	0xbea0dfd6	-0.31420773
165	0x3d34d907	0.044152286
166	0x3ce9a016	0.028518718
167	0x3d60dbd8	0.05489716
168	0xbc5d4f09	-0.013507613
169	0xbe5bba1d	-0.21457715
170	0x3d6d94b0	0.058003128
171	0x3c9cba92	0.019131932
172	0x3dd36387	0.10321718
173	0x3d5a2942	0.053262003
174	0x3d952672	0.072827235
175	0x3e5bcf11	0.21465708
176	0xbdef2f04	-0.116788894
177	0x3e156b72	0.14591768
178	0xbf0a97e0	-0.5413799
179	0xbee0bd05	-0.4389421
180	0xbe5fb390	-0.21845841
181	0xbc95146d	-0.018198216
182	0x3ea29497	0.3175399
183	0xbe1c471a	-0.15261498
184	0xbe0650d6	-0.13116774
185	0xbdb64e9b	-0.089017116
186	0x3dafd681	0.08585835
187	0xbd9a59c8	-0.07536656
188	0xbceb1f46	-0.028701436
189	0xbe111e35	-0.1417168
190	0x3f160677	0.58603615
191	0xbd590aca	-0.052988805
192	0x3e801a88	0.25020242
193	0xbec89473	-0.39175758
194	0xbae0070c	-0.0017091944
195	0x3da6353e	0.08115624
196	0x3ea0c8e4	0.31403267
197	0x3ddb5433	0.10709419
198	0xbeff5e17	-0.49876472
199	0xbeffe7a5	-0.49981418
200	0x3deb4ee7	0.11489659
201	0xbeeb95a5	-0.46012607
202	0x3ecd3011	0.40075734
203	0xbdfdce7c	-0.123928994
204	0xbe210da2	-0.15727857
205	0xbe0f7619	-0.14009894
206	0x3e2cc2b9	0.16871156
207	0x3d69ff70	0.05712837
208	0x3dbf0a58	0.09328145
209	0xbe29ddb1	-0.16588475
210	0xbd3023a5	-0.043002743
211	0x3ea3ec3b	0.32016167
212	0x3df76ed0	0.12081683
213	0xbedff962	-0.4374495
214	0xbe2ead77	-0.17058359
215	0x3edfbba3	0.43697843
216	0x3e0b3f83	0.13598447
217	0xbf091a3c	-0.53555655
218	0xbdf919ad	-0.121631004
219	0x3ba09f2d	0.0049017877
220	0x3e696af9	0.22794713
221	0xbe8bc460	-0.2729826
222	0xbe9cc3c3	-0.30618104
223	0xbe26e51a	-0.16298333
224	0xbecc425a	-0.39894372
225	0xbdb64537	-0.088999204
226	0xbf0e4514	-0.55574155
227	0x3d3bc225	0.045839448
228	0x3dff9a69	0.12480623
229	0xbe8eeabb	-0.2791346
230	0xbd1c5152	-0.03816349
231	0x3eb9c272	0.36281163
232	0x3ec9b1a7	0.3939335
233	0xbe4394e9	-0.19099773
234	0x3d6bc1ce	0.057557873
235	0xbe95c3fd	-0.2925109
236	0xbc613100	-0.013744593
237	0xbd8f33f7	-0.069923334
238	0x3e262d03	0.16228108
239	0x3e25e029	0.16198792
240	0x3ec494dd	0.38394824
241	0xbe1850af	-0.14874528
242	0x3e62a520	0.22133303
243	0x3ea803d0	0.3281541
244	0x3d15e70d	0.0365973
245	0x3dbcc6e2	0.092176214
246	0xbea1da4f	-0.3161187
247	0xbea74cd4	-0.32675803
248	0x3ede3e4f	0.43406913
249	0xbeab5bcf	-0.33468482
250	0xbe9440dd	-0.28955737
251	0x3ed68d47	0.4190466
252	0x3eaa2395	0.33230272
253	0x3e333371	0.17500092
254	0xbe415dae	-0.18883392
255	0xbee541ea	-0.4477685

encoder.lstm.bias_ih_l1 f4 [32]
0	0x3c347631	0.011014507
1	0x3ef608dd	0.48053637
2	0x3ee10249	0.43947056
3	0x3e20272c	0.15639943
4	0x3e186083	0.14880566
5	0x3e87e821	0.26544288
6	0x3e8f9968	0.28046727
7	0x3d0f025e	0.034914367
8	0x3e925bcf	0.2858567
9	0x3cddcfa0	0.027076542
10	0xbe67a72a	-0.22622362
11	0xbc6bd451	-0.014393882
12	0x3dfa4e40	0.12221956
13	0xbe4fc43d	-0.20289703
14	0x3d880dd8	0.066432655
15	0xbc9771d0	-0.018486887
16	0x3e9d1857	0.30682632
17	0xbe83aced	-0.2571787
18	0x3e227619	0.15865363
19	0xbccddce3	-0.025129741
20	0x3e670df5	0.22563918
21	0xbee8ddeb	-0.4548181
22	0x3d9e895b	0.07741042
23	0xbd51f291	-0.05125672
24	0x3e0163f6	0.12635788
25	0x3ec2f261	0.38075545
26	0x3ea03aa0	0.31294727
27	0x3ec15e66	0.37767333
28	0x3ec7094b	0.38874277
29	0xbda18a1f	-0.07887673
30	0x3f0c1827	0.54724354
31	0xbdb2ca6b	-0.087300144

encoder.lstm.bias_hh_l1 f4 [32]
0	0xbd3ed09a	-0.046585657
1	0x3f69b5b6	0.91292894
2	0x3e2ec989	0.17069067
3	0x3e66b1d9	0.22528781
4	0x3eed6371	0.4636493
5	0x3e46606c	0.1937272
6	0x3e1c633c	0.1527223
7	0x3eacd241	0.3375416
8	0x3e0c55c8	0.13704598
9	0x3de2c491	0.11072648
10	0xbc9ec322	-0.019380156
11	0x3e30109d	0.17193837
12	0xbe3b00a9	-0.1826197
13	0xbdad2782	-0.08454801
14	0x3ed438c0	0.41449547
15	0xbea156af	-0.31511447
16	0x3e854769	0.26031044
17	0xbf1c12a4	-0.60965943
18	0xbdcb559b	-0.09928437
19	0x3e237842	0.15963843
20	0xbc9f7fcf	-0.019470124
21	0xbecfd7d7	-0.4059436
22	0xbee5bf73	-0.44872627
23	0xbe928461	-0.28616622
24	0x3e3c129e	0.18366477
25	0x3eb2f049	0.34948948
26	0x3e566720	0.20937777
27	0x3e3bffd9	0.18359317
28	0x3ee49af6	0.44649476
29	0x3f10398b	0.56337804
30	0x3ec03824	0.37542832
31	0x3f0abfeb	0.54199094

decoder.lstm.weight_ih_l0 f4 [4, 8]
0	0x3f38a157	0.72121185
1	0xbf774bd8	-0.96600103
2	0x3d918b6d	0.071066715
3	0x3ececd57	0.40391037
4	0x3f37159a	0.71517336
5	0x3dc793ab	0.09744962
6	0xbf70ada3	-0.9401495
7	0xbf9bffce	-1.218744
8	0xbbf2004b	-0.007385289
9	0x3e2730b5	0.16327174
10	0xbdae90aa	-0.08523686
11	0x3f36ab1e	0.71354854
12	0xbf38d687	-0.7220234
13	0xbe844c7c	-0.25839603
14	0xbf898933	-1.0744995
15	0xbf53c1d8	-0.8271766
16	0xbed1beee	-0.4096598
17	0x3f52289f	0.8209323
18	0xbf7f9d2b	-0.99849194
19	0xbeaf804b	-0.34277567
20	0x3d7d916c	0.061906263
21	0x3fbc1992	1.4695303
22	0x3eb4331f	0.35195252
23	0x3e11be7f	0.14232825
24	0x3fccce14	1.600039
25	0x3eabe995	0.33576646
26	0x3f6d949b	0.9280488
27	0x3f3b83bc	0.73247886
28	0x3dfae912	0.12251486
29	0xbdc5633c	-0.09638068
30	0xbf059073	-0.52173537
31	0xbf0d5eb4	-0.5522263

decoder.lstm.weight_hh_l0 f4 [4, 1]
0	0xbe9db9ea	-0.30805904
1	0x3f2b8e46	0.6701397
2	0x3f6493a0	0.8928776
3	0x3e76f678	0.24117458

decoder.lstm.bias_ih_l0 f4 [4]
0	0xbf491ddd	-0.7856119
1	0xbf22827c	-0.63480353
2	0x3f038ffb	0.5139157
3	0x3f8714a2	1.0553172

decoder.lstm.bias_hh_l0 f4 [4]
0	0x3d68086e	0.056648664
1	0x3eb23be3	0.34811315
2	0xbe31f997	-0.17380367
3	0x3f64b08c	0.8933189

decoder.lstm.weight_ih_l1 f4 [4, 1]
0	0xbf5a5e0a	-0.8529974
1	0xbf24d859	-0.6439262
2	0xbf46f2a3	-0.77713984
3	0xc00581ac	-2.0860395

decoder.lstm.weight_hh_l1 f4 [4, 1]
0	0x3f8550c6	1.0415275
1	0xbe9b8b02	-0.30379492
2	0xbefae11a	-0.48999864
3	0x3ffca5ed	1.9738137

decoder.lstm.bias_ih_l1 f4 [4]
0	0x3e54069d	0.20705648
1	0x3f06b370	0.5261755
2	0x3c0d3565	0.008618687
3	0x3f8a5eb6	1.0810153

decoder.lstm.bias_hh_l1 f4 [4]
0	0x3fb4fe2b	1.4140066
1	0x3fb5ad9b	1.4193605
2	0x3f8a8fb6	1.0825107
3	0x40051970	2.0796776
