detector_dev/Process_I24_simulations/models/cnn_lstm_ae_i24_inflow_600_detection_model.pt (torch, 129255 bytes, 12 tensors)

encoder.cnn.weight f4 [8, 4, 16]
0.028112529 0.027964663 0.027772805 0.027581975 0.027398743 0.027261354 0.027279856 0.0274321
0.02758483 0.027728384 0.027904265 0.027972415 0.027993383 0.028000472 0.02809664 0.028263003
-3.7729693e-05 -8.508614e-05 5.9125097e-05 0.0004436967 0.00084564224 0.0010151344 0.00124096 0.001702699
0.001663227 0.0009622244 0.0003806506 0.00015117988 7.139244e-05 7.081393e-05 -3.5174603e-06 -6.560477e-05
0.019955259 0.008506844 0.023503385 0.026213562 0.02430291 0.02359951 0.018903648 0.01860761
0.018400958 0.019320263 0.021747151 0.023242269 0.02463945 0.026457552 0.023867255 0.016684683
0.004875941 0.005034721 0.0050951103 0.0050729006 0.004990856 0.004596625 0.004123406 0.0033763284
0.0025089867 0.0017180266 0.0012966349 0.0011141225 0.0012207392 0.0014415456 0.0016977754 0.0017646973
-0.05253939 -0.052571658 -0.052793015 -0.053118076 -0.05336155 -0.053808697 -0.05418971 -0.05440029
-0.054390147 -0.05438774 -0.0543044 -0.054423977 -0.05454219 -0.054917946 -0.05529482 -0.05559656
0.003070458 0.0014524673 -0.000999048 -0.004552175 -0.008093876 -0.008910029 -0.007297339 -0.0058228555
-0.006182 -0.0060765613 -0.005897149 -0.006085215 -0.0061390423 -0.005856969 -0.005251775 -0.0046643335
-0.23974368 -0.16814452 -0.16993742 -0.1708083 -0.1532334 -0.12625907 -0.12783687 -0.14219177
-0.14004023 -0.12960678 -0.12218512 -0.11338113 -0.10208039 -0.10012689 -0.1288118 -0.12957114
-0.010966854 -0.010974393 -0.011153233 -0.012052618 -0.0111099165 -0.0100230435 -0.009690356 -0.00919695
-0.008725249 -0.007939384 -0.0074940207 -0.0070610475 -0.0072032874 -0.007143088 -0.0071227215 -0.0068515926
0.02030054 0.08097804 0.00055753515 0.07723711 0.016889839 0.08487845 0.04611431 -0.04373999
0.072139025 0.008229257 0.06459556 0.114692576 -0.043325625 -0.009799195 0.10814995 0.03068506
-0.1972298 -0.22219424 -0.16834632 -0.086519465 -0.0024459136 -0.05874258 -0.020784928 0.030891024
0.04785253 0.089933716 0.16882314 0.11027609 0.1631502 0.19242138 0.18929632 0.18395193
0.13558082 0.079119235 -0.025260894 -0.009487697 -0.057332516 0.07340012 -0.024889601 0.13486838
0.19024563 0.06930855 0.0841704 0.12856083 0.1024975 0.21247382 0.10033915 0.04207944
-0.17561363 -0.15739739 -0.18476662 -0.19164029 -0.18599917 -0.16743512 -0.13678394 -0.104128495
-0.08733004 -0.1400617 -0.10683852 -0.10101363 -0.1342117 -0.17040329 -0.22037368 -0.21288028
-0.111992754 -0.11776225 -0.23513506 -0.2038764 -0.09006366 -0.23798965 -0.238348 -0.13032414
-0.12087201 -0.24994737 -0.06938671 -0.24110383 -0.08102169 -0.17717993 -0.14319089 -0.25638118
0.14400212 0.15067014 -0.037017535 -0.04938695 -0.03362121 0.14999646 0.1967706 0.21488126
0.071794495 -0.059488144 -0.12702996 -0.12968884 -0.11838962 0.005071507 -0.049866583 -0.05171108
-0.25602737 -0.2641011 -0.39694166 -0.28429073 -0.38122827 -0.33814812 -0.23618679 -0.2439518
-0.24074295 -0.26390898 -0.37099338 -0.21813117 -0.28836304 -0.1324142 -0.27258307 -0.16489695
0.04986764 0.018601974 0.007276834 0.088869564 -0.0515721 0.11767014 0.14917207 0.016274495
-0.0256826 0.07055259 0.025918497 0.0653161 0.11510273 -0.028583102 -0.117462486 0.021425173
00000000: 3f4c e63c 2616 e53c cb83 e33c 98f3 e13c
00000010: 5473 e03c 3453 df3c 017a df3c 49b9 e03c
00000020: 95f9 e13c a326 e33c 7c97 e43c 6826 e53c
00000030: 6152 e53c 3f61 e53c ed2a e63c d087 e73c
00000040: f33f 1eb8 4670 b2b8 17fd 7738 f79f e839
00000050: 17ae 5d3a 420e 853a b5a7 a23a 192d df3a
00000060: a300 da3a c93d 7c3a 0f92 c739 0a86 1e39
00000070: 86b8 9538 f081 9438 820d 6cb6 4b95 89b8
00000080: 3679 a33c 4a60 0b3c 2c8a c03c d3bd d63c
00000090: e516 c73c c253 c13c d3db 9a3c fd6e 983c
000000a0: 9bbd 963c 8745 9e3c 1527 b23c 9266 be3c
000000b0: acd8 c93c 82bd d83c 4385 c33c 51ae 883c
000000c0: 5cc6 9f3b 4dfa a43b e2f4 a63b 933a a63b
000000d0: 568a a33b 499f 963b a31d 873b 6445 5d3b
000000e0: d06d 243b 682f e13a d9f3 a93a bf07 923a
000000f0: 3601 a03a 3ef2 bc3a e487 de3a 6a4d e73a
00000100: 8b33 57bd 6155 57bd 7d3d 58bd 5792 59bd
00000110: a491 5abd 8266 5cbd 08f6 5dbd d7d2 5ebd
00000120: 34c8 5ebd aec5 5ebd 4a6e 5ebd adeb 5ebd
00000130: a267 5fbd a4f1 60bd d27c 62bd 38b9 63bd
00000140: bd39 493b b760 be3a 7df2 82ba 692a 95bb
00000150: 2d9c 04bc 5ffb 11bc 841e efbb a7cd bebb
00000160: 6092 cabb e41d c7bb df3c c1bb 7c66 c7bb
00000170: 052a c9bb d1eb bfbb 1517 acbb 44d7 98bb
00000180: 5e7f 75be 142e 2cbe 1304 2ebe 5fe8 2ebe
00000190: 37e9 1cbe 0f4a 01be abe7 02be b89a 11be
000001a0: b566 0fbe a4b7 04be 313c fabd 5e34 e8bd
000001b0: 860f d1bd 540f cdbd 3ee7 03be 4cae 04be
000001c0: 52ae 33bc f1cd 33bc 0dbc 36bc 5878 45bc
000001d0: 5e06 36bc b137 24bc 4dc4 1ebc ceae 16bc
000001e0: 59f4 0ebc 3114 02bc 6790 f5bb 5c60 e7bb
000001f0: 8e09 ecbb 9110 eabb b865 e9bb 5383 e0bb
00000200: 514d a63c d1d7 a53d 8d27 123a 7d2e 9e3d
00000210: 8f5c 8a3c c1d4 ad3d 5ce2 3c3d b428 33bd
00000220: a0bd 933d 01d4 063c ad4a 843d f1e3 ea3d
00000230: 3676 31bd ce8c 20bc b97d dd3d 3c5f fb3c
00000240: 9cf6 49be e386 63be fa62 2cbe 1e31 b1bd
00000250: 9f4b 20bb 0f9c 70bd 2745 aabc 2c0f fd3c
00000260: 0401 443d 2b2f b83d f9df 2c3e 6ed8 e13d
00000270: d910 273e 1c0a 453e e5d6 413e e55d 3c3e
00000280: b3d5 0a3e 4409 a23d efef cebc 4972 1bbc
00000290: 80d5 6abd cd52 963d 47e5 cbbc f01a 0a3e
000002a0: c0cf 423e a4f1 8d3d 8861 ac3d 73a5 033e
000002b0: 36ea d13d bd92 593e 9d7e cd3d 7e5b 2c3d
000002c0: 0fd4 33be c82c 21be 7633 3dbe 5a3d 44be
000002d0: 9176 3ebe 1d74 2bbe 1711 0cbe 5241 d5bd
000002e0: 18da b2bd 566c 0fbe 27ce dabd 3ce0 cebd
000002f0: cb6e 09be 337e 2ebe a3a9 61be 4afd 59be
00000300: 755c e5bd 562d f1bd 3fc7 70be fac4 50be
00000310: 4c73 b8bd 8fb3 73be 8011 74be b173 05be
00000320: bf8b f7bd 34f2 7fbe 9f1a 8ebd ece3 76be
00000330: b3ee a5bd a86e 35be a2a0 12be 6544 83be
00000340: 4b75 133e 4649 1a3e b39f 17bd f849 4abd
00000350: 65b6 09bd ac98 193e 3b7e 493e d509 5c3e
00000360: fe08 933d d7a9 73bd 2414 02be 27cd 04be
00000370: 4276 f2bd e22e a63b e740 4cbd ffce 53bd
00000380: 0516 83be 4238 87be f03b cbbe 8e8e 91be
00000390: 5a30 c3be c021 adbe f3da 71be 80ce 79be
000003a0: 5285 76be 141f 87be d8f2 bdbe c75d 5fbe
000003b0: 52a4 93be 9797 07be 0290 8bbe bfda 28be
000003c0: 0342 4c3d 2b63 983c 8272 ee3b 3f01 b63d
000003d0: 443d 53bd 0bfd f03d 90c0 183e 1752 853c
000003e0: 5164 d2bc e07d 903d 0753 d43c 73c4 853d
000003f0: fbba eb3d 1c27 eabc 2c90 f0bd d883 af3c

encoder.cnn.bias f4 [8]
0.000176031 0.002360995 0.032887846 -0.17465991 0.14594762 -0.5885159 -0.46347257 0.5258238
00000000: f694 3839 ecba 1a3b 68b5 063d 0cda 32be
00000010: 4b73 153e faa8 16bf 474c edbe 639c 063f

encoder.rnn.weight_ih_l0 f4 [128, 8]
0.087658234 -0.056242753 0.07766764 -0.13760269 -0.003443526 -0.11339198 -0.25244328 -0.14388089
0.33898878 0.22841665 0.25691745 0.17731182 0.17631646 0.22015937 0.0029083856 0.03809003
0.12702395 0.13293152 0.030701572 -0.033434864 -0.10759316 0.062372986 0.012218972 0.06650637
-0.19750476 -0.12124827 0.18644337 -0.028398292 0.10201426 0.071826406 -0.03879368 -0.12587237
-0.32662588 -0.22711483 -0.27593398 0.18539183 0.2572527 0.03953569 0.045711726 0.24940398
-0.1799486 -0.2979162 -0.01064929 -0.09315704 -0.06889936 -0.08047222 0.34033126 0.13969178
0.23202345 0.27806127 0.37987453 0.085806035 0.16283323 0.12932645 0.3137904 0.22381054
0.24026461 0.33805382 0.11441341 0.12707703 0.14043573 0.21060738 -0.089829855 -0.0692767
0.37882927 0.10478262 0.07847131 -0.011055525 -0.032541186 0.18992423 0.046602987 0.03512061
-0.29578474 -0.17335837 -0.3492842 0.17868458 -0.033180255 0.123691425 0.35272616 0.32001334
-0.31508645 -0.17633839 -0.12034112 -0.11533209 -0.17574735 -0.30950448 0.014443725 0.0021012842
0.28564262 0.18544951 0.05762767 0.13354148 0.11449673 0.0006899802 -0.07664008 -0.011019342
0.11369023 0.3886969 0.30980495 0.009471125 -0.0030440148 0.120495126 0.0750043 0.13800222
-0.20829155 -0.061592195 -0.007439422 -0.17548607 -0.019770691 -0.10147448 0.24935882 0.13066633
0.0878137 -0.01909432 0.015163467 -0.2803436 -0.26575357 -0.3458539 -0.17944624 -0.31741488
-0.11196787 0.107443035 0.09782289 0.0940587 -0.37104595 -0.13328612 -0.04411949 -0.04020425
-0.10543287 -0.24955536 -0.24730371 -0.02439726 0.054795265 0.27439508 0.19141528 0.45054033
0.23199242 0.2442873 0.32279742 -0.05587459 -0.06288514 -0.16033758 -0.21397592 -0.17348853
-0.24484453 -0.097758695 -0.055927932 -0.049086574 0.104607254 -0.058656048 0.011548296 -0.23616669
-0.04073972 0.62499756 0.27495006 0.21308945 0.08827703 0.30561033 0.38120025 0.24297753
-0.1631417 -0.05285571 -0.08175614 0.077085465 -0.16039725 -0.16970825 -0.04699926 -0.07288863
-0.07279588 0.10181262 0.24721286 -0.24658372 -0.16467558 -0.1493503 -0.081205264 -0.13044414
0.30324852 0.1431736 0.073718645 -0.056655854 -0.042142384 -0.008585144 -0.032059267 -0.107336916
-0.3024582 0.065548606 -0.04157726 0.2648151 0.2411508 0.08514246 0.15432088 0.077198386
0.24816345 0.31706476 0.18273182 -0.03406142 -0.00981611 -0.01530143 0.020098152 -0.15329039
-0.25837687 -0.1123246 -0.047164373 -0.18489222 -0.029964805 0.048056524 0.3152987 0.45350087
-0.1554138 -0.07359188 0.16869898 -0.027673636 0.0541416 -0.06854693 -0.04243477 0.00047515472
0.010030385 -0.028594967 -0.101340525 0.051604252 -0.044221926 -0.010797921 0.24184461 0.23844288
0.19632314 0.094514474 0.18192135 0.27096683 0.14435963 0.03968092 -0.34055477 -0.20519386
-0.05788827 0.10637097 0.25637954 0.3455005 0.18293804 0.12904568 0.19783306 0.26277536
-0.037056666 0.14877969 0.15054616 -0.066777624 -0.021046473 0.16374388 0.09432966 0.0013640216
0.26555765 0.017295664 0.3015583 0.008524842 -0.02510152 -0.07280499 0.060057677 0.112884134
00000000: 2986 b33d cd5e 66bd 3610 9f3d b8e7 0cbe
00000010: c8ac 61bb 0e3a e8bd 3f40 81be 8355 13be
00000020: f08f ad3e 0ee6 693e af8a 833e 3b91 353e
00000030: 4d8c 343e 7571 613e 9d9a 3e3b 4b04 1c3d
00000040: 9112 023e 331f 083e dd81 fb3c fff2 08bd
00000050: cd59 dcbd d17a 7f3d 1532 483c 7e34 883d
00000060: b03e 4abe 0351 f8bd 03eb 3e3e 89a3 e8bc
00000070: daec d03d b919 933d 1fe6 1ebd b0e4 00be
00000080: 823b a7be ca90 68be 3847 8dbe 5bd7 3d3e
00000090: a0b6 833e 2df0 213d 383c 3b3d c263 7f3e
000000a0: 7244 38be 7988 98be 5c7a 2ebc 1ec9 bebd
000000b0: 1c1b 8dbd 9fce a4bd e63f ae3e 5d0b 0f3e
000000c0: 8e97 6d3e 0c5e 8e3e ea7e c23e 13bb af3d
000000d0: c1bd 263e 276e 043e 23a9 a03e 972e 653e
000000e0: ed07 763e 6415 ad3e 9451 ea3d 7b20 023e
000000f0: 62ce 0f3e 76a9 573e b7f8 b7bd f1e0 8dbd
00000100: e9f5 c13e 4598 d63d 91b5 a03d 3c22 35bc
00000110: e849 05bd 7f7b 423e c6e2 3e3d a1da 0f3d
00000120: 1971 97be db84 31be 61d5 b2be 17f9 363e
00000130: 05e8 07bd ee51 fd3d 8698 b43e cad8 a33e
00000140: 0353 a1be 0d92 34be 6875 f6bd 3b33 ecbd
00000150: 1df7 33be 5f77 9ebe 60a5 6c3c b3b5 093b
00000160: c03f 923e 7ae6 3d3e fe0a 6c3d 19bf 083e
00000170: 437d ea3d cadf 343a 79f5 9cbd 788a 34bc
00000180: 6cd6 e83d 4803 c73e c19e 9e3e c72c 1b3c
00000190: 187e 47bb 26c6 f63d db9b 993d 7450 0d3e
000001a0: 614a 55be 1948 7cbd 65c6 f3bb 9fb2 33be
000001b0: 25f6 a1bc dad1 cfbd eb57 7f3e 65cd 053e
000001c0: abd7 b33d b16b 9cbc 3170 783c 3289 8fbe
000001d0: da10 88be c313 b1be c1c0 37be 3484 a2be
000001e0: 694f e5bd 180b dc3d 5e57 c83d d9a1 c03d
000001f0: bcf9 bdbe 287c 08be a3b6 34bd 36ad 24bd
00000200: 30ed d7bd 718b 7fbe 2f3d 7dbe c3dc c7bc
00000210: 0071 603d 837d 8c3e 5e02 443e 39ad e63e
00000220: 6c8f 6d3e 7326 7a3e b445 a53e c1dc 64bd
00000230: edc9 80bd 892f 24be 811c 5bbe faa6 31be
00000240: 86b8 7abe b635 c8bd b014 65bd 010f 49bd
00000250: 543c d63d 5341 70bd 1035 3d3c aed5 71be
00000260: b1de 26bd d7ff 1f3f 41c6 8c3e 1f34 5a3e
00000270: 96ca b43d f578 9c3e ae2c c33e 1acf 783e
00000280: 9e0e 27be 3b7f 58bd c36f a7bd fcde 9d3d
00000290: 2d3f 24be 00c8 2dbe 4c82 40bd a246 95bd
000002a0: 0216 95bd 2383 d03d 5e25 7d3e 7180 7cbe
000002b0: b7a0 28be 49ef 18be f24e a6bd 2693 05be
000002c0: 6443 9b3e 1a9c 123e cdf9 963d f80f 68bd
000002d0: 7e9d 2cbd b4a8 0cbc 9450 03bd 75d3 dbbd
000002e0: cddb 9abe 593e 863d eb4c 2abd d895 873e
000002f0: 3cf0 763e 2c5f ae3d 4b06 1e3e 301a 9e3d
00000300: 8f1e 7e3e 5056 a23e 0d1e 3b3e fd83 0bbd
00000310: c0d3 20bc d9b2 7abc e1a4 a43c 28f8 1cbe
00000320: f949 84be 710a e6bd 6e2f 41bd 6354 3dbe
00000330: c078 f5bc ebd6 443d d56e a13e 4431 e83e
00000340: cc24 1fbe 57b7 96bd 6dbf 2c3e d2b3 e2bc
00000350: 95c3 5d3d 5562 8cbd 15d0 2dbd 301e f939
00000360: 7c56 243c fe3f eabc 9f8b cfbd fb5e 533d
00000370: 0d22 35bd c3e9 30bc 1da6 773e 5f2a 743e
00000380: ef08 493e ce90 c13d 9749 3a3e 2abc 8a3e
00000390: 03d3 133e 7688 223d 325d aebe 571e 52be
000003a0: 401c 6dbd 06d9 d93d 2e44 833e 71e5 b03e
000003b0: 1c54 3b3e 8d24 043e c094 4a3e 7e8a 863e
000003c0: bbc8 17bd b459 183e c628 1a3e b5c2 88bd
000003d0: a769 acbc 7aac 273e e92f c13d f8c8 b23a
000003e0: 2cf7 873e a3af 8d3c d965 9a3e c7ab 0b3c
000003f0: b4a1 cdbc c81a 95bd 0aff 753d cc2f e73d

encoder.rnn.weight_hh_l0 f4 [128, 32]
0.04445688 0.39895248 -0.34291255 0.7566341 -0.08127791 0.3772334 0.18573204 0.5907087
-0.2571647 -0.5446361 -0.76945853 0.20916414 -0.7343062 -0.24582994 0.06835873 -0.92875564
0.27618274 0.91482824 -0.11072851 0.80116963 1.0156034 0.4771281 0.6812808 0.07852923
-0.8417031 -0.39781302 0.8084211 0.39444596 0.23431675 0.15123832 0.047133736 0.617174
-0.6395788 0.3658843 0.39623362 0.7922122 -0.33788776 -0.314356 0.6188298 0.53246623
-0.7501807 -0.83764046 -0.31013018 0.42919686 -0.9754821 0.12592109 -0.010672965 -0.28116155
-0.18758766 0.5028102 0.4857676 0.24799354 0.41401485 0.6856391 0.25679845 0.30188662
-0.9461791 -0.07535327 1.0406231 0.536776 -0.79022026 0.4090204 0.21563059 0.7231515
-0.93083704 0.4414832 0.5894743 1.0111598 -0.828632 -0.5594613 1.1795713 0.9955962
-1.4579417 -1.4588385 -0.8048401 0.7858181 -1.393892 -0.06328293 -0.07611013 -0.103021435
0.16968215 1.4342473 0.537344 0.36371434 1.5761224 1.3069981 -0.29527715 -0.80716
-1.2797853 -0.939261 1.1036518 0.65738136 0.35347274 0.98430085 -0.67878383 1.6239038
-0.052853495 0.45211005 1.1694442 0.98469776 0.21451254 -0.13313805 -0.31974185 0.2162086
0.7411278 -0.08526089 0.1914516 -0.7913617 0.7052989 1.8541174 0.15133111 0.07458185
0.77574503 -0.78277224 0.621477 -0.2994331 0.055601742 0.006198614 -0.054503568 0.6817333
0.8843806 0.7806031 1.463339 -0.3039865 -1.3460983 -0.83565086 -0.72087944 -0.5053063
0.09955797 -0.59523916 -0.14979829 0.3357119 -0.4431793 0.25142065 0.29347923 0.5903686
-0.11944276 -0.4691938 0.7248237 0.35431862 -0.2743423 0.2760931 0.29115152 -0.34390616
0.37182665 0.21454214 0.22055915 0.48267686 0.1595169 0.15086554 0.38267145 -0.12523131
-0.6732452 -0.032164168 0.77871525 0.3576617 0.7687498 0.44916797 0.29463133 0.21302159
-0.34430292 0.18804604 0.42166716 -0.34370747 0.15853746 0.73631597 0.016832236 -0.26243576
1.2112863 0.47432032 0.77573246 -0.8379047 -0.42432356 -1.159704 0.242152 -0.16832441
-0.4220217 -0.6218312 -0.14402696 0.61174494 0.10584948 -0.2440454 0.06760318 0.30102637
-0.0010882616 -0.093700096 -0.08140931 -0.4891716 0.23381747 -0.8354729 -0.15882033 -0.6922616
-0.048015893 -0.0034290624 -0.16951104 0.06886284 0.066469006 -0.108472794 0.57554597 0.36129242
-0.39274678 -0.20232768 0.5313968 -0.16146864 -0.26958168 -0.06843694 -0.11005123 0.03957638
-0.17734496 0.12525819 0.22222094 -0.30861184 0.73138326 0.14952217 -0.4082804 -0.10545632
-0.36907828 -0.20011088 0.39163923 -0.11776011 -0.17046478 0.525919 0.18769199 0.18118992
1.1909002 -0.0825599 0.56592417 -0.18238835 0.27852204 0.92785233 -0.934006 0.16641566
0.33496088 0.06554839 0.17193758 -0.47777846 0.21269795 -0.72612315 -0.36472774 -0.22043969
0.46540278 -0.08060589 -0.3220193 -0.20436502 -0.3534394 -0.1782833 -0.22750968 0.16185834
-0.34826517 0.43972662 0.3587191 -0.6040992 0.49891728 0.015205262 0.2581006 -0.47597885
00000000: 6b18 363d 8043 cc3e 3c92 afbe c6b2 413f
00000010: 0875 a6bd bc24 c13e 8a30 3e3e af38 173f
00000020: 17ab 83be 456d 0bbf 3cfb 44bf 202f 563e
00000030: 7efb 3bbf d8ba 7bbe a9ff 8b3d eec2 6dbf
00000040: d367 8d3e 2f32 6a3f a1c5 e2bd 7419 4d3f
00000050: 4bff 813f 224a f43e 6b68 2e3f efd3 a03d
00000060: db79 57bf 26ae cbbe aff4 4e3f d2f4 c93e
00000070: bbf0 6f3e 38de 1a3e 4e0f 413d 1eff 1d3f
00000080: 70bb 23bf 3055 bb3e 22df ca3e 6bce 4a3f
00000090: a0ff acbe 45f3 a0be a16b 1e3f b54f 083f
000000a0: d80b 40bf 9b6f 56bf 62c9 9ebe b1bf db3e
000000b0: 32b9 79bf 75f1 003e a9dd 2ebc 68f4 8fbe
000000c0: fb16 40be 2bb8 003f 88b6 f83e 05f2 7d3e
000000d0: c1f9 d33e 0b86 2f3f 167b 833e e290 9a3e
000000e0: cb38 72bf d152 9abd 2333 853f 276a 093f
000000f0: e04b 4abf 1f6b d13e 44ce 5c3e 7520 393f
00000100: 564b 6ebf 160a e23e cae7 163f af6d 813f
00000110: 3a21 54bf db38 0fbf 31fc 963f 64df 7e3f
00000120: d59d babf 38bb babf 000a 4ebf 602b 493f
00000130: 0e6b b2bf 7b9a 81bd a1df 9bbd e7fc d2bd
00000140: 28c1 2d3e 6a95 b73f 608f 093f c438 ba3e
00000150: 61be c93f b74b a73f 912e 97be 0aa2 4ebf
00000160: 01d0 a3bf 6973 70bf 7644 8d3f 254a 283f
00000170: 61fa b43e 24fb 7b3f c7c4 2dbf 14dc cf3f
00000180: e87c 58bd f87a e73e 59b0 953f 2715 7c3f
00000190: 2da9 5b3e 5755 08be 34b5 a3be ca65 5d3e
000001a0: 8dba 3d3f 439d aebd e30b 443e ae96 4abf
000001b0: 788e 343f b853 ed3f 8bf6 1a3e 5ebe 983d
000001c0: 3a97 463f c363 48bf 1e19 1f3f 4c4f 99be
000001d0: a7be 633d be1d cb3b 223f 5fbd 1386 2e3f
000001e0: c466 623f 9bd5 473f b14e bb3f 1ea4 9bbe
000001f0: f34c acbf 37ed 55bf 8e8b 38bf c15b 01bf
00000200: 0de5 cb3d 9861 18bf b964 19be 6ee2 ab3e
00000210: 66e8 e2be 35ba 803e e942 963e 6622 173f
00000220: 689e f4bd 2b3a f0be 0c8e 393f 4069 b53e
00000230: 9876 8cbe 135c 8d3e d011 953e 7814 b0be
00000240: 1060 be3e efb0 5b3e 42da 613e 6c21 f73e
00000250: 6658 233e 7f7c 1a3e 83ed c33e a33c 00be
00000260: cc59 2cbf 93be 03bd e259 473f 6f1f b73e
00000270: c9cc 443f 58f9 e53e ebd9 963e 5522 5a3e
00000280: 7948 b0be 248f 403e c2e4 d73e 6dfa afbe
00000290: a557 223e 347f 3c3f c2e3 893c fb5d 86be
000002a0: 6e0b 9b3f 1dda f23e 6796 463f ec80 56bf
000002b0: f040 d9be 2e71 94bf b2f6 773e 3c5d 2cbe
000002c0: 3a13 d8be 5430 1fbf ce7b 13be 519b 1c3f
000002d0: 9dc7 d83d 0ae7 79be 8973 8a3d 2120 9a3e
000002e0: 00a4 8eba d6e5 bfbd edb9 a6bd b374 fabe
000002f0: d96d 6f3e 8de1 55bf cca1 22be 0e38 31bf
00000300: 50ac 44bd 1fba 60bb 4d94 2dbe f607 8d3d
00000310: e720 883d fc26 debd fb56 133f 52fb b83e
00000320: 1b16 c9be fd2e 4fbe 9f09 083f 0958 25be
00000330: 9c06 8abe ab28 8cbd 8a62 e1bd d81a 223d
00000340: eb99 35be af43 003e e38d 633e 5f02 9ebe
00000350: ef3b 3b3f 571c 193e 210a d1be 7cf9 d7bd
00000360: d4f7 bcbe dee9 4cbe f084 c83e 362c f1bd
00000370: 528e 2ebe a1a2 063f 5432 403e da89 393e
00000380: 6b6f 983f 2a15 a9bd 68e0 103f 03c4 3abe
00000390: 719a 8e3e bb87 6d3f 041b 6fbf de68 2a3e
000003a0: fe7f ab3e 3c3e 863d 6810 303e 619f f4be
000003b0: 7ecd 593e 35e3 39bf 98bd babe f1ba 61be
000003c0: 4649 ee3e b314 a5bd b7df a4be 1045 51be
000003d0: 02f6 b4be e68f 36be 4cf8 68be 31be 253e
000003e0: d04f b2be d923 e13e 08aa b73e 3fa6 1abf
000003f0: 1672 ff3e 7e1f 793c c325 843e 80b3 f3be

encoder.rnn.bias_ih_l0 f4 [128]
0.21889096 0.4847476 0.84798664 -0.14286494 0.17826265 -0.56867236 0.17456351 -0.24327551
0.313744 0.16704105 -0.24461818 0.22404501 -0.09327638 -0.59216833 0.26712388 0.24214016
-0.5116683 -0.684043 0.09987276 0.053112987 0.2543465 0.029870315 0.61262137 0.10650439
-0.4289538 -0.15893109 0.4607814 0.08824338 -0.16092369 -0.0606582 0.45914575 -0.014942447
0.65153986 0.5957194 0.86353797 0.95364976 0.52108145 0.56249624 0.75645727 0.74975204
0.16180754 1.1353614 -0.299314 0.5912321 0.34791446 0.8492623 0.23305301 -0.33244008
-0.45845485 0.57932657 0.4012377 0.3537019 1.5299882 0.8424679 0.5408223 0.5284111
0.84543884 0.6449514 0.6367513 0.7379316 0.5112677 0.58919 0.39773825 0.5917944
-0.8021173 0.38812563 -0.4548431 0.50129426 -0.85361946 -0.23758581 0.44200432 0.31797528
-0.7170868 -0.71662205 -0.04299991 0.41259494 0.18319617 0.09063857 -0.50992936 0.12167953
-0.29487956 0.75075746 0.6292779 0.28056672 0.45321158 0.62733155 0.30751297 -0.576619
0.3234154 0.3132564 -0.08691648 0.81749487 0.23110256 0.36971357 0.46275166 -0.08461701
0.48028123 0.24240433 0.55023366 0.74850297 0.86947894 1.0756274 1.039693 1.1896447
-0.1572041 1.023838 0.17099462 0.54232764 0.5323416 0.38427082 -0.14502442 -0.24463423
0.04893483 1.0253571 0.28830108 0.51107156 1.2071173 1.4190049 1.0968547 0.7717417
0.65463513 0.7864423 -0.50666434 0.5969649 0.18480341 0.8018224 1.287939 1.2327979
00000000: f424 603e d630 f83e a715 593f 304b 12be
00000010: 7c8a 363e 8394 11bf c7c0 323e 371d 79be
00000020: 0ea3 a03e cf0c 2b3e 307d 7abe 0e6c 653e
00000030: b007 bfbd 5898 17bf 76c4 883e 97f3 773e
00000040: b2fc 02bf 711d 2fbf 178a cc3d 018d 593d
00000050: b439 823e 97b2 f43c c1d4 1c3f f91e da3d
00000060: d59f dbbe d5be 22be 8aeb eb3e f2b8 b43d
00000070: 2ec9 24be bc74 78bd 2715 eb3e 2ad1 74bc
00000080: 51cb 263f 1181 183f d310 5d3f 6422 743f
00000090: 9865 053f c1ff 0f3f 2fa7 413f c0ef 3f3f
000000a0: e0b0 253e 8653 913f af3f 99be fd5a 173f
000000b0: d821 b23e 4169 593f 73a5 6e3e 9635 aabe
000000c0: 98ba eabe bf4e 143f 076f cd3e 6a18 b53e
000000d0: a7d6 c33f faab 573f 5573 0a3f f345 073f
000000e0: ae6e 583f 891b 253f 2202 233f 16e9 3c3f
000000f0: 71e2 023f 28d5 163f 59a4 cb3e d67f 173f
00000100: 8f57 4dbf 67b8 c63e 32e1 e8be d254 003f
00000110: ce86 5abf b249 73be 644e e23e a8cd a23e
00000120: 0093 37bf 8b74 37bf ac20 30bd a53f d33e
00000130: c797 3b3e b7a0 b93d bb8a 02bf 1e33 f93d
00000140: 74fa 96be a431 403f 5b18 213f 71a6 8f3e
00000150: 590b e83e cd98 203f 5772 9d3e 4e9d 13bf
00000160: b496 a53e 2563 a03e 4401 b2bd 5847 513f
00000170: 26a6 6c3e 194b bd3e c9ed ec3e af4b adbd
00000180: 6ce7 f53e d738 783e 1ddc 0c3f e49d 3f3f
00000190: 2c96 5e3f 29ae 893f a914 853f 4746 983f
000001a0: 1dfa 20be 200d 833f 3719 2f3e fcd5 0a3f
000001b0: 8a47 083f 25bf c43e 4881 14be 6581 7abe
000001c0: e36f 483d e73e 833f 339c 933e 96d5 023f
000001d0: d282 9a3f f4a1 b53f bc65 8c3f dd90 453f
000001e0: 2b96 273f 4854 493f c1b4 01bf b1d2 183f
000001f0: 1b3d 3d3e 3c44 4d3f 2fdb a43f 52cc 9d3f

encoder.rnn.bias_hh_l0 f4 [128]
0.19708239 0.3910427 0.96230626 -0.11567841 0.12827007 -0.5547243 0.16834621 -0.1788242
0.3137772 0.16612293 -0.23851806 0.28246358 -0.104012474 -0.58476585 0.2674205 0.28213203
-0.35081384 -0.6848191 0.25987625 0.05451162 0.25430304 0.043192245 0.60738564 0.09268652
-0.44811103 -0.17400232 0.38875675 0.08941565 -0.16074781 0.20101182 0.4591414 0.055472396
0.62242496 0.27921084 0.7292393 0.88849366 0.81301975 0.81889546 0.7643507 0.6987614
0.15646991 1.1351049 -0.31140634 0.57246315 0.38737413 1.0698906 0.21814303 -0.16928807
-0.55130213 0.57022583 0.39067453 0.34944353 1.529975 0.89999366 0.47553995 0.50703746
0.8463117 0.7048567 0.8832743 0.7344319 0.49601966 0.5360095 0.39774045 0.591941
-0.78598875 0.23722754 -0.45873666 0.26323962 -0.7501658 -0.28543714 0.45376942 0.17171112
-0.71030986 -0.7010196 -0.1334749 0.6991449 0.10560763 0.03906366 -0.61378396 0.059081983
-0.32713604 0.7440758 0.699819 0.072189555 0.45379248 0.6400066 0.16114399 -0.50896114
0.3579626 0.014577745 0.12880896 0.8930698 0.23436698 0.32622954 0.4401576 0.0046581663
0.32989118 0.30836186 0.50102234 0.7746615 0.8695015 0.8008478 1.1574066 1.1554239
-0.21024106 0.9349948 0.1458383 0.64816993 0.39670643 0.5995527 -0.14585733 -0.35710293
0.18394445 1.0780975 0.28919598 0.77737695 1.2742467 1.4629289 1.0442473 0.77202654
0.5995336 0.7548729 -0.5267279 0.58686525 0.19288656 0.83958733 1.2879326 1.2326059
00000000: f7cf 493e c036 c83e b459 763f cde8 ecbd
00000010: 3b59 033e 6902 0ebf f362 2c3e b11d 37be
00000020: 68a7 a03e 211c 2a3e 143e 74be 119f 903e
00000030: 7e04 d5bd 37b3 15bf 57eb 883e 9c73 903e
00000040: df9d b3be 4e50 2fbf 800e 853e 9447 5f3d
00000050: 0234 823e 5aea 303d a07d 1b3f 6ed2 bd3d
00000060: cf6e e5be aa2d 32be 200b c73e 8d1f b73d
00000070: 139b 24be 0bd6 4d3e 9514 eb3e 0637 633d
00000080: 3e57 1f3f b9f4 8e3e 6daf 3a3f 5274 633f
00000090: 1022 503f 22a3 513f 7dac 433f 07e2 323f
000000a0: a639 203e 1e4b 913f a770 9fbe f28c 123f
000000b0: e755 c63e 2df2 883f e360 5f3e da59 2dbe
000000c0: 2322 0dbf 52fa 113f 7e06 c83e 43ea b23e
000000d0: 39d6 c33f fc65 663f f979 f33e 35cd 013f
000000e0: e2a7 583f 7d71 343f 441e 623f bb03 3c3f
000000f0: 4af6 fd3e eb37 093f a3a4 cb3e 7289 173f
00000100: 8f36 49bf c7eb 723e 88df eabe 58c7 863e
00000110: de0a 40bf d124 92be 7754 e83e 0ad5 2f3e
00000120: ded6 35bf 0576 33bf a5ad 08be 29fb 323f
00000130: d048 d83d 3701 203d f220 1dbf f3ff 713d
00000140: 607e a7be c07b 3e3f 5727 333f 1ed8 933d
00000150: 7d57 e83e 79d7 233f ee02 253e 474b 02bf
00000160: e046 b73e 7fd7 6e3c 7fe6 033e 39a0 643f
00000170: e6fd 6f3e 8f07 a73e 565c e13e 88a3 983b
00000180: 7fe7 a83e 9be1 9d3e 0043 003f 3750 463f
00000190: a697 5e3f 5d04 4d3f e625 943f eee4 933f
000001a0: 6f49 57be d25b 6f3f a356 153e 77ee 253f
000001b0: 1b1d cb3e 497c 193f a05b 15be 32d6 b6be
000001c0: ef5b 3c3e 19ff 893f 7f11 943e 2d02 473f
000001d0: 841a a33f 4141 bb3f e5a9 853f 88a3 453f
000001e0: 097b 193f 5a3f 413f a4d7 06bf cd3c 163f
000001f0: 0e84 453e 32ef 563f fada a43f 08c6 9d3f

decoder.rnn.weight_ih_l0 f4 [256, 32]
-0.16619161 1.1770377 1.2025182 -0.91504097 -0.11440415 0.116802916 0.5470632 -0.03172756
-2.1051435 -0.054160487 -0.0008699182 0.641879 -0.7470798 -1.1580935 -0.006108704 -2.4512328e-05
0.38224322 0.06812656 0.28558347 0.6336464 -0.26876953 -0.24075665 0.12592275 -0.55381495
1.0328295 0.6884774 0.48594028 0.39033192 -0.29542246 0.2516707 0.09471851 1.1626993
-1.101259 2.4267018 1.2775409 0.36127937 -0.21341856 -1.059549 0.9550708 0.0609689
-2.9938471 -0.041891366 -0.018658273 -0.6087603 -0.73007387 -1.5810885 -0.01485946 -0.0029571743
-0.9948464 0.6764585 0.16212839 1.4829079 -0.8083533 0.83166105 -0.5693375 -0.08299898
0.0075667067 0.47704175 0.15688176 0.38463867 -1.5256871 0.870679 -0.4397623 1.6584575
-0.19052905 1.8435977 0.6876025 -0.95159 -1.160617 0.072214566 0.44188163 0.8492331
-2.5420876 -0.3335394 -3.6605357e-05 -0.66178447 -1.0835721 -1.3092192 0.087434925 -9.437837e-07
0.18825331 0.6580987 -1.8804797 2.7181673 -0.14444797 2.3677382 -0.13243067 0.04022777
0.5387694 -0.60375834 -1.7079886 0.09659363 -2.1524355 0.27932712 0.303172 1.549294
-0.10740242 0.02320547 0.5787602 0.20478831 -0.0026435878 -0.17114212 0.15109171 1.0132328
-2.9984946 -0.39698517 -2.420138e-23 0.60194665 -1.0670339 -0.1508365 4.713037e-10 1.4696176e-23
0.98216736 0.9109721 0.34909135 0.02287709 0.6561645 1.1027528 0.4653565 -0.012794445
-0.21652639 0.43310487 0.022114849 0.8816 3.6146923e-06 1.1503458 -0.77945185 2.1998835
8.0361716e-08 -0.022846423 0.35823867 0.02690958 0.035373755 0.41499245 0.014031501 1.0195823
-1.7391696 -0.028618388 -5.391417e-22 0.9609625 -0.3706508 -0.075446226 -6.0797917e-10 8.168838e-22
0.92695105 1.0756898 0.33917475 -0.023705682 0.5992798 0.8400089 0.12459713 -0.02792034
-0.7913685 0.34712017 0.12761173 0.94787186 0.0009870353 1.0828395 -0.5149693 1.4592813
-0.42246476 0.37347177 0.44326794 0.97965235 -0.18553756 -2.0981216 0.60166615 0.46145973
-1.883601 -0.15674756 3.4218898e-20 -0.39922103 -2.3681405 -0.38983265 -0.0076863817 9.443345e-21
-0.7692423 0.60080945 -0.6688808 1.6146686 -0.102974765 0.44168684 0.10181096 -0.42623204
0.3170679 0.20748289 -0.08685754 -0.34632158 -0.12862521 0.42605844 0.07089185 1.5856277
1.5915644e-07 0.00010219621 0.645562 0.15157297 1.8699235e-05 0.14837013 0.23836435 1.0056006
-1.6122864 0.00026495973 6.949819e-24 0.9261669 -0.017634101 -0.04568667 2.8948655e-10 -9.191866e-24
0.9208657 0.9253561 0.48313522 0.000277591 0.5249203 0.39345708 0.5379327 -0.008427708
-0.5875918 0.6131563 0.38258335 1.048076 -1.0798444e-12 1.0612178 -0.14190617 1.2413312
0.048273046 1.6555455 0.68119156 0.11107875 -0.62578565 -0.3505476 1.2829925 0.9607695
-2.2828152 -0.9166747 -1.309937e-20 0.3847424 -1.0240396 -0.29782346 -3.7073905e-06 1.5146263e-20
-0.8892285 1.0543296 -1.0245593 1.7525669 0.5867774 0.9484888 0.21738112 -0.2618859
-0.34376064 -0.29559264 -0.32643613 0.9164338 -0.6562475 0.95662755 -0.48451665 1.6877486
00000000: 222e 2abe 2ca9 963f 1eec 993f 2040 6abf
00000010: b94c eabd 5e36 ef3d 550c 0c3f c2f4 01bd
00000020: acba 06c0 63d7 5dbd 390b 64ba 2f52 243f
00000030: 9f40 3fbf 683c 94bf 862b c8bb d39f cdb7
00000040: 62b5 c33e f085 8b3d ff37 923e a736 223f
00000050: 299c 89be e988 76be e5f1 003e d1c6 0dbf
00000060: c233 843f 0e40 303f 2acd f83e 96d9 c73e
00000070: 9d41 97be fbda 803e c7fb c13d 55d3 943f
00000080: 0ef6 8cbf 154f 1b40 7686 a33f 9cf9 b83e
00000090: 658a 5abe 4d9f 87bf 857f 743f 86ba 793d
000000a0: 319b 3fc0 4896 2bbd 3cd9 98bc b7d7 1bbf
000000b0: 1fe6 3abf 1c61 cabf 1875 73bc 27cd 41bb
000000c0: 41ae 7ebf 622c 2d3f fc04 263e edcf bd3f
000000d0: 3ef0 4ebf bde7 543f 1ac0 11bf 5ffb a9bd
000000e0: 23f2 f73b d13e f43e 9da5 203e 5cef c43e
000000f0: b749 c3bf d2e4 5e3f 8628 e1be 5648 d43f
00000100: 0c1a 43be 02fb eb3f b806 303f 679b 73bf
00000110: 198f 94bf 3be5 933d 4f3e e23e 5767 593f
00000120: 90b1 22c0 adc5 aabe b488 19b8 b56a 29bf
00000130: 7eb2 8abf 7f94 a7bf 1511 b33d 5258 7db5
00000140: 7ac5 403e 2879 283f 8fb3 f0bf 74f6 2d40
00000150: 2bea 13be 0689 1740 e89b 07be e0c5 243d
00000160: cbec 093f e88f 1abf 5f9f dabf e2d2 c53d
00000170: 81c1 09c0 f703 8f3e 5c39 9b3e 444f c63f
00000180: cdf5 dbbd 6619 be3c a129 143f 07b4 513e
00000190: 0b40 2dbb e13f 2fbe c9b7 1a3e 9db1 813f
000001a0: 56e7 3fc0 a441 cbbe b70f ea99 2d19 1a3f
000001b0: 9194 88bf e274 1abe 0d8d 0130 f821 8e19
000001c0: 526f 7b3f 7835 693f 1abc b23e bc68 bb3c
000001d0: 66fa 273f 0127 8d3f 3543 ee3e cb9f 51bc
000001e0: 18b9 5dbe ecbf dd3e 332a b53c 8ab0 613f
000001f0: f193 7236 883e 933f 288a 47bf e4ca 0c40
00000200: 5293 ac33 6c28 bbbc 0f6b b73e 7b71 dc3c
00000210: 12e4 103d e479 d43e 61e4 653c ac81 823f
00000220: 1c9d debf 1c71 eabc 12f2 229c a301 763f
00000230: f1c5 bdbe 8d83 9abd bb1e 27b0 53e3 761c
00000240: aa4c 6d3f 34b0 893f 50a8 ad3e 6b32 c2bc
00000250: 676a 193f d30a 573f c82c ff3d 32b9 e4bc
00000260: 2097 4abf bcb9 b13e a6ac 023e bba7 723f
00000270: 695f 813a 7c9a 8a3f 07d5 03bf bbc9 ba3f
00000280: 4d4d d8be b137 bf3e 04f4 e23e 7fca 7a3f
00000290: 8ffd 3dbe a047 06c0 cb06 1a3f 7344 ec3e
000002a0: d619 f1bf 6f82 20be 1c98 211f b366 ccbe
000002b0: 9d8f 17c0 2598 c7be 0bde fbbb 3761 321e
000002c0: 10ed 44bf a6ce 193f c63b 2bbf 76ad ce3f
000002d0: 6fe4 d2bd c724 e23e 4482 d03d 163b dabe
000002e0: b956 a23e 6576 543e 5ee2 b1bd 1051 b1be
000002f0: 54b6 03be 5524 da3e bf2f 913d d9f5 ca3f
00000300: 97e4 2a34 2c52 d638 8d43 253f f235 1b3e
00000310: 4ddc 9c37 57ee 173e c915 743e 85b7 803f
00000320: 675f cebf 4bea 8a39 d66d 0619 4619 6d3f
00000330: 6475 90bc f221 3bbd 9c25 9f2f eacb 3199
00000340: dbbd 6b3f 23e4 6c3f 805d f73e a289 9139
00000350: 2d61 063f 3573 c93e f5b5 093f 5f14 0abc
00000360: 6b6c 16bf d0f7 1c3f f7e1 c33e 5b27 863f
00000370: 7ff9 97ab fcd5 873f da4f 11be f1e3 9e3f
00000380: f5b9 453d eae8 d33f 9262 2e3f 417d e33d
00000390: 7d33 20bf fa7a b3be 1939 a43f fdf4 753f
000003a0: a519 12c0 31ab 6abf ab70 779e f5fc c43e
000003b0: bb13 83bf 517c 98be 7ccc 78b6 6b0d 8f1e
000003c0: 7ba4 63bf 46f4 863f c224 83bf 1d54 e03f
000003d0: 0b37 163f 29d0 723f 2899 5e3e e915 86be
000003e0: 6501 b0be eb57 97be a322 a7be 689b 6a3f
000003f0: d6ff 27bf 8be5 743f 9112 f8be 2508 d83f

decoder.rnn.weight_hh_l0 f4 [256, 64]
-0.45490736 0.35221797 0.17991816 -0.16872124 -0.3781704 0.008167161 -0.08393963 -0.33552387
-0.099082924 -0.39628163 -0.17397682 0.60309297 -0.17564203 0.13732618 0.3043795 -0.20358479
0.3120224 -0.07513701 -0.0925048 0.638783 0.12684117 0.2583517 1.0752916 -0.0035274415
-0.29217276 -0.3452803 0.10651812 -0.12488827 -0.18032232 -0.15952802 -0.37136668 0.07845807
-0.27610663 -0.25036725 -0.33223692 0.20451356 -0.37124497 0.15594375 0.22896321 0.058483787
0.5084681 0.08806632 0.30697963 -0.2176001 0.1923424 0.06533084 0.07135629 0.62197995
0.24997605 0.32555243 0.07566593 0.14504868 0.07355668 0.13929127 -0.09266725 0.53269005
-0.16627109 -0.041908927 0.17712587 -0.3654664 0.19359694 0.15794457 -0.135273 0.10523541
0.19701421 0.9298891 0.0006908749 -0.33936003 -0.2572864 -0.05393581 -0.062396362 -0.21583071
-0.4403333 0.3736135 -0.27962103 -0.32988474 -0.18842497 0.6120426 0.8615715 -0.12600443
0.26671803 -0.1856337 -0.42674166 -0.0367481 -0.6172979 0.128388 -0.7790072 -0.36808625
0.6675478 -0.057314135 0.2229427 -0.20350535 0.3687161 -0.15711015 0.52837056 0.21972026
0.058533445 -0.81683195 0.0005039548 0.48917145 0.45472968 0.2500203 0.033798777 0.30600473
-0.26748067 -0.33153525 -0.6887185 -0.44923246 0.21525465 0.35008097 0.2410997 -0.56736743
0.6234834 -0.67267436 0.3810949 0.8598177 -0.0871304 -0.8999723 0.042289995 -0.25368375
-0.1850142 0.016554456 0.3304881 0.058555458 0.199714 0.19450557 0.2927448 0.369858
-0.42532763 0.13398491 0.04014547 0.0844886 -0.01133763 0.40363967 -0.058730055 -0.04328399
0.82840747 -0.22138856 0.13860221 0.17761429 -0.4392883 -0.57275367 -0.31583086 0.011921035
0.13794704 -0.04549651 -0.19300789 0.55306345 0.15773009 0.51209366 0.51408005 0.27896369
-0.314806 -0.049457327 -0.00016652346 0.29102048 -0.05757635 -0.0579859 -0.23365961 -0.24460426
-0.19617379 -0.101950765 0.03769061 -0.20794833 -0.49508446 -0.16955554 -0.065773726 -0.060337756
0.47690448 1.2425733 0.16953944 0.16002142 0.0017173917 0.019994047 0.017760256 0.18768105
0.26073685 0.46745545 -0.07430351 -0.4941507 0.6848168 0.21480644 -0.024041569 0.28904873
0.08273154 1.036061 0.11156996 -0.33592758 -0.12239333 -0.18200615 -0.49285164 0.021617165
-0.056832757 -0.04556796 -0.018141724 0.11509409 -0.030676724 0.03741515 0.08025026 0.0014345675
-0.07753364 0.031694498 -0.027365215 0.02687354 -0.020162828 0.037342407 0.007940832 0.030947724
-0.011314262 0.079403184 0.03251636 -0.027618075 -0.03842957 -0.010999624 0.0673021 -0.0012126372
0.020196632 0.027620152 -0.06241922 0.06258919 -0.016645955 0.06198616 -0.01845429 -0.0769966
0.049534734 -0.027786085 -0.017947363 -0.020253224 0.0020330122 -0.10555974 0.015443507 -0.07202522
-0.022503076 0.032397058 0.016571637 -0.012597097 -0.06775481 -0.112674 -0.09901533 0.002141323
0.028695986 -0.05207429 -0.061516564 0.019863145 0.0014020207 0.015710551 0.035082776 -0.0066090864
0.03222847 0.041116007 0.0077254483 -0.017456632 -0.04707533 -0.08928174 -0.08033315 0.1002118
00000000: 9ee9 e8be ea55 b43e 773c 383e 43c5 2cbe
00000010: 8d9f c1be 8ecf 053c 8ae8 abbd c9c9 abbe
00000020: fdeb cabd 6de5 cabe fb26 32be 4d64 1a3f
00000030: 81db 33be 3c9f 0c3e a1d7 9b3e 8878 50be
00000040: 66c1 9f3e 6fe1 99bd 2873 bdbd 4887 233f
00000050: a7e2 013e ad46 843e 28a3 893f a62c 67bb
00000060: ab97 95be 94c8 b0be 2c26 da3d 6cc5 ffbd
00000070: 6aa6 38be 505b 23be c623 bebe a0ae a03d
00000080: d95d 8dbe 2330 80be f51a aabe 016c 513e
00000090: d213 bebe b8af 1f3e 5575 6a3e b28c 6f3d
000000a0: f72a 023f 1d5c b43d 6f2c 9d3e 90d2 5ebe
000000b0: 68f5 443e 2dcc 853d 3f23 923d 143a 1f3f
000000c0: b9f9 7f3e cfae a63e bdf6 9a3d a487 143e
000000d0: e2a4 963d 5fa2 0e3e 54c8 bdbd 605e 083f
000000e0: f842 2abe b2a8 2bbd 7c60 353e 691e bbbe
000000f0: 473e 463e 39bc 213e 0185 0abe aa85 d73d
00000100: 18be 493e 360d 6e3f d41b 353a 99c0 adbe
00000110: 0bbb 83be cceb 5cbd 5493 7fbd ba02 5dbe
00000120: 5e73 e1be 454a bf3e 7d2a 8fbe a7e6 a8be
00000130: 7af2 40be d3ae 1c3f f38f 5c3f 4e07 01be
00000140: 448f 883e c316 3ebe e27d dabe 2d85 16bd
00000150: 3c07 1ebf 2578 033e 046d 47bf cd75 bcbe
00000160: 6ae4 2a3f 3ac2 6abd 174b 643e b563 50be
00000170: 5bc8 bc3e 7ce1 20be 4b43 073f 59fe 603e
00000180: c4c0 6f3d e61b 51bf d61b 043a ae74 fa3e
00000190: 54d2 e83e a902 803e 9670 0a3d a7ac 9c3e
000001a0: 3af3 88be fdbe a9be db4f 30bf cc01 e6be
000001b0: b76b 5c3e d03d b33e d7e2 763e fe3e 11bf
000001c0: 9c9c 1f3f 6334 2cbf df1e c33e 031d 5c3f
000001d0: 6c71 b2bd 9664 66bf 4638 2d3d d6e2 81be
000001e0: 5d74 3dbe 369d 873c bc35 a93e d9d7 6f3d
000001f0: d481 4c3e 782c 473e a5e2 953e 075e bd3e
00000200: 8bc4 d9be 5733 093e 946f 243d 5c08 ad3d
00000210: 78c1 39bc dca9 ce3e ed8e 70bd 8e4a 31bd
00000220: 8312 543f afb3 62be bded 0d3e 85e0 353e
00000230: 65ea e0be fc9f 12bf 95b4 a1be 7250 433c
00000240: fd41 0d3e 8c5a 3abd dca3 45be 9195 0d3f
00000250: ff83 213e 9218 033f c09a 033f 54d4 8e3e
00000260: 412e a1be c493 4abd cd9c 2eb9 a300 953e
00000270: 2ed5 6bbd a082 6dbd 7744 6fbe 8a79 7abe
00000280: c8e1 48be 90cb d0bd 7861 1a3d 68f0 54be
00000290: b67b fdbe f89f 2dbe 60b4 86bd b924 77bd
000002a0: d32c f43e a40c 9f3f bf9b 2d3e a8dc 233e
000002b0: 1a1a e13a 8eca a33c f57d 913c 762f 403e
000002c0: 4d7f 853e 5256 ef3e 702c 98bd 5201 fdbe
000002d0: 2750 2f3f 38f6 5b3e d3f2 c4bc 32fe 933e
000002e0: 276f a93d a69d 843f cb7e e43d b3fe abbe
000002f0: 5ba9 fabd d25f 3abe 0d57 fcbe 7b16 b13c
00000300: 77c9 68bd 78a5 3abd f49d 94bc 73b6 eb3d
00000310: c14d fbbc a140 193d 405a a43d 1908 bc3a
00000320: f5c9 9ebd 17d2 013d 042d e0bc e625 dc3c
00000330: 842c a5bc 5af4 183d 431a 023c 1586 fd3c
00000340: 745f 39bc 239e a23d e02f 053d 4d3f e2bc
00000350: 5368 1dbd c437 34bc afd5 893d 5af1 9eba
00000360: 6873 a53c a843 e23c 4cab 7fbd c32e 803d
00000370: 195d 88bc 33e5 7d3d 742d 97bc 65b0 9dbd
00000380: efe4 4a3d a59f e3bc 5906 93bc 17ea a5bc
00000390: 493c 053b b42f d8bd c306 7d3c f581 93bd
000003a0: 5f58 b8bc c7b2 043d 3ec1 873c 0e64 4ebc
000003b0: 09c3 8abd a0c1 e6bd 8dc8 cabd 7055 0c3b
000003c0: d813 eb3c da4b 55bd cbf8 7bbd 09b8 a23c
000003d0: 02c4 b73a 6ab3 803c f5b2 0f3d 0991 d8bb
000003e0: 0002 043d 4269 283d c225 fd3b 3601 8fbc
000003f0: 10d2 40bd 58d9 b6bd b585 a4bd d83b cd3d

decoder.rnn.bias_ih_l0 f4 [256]
0.6598968 0.5140679 0.5994855 1.3724495 1.3453023 0.39826196 1.2550882 1.3683869
0.6758455 0.33727548 0.9274735 0.38560495 0.5615226 0.3713394 0.21352558 0.64149195
0.30413264 1.1729679 0.5950713 1.26529 1.0247808 1.0121667 0.22670387 0.4227034
0.36322132 0.43569133 1.4256473 0.4534822 0.28723767 1.2325654 0.2967949 1.2184796
0.8867448 0.2957462 0.9175746 0.34109846 0.6788471 1.4544349 0.4240347 1.029668
0.8779668 0.39481962 0.37934425 0.16983981 0.75497985 1.3328373 1.2872058 0.7189832
0.9930039 0.44566187 1.2919731 1.257713 0.32821262 0.17921132 0.29154208 0.22669905
0.95641667 0.37405816 1.3150475 0.63344586 1.2605733 1.2725478 0.6234982 0.8025805
0.17279996 -0.114637695 0.02720292 0.15337433 0.13480358 -0.13825002 0.17183459 0.21464275
-0.0010359557 -0.02098106 -0.12088556 0.13989146 -0.025821827 0.15828444 -0.14020044 0.17123426
0.12851238 0.22706434 0.13210161 0.18411052 -0.036111902 0.11215545 0.1673521 -0.15475552
-0.05800869 0.0013209636 -0.08402916 0.2840864 -0.02771495 0.1756972 0.05625173 0.025979009
-0.0025416838 0.11741799 -0.12808686 0.14346696 -0.05000916 0.21356498 0.0973542 0.07793253
0.0072236555 -0.3232817 0.10430073 0.092177756 0.33573624 0.19539519 0.05983459 0.23654334
0.38328582 0.28136343 -0.07544544 0.15931307 0.052375413 -0.13943347 -0.23460247 -0.118196145
0.016512314 0.07247589 -0.055494934 -0.029159842 0.18269712 0.24104178 0.36970344 0.06359456
-0.16948114 0.43929458 -0.2070276 0.68153316 0.24292612 -0.17309608 0.5830127 0.25643635
0.1966933 0.17007789 0.22345409 -0.07124625 0.5125495 0.5453532 -0.30523258 0.6574622
0.4329049 0.8216494 0.479392 -0.02933777 -0.6882846 -0.29066333 -0.43876892 0.47660735
0.37111467 -0.16166693 -0.70791006 0.53941613 0.4391101 0.39806288 -0.07382642 -0.6416776
0.5427309 0.21293241 0.39793476 -0.3314975 0.58799094 -0.8355126 0.08414559 -0.6118458
0.008900214 0.17902566 -0.48401526 0.58703184 -0.8298881 -0.6360057 -0.75615776 -0.76361465
-0.6874496 -0.25954476 -0.6463555 -0.1587428 0.20421982 -0.49791244 0.3710714 -0.43118086
0.052368406 0.18688753 -0.7256566 0.46500286 -0.5211555 -0.7658309 -0.54538924 -0.34920207
1.6775875 1.2345219 0.678892 1.3281409 1.4355861 0.36065558 1.3353015 0.49336383
1.0826308 0.813205 1.203994 0.64817727 0.836209 0.5418304 0.35915264 1.1987113
0.019061347 1.074706 0.41579607 0.63154787 1.5006117 0.5630373 0.92826676 0.13962942
0.15115318 0.5529387 1.5578414 1.3684553 0.53278464 1.3099627 1.3342308 1.2825471
0.8432529 1.1075987 0.79907525 1.2108167 0.11554694 1.5489342 -0.043533266 1.6401863
1.0146486 0.71095186 0.34435353 0.561049 1.4769754 1.4120976 1.4715315 0.4740748
0.39591393 0.68412226 1.2565746 0.15885647 0.786228 0.5276277 1.4334493 0.681635
1.2512866 1.1194706 0.33863735 0.8231733 1.5453647 1.3577242 0.75403225 0.96500623
00000000: ffee 283f f499 033f e277 193f 6dac af3f
00000010: de32 ac3f fee8 cb3e bba6 a03f 4d27 af3f
00000020: 3604 2d3f 5faf ac3e e76e 6d3f 036e c53e
00000030: f2bf 0f3f 3320 be3e 73a6 5a3e d138 243f
00000040: 46b7 9b3e d023 963f 9856 183f 06f5 a13f
00000050: 042c 833f ae8e 813f 0f25 683e 946c d83e
00000060: 25f8 b93e ef12 df3e 9c7b b63f d22e e83e
00000070: d110 933e b4c4 9d3f 80f5 973e 24f7 9b3f
00000080: b501 633f 0c6c 973e 2be6 6a3f 75a4 ae3e
00000090: ecc8 2d3f ec2a ba3f 141b d93e 29cc 833f
000000a0: 6fc2 603f cc25 ca3e 6939 c23e 7dea 2d3e
000000b0: 5c46 413f 6a9a aa3f 29c3 a43f 480f 383f
000000c0: 8135 7e3f cb2d e43e 605f a53f bdfc a03f
000000d0: 7c0b a83e 2c83 373e 0145 953e cc23 683e
000000e0: b9d7 743f 8d84 bf3e 7a53 a83f 8229 223f
000000f0: 775a a13f d9e2 a23f 949d 1f3f ea75 4d3f
00000100: 79f2 303e 2bc7 eabd a8d8 de3c 290e 1d3e
00000110: f309 0a3e 6a91 0dbe 68f5 2f3e 4fcb 5b3e
00000120: e8c8 87ba 79e0 abbc d992 f7bd b53f 0f3e
00000130: 4c88 d3bc 5115 223e b490 0fbe 0958 2f3e
00000140: c098 033e 8e83 683e a545 073e 7887 3c3e
00000150: 13ea 13bd c2b1 e53d 595e 2b3e 3b78 1ebe
00000160: 859a 6dbd 2f24 ad3a 7b17 acbd c673 913e
00000170: 760a e3bc f7e9 333e 3768 663d eed1 d43c
00000180: 6192 26bb d878 f03d 3429 03be 01e9 123e
00000190: 68d6 4cbd c7b0 5a3e a461 c73d 179b 9f3d
000001a0: 6ab4 ec3b 2e85 a5be 9f9b d53d b1c7 bc3d
000001b0: 9fe5 ab3e ad15 483e 1d15 753d 6b38 723e
000001c0: 0a3e c43e de0e 903e 2483 9abd f722 233e
000001d0: 9a87 563d a6c7 0ebe a13b 70be d210 f2bd
000001e0: d544 873c 3d6e 943d a84e 63bd 9fe0 eebc
000001f0: f414 3b3e a8d3 763e c549 bd3e dd3d 823d
00000200: 778c 2dbe 38eb e03e 0bff 53be f578 2e3f
00000210: a0c1 783e 1940 31be 5240 153f a04b 833e
00000220: f869 493e e628 2e3e 26d1 643e 8ee9 91bd
00000230: 7236 033f 449c 0b3f 7247 9cbe 714f 283f
00000240: b6a5 dd3e 9d57 523f de72 f53e c355 f0bc
00000250: 6b33 30bf d3d1 94be 52a6 e0be e105 f43e
00000260: be02 be3e 048c 25be 9839 35bf 2d17 0a3f
00000270: 0ad3 e03e e6ce cb3e 4e32 97bd fc44 24bf
00000280: 6af0 0a3f f40a 5a3e 1bbe cb3e 0aba a9be
00000290: 9386 163f 27e4 55bf 8654 ac3d eda1 1cbf
000002a0: 34d2 113c 8152 373e d9d0 f7be b847 163f
000002b0: 8c73 54bf 45d1 22bf 8e93 41bf 407c 43bf
000002c0: b2fc 2fbf 0de3 84be 8e77 25bf 798d 22be
000002d0: 001f 513e 61ee febe 12fd bd3e bdc3 dcbe
000002e0: 4180 563d 725f 3f3e a2c4 39bf db14 ee3e
000002f0: 726a 05bf 7e0d 44bf a19e 0bbf 9dca b2be
00000300: 30bb d63f d004 9e3f decb 2d3f 8500 aa3f
00000310: 49c1 b73f d9a7 b83e 29eb aa3f 2f9a fc3e
00000320: a593 8a3f 342e 503f 7a1c 9a3f f2ee 253f
00000330: cb11 563f 66b5 0a3f dbe2 b73e 5f6f 993f
00000340: 8b26 9c3c f78f 893f 39e3 d43e 1fad 213f
00000350: 0b14 c03f 3623 103f e4a2 6d3f 04fb 0e3e
00000360: e6c7 1a3e 648d 0d3f 5967 c73f 8b29 af3f
00000370: 9364 083f dcac a73f 13c8 aa3f 812a a43f
00000380: 6cdf 573f cbc5 8d3f 3290 4c3f 0bfc 9a3f
00000390: e0a3 ec3d 7a43 c63f f04f 32bd a0f1 d13f
000003a0: 01e0 813f f100 363f 1b4f b03e e8a0 0f3f
000003b0: 880d bd3f 9dbf b43f 255b bc3f efb9 f23e
000003c0: 3bb5 ca3e a322 2f3f 70d7 a03f 45ab 223e
000003d0: 3d46 493f 9c12 073f 447b b73f a27f 2e3f
000003e0: 292a a03f d04a 8f3f e061 ad3e 7cbb 523f
000003f0: 83ce c53f e8c9 ad3f 4208 413f a60a 773f

decoder.rnn.bias_hh_l0 f4 [256]
0.64912266 0.48746946 0.5051326 1.4928575 1.3580401 0.5446866 1.2682279 1.3024938
0.8379748 0.43136525 1.0207568 0.3860075 0.5007841 0.39823943 0.34626994 0.6592233
0.30770513 1.1735238 0.5694501 1.0911927 0.9881262 0.94448197 0.26941994 0.49437997
0.31226608 0.40825248 1.3971826 0.4468784 0.35737833 1.2055413 0.38956228 1.1683433
0.74959075 0.4816598 1.0096529 0.3903079 0.6105055 1.4258091 0.35308218 0.92358077
0.9799711 0.41348132 0.59270924 0.13051891 0.70088166 1.2810661 1.1598237 0.73607033
1.0867069 0.33782858 1.2775327 1.1699913 0.4302148 0.26209778 0.40172592 0.44515032
0.9304159 0.4045643 1.2904645 0.44477126 1.2229769 1.3326259 0.5965986 0.783207
0.33347046 -0.046636596 0.13715017 0.0150247235 0.159987 -0.23641534 0.25754717 0.14079075
-0.029220695 -0.10299543 -0.16501996 0.17733066 0.07801228 0.12369185 -0.018224254 0.016631987
0.1162461 0.20324354 0.15825859 0.26994097 0.14323406 0.001903223 0.1309996 -0.1563308
-0.05812898 -0.02235551 0.038996853 0.3823104 0.065627895 0.04083446 0.05016391 0.07691661
0.005581055 -0.020882064 -0.13172933 0.16335212 -0.003735596 0.19728544 0.14601694 0.2975071
0.07078782 -0.18810163 0.014282795 -0.013592462 0.17527999 0.1325762 0.1866974 0.1650161
0.30782527 0.32233936 -0.09068464 0.121046536 0.010876131 -0.14847468 -0.29663205 0.0433521
-0.06980464 -0.042657685 -0.16704373 0.035544578 0.24243389 0.24208884 0.36985594 0.12292139
-0.09107812 0.42242005 -0.32047367 0.77284783 0.155251 -0.22871332 0.66926235 0.4096625
0.07978462 0.33228135 0.3515674 -0.22874518 0.47868532 0.6284226 -0.3887053 0.5849367
0.3701064 0.69252086 0.4697325 0.0063758832 -0.73899734 -0.39824638 -0.5094833 0.44605213
0.51002836 0.016008087 -0.75210756 0.59690815 0.47518858 0.5383505 0.06270245 -0.7351438
0.486281 0.20539887 0.30704054 -0.17120636 0.51570433 -0.82694507 0.15726656 -0.69853127
0.04734432 0.095749445 -0.48138502 0.4365973 -0.7392044 -0.6298149 -0.74373674 -0.75856036
-0.6583847 -0.4014786 -0.6679773 -0.3236007 0.027391078 -0.37419036 0.37290213 -0.33324698
0.18847401 0.15521069 -0.7875434 0.29839933 -0.6155019 -0.7492983 -0.64971554 -0.23191217
1.7230984 1.2424786 0.54308826 1.4511062 1.4680877 0.4548855 1.3748814 0.3873382
1.0036062 0.69980234 1.1818353 0.5729422 0.7221117 0.43061686 0.43812087 1.1063274
-0.070558034 1.1224498 0.5443851 0.6221886 1.5644155 0.6728605 0.8620589 0.12039333
0.30017722 0.57117665 1.4938201 1.2998915 0.56875753 1.2097317 1.3936939 1.2068233
0.7014555 1.002371 0.82784605 1.3093954 0.14623435 1.4376549 0.03047303 1.5275915
0.87270707 0.6849628 0.4520069 0.60528153 1.4657053 1.4453819 1.3243268 0.6409788
0.5889071 0.69467443 1.340094 0.11090642 0.9125443 0.33699092 1.4946232 0.4912587
1.3342978 1.0628132 0.42644152 0.9400412 1.5547335 1.4313726 0.78822666 0.8993295
00000000: e72c 263f 9995 f93e 5f50 013f f415 bf3f
00000010: 42d4 ad3f 9570 0b3f 4b55 a23f 1eb8 a63f
00000020: 8485 563f e8db dc3e 29a8 823f c6a2 c53e
00000030: 6333 003f 0ae6 cb3e 4b4a b13e dcc2 283f
00000040: 878b 9d3e 0736 963f 7bc7 113f 34ac 8b3f
00000050: d7f5 7c3f 92c9 713f 69f1 893e 5f1f fd3e
00000060: 57e1 9f3e 7806 d13e e1d6 b23f 3fcd e43e
00000070: 4bfa b63e 2d4f 9a3f b574 c73e 468c 953f
00000080: 2ee5 3f3f 1d9c f63e 4e3c 813f 70d6 c73e
00000090: 174a 1c3f ea80 b63f 30c7 b43e ca6f 6c3f
000000a0: 63df 7a3f d3b3 d33e cbbb 173f c0a6 053e
000000b0: fb6c 333f f9f9 a33f 1a75 943f 1b6f 3c3f
000000c0: 3619 8b3f def7 ac3e 3186 a33f 46c2 953f
000000d0: 1d45 dc3e ae31 863e 05af cd3e beea e33e
000000e0: bd2f 6e3f 0d23 cf3e f12d a53f 0fb9 e33e
000000f0: 828a 9c3f 7c93 aa3f b0ba 183f 4180 483f
00000100: a4bc aa3e 0406 3fbd 1871 0c3e 422a 763c
00000110: a2d3 233e dd16 72be 39dd 833e 732b 103e
00000120: 3d60 efbc 45ef d2bd fefa 28be 2b96 353e
00000130: e7c4 9f3d 2752 fd3d 084b 95bc ce3f 883c
00000140: 6f12 ee3d 131f 503e 8a0e 223e b435 8a3e
00000150: f3ab 123e 9175 f93a c224 063e 2e15 20be
00000160: a718 6ebd e722 b7bc 2abb 1f3d 30be c33e
00000170: eb67 863d 0942 273d ac78 4d3d 7586 9d3d
00000180: 48e1 b63b dd10 abbc 0ee4 06be c745 273e
00000190: e7d0 74bb 3205 4a3e 7785 153e da52 983e
000001a0: 34f9 903d b79d 40be 6202 6a3c ebb2 5ebc
000001b0: 997c 333e 0ec2 073e 9a2d 3f3e fbf9 283e
000001c0: 469b 9d3e aa09 a53e deb8 b9bd 3fe7 f73d
000001d0: cd31 323c bf09 18be 28e0 97be f991 313d
000001e0: bcf5 8ebd d3b9 2ebd 830d 2bbe 3197 113d
000001f0: 9740 783e 23e6 773e c25d bd3e 36be fb3d
00000200: 2a87 babd 7147 d83e 2015 a4be 5bd9 453f
00000210: 1efa 1e3e d333 6abe c754 2b3f 48bf d13e
00000220: 1e66 a33d c820 aa3e a400 b43e 2d3c 6abe
00000230: 3e16 f53e 4ee0 203f 6204 c7be 69be 153f
00000240: 967e bd3e 0c49 313f c780 f03e c9ec d03b
00000250: ee2e 3dbf f3e6 cbbe 7f6d 02bf f260 e43e
00000260: 3891 023f 6423 833c 1f8a 40bf f9ce 183f
00000270: eb4b f33e 57d1 093f 246a 803d 6232 3cbf
00000280: d3f9 f83e 1554 523e 6b34 9d3e b850 2fbe
00000290: 3305 043f acb2 53bf 7c0a 213e f2d2 32bf
000002a0: 1eec 413d 4918 c43d 1978 f6be ae89 df3e
000002b0: 803c 3dbf 8d3b 21bf 8865 3ebf 0331 42bf
000002c0: e68b 28bf 9a8e cdbe 8f00 2bbf feae a5be
000002d0: 4163 e03c e195 bfbe 07ed be3e 599f aabe
000002e0: 55ff 403e 8def 1e3e 729c 49bf ccc7 983e
000002f0: 8891 1dbf 03d2 3fbf c253 26bf 627a 6dbe
00000300: 7d8e dc3f 8a09 9f3f d507 0b3f d9bd b93f
00000310: 4cea bb3f c1e6 e83e 1dfc af3f 3151 c63e
00000320: 2b76 803f 3f26 333f 6146 973f 57ac 123f
00000330: 50dc 383f d079 dc3e 6151 e03e 239c 8d3f
00000340: bb80 90bd 6fac 8f3f d25c 0b3f c147 1f3f
00000350: c43e c83f 9640 2c3f e4af 5c3f c790 f63d
00000360: d4b0 993e a238 123f 7f35 bf3f d862 a63f
00000370: 189a 113f 7dd8 9a3f 9064 b23f 3079 9a3f
00000380: 9692 333f b14d 803f b8ed 533f 459a a73f
00000390: 75be 153e 1305 b83f 93a2 f93c 1e88 c33f
000003a0: bb69 5f3f b959 2f3f 736d e73e bbf3 1a3f
000003b0: 3b9c bb3f 4602 b93f 8a83 a93f 3017 243f
000003c0: 9ec2 163f 2fd6 313f 3388 ab3f e822 e33d
000003d0: 819c 693f 138a ac3e d04f bf3f 4386 fb3e
000003e0: 45ca aa3f 430a 883f 8b56 da3e 8aa6 703f
000003f0: 8201 c73f 3837 b73f 39c9 493f 753a 663f
