detector_dev/Process_I24_simulations/models/cnn_lstm_ae_i24_inflow_1200_detection_model.pt (torch, 129255 bytes, 12 tensors)

encoder.cnn.weight f4 [8, 4, 16]
000000 a4 f5 76 be 71 64 75 be 80 6a 73 be 15 25 71 be
       -0.24117142 -0.23964097 -0.23771095 -0.23549302
000010 b5 aa 6f be 04 1b 6f be 15 8e 6e be be 52 6e be
       -0.23404963 -0.2335015 -0.23296387 -0.23273751
000020 6e 01 6e be 04 fb 6c be 94 07 6c be e2 a6 6b be
       -0.23242733 -0.2314263 -0.23049766 -0.2301288
000030 93 d5 6a be da d0 6a be 9a 94 6a be e9 c5 6a be
       -0.22933035 -0.22931233 -0.2290825 -0.22927059
000040 0b f5 e4 3d e7 eb ad 3d 84 7c 8d 3d 8e b0 95 3d
       0.11179551 0.084922604 0.06908515 0.07309066
000050 c6 4b 7b 3d 3a e8 80 3d 62 5a 8a 3d 3a 70 86 3d
       0.06135156 0.06294294 0.067555204 0.06564374
000060 bb 42 78 3d e6 5c 88 3d a3 07 8e 3d 63 af a3 3d
       0.060610514 0.06658344 0.0693505 0.07992437
000070 76 e3 bc 3d 8c 28 bd 3d ae 03 ab 3d 23 6e 94 3d
       0.09223072 0.09236249 0.08350311 0.072475694
000080 42 cc f9 be 5b c1 e7 be a8 64 df be b6 29 cd be
       -0.4878865 -0.45264706 -0.43631482 -0.40070885
000090 c1 ec d2 be 31 7a b6 be ed 5f bf be e9 f1 b4 be
       -0.41196254 -0.356401 -0.37377873 -0.35340813
0000a0 25 37 b8 be 20 56 b7 be 48 43 af be e1 76 b6 be
       -0.35979572 -0.35807896 -0.3423102 -0.35637572
0000b0 0b 32 af be 37 06 a7 be 79 76 a6 be f9 07 b0 be
       -0.34217867 -0.3262193 -0.32512262 -0.34381083
0000c0 2a 58 74 3e 77 5e 81 3e 16 4e 89 3e 9d 6e 72 3e
       0.23861757 0.25267383 0.26817387 0.23675008
0000d0 30 51 5d 3e cc 0b 65 3e 36 ce 6a 3e df e3 5c 3e
       0.21613002 0.22367781 0.22930226 0.21571301
0000e0 54 31 49 3e f1 15 65 3e c2 49 4c 3e ad 5e 58 3e
       0.19647723 0.22371651 0.19950011 0.21129866
0000f0 1f f5 34 3e c0 cf 27 3e 0d cf 17 3e e3 99 04 3e
       0.17671631 0.16387844 0.14825077 0.12949328
000100 b0 36 b0 3e b3 0b b0 3e 83 d5 af 3e 48 c2 af 3e
       0.34416723 0.34383926 0.34342584 0.34327912
000110 4d a5 af 3e 25 9e af 3e a4 5d b0 3e 15 22 b1 3e
       0.34305802 0.34300342 0.34446442 0.34596315
000120 d4 cb b1 3e 40 23 b2 3e 5f 2d b2 3e b3 d4 b1 3e
       0.3472582 0.3479252 0.3480024 0.3473259
000130 e2 c6 b1 3e 5c dc b1 3e 40 ab b1 3e 6c 78 b1 3e
       0.34722048 0.34738433 0.34700966 0.34662187
000140 6a 00 2c 3f 2e 9d f5 3e 85 27 ef 3e 26 75 3a 3e
       0.6718813 0.4797148 0.46709839 0.18208751
000150 7e 7b de bd 79 98 fb 3d 3f bb 91 3e 52 5e a0 3d
       -0.10863398 0.12284941 0.2846317 0.0783049
000160 b1 3e 51 3c 1f 7e a0 bd 8b ea 3d be b0 3e 1b be
       0.012771294 -0.07836556 -0.18546502 -0.15160632
000170 c0 0c e3 3d 19 82 f6 3d a6 ff 01 3d 4f b5 9f 3d
       0.11086416 0.12036533 0.031737946 0.07798254
000180 b9 7c 88 3e f5 26 ab 3e 1c 3d b3 3e 15 96 a7 3e
       0.26657656 0.3342816 0.3500756 0.3273169
000190 8a ba 6e 3e 18 3a 72 3e 81 83 8b 3e 1c 99 85 3e
       0.23313347 0.23654974 0.27248767 0.26093376
0001a0 91 56 83 3e e5 9f 6d 3e da a9 87 3e ab f8 8b 3e
       0.25651982 0.23205526 0.26496774 0.27338156
0001b0 95 c6 86 3e 8e 4e 88 3e 3b 2a 91 3e ca 90 94 3e
       0.2632338 0.26622432 0.28352532 0.29016715
0001c0 53 87 1a 3b 0b 9b be 3d 3f 99 b5 3d 69 ed 4e 3d
       0.0023579195 0.09306916 0.0886712 0.05051938
0001d0 73 c3 27 bc 97 cb b6 bd 0a 76 9d bd 67 19 ed bd
       -0.01023947 -0.089255504 -0.0768853 -0.11577111
0001e0 3d 05 00 be 36 b5 c2 bd 49 76 aa bd 4e 18 02 be
       -0.12501998 -0.095072195 -0.08323342 -0.12704584
0001f0 b3 a5 d6 bd 33 aa 7e bd 68 b4 3f 3c 2c b9 cb bc
       -0.10480823 -0.062174033 0.011700727 -0.02486857
000200 d8 73 82 be 7b f5 82 be 91 38 83 be b8 8a 83 be
       -0.25479007 -0.25577912 -0.25629094 -0.25691772
000210 de 32 84 be b1 5b 84 be d2 7f 84 be c2 dd 84 be
       -0.2582006 -0.25851205 -0.2587877 -0.25950438
000220 25 cb 84 be 64 c6 84 be 9b c1 84 be a0 52 85 be
       -0.25936237 -0.2593261 -0.2592896 -0.260396
000230 ba 0f 85 be a9 e6 85 be d6 5e 86 be 90 d3 86 be
       -0.2598856 -0.26152542 -0.2624423 -0.26333284
000240 c8 c3 8a be 4b b0 9a be 86 47 7e be 96 73 16 bf
       -0.27102494 -0.30212626 -0.24831972 -0.5877012
000250 2e 62 07 bf 3b 46 8b be d6 0c 6d be 1c d5 bc be
       -0.52884185 -0.2720202 -0.23149428 -0.3688134
000260 78 ea 31 be ae 54 ec 39 10 c5 ad be 50 68 86 be
       -0.17374599 0.0004507652 -0.3393941 -0.2625146
000270 2c 03 81 be 09 4b 22 bf bb 7d 1c bf 17 6d 9a be
       -0.25197732 -0.63395745 -0.6112935 -0.30161354
000280 9c 97 69 bb 71 8f cf bd 7a 6e 17 be e3 3f b4 bd
       -0.0035643345 -0.10134781 -0.14788237 -0.08801248
000290 f2 c2 9e bd e7 74 d2 bd 0d a0 cc bd c8 cc bb bd
       -0.077520266 -0.102762036 -0.09991465 -0.09169918
0002a0 0b 30 de bd c3 54 ef bd f1 81 89 bd 4e 6e da bd
       -0.10849007 -0.11686089 -0.067142375 -0.1066557
0002b0 16 01 d1 bd 2a 6f 9a bd 85 b3 67 bd 6b 8b 47 bd
       -0.10205285 -0.07540734 -0.056567688 -0.048716944
0002c0 90 40 05 bf 8a 2e c4 be 0a 6f ee be a9 77 0b bf
       -0.5205164 -0.38316756 -0.4656909 -0.5447946
0002d0 ec 09 e4 be 48 d6 d0 be 91 20 05 bf e7 48 0b bf
       -0.4453882 -0.40788484 -0.5200282 -0.54408115
0002e0 dd 1b 18 bf 1d 5f 1e bf cd d1 1c bf d9 93 00 bf
       -0.59417516 -0.6186388 -0.6125763 -0.502256
0002f0 ae 37 14 bf b8 10 1b bf 81 ea 10 bf 6e 88 ec be
       -0.5789746 -0.60572386 -0.56607825 -0.46197838
000300 85 01 6a 3d ad fe 6b 3d a1 0c 69 3d 80 48 69 3d
       0.057130355 0.057615925 0.05689681 0.056953907
000310 01 96 68 3d 65 c0 6b 3d 78 c9 6b 3d 14 7c 71 3d
       0.05678368 0.05755653 0.057565182 0.05895622
000320 39 71 74 3d 6f 2a 77 3d 5a 1a 79 3d 4d 8c 7a 3d
       0.05967829 0.060343202 0.060816146 0.061168958
000330 47 8c 7a 3d 2c ca 79 3d e7 45 7c 3d 22 d7 7c 3d
       0.061168935 0.06098382 0.0615901 0.061728604
000340 8e 82 c7 bd 0c cf 0b 3d 6d 96 ea 3c 6c 7a cd bb
       -0.09741698 0.034133002 0.028636182 -0.0062706973
000350 b7 79 80 3d 11 59 fa 3d a2 a2 0b 3d 9f 57 e7 3d
       0.06273215 0.12224019 0.034090646 0.11296009
000360 69 5b 7a 3d 67 99 23 3e 1d 29 4d 3e 4b 41 10 be
       0.06112233 0.15976487 0.20035215 -0.14087407
000370 8b 86 35 be bd 60 34 3e 9d 81 94 3c ad 95 47 bd
       -0.17727105 0.17615028 0.01812821 -0.048726726
000380 4b 31 9c 3e 70 4c 3f 3e 08 24 0c 3e 73 1d bc 3d
       0.30506358 0.18681502 0.1368562 0.091853045
000390 a1 d5 02 3e 68 cd f1 3d 66 26 f7 3d 19 72 db 3d
       0.12776805 0.11806756 0.12067871 0.10715122
0003a0 c2 6f 98 3d 0e 10 bd 3d a0 b9 39 3e 9c d6 a4 3e
       0.07443191 0.09231578 0.18137217 0.32194984
0003b0 16 82 03 3e 0f 31 e2 3d f1 11 81 3d 56 bb a3 3d
       0.12842593 0.110445134 0.0630225 0.07994716
0003c0 7d 98 aa be d3 29 a6 be 06 b8 6b be 2f ec 8c be
       -0.33319464 -0.32453784 -0.23019418 -0.27523944
0003d0 8a 14 8a be eb 6a 98 be a4 32 7e be fd b6 9a be
       -0.26968795 -0.29769072 -0.24824005 -0.30217734
0003e0 bd 8e 76 be ec e4 52 be 25 fd 4a be c1 b5 3b be
       -0.24077888 -0.2059514 -0.1982313 -0.18331052
0003f0 d2 56 88 be 98 4f bd be af ab b5 be cb 25 a4 be
       -0.2662874 -0.36974788 -0.35482547 -0.32060084

encoder.cnn.bias f4 [8]
000000 94 cc ae bd 6e 24 0e 3f 00 32 56 bf 7b 1c 43 3f
       -0.08535114 0.5552434 -0.83670044 0.7621533
000010 e3 2a 24 3f 4d 19 2a 3f db 36 e4 3d 63 e8 44 be
       0.6412794 0.66444856 0.11143275 -0.19229273

encoder.rnn.weight_ih_l0 f4 [128, 8]
000000 45 21 b7 3d 4a a5 78 3d aa 72 81 3d e7 5a f7 3d
       0.089418925 0.060704507 0.063206986 0.12077885
000010 2c 46 49 be 1f 80 9f be a4 a7 d2 3d 88 0a 72 3e
       -0.19655675 -0.31152436 0.10285881 0.2363683
000020 56 5c 8f 3e f9 1e 0d 3e fb ac 23 3e f8 86 24 bd
       0.28000134 0.13781346 0.15983956 -0.04016778
000030 34 24 66 3d de 5f 1f bc 6f cc a3 bc a0 44 64 3e
       0.05618687 -0.009727446 -0.019994942 0.22291803
000040 0a 1f 0c bc 58 20 17 bd d5 d7 16 be c7 1c 04 be
       -0.008552322 -0.03689608 -0.14730771 -0.12901603
000050 b1 01 cc bc b1 58 c9 3d bc 09 5c bd 18 b8 47 be
       -0.02490315 0.0983137 -0.05372022 -0.1950382
000060 90 69 8d 3e fb b5 1f 3e 46 2b e7 3c 6d 43 f1 3c
       0.276196 0.15596764 0.028218877 0.029451096
000070 c1 02 17 3d 6e cc b7 bc 9a 8d 6a bc 89 99 7c bd
       0.03686786 -0.022436347 -0.014315987 -0.06166986
000080 78 aa c2 3e af f9 8a 3e a7 14 bb 3d 38 b7 0d 3e
       0.38020682 0.27143618 0.091347985 0.13839424
000090 67 61 ca bc 1f 98 33 be db 55 38 3e 29 e6 c5 3d
       -0.024704648 -0.17538498 0.18001501 0.0966304
0000a0 70 7b c4 3e 1f 90 86 3c c7 24 33 3c a8 a8 2c be
       0.38375425 0.016426144 0.010934061 -0.16861212
0000b0 0f 0a 39 be 54 f7 b5 bd 3c b1 ef bd a1 27 bf bd
       -0.18070243 -0.08885065 -0.11703727 -0.093337305
0000c0 84 5a 8e 3d e4 f9 a9 bc 7b 18 11 be 3c 8c 78 3c
       0.06950858 -0.02074904 -0.14169495 0.015170153
0000d0 dc 87 e4 3c 3a bf be bd ae a6 8b bd 5d 9e 1a 3d
       0.027896814 -0.09313817 -0.06818901 0.037748683
0000e0 85 59 cc 3d 44 5d 9e 3d 96 7f c8 3a a2 c2 86 3d
       0.09978012 0.07732633 0.0015296813 0.06580092
0000f0 99 a3 6b 3c 46 be 63 be 8a 90 4f be 26 83 d2 bd
       0.014382266 -0.22240552 -0.20269981 -0.10278921
000100 77 7e 81 3e f6 90 02 3e 0d bb 15 bd 6f 05 87 bd
       0.25291798 0.1275061 -0.03655534 -0.06592833
000110 51 06 ba bc 45 07 07 3d 9f fd 46 be f5 5e 44 be
       -0.02270809 0.032965917 -0.19432686 -0.19176848
000120 5b 7c 3c be db bf d0 bd 24 90 90 bd 7d f8 2e 3d
       -0.18406813 -0.101928435 -0.07058743 0.042717446
000130 72 36 03 3e be 09 d0 bd 3b 81 0c 3e 33 b8 a1 bd
       0.12813738 -0.10158108 0.13721173 -0.07896461
000140 38 db a2 be 87 5e d2 bd 7c 67 b0 bd ff c7 35 3d
       -0.31807876 -0.10271936 -0.08613488 0.044380184
000150 99 33 89 3d 88 db 49 bd f8 fe 52 be ff 06 c5 bd
       0.066992946 -0.049281627 -0.20605075 -0.09620475
000160 4e a9 82 bc 14 87 6b be d3 95 a7 3d 9d 59 08 3e
       -0.015949871 -0.23000747 0.081828736 0.13315435
000170 ab 76 2e 3e d4 c5 4a bd bc 2c db 3c 07 d0 95 be
       0.17037456 -0.04950507 0.02675473 -0.29260275
000180 e6 90 f4 3d 19 a0 a5 3b bb 9d 09 bc 76 84 f0 3d
       0.119417 0.0050544855 -0.008399422 0.11744015
000190 b3 12 f2 3d d6 50 c6 3d 2f da 2e 3e da 6f 93 3e
       0.11819973 0.09683387 0.17075418 0.28796273
0001a0 19 91 28 be e4 4f 92 be e2 32 31 be 09 87 02 be
       -0.164616 -0.28576577 -0.17304567 -0.12746824
0001b0 96 fa c6 3d cb 5f bd bd 39 c6 57 3d d5 82 35 3e
       0.09715764 -0.09246787 0.052679274 0.1772569
0001c0 c9 31 be be f0 33 90 be d9 64 44 be b4 e8 8c bd
       -0.37147358 -0.28164625 -0.19179095 -0.06880322
0001d0 ee db 37 3d eb a5 21 3c 0b 0d e5 bd 25 25 81 bc
       0.044887476 0.009866218 -0.111841284 -0.015764782
0001e0 90 dc 89 3e 13 de 18 bc b5 fe a2 bd 16 d0 91 3d
       0.26926088 -0.00933029 -0.07958738 0.07119767
0001f0 2e 82 9f 3d 07 4c ae bd 7d 83 9b bd fe 81 d1 be
       0.07788502 -0.08510595 -0.07593439 -0.4091949
000200 f3 9e 70 be 84 e3 43 be bd e2 ed bd fd 78 50 bd
       -0.23498134 -0.19129759 -0.116155125 -0.050896633
000210 38 8d 6d 3d 3d 78 5b 3e 5a 5f 1e 3e 97 10 c1 bd
       0.057996005 0.21432586 0.15466061 -0.094269924
000220 3d 3e 54 3e 24 a1 41 3e 13 3e 3b 3d 60 05 f9 3d
       0.20726867 0.18909127 0.045713495 0.12159228
000230 81 a9 bf 3d 7c ad d8 bc 8b 8c 90 bd 45 f5 83 be
       0.09358502 -0.026449911 -0.070580564 -0.25773063
000240 4d 45 68 3b 88 cf 9a bd 49 94 04 bd 75 54 bc 3c
       0.0035441697 -0.07559115 -0.03236798 0.022989491
000250 f0 ec 41 3d 89 18 6e bd ce f2 8f 3b da ed 81 bd
       0.0473451 -0.058128867 0.0043929582 -0.06344195
000260 33 43 82 3e ac 24 53 3d e4 fe 00 3d 7e 01 0c be
       0.25441894 0.051548645 0.031493083 -0.13672444
000270 61 c5 f9 be 9c c2 e8 be 03 b3 b8 bd 82 22 81 3c
       -0.487834 -0.45460975 -0.09018519 0.015763525
000280 9b d0 cf 3c 7f 65 77 bd b8 96 22 3d 2c 54 1f be
       0.025368026 -0.06039953 0.039694518 -0.15559453
000290 c1 b6 c5 bd 82 12 34 be 2f 94 99 be 51 f5 93 be
       -0.09653998 -0.17585185 -0.29995868 -0.288981
0002a0 ca 76 f6 3d 4b dc 04 be ab ef 8e be c6 42 04 be
       0.12034376 -0.1297466 -0.27917227 -0.12916097
0002b0 c4 10 6e be 66 b8 62 be cc 60 29 3e f0 a0 3a 3e
       -0.23248583 -0.22140655 0.16540831 0.18225455
0002c0 f2 72 fd bc 25 f2 00 be 18 a0 17 be 93 0e 82 3d
       -0.0309386 -0.12592371 -0.14807165 0.06350436
0002d0 89 78 0d 3d c5 cf af bc 70 5e f9 bc 95 89 b2 3d
       0.03453878 -0.021461377 -0.03044054 0.08717648
0002e0 0b 0a 69 3e 90 de 3b 3e 3d 95 0e 3e fd fb 0f 3e
       0.22757737 0.1834662 0.13924117 0.1406097
0002f0 b7 36 82 3d c7 e8 01 3d 9d b1 01 3d 24 2c 99 3d
       0.06358092 0.031716134 0.031663526 0.07479122
000300 b9 e9 24 3c 4e cb 25 3e 78 1c 58 bb 11 73 33 be
       0.010065489 0.16190836 -0.0032975953 -0.17524363
000310 2c 0b 86 be ea 57 4a be 38 05 8f be 80 e7 bc be
       -0.26180398 -0.19760099 -0.2793367 -0.3689537
000320 83 9b 74 3e 30 89 ff bc 58 fd ff bd a5 be 94 bd
       0.23887448 -0.031193346 -0.12499493 -0.07262925
000330 b0 2c 37 3e 19 86 dd 3d 39 d2 d1 bd 80 31 54 bd
       0.1788814 0.10816593 -0.10245175 -0.05180502
000340 80 85 70 3e f0 aa 1c 3e dd df ac 3d 2a ae 69 bd
       0.23488426 0.15299582 0.08441136 -0.05705086
000350 cc c7 44 3c 99 00 7a bc bc 54 81 bd a7 e4 23 be
       0.012010526 -0.015258932 -0.0631499 -0.16005193
000360 e3 7a 47 be 08 40 39 be fa f8 0f 3d d6 03 85 3d
       -0.19480471 -0.18090832 0.035149552 0.06494872
000370 51 3b 5c bd 07 30 7c 3c 4b 26 11 3e 1c e2 fd 3d
       -0.053767506 0.01539231 0.14174764 0.123966426
000380 28 8d 25 3f 1c 1b 14 3f 11 e6 30 3e 51 20 b3 3e
       0.6466851 0.57853866 0.17275263 0.34985593
000390 76 0e 8a 3e 23 d3 93 3d f0 0e a4 3d e7 83 44 be
       0.26964158 0.072180055 0.080106616 -0.19190942
0003a0 b2 bd 66 be 31 2c a9 bd 85 b6 8c 3d 3d e7 cf bd
       -0.225333 -0.08260382 0.0687075 -0.10151527
0003b0 72 69 f5 bc 86 4f d7 bc 5c ae a7 3e 7c fb 8e 3e
       -0.029957507 -0.026283037 0.32750213 0.27926242
0003c0 0e 52 fd 3a 93 49 37 3e e9 31 a4 3e 0c 2c 6b 3e
       0.0019326822 0.1789916 0.32069328 0.22966021
0003d0 78 5b c8 3e f5 14 65 3e 8a 1e c2 3d f3 9c d7 3d
       0.39132285 0.22371276 0.09478481 0.105279826
0003e0 80 1b 82 3e d9 d8 41 3e cb 41 da 3d ad 59 b8 3d
       0.25411606 0.18930377 0.1065708 0.09001479
0003f0 cb bd 80 be 45 e4 9d be 21 56 48 be 6e c0 38 be
       -0.251448 -0.30838218 -0.19564106 -0.18042156

encoder.rnn.weight_hh_l0 f4 [128, 32]
000000 95 10 24 3e 7e 15 7e bd 8e 23 8e 3f 7b 1c 9a bf
       0.1602195 -0.062032215 1.11046 -1.2039942
000010 56 b7 69 3f 22 60 fb bc 5a 88 0c 3f 2b 8f 0e 3c
       0.91295373 -0.030685488 0.54895556 0.008701126
000020 68 a7 be 3c eb 63 5d be 94 b4 5e be 55 10 53 be
       0.023273185 -0.21620147 -0.21748573 -0.20611699
000030 b8 f8 49 be 8c 4e 46 bf 1e b9 54 3f ac 38 a5 3e
       -0.19723785 -0.77463603 0.83094966 0.322698
000040 60 04 b2 3f ee a0 52 3e 2e 57 8d be 6c a4 31 3d
       1.3907585 0.20569202 -0.27605575 0.043369696
000050 46 c0 32 3e 42 0d 91 3e 12 a5 d0 be 27 78 8a 3e
       0.17456159 0.28330427 -0.4075094 0.27044794
000060 b5 31 84 be 38 9d ed be 42 5e af 3e 0a 9f 84 3f
       -0.25819173 -0.4640901 0.342516 1.0361035
000070 20 1d 4b be 68 a8 2c bf 9a 3e 35 3e 3c 73 38 3f
       -0.19835329 -0.6744447 0.17699662 0.72050834
000080 2f fc fa 3e 21 4f 25 3e 5d 6a cd bd 8e 65 85 3f
       0.49020526 0.16143467 -0.10030053 1.0421617
000090 39 3d 3c bf 20 ef c1 be 6d 53 5d 3f 53 bd 51 be
       -0.7353092 -0.3787775 0.8645542 -0.20482378
0000a0 24 24 51 bf cc bd 02 bf 8f 7f 43 3f df 11 10 3f
       -0.8169577 -0.5107086 0.76366514 0.5627727
0000b0 6f 41 40 3f 38 eb 73 bf bd fc 8a be 29 df 9c 3e
       0.75099844 -0.9528079 -0.2714595 0.30639008
0000c0 b6 9b ff be e4 1c ae 3e 77 9a bc 3d 88 8b eb be
       -0.49923486 0.34006417 0.09209149 -0.4600489
0000d0 b2 b2 04 bf d5 c8 44 3e 15 cc 3f bc f0 2d 2d 3d
       -0.5183517 0.19217236 -0.011706372 0.042280138
0000e0 80 1f 0e bf 7f c2 a3 bf 0c 6b 03 3d 62 46 86 3e
       -0.55516815 -1.279373 0.03208451 0.26225573
0000f0 07 0d e9 3f ae fe 12 3f 44 45 21 3f 5c 7c 2b be
       1.8207101 0.5741986 0.62996316 -0.16746658
000100 c0 6e d0 be 26 c3 ee 3f e3 6d 81 3e 90 54 a4 3f
       -0.40709496 1.8653305 0.2527915 1.2838306
000110 4b ea b8 bf fd 8b a0 bf 4c 7c 2c 3e 32 8c f9 3e
       -1.44465 -1.2542721 0.1684429 0.48739773
000120 b5 d8 70 be 94 be 90 bd 3b 55 2d bf 4b be 29 3e
       -0.23520167 -0.070676 -0.67708176 0.16576497
000130 19 22 21 be 69 52 51 3f 34 d0 01 3f b7 84 21 be
       -0.15735663 0.8176637 0.5070832 -0.15773283
000140 1a f2 a6 be 5f 47 23 3e 33 22 54 be 02 32 d5 bc
       -0.32606584 0.15945195 -0.20716171 -0.026024822
000150 af ab 84 bd e5 23 10 3f ac a4 6a 3d af 34 e9 bd
       -0.064780585 0.5630477 0.05728595 -0.11387002
000160 79 4c ef bd 6a 97 0a 3b ac e9 80 bf 56 cd fb bd
       -0.11684508 0.0021147379 -1.0071311 -0.12295024
000170 ed 92 cf 3e 6c 7c a5 3f 08 f9 0d bc 78 ff 80 bf
       0.40541783 1.2928596 -0.008665331 -1.0077963
000180 1a 63 91 3f 7f a2 c8 be d7 3f ef be 4c 8c d6 3e
       1.1358368 -0.39186475 -0.46728393 0.41903913
000190 3c bb 4a bf 76 a6 fb 3e b4 88 02 3f 34 d5 d0 be
       -0.79191947 0.49150437 0.5098984 -0.4078766
0001a0 2a 3c de be 59 91 d9 be c5 50 27 be 1c 7f 1a 3f
       -0.43405277 -0.42493704 -0.16339405 0.60350204
0001b0 6d ff 42 3f fa 1a a1 bf d7 59 45 bf eb 99 2d 3f
       0.76171 -1.2586358 -0.7709021 0.67812985
0001c0 50 d6 f6 3e 26 fc 09 bd 17 c1 8a 3e fc ac 24 be
       0.48210382 -0.033687733 0.2710044 -0.16081613
0001d0 92 61 45 3f 55 f3 7f be 31 d8 6f be 8b c5 13 3f
       0.77102005 -0.24995168 -0.23422314 0.577233
0001e0 77 de ef be 0a d8 26 bf e3 87 27 3f 7d cd d9 be
       -0.46849415 -0.651734 0.6544172 -0.42539588
0001f0 33 d1 10 40 af c1 4d be 15 5b 94 be 9e d8 43 bc
       2.2627685 -0.20093416 -0.2897574 -0.011953501
000200 22 5e 33 be e9 1a 54 3d 9f 84 c0 3e 30 b5 29 be
       -0.17516378 0.051783476 0.37601182 -0.16573024
000210 d5 22 5c 3e 81 fc 5d bf 28 14 9a be 3a 2b ef 3e
       0.21497662 -0.86713415 -0.30093503 0.46712667
000220 e2 15 2e bf 6a 91 cf be 3c ce c3 be 0f b6 0d bd
       -0.6800214 -0.4054063 -0.38243282 -0.034597453
000230 23 95 0b 3d 95 a2 99 be 98 01 15 bf c2 60 ba bd
       0.034077775 -0.30006853 -0.58205557 -0.09100486
000240 40 a6 45 3d 1f aa e8 be 6b 4f 3e 3f 2f 4f 5f bf
       0.04825425 -0.45442292 0.7433993 -0.872302
000250 5f dd 34 3f e6 4b 73 3e 4a 02 bf bd e3 a3 f8 bc
       0.70650285 0.23759422 -0.093266085 -0.030351585
000260 31 fc 2f 3e a1 15 74 bf d6 cd 8e be eb 85 5b 3d
       0.17186047 -0.95345503 -0.27891415 0.05359451
000270 4e 9e 5f 3f 96 03 21 3f 6e 0a 00 bb e4 e5 5f be
       0.8735093 0.62896097 -0.0019537467 -0.2186504
000280 ae 0b 62 3e 84 6e a9 bc 8b ca 9e be 9c 5e 31 3f
       0.22074768 -0.02068258 -0.31013903 0.6928499
000290 df ac 85 3c ff 10 46 bf 97 74 76 be a7 a9 9e 3d
       0.016317783 -0.77369684 -0.24067913 0.07747202
0002a0 bf f6 53 be b8 5c 36 3f b7 e1 a6 be 09 5e ce be
       -0.20699595 0.7123523 -0.32594082 -0.40306118
0002b0 2c c7 57 3d 98 3e 30 3f ee 82 82 3f 17 6e 0f 3f
       0.05268018 0.6884551 1.0196207 0.5602736
0002c0 70 47 7b bf 58 62 f1 3e 06 34 96 3d 7b bc e2 be
       -0.9815588 0.47145343 0.073341414 -0.44284424
0002d0 d5 18 2a 3f 9a 1f 6c 3e ea a0 ab bd 5c 03 7c bf
       0.6644414 0.2305893 -0.08380301 -0.98442626
0002e0 a6 ff 6e 3d ec 2c c6 b8 3b 65 36 3c 20 ad 06 bf
       0.058349274 -9.449743e-05 0.011132534 -0.5260792
0002f0 82 d3 28 bf ea aa cb 3d 32 6f c9 be 8e 43 cc be
       -0.65947735 0.09944709 -0.39342648 -0.3989529
000300 7c 1b 8a 3d 85 c7 c9 3d 45 a6 f2 be 11 af f5 3d
       0.067435235 0.098525085 -0.4739248 0.11996282
000310 37 9d 2e bf 2e 12 0b 3f 1d db dd be 82 7b 34 bf
       -0.6820864 0.54324615 -0.43331233 -0.7050096
000320 1e 61 45 bf 86 b9 af 3e 7c ba f1 be 36 0d 2c bd
       -0.77101314 0.3432123 -0.4721259 -0.042004786
000330 84 8c 2d 3f c7 cf 52 3f 72 69 4d 3e 04 c6 5c 3f
       0.67792535 0.82348293 0.20059755 0.8623965
000340 a7 ce aa bf 67 2c 57 be 21 7e 61 bf c0 0d 12 be
       -1.3344315 -0.21013032 -0.8808308 -0.14263058
000350 3a 38 a5 3e 6b d2 d4 3e 3d 25 a9 3e aa 31 4b bf
       0.3226946 0.41566786 0.33036223 -0.79372656
000360 1b a4 6c 3e 9c 20 6f be 4d b0 7e 3e 75 81 06 bf
       0.23109476 -0.23352283 0.24871941 -0.52541286
000370 0b bb a8 3e 98 1c a8 3e 53 1f e1 be 4d 6b 4f 3e
       0.32955202 0.32834315 -0.4396921 0.20255776
000380 75 7f 62 bd a6 82 d0 be e2 d2 cc be 65 72 89 3f
       -0.055297334 -0.40724677 -0.4000464 1.0738035
000390 30 18 0f bf 11 d2 b9 be 49 53 78 bc 81 6c 01 3e
       -0.5589628 -0.3629308 -0.0151565755 0.12639047
0003a0 42 cb 25 bf e4 60 26 bf 90 ef 46 3d 16 0a 6e bd
       -0.6476327 -0.64991593 0.04856831 -0.058115087
0003b0 10 95 ad 3e 5a 3e 87 3d 41 ab d4 3d 4a 4f 2b 3f
       0.33902788 0.066036895 0.103842266 0.6691786
0003c0 a8 77 05 3e d7 86 32 3f bc a5 81 3d 80 72 05 bf
       0.13033926 0.69737 0.063304394 -0.5212784
0003d0 76 d3 60 be 58 61 00 3d 7f 7c 51 3d a4 dd 22 bf
       -0.21955666 0.031342834 0.05114412 -0.63619447
0003e0 e2 a4 cd 3c eb e0 fa bd f2 2f 3a bf 9d 03 e6 be
       0.025103036 -0.12249931 -0.7272941 -0.44924632
0003f0 24 46 32 3e 1b 9a 16 bf a1 a2 1f be 33 c2 7d bf
       0.17409569 -0.58828896 -0.15589382 -0.9912445

encoder.rnn.bias_ih_l0 f4 [128]
000000 c1 ea bb 3e 40 0e 74 3e 6d a3 64 be 0f 77 f8 3e
       0.3670254 0.23833561 -0.22327967 0.48528334
000010 c9 fe 16 3d 75 1c c4 be a0 76 e3 be 56 37 2f 3d
       0.036864076 -0.3830296 -0.4442644 0.04277738
000020 cc 26 13 3e c5 6a 91 3e 2f 58 eb 3e db 32 33 be
       0.14370269 0.2840177 0.45965716 -0.17499869
000030 d4 f9 1f be 91 d8 62 3c b5 a4 8e 3e 67 93 93 3d
       -0.15622646 0.013845579 0.27860036 0.07205849
000040 de 31 ce be 80 16 d7 be 0a 14 41 bf aa 6c 59 bb
       -0.4027242 -0.42009354 -0.754212 -0.003317634
000050 cd 6c 0a 3f dd a8 83 3e 46 a1 ed 3d 1a 67 1c be
       0.54072267 0.2571477 0.11603026 -0.15273705
000060 85 d3 23 bc 87 c8 a2 bd 3f 7d 81 3e 6e 0c 3c bd
       -0.009999161 -0.07948404 0.25290868 -0.04591029
000070 de f6 16 be d9 c0 aa 3e 60 ef 02 bd bf f6 2f 3f
       -0.1474261 0.33350256 -0.031966567 0.6873588
000080 f2 16 81 3e fb 25 66 3f de 4f 53 3f f5 1d 38 3f
       0.25212818 0.89901704 0.8254374 0.7192071
000090 b7 d5 f7 3e 2a 54 20 3f 92 fa da 3e 43 f2 d4 3e
       0.4840524 0.62628424 0.42769295 0.4159108
0000a0 b0 9c c6 3e 5c 91 07 3f fd be 49 3f f3 75 56 3f
       0.38791418 0.52956176 0.7880705 0.83773726
0000b0 1b bb 6a 3d ab ef 7f 3e f5 eb 4b 3e ee 0e 0b bf
       0.057307344 0.2499377 0.19914229 -0.54319656
0000c0 a5 a3 a9 3f 23 c4 8a 3e ea 90 26 3f d9 ec 88 3e
       1.3253065 0.27102765 0.6506487 0.267432
0000d0 55 b9 01 3f a6 10 66 3e 1f 22 04 3f a7 d2 e3 bd
       0.5067342 0.22467288 0.51614565 -0.11124163
0000e0 10 db b5 3e 68 38 61 3d 0f f5 3e 3f fa f2 1f 3e
       0.35518694 0.054985434 0.7459268 0.15620032
0000f0 11 10 1f bf 2c 3f f5 3e 21 a9 1a 3f eb bf 92 3e
       -0.6213389 0.4789976 0.6041432 0.28662047
000100 55 1f d1 bd 25 32 77 3e f1 aa bd be 6e 8f b7 be
       -0.10211054 0.24140222 -0.3704448 -0.35851616
000110 f3 d7 25 3f 25 74 b2 3e 13 13 0b 3e 38 dd bb be
       0.6478264 0.34854236 0.13581495 -0.36692214
000120 d4 89 fd 3e c6 c4 59 bf e3 ea af 3e bf 27 8f 3f
       0.49519217 -0.8506588 0.34358892 1.1184005
000130 9d 2a b5 bc ca 64 43 bf 87 21 de bd a2 58 c4 be
       -0.022115046 -0.76325667 -0.108462386 -0.3834887
000140 36 ee 07 3f 0c 41 b2 3e 66 54 ce be 09 ec 89 3f
       0.53097856 0.34815252 -0.40298766 1.0775157
000150 9e 6f aa be 85 3a e5 3e a6 20 08 3f ab 30 15 3f
       -0.33288282 0.4477121 0.5317482 0.58277386
000160 0e 86 2b bf 8d b7 dd 3d 14 a6 58 3e df 2d 04 3e
       -0.67001426 0.10826025 0.21157104 0.12908123
000170 c5 67 c1 3e 80 84 78 3e 42 a3 23 3f 43 2e 49 3f
       0.37774482 0.24269295 0.63920987 0.78586215
000180 f2 e9 fb 3e 7b 62 94 be 87 6a b0 3f a2 05 8e 3f
       0.49201924 -0.28981385 1.378251 1.1095469
000190 7c 17 79 3f a0 05 b5 3e 43 72 d5 3f bd 5f 61 be
       0.9730146 0.35355854 1.6675495 -0.22009178
0001a0 ab 37 8e 3f 3b 6e e9 3d 94 6e cc 3e 18 01 47 3f
       1.1110739 0.11397978 0.39928114 0.77736044
0001b0 3a 2e b8 3d 67 77 dc be 7e af 64 3e d2 42 4f bf
       0.08993192 -0.43059847 0.2233257 -0.80961335
0001c0 70 98 c8 3e f3 3b 19 3f 5c 1b 45 3f 2a 81 f6 3e
       0.391788 0.598571 0.7699487 0.4814542
0001d0 67 52 c2 bd 60 fc 28 3e 27 a0 46 3f 08 40 86 be
       -0.09488373 0.16502523 0.77588123 -0.26220727
0001e0 0e 17 05 3d 00 d1 f6 bc f9 63 1e 3e e3 9d 09 3f
       0.03249269 -0.030128956 0.15467824 0.5375654
0001f0 06 a8 5b be 05 d6 ef 3e 35 ff ab be e9 f7 fa 3e
       -0.21450815 0.4684297 -0.33593145 0.49017265

encoder.rnn.bias_hh_l0 f4 [128]
000000 51 ed bb 3e 28 d0 75 3e 7c 29 79 be ef 73 f8 3e
       0.36704496 0.24005187 -0.24332231 0.4852595
000010 25 6e 14 3d e7 fa c3 be 4d 76 e3 be 00 3b 2e 3d
       0.036237855 -0.3827736 -0.44426194 0.042536736
000020 f7 6c 56 3e 52 ad 8e 3e 71 5a eb 3e 9c c9 47 be
       0.20940004 0.27866608 0.4596744 -0.19510502
000030 4b 1a 1d be 13 3c 09 3c 99 98 8f 3e 2f 29 9f 3d
       -0.15342061 0.008376139 0.2804611 0.07771527
000040 d2 c8 c9 be 8c 93 dd be e9 15 41 bf 0d 18 d0 bc
       -0.39411026 -0.43276632 -0.7542406 -0.025402093
000050 ba 1b 0a 3f 2f a8 83 3e 33 f7 f9 3d 8b 1c 1e be
       0.5394856 0.2571425 0.12205353 -0.15440576
000060 b1 13 8f bc 28 20 c7 bd 40 7d 81 3e bf 09 3c bd
       -0.017465444 -0.0972293 0.2529087 -0.045907732
000070 d3 19 15 be a5 1f ca 3e ae 66 f5 bc a9 f3 2f 3f
       -0.14560632 0.39477268 -0.029956188 0.6873117
000080 50 97 74 3e 4c 7b 65 3f dd 61 53 3f 6c 08 38 3f
       0.23885846 0.8964126 0.825712 0.7188785
000090 d7 f2 c9 3e 5b 32 20 3f dd 00 db 3e a5 6c 01 3f
       0.39443085 0.62576836 0.42774096 0.50556403
0000a0 61 ed 9c 3e 9d c2 07 3f 23 bf 49 3f f8 b1 57 3f
       0.30649856 0.5303133 0.78807276 0.84255934
0000b0 e1 b7 6a 3d 2d 75 af 3e 6f e0 fb 3d 86 8e 14 bf
       0.057304267 0.34269086 0.12298667 -0.58029974
0000c0 f1 8f a9 3f 98 03 8d 3e 0d 35 27 3f b1 a5 9b 3e
       1.3247052 0.27541804 0.65315324 0.3039985
0000d0 68 b9 01 3f 8c 24 67 3e c6 3f f4 3e f4 a0 e2 bd
       0.5067353 0.22572535 0.47704905 -0.110658556
0000e0 ad 5b d7 3e 10 d1 57 3d 0b f5 3e 3f dc b7 1f 3e
       0.4206213 0.052689612 0.74592656 0.1559748
0000f0 99 12 1f bf 81 54 d3 3e 43 5f 1b 3f 01 54 92 3e
       -0.6213775 0.4127541 0.6069223 0.28579715
000100 8c 3a d3 bd 50 ce 74 3e 2d d5 ba be c8 f2 b5 be
       -0.10313901 0.23906827 -0.36490765 -0.3553679
000110 9e 11 1a 3f 63 7c c4 3e 38 11 10 3e e9 19 89 be
       0.6018313 0.3837615 0.14069068 -0.2677758
000120 1c f9 e3 3e 2a 1c 59 bf f4 bf a9 3e c6 4f 8e 3f
       0.44525993 -0.848086 0.3315426 1.1118095
000130 a7 f7 67 bd 1e 98 0c bf 21 45 32 be 13 76 c3 be
       -0.056632664 -0.5491961 -0.17409183 -0.3817602
000140 36 dd 04 3f d1 5d cd 3e c2 68 b4 be 07 ad 8f 3f
       0.5190004 0.4011064 -0.35236174 1.1224679
000150 d7 6f 9e be b7 43 e4 3e 31 df 08 3f 22 a9 18 3f
       -0.30944702 0.44582912 0.53465563 0.59633076
000160 00 3a 2b bf 71 1a cf 3d fe d3 58 3e 2b 36 3c 3e
       -0.66885376 0.10112465 0.21174619 0.18380038
000170 6b f6 b7 3e e6 dc 18 3e c1 54 2f 3f 75 0f 49 3f
       0.3593019 0.14928016 0.684887 0.7853921
000180 f0 3e be 3e 4a b9 64 be 5f 6b b0 3f 26 05 8e 3f
       0.37157393 -0.22336307 1.3782767 1.1095321
000190 ae 6d 79 3f 11 24 ba 3e 3f 21 e0 3f e9 78 9d be
       0.9743298 0.3635564 1.7510146 -0.3075631
0001a0 a2 ad 8e 3f da c0 0b 3e 8e 6e cc 3e 1b 9b 41 3f
       1.1146739 0.13647786 0.39928097 0.756273
0001b0 b5 29 2e 3d 6d c5 dd be 5a 19 65 3e e2 24 3c bf
       0.042520244 -0.43314686 0.22372952 -0.7349378
0001c0 67 dc c8 3e fd ab ee 3e 9e 4e 33 3f 66 88 f6 3e
       0.39230654 0.46615592 0.70041835 0.4815094
0001d0 e8 3c c6 bd 1d 56 08 3e 18 a9 40 3f 8a 48 86 be
       -0.09679586 0.133141 0.75258017 -0.26227218
0001e0 0d 96 34 3d b2 65 92 bd 2f 6b 1e 3e 7b d6 0b 3f
       0.044088412 -0.07148303 0.15470575 0.54624146
0001f0 87 05 6b be 6d 32 f7 3e 7f 66 12 be ed 1e 02 3f
       -0.22951327 0.4828066 -0.14296912 0.5082844

decoder.rnn.weight_ih_l0 f4 [256, 32]
000000 38 56 1f 3f 47 b1 a0 3f be fe e3 3f b1 96 0c 3f
       0.62240934 1.2554101 1.7812116 0.54917437
000010 0f 4a 0f 3f bb 1d a0 3e d7 fd d0 3e c9 3b 88 3d
       0.5597238 0.31272683 0.40818664 0.06652028
000020 ca 39 6c 3e fe 28 98 3b a3 f5 19 3f 91 82 df 3e
       0.2306892 0.0046435585 0.60140437 0.43654302
000030 b3 4c f9 be c9 6d a3 3e 54 d2 b0 bf 7d b1 48 3c
       -0.4869133 0.31919697 -1.3814187 0.012249348
000040 52 b2 b7 bf ab 5e 17 bf 7e cf 59 3f 79 7d 8e bd
       -1.4351294 -0.59128827 0.8508223 -0.06957526
000050 59 fa 9f 3e 87 48 77 bf 27 82 86 3d 35 68 54 3d
       0.31245688 -0.9659504 0.06567793 0.051857192
000060 e0 39 d4 3e ea 10 2e 3f 51 1a 08 3f 89 75 1a 40
       0.41450405 0.6799456 0.53165156 2.4134238
000070 ab 19 57 3e 46 f7 a6 bf bc 32 71 bc 6e 77 bd be
       0.21005885 -1.3044212 -0.014721569 -0.3700518
000080 93 2d f1 be bf 82 f8 3c c6 ac b0 3f 95 aa 0c be
       -0.47105083 0.030335782 1.3802726 -0.13736947
000090 6f 58 46 3f 2f b0 f8 be e1 2b d7 3f c5 52 10 be
       0.7747869 -0.48571917 1.6810266 -0.14094074
0000a0 69 f9 27 3f c4 ff 65 be 62 df 8c 3f ae f4 45 3f
       0.65614945 -0.22460848 1.1005671 0.77326477
0000b0 d5 6a aa bf 6a 33 bb be 5e 47 e0 bf af 9e 6d bf
       -1.3313853 -0.36562663 -1.752178 -0.92820257
0000c0 5c 96 17 3f 65 64 9e 3e 7c 32 92 3e a1 01 0b 3e
       0.59213805 0.3093597 0.28554142 0.1357484
0000d0 65 3c f8 be 47 fc 30 bf 90 b5 07 3d 00 d5 16 3f
       -0.48483577 -0.69134945 0.033132136 0.5891876
0000e0 e0 c7 97 bc d1 f5 7c bf 93 a9 5c 3f c1 7b 41 40
       -0.018527925 -0.98812586 0.8619625 3.0231783
0000f0 01 ea 0d 3d 0d b4 09 c0 e4 30 87 3d e2 1c 59 3f
       0.03464699 -2.1516144 0.06601122 0.84809697
000100 40 7a d3 be 58 2c cc bb 65 33 b6 3f 56 dc 2a bf
       -0.41304207 -0.006230872 1.4234434 -0.66742456
000110 5f 3d f2 3d bb a9 05 3e 83 24 23 3f b2 dc 54 3e
       0.11828112 0.13053028 0.6372759 0.20787314
000120 ec 9c 15 3f 2f e8 40 bf 17 3e 63 be 7f 7b cc 3d
       0.5844257 -0.75354284 -0.22191654 0.099844925
000130 b2 d5 c5 bf 3b aa f7 be 5b 55 7c 3d 0f b5 41 be
       -1.545584 -0.48372063 0.06160484 -0.18916725
000140 7e 0f 55 3f 81 c0 89 3d e0 a9 aa 3f 52 35 95 bd
       0.83226764 0.0672617 1.3333092 -0.07285561
000150 bb c8 12 3f 7b 61 43 be 07 d7 ec 3e ad 46 c2 3f
       0.5733754 -0.19080155 0.46257803 1.5177819
000160 af 10 fc 3d 05 e1 48 3f 4c fa 63 3f 39 fb 27 40
       0.1230787 0.7846835 0.890538 2.6247084
000170 11 df 23 3e 78 1b 04 bf d3 50 19 bf cb ee e4 3d
       0.16003062 -0.51604414 -0.5988895 0.11178359
000180 3d c3 79 bf 7a bf 5a 3f 59 8a d0 3f 20 ff 6e bf
       -0.97563535 0.8544842 1.629222 -0.9335804
000190 a1 10 14 3d 86 e7 04 be 5f 98 37 3f 38 7e 68 3d
       0.03614867 -0.12978944 0.71716875 0.056760997
0001a0 30 6b 20 be 8c 35 4d 3d 91 51 fd 3d e2 58 0b 3e
       -0.15665889 0.050099894 0.12369073 0.13608125
0001b0 6f e0 e9 be 52 18 9c 3e 0f d2 5a bf 2d 4b 26 bf
       -0.45679042 0.30487305 -0.85476774 -0.6495846
0001c0 83 4c cb bd 79 4b b5 bc e6 3a 89 3f b4 d2 43 be
       -0.09926703 -0.022130715 1.0721099 -0.19123346
0001d0 33 86 3b 3e af a1 14 bf f1 14 9f bc 17 b5 c5 3f
       0.18312912 -0.5805921 -0.019419165 1.5445889
0001e0 21 ac 0c be 28 cd ce 3e f6 db 17 3f fa 12 06 40
       -0.13737537 0.40390897 0.5932001 2.0949082
0001f0 3c 50 31 be 0b a6 3f bf 5e ff af be 05 a5 83 be
       -0.17315763 -0.74862736 -0.34374517 -0.25711837
000200 5a 00 b4 bf 67 74 08 3f 96 03 e3 3f 4f 3a e2 be
       -1.4062607 0.53302616 1.7735469 -0.4418511
000210 f7 f5 c5 3d 4a 4f 31 3f 15 63 85 3f 7b e9 17 3e
       0.09666055 0.6926161 1.0420862 0.1483516
000220 e8 e7 b8 3e f8 05 8d bf da 45 b9 3f 58 59 87 3e
       0.3611443 -1.1017447 1.4474442 0.2643535
000230 1b fd 9d bf c2 c7 53 be 5f 17 ae bf 3b f2 12 bf
       -1.2342867 -0.2068167 -1.3600882 -0.57400864
000240 b3 98 8f be 08 c5 c1 3e 08 15 b1 3f 32 57 e7 3c
       -0.28046188 0.37845635 1.3834543 0.02823982
000250 73 02 32 3e b3 ac 54 bf 72 9f 63 3f 33 3f 5a 3f
       0.17383747 -0.8307602 0.8891517 0.85252684
000260 3b 43 e9 3d b4 f6 a5 3e 83 f0 bf 3f 41 29 3a 40
       0.11389776 0.32414782 1.4995273 2.908768
000270 f3 63 3a be 9e 15 13 c0 06 d7 32 3f 3a 6c c8 3d
       -0.1820219 -2.2981944 0.6985935 0.097862676
000280 19 ef b6 bf 7c 32 1e 3f 07 89 ac 3f ff 29 91 bf
       -1.4291717 0.61795783 1.3479317 -1.1340941
000290 a1 68 21 3e cb 88 00 3f c7 1f d4 3e 17 8b bd 3e
       0.15762569 0.5020873 0.41430494 0.3702018
0002a0 78 e5 ff 3d f1 8b 4e 3f 79 68 ef 3e 3e e6 fa 3e
       0.124949396 0.80682284 0.46759394 0.49003786
0002b0 6d bc 21 bf e9 80 a7 bd 20 9d 08 c0 13 22 05 be
       -0.6317814 -0.081788845 -2.1345901 -0.1300128
0002c0 ff 46 62 bf 5d ba 1a 3d 7a 4f 0f 40 e2 a4 23 3e
       -0.8838958 0.037775386 2.2392259 0.15980867
0002d0 a1 d9 03 bf 47 fb ad be 1f 3e 19 be 25 be d9 bd
       -0.5150395 -0.33980772 -0.14965104 -0.1063197
0002e0 44 3c c6 be 15 17 3b bf 1f b6 76 be e4 30 23 40
       -0.38717854 -0.73082095 -0.24092911 2.549859
0002f0 0e ea 7d 3e c9 cd dc 3d 70 c9 34 3f 4d 5f b0 3c
       0.24796316 0.10781438 0.7061987 0.021529818
000300 e6 b9 b7 be ae 23 67 be 15 e8 12 bf 98 00 29 bf
       -0.35884017 -0.22572204 -0.5738538 -0.6601653
000310 86 e6 9d be f0 4f 38 3f 4c e8 ec 3d d2 53 a5 bf
       -0.30839938 0.71996975 0.115677446 -1.2916205
000320 32 fb c5 3e cc 89 32 3f a1 80 38 bf fc 2a 08 3e
       0.3866821 0.6974151 -0.7207127 0.13297647
000330 43 79 3d bf 28 e2 56 3e 07 3a 8b 3f 74 98 88 bf
       -0.74013156 0.2098471 1.0877084 -1.0671525
000340 c3 a6 fd 3e 7a 88 48 bf c3 e7 bc 3f ad 49 0d 3f
       0.49541292 -0.78333247 1.4758228 0.55190545
000350 51 f2 24 3f 2d 72 87 be a6 74 c8 bd 2e 76 ce 3e
       0.64432245 -0.26454297 -0.09787874 0.4032454
000360 4e 2f 87 bf ad 08 13 3e e7 5f f4 3e 8b 9c 0f 40
       -1.0561311 0.14358778 0.47729418 2.2439296
000370 d6 69 42 bf c6 09 f3 3e e8 d9 a4 3f e0 fd d8 3e
       -0.7594274 0.47468394 1.2879 0.4238119
000380 05 ca 56 bf 0c c2 1e 3f 2a ab a8 3f 02 c3 6e bf
       -0.8390201 0.6201484 1.3177235 -0.9326631
000390 b2 bb 33 3e 23 82 e2 3d a0 8e a3 3e 82 5a 85 be
       0.17552069 0.11059978 0.31944752 -0.26045614
0003a0 ca 32 e5 3d 0e 59 6a 3f ad 02 c2 be 40 ab 86 be
       0.11191328 0.91542137 -0.37892666 -0.26302528
0003b0 ee c6 03 bf 9c ff 2e 3d e4 ee 27 bf 65 f9 34 bf
       -0.5147542 0.042724237 -0.65598893 -0.70693046
0003c0 67 ca 24 bf cf 43 3c 3d 9c 06 73 3f 01 f1 78 be
       -0.6437134 0.045963105 0.9493196 -0.24310686
0003d0 44 fa e5 3e 93 04 97 be 82 16 03 3e 31 61 78 3e
       0.449175 -0.29495677 0.12801555 0.24255826
0003e0 2b ef e4 ba d7 9b 07 bf d7 a9 72 3e 21 22 09 40
       -0.0017466297 -0.5297217 0.23697601 2.142708
0003f0 2c 93 f4 3a 61 c9 0f bf b3 8c c5 be 03 0f 5a be
       0.0018659583 -0.56166655 -0.38583907 -0.21294789

decoder.rnn.weight_hh_l0 f4 [256, 64]
000000 7d 6c 64 3e d2 10 38 bd a6 1e 1f 3f 41 48 3b 3f
       0.2230701 -0.044937916 0.6215614 0.73157126
000010 fb 3f 15 3d b9 98 03 3e b1 6e 1b 3e 4a 83 1a bd
       0.03643797 0.12851228 0.15178944 -0.037722863
000020 18 05 58 3e 0c 71 57 be 45 98 e0 3d b9 f7 73 bd
       0.21095693 -0.21039218 0.10966543 -0.05956242
000030 98 98 a4 be cb d1 09 3e d2 c9 c5 be 67 5b fc be
       -0.3214767 0.13458936 -0.3863054 -0.49288484
000040 87 98 f5 3e 69 7d ec 3d 16 f9 2e be 95 ad 43 be
       0.47967932 0.115473576 -0.17087206 -0.19109185
000050 6d 29 21 3e 87 48 83 be 56 09 88 be 08 77 06 3e
       0.15738459 -0.2564127 -0.26569623 0.13131344
000060 d8 69 c0 bd 97 f0 eb 3e f8 06 c3 be 2f 2f af 3d
       -0.09395188 0.46081993 -0.38091254 0.085539214
000070 d7 eb 70 3e 67 eb 8f 3e 9b 6d d7 bd 53 c0 7b 3e
       0.23527466 0.28109285 -0.105189525 0.24585085
000080 63 3a 25 be 09 52 01 3f f0 74 02 3f 9e ea 4a be
       -0.16135554 0.505158 0.5095968 -0.19816062
000090 5d ec 28 be 70 0a e1 3e 18 0c 5d 3e 8b c7 98 3e
       -0.16496415 0.43953276 0.21586645 0.2983974
0000a0 c3 e9 65 3e e7 ac 69 3e a3 6f fc bd 13 b1 f3 3d
       0.22452454 0.22819863 -0.123259805 0.118990086
0000b0 49 37 12 3f 7c 9b 52 3e bb 8b 0a 3f f9 53 c6 3d
       0.5711561 0.20567125 0.5411946 0.09683985
0000c0 e4 12 f2 be b1 df d3 3e ac 01 13 be 47 23 66 3e
       -0.47280037 0.413816 -0.14356107 0.22474395
0000d0 14 a5 c7 3d 23 73 af bd 81 da 5b be 68 a3 1a 3e
       0.09748283 -0.085668825 -0.21470071 0.15101397
0000e0 74 4f 50 3e a1 f7 ec 3e 54 a8 53 3e fc 6d a1 be
       0.20342809 0.46282676 0.20669681 -0.31529224
0000f0 de ce 16 3e 22 60 77 3e d2 b2 9e 3e b6 d7 a9 3e
       0.14727351 0.24157766 0.30995804 0.33172387
000100 f6 de 6b 3d 1b 4f 23 be cd 3c b9 3e d5 fa a0 3f
       0.05758568 -0.15948145 0.361792 1.2576548
000110 cd 80 68 3d 36 29 28 3c dc a5 4d bd 28 bc 67 3e
       0.05676346 0.010263732 -0.050207004 0.2263037
000120 a2 83 82 be 58 9a 44 3e 17 87 00 be 38 99 0b 3f
       -0.25491053 0.19199502 -0.12551533 0.5453067
000130 85 52 a1 3d fd cf 56 be 50 5c 1d be a3 9a 06 bf
       0.078770675 -0.20977779 -0.15367246 -0.52579707
000140 3f ba ca bc c7 aa 0f bc 5a 84 6d 3e 7c 8f 94 3e
       -0.024747012 -0.008768744 0.2319502 0.2901572
000150 e6 8b d5 bd af 91 6b 3e ac 14 8b be 17 b4 46 be
       -0.10427074 0.23004793 -0.2716421 -0.19404636
000160 49 65 17 bf cd 55 68 3e ba 94 a4 bf 8a fa 57 be
       -0.59138924 0.2268898 -1.2857888 -0.21091667
000170 d3 f6 ac 3e 10 4e 5e be f0 11 9d 3c 2a 60 42 bf
       0.33782062 -0.21709466 0.019173592 -0.75927985
000180 5e bc 30 3e 2e 1b 9d be 2c d6 7e bd 4c ac 4f bf
       0.17259356 -0.306848 -0.06221597 -0.8112228
000190 93 f4 3a be 7c e8 82 bd 6e 77 d3 bd 1d 60 c9 3e
       -0.1825736 -0.06391999 -0.10325514 0.3933114
0001a0 c1 da 73 be e2 b1 33 be 26 24 94 3e 2f b8 19 be
       -0.23813917 -0.17548326 0.2893383 -0.15011667
0001b0 24 0e 04 be 7b d3 37 3e c4 6f 05 bf 59 16 0f bc
       -0.12896019 0.17951767 -0.52123666 -0.008733355
0001c0 14 43 48 3d c5 78 00 3e 97 d5 d0 3d bb d9 62 bd
       0.048892096 0.1254607 0.10196989 -0.055383425
0001d0 86 1b 71 3e 96 9f 4a 3e 50 3f d7 3e 62 f5 8b bf
       0.23545656 0.1978744 0.4204049 -1.093426
0001e0 d5 8d 0b be 28 57 60 3f 05 95 22 3e ec 28 c2 3e
       -0.13628323 0.8763299 0.15877159 0.37921846
0001f0 8d d5 31 be 0b dc 91 bd aa 8e 0a 3d 65 f5 9f bd
       -0.1736662 -0.07122048 0.03382746 -0.07810477
000200 f9 bf 5d be 35 c4 8d be ab 95 0b bf 86 5e ab 3f
       -0.21655263 -0.27688757 -0.5452525 1.3388221
000210 f4 fc af 3e 60 59 e4 be d2 bd b5 be 96 db ad 3e
       0.34372675 -0.44599438 -0.35496384 0.33956593
000220 e1 cf 63 be b9 47 c6 3e 32 f8 94 be aa 07 68 be
       -0.22247268 0.38726595 -0.29095608 -0.22659174
000230 f6 ed 19 bf e5 c7 d0 be 5f 04 f7 3e 23 97 20 bf
       -0.60128725 -0.40777507 0.48245522 -0.62730616
000240 78 0f 75 3c 5f 12 43 be 9f 49 27 bf 11 44 3d 3d
       0.014957301 -0.19049977 -0.6534671 0.04620749
000250 60 c0 ef be 67 22 a3 3d 84 74 43 be c8 cf 91 3d
       -0.46826458 0.07965546 -0.19087416 0.07119709
000260 a4 0b 17 bf 3a 25 e7 3e 53 92 db bf f8 73 ad be
       -0.5900214 0.4514559 -1.715403 -0.3387754
000270 ee 17 02 bf bc 3b 9d be 32 9c c7 3e df f1 a5 bd
       -0.50817764 -0.30709636 0.38986355 -0.08102774
000280 74 ee d1 3e 9d ad f2 bd fb 14 31 bf 5b b5 e4 bc
       0.41002238 -0.1184952 -0.6917264 -0.027918508
000290 cd fb f1 3e e8 bd c1 be 6c f2 f5 be a3 34 d6 3e
       0.4726242 -0.378402 -0.48036516 0.41837034
0002a0 ea 30 91 bd 3e 61 14 3f 2e 0f bf 3e f0 69 e0 be
       -0.07089408 0.5796088 0.3731627 -0.43830824
0002b0 2b fd fb 3d 6d d9 1b bf 43 5b eb 3d 9a 7c 93 3e
       0.12304147 -0.6087864 0.11492016 0.28806
0002c0 d9 85 59 be 8a 5a 65 3e 6d f2 90 be da 41 ab be
       -0.21242465 0.22397819 -0.28309956 -0.33448678
0002d0 19 8a 46 bf e7 e6 3d 3e 1f d5 11 3e 9e a9 9e bd
       -0.7755447 0.18545114 0.14241455 -0.07747196
0002e0 30 73 a2 be 81 4c db 39 dd 2d eb bd 13 38 0a 3f
       -0.31728506 0.00041827935 -0.11483357 0.5399181
0002f0 b6 24 b7 be 97 76 90 3d 19 9a 3d bd f0 fe 9e be
       -0.35770196 0.07053869 -0.046289537 -0.31053877
000300 9b 6e d2 bc 7e 6b 6a 3c 38 92 d8 3d f8 61 af 3f
       -0.025687506 0.014307855 0.10574764 1.3701773
000310 d3 12 38 3e 89 a3 08 bf 7e bf cf 3c ce 2e ac be
       0.17975931 -0.53374535 0.025359865 -0.3362946
000320 94 64 7b 3e 62 15 26 bc 9a 9b b7 bd 21 09 c5 3d
       0.24550086 -0.010136934 -0.089652255 0.09620882
000330 b1 7e ce 3e 21 b8 20 3c 36 a9 ec bc 48 d4 84 be
       0.40331033 0.009809525 -0.02888928 -0.25943208
000340 f0 c4 38 3e 34 ac 0a bf 47 25 f2 bc 1e d4 05 3e
       0.18043876 -0.5416901 -0.02955879 0.13069198
000350 b3 ec 0e bd b5 44 f0 3c 3b 76 a7 bd d2 58 04 bf
       -0.034893703 0.029329637 -0.081768475 -0.5169803
000360 0b 78 85 bf e0 4c e5 3e 59 6c da bf 78 6c 98 3a
       -1.0427259 0.44785213 -1.7064315 0.0011629006
000370 b6 47 83 bc 37 d4 be be 75 a4 a0 3d a0 a3 6e 3e
       -0.016025405 -0.37271282 0.07843868 0.23304605
000380 e2 02 6a 3c ae ca 48 3e 6c f2 1e bd 4a 44 aa bf
       0.014282914 0.19608566 -0.03880541 -1.330209
000390 a5 59 9e 3e 91 c0 2b bf fb 2b fe bc de 3d a8 3e
       0.30927768 -0.6709071 -0.03102683 0.328597
0003a0 dd 38 7d be e8 1a a0 bd 7f 89 ff 3d c2 29 48 bd
       -0.24728723 -0.07817632 0.12477397 -0.04886795
0003b0 2b 05 2d be f2 59 51 bc 9f 03 72 bf ef b5 2d 3e
       -0.16896503 -0.012777792 -0.94536775 0.16963933
0003c0 95 a2 8d be 12 78 d4 be 69 7a 96 3d 15 7c ff 3c
       -0.27663103 -0.41497856 0.07347567 0.031187097
0003d0 c7 e2 cf bd 3e 71 8a 3d d4 4d 8c bd 1a 45 00 3e
       -0.10150676 0.067598805 -0.06850782 0.1252636
0003e0 bf f7 3e 3d b4 a8 b0 3e 6e a8 18 bc 73 82 09 3f
       0.046622988 0.3450371 -0.0093175005 0.53714675
0003f0 a0 11 92 be c6 c1 10 3e 2b 45 fe 3e 54 b2 17 3e
       -0.28529072 0.14136419 0.49662146 0.1481412

decoder.rnn.bias_ih_l0 f4 [256]
000000 99 ba bf 3f f6 c3 9a 3f 38 30 8b 3f 31 aa 95 3f
       1.497882 1.2091053 1.087409 1.1692563
000010 ae d0 9e 3f 7b 5d 7a 3f 1c 04 d8 3f 92 97 5b 3f
       1.2407434 0.9779889 1.6876254 0.8577815
000020 37 42 86 3f 38 5f db 3f 4b a3 bd 3f e6 84 da 3f
       1.0488957 1.7138433 1.4815458 1.7071807
000030 c0 3b f7 3f 24 60 cf 3f f1 36 bd 3f f9 4f 92 3f
       1.9315109 1.6201215 1.4782392 1.1430656
000040 03 dd d4 3f 8d a3 26 3f bf 19 34 3f 0d 97 bb 3f
       1.6629947 0.6509331 0.70351785 1.4655472
000050 2e cb bb 3f ee d3 df 3f 34 ea d6 3f c1 7a 8e 3f
       1.467138 1.7486551 1.6790223 1.1131212
000060 5a 54 b3 3f 87 ab bc 3f 11 45 75 3f a6 57 d5 3f
       1.4010117 1.4739846 0.9580851 1.6667373
000070 4c df ae 3f 4f a7 8e 3f 84 d2 cd 3f ce f5 e1 3f
       1.3661895 1.1144809 1.6079869 1.7653139
000080 b4 b6 a8 3f 44 47 cc 3f 57 d0 28 3f 3a 48 af 3f
       1.3180757 1.5959249 0.659429 1.3693917
000090 71 86 6b 3f 0c d5 af 3f 2a e6 bc 3f 60 2b 92 3f
       0.92002016 1.3736892 1.475774 1.1419487
0000a0 c7 ed f0 3f 19 03 af 3f 40 97 b3 3f c4 f9 cc 3f
       1.8822564 1.367282 1.4030533 1.6013722
0000b0 b9 20 ee 3f 41 b4 95 3f 72 8c 8d 3f 3e b3 a0 3f
       1.8603736 1.1695634 1.1058486 1.25547
0000c0 c0 21 a4 3f 32 aa 8c 3f 4b e6 ec 3f 20 28 d3 3f
       1.28228 1.098944 1.850778 1.649662
0000d0 ef f0 8c 3f 60 8b 5e 3f d3 27 96 3f a8 a3 bc 3f
       1.1011027 0.8693142 1.1730903 1.4737444
0000e0 a0 a1 f7 3f 34 a0 83 3f 93 63 96 3f 3e 77 92 3f
       1.9346199 1.0283265 1.1749138 1.144264
0000f0 74 83 c2 3f 30 4a d3 3f d0 70 47 3f 32 ba 6c 3f
       1.5196366 1.6507015 0.77906513 0.9247161
000100 6e 95 09 3c 96 a3 27 3e 54 d4 de 3e 50 2e 23 bd
       0.008397443 0.16370997 0.43521369 -0.03983909
000110 e0 77 9c 3b 12 a0 44 be 4d ac 6f 3e 7b 3d 8d be
       0.0047750324 -0.19201687 0.23405571 -0.27585968
000120 63 5f 79 be b8 4e a7 ba a8 13 1b be 8b 1c 60 be
       -0.24352793 -0.0012764549 -0.15144217 -0.21885888
000130 73 74 95 be 1b 86 83 3e a7 8c 5d be 32 15 95 3d
       -0.29190406 0.25688252 -0.21635686 0.07279433
000140 e0 83 cc bc c2 5d 7a bd 5b e8 c3 3d 63 47 9a be
       -0.024965227 -0.06112457 0.09565803 -0.3013259
000150 42 e9 04 be 42 ad 81 be 11 b0 10 be 59 26 b0 bd
       -0.12979606 -0.25327498 -0.14129664 -0.08601064
000160 42 f4 ea 3b b6 60 07 bf 2d 3f 49 3f a1 a2 da be
       0.007170231 -0.52881944 0.78612024 -0.427022
000170 23 75 09 be 45 bb a1 be 31 52 38 3d 7a be 8f 3d
       -0.1342359 -0.31588188 0.04500026 0.070187524
000180 4f 8a 73 3d 51 d0 9d be a8 33 8a be b7 89 2e be
       0.059458073 -0.30822995 -0.26992536 -0.17044722
000190 5e fb ae be 53 e0 cc 3d d3 e6 98 3e 28 ed 3b be
       -0.34176153 0.10003724 0.29863605 -0.18352187
0001a0 4d 7c 9e be 76 26 1d be 91 00 f0 bc c7 7a 55 3e
       -0.3095421 -0.15346703 -0.029297145 0.20847617
0001b0 f9 26 c1 3d 58 00 29 3e 62 69 9d bd b3 40 18 3e
       0.094312616 0.16504037 -0.07686116 0.14868431
0001c0 e3 6b 78 bc ad 99 98 3d 3b 60 d6 3d 2c 4f a6 be
       -0.015162441 0.07451186 0.10467573 -0.32482278
0001d0 26 70 20 3e 2c fd 12 bd 6c b1 e2 3d 57 45 36 3f
       0.15667781 -0.035885975 0.11068997 0.71199554
0001e0 e8 5c b5 be a6 00 94 3e 5c 02 f7 bc 0e 25 dc be
       -0.35422444 0.28906745 -0.030152492 -0.4299702
0001f0 e3 78 35 be 8d a7 68 be 35 67 a9 3d b0 ff a3 be
       -0.17721896 -0.22720166 0.08271638 -0.32031012
000200 21 9c 3f bf 8a 3b 29 bf 61 8e 40 bf 76 03 52 3f
       -0.7484761 -0.66106474 -0.7521725 0.8203653
000210 ae 33 69 bf 38 81 c5 be 9e b0 64 3f c5 3a a2 be
       -0.9109448 -0.3857515 0.89331996 -0.31685463
000220 60 84 2c 3f b9 8f 4f bf 7e d2 29 3f cf 96 2b 3f
       0.6738949 -0.8107868 0.6633681 0.6702699
000230 e0 8a 1b 3f 59 c7 72 3f 51 c3 6c bf 94 44 22 bf
       0.6075878 0.9483543 -0.9248553 -0.6338589
000240 e5 cd 43 3f b6 e9 b5 be a4 d5 05 bf 7e 34 25 3f
       0.76486045 -0.3552987 -0.52279115 0.6453322
000250 ae 44 ad bf 50 13 8d 3f db 1b 5d bf 62 a8 f2 be
       -1.3536584 1.1021519 -0.8637063 -0.4739409
000260 80 14 85 3f 12 2e f1 3e 0c 5a 46 3f 46 0d 3c 3f
       1.0396881 0.4710546 0.7748115 0.73457754
000270 f2 a9 91 bf a6 7b 25 bf 10 1c 18 bf 71 d5 65 bf
       -1.1379988 -0.646418 -0.5941782 -0.8977881
000280 b5 89 58 bf 71 9f 18 3f 68 2e 08 bf 0d b2 68 3f
       -0.84585124 0.5961829 -0.5319581 0.90896684
000290 b2 48 1a 3f 5b 72 3e bf 4a be 66 3f 04 81 4e 3f
       0.60267174 -0.7439324 0.9013411 0.8066561
0002a0 e3 67 87 bf a7 36 54 be 42 fc 4e 3f 87 a0 75 3f
       -1.0578579 -0.20723973 0.80853665 0.9594807
0002b0 9a 7d 90 bf 31 ba 73 bf 77 90 fe be 04 b8 dd 3e
       -1.128833 -0.9520598 -0.49719593 0.43304455
0002c0 1f 73 1d bf a6 89 80 bf 1e d2 64 3f ff ec 5c 3f
       -0.61503786 -1.0042007 0.89383113 0.8629913
0002d0 cb af 47 bf 56 3d 61 bf 6a 23 25 3f 7d 57 0c bf
       -0.78002614 -0.87984216 0.6450716 -0.54820997
0002e0 c4 67 82 3f 35 2d 1b 3f 9c a6 c4 be 01 80 30 3f
       1.0187917 0.60615855 -0.38408363 0.6894532
0002f0 9b 5e 1c bf 8f 65 86 3f b3 c3 fa be cf 3e c4 3e
       -0.61081856 1.0499743 -0.48977432 0.3832917
000300 43 e5 ba 3e d4 95 a8 3e ce 8d c5 3e d3 5e 71 3f
       0.36503038 0.3292681 0.3858475 0.94285315
000310 19 73 8f 3f 64 99 24 3f df c6 b3 3f ab cd e4 3e
       1.1207 0.64296556 1.4045066 0.44688162
000320 e5 42 f4 3e b1 f9 d6 3f 22 f0 82 3f 39 52 b1 3f
       0.47707286 1.679495 1.0229533 1.3853217
000330 b5 3c 90 3f a0 fe 0a 40 3e 53 cc 3e 0b 11 46 3f
       1.1268526 2.171791 0.3990726 0.77369756
000340 3e 50 96 3f 70 4f a7 3e 72 45 18 3c 94 89 94 3f
       1.1743238 0.32677794 0.009293901 1.1604486
000350 fc 7d 59 3f 9e 00 a6 3f 83 d8 90 3f ae 2f 3e 3f
       0.8495786 1.2968938 1.1316074 0.74291503
000360 b9 28 78 3f a3 5a 88 3f 0b fd 86 3f 7c da df 3f
       0.9693714 1.065266 1.0545973 1.7488551
000370 c7 a8 67 3f 66 2c 61 3f 52 b0 a6 3f 37 1a 73 3f
       0.9049191 0.8795837 1.3022559 0.94961876
000380 ab a8 f1 3f 19 7d 9c 3f 22 01 81 3e ec 5d 5e 3f
       1.8879598 1.2225677 0.25196177 0.86862063
000390 d2 45 4f 3f 1c 1b 7f 3f e7 8a 13 40 2f 1b 68 3f
       0.8096591 0.9965074 2.305353 0.9066648
0003a0 8d 37 bc 3f 37 75 ac 3f 6f 8a 8b 3f d7 6d ea 3f
       1.4704453 1.3473271 1.0901622 1.831477
0003b0 ac c2 a0 3f 5b da 9a 3e ff 1b 93 3f c3 a3 6d 3f
       1.2559409 0.30244717 1.1492919 0.92828006
0003c0 55 81 99 3f d8 d7 21 40 ff bb 57 3f 94 b2 f6 3f
       1.1992594 2.528799 0.84271234 1.9273248
0003d0 ad ef af 3e 1f f7 bc 3f df 07 7d 3f 34 6e 85 3f
       0.34362546 1.4762915 0.98840135 1.0424256
0003e0 11 a2 1a 40 c8 2f 9a 3f 2e 8e f5 3e e5 d7 b1 3f
       2.4161417 1.2045832 0.47960037 1.3894011
0003f0 76 f7 dd 3e 92 9c d4 3f 55 0f 9f 3f 06 9c 3a 3f
       0.4335286 1.6610281 1.2426554 0.7289432
