detector_dev/Process_I24_simulations/models/cnn_lstm_ae_i24_detector_complete_obs_positional.pt (torch, 130791 bytes, 12 tensors)

encoder.cnn.weight f4 [8, 6, 16]
0	0xbca4539d	-0.020059401
1	0xbca434cb	-0.020044705
2	0xbca40e2e	-0.020026293
3	0xbca3e4a4	-0.020006485
4	0xbca3ca43	-0.019993907
5	0xbca3ce66	-0.01999588
6	0xbca3b858	-0.019985363
7	0xbca3e49d	-0.020006472
8	0xbca3f227	-0.020012928
9	0xbca408b9	-0.02002369
10	0xbca3ea9d	-0.020009333
11	0xbca3da48	-0.020001546
12	0xbca3e802	-0.02000809
13	0xbca3dcf2	-0.020002816
14	0xbca3f973	-0.020016408
15	0xbca3f785	-0.020015487
16	0x1ef593a9	2.6001455e-20
17	0x1f270f10	3.5376085e-20
18	0x1f3fdcd1	4.0628478e-20
19	0x1f4a6ef1	4.2866932e-20
20	0x1f01da4a	2.7497377e-20
21	0x1ebfd7d2	2.0312173e-20
22	0x1db2f153	4.736573e-21
23	0x9f2e9154	-3.6966146e-20
24	0x9ef80774	-2.6261104e-20
25	0x9f0e5e1e	-3.014752e-20
26	0x9f0e4088	-3.012305e-20
27	0x9e3fa41e	-1.01453944e-20
28	0x9c93aba1	-9.772009e-22
29	0x1d91b79d	3.8571032e-21
30	0x1e2f8ded	9.2937724e-21
31	0x1d57e4bd	2.8573268e-21
32	0xbcc5de86	-0.024153959
33	0xbcc5be1d	-0.024138505
34	0xbcc5a243	-0.024125224
35	0xbcc585dd	-0.024111683
36	0xbcc57a42	-0.024106149
37	0xbcc56222	-0.024094645
38	0xbcc54fd3	-0.024085915
39	0xbcc4994e	-0.023998883
40	0xbcc536a4	-0.024073906
41	0xbcc51b4a	-0.024060864
42	0xbcc51361	-0.024057092
43	0xbcc4fda9	-0.024046736
44	0xbcc4ed50	-0.02403894
45	0xbcc4e054	-0.02403275
46	0xbcc4d4af	-0.024027197
47	0xbcc4d1c4	-0.024025805
48	0x9f6e1016	-5.0411766e-20
49	0x9fbe411f	-8.0575864e-20
50	0xa001a114	-1.0980021e-19
51	0xa02302ce	-1.3807565e-19
52	0xa042fd35	-1.6516218e-19
53	0xa061dc26	-1.9131082e-19
54	0xa07f37e1	-2.1617829e-19
55	0xa08d7e3d	-2.3969867e-19
56	0xa0302f29	-1.4923384e-19
57	0x9fbbf42a	-7.9601516e-20
58	0x9eff1c46	-2.7010869e-20
59	0x1e5c1dd0	1.1652868e-20
60	0x1f38c26a	3.912433e-20
61	0x1f881804	5.763797e-20
62	0x1fa3446d	6.9146386e-20
63	0x1f1ee626	3.3648176e-20
64	0xbd161b37	-0.036647048
65	0xbd161044	-0.036636606
66	0xbd16054b	-0.03662614
67	0xbd15f9de	-0.036615245
68	0xbd15ee0e	-0.03660398
69	0xbd15e336	-0.03659364
70	0xbd15d90d	-0.03658395
71	0xbd15ce31	-0.036573593
72	0xbd15c3a4	-0.03656353
73	0xbd15bb95	-0.036555845
74	0xbd15b17f	-0.036546227
75	0xbd15a71b	-0.036536317
76	0xbd159cac	-0.036526367
77	0xbd159356	-0.036517464
78	0xbd158ab7	-0.036509242
79	0xbd158135	-0.036500175
80	0x3d111894	0.03542383
81	0x3d110d7a	0.035413243
82	0x3d110246	0.03540256
83	0x3d10f680	0.03539133
84	0x3d10eb7b	0.03538082
85	0x3d10e05f	0.035370227
86	0x3d10d63a	0.035360552
87	0x3d10cb08	0.035349876
88	0x3d10c034	0.03533955
89	0x3d10b882	0.03533221
90	0x3d10ae39	0.0353224
91	0x3d10a3a0	0.035312295
92	0x3d1098ef	0.0353021
93	0x3d108f71	0.035293046
94	0x3d1086cb	0.0352848
95	0x3d107d0f	0.035275515
96	0xbb968817	-0.00459386
97	0xbb9acfdb	-0.0047244853
98	0xbb9d3046	-0.0047970144
99	0xbb9fdbf4	-0.0048785154
100	0xbb9e7b7a	-0.004836497
101	0xbba18b37	-0.004929926
102	0xbb9d666f	-0.004803471
103	0xbba13763	-0.0049199327
104	0xbb9de495	-0.004818509
105	0xbba2d999	-0.0049697873
106	0xbba10387	-0.0049137506
107	0xbba37ab7	-0.004988994
108	0xbb9d4424	-0.0047993828
109	0xbba2480f	-0.0049524377
110	0xbba37c83	-0.004989208
111	0xbba8ba0a	-0.0051491307
112	0xb7a70cee	-1.9913972e-05
113	0xb3dff562	-1.04288816e-07
114	0xaecafa72	-9.2303845e-11
115	0xb2e8e434	-2.711213e-08
116	0x361b2259	2.3116793e-06
117	0x3820057c	3.815208e-05
118	0x38b47437	8.6047155e-05
119	0x390eef4b	0.00013631319
120	0x398504ec	0.00025371404
121	0x39b36552	0.0003421703
122	0xb9b8f9df	-0.00035281383
123	0x3a684718	0.00088606915
124	0x3aa36517	0.001246604
125	0x3b9ec8c6	0.0048457114
126	0x3bb947b9	0.005654302
127	0x3bc48ff1	0.0059986045
128	0x3c023c33	0.007948923
129	0x3c03af44	0.008037392
130	0x3c02f424	0.007992778
131	0x3c034c07	0.008013732
132	0x3c042bdd	0.008067098
133	0x3c05360e	0.008130563
134	0x3c065a32	0.008200215
135	0x3c07806c	0.008270364
136	0x3c08b8fd	0.008344886
137	0x3c09d29f	0.008412032
138	0x3c0a90e0	0.008457392
139	0x3c0b7d74	0.008513797
140	0x3c0c70a2	0.008571776
141	0x3c0d5724	0.008626733
142	0x3c0e5be1	0.008688898
143	0x3c0f9839	0.00876432
144	0xbce1133f	-0.027474998
145	0xbcdf7067	-0.027275277
146	0xbccbc5d6	-0.024874609
147	0xbcb64ba0	-0.022252858
148	0xbc9b5c11	-0.0189648
149	0xbc7bdb38	-0.01537209
150	0xbc3b02d9	-0.011414253
151	0xbbf617b8	-0.0075101517
152	0xbb81e324	-0.003963845
153	0xbad99cd3	-0.0016602523
154	0xb9d76409	-0.00041082528
155	0x39c95293	0.0003839923
156	0x3a9b5982	0.0011852237
157	0x3ad78956	0.0016444128
158	0x3aecd966	0.0018070161
159	0x3b23f56a	0.0025018104
160	0x3d2e1522	0.042500623
161	0x3d2cc89a	0.042183496
162	0x3d2b6471	0.041843835
163	0x3d29ed6d	0.041486192
164	0x3d2867b0	0.04111451
165	0x3d26d6b6	0.040732108
166	0x3d253da2	0.04034198
167	0x3d239eec	0.03994648
168	0x3d21ee6b	0.039534014
169	0x3d2048ab	0.0391318
170	0x3d1ea32d	0.038729835
171	0x3d1cf8ce	0.038323216
172	0x3d1b4da0	0.037915826
173	0x3d19aa2e	0.03751581
174	0x3d180f31	0.037123863
175	0x3d166e93	0.036726546
176	0xbd45f10c	-0.048325583
177	0xbd4584cd	-0.04822235
178	0xbd44c73e	-0.048041575
179	0xbd43c227	-0.04779258
180	0xbd428224	-0.047487393
181	0xbd41124c	-0.04713659
182	0xbd3f79e0	-0.04674709
183	0xbd3dc2ce	-0.04632836
184	0xbd3be1f2	-0.045869775
185	0xbd39fbf8	-0.04540631
186	0xbd380929	-0.04493061
187	0xbd36052d	-0.04443853
188	0xbd33f5d1	-0.0439356
189	0xbd31e9a0	-0.043435693
190	0xbd2fe1fe	-0.042940132
191	0xbd2dd002	-0.0424347
192	0xbdc5c250	-0.09656203
193	0xbdc7b3f8	-0.09751123
194	0xbdc95a7b	-0.09831711
195	0xbdcac96c	-0.099016994
196	0xbdcc06e7	-0.09962254
197	0xbdcd1d4d	-0.10015354
198	0xbdcdad1f	-0.10042786
199	0xbdce25dc	-0.10065815
200	0xbdce7f1e	-0.100828394
201	0xbdce99bb	-0.100879155
202	0xbdce6cff	-0.10079383
203	0xbdce4e75	-0.10073558
204	0xbdcdad2c	-0.100427955
205	0xbdcd4e32	-0.1002468
206	0xbdcd03ee	-0.10010515
207	0xbdccf178	-0.10006994
208	0xbb753145	-0.00374134
209	0xbc13e586	-0.009026891
210	0xbc1aec7e	-0.009455798
211	0xbaff7d0e	-0.0019492225
212	0x3ac3efb1	0.0014948753
213	0x3afa1dc6	0.001908236
214	0xbbe0c236	-0.0068590892
215	0xbc7eaae1	-0.01554367
216	0xbc4259dc	-0.011862244
217	0xb9fb8c2e	-0.00047978893
218	0x3b25ab09	0.0025278947
219	0x3c7d27a6	0.015451347
220	0x3d13e554	0.036107376
221	0x3cd88d3a	0.02643453
222	0x3c8140ce	0.015777972
223	0x3b7f8534	0.0038989307
224	0xbdb14a74	-0.08656779
225	0xbdb112dc	-0.08646175
226	0xbdb0ae93	-0.086270474
227	0xbdb0d51f	-0.086343996
228	0xbdb0c6bf	-0.08631658
229	0xbdb09d81	-0.086237915
230	0xbdb04ff4	-0.08609
231	0xbdafef6a	-0.085905865
232	0xbdaf76de	-0.08567594
233	0xbdaeeb08	-0.085409224
234	0xbdae5fe6	-0.08514385
235	0xbdadc5f2	-0.08485021
236	0xbdad2585	-0.08454422
237	0xbdac7da2	-0.084224
238	0xbdabcf0e	-0.08389102
239	0xbdab10f8	-0.08352846
240	0x3d3fa01b	0.046783548
241	0x3d7aac8a	0.061199702
242	0x3d8fc1d2	0.0701939
243	0x3d98fd65	0.07470206
244	0x3d9d4bd2	0.07680477
245	0x3d9727f2	0.07380666
246	0x3d8d2abb	0.06892916
247	0x3d86a692	0.065747395
248	0x3d813fe8	0.06311017
249	0x3d755397	0.05989417
250	0x3d6aa333	0.057284545
251	0x3d67667e	0.05649423
252	0x3d58ccb4	0.052929595
253	0x3d4ea2ef	0.050448354
254	0x3d420249	0.04736546
255	0x3d3012aa	0.04298655

encoder.cnn.bias f4 [8]
0	0xb5731a1e	-9.056256e-07
1	0x3a7bb921	0.00096024765
2	0xbd8d378f	-0.068953626
3	0xbd4c92e8	-0.04994479
4	0x3e02b444	0.12764078
5	0x3dda04d8	0.10645455
6	0xbe0eaf1e	-0.1393399
7	0xbf1d8b0a	-0.6154028

encoder.rnn.weight_ih_l0 f4 [128, 8]
0	0x3dcf0b43	0.1010957
1	0x3dbea538	0.09308857
2	0x3da7fa7b	0.08202072
3	0x3daa9379	0.083289094
4	0x3db7b135	0.089693464
5	0x3d505961	0.05086649
6	0xbd465bc0	-0.048427343
7	0xbdaead7f	-0.085291855
8	0x3dddb8dd	0.108262755
9	0x3d522a37	0.05130979
10	0x3d283183	0.041062843
11	0x3cc698b8	0.024242744
12	0x3cafd136	0.021462064
13	0x3da0402d	0.078247406
14	0x3d68aa7e	0.05680322
15	0x3d1ca2d0	0.038241208
16	0xbe0fa314	-0.14027053
17	0xbdd011d8	-0.101596534
18	0xbd50ad50	-0.050946534
19	0x3c2d54af	0.010579272
20	0x3d4aa39f	0.049472447
21	0x3d306dd1	0.04307348
22	0x3d01992b	0.031640213
23	0x3d3b637e	0.04574918
24	0x3e2684f3	0.16261654
25	0x3e171bdb	0.1475672
26	0x3dee10b7	0.11624282
27	0x3d053b7f	0.032527443
28	0x3cd17e9c	0.025573067
29	0x3c32f694	0.010923047
30	0xbb0c78bc	-0.0021434268
31	0xbbf5b1f3	-0.00749802
32	0xbe93d2e9	-0.2887185
33	0xbe449ebb	-0.19201176
34	0xbc83219f	-0.016007243
35	0xbc94c1bc	-0.018158786
36	0xbca18ba6	-0.01971991
37	0x3db04f96	0.0860893
38	0xbc99c738	-0.018771753
39	0x3d475348	0.048663408
40	0xbe4d2c24	-0.2003637
41	0xbe172814	-0.14761382
42	0xbd597421	-0.053089265
43	0x3c5c6f74	0.013454307
44	0xbac4d5c9	-0.0015017326
45	0x3d7eb549	0.062184606
46	0x3b07ec87	0.0020740347
47	0x3d0326a6	0.03201928
48	0xbdfbc997	-0.122943096
49	0xbdbc2c7c	-0.09188172
50	0xbe40cd9c	-0.18828434
51	0x3de0955d	0.10965989
52	0x3e21ce6f	0.15801404
53	0x3deb12a3	0.11478164
54	0x3d86c941	0.06581355
55	0x3e4a61be	0.19763848
56	0xbe137723	-0.14400916
57	0xbdeac8e2	-0.114640966
58	0xbb608027	-0.0034256072
59	0xbcac03b7	-0.020997865
60	0x3d8bdaee	0.06828867
61	0x3d6a8f48	0.05726555
62	0xbb34b448	-0.0027573276
63	0xbd94304d	-0.07235775
64	0xbdf48d81	-0.11941052
65	0xbe0ccb80	-0.13749504
66	0xbd6cd9cb	-0.05782489
67	0x3b9ddb6b	0.0048174164
68	0xbd0cb16b	-0.034348886
69	0x3d7c00f6	0.061524354
70	0xbcaa21c9	-0.020768063
71	0x3d59afc2	0.05314613
72	0xbd0d4779	-0.03449199
73	0xbddd5733	-0.108076476
74	0xbd92508e	-0.07144271
75	0x3c723e9d	0.014785436
76	0x3d66cb38	0.05634615
77	0x3d4e8d47	0.0504277
78	0x3cff6c99	0.031179713
79	0x3dd0910f	0.10183918
80	0x3db6220a	0.08893211
81	0xbdf16d4d	-0.117884256
82	0xbe042d04	-0.12907797
83	0xbd079b7d	-0.03310727
84	0xbe8470fc	-0.2586745
85	0xbddbd779	-0.107344575
86	0xbdcea127	-0.10089331
87	0xbd9fc4dc	-0.0780122
88	0xbd799174	-0.06092973
89	0xbd5a7ab6	-0.053339683
90	0xbd0edcd6	-0.034878574
91	0xbb92f8bc	-0.004485218
92	0x3d3249ae	0.043527298
93	0xbb8064e5	-0.0039182776
94	0x3e29c271	0.1657808
95	0x3e497901	0.19675066
96	0x3be9e9d3	0.0071384697
97	0x3c962551	0.01832834
98	0xbca4c30e	-0.02011254
99	0x3dc568f6	0.0963916
100	0xbdba7128	-0.09103614
101	0x3d0438ff	0.03228092
102	0x3e3a5076	0.18194756
103	0x3ddf50e8	0.109041035
104	0x3d0b02e9	0.033938322
105	0x3cf169a3	0.029469317
106	0x3ca2a0f2	0.019852135
107	0x3aa9470d	0.0012914852
108	0xbcffab83	-0.031209713
109	0xbd5ccacd	-0.053904343
110	0xbddf2cd0	-0.10897219
111	0xbe050ba8	-0.12992728
112	0xba953b02	-0.0011385384
113	0x3affbdc7	0.0019511514
114	0x39301f15	0.00016796247
115	0xbcd8190b	-0.026379129
116	0xbd4d70a1	-0.05015624
117	0xbe35fe90	-0.17772889
118	0xbe3f78b3	-0.18698387
119	0xbe42aa08	-0.19010174
120	0x3c302ba6	0.010752594
121	0x3c8ef460	0.017450511
122	0xbc937cb2	-0.018003795
123	0xbdd64d7b	-0.10463997
124	0xbdda3ef7	-0.10656541
125	0xbeacd41b	-0.33755574
126	0xbe811bc6	-0.25216502
127	0xbd8cf810	-0.06883252
128	0x3dbd1fad	0.09234557
129	0xbd3816e8	-0.04494372
130	0xbd57e81f	-0.052711602
131	0xbe16a979	-0.14713086
132	0xbe602156	-0.21887717
133	0xbd297a77	-0.041376557
134	0xbe84baf0	-0.25923872
135	0xbe14df00	-0.14538193
136	0xbd5972ae	-0.053087883
137	0xbdfcc9af	-0.123431556
138	0xbda5e1f0	-0.08099735
139	0x3d0a5c8e	0.033779673
140	0x3da41f33	0.08013763
141	0x3e26c2ce	0.1628525
142	0x3e5191a8	0.2046572
143	0x3e4dfff1	0.20117165
144	0xbe5e56dd	-0.21712823
145	0xbd3e5241	-0.046465162
146	0xbd1ebc2d	-0.038753677
147	0xbded2e4c	-0.11581096
148	0xbbe4a13d	-0.006977229
149	0x3d96a942	0.07356502
150	0x3c96c17f	0.018402813
151	0x3cc31829	0.023815231
152	0xbdcb1028	-0.09915191
153	0xbd61bb33	-0.055110168
154	0xbd27b5a4	-0.04094471
155	0x3da9289d	0.082596995
156	0x3db45c31	0.088066466
157	0x3d869b9c	0.06572649
158	0x3e47ad46	0.19499692
159	0x3e6e99a4	0.23300797
160	0xbd8c4e3e	-0.06850861
161	0x3c66c1b1	0.014084266
162	0x3da2e531	0.07953871
163	0xbd6abe5b	-0.057310443
164	0xbbf00883	-0.0073252334
165	0x3b423657	0.002963444
166	0x3dc570d2	0.096406594
167	0x3de88c08	0.11354834
168	0xbdf4f7af	-0.119613044
169	0xbd94ad88	-0.07259661
170	0xbdbea07a	-0.09307952
171	0x3d5200fd	0.051270474
172	0x3e06e76c	0.13174218
173	0x3e322772	0.1739786
174	0x3e83a5d0	0.25712442
175	0x3e63f0fb	0.22259896
176	0x3dcd0f2e	0.10012661
177	0x3d417fad	0.0472409
178	0x3ce758be	0.028240558
179	0x3d1e02a7	0.03857675
180	0xbc6a7c22	-0.014311822
181	0xbe2f6c87	-0.17131244
182	0xbe609247	-0.219308
183	0xbe9ccd5c	-0.30625427
184	0xbe2bc531	-0.16774441
185	0xbdbde931	-0.09272993
186	0xbe1b1826	-0.1514593
187	0xbe79fa5d	-0.24411912
188	0xbd907155	-0.07052866
189	0x3dab7282	0.0837145
190	0xbddd5438	-0.10807079
191	0xbb3e75dd	-0.0029061951
192	0x3ccefcbd	0.025267
193	0x3dcf77c1	0.10130263
194	0x3e20970f	0.15682624
195	0x3e95130d	0.29116097
196	0x3ea0bf4c	0.31395948
197	0x3e6af8d7	0.22946487
198	0x3e14736a	0.14497152
199	0x3d8ff389	0.070288725
200	0xbd1de44e	-0.038547806
201	0x3da4a72f	0.080397
202	0x3d8758b5	0.066087164
203	0xbd2c3904	-0.04204656
204	0xbd9c7908	-0.076402724
205	0xbe319269	-0.17341007
206	0x3d1df703	0.038565647
207	0xbdb8ee7e	-0.09029864
208	0x3eedfecc	0.46483457
209	0x3ec01569	0.37516335
210	0x3ec476d7	0.38371918
211	0x3e176234	0.14783555
212	0x3d76b300	0.0602293
213	0x3d095545	0.033528585
214	0x3b4fff05	0.0031737697
215	0xbc0008b3	-0.007814574
216	0xbda52eba	-0.08065553
217	0xbc0bdb7e	-0.008536218
218	0xbd4bf1d1	-0.04979116
219	0xbd07fe2f	-0.033201393
220	0xbe4e6dcc	-0.20159072
221	0xbe8d62ae	-0.2761435
222	0xbe6a8f24	-0.22906166
223	0xbe688ce2	-0.22709993
224	0x3cfcdb2d	0.03086623
225	0x3d25eb70	0.040507734
226	0x3c50318d	0.012707126
227	0xbdbf5828	-0.09342986
228	0xbd787db7	-0.060666766
229	0xbe18bac2	-0.14914992
230	0xbe0dcc9a	-0.1384758
231	0xbdb41855	-0.087937035
232	0x3de3b159	0.11117811
233	0x3e1b51d3	0.15167932
234	0x3e2d2cd5	0.16911633
235	0x3e338e22	0.17534688
236	0x3e01faa3	0.12693267
237	0x3dcac8f1	0.09901608
238	0x3da51cfe	0.080621704
239	0x3de26491	0.11054338
240	0x3e37f645	0.17965038
241	0x3ea49d91	0.32151464
242	0x3eb05c79	0.3444555
243	0x3edb1527	0.42789575
244	0x3ea1f5e0	0.316329
245	0x3e521553	0.20515947
246	0x3e330439	0.1748208
247	0x3e160b4a	0.14652744
248	0x3b75125b	0.0037394974
249	0x3cabcbcf	0.020971207
250	0x3d0b3017	0.03398141
251	0x3d24bea9	0.04022089
252	0x3d30cf7c	0.043166623
253	0x3cf713a9	0.030160742
254	0x3d44821a	0.047975637
255	0x3d7a3bee	0.06109231

encoder.rnn.weight_hh_l0 f4 [128, 32]
0	0xbd466e91	-0.048445288
1	0x3c59a160	0.013283104
2	0xbeda4866	-0.4263336
3	0x3c91952a	0.017771322
4	0x3eb77e24	0.35838425
5	0x3ec1ad88	0.37827706
6	0x3d8dcaaf	0.069234245
7	0xbe5c84af	-0.2153499
8	0xbea959e1	-0.33076385
9	0x3dc1c069	0.094605274
10	0xbc8ada20	-0.016949713
11	0x3dc02c81	0.093834884
12	0x3d0184c0	0.03162074
13	0xbe91e976	-0.2849843
14	0xbefd05ef	-0.4941859
15	0xbe8f835d	-0.2802991
16	0xbec919c1	-0.3927746
17	0x3e589451	0.21150328
18	0xbe05fddd	-0.13085122
19	0x3e71d11b	0.23614924
20	0xbdf11299	-0.11771125
21	0x3c946a3b	0.01811706
22	0xbebc1be7	-0.36740038
23	0xbea91b02	-0.33028418
24	0x3d07ce5d	0.033155788
25	0x3e69b86e	0.2282426
26	0xbd6bcf52	-0.057570763
27	0xbe993985	-0.29926696
28	0x3d061906	0.032738708
29	0xbc0f9869	-0.008764365
30	0x3cbcbd47	0.023039473
31	0xbd983420	-0.07431817
32	0x3e2ceef1	0.16888024
33	0xbce3f18d	-0.027825141
34	0xbe47529d	-0.19465108
35	0xbc69b64f	-0.014264657
36	0x3ebebf7a	0.3725546
37	0x3e675019	0.22589149
38	0x3cc5a195	0.0241249
39	0x3d13d41a	0.036090948
40	0xbea898cb	-0.32929072
41	0xbe1be2b9	-0.15223207
42	0xbe453283	-0.1925755
43	0x3e461dff	0.1934738
44	0x3da61cbc	0.081109494
45	0xbe50dba8	-0.20396292
46	0xbe1fab92	-0.15592793
47	0xbdc190bf	-0.09451436
48	0xbc434ad9	-0.011919701
49	0x3e560850	0.20901608
50	0xbded6bf2	-0.115928546
51	0x3e90400d	0.28173867
52	0xbb7dcf17	-0.0038728171
53	0xbe889a21	-0.2668009
54	0xbe8928e3	-0.26789007
55	0xbe85422e	-0.26027054
56	0x3be1d108	0.0068913735
57	0x3e85c769	0.261287
58	0x3bdb85d1	0.006699302
59	0xbeb290a8	-0.3487599
60	0x3dd18188	0.10229784
61	0x3c4d210b	0.012520085
62	0xbc4a4070	-0.012344465
63	0x3e03ebdf	0.12882946
64	0xbe268078	-0.16259944
65	0xbcc56d59	-0.024099993
66	0x3e47b3ea	0.19502226
67	0x3ed7f666	0.42180175
68	0xbeb67591	-0.3563657
69	0xbed60702	-0.41802222
70	0xbd98d944	-0.07463315
71	0x3d396606	0.045263313
72	0x3ec15513	0.3776022
73	0x3ea09166	0.3136093
74	0xbe168c7c	-0.14702028
75	0xbe832d5b	-0.2562054
76	0xbe42163b	-0.18953793
77	0x3e80f4cd	0.25186768
78	0x3f144ee3	0.5793287
79	0x3ca7404a	0.020416398
80	0x3dfffcc9	0.12499387
81	0xbe1b184c	-0.15145987
82	0x3ded84b9	0.115975805
83	0xbe0b24c9	-0.13588251
84	0xbe2eb5f8	-0.17061603
85	0xbd8f4375	-0.06995288
86	0x3ede3946	0.4340307
87	0x3eddbd3d	0.4330844
88	0x3e0ba1bd	0.13635917
89	0xbdab9d9d	-0.08379672
90	0xbd810f5b	-0.06301757
91	0x3e8e0de8	0.27744985
92	0xbe92e3a5	-0.28689304
93	0xbd8f1b9e	-0.069876894
94	0x3e3d2266	0.18470153
95	0xbea55a74	-0.32295573
96	0x3d1a325d	0.037645686
97	0xbd6c5bd5	-0.057704765
98	0x3dfcf64d	0.12351666
99	0x3d89ecc2	0.06734611
100	0x3c28dd34	0.010306645
101	0xbd731b71	-0.059352342
102	0xbe6f7069	-0.23382725
103	0x3dae6cb2	0.08516826
104	0xbba65612	-0.0050761783
105	0xbe298d8f	-0.16557907
106	0xbe1688e8	-0.14700663
107	0xbdc00907	-0.09376722
108	0xbc70f3b6	-0.014706543
109	0x3ddfc539	0.10926289
110	0x3e03c45d	0.12867875
111	0x3dbfc103	0.09362986
112	0x3e2d5053	0.16925173
113	0x3c2510b5	0.010074784
114	0x3db93673	0.090435885
115	0xbdb0a82b	-0.086258255
116	0x3e656e08	0.22405255
117	0xbdc43dbb	-0.09582087
118	0x3e02de9a	0.12780228
119	0x3d497aec	0.049189493
120	0xbe482e91	-0.19549014
121	0x3d6a7ac0	0.05724597
122	0x3de7608e	0.11297713
123	0x3d105543	0.035237562
124	0x3d0479f5	0.03234287
125	0x3ea0d75d	0.3141431
126	0xbde788db	-0.113054
127	0x3d9c2e5f	0.07626032
128	0xbc9e534a	-0.019326825
129	0x3dda7f78	0.10668844
130	0xbde6288d	-0.11238203
131	0xbd4499f1	-0.047998372
132	0xbdd7ac48	-0.10530907
133	0xbdc6f9ac	-0.0971559
134	0xbc8df192	-0.017327104
135	0xbe20dd36	-0.15709385
136	0x3dc14217	0.09436434
137	0xbe1361ac	-0.14392728
138	0xbddc2f66	-0.10751228
139	0xbcbe08f3	-0.023197627
140	0x3da2b815	0.07945267
141	0x3e758ab8	0.23978698
142	0xbd189a15	-0.03725632
143	0x3d1264a6	0.035740517
144	0xbdd5116c	-0.104037136
145	0xbe9d0231	-0.30665734
146	0xbdb1f8bb	-0.0869002
147	0xbe93fcb0	-0.28903723
148	0x3d8035a2	0.0626023
149	0xbb07344a	-0.0020630532
150	0x3cb2e3b4	0.021837093
151	0x3c6034a4	0.0136844255
152	0x3c5a6818	0.013330482
153	0x3dd8c4b3	0.105843924
154	0x3bee8765	0.007279324
155	0x3e789825	0.24276789
156	0xbd766b67	-0.06016102
157	0x3d4bab55	0.04972394
158	0x3c25044d	0.010071826
159	0xbcdebe4c	-0.02719035
160	0xbe4ba193	-0.19885854
161	0x3dd1080c	0.10206613
162	0x3dd8441e	0.10559867
163	0xbda4768e	-0.08030425
164	0xbeca4492	-0.3950544
165	0xbea505ea	-0.32231075
166	0xbdd0ea5a	-0.10200949
167	0x3d9d5bde	0.07683538
168	0x3ebfe688	0.3748057
169	0xbd6441f2	-0.055726953
170	0xbe5e2609	-0.21694197
171	0xbd8aedb1	-0.06783617
172	0x3da97b94	0.08275524
173	0x3e5992c8	0.21247399
174	0x3ee7b050	0.45251703
175	0x3e62ec8f	0.22160552
176	0x3dc0192e	0.09379803
177	0xbed151d3	-0.4088274
178	0x3e2e2432	0.17005995
179	0xbec4143a	-0.38296682
180	0xbcd14de2	-0.025549833
181	0x3c6df497	0.014523647
182	0x3eb70611	0.35746816
183	0x3e9e5b48	0.30929017
184	0xbd559097	-0.052139845
185	0xbe4af3d9	-0.19819583
186	0x3bda58e7	0.00666343
187	0x3ec5f948	0.3866675
188	0xbe21edf7	-0.15813433
189	0x3d7f07b3	0.062263202
190	0x3a621799	0.0008624732
191	0x3ce4e1f0	0.027939767
192	0xbdc6dc2d	-0.09709964
193	0x3dfd9061	0.12381054
194	0xbd8589bf	-0.065204136
195	0x3de9d204	0.114170104
196	0xbdf7d642	-0.12101413
197	0xbe16cf0b	-0.14727418
198	0x3caa06b5	0.020755151
199	0x3d2c2349	0.042025838
200	0x3dfc0a4e	0.12306653
201	0x3d7e4b0e	0.062083296
202	0x3d51d82e	0.051231556
203	0xbca75ac7	-0.020429028
204	0x3d9774b5	0.07395307
205	0x3d66d84e	0.056358628
206	0x3dc64994	0.09682003
207	0xbd186f91	-0.037215773
208	0x3e5ce9bf	0.21573542
209	0xbd1471b8	-0.036241263
210	0x3e4acc37	0.19804464
211	0xbe107234	-0.14106065
212	0x3e618139	0.22021951
213	0x3c1fe390	0.009758845
214	0x3df37c26	0.11888914
215	0x3e1cad88	0.15300572
216	0xbb9888ac	-0.0046549644
217	0xbd8ecb83	-0.069724105
218	0xbbcc13e7	-0.0062279585
219	0x3de3073d	0.11085365
220	0x3d2b28e7	0.041787054
221	0x3d68f80f	0.056877192
222	0x3b2dd75c	0.002652607
223	0x3d462caa	0.04838244
224	0xbe0d1c99	-0.1378044
225	0xbc168a91	-0.00918831
226	0x3edb7794	0.42864668
227	0xbee86c7f	-0.45395276
228	0xbeb38609	-0.35063198
229	0xbe9ffcfe	-0.31247705
230	0xbef88ea2	-0.4854632
231	0xbe14cb71	-0.14530732
232	0x3eaadfde	0.33373922
233	0xbe573883	-0.21017651
234	0xbd84d109	-0.06485183
235	0xbe4ce0a8	-0.20007575
236	0x3e91a07c	0.28442752
237	0x3ea36fa7	0.3192112
238	0x3ecaf4fc	0.39640033
239	0x3ed2e51b	0.4119042
240	0x3ea47548	0.32120728
241	0xbe57c63e	-0.21071717
242	0x3eef8d40	0.46787453
243	0xbe99b00c	-0.30017126
244	0x3eb45503	0.3522111
245	0xbea803c0	-0.3281536
246	0x3eb36b97	0.35043022
247	0x3ed58110	0.4170003
248	0xbefc1949	-0.4923804
249	0xbe4aef90	-0.19817948
250	0x3eed656c	0.4636644
251	0x3ecb9ae5	0.39766613
252	0x3c585138	0.013202958
253	0x3f046ba7	0.51726764
254	0xbeebaa33	-0.4602829
255	0x3e98ab47	0.29818174

encoder.rnn.bias_ih_l0 f4 [128]
0	0xbe8ba243	-0.27272233
1	0xbe91b234	-0.2845627
2	0x3e9f3014	0.31091368
3	0x3da84a3e	0.082172856
4	0xbc8109f0	-0.015751809
5	0x3dc4da4d	0.0961195
6	0x3dbff174	0.093722254
7	0x3eedf9eb	0.46479735
8	0x3e6c0539	0.23048867
9	0x3ef35e1c	0.47532737
10	0x3e01b05e	0.12664935
11	0x3f2c2fe0	0.6726055
12	0xbd8081b6	-0.062747404
13	0x3da7186a	0.081589535
14	0x3dbe9607	0.09305959
15	0xbd258449	-0.04040936
16	0xbe2678be	-0.16256997
17	0x3c265bd9	0.010153734
18	0x3f288137	0.65822166
19	0xbc0a6bda	-0.008448565
20	0x3e7bae98	0.24578321
21	0x3e15fe3a	0.14647761
22	0x3d99e287	0.0751391
23	0x3db07abf	0.08617162
24	0x3d6aac9e	0.057293527
25	0xbc21db79	-0.0098789865
26	0xbd979d56	-0.07403056
27	0x3d089275	0.033342797
28	0xbe753f8f	-0.23950027
29	0x3dac960b	0.08427056
30	0x3d5fe130	0.054658115
31	0x3ed468e7	0.41486284
32	0xbd2a4b2a	-0.04157559
33	0xbdbb6db0	-0.091517806
34	0x3e57ea22	0.21085408
35	0x3c04f1bf	0.008114277
36	0xbdeac465	-0.114632405
37	0xbcd12213	-0.025528943
38	0x3e788a87	0.24271594
39	0xbd8f950e	-0.07010852
40	0x3e0a54c4	0.13508898
41	0xbd269c74	-0.04067655
42	0xbd54e2b1	-0.051974002
43	0xbc1b3cc5	-0.009474938
44	0xbe19dab8	-0.15024841
45	0x3cdc7462	0.026910964
46	0x3e89736c	0.26845872
47	0x3f274fac	0.65355945
48	0x3f01e2a5	0.5073646
49	0x3d7c2723	0.06156076
50	0x3c4ce756	0.012506327
51	0xbdcda67e	-0.100415215
52	0x3e85fde2	0.2617026
53	0x3cb3d794	0.021953382
54	0xbe652b2c	-0.2237975
55	0x3ea69e78	0.32542777
56	0x3d88d069	0.06680376
57	0xbdb47d8b	-0.08813008
58	0xbd507d7d	-0.050900925
59	0x3d876e68	0.06612855
60	0xbd31d0b4	-0.043411925
61	0x3dc629ad	0.09675918
62	0xbd5c88fe	-0.053841583
63	0x3d994960	0.07484698
64	0x3cb65722	0.022258345
65	0xbdc0dc3c	-0.094170064
66	0x3ec51971	0.38495973
67	0xbd3276b7	-0.043570247
68	0x3d9d25e4	0.07673243
69	0xbcb4d45f	-0.022073923
70	0xbeb1f017	-0.34753487
71	0x3d8fbd86	0.070185706
72	0x3ddc7643	0.10764744
73	0xbdd6ba51	-0.10484756
74	0xbd3371f0	-0.04380983
75	0xbcb73fb9	-0.022369253
76	0xbd065a5d	-0.03280102
77	0xbe007f30	-0.12548518
78	0x3daab233	0.0833477
79	0x3dadf3c4	0.0849376
80	0x3ddaaec4	0.10677865
81	0x3eb8dc1c	0.3610543
82	0x3edfea7d	0.43733588
83	0x3dc00283	0.09375479
84	0x3e970dfe	0.29502863
85	0xbe20488e	-0.15652677
86	0x3db39bdb	0.087699614
87	0x3e69dad2	0.2283738
88	0xbe2b5612	-0.16732052
89	0xba4b005e	-0.000774389
90	0x3d2627ca	0.04056529
91	0xbb8b480f	-0.0042505334
92	0xbc87d27a	-0.016579855
93	0x3d7622f3	0.060091924
94	0xbcdfde3b	-0.027327647
95	0x3cf48d72	0.029852603
96	0x3d8b1ece	0.06792985
97	0xbe728675	-0.23684104
98	0x3f545f15	0.82957584
99	0x3e92c2a7	0.28664133
100	0xbdb61cab	-0.08892187
101	0x3cc7bbe4	0.024381585
102	0x3df7dff8	0.121032655
103	0x3f3ee826	0.7457298
104	0x3c9e1b4a	0.019300122
105	0x3cbc1756	0.022960346
106	0xbd6aeecd	-0.057356644
107	0x3e9f9431	0.3116775
108	0x3d9f164a	0.07767923
109	0x3dc3e3e0	0.09564948
110	0x3efc0bfd	0.49227896
111	0x3d01a9ac	0.031655952
112	0x3f38fa13	0.7225658
113	0x3dc81b74	0.09770861
114	0x3d01e886	0.031715892
115	0x3c64ede7	0.013972736
116	0x3e2afcb2	0.16697958
117	0x3e8e0fa8	0.2774632
118	0x3be8cdc7	0.0071046087
119	0x3ec689b9	0.3877695
120	0x3d48ec70	0.04905361
121	0x3cbfd851	0.023418577
122	0xbcb931d9	-0.022606777
123	0x3dcd2e04	0.100185424
124	0xbd2c76a2	-0.042105325
125	0xbc07364e	-0.008252693
126	0x3e464cd0	0.19365239
127	0x3d2f4e6b	0.042799395

encoder.rnn.bias_hh_l0 f4 [128]
0	0xbe8ba241	-0.27272227
1	0xbe91c734	-0.28472292
2	0x3e9f3015	0.3109137
3	0x3da84a39	0.08217282
4	0xbc4f5b7d	-0.01265609
5	0x3dae1883	0.08500769
6	0x3dbfdbfc	0.093681306
7	0x3eede9dd	0.46467486
8	0x3e6c053b	0.2304887
9	0x3ef35e22	0.47532755
10	0x3e02b6ef	0.12765096
11	0x3f2c2fe2	0.67260563
12	0x3e0f799d	0.14011236
13	0x3da6d5d2	0.08146252
14	0x3dbe9e34	0.093075186
15	0xbd257f22	-0.040404446
16	0xbe17be91	-0.14818789
17	0x3c265bd5	0.01015373
18	0x3f2a70d9	0.6657844
19	0xbc0a6c78	-0.0084487125
20	0x3e7bae98	0.24578321
21	0x3e15c470	0.14625716
22	0x3d99e15b	0.07513686
23	0x3e23c94b	0.15994756
24	0x3d6aaca2	0.05729354
25	0xbc21de4a	-0.009879658
26	0xbd979d40	-0.0740304
27	0x3d27386a	0.040825285
28	0xbe7541ed	-0.2395093
29	0x3dac95f5	0.084270395
30	0x3d5fe132	0.054658122
31	0x3ed468e7	0.41486284
32	0xbd2a4b1d	-0.04157554
33	0xbdbb6dac	-0.091517776
34	0x3e57ea29	0.21085419
35	0x3bf7b13d	0.0075589702
36	0xbdf032c8	-0.11728436
37	0xbcd6b0d0	-0.026207358
38	0x3e789931	0.24277188
39	0xbd8f978f	-0.070113294
40	0x3e0be5b2	0.1366184
41	0xbd2751a7	-0.040849354
42	0xbd54df82	-0.051970966
43	0xbc1b3cde	-0.009474961
44	0xbe2f5df0	-0.17125678
45	0x3cdc74c2	0.026911143
46	0x3e8973a2	0.26846033
47	0x3f279b17	0.65471023
48	0x3f01e2a7	0.5073647
49	0x3d7c2727	0.061560776
50	0x3da223fd	0.079170205
51	0xbdd4f378	-0.103980005
52	0x3e85fde2	0.2617026
53	0x3cb3d662	0.021952812
54	0xbe673c78	-0.22581661
55	0x3ea69e73	0.32542762
56	0x3d88d066	0.06680374
57	0xbdb47cf4	-0.088128954
58	0xbd5074cc	-0.050892636
59	0x3d9bc408	0.07605749
60	0xbd31d4ca	-0.043415822
61	0x3dc629ac	0.09675917
62	0xbd5c8aa6	-0.053843163
63	0x3d994966	0.07484703
64	0x3cb74372	0.022371028
65	0xbdcb05cc	-0.09913215
66	0x3ec51f5c	0.38500488
67	0xbd2f21a8	-0.042756706
68	0x3d95af02	0.07308771
69	0xbccf30b1	-0.025291773
70	0xbeb1f016	-0.34753484
71	0x3dd6bb9b	0.10485002
72	0x3ddc5750	0.10758841
73	0xbdd972e9	-0.106176205
74	0xbd337128	-0.043809086
75	0xbcb76948	-0.02238907
76	0xbd05f000	-0.032699585
77	0xbe008e55	-0.12554295
78	0x3dc8680f	0.097854726
79	0x3dbb6554	0.09150186
80	0x3ddac54c	0.10682163
81	0x3eb8e1cf	0.36109778
82	0x3eaeec08	0.34164453
83	0x3dc00279	0.093754716
84	0x3e970e0b	0.295029
85	0xbe301bd3	-0.17198114
86	0x3db39bdc	0.08769962
87	0x3e567786	0.20944032
88	0xbe2b52db	-0.16730826
89	0xba5e13f8	-0.00084716035
90	0x3d26403c	0.040588602
91	0xbdf45500	-0.11930275
92	0xbc88325a	-0.016625572
93	0x3d76201b	0.060089212
94	0xbce020c3	-0.027359372
95	0x3cf4496d	0.029820168
96	0x3d8b1ecb	0.06792983
97	0xbe72869d	-0.23684163
98	0x3f545f14	0.8295758
99	0x3e92c2c8	0.2866423
100	0xbdb65842	-0.089035526
101	0x3cc7f6a9	0.024409609
102	0x3df7e002	0.12103273
103	0x3f3ee82f	0.74573034
104	0x3c9e91e8	0.019356683
105	0x3cbca907	0.023029817
106	0xbd6b066f	-0.057379182
107	0x3e9f9431	0.3116775
108	0x3d9f3d60	0.07775378
109	0x3dc3e3da	0.095649436
110	0x3efc0c0b	0.49227938
111	0x3d04e706	0.032446884
112	0x3f38f9e6	0.72256315
113	0x3dc81b7c	0.09770867
114	0x3d01e6f4	0.031714395
115	0x3c64c1ca	0.013962219
116	0x3e2afcb2	0.16697958
117	0x3e8e0fa8	0.2774632
118	0x3be73c17	0.007056724
119	0x3ec68126	0.38770407
120	0x3d48ec74	0.049053624
121	0x3cc029b6	0.02345739
122	0xbcb93205	-0.022606859
123	0x3dcd37e2	0.100204244
124	0xbd2c76a2	-0.042105325
125	0xbc073404	-0.008252148
126	0x3e464cb8	0.19365203
127	0x3d2f4ea7	0.042799618

decoder.rnn.weight_ih_l0 f4 [256, 32]
0	0x3f0efaf1	0.55851656
1	0xbf68c445	-0.90924484
2	0xbf8873fd	-1.0660397
3	0x3e6df7e5	0.23239096
4	0x3c946707	0.018115534
5	0x3e1a36cf	0.1505997
6	0x3dbe1bca	0.09282644
7	0x3e8f652e	0.2800688
8	0xbe8b028d	-0.27150384
9	0x3f1c735d	0.6111353
10	0x3eb8f17b	0.36121735
11	0xbe7678a4	-0.24069458
12	0xbf9136ad	-1.1344811
13	0xbe8393c4	-0.25698674
14	0xbed60622	-0.41801554
15	0xbf370644	-0.71493936
16	0xbdfd5ab9	-0.123708196
17	0x3d8097e6	0.06278972
18	0xbd881ea4	-0.06646469
19	0xbd44ea7e	-0.04807519
20	0xbd812621	-0.06306101
21	0x3dad38a6	0.084580705
22	0xbd66cc32	-0.05634708
23	0x3de8ecd4	0.113732964
24	0xbedde896	-0.4334151
25	0x3e0528f4	0.13003904
26	0x3fa5f4fb	1.2965387
27	0x3d019217	0.031633463
28	0xbeaf2e03	-0.34214792
29	0x3f1d320a	0.6140448
30	0x3e9ab0f5	0.30213133
31	0x3e8a25a6	0.26981848
32	0xbd5c124c	-0.053728387
33	0xbec7cd85	-0.39023986
34	0xbf2cc8fc	-0.6749418
35	0x3f75bd30	0.959918
36	0xbf022474	-0.50836873
37	0xbee7acae	-0.45248932
38	0x3f31c078	0.6943431
39	0x3e8b621d	0.27223292
40	0x3d8c742d	0.06858096
41	0x3e1b8425	0.15187128
42	0x3ef2bdcb	0.47410426
43	0xbf99140b	-1.1959242
44	0xbfcdf613	-1.6090721
45	0x3ed86e90	0.42271852
46	0x3b26d6dc	0.0025457656
47	0xbf218a33	-0.631015
48	0x3ec245e9	0.37943962
49	0xbe90b7ae	-0.28265136
50	0xbfbc774c	-1.4723907
51	0xbedae034	-0.42749178
52	0xbd1e0db0	-0.038587272
53	0x3f2e2be7	0.6803574
54	0x3f04921f	0.51785463
55	0xbc3d0632	-0.011537122
56	0xbdbe3f31	-0.092893966
57	0xbf027a16	-0.5096754
58	0x3f2b139f	0.66826814
59	0x3ee6ac28	0.4505322
60	0xbe8d1348	-0.27553773
61	0x3d30d859	0.043175075
62	0x3efd8099	0.49512175
63	0x3ebfef40	0.3748722
64	0x3e01a6f8	0.1266135
65	0xbf3c2a67	-0.735022
66	0xbf3d7c6e	-0.7401799
67	0x3ed28386	0.4111597
68	0xbe5fcc49	-0.21855272
69	0xbe90cf12	-0.28282982
70	0x3ed7dc9d	0.42160502
71	0x3eed6c3c	0.4637164
72	0xbd7a15de	-0.06105601
73	0x3e2abae5	0.16672857
74	0x3eb30069	0.3496125
75	0xbf169f80	-0.5883713
76	0xbfdecb65	-1.7405821
77	0x3c53394c	0.012892079
78	0xbe807ee1	-0.250968
79	0xbefee728	-0.49785733
80	0x3e8034a4	0.25040162
81	0xbda9142a	-0.08255799
82	0xbfaa4e87	-1.3305215
83	0xbec6ae2a	-0.38804752
84	0xbd35914d	-0.044328023
85	0x3ee4d213	0.44691524
86	0x3e0786c9	0.1323501
87	0x3ce21f65	0.02760286
88	0x3ecb8686	0.3975107
89	0xbde621b6	-0.112368986
90	0x3f217b5b	0.6307885
91	0x3dcd23a8	0.100165665
92	0xbe9c2a95	-0.30501238
93	0xbe5a6ffb	-0.2133178
94	0x3f1f9eb5	0.6235154
95	0x3eb5b68d	0.35490838
96	0x3ebf225e	0.37330908
97	0xbf1256f0	-0.57163906
98	0xbf883497	-1.0641049
99	0x3f295e61	0.66159636
100	0xbe28bb64	-0.16477734
101	0xbe4beff7	-0.19915758
102	0x3ed4776a	0.41497356
103	0x3ec0e849	0.3767722
104	0xbdf6556b	-0.12028011
105	0xbdfa361d	-0.122173525
106	0x3eb75c90	0.35812807
107	0xbf2111fc	-0.62918067
108	0xc01590c0	-2.3369598
109	0xbdb921d0	-0.09039652
110	0xbf11df89	-0.5698171
111	0xbeec9780	-0.46209335
112	0x3f0ee132	0.5581237
113	0xbcd04472	-0.025423262
114	0xbfc945d4	-1.5724435
115	0xbe41d85d	-0.18930192
116	0xbeb42df5	-0.35191312
117	0x3ea57721	0.3231745
118	0x3d6462b4	0.055758193
119	0x3e42bc0d	0.19017048
120	0x3e9583f3	0.29202232
121	0xbd095d02	-0.033535965
122	0x3f2b008b	0.66797704
123	0x3e61a978	0.22037303
124	0xbf277acf	-0.65421766
125	0xbeb3ef2d	-0.35143414
126	0x3f6b8805	0.92004424
127	0x3e6f7b75	0.23386939
128	0x3ecf4c0e	0.40487713
129	0xbf086008	-0.5327153
130	0xbf97e95c	-1.1868091
131	0x3df9d757	0.12199276
132	0x3e9506e2	0.29106814
133	0x3edf72f5	0.43642393
134	0xbf0885a8	-0.53328943
135	0xbdaaa70f	-0.08332645
136	0xbf061fa9	-0.5239206
137	0x3ede56f9	0.4342573
138	0x3f2e04c2	0.6797601
139	0xbebe7f55	-0.37206522
140	0xbf7b0f86	-0.9807056
141	0xbe9ee726	-0.31035727
142	0xbf20522b	-0.6262538
143	0xbedb1714	-0.42791045
144	0x3f1d9dba	0.61568797
145	0x3ed7cf90	0.42150545
146	0x3e1219df	0.14267682
147	0x3e76db65	0.2410713
148	0x3e66a355	0.22523244
149	0x3b824b74	0.00397628
150	0xbe21f466	-0.15815887
151	0x3c2b1375	0.010441651
152	0xbf733593	-0.9500362
153	0x3f342a2e	0.7037686
154	0x3fdde90f	1.7336749
155	0xbe46f0ce	-0.19427797
156	0xbe32e85c	-0.1747145
157	0x3f3594cf	0.7093019
158	0xbe03bde8	-0.12865412
159	0x3f179179	0.5920635
160	0x3dfa8b64	0.12233618
161	0xbee3a320	-0.44460392
162	0xbef31071	-0.4747348
163	0x3ee1de84	0.44115078
164	0x3db49540	0.0881753
165	0xbe376ee3	-0.17913394
166	0x3e43cdb2	0.19121435
167	0xbdac38af	-0.08409249
168	0xbf1dba6c	-0.6161258
169	0x3ee4e8d3	0.4470888
170	0x3ec7d5d9	0.3903034
171	0xbc43991f	-0.011938362
172	0xbf5af6f2	-0.8553306
173	0xbe216bc3	-0.15763764
174	0xbefe4222	-0.4965983
175	0xbf60c38e	-0.8779839
176	0xbe4bd4c8	-0.19905388
177	0xbcd5ceca	-0.026099581
178	0xbf93b3e2	-1.1539271
179	0xbd5997e2	-0.053123362
180	0x3e9c9357	0.3058116
181	0xbde1086c	-0.109879345
182	0x3db2b52c	0.08725962
183	0x3d134ef5	0.03596397
184	0xbe952dbd	-0.29136458
185	0xbe4dbf7f	-0.20092581
186	0x3f580d91	0.843957
187	0xbccbc338	-0.024873361
188	0xbdc14417	-0.09436815
189	0x3f022417	0.5083632
190	0xbc581fa5	-0.013191138
191	0xbfdff2a5	-1.7495924
192	0x3ef8ce78	0.48595023
193	0xbd7a5105	-0.061112422
194	0xbf33d18f	-0.70241636
195	0xbe1cb7ef	-0.1530454
196	0x3da244aa	0.07923253
197	0x3e2450cd	0.16046448
198	0x3e684614	0.22682983
199	0xbe125007	-0.1428834
200	0x3d4b161a	0.049581625
201	0x3f7e2454	0.9927418
202	0x3e4a1a30	0.19736552
203	0x3d296d92	0.04136426
204	0xbfd55703	-1.6667179
205	0xbf453068	-0.7702699
206	0xbeee0e7c	-0.46495426
207	0xbf6b0dc4	-0.9181788
208	0xbf6a4c74	-0.9152291
209	0x3e3d3624	0.18477684
210	0xbfe2c465	-1.7716185
211	0x3ccd911f	0.025093613
212	0xbd8fe4be	-0.07026051
213	0xbe49a19e	-0.19690558
214	0xbd9fb70e	-0.07798587
215	0x3e90f979	0.28315333
216	0xbe2123e9	-0.15736355
217	0xbd73269a	-0.059362985
218	0x3fbdaed2	1.4818976
219	0xbd8461d3	-0.06463971
220	0xbd9d9c9b	-0.07695886
221	0x3f4b9401	0.7952271
222	0xbe99f93c	-0.30072963
223	0x3efc9c23	0.49337873
224	0x3e423dd4	0.18968898
225	0xbe317787	-0.17330752
226	0xbea78201	-0.32716373
227	0x3f43e4d2	0.7652103
228	0xbeca07bc	-0.39459026
229	0xbefdbc80	-0.49557877
230	0x3f59a9ef	0.85024923
231	0x3dd1d4c0	0.10245657
232	0xbe1d382c	-0.15353459
233	0x3eda0045	0.4257833
234	0x3ccef2b8	0.025262222
235	0x3ce2ba5f	0.02767676
236	0xbfb1c5e6	-1.3888519
237	0xbdadc97f	-0.08485698
238	0x3de4adb9	0.111659475
239	0xbf4b8fc1	-0.79516226
240	0xbf7266ab	-0.9468791
241	0xbe7e4a62	-0.24833062
242	0x3d61893c	0.055062518
243	0xbe192d60	-0.14958715
244	0x3e362c9d	0.17790456
245	0x3e591dfa	0.21202841
246	0x3f448f85	0.76781493
247	0xbe231665	-0.15926512
248	0xbea5ea23	-0.32405195
249	0xbecfae38	-0.40562606
250	0x3e8290df	0.25501153
251	0x3e2ecd71	0.17070557
252	0xbe923eab	-0.28563437
253	0x3e843c03	0.25827035
254	0x3e5fb114	0.21844894
255	0x3e7471e5	0.23871572

decoder.rnn.weight_hh_l0 f4 [256, 64]
0	0xbd1145da	-0.035467006
1	0x3ecdf73e	0.40227693
2	0xbe08b338	-0.13349617
3	0xbe61ebde	-0.22062632
4	0x3a90c1d0	0.0011044089
5	0xbeeec025	-0.4663097
6	0xbeac72a3	-0.3368121
7	0x3ced4a05	0.02896596
8	0xbcfcb51e	-0.030848082
9	0xbdb8ff31	-0.09033049
10	0xbeda9979	-0.42695215
11	0xbe146900	-0.1449318
12	0x3e88d195	0.26722398
13	0x3f31e900	0.69496155
14	0xbe1faffc	-0.15594476
15	0xbd19a50c	-0.037510917
16	0xbd1f20ee	-0.038849764
17	0x3e89dbe2	0.2692557
18	0xbe59d1fd	-0.2127151
19	0x3eb3f800	0.35150146
20	0xbe47fa97	-0.19529186
21	0x3d029894	0.03188379
22	0xbf4cdef2	-0.8002769
23	0xc0028ea4	-2.039956
24	0xbe3a2a90	-0.18180299
25	0xbd7da065	-0.061920542
26	0xbf5d13ed	-0.8635853
27	0x3ec70e63	0.38878164
28	0x3ecb9269	0.3976014
29	0x3e2c26c7	0.16811667
30	0x3c614f5f	0.013751834
31	0xbe5c35de	-0.21504924
32	0xbbbb65b6	-0.005718912
33	0x3e8296fc	0.25505817
34	0xbe5c49ee	-0.21512577
35	0x3f5b87b7	0.8575396
36	0xbe4b72da	-0.19868031
37	0x3f19d52c	0.600909
38	0xbdf651f1	-0.12027348
39	0xbf03fac4	-0.5155451
40	0x3dda3e5d	0.10656426
41	0xbee9fffa	-0.45703107
42	0xbf26c9fc	-0.65151954
43	0xbf02774f	-0.509633
44	0x3e437bd3	0.19090204
45	0xbc3a9245	-0.011387412
46	0xbd86de4c	-0.065853685
47	0xbe44b42b	-0.19209354
48	0x3d66c30e	0.056338362
49	0xbd0b2509	-0.033970866
50	0x3f35c1b5	0.709987
51	0xbf777d8e	-0.96675956
52	0xbe2cbe8d	-0.16869564
53	0x3db64027	0.08898955
54	0x3eaef662	0.3417235
55	0x3e083016	0.13299593
56	0x3ded9962	0.11601521
57	0x3d991fab	0.07476743
58	0x3e28c844	0.16482645
59	0xbe21c467	-0.15797578
60	0xbe424fee	-0.18975803
61	0x3e2bbdce	0.16771623
62	0x3e53fb07	0.20701228
63	0xbd9b9cca	-0.075982645
64	0x3e0fa8c4	0.14029223
65	0x3e14431e	0.14478728
66	0x3d4bd994	0.049768046
67	0xbea34a1a	-0.31892473
68	0x3d9f4b09	0.07777984
69	0x3e590711	0.21194102
70	0xbe4adea3	-0.19811492
71	0xbe945bda	-0.28976327
72	0xbe161d79	-0.1465968
73	0x3daccc57	0.08437412
74	0xbd275945	-0.04085662
75	0x3eea57ce	0.45770115
76	0x3e140aec	0.14457291
77	0xbdaee427	-0.0853961
78	0x3ee2b655	0.44279733
79	0x3da43cb2	0.08019389
80	0xbd42606f	-0.047455247
81	0xbe207fa6	-0.15673694
82	0xbdcf46fd	-0.10120962
83	0x3e5f0328	0.21778548
84	0xbeacb22f	-0.33729693
85	0x3c9b8b9e	0.018987473
86	0x3d09c039	0.033630583
87	0xbe984846	-0.2974264
88	0xbe1cba7d	-0.15305515
89	0xbe37fe7e	-0.17968175
90	0x3e359ae3	0.17734866
91	0x3d8f96d7	0.07011192
92	0xbe11c0c8	-0.14233696
93	0x3df6c70e	0.120496854
94	0x3e9e83b6	0.30959862
95	0xbb3552f3	-0.002766785
96	0x3e8cf0b9	0.27527407
97	0x3e900f94	0.28136885
98	0xbe1f806e	-0.15576336
99	0xbbbbc182	-0.005729855
100	0x3e3f7365	0.18696363
101	0xbdc6a63e	-0.09699677
102	0xbdf5baaf	-0.11998498
103	0xbde82b4c	-0.11336383
104	0xbe5c6a5c	-0.21524948
105	0xbe6816ee	-0.22664997
106	0x3f38d9e5	0.7220748
107	0xbf0058aa	-0.5013529
108	0x3e386e2d	0.18010779
109	0xbd81c747	-0.06336837
110	0x3e53595c	0.20639557
111	0xbe1ad90b	-0.15121858
112	0xbe2cb872	-0.16867235
113	0x3e79e19f	0.24402474
114	0xbecabe97	-0.39598534
115	0xbe89071a	-0.2676323
116	0x3e4fb6b1	0.20284535
117	0xbe14cb32	-0.14530638
118	0xbe89a8de	-0.26886648
119	0x3def7a7a	0.116932824
120	0xbe11290d	-0.14175816
121	0x3eb1ee77	0.34752247
122	0xbe20b47a	-0.15693846
123	0x3e145073	0.14483814
124	0x3e3e200d	0.18566914
125	0xbe21da8b	-0.15806024
126	0xbdb9de12	-0.0907556
127	0xbd1bdec9	-0.03805426
128	0xbe94a7d4	-0.29034293
129	0x3e005b68	0.12534869
130	0xbec1c3ae	-0.37844604
131	0x3e5a4d52	0.21318558
132	0xbe61c705	-0.22048576
133	0xbd4e8f0e	-0.050429396
134	0xbe21fbf4	-0.15818769
135	0x3e1d4fcc	0.15362471
136	0x3e839ba1	0.25704673
137	0x3de50d82	0.11184217
138	0x3d2e1c3a	0.042507388
139	0x3e82d5a0	0.25553608
140	0x3f37a48f	0.7173547
141	0x3f885d00	1.0653381
142	0xbe24b4bb	-0.16084568
143	0xbed79f09	-0.42113522
144	0xbe6dc120	-0.23218203
145	0xbe8e9d92	-0.27854592
146	0x3e2072f9	0.15668859
147	0x3d5e5fc3	0.054290544
148	0xbf237f23	-0.6386587
149	0xbe3c1cb7	-0.18370329
150	0xbdb9fedf	-0.09081816
151	0xc019c56c	-2.4026747
152	0xbea3a326	-0.3196041
153	0xbf15d6ec	-0.5853107
154	0xbf1a98af	-0.60389227
155	0x3e9fc681	0.31206134
156	0x3e9a6571	0.3015552
157	0xbe2d9f08	-0.16955197
158	0x3edc74b0	0.43057775
159	0x3e1832e6	0.14863166
160	0x3dd6a792	0.1048118
161	0x3eaff015	0.34362856
162	0xbee6a6ac	-0.45049036
163	0x3f841495	1.0318781
164	0xbec83fa0	-0.39111042
165	0xbec98e54	-0.393664
166	0xbeccb6ae	-0.39983124
167	0xbf8ae73a	-1.0851815
168	0xbe0b81ae	-0.13623688
169	0x3e53bba5	0.2067705
170	0xbf0dc763	-0.55382365
171	0xbe45d6b5	-0.19320185
172	0x3efd5ce2	0.49484926
173	0x3ed8ada0	0.42319965
174	0xbd9f2d5d	-0.07772324
175	0x3d1f79c9	0.038934503
176	0xbf22624b	-0.63431233
177	0xbedcb512	-0.43106896
178	0x3f12ac02	0.57293713
179	0xbf63c8b6	-0.88978136
180	0xbac0f5f9	-0.0014721743
181	0x3e4107c1	0.18850614
182	0x3eef907c	0.4678992
183	0xbe9909f1	-0.29890397
184	0xbe9c4a36	-0.30525368
185	0xbb055564	-0.0020345086
186	0x3f248d55	0.64278156
187	0x3e99ee69	0.30064705
188	0xbe7bc2c7	-0.2458602
189	0xbe7acd5f	-0.24492405
190	0xbcb6acd7	-0.022299213
191	0x3e2668e9	0.16250958
192	0x3d6639c1	0.056207422
193	0xbf43a307	-0.76420635
194	0x3e066a07	0.13126384
195	0xbf2e6d8b	-0.681359
196	0x3e8cc649	0.2749503
197	0x3e062112	0.13098553
198	0x3e07e499	0.13270797
199	0xbe97cbe0	-0.29647732
200	0xbda85c68	-0.0822075
201	0xbf205d2c	-0.6264217
202	0x3eaa55f5	0.33268705
203	0xbd9ef3d2	-0.07761349
204	0xbede2bd9	-0.43392828
205	0x3f86acf9	1.0521537
206	0xbf37fa23	-0.71866053
207	0x3e37bad3	0.17942362
208	0x3e5163df	0.20448254
209	0xbca3ec0e	-0.02001002
210	0xbeaaf14a	-0.33387214
211	0x3e0c599f	0.13706063
212	0x3f4e3c9c	0.8056123
213	0x3e0c9f61	0.13732673
214	0xbf1200e6	-0.5703262
215	0xbe2722c9	-0.16321863
216	0x3f128c65	0.57245475
217	0x3d2f3b79	0.042781327
218	0xbf2d2d1f	-0.67646974
219	0xbe8b20e7	-0.2717354
220	0xbe7e9eb8	-0.24865234
221	0xbe04c110	-0.12964272
222	0xbf90d41f	-1.1314734
223	0x3f0c7728	0.5486932
224	0xbf2e8b1c	-0.68181014
225	0x3e649fea	0.22326627
226	0x3e01ad94	0.12663871
227	0xbf6cc80d	-0.92492753
228	0xbf2f9c21	-0.6859761
229	0xbe8f63b2	-0.2800575
230	0xbd6f9a07	-0.0584965
231	0xbe54cf8d	-0.207823
232	0xbd5dd254	-0.054155663
233	0x3dda2d86	0.10653214
234	0xbcc8353f	-0.024439452
235	0x3f026b96	0.50945413
236	0xbefd042e	-0.4941725
237	0x3e1384f1	0.14406182
238	0x3de21f55	0.11041132
239	0x3fb9b6d6	1.4508922
240	0x3d6026ff	0.05472469
241	0xbf288655	-0.65829974
242	0xbe359428	-0.17732298
243	0xbe996cd9	-0.29965857
244	0x3db3353b	0.08750387
245	0x3efab8a6	0.48969
246	0x3f01031e	0.5039538
247	0xbf2c5292	-0.6731349
248	0x3d6767ad	0.056495357
249	0x3f0c6712	0.5484477
250	0xbd88a70d	-0.066724874
251	0xbeb035f6	-0.3441617
252	0xbe989306	-0.2979967
253	0xbe37b9c4	-0.17941958
254	0x3d027854	0.031853035
255	0xbde95a51	-0.113941796

decoder.rnn.bias_ih_l0 f4 [256]
0	0x3f16390f	0.58680815
1	0x3ecac822	0.39605814
2	0x3f1071db	0.5642373
3	0x3efabba0	0.48971272
4	0x3f624cfb	0.8839871
5	0x3f3f4a48	0.7472272
6	0x3f940d86	1.1566627
7	0xbdc508ae	-0.09620796
8	0x3f846bc0	1.0345383
9	0x3f96ac04	1.1771245
10	0x3f1de805	0.6168216
11	0x3f40f192	0.7536861
12	0x3f597e78	0.849586
13	0x3ed88a0c	0.4229282
14	0x3e515dec	0.20445985
15	0x3f69b0c0	0.91285324
16	0x3f8a74df	1.0816916
17	0x3f86aefa	1.0522149
18	0x3f2253c3	0.6340906
19	0x3ee0c5e4	0.4390098
20	0x3f37c4f8	0.71784925
21	0x3f5fc552	0.8741046
22	0x3f124a8b	0.57144994
23	0x3f65884b	0.8966109
24	0x3f66c673	0.9014656
25	0x3ec75b0f	0.3893666
26	0x3f0ab737	0.54185814
27	0x3f361487	0.7112507
28	0x3f54dad6	0.8314642
29	0x3f35040f	0.7070932
30	0x3f52b495	0.82306796
31	0x3f3340ec	0.7002094
32	0x3f3f1808	0.74646044
33	0x3f7b38ba	0.9813343
34	0x3f4401f9	0.7656551
35	0x3fa7438d	1.306749
36	0x3e6516d4	0.2237199
37	0x3f5c7c66	0.86127317
38	0x3f14888b	0.5802085
39	0x3feb82e4	1.839932
40	0x3f6e2d9a	0.9303833
41	0x3f39896a	0.724753
42	0x3e5185f0	0.2046125
43	0x3ed21f9d	0.41039744
44	0x3e5345dd	0.2063212
45	0x3f5b1a03	0.85586566
46	0x3fb6239b	1.4229616
47	0x3f453b02	0.77043164
48	0x3f626b0a	0.8844458
49	0x3f2e6673	0.68125075
50	0x3eb0186d	0.34393635
51	0x3f58e879	0.84729725
52	0x3f45f51f	0.7732715
53	0x3ea30d64	0.31846154
54	0x3f135146	0.5754589
55	0x3f1bc407	0.6084599
56	0x3f33cce1	0.70234495
57	0x3ef7f9e6	0.48432845
58	0x3ef1c811	0.4722295
59	0x3efe7d88	0.49705148
60	0x3f3aed85	0.73018676
61	0x3f6c5113	0.9231121
62	0x3f2e065b	0.6797845
63	0x3f655c9c	0.89594436
64	0x3eadbbd3	0.3393236
65	0xbe8cf1c0	-0.2752819
66	0x3e3ae617	0.18251835
67	0x3cbf6bff	0.023366926
68	0x3eedc3bf	0.46438405
69	0x3ecd42c5	0.40090004
70	0x3df0150a	0.11722763
71	0x3e567adc	0.20945305
72	0x3e88b8e8	0.26703572
73	0x3e21f58f	0.1581633
74	0x3e621002	0.22076419
75	0x3d1b6180	0.03793478
76	0x3db85258	0.09000081
77	0xbd97e06c	-0.07415852
78	0xbe82dcb2	-0.25559002
79	0x3f0d509f	0.55201143
80	0x3ea299eb	0.31758055
81	0x3edb2d17	0.42807838
82	0x3ee017f4	0.43768275
83	0x3ede623b	0.4343432
84	0x3ea41793	0.32049236
85	0x3e820e60	0.25401592
86	0x3da3f6ee	0.080060825
87	0x3e11ef06	0.14251336
88	0xbe747c3e	-0.2387552
89	0xbc9b21dc	-0.018937044
90	0x3e91bd25	0.28464618
91	0x3e9a6a42	0.30159193
92	0x3e9c11d6	0.30482358
93	0x3ea7fad0	0.32808542
94	0x3eb02980	0.34406662
95	0x3e433605	0.19063576
96	0xbe138893	-0.14407568
97	0x3f051b35	0.5199464
98	0x3f0f97ea	0.5609118
99	0x3e3c0bab	0.18363826
100	0xbe9cf511	-0.3065572
101	0x3dc6c3d8	0.09705323
102	0x3c487522	0.012234958
103	0x3e8a5635	0.27018896
104	0x3ed7fe66	0.42186278
105	0x3f092e13	0.5358593
106	0x3ece5297	0.40297386
107	0xbd112c58	-0.03544268
108	0x3e9fb97f	0.3119621
109	0x3f1534e6	0.5828384
110	0x3f1aec6c	0.60517
111	0x3e6d1666	0.23153076
112	0x3f00726c	0.50174594
113	0x3ebb4b7a	0.36581022
114	0x3d603da5	0.05474629
115	0xbd3ab376	-0.045581304
116	0x3e34adb1	0.17644383
117	0x3de608f7	0.11232179
118	0x3e0999d9	0.13437594
119	0xbe36c771	-0.17849518
120	0x3e470b07	0.194378
121	0x3db29db2	0.08721484
122	0x3e3c25d4	0.18373805
123	0x3e81cbb7	0.25350735
124	0xbd6d8f1b	-0.057997804
125	0x3ee3b2bd	0.44472304
126	0x3d95344c	0.072853655
127	0x3e4c3fa2	0.19946149
128	0xbf75398e	-0.95790946
129	0x3d617db4	0.05505152
130	0xbf5ab731	-0.8543578
131	0xbe8f7e98	-0.2802627
132	0xbf61160f	-0.87924284
133	0xbf0ed26f	-0.55789846
134	0xbf1f374d	-0.6219376
135	0xbe040e2e	-0.12896034
136	0x3f889c2c	1.067266
137	0x3efb2868	0.49054265
138	0xbeeacba9	-0.45858505
139	0xbf34ec15	-0.7067273
140	0x3f31669f	0.6929721
141	0xbec5136a	-0.38491374
142	0x3d52e52d	0.05148809
143	0xbe6c5bd0	-0.23081899
144	0xbf50f1bf	-0.81618875
145	0x3f787064	0.97046494
146	0x3f6a1cf4	0.9145043
147	0x3ed4fa55	0.41597238
148	0xbf183558	-0.59456396
149	0xbf3006e1	-0.68760496
150	0x3eb1486d	0.3462557
151	0x3edec5cc	0.43510282
152	0xbf24d2eb	-0.64384335
153	0x3e962afd	0.29329672
154	0x3f1336b3	0.5750534
155	0x3f092655	0.53574115
156	0xbf467ac9	-0.77531105
157	0xbf035c82	-0.5131303
158	0x3f124812	0.5714122
159	0xbf0876ce	-0.5330628
160	0x3e8069df	0.25080773
161	0x3f4a71a6	0.79079664
162	0xbe018642	-0.12648872
163	0x3ef6e861	0.48224166
164	0xbef26f3e	-0.47350496
165	0x3f6fd9a5	0.93691474
166	0x3ef18c26	0.47177237
167	0xbe21f2d5	-0.1581529
168	0x3f29f8e7	0.6639542
169	0xbeb2ec39	-0.3494585
170	0xbe515922	-0.20444158
171	0xbedcc37c	-0.43117893
172	0x3ebec288	0.3725779
173	0x3ec190dd	0.37805834
174	0xbf172a91	-0.59049326
175	0xbef9cdd3	-0.48789844
176	0xbf61b01e	-0.8815936
177	0xbb074e44	-0.0020646015
178	0xbf148764	-0.5801909
179	0x3ea4ffac	0.32226312
180	0xbf3b00da	-0.73048174
181	0xbe8d5e6d	-0.27611104
182	0xbe58e74b	-0.21181981
183	0x3ec025e7	0.37528917
184	0xbf3e9437	-0.7444491
185	0xbe5be29a	-0.2147316
186	0x3f002dc6	0.50069845
187	0x3ef56bd8	0.4793384
188	0x3f0145a1	0.5049687
189	0xbf42b520	-0.76057625
190	0x3def1cde	0.11675428
191	0x3f205f48	0.6264539
192	0x3fc1bbae	1.51354
193	0xbdea520a	-0.11441429
194	0x3f6df7cd	0.9295624
195	0x3ea55ba4	0.3229648
196	0x3fd62a38	1.6731634
197	0x3f2be5da	0.671476
198	0x3f2cefa3	0.67553157
199	0xbe13b68b	-0.14425103
200	0x3fd33e40	1.6503372
201	0x3f106ff0	0.56420803
202	0x3f86f86c	1.0544562
203	0x3ed9b399	0.42519835
204	0x3fa25c6f	1.2684458
205	0x3f2e6405	0.6812137
206	0x3d2f4aca	0.042795934
207	0x3f760e2f	0.9611539
208	0x3f79ea46	0.976231
209	0x3f959e68	1.1688967
210	0x3ee99cff	0.4562759
211	0x3f250fde	0.64477336
212	0x3f0df10a	0.5544592
213	0x3fa13bdb	1.2596391
214	0x3f08f080	0.53491974
215	0x3f8f7946	1.1208885
216	0x3fb530a0	1.4155464
217	0x3f14e74e	0.5816544
218	0x3f63aa74	0.88931966
219	0x3f543d07	0.8290562
220	0x3f0f3758	0.5594382
221	0x3fe5ea8a	1.7962201
222	0x3ea85665	0.32878414
223	0x3f3d94f8	0.74055433
224	0x3ecbd7a4	0.39812958
225	0x3e62966b	0.22127692
226	0x3e9e511d	0.3092126
227	0x3ee4af30	0.44664907
228	0x3ecd10f8	0.4005201
229	0x3f7705a0	0.9649296
230	0x3ecd4df7	0.40098545
231	0x3f0947d5	0.5362523
232	0x3e1f9f11	0.15588023
233	0x3e65cc79	0.22441281
234	0x3f06b701	0.5262299
235	0x3e545ada	0.20737782
236	0x3f01ca1f	0.5069904
237	0x3fcad7b0	1.5847073
238	0x3fe9cfc5	1.8266531
239	0x3f1a29b3	0.6021988
240	0x3fd64aef	1.6741618
241	0x3f34e45f	0.70660967
242	0xbdc09543	-0.094034694
243	0x3fb9a7cb	1.4504331
244	0x3f5adc8d	0.85492784
245	0x3f028cd3	0.5099613
246	0x3f04002c	0.5156276
247	0x3f33fb60	0.7030544
248	0x3ea5a47b	0.3235205
249	0x3f572526	0.8404106
250	0x3e568e7a	0.20952788
251	0x3f3cb08a	0.7370688
252	0x3f3b7622	0.7322713
253	0x3f879b0a	1.0594189
254	0x3f0f6bd9	0.5602394
255	0x3fabf9c1	1.3435594
