detector_dev/Process_I24_simulations/models/cnn_lstm_ae_i24_detector_complete_obs.pt (torch_old, 126965 bytes, 12 tensors)

encoder.cnn.weight f4 [8, 4, 16]
00000000: 93ed b9bc 3abd b1bc 755a a9bc 10eb 9dbc
00000010: 00a7 91bc 5417 86bc 762b 7ebc 85f7 6fbc
00000020: 0935 63bc 7197 50bc 9cce 3fbc dced 1fbc
00000030: 3b58 16bc 30c0 00bc 7074 dabb 5adf a9bb
00000040: 4ee7 033e 3c00 cb3d a599 233e cc9f 8b3e
00000050: 94cf 803e b010 4c3e 830c 363e c377 373e
00000060: 9018 393e be84 2f3e b14f 8a3e f404 823e
00000070: 4813 303e 2f17 693e c75a 6f3e 81dc 4d3e
00000080: 259c d13d 4d61 c43d 0812 bf3d fa67 b93d
00000090: c65d b23d b5a1 b13d cf74 b33d c7bb b33d
000000a0: 1926 ad3d 073b ad3d 7a74 a93d 0314 aa3d
000000b0: 342e b63d e593 b63d 7570 a23d e71d 9b3d
000000c0: c073 e8be 2559 e8be 7152 e1be 30aa dbbe
000000d0: d558 d0be 48a7 cebe 2a3f c7be 0b72 c2be
000000e0: 9dd7 b4be 18f0 adbe b84e a6be faf2 adbe
000000f0: eb1b a7be 1387 a4be 97e7 a1be 3aa1 96be
00000100: 3f03 d1bd 0759 d3bd a2f9 d5bd 9736 d9bd
00000110: ca91 dcbd 0e17 dfbd 5e40 e2bd adaa e5bd
00000120: 6e2c e8bd 240a eabd 6816 ecbd 52ea edbd
00000130: c240 efbd 8129 efbd 1626 f0bd 34f7 f0bd
00000140: 6c4e 09be 7d97 fcbd f372 52be 40db 60be
00000150: 9018 08be bd08 0dbe ca42 34be 731d c3bd
00000160: 137f 67bd b560 07bd 1ca4 a7bd 7ba4 c4bd
00000170: 40be d6bc 1fbc 9bbc 2921 c4bd d31c a8bd
00000180: abc2 c23c 74e8 a23c ec7c b33c 3cd2 043d
00000190: c93a 1d3d d51a eb3c 4281 443c c4f4 313c
000001a0: 49c4 1f3c 700c cd3c 0a68 4a3d aebd 313d
000001b0: 438a 1a3d 6f5e f53c 66bb e13c ff45 ec3c
000001c0: 864b d3be e79f cdbe 4d2d c3be 81bd cdbe
000001d0: 2270 c6be 5866 c7be 5d72 c0be abcf b1be
000001e0: 733e 9ebe a247 a0be 42a1 94be 018b 8bbe
000001f0: af89 8cbe 4591 92be f882 8abe 3c23 82be
00000200: a2bd c73c 2a0d fe3d c27c 283c 5fd0 6c3d
00000210: 5c0d ed3d 04d1 9a3c 8504 0e3e c686 0c3e
00000220: 36df 843d ef30 b23d e528 0b3e 4ca9 093e
00000230: d1a5 0e3e 5f27 063e e18b 843d 7c9d 363b
00000240: 0e89 a53e abff c33e d543 993e e952 063e
00000250: ef18 823e be93 923e 38e4 783d 85b4 153e
00000260: 7bde 583e 08b4 143e 0e6d 873d a704 85bd
00000270: 9aac a43d db18 2d3e 87cd 85bc cec7 90bd
00000280: 2e07 173d 21e2 35bc c761 d1bd fb7f a6bd
00000290: 9137 32bd 9712 803d 516b ce3d f278 a83d
000002a0: 8b67 ef3b 4cae a03d 8797 743d 8404 f0bb
000002b0: 45f2 1bbd 599d e53c c4dd b03d ea17 d23d
000002c0: 1110 f83d b1e9 c93d d00e 033e 3235 5c3e
000002d0: 41d6 5e3e 7101 443e c41c 1c3e cc30 3c3e
000002e0: 6d9b 393e 2d95 563e 8dc4 393e f938 563e
000002f0: 1274 403e 6d36 0b3e 5327 523d bc24 2a3a
00000300: ac5e 78bd 602e 51bd e93c 7f3b d38e d6ba
00000310: 2104 033b bc72 b2bc fe4e 2d3b 5921 53bd
00000320: 91fe 8ebd bc52 47bd bbe5 fe3b 8cb5 63bd
00000330: 76e8 783b 4bd0 bf3c a277 be3c 8819 633c
00000340: a48b 6d3e 1514 a13e a3b2 9e3e 0c1c 853e
00000350: 3a1a 9c3e d5b3 663e cea1 6b3e 41bd a83e
00000360: c6ba 9c3e 6573 dd3e f0a7 b63e 73aa 203e
00000370: 0722 893e 8f0d 2c3e 5543 913e 34f3 c53e
00000380: abb5 c13a 21e9 3abd 3f28 a33d 2c66 023e
00000390: aaa2 fe3d 55ad 9ebc 56e7 30bd 9e4c 443d
000003a0: 2405 86bb 1b8d e0bc f9e1 d63d 1fa2 c73b
000003b0: 0364 5a3d 8e84 98bc 665a cd3d ebb2 173d
000003c0: 964a 7ebd 995d 3ebd 0656 11bd 0dfc a4bc
000003d0: af74 003d 45e4 e33c 9073 613d df1b 793d
000003e0: 7e52 9d3d d0e6 dc3d 1dd9 fc3d f3d9 1d3e
000003f0: fcfe 123e 4e3e 123e f222 063e 16d2 023e
-0.022696292 -0.021696676 -0.020673016 -0.019277126 -0.017779827 -0.016368546 -0.015513292 -0.014646416
-0.013867625 -0.012731419 -0.011706974 -0.0097613 -0.009176309 -0.007858321 -0.0066667125 -0.0051840963
0.12881204 0.09912154 0.1597658 0.27270353 0.2515837 0.19928241 0.1777821 0.17916779
0.18075776 0.17140481 0.27013925 0.25394404 0.17194855 0.2276275 0.23374473 0.20103647
0.1023486 0.09588871 0.09329611 0.09053035 0.08709292 0.08673421 0.08762514 0.0877605
0.08454532 0.08458524 0.08274169 0.08304598 0.08895531 0.089149274 0.07931606 0.07574063
-0.4540081 -0.45380512 -0.4400821 -0.4290328 -0.40692773 -0.40362 -0.38915378 -0.37977633
-0.3532075 -0.3397224 -0.32481933 -0.3397444 -0.32638487 -0.32134303 -0.31622002 -0.2941988
-0.10205697 -0.10319715 -0.10448004 -0.10606115 -0.107699946 -0.10893069 -0.11047433 -0.112141944
-0.11336599 -0.114277154 -0.11527711 -0.11616959 -0.116822734 -0.11677838 -0.11726014 -0.117659
-0.13408822 -0.123335816 -0.20551662 -0.21958637 -0.1329062 -0.13772865 -0.17603603 -0.09527101
-0.05651767 -0.03305121 -0.08185598 -0.09601685 -0.026213765 -0.019010602 -0.09576637 -0.08208623
0.023774466 0.019886233 0.021910153 0.032427058 0.03838614 0.028699318 0.011993708 0.010861579
0.009751388 0.025030345 0.049415626 0.043393783 0.037729513 0.029952256 0.027555179 0.02884197
-0.41268557 -0.40161058 -0.381205 -0.40183643 -0.38757426 -0.3894527 -0.37587252 -0.3472875
-0.3090702 -0.31304651 -0.2902928 -0.2725449 -0.27448794 -0.28626457 -0.27053046 -0.25417507
0.024382416 0.124048546 0.010283651 0.057815906 0.11574814 0.018898495 0.13868912 0.13723287
0.064878866 0.087007396 0.13589819 0.13443488 0.13930441 0.13100956 0.06471992 0.0027864864
0.32331127 0.38280997 0.29934564 0.13117565 0.25409648 0.28628343 0.06076452 0.14619644
0.2117862 0.14521801 0.066125974 -0.06495028 0.08040734 0.16904013 -0.016333355 -0.0706936
0.03687208 -0.011101277 -0.10223728 -0.08129879 -0.043510024 0.06253546 0.10079063 0.082261935
0.0073060445 0.078457445 0.05971482 -0.007324757 -0.038072843 0.02802913 0.086360484 0.102584675
0.121124394 0.09859026 0.1279862 0.21504667 0.21761419 0.19141175 0.15245348 0.1837799
0.18125696 0.20955344 0.18141384 0.20920171 0.18794277 0.1359498 0.051307034 0.0006490459
-0.06063716 -0.051069617 0.0038946217 -0.0016369469 0.0019991475 -0.021783225 0.0026444788 -0.051545475
-0.069821484 -0.048662886 0.007778851 -0.05559306 0.0037980354 0.023414752 0.023250405 0.013861068
0.231978 0.31460634 0.30995664 0.2599796 0.3048876 0.22529538 0.23010942 0.3295689
0.30611247 0.43252102 0.35675 0.15690021 0.26783773 0.16802047 0.28371683 0.38662112
0.0014778873 -0.045632485 0.07966661 0.12734288 0.124333695 -0.01936976 -0.04318937 0.04792463
-0.0040899683 -0.027411034 0.104923196 0.0060923244 0.053318035 -0.018617895 0.10027008 0.037035864
-0.06208285 -0.04647598 -0.03548243 -0.020139718 0.03136128 0.027818808 0.05504185 0.060817596
0.0768175 0.107862115 0.123460986 0.15415172 0.14355081 0.1428158 0.13099268 0.12775454

encoder.cnn.bias f4 [8]
00000000: 2938 5e3e 7b1b 5f3d bcf0 133e 7770 1c3e
00000010: 2096 a13b 2e2f 17bd 8428 293f 7ef8 24bf
0.21701111 0.054469567 0.14447302 0.15277277 0.0049312264 -0.03691023 0.66077447 -0.6444167

encoder.rnn.weight_ih_l0 f4 [128, 8]
00000000: 2db1 90bd c13f abbd fd04 51bb 956e c53d
00000010: 717b 213e a350 183e bf9e fbbd 2c65 36bd
00000020: 4575 3c3d 3fa6 9dbd 74f8 2f3c ee38 9d3c
00000030: 037e 1b3e fe9c 1b3e cb8f e63d 9393 1b3d
00000040: 969d 533e 4c08 89bd 9a08 6a3e 883e 63bd
00000050: 81b1 1c3e ed41 fbbd 6cbd 1c3d e00a fbbd
00000060: 1da3 1f3e 00f6 373e 44a0 af3c a33d f73e
00000070: e829 063f 8007 063f 93bf e03e 957d 8b3e
00000080: 8504 b83c 4653 283d aff2 b63d cc0e 503e
00000090: f5ee 56bd e946 143e 76a7 273e 222e 14be
000000a0: b349 173e feba 003e e2cf 933d b743 28be
000000b0: 6304 d03c 1d91 27bc d170 bf3d 040c 64be
000000c0: 668c bbbc 05cd 9bbd a661 03bd f2cf 3b3e
000000d0: 5209 413e ac3d c1bb 03d1 aa3e 1b87 37bc
000000e0: be46 dabc 08f6 553d 0247 9dbd 89c9 0f3d
000000f0: 1ac0 923e 6122 4d3e 5e9b 363e e13a ef3c
00000100: 2f9b b03d 8608 113e e14e a3bd 3787 923d
00000110: 70a1 a3bc 2cff 4cbd 0187 0a3d 8cf4 213c
00000120: 8437 1ebe 08ce e93d 1a5e dcbd 6cf0 373e
00000130: 2de1 33bd 1604 853c ba7e 62bc e1d4 cebd
00000140: 8e89 17bd 3e0e 2f3e c093 5bbc bab4 f83d
00000150: 2add b93e 6be3 463e 6bc0 333e 6ebb bb3d
00000160: 9bd5 bc3d f42d 65bc a5e8 86bd d43b 933b
00000170: fbbe c93e 8b95 a13e ff33 4cbc efe8 4f3e
00000180: bdd6 d33c 846c 54be d419 15be caee 823e
00000190: 794e 5dbc 3867 583e 29f5 723e cd0f 693e
000001a0: fdd4 99bc 39f8 d9bc a85f 2b3e 4bdf fa3d
000001b0: 3310 e0bd d83f 65bc 3444 043c f755 213e
000001c0: 70ad 653e 9c5d ea3e c1ae ef3e 5345 5ebe
000001d0: a1ce 01bd 08e7 68be 642e cdbd 26b3 06be
000001e0: ae26 cc3d 67e9 433c 1a27 963d b93f 083d
000001f0: 8d5c 1fbd c56f f2bc 0046 8fbd 759b b03d
00000200: 877a 623d b32b 0abe c5df 653d 1594 b63c
00000210: b618 503e 4da6 09bd 553f 843c 0293 3ebb
00000220: b2bd 9c3d 83bb 0dbe e405 1fbe d25c d63d
00000230: a061 283e 4172 353d 1479 353d a131 2e3e
00000240: 8002 963d 0e0e abbd 980e f5bb b878 5abe
00000250: 316a eabd dd5b 44be 18c5 1f3e 305a 1bbe
00000260: ca72 983d 800d 9abd 7303 abbd 9b91 563e
00000270: a812 5f3d af4b a33e f40f 853e d083 2e3d
00000280: bb3a cf3d 90d6 043e 29a3 b33e 92c6 f9bc
00000290: 29ca 23bd afcb 35bd 5449 0c3e cd28 d93c
000002a0: 92d5 0f3e b551 80bc c8b6 d9bd b949 12ba
000002b0: 03ce 433e e910 4a3d 1347 b2bd 1d49 823d
000002c0: d9ff 38be 8473 d8bd 3dcb 9f3d bd94 56bd
000002d0: 5eb4 693d ad60 1c3e 5eef 953d 3c5f 743e
000002e0: 4050 f73d 7d44 30be a483 28be c452 ad3d
000002f0: 4ea8 323e bb69 9b3d 76f0 e9bd 1e76 e93d
00000300: cf3e 6cbc 8b4c 353d 2473 173e e9a6 003d
00000310: bedb 5bbd 2572 edbd c952 a93d f060 bd3c
00000320: 0952 123d f2aa 07be a694 94bd 8402 ebbd
00000330: 3a64 14bd 9679 8cbd 535f f2bd ede0 a8bb
00000340: 893f 7f3d e2c1 ff3d f205 d5bd 3b22 b43d
00000350: aca5 b03b 7469 55bd 5476 8ebd a6c9 343d
00000360: 4a3d 283e da4b 6e3d 9557 d13d f5a7 633e
00000370: 6f0e 713d 1191 abbc 0bc0 54bd b0c3 56be
00000380: 246d 5c3c d715 e3bd 943d 1bbe b1a6 353e
00000390: 266f c33c d65e 5b3e e8be c43d caca b9bb
000003a0: baf4 0e3e 7ebb 04bd 8eff 073d 6237 943d
000003b0: 8638 b73b 017e 29bd 4ac0 c0bb c0da 58bd
000003c0: 5b06 833e 3138 0b3d d4a1 4e3e 757b d73d
000003d0: 5d16 1f3e 1b56 193d 9b67 203c 399f 1c3e
000003e0: 8808 313e 7e82 583d 4c46 07bd 1df7 253e
000003f0: 82f8 3bbe 6cac 8dbe a722 8bbe 5534 01bf
-0.070650436 -0.083617695 -0.0031893842 0.096402325 0.15769745 0.1487451 -0.12286138 -0.04453008
0.046010274 -0.076977246 0.010740388 0.019192185 0.15184788 0.15196607 0.11257895 0.037982535
0.20665583 -0.06691036 0.22854844 -0.055479556 0.15302087 -0.12268434 0.038266584 -0.122579336
0.15589567 0.17964935 0.021438725 0.48289213 0.52407694 0.52355194 0.4389616 0.2724425
0.022463093 0.04109504 0.08933007 0.20318145 -0.05247398 0.14480175 0.16372475 -0.14470723
0.14774208 0.12571332 0.07217385 -0.16432081 0.025392717 -0.010227469 0.0934769 -0.22270209
-0.022894096 -0.07607464 -0.032075547 0.18341044 0.18851212 -0.0058972444 0.33362588 -0.011201645
-0.02664506 0.052236587 -0.07679559 0.03510431 0.28662187 0.20032646 0.17832705 0.02920288
0.08623349 0.14163408 -0.07974029 0.071546964 -0.01997444 -0.05004804 0.033820156 0.009884965
-0.15450865 0.114162505 -0.10760136 0.17962807 -0.043915916 0.0162373 -0.013824159 -0.10099197
-0.036996417 0.17095277 -0.013401926 0.12143846 0.36301547 0.1942269 0.1755387 0.09166609
0.092204295 -0.013988007 -0.06587342 0.004493216 0.3940352 0.31559405 -0.012463569 0.20303701
0.025859231 -0.2074452 -0.14560634 0.25572807 -0.013507479 0.21133125 0.23726334 0.22759934
-0.018778319 -0.02660762 0.16735709 0.12249621 -0.1094059 -0.013992272 0.0080729015 0.15755449
0.22429442 0.45774543 0.46813014 -0.21706133 -0.031691197 -0.22744381 -0.10018614 -0.13154277
0.09968315 0.011957503 0.07331677 0.033263896 -0.038906623 -0.029594311 -0.06995773 0.08623401
0.055292632 -0.13493232 0.056121606 0.022287408 0.20321926 -0.033605862 0.01614348 -0.0029079323
0.07653369 -0.13841061 -0.15529591 0.10466923 0.16443491 0.044298414 0.044304922 0.1701112
0.073246956 -0.0835229 -0.0074785464 -0.21335113 -0.11446036 -0.19175668 0.15602529 -0.15171123
0.07443769 -0.07522106 -0.08350267 0.20953982 0.05446115 0.3189368 0.25988734 0.042606175
0.10118624 0.12972474 0.3508542 -0.030490194 -0.039987717 -0.0443837 0.13699847 0.026508713
0.14046314 -0.015663961 -0.10630566 -0.00055804435 0.19121556 0.049332533 -0.087049626 0.063616015
-0.18066348 -0.10568908 0.078024365 -0.05238794 0.057056777 0.15271254 0.07321046 0.23864454
0.12075853 -0.17213626 -0.16456467 0.08463052 0.17447016 0.07588526 -0.114228174 0.11399482
-0.014419272 0.04426245 0.14790016 0.031409178 -0.05367636 -0.11594037 0.08267743 0.023117512
0.035722766 -0.13248804 -0.07254915 -0.11475089 -0.036228396 -0.06859128 -0.11834588 -0.0051537664
0.06231645 0.12488152 -0.104015246 0.087955914 0.0053908434 -0.05210252 -0.06956163 0.04413762
0.1642963 0.058177806 0.10221783 0.2223204 0.058851656 -0.020943196 -0.05194096 -0.20973086
0.0134537555 -0.1108815 -0.15160209 0.17739369 0.02385671 0.21422896 0.09606725 -0.0056699263
0.13960543 -0.03240537 0.0332027 0.07237126 0.005591455 -0.041379932 -0.0058822976 -0.05294299
0.25590786 0.033989135 0.2017892 0.105215944 0.15535875 0.037435632 0.0097903265 0.15295114
0.1728841 0.052858822 -0.033026025 0.16207547 -0.18356517 -0.2767061 -0.27174875 -0.5047048

encoder.rnn.weight_hh_l0 f4 [128, 32]
00000000: 21f1 30be e58a fbbd efda b03d 48fa 683d
00000010: 47b7 92bd d07f 393d 0e49 a8bb f01e d03d
00000020: 3891 f33d eaee 8e3e d712 023e f16e d33e
00000030: db5e 44be c858 843d b7d8 003e 6e25 723e
00000040: 5d61 5b3e 78fc 5e3e bbeb 8a3e 5b40 cd3d
00000050: 8a27 4fbd a618 25be 7b81 6c3d 514a 14be
00000060: 75c3 dcbe 2241 9f3e f6d9 26bd 5e72 69be
00000070: eb26 e1bd 39d6 633e 5127 6e3c de0e 89be
00000080: 8371 7a3e bc72 cbbd dc47 0f3e f0d2 59bd
00000090: 2467 823e c645 23be a1ce ffbd b0c9 123e
000000a0: 92dc 0dbe 9225 253e 278b 69be b899 3bbd
000000b0: 8b7e a33d cee0 7dbe 057c 113b 8d2c 02bf
000000c0: 2b73 f2be d652 e7be a75f a8bd ff67 1dbe
000000d0: 6f4b 8b3e 5313 d03d a2a1 933e a42b 883e
000000e0: 549b c8bd 601f d33b 82cb bfbd 5531 79bd
000000f0: 7756 a0be d341 a3be 5096 a43d 0d6e f23c
00000100: d8cf 643e 489b 37be cf61 dcbe 82a6 473e
00000110: 4933 9abe c8e4 993e 7d9c 4cbd 6ded 75bd
00000120: aac0 a13e 86bd b63e 5389 4d3e f013 9bbe
00000130: bf7e 36bd 8383 773d 3ce1 213e 9f71 ae3e
00000140: 0374 353e 2f45 eb3e 7d24 713c 7b44 c8bd
00000150: 5267 c4be 8349 81bd ff21 933e 27cf 49be
00000160: b89c eabc cc5b 02bf cec9 283e 2927 4cbe
00000170: 3277 8abc 0ca8 553e a3c4 51be 3ad1 033e
00000180: 143a 0cbe 770a bf3e 589c b4be 858d 603f
00000190: 4346 b23e d2f1 0a3e ebbe eabb fdb0 163e
000001a0: 35a0 833d 8fa3 d0be bafa 57be a782 413c
000001b0: 4378 263f b6e5 473c 6a32 d53e f5df 513e
000001c0: 3e40 553f ca4b 17be 5880 b43e 0de3 263e
000001d0: d297 553e 064e 9ebc e7ce 8cbe df6b 653e
000001e0: 5638 683d 4c1e c63e c0d5 2cbc 44f3 d73e
000001f0: 7d6d f8be 010f 473d 0590 9f3e ce4f 35be
00000200: 8b75 203f c7b2 703c c132 033f 3cae fdbe
00000210: 166d e6be 703c 28bf a504 5a3d f652 82bc
00000220: 11e0 17bf 4788 063f 92e3 c73e eb09 5abe
00000230: a66a f8be 1e46 83be 21b0 07bf 75d4 0fbf
00000240: c34a 5d3d 9f9f 983d a3ab 713e 9211 e1be
00000250: 7d66 30be 959c d1be a80f 6d3d 4d59 58be
00000260: 1007 01bf 9094 ad3e 75d6 20bf 86b0 7abe
00000270: 5b3e 0e3e 8e9f 5d3e 11d8 f2be 3390 b9bd
00000280: e39e b03e 1a28 c2bd 6a72 c33e 5358 81bd
00000290: 05d1 aabd a69d 8f3e cd23 c33d bf02 fabe
000002a0: 653e 6abd c13a c13e e50e 523e 85f8 c83e
000002b0: 1cb0 86be 995f 4e3e 6afd fb3d 481b a3bd
000002c0: 8499 21bd 7724 403e dd3e 183f 8d57 25be
000002d0: c79c 693e 3f39 43be 0568 243e f51e 0bbe
000002e0: 532c b3be 4b59 a73d 590d da3c e50d 88be
000002f0: a552 cebd 625a 9bbe a100 42bd f642 093e
00000300: 656a 0e3e 2460 5cbe f9a9 b43c 37af c9be
00000310: 73c2 8fbd 6fa1 3dbe ef5b 4f3e d210 883e
00000320: ca98 2dbe a9dd a53d b96a b5bd 148d 1b3d
00000330: 0e44 1cbd c13b 393d 8ca6 06be d9c7 91be
00000340: caaa e3be ff5e febe f484 71bd 5012 c7be
00000350: 730c d73d 4043 8c3e 4d2e 013f 2634 873d
00000360: 66f0 8fbd 8da5 8e3e 4485 8fbe 1bcb 88bd
00000370: e146 97be a844 afbe 52f1 00be a36b 4bbe
00000380: f199 003f ac26 1cbe 5230 6d3e 24ed 38be
00000390: 8079 23bf a66b d43e c7c7 91be 6ed5 cb3e
000003a0: 2509 cb3d 9d99 b03e a27f 963e 144b 1cbf
000003b0: 1427 83be 0004 34bd 4089 30bf fda0 38bf
000003c0: 848f 13bc 8cd1 003f a863 e3bc 051a aebe
000003d0: 5f11 e6be 940c d4be 0366 b73e 2770 dcbe
000003e0: 2bbf 153f dbf3 5bbf 87f0 803e a029 8fbe
000003f0: e9d4 f23d d8a5 cfbe d0b9 bdbe f34b aa3e
-0.17279483 -0.122823514 0.08635508 0.05687931 -0.07163864 0.045287907 -0.005135662 0.10162151
0.11892933 0.27916652 0.127025 0.4129558 -0.1917681 0.06462246 0.1258267 0.23647091
0.2142386 0.21775997 0.27132973 0.100220405 -0.050574817 -0.16122684 0.05774067 -0.14481474
-0.43117872 0.3110438 -0.040735207 -0.22797534 -0.10993751 0.22249688 0.014535741 -0.26769155
0.24457364 -0.09933993 0.13992256 -0.05317968 0.25469315 -0.15944585 -0.12490583 0.1433475
-0.13853672 0.16127613 -0.22806989 -0.045800894 0.079831205 -0.24792787 0.0022199166 -0.5084923
-0.4735349 -0.45180386 -0.08221369 -0.15371703 0.2720599 0.10159936 0.28834254 0.26595795
-0.097952515 0.006442949 -0.09364988 -0.060838062 -0.31315967 -0.31886157 0.08036482 0.029593492
0.22344911 -0.17930329 -0.43043372 0.19497111 -0.30117252 0.3005736 -0.049953926 -0.06004088
0.31592304 0.3569147 0.20071916 -0.3028865 -0.04455447 0.060428154 0.15808576 0.3407106
0.17720036 0.4595122 0.014718172 -0.097786866 -0.38360077 -0.063128494 0.28736874 -0.19707929
-0.028639182 -0.5092132 0.16483232 -0.19936813 -0.01690254 0.20864886 -0.20485167 0.12872782
-0.1369403 0.37312672 -0.3527553 0.8771594 0.3481923 0.1356881 -0.0071638725 0.14715953
0.064270414 -0.40749785 -0.21091738 0.011810935 0.65027255 0.012200763 0.41640025 0.20495589
0.8330115 -0.14775005 0.3525417 0.1629755 0.20858696 -0.019324314 -0.27501604 0.22404431
0.05669435 0.3869499 -0.010549009 0.42177784 -0.48521033 0.048598293 0.31164566 -0.17706224
0.62679356 0.014691061 0.5124932 -0.49546993 -0.450051 -0.6571722 0.053227086 -0.0159087
-0.59326273 0.5255169 0.3904081 -0.21292846 -0.48518866 -0.25639433 -0.53003126 -0.5618356
0.054026376 0.0745232 0.2360063 -0.43958718 -0.17226596 -0.40939775 0.05787626 -0.21127816
-0.504014 0.33902407 -0.62827235 -0.24481401 0.13890974 0.21642897 -0.4743047 -0.09060707
0.3449622 -0.09480305 0.38173229 -0.06315675 -0.083406486 0.28049964 0.09528313 -0.4883022
-0.05718841 0.37740138 0.20513494 0.39252105 -0.26306236 0.20153655 0.12304194 -0.07964188
-0.039453045 0.1876391 0.5947092 -0.16146679 0.22813712 -0.19064806 0.16055305 -0.13586028
-0.34994754 0.08171328 0.026617693 -0.265731 -0.10074357 -0.30342394 -0.04736388 0.1340445
0.13907774 -0.2152105 0.022053706 -0.3939149 -0.0701951 -0.18518613 0.20249914 0.26575333
-0.16952816 0.08098919 -0.08858246 0.03797634 -0.03815084 0.045223 -0.1314947 -0.28472784
-0.4446624 -0.4968185 -0.058964685 -0.3888116 0.105004214 0.27395058 0.50461274 0.066017434
-0.07028274 0.2786068 -0.2803136 -0.06679364 -0.29546264 -0.34232068 -0.12592056 -0.19865279
0.50234896 -0.15249127 0.23162964 -0.18059212 -0.6385727 0.4148838 -0.2847273 0.3981127
0.099138536 0.34492198 0.2939425 -0.6105206 -0.25615752 -0.043949127 -0.68959427 -0.7212065
-0.009006385 0.50319743 -0.02775748 -0.34004226 -0.44935128 -0.41415846 0.35820016 -0.43054315
0.58494824 -0.8591897 0.25183508 -0.27961445 0.11857016 -0.40556216 -0.37055826 0.3326107

encoder.rnn.bias_ih_l0 f4 [128]
00000000: 21ad 593d f425 06be 3b78 88be 4c28 013f
00000010: 64b7 acbe 072f 3d3a e2e0 82bd fa40 0d3d
00000020: 2065 17bf 3f68 f13e 08b0 4ebe 7de9 a33e
00000030: 1f1e 0c3f a4be 66be dfb1 593e 2087 f83d
00000040: 3091 1f3f 676e e53d d166 963e fa94 bb3e
00000050: 190f 23be 577d d4be 42b2 eb3c 0167 3ebd
00000060: ca9e 4c3e 57c4 25be 536a ca3c 17e9 2ebe
00000070: 2267 08bf 55f8 efbe 09be bc3e 0eda 1e3e
00000080: 2a97 1b3f cf37 4a3e 8154 de3e fcd1 55bd
00000090: 7d47 e23e f091 e93e 823d 2c3e d330 283e
000000a0: 239d 053f 3f37 083f 11c0 e73d d8a0 f73d
000000b0: 5baa 053f 206f 04be a315 fc3e 96b6 ae3e
000000c0: ff07 543e d4b3 a53e 13f4 7c3e ffdb 0fbe
000000d0: 6d84 2abd cb5b 8b3e 369f 783e b2bf af3e
000000e0: b76a 9f3e b1c2 543d eafd 143f 7d9c 9d3e
000000f0: 947d 193d 79e7 b9be 3869 513e b3db a33d
00000100: 653a d8be 4ec0 263e a950 13bf db29 033f
00000110: a16a e5bd eb79 a43e ab14 05bf 4fa9 d33e
00000120: 88ac b33e e0c2 a6be 718d 1bbe d749 5c3e
00000130: 8e0c 043e 50b8 1a3e 9cce 903b 8057 cb3e
00000140: d62e 1e3e 1443 a33d c8ae 0ebe de80 af3e
00000150: 8330 563e 5e47 75be 00fe 963d aacc 11be
00000160: 4d23 03be 2e93 6c3e fab0 c93e 8cce 303e
00000170: 7b0f 733e 3bca 85be 7b37 37bd a40d cf3e
00000180: f792 5e3d b868 ba3e a095 d53d 3b82 413e
00000190: 4485 af3e 07ec 883e 0fd9 84be 3d00 a9be
000001a0: 3b05 843e 56fb 0bbe 49f2 eabe d135 b13e
000001b0: c193 a43e aeb0 c8bb cc03 083f 92aa e63e
000001c0: 646c c7bb eced f93e 407e 33bf 52aa 683e
000001d0: 5c96 e4be ef12 473e 135e a33e c55d ddbd
000001e0: 1b92 7a3e 4779 df3e a146 d93d 212b b4bd
000001f0: bc92 653d f5fa 143e 1bd8 6a3e c2a5 e4bd
0.053143624 -0.13100415 -0.2665423 0.50452113 -0.33733666 0.00072167855 -0.06390549 0.034485795
-0.5913868 0.47149846 -0.20184338 0.32014075 0.5473346 -0.22533661 0.21259259 0.12135148
0.62330914 0.11202698 0.29375318 0.36637098 -0.15923728 -0.41501877 0.028771523 -0.04648495
0.19982448 -0.16188179 0.024708902 -0.17081104 -0.5328237 -0.4686915 0.36863735 0.15512869
0.60777533 0.19747852 0.43423846 -0.05220221 0.44195166 0.45619154 0.16820338 0.16424875
0.52192897 0.532093 0.11315931 0.120912254 0.52213067 -0.12933016 0.49235258 0.34123677
0.20706175 0.3236376 0.24702482 -0.14048766 -0.041630197 0.2721847 0.24279484 0.3432594
0.31136104 0.051943485 0.5819994 0.30783454 0.037473276 -0.36309412 0.20450294 0.08000889
-0.42232051 0.16284296 -0.5754495 0.5123574 -0.112019785 0.32124266 -0.5198466 0.4134011
0.35092568 -0.32570553 -0.15190674 0.21512543 0.12895414 0.15109372 0.004419161 0.39715195
0.15447554 0.079717785 -0.13933861 0.34278005 0.20916943 -0.23953006 0.073726654 -0.1423823
-0.12806435 0.2310302 0.39392835 0.17266291 0.23736374 -0.26130852 -0.044730645 0.40440094
0.054339375 0.3640802 0.10428929 0.18897335 0.3428136 0.26742575 -0.25946853 -0.33007994
0.2578524 -0.13670096 -0.45887974 0.3461137 0.32143977 -0.0061245775 0.53130794 0.4505201
-0.006085919 0.48814332 -0.7011452 0.22721222 -0.44645965 0.19440816 0.3190771 -0.10808901
0.24469797 0.43647215 0.106091745 -0.08797289 0.05604814 0.14548858 0.22934 -0.11164428

encoder.rnn.bias_hh_l0 f4 [128]
00000000: b579 04be e596 7abe 754c 59be f7bc 913e
00000010: e974 dbbe 6af8 3cbe b3a6 47be 4c0d 6a3c
00000020: 5ea7 40bf 5e20 133f 46d1 40be 7dff 893e
00000030: 9057 f03e 68db 99be b926 483e b98c 1f3d
00000040: 9e5e 2a3f f921 183e 97b5 d03e ff40 cf3e
00000050: 34cb 72be be7b 14bf a37a 9bbd 3a45 4dbe
00000060: 37df 903e f4e8 653d 7018 58be 68b3 38be
00000070: 60de 1abf a01c 33bf 4b58 ff3e 3316 46bd
00000080: 72a4 4b3f 57e9 ce3e 0e5d 1b3f b11a 74bb
00000090: d50c af3e 6edf 9f3e 4db0 f53d e159 9ebd
000000a0: 8b46 e43e c9f1 fe3e 0a53 6c3e eb78 a63d
000000b0: 7272 223f 29a4 8abd a6c7 053f 31d0 2a3e
000000c0: 66f6 3b3d e773 163e 4934 713e 540c 1dbb
000000d0: 97f2 133e 5927 503e a9ef 893e b5e2 773e
000000e0: 48c2 9e3d 541d dc3d 0036 353f a52b 083d
000000f0: d9ff 15be ab85 50be 81fb 253e ba08 643d
00000100: b8c7 cdbe 0bfe 8e3e afa2 1cbf fbbd 053f
00000110: d8a6 24be 1c04 fe3d 6420 f6be 500c 633e
00000120: 9c6d c23d 6366 06be 14b6 51bd 3bf7 ed3e
00000130: e080 343e 0eb6 2c3e 0b6f ea3d a6b7 213f
00000140: e3cc 92bd c580 8dbd 365a 57be 4283 a73e
00000150: 4309 d03d c8c5 91be 4ca3 52be a324 08bd
00000160: c742 fcbd f447 fd3d 6024 6a3e 094a 003e
00000170: 882f bb3d cdfc adbe f474 013e 10c7 d93e
00000180: d3a8 053e 35ef 103e 3d69 ba3e ea7e 9b3e
00000190: 8f28 fe3e 12a8 123e 597b c4be f745 b0bd
000001a0: 3df7 c33e ea26 2ebe a442 65be b5d9 843e
000001b0: dff1 a63e 796c 12be e9f2 593e da3e 0d3f
000001c0: a573 fd3b b583 733e a142 0abf e212 883e
000001d0: a6fb 1abf 5377 5b3e c5d0 943e ffed 84be
000001e0: 022a b93e 9b49 5d3e f23d c33c 6bcf 03be
000001f0: c4c4 0d3e 781a b13d 5786 1f3e 9bd7 41be
-0.12937053 -0.24471624 -0.21220572 0.2846448 -0.42862633 -0.18454137 -0.19497184 0.014285397
-0.7525538 0.57471263 -0.18829831 0.26952735 0.46941805 -0.30050206 0.19546022 0.038952563
0.66550624 0.1485671 0.40763542 0.40479276 -0.23710328 -0.58001316 -0.075917505 -0.20045939
0.282953 0.056130365 -0.21103072 -0.18037188 -0.6049557 -0.69965553 0.4987205 -0.048361015
0.795478 0.404124 0.60688865 -0.0037247355 0.34189478 0.3122515 0.11996517 -0.07731987
0.4458507 0.49793842 0.23078552 0.08128532 0.6345588 -0.06769592 0.52257764 0.16680981
0.04588928 0.1469265 0.23555101 -0.0023963647 0.1444801 0.2032751 0.2694066 0.24207576
0.077519 0.107477814 0.7078552 0.033244748 -0.1464838 -0.2036349 0.16209222 0.055672385
-0.40191436 0.27928194 -0.61185735 0.5224301 -0.16079271 0.124031276 -0.48071587 0.22172666
0.094935626 -0.13124995 -0.051199034 0.46477684 0.17627287 0.16866323 0.11446961 0.6317085
-0.07167985 -0.069093265 -0.21030506 0.3271733 0.101580165 -0.28471208 -0.20570105 -0.033238064
-0.12317424 0.123672396 0.22865438 0.12528242 0.09139925 -0.33981934 0.1264227 0.42534685
0.13052683 0.1415375 0.36408415 0.30370265 0.4964032 0.14321926 -0.38375357 -0.08607095
0.38274565 -0.17007032 -0.22388703 0.25947347 0.32606408 -0.14299192 0.21284069 0.5517403
0.007734733 0.23780711 -0.5400792 0.26576906 -0.60540235 0.21432237 0.2906553 -0.25962827
0.36164862 0.2161011 0.023833249 -0.12872092 0.13844591 0.08647627 0.1557859 -0.18929903

decoder.rnn.weight_ih_l0 f4 [256, 32]
00000000: 529a 413f 7a7f 603e 720c 683e b09c 0a3e
00000010: c6ca a53e 2c8c 29be a686 c5be 3bdd 10bf
00000020: 31bc 71bf bc04 483e fab2 98bf 1c06 883c
00000030: f1fe 003e d8ac f4be 3a88 293e ee7a 88bf
00000040: e56c 673e 842f a73e ff59 ed3e 83ac b83e
00000050: da1f ce3e 0a14 d43e 279e 82be 8a66 b13e
00000060: 024c c8be 72ab 603f 3d73 4cbf f478 573e
00000070: 3477 473d 5940 c6bf 6181 7c3e 4d28 81bf
00000080: 8a4c c43e 87ae ee3e e1f0 0abd 0492 8f3e
00000090: 04a4 f53e e2dd e4be 3381 15bf 0d64 0cbe
000000a0: 2338 03bf 1be3 c63c e3a1 91bf b761 47bf
000000b0: 5362 8a3e 263c 853e 379d aa3d 13a9 46bf
000000c0: 70a8 553f 3cca 993d ba4f a8bd a79a 043f
000000d0: c83f 493f e155 233f c133 14bf 8b00 b83e
000000e0: f950 dbbe 4016 d63d 530d f2be bd0a c23e
000000f0: 93cc b93e e75b a1bf f5fb f23e 7d46 cabf
00000100: 5003 913e 6067 0d3f 2ef7 1e3e 3bf9 df3e
00000110: 9745 d13e dcb3 ffbd 5e3b 60be b523 c5be
00000120: 4845 39bf e911 a93e c4ec 06bf b701 8c3e
00000130: 6d3c 683e 5489 a2be 6c50 733e 014a 96bf
00000140: 4f3a 023c ff4e 043e 400f db3b 7f04 9e3e
00000150: ac73 933f 634d b43e 43f1 d9be a22d 013e
00000160: 509c 99be d1dc d23e 5404 a8be ca86 af3e
00000170: 23b5 483e 332c 7cbf b647 ee3e d756 75bf
00000180: 2e49 173f 8e63 213f 1f40 eb3b 1dc6 ab3e
00000190: 21b4 433f 8922 02bf 7107 b6be 35d4 bebd
000001a0: dd8e febe b505 c53d c872 42bf 7097 00bd
000001b0: b64c 693e d758 86bf 5e07 ef3e 56f5 29bf
000001c0: dafe 8dbd 3b70 7e3d a257 8bbd dbda 8a3e
000001d0: 3d73 ee3e 2e54 ab3e ecfe 0fbf ce46 9d3e
000001e0: 8224 353d c5b6 21be b72e 54bf 8047 9d3e
000001f0: bc27 21bd 2c2d 72bf b1d1 eb3e d35f 0fbf
00000200: cc26 313f 288b c33e 49e2 a6bc 211c 843e
00000210: c5c1 e53e febb c5be fc93 713e bcd3 a3be
00000220: 3323 65bf 09cf 36bd cc30 923c 954b d53e
00000230: 569e 6a3e d675 a8be 07c5 373f 1534 12bf
00000240: ce89 cc3b 4dde 063e c2a2 c03e 6832 dd3e
00000250: 9d4d 0ebe 53b5 273f 9017 ffbe fd7c 923d
00000260: 76d0 0f3e 84e9 c5be 6bc7 72bf b8af e33e
00000270: 360f f63d efb6 53be b3dc 073f 754f 59bf
00000280: 9a78 ea3e 3160 473f ae22 a5be cfe6 f13e
00000290: b03f 153f 7d94 76be 9315 213d 2eec 27be
000002a0: 3fe6 d2be 26d8 aabd 3997 ce3d 0387 aa3e
000002b0: 8564 f03e a578 393e 9258 1b3f d7ed e2be
000002c0: 0238 833e 8514 ae3e 5758 da3d 7ebd 013f
000002d0: ab38 36be bcfd 503f 2d86 05bf b090 343d
000002e0: fda0 bd3e e377 dd3e 8f3e 11bf d4c4 f13e
000002f0: 42ae 24be ce16 b73e 0261 3b3f 6c4e 0fbe
00000300: 42f6 433f 8d37 003e 90d7 0e3e 6e36 ca3d
00000310: 9a6f 983e 4091 68be 1994 e0be ef04 a2be
00000320: 1062 4dbf d963 773e 7ab5 36bf 06de 34be
00000330: e393 143d c794 eabe c11b 8cbe 32ce 71bf
00000340: 0359 583f d3f8 ab3e 28df d23e 45b8 093e
00000350: 8d8b e13e b80e 9d3e 2014 8dbe 5d05 db3e
00000360: 525b bbbe 608e aa3e 6b11 74bf 2bfb 453e
00000370: bf01 813e d413 6fbf a8ed 9b3e 6229 b4bf
00000380: 3bc6 0e3f fbc1 443f cf38 11be c5e8 b53e
00000390: 1ffe 283f 4fe0 45be 7265 6b3c 81fd 67be
000003a0: 6148 0fbf 39f8 d13d 168d 5c3d ef9b 783e
000003b0: bd10 b33e 83b9 0ebe 0680 1d3f 43c9 1dbf
000003c0: 97ee b73d be7b 563e 7984 743d 1b74 fb3e
000003d0: 0838 cdbd 0f4e 8a3f 4b0f debe 99ab 913e
000003e0: 1919 f1bc ec2d 163f a4e9 45bf 040e fc3e
000003f0: 1181 9ebc fa5e abbd 50ff fd3e 24b3 d5be
0.756261 0.21923628 0.22660998 0.13536334 0.32381266 -0.16557378 -0.3857929 -0.5658757
-0.9442778 0.19533056 -1.1929619 0.016604476 0.12597252 -0.4778812 0.16555873 -1.0662515
0.22600134 0.3265344 0.46357724 0.36069116 0.40258676 0.4142154 -0.25511286 0.34648544
-0.3912049 0.87761605 -0.7986334 0.21042234 0.048697665 -1.5488387 0.24658729 -1.0090424
0.38339645 0.4661753 -0.033921126 0.2804109 0.47976696 -0.44700533 -0.5840027 -0.13710041
-0.5125753 0.024278214 -1.1377529 -0.77883476 0.2702814 0.26022452 0.083307676 -0.77601737
0.8346014 0.07509276 -0.08218332 0.5179848 0.7861295 0.63802916 -0.5789147 0.35937914
-0.42835215 0.104534626 -0.4727579 0.37898818 0.3628889 -1.2606171 0.47457853 -1.5802761
0.2832284 0.5523586 0.15523979 0.43744835 0.40873405 -0.12485477 -0.21897647 -0.38503805
-0.7237134 0.33021477 -0.52705026 0.27345058 0.226793 -0.31745398 0.23761147 -1.1741334
0.007948472 0.1292076 0.0066851676 0.30862805 1.1519675 0.3521529 -0.4256688 0.12615064
-0.3000207 0.41184095 -0.32815802 0.34282523 0.19600348 -0.9850494 0.46539086 -0.9583563
0.5909604 0.63042533 0.0071792747 0.33549586 0.7644673 -0.50833946 -0.35552552 -0.09317819
-0.4971837 0.09620229 -0.7595639 -0.031394422 0.22783169 -1.0495862 0.46685308 -0.6638998
-0.06933375 0.06211875 -0.06803824 0.27120098 0.46572295 0.33462662 -0.56248355 0.30718082
0.04422427 -0.15792377 -0.8288378 0.30718613 -0.039344534 -0.94600177 0.4605842 -0.5600559
0.69199824 0.38192105 -0.020371573 0.2580271 0.44874397 -0.3861999 0.23591608 -0.31997478
-0.89506835 -0.044631038 0.017845534 0.41659227 0.22911963 -0.32902402 0.71785015 -0.5711072
0.0062420135 0.13170739 0.37624174 0.4320252 -0.13896795 0.65511054 -0.49822664 0.07152746
0.14044365 -0.3865472 -0.9483554 0.4447 0.1201462 -0.20675252 0.53071135 -0.84886867
0.45795137 0.7788115 -0.3225302 0.47246405 0.58300304 -0.24080081 0.039327215 -0.16398689
-0.4119129 -0.08342008 0.10087437 0.3330613 0.4695169 0.18112428 0.6068202 -0.44322082
0.25628668 0.3400003 0.10661381 0.5067977 -0.17795055 0.8163717 -0.5215786 0.044083297
0.37036887 0.4325553 -0.5673608 0.4722048 -0.16082099 0.35759586 0.731949 -0.1399476
0.76547635 0.12521191 0.13949418 0.09873663 0.29772645 -0.22711658 -0.4386299 -0.3164439
-0.80227757 0.24159183 -0.7137066 -0.1766282 0.03627385 -0.45816633 -0.27364925 -0.94455254
0.8451082 0.33588275 0.4118588 0.134492 0.4405178 0.30675292 -0.27554417 0.4277753
-0.3659311 0.33311749 -0.9533908 0.19334094 0.25196645 -0.9338963 0.30454755 -1.4075129
0.55771226 0.7685849 -0.14181827 0.35529152 0.6601276 -0.19323848 0.014367448 -0.22655298
-0.55969816 0.10252423 0.053845488 0.24278234 0.34973708 -0.13937955 0.61523473 -0.61635226
0.08981054 0.20945641 0.05969665 0.4911202 -0.10020453 1.0805072 -0.43371043 0.2845123
-0.029430913 0.5866382 -0.7730963 0.49229443 -0.019348653 -0.08367725 0.4960885 -0.41738236

decoder.rnn.weight_hh_l0 f4 [256, 64]
00000000: 93fc a4bc 104a e93e 66c9 79bd 76ca 2c3e
00000010: 23d8 183d e494 443d 1f0e 3bbd 7a82 7cbd
00000020: 59d9 0bbd ab57 723d d03b 0f3d a1dd 1cbd
00000030: 79c8 a9bd 2fe5 91be b5cc ee3c b247 793e
00000040: 7ad8 363e 9dba 8e3e b237 1fbf a71a 2bbe
00000050: 2a9b e73d 724c f0bd b512 823e 8efa 173e
00000060: 9b2b b33d de97 453e d1d9 263e c6e9 863d
00000070: d9d3 933e 599d 673d f048 aebc b55d 653e
00000080: 7d75 0abe 9fd4 513e c788 92be beaa 0e3e
00000090: 4f6a cc3d 4db9 d63d 1c37 593e 9626 50be
000000a0: b617 b13e fc16 bcbd 23cb a0be 8ecb fa3b
000000b0: bab0 163e 5569 97bd 67ec 72be a5dc 37bd
000000c0: c6fe 743e 4b30 853b f075 a33c ca07 8ebe
000000d0: 38bb a83e 65c9 be3d 5ff0 94be 0af8 693d
000000e0: 24e6 61bd 3032 afbd f7c0 193e d221 983e
000000f0: 6e2b 103c 75db 0f3d a7b5 1fbe 58c6 1d3e
00000100: 0886 793d cab6 33bf 4d9f 27be f760 c53e
00000110: 3ac6 c63d 7c9e 47be 3f60 97bd 0f1c 653e
00000120: 3e10 b9be 8f4d 0f3f 4106 1ebf c294 d0bd
00000130: aa07 7b3e 312d 63be 4f2f a73e 0aeb b53e
00000140: e25c cd3e ce9a 3d3e 4b9a 083e 35bc 69be
00000150: 21c8 c73e e6df 773e c875 673e 16b2 023f
00000160: 6cc2 673e 62fe 0d3f 4ca2 c53d 6e24 533f
00000170: 6e40 ee3e d33b a03e 2533 72be eb63 4cbd
00000180: 397f 82be 0cf1 1cbe 11c5 acbe 7778 003e
00000190: 26c5 d83d da01 2b3e 9cb1 ca3e 54b9 eebe
000001a0: 14da a23d 3b78 66bf d570 97bd 5369 d83e
000001b0: 3837 bc3e e2b5 d03e ff57 26be 4a53 02bf
000001c0: 1d25 f3ba 04a8 3e3f ddad aa3e 9a76 6abe
000001d0: 4b28 c53e fb3e 023e a59a a4be dc7c 903e
000001e0: 0d13 83be f7ca e83e 49de 5f3e 11d1 52bf
000001f0: 48a9 56bd ec9d 693f f3c4 c43e 7474 89be
00000200: d077 2d3c 219d 0cbe 8f5b 4bbe ad18 313d
00000210: 7a6b 643e d784 f9bd 390b 463e 89ca c93d
00000220: 6d35 363e 7c33 66bd 6b4c 753e cb12 c03d
00000230: d588 193e 9ded 56bd 8433 8bbd 101d 023e
00000240: f041 1b3e f8ec 903e 2a17 fdbd ce62 26bd
00000250: bd58 943d 5c4a 5c3e a7f0 4cbe 8036 8ebd
00000260: a5c1 5a3e aa9d 033f cefb fabd 5f88 f8bd
00000270: 1c11 453e bdf3 f6bb 6a9e b3bd 5678 07be
00000280: ff78 99be 8863 2e3c 7f5e c73d 93ff 623e
00000290: b53d fa3d 4262 0a3e 3630 523e d839 fabd
000002a0: 0c71 24be d230 043e 146c 01be aea4 6f3d
000002b0: 582b 453d f668 053e 28c0 f3bd 3599 6bbd
000002c0: c749 42be 7d4d d7bd a994 643d ca26 11be
000002d0: b56f 783c 9d67 f13d effa b7be 98f8 ed3d
000002e0: 7197 9e3e ad5e 563e 4da4 a03e 47d1 53be
000002f0: db4f d03d 8a46 453d 98e5 0b3e 3235 f93d
00000300: 6fb1 2a3e 8656 3f3f 34f2 763e f4af 95bd
00000310: 0cb9 233d 0fdd 29be ca73 1bbc da65 c33c
00000320: f5ef db3c 3225 efbe 7165 f63e 3858 15be
00000330: 2e5b df3e e82e b73e 5f6b 88be 2a9c b03d
00000340: 4847 b93c 13ce fa3d f285 afbf 6b51 97be
00000350: 0bef 373e abd4 d03e 71be 25be 0e36 aebe
00000360: 6210 df3d 7ba4 e53d 4a07 11be 8a41 b4be
00000370: ff00 ae3c 451b 39bf 50d3 073e fc36 7e3d
00000380: 5098 b7bd 536a 40be bb69 bdbd d780 63bd
00000390: fdad 323d 6eaf ff3d 0700 aa3d 6524 babc
000003a0: 6034 143d a5ca 3c3d dce6 acbe 828c d53d
000003b0: 23f3 9d3d dc95 013f e4d2 de3d 0e0d c83d
000003c0: 9494 81be ff25 bcbb 60c4 1e3e 1892 923d
000003d0: e49b 31bf 85a5 8a3d 876b 55be e324 633e
000003e0: 7a41 743e 1413 ea3d 55eb 98bd 5eaf fbbc
000003f0: 58b0 233e a49e 9c3e 67bd 0a3f 172b 803e
-0.020139968 0.45564318 -0.060983084 0.16874108 0.0373155 0.047993556 -0.045667764 -0.06164787
-0.034142826 0.059165638 0.03496915 -0.0382973 -0.0829019 -0.28495166 0.029150346 0.24343756
0.17856017 0.2787675 -0.6219436 -0.16709386 0.11308892 -0.11733331 0.25404897 0.14841673
0.087485515 0.19296214 0.16294028 0.065875575 0.28872564 0.056546543 -0.021275014 0.22399028
-0.1352138 0.20491265 -0.28619978 0.1393232 0.09981214 0.10484562 0.21212429 -0.2032722
0.34588403 -0.091840714 -0.3140498 0.00765366 0.14715853 -0.07393137 -0.23722993 -0.044888157
0.23925313 0.004064595 0.019953698 -0.27740318 0.32955337 0.09315757 -0.2908964 0.057121314
-0.05515112 -0.085544944 0.15015016 0.29713303 0.008799417 0.0351214 -0.15596639 0.15407693
0.060918838 -0.7020079 -0.16369362 0.3855054 0.097057775 -0.1949405 -0.07391404 0.22373985
-0.36145204 0.5597772 -0.6172829 -0.10184623 0.24514642 -0.22185208 0.3265328 0.35530883
0.40109926 0.18516085 0.13340108 -0.22825702 0.39019874 0.24206504 0.22603524 0.5105299
0.2263276 0.5546628 0.09650096 0.8247746 0.4653353 0.31295642 -0.23652323 -0.049899977
-0.25487688 -0.15326327 -0.337441 0.12545954 0.10584478 0.16699925 0.3958863 -0.4662577
0.07951751 -0.9002721 -0.07394568 0.42267856 0.3676088 0.40763766 -0.16244505 -0.5090834
-0.0018550489 0.7447512 0.33335772 -0.22896805 0.38507304 0.12719338 -0.32149234 0.2822026
-0.25600472 0.4546735 0.21862139 -0.8235026 -0.052407533 0.91256595 0.3843151 -0.2684666
0.010587648 -0.13731815 -0.19859146 0.043236423 0.22306624 -0.1218354 0.19340219 0.09853084
0.17793818 -0.056201443 0.23954932 0.093785845 0.14993604 -0.0524727 -0.06796935 0.12706399
0.15161872 0.28305793 -0.12357934 -0.04062157 0.07243488 0.21512741 -0.20013677 -0.06943989
0.21362932 0.5141245 -0.12255059 -0.12135386 0.19244808 -0.00753638 -0.087704495 -0.13229498
-0.29975125 0.010643847 0.097348206 0.22167806 0.12218801 0.13514045 0.20526204 -0.12218064
-0.16058749 0.12909248 -0.12638885 0.05850666 0.04813704 0.1302832 -0.11901885 -0.057519156
-0.18973456 -0.105128266 0.055805836 -0.14174953 0.015163352 0.11787341 -0.35933635 0.11619681
0.30974916 0.20934553 0.31375352 -0.20685302 0.10171481 0.048162974 0.13661802 0.12168349
0.16669248 0.747414 0.2411583 -0.07308951 0.039971396 -0.16588233 -0.0094880555 0.023852278
0.026847819 -0.46708065 0.4812427 -0.14584434 0.43624252 0.35777974 -0.26644418 0.08623536
0.022616997 0.12246337 -1.3712752 -0.29554304 0.17962281 0.40787253 -0.16185929 -0.34025615
0.10891797 0.11213013 -0.14162937 -0.35206252 0.02124071 -0.72307235 0.13264203 0.062064156
-0.08964598 -0.1879056 -0.09248682 -0.055542793 0.04362296 0.124846324 0.083007865 -0.022722432
0.03618276 0.046091694 -0.33769882 0.1042719 0.0771239 0.5061929 0.10880068 0.09768115
-0.2530867 -0.005741834 0.15504599 0.071567714 -0.69378495 0.067698516 -0.208418 0.2218204
0.23853102 0.1142942 -0.07466761 -0.03072327 0.15985239 0.30589783 0.54195255 0.25032875

decoder.rnn.bias_ih_l0 f4 [256]
00000000: 56b7 143e 3815 d93d 0463 ba3d 8963 cc3e
00000010: 1efe b83e a800 c03e 066e 89bc c807 873e
00000020: 1eb4 ab3e 22f2 bc3c 9927 b73d 43d7 8d3d
00000030: 9c16 7a3e eb75 8d3d 5e90 a03b 2579 c43e
00000040: 730e af3e 04f2 a23e bfe8 0fbd eb4e 4d3e
00000050: fbd0 933e 8f21 8a3e 484b ba3d d591 fc3e
00000060: f596 c73e 8341 cc3e 8e2c c03e d17d 973e
00000070: ccb5 d63e 6fa5 163e 2932 e93d b31d 0b3e
00000080: 5805 f13e a663 5a3e 8832 103f d4ad 103e
00000090: 439c 063f 4bdb c93e 0856 983e 9155 353f
000000a0: 5bd3 bb3d 9337 fa3d ed04 aa3e 3d01 0c3f
000000b0: 782d 873e 6e43 8c3e 90f9 a43e c386 df3e
000000c0: 39b9 0d3e f912 aabc 7c55 433e 459b d63e
000000d0: 77e2 ef3d 2299 083f aa97 573f 849c aa3e
000000e0: 21d5 adbc 384d 4e3e bfaa 433f 3485 9a3e
000000f0: 8957 8cbd 7ced 423f a724 893e 0287 153f
00000100: 455d 0ebe 9694 ca3e ee7b 813c 1b31 183d
00000110: 1c4d 103c d867 1d3e c90a 5b3d ba58 26bd
00000120: 6db4 fe3d 2b3a d43d d648 29bc 09c2 2cbe
00000130: 4daf 05be fcfe 50bb e091 023e 8d98 503e
00000140: 3ebc cd3d de33 3ebd fdef 1c3f 7390 5ebc
00000150: b456 ad3c 4ddf 5dbd 4cf0 ff3d 9f60 c83d
00000160: 43f2 c3bd 2340 0a3d cdac f0bd 5f9c 483d
00000170: 84fc 32bc 0ee8 113f c702 4abe bb57 0e3e
00000180: 1b20 8c3d e450 05be 34c7 edbd 2ae8 a73d
00000190: 664c 2c3e 9b66 5b3c 8365 663b 3caa af3e
000001a0: 8822 b43e 3a6e 613d 54a7 cbbd 9ebf 903c
000001b0: 6d37 443d cd92 57bd 8ff2 723c 87cd e33d
000001c0: d6df ccbd d13e 113e ef3c 863d 5c59 363e
000001d0: d7a6 dcbd f1bc 8bbd f218 7d3d 6561 10be
000001e0: 04f6 ef3d e3ef ad3e 8d54 773e 0e64 fbbc
000001f0: 4498 ec3d 0eec 8b3d 29c0 0abc 1d3f 4cbd
00000200: 51d8 d4bd a8b8 053e 292c 0bbd e748 f8bd
00000210: a4d1 0bbd be71 673e 19b0 bfbd 7f04 cbbe
00000220: 990e 82bd dccd 00be c794 5cbe 1fcc 003e
00000230: 7948 973e 1a3f 97bd b6d0 0e3e 01d2 c3be
00000240: 8e6c 67be 15d4 b2be d464 49be c012 0bbe
00000250: c97b 79be 9f55 49be c2ca f93d da8e 0f3e
00000260: b78c 9abe fbad 1abe 4207 5e3e a2a8 17bd
00000270: 3154 b7be 02ab 42bd 20d9 1fbe 1b7d 9d3e
00000280: 2ad3 713e 1da7 f23d 1586 dfbe de53 6bbe
00000290: 0d9a a1be ec75 14be cb22 86be 1264 073f
000002a0: 095a 0c3e 3a4b 9cbe d1a2 60be d51e f1be
000002b0: b82e b7be 4595 1ebe eb60 013e 0f2e 573e
000002c0: d271 ce3d 3c4f 993e cbbe 90bd 12b6 0d3e
000002d0: e75c d5bd fb0e 9dbe f46c f33d 6bdf 5abe
000002e0: bc15 1bbe 06e1 80be 539c d4bc 7956 65be
000002f0: 9070 cbbd 1df9 0c3f 4a23 98be d696 b0bd
00000300: e679 943d ea99 333e 1f6e 403e 0ca7 b03e
00000310: 11cf a23e 00a7 653e d6df c03b 1e5e 643e
00000320: 8c28 833e 9144 8a3e 2d36 823e c9f5 dd3d
00000330: bd4b fe3e 6b5a 993d 86f7 0b3e 35d4 233f
00000340: fb20 c83e 46f0 593e 75d2 f03e 5067 ea3d
00000350: dc17 c63e 9dc4 d23d 1f8c d33e cd3d 133e
00000360: 60d8 c93e 2c67 923e 43c3 cf3e e7ba 183e
00000370: 9d3a 463f c161 a03e 3294 cb3d 13f9 253e
00000380: 3dcb f33e 9655 843e 5bc4 713e 6979 a53e
00000390: 1748 2c3e 61ac 173e e3fc 763e 2369 003f
000003a0: ed98 af3e 6bcf 223e 2428 6d3e 761a d13e
000003b0: d3aa bc3e c39a 6b3e ddc0 9d3e 7310 b73e
000003c0: 4685 c23e 321c 373e bd6b 573e e90c 173f
000003d0: 081e b73e 185a 833e 2862 1a3f 0552 373e
000003e0: f8b9 373e 45f7 ed3d 0ee9 d03e 7ff6 1d3e
000003f0: e728 89bc ba34 0f3e a687 873d e978 373f
0.14523062 0.1059975 0.09100917 0.3991969 0.36131376 0.375005 -0.016776096 0.26373124
0.33535856 0.023064677 0.089430995 0.069258235 0.24422687 0.06907257 0.0049000224 0.38373676
0.3419071 0.31825268 -0.035134073 0.20049636 0.28870377 0.26978728 0.0909639 0.4933001
0.3898236 0.3989373 0.37533993 0.29588178 0.41935575 0.14711545 0.113865204 0.13585548
0.4707439 0.21327075 0.56327105 0.1412881 0.52582186 0.3942512 0.29753137 0.7083369
0.09171172 0.12217631 0.33206883 0.5468939 0.26401877 0.27395195 0.3222165 0.43657503
0.13840188 -0.020761 0.19075578 0.41915336 0.117131166 0.5335866 0.84215796 0.33322537
-0.021219792 0.20146644 0.7643241 0.3017975 -0.068526335 0.7614362 0.26785776 0.5840913
-0.13902767 0.39566487 0.015806165 0.037156206 0.008807447 0.15371644 0.053477082 -0.04061196
0.12436757 0.10362657 -0.010332307 -0.16870894 -0.13055153 -0.0031890264 0.1275096 0.20370694
0.1004567 -0.046436183 0.61303693 -0.013584244 0.021159507 -0.054168034 0.12497005 0.09784054
-0.09567692 0.03375257 -0.11751709 0.048977252 -0.010924462 0.5699471 -0.19727622 0.13900654
0.06842061 -0.13019139 -0.116102606 0.08198579 0.16826019 0.013391162 0.003515572 0.34309566
0.35182595 0.05503676 -0.09944025 0.017669495 0.04790442 -0.052630235 0.014828338 0.111231856
-0.10003631 0.14184119 0.06554591 0.17807525 -0.1077401 -0.06823147 0.061791368 -0.14099653
0.11716846 0.33972082 0.24153347 -0.030687358 0.1155248 0.06832133 -0.008468666 -0.049864877
-0.103928216 0.13058722 -0.03397766 -0.1212328 -0.034135476 0.22601983 -0.0935976 -0.39651868
-0.063504405 -0.12578529 -0.21541129 0.12577866 0.2954748 -0.073850825 0.13946804 -0.38246158
-0.22600004 -0.3492743 -0.19667369 -0.13581371 -0.24363627 -0.19661568 0.12196876 0.14019337
-0.30185482 -0.15105431 0.21682456 -0.037026055 -0.3580642 -0.047526367 -0.1561017 0.3075951
0.23615709 0.118482806 -0.43656984 -0.22981212 -0.31562844 -0.14498109 -0.2619842 0.5288707
0.1370622 -0.30526143 -0.2193711 -0.47093835 -0.3577783 -0.1548663 0.12634628 0.21013664
0.10080303 0.29943264 -0.07067641 0.13838986 -0.1041811 -0.30675492 0.118860155 -0.2137429
-0.1514501 -0.2517168 -0.025953447 -0.22396268 -0.09933579 0.55067617 -0.29714423 -0.0862252
0.07249813 0.17539182 0.18792008 0.34502447 0.31798604 0.22426987 0.0058860583 0.22301528
0.25616872 0.27005437 0.25431958 0.108378954 0.4966716 0.07487949 0.13668641 0.6399568
0.39087662 0.21283063 0.47035566 0.114454865 0.38690078 0.10291407 0.4131784 0.14379044
0.39422894 0.2859434 0.4057866 0.14915048 0.77433187 0.3132458 0.099403754 0.16208296
0.47615996 0.25846547 0.2361006 0.3231919 0.16824375 0.14811851 0.24119906 0.50160426
0.3429636 0.15899436 0.23159844 0.408405 0.3684908 0.23008256 0.30811206 0.35754737
0.37992305 0.1788185 0.21037193 0.59004074 0.357651 0.25654674 0.60306025 0.17902382
0.17942035 0.116194285 0.40802807 0.15426062 -0.016743137 0.13984957 0.0661767 0.7166887

decoder.rnn.bias_hh_l0 f4 [256]
00000000: 9576 5f3d ac63 163e e2dd 3d3e 7051 893e
00000010: 6315 b43e cb5b df3e 01a9 3dbc b7fe e53e
00000020: 0740 153e 6520 683e c744 b93d 1232 bd3d
00000030: 016c 333e 78ad 203e 7102 393e 4dc3 d73e
00000040: 8ca3 a43e 67b9 d13e 2411 25bd f91a ea3d
00000050: 4d6f b93e 6f6a 943e c123 0c3e cc61 043f
00000060: 6ad6 953e 0a74 d13e 8d58 af3e 991f e63e
00000070: a106 043f f94e 17bc d1a9 9cbb 71de 313e
00000080: 0d33 933e 466d 5b3e ee69 303f 2052 783e
00000090: 5c3f 223f edea f33e 26cb 9a3e 52b8 2d3f
000000a0: d624 c6bd ab6a b93d 162c 8a3e d4ec 1f3f
000000b0: 6ea6 823e 0038 963e 15a4 af3e 4e0d b43e
000000c0: 5725 913e 8cda 773d df7f a13e ae77 e63e
000000d0: b3e2 aa3e 5341 e33e 7e9c 703f c06e ad3e
000000e0: 09f8 553c 2540 f83d f2ae 463f a0f6 c13e
000000f0: c1c8 6bbd 78a4 313f 0c2f 0f3e 4402 253f
00000100: 9456 28bd be41 673e e216 bc3c 198f d7bc
00000110: eb74 0a3e 80b3 383d f62a b7bd b030 893d
00000120: f61f bebc 4f79 193e 2ddb 3ebd e508 e1bd
00000130: 67ea 0bbe 07c5 843d 50eb 9a3c 952c 0b3d
00000140: 987c b83d ffce 363d c606 283f b9d8 4dbc
00000150: da7b 16be 962e e9bd 59e7 793d 26fa 12bd
00000160: dc15 413d 998f cabc ba5d c7bc 7837 a33d
00000170: 12dc 123e 132a 0b3f f82d 54be 0af7 a83c
00000180: 93e4 80bd fec2 c0bd a002 0a3d 6d50 343d
00000190: c5a5 373d aacb 4d3d 6bf9 80bd 1e39 b13e
000001a0: b29d 053f 003a 563e e529 1cbd 756e 7ebc
000001b0: 1557 0abe 93b3 973d 34a0 183d f6f8 f3bb
000001c0: 2cca f4bd 7135 c6bc f7f8 28bd 52e7 173c
000001d0: 975d a73d 60f5 853d ee5f 1e3e 92b8 d6bc
000001e0: a681 16bd b9b1 c13e 6b28 0c3e 7971 6abe
000001f0: 807e cebc 8294 19be e4d2 973d 0243 a0bd
00000200: 672c 28bc 073e 963e c7e6 03be f8a3 93be
00000210: 5d43 81be c4d7 9f3e 6a6f 45bd c3f1 c2be
00000220: d73f 57be f3a7 c3bd ac12 0dbe 3a7f d33d
00000230: 0150 693e 2d45 1bbd 4cf7 ae3d 7696 8abe
00000240: 1bcd 35be b7a8 e0be 3e82 c5bd b343 50be
00000250: c783 44bd 8133 78be fc30 853e 83f5 6c3e
00000260: d500 9bbe 4aae 04be 9937 df3d a9fc e33d
00000270: ddbe 2dbe 2452 62be 1d31 9fbd dc55 893e
00000280: 0ba8 933e a5ec 303e 9aef f7be e623 9cbd
00000290: 0874 b5be d6d8 89be 9e0a 45be d73d 0c3f
000002a0: 8854 2f3e b1da 86be d0ea bfbb 22ec efbe
000002b0: cddf acbe 406a 8cbe 32e3 9e3e e2f0 833e
000002c0: 0107 673e 74ff c93e dd01 2dbe 25e0 ad3d
000002d0: 97d9 24be 129b 9fbe a943 483e 53aa 39be
000002e0: f4ac 78be d35e d7bd 3c59 3dbe e714 62be
000002f0: 9441 c6bd d09f 213f 8a62 7abe 8341 1dbe
00000300: 0b3a 0e3e 421d 813e fa9c 223e 202b 743e
00000310: 60d2 893e 3bc0 1d3e 7553 243e fa78 e23d
00000320: 4035 433e da32 873d a79a 193e 6be4 54bd
00000330: ccf4 e23e 578a 283e 7a86 273d c1fb f83e
00000340: 1743 fd3e edaf b63e 5d42 ec3e cda2 5b3d
00000350: 1c90 8d3e 2859 e43d 4ee4 8d3e 51d3 193e
00000360: 4322 cd3e 5b0e a93e 5382 c73e 0d23 4e3e
00000370: 2e21 683f 0b1b 8e3e 9e8f 0d3d 0f91 783e
00000380: 7829 233f e6a3 4d3e cd2d 083e 4b3d c23e
00000390: cd57 9b3e 2128 703e 57ee b43e c1d0 ab3e
000003a0: bbd1 713e 50f9 023e 7053 9d3e 1a92 0d3f
000003b0: f8fa fb3e 24b8 9b3c fd2a af3e fd28 5e3e
000003c0: c4b2 7e3e efc7 063d dfcf 803e 0d59 153f
000003d0: 35d4 883e a988 c53e c34f 1d3f a2a9 863e
000003e0: b5e3 923d 64b4 043e c980 a93e 6002 533e
000003f0: 1047 313c 2253 2d3e 5072 733d e836 6a3f
0.054556448 0.1468646 0.18541673 0.26819944 0.35172567 0.4362472 -0.011575938 0.44920895
0.14575206 0.22668608 0.09046321 0.09238066 0.17521669 0.15691173 0.18067338 0.4214119
0.32156026 0.40961763 -0.04029955 0.11430926 0.36217728 0.28987452 0.13685514 0.51711726
0.29265147 0.40908843 0.34247246 0.44945982 0.51572615 -0.009235137 -0.004780986 0.17370011
0.28749886 0.21428403 0.68911636 0.24250078 0.6337793 0.47640172 0.30233115 0.67859375
-0.09674995 0.090535484 0.2698676 0.62470746 0.255176 0.293396 0.34304872 0.351664
0.283488 0.060511157 0.3154287 0.45013183 0.33376083 0.44385776 0.9398879 0.33873558
0.0130596245 0.121216096 0.77610695 0.37883472 -0.0575645 0.69391584 0.1398279 0.6445658
-0.041098192 0.22583672 0.02296013 -0.026313351 0.13521163 0.04509306 -0.08943741 0.066987395
-0.0232086 0.14987682 -0.04659574 -0.109880246 -0.13663636 0.064828925 0.018911034 0.033978064
0.09008139 0.044631 0.65635335 -0.012563878 -0.14695683 -0.11385839 0.061011646 -0.03588309
0.047139987 -0.024726676 -0.024336684 0.07969564 0.14341763 0.54361075 -0.2072066 0.02062561
-0.06293597 -0.09412192 0.03369391 0.044022013 0.044835825 0.050243057 -0.06297573 0.3461389
0.5219375 0.20920563 -0.03812589 -0.015529265 -0.13509782 0.07407298 0.037262157 -0.00744545
-0.11952624 -0.024195405 -0.041253056 0.00927146 0.08172148 0.06540942 0.15466282 -0.026211057
-0.036744736 0.37830904 0.13687293 -0.22894849 -0.025206804 -0.14998057 0.07413271 -0.07825281
-0.010264493 0.29344198 -0.12881003 -0.28836036 -0.25246707 0.31219304 -0.048201956 -0.38075075
-0.21020447 -0.09553518 -0.13776654 0.10327001 0.22784425 -0.037907768 0.08543262 -0.27067918
-0.17754023 -0.4387872 -0.09643982 -0.20338325 -0.047977235 -0.24238397 0.26013935 0.2314053
-0.30274072 -0.12957111 0.10899276 0.111321755 -0.1696734 -0.22101647 -0.077730395 0.26823318
0.28839144 0.17277773 -0.4842499 -0.076240346 -0.35440087 -0.26923245 -0.19242331 0.5478186
0.1712209 -0.26338723 -0.0058568493 -0.46859843 -0.33764496 -0.27424812 0.3103271 0.25769717
0.22561266 0.39452708 -0.16895242 0.08490018 -0.16098629 -0.31172997 0.1955706 -0.1813138
-0.24284726 -0.10516133 -0.18491071 -0.22078286 -0.09680477 0.6313448 -0.24451652 -0.15357022
0.13889329 0.25217634 0.15880194 0.23844576 0.26918316 0.15405361 0.16047461 0.11058231
0.19063282 0.06601496 0.15000401 -0.05197565 0.4432739 0.16459022 0.04089973 0.48629573
0.49465248 0.35681096 0.4614438 0.053622056 0.2764901 0.11149818 0.27713245 0.15022017
0.40065202 0.33018765 0.38966617 0.20130558 0.9067563 0.27755007 0.034560792 0.24274085
0.6373515 0.20082054 0.13298722 0.37937388 0.30340424 0.23452808 0.3533809 0.33557704
0.23615162 0.12790418 0.3072772 0.5530106 0.4921491 0.019008704 0.34212485 0.21695323
0.24872881 0.032905515 0.25158593 0.58339006 0.267244 0.38580826 0.6144983 0.26301295
0.07172338 0.12959439 0.33106068 0.20606375 0.010820165 0.16926244 0.05943519 0.9149003
