detector_dev/Process_I24_simulations/models/cnn_lstm_ae_normalized_i24_detector.pt (torch, 129255 bytes, 12 tensors)

encoder.cnn.weight f4 [8, 4, 16]
-0.02109564 -0.021717835 -0.029918365 -0.024634408 -0.039430577 -0.027033139 -0.025115151 -0.021571701
-0.029439537 -0.036613476 -0.023297057 -0.02609806 -0.025134882 -0.026930323 -0.027003223 -0.028028456
1.0698712 0.9409308 0.8699299 0.8318888 0.72475255 0.66354567 0.635497 0.5463236
0.45682412 0.3977169 0.34898782 0.3215614 0.2572143 0.1706204 0.12514761 0.03645586
-0.012421082 0.0031874788 0.019527907 0.03172547 0.04410024 0.060350474 0.08470853 0.107165754
0.13543737 0.14813894 0.15989281 0.16912462 0.1859822 0.20026124 0.23136246 0.2615349
-0.24458632 -0.23050596 -0.22168355 -0.2205791 -0.22377156 -0.19533822 -0.18449967 -0.1712961
-0.16226853 -0.12935023 -0.09913674 -0.0846865 -0.062474065 -0.014437665 0.023742838 0.054148115
-0.0072369077 0.0012234943 0.014755784 -0.0111884 -0.0027687193 -0.014546513 -0.02307402 -0.012031814
-0.020711953 0.005648758 -0.014599688 -0.002953404 -0.02076213 -0.021347936 -0.031588808 -0.020944329
-0.99302703 -0.8297607 -0.70143044 -0.6456821 -0.53081524 -0.39851627 -0.3004134 -0.12045437
0.06760974 0.20175968 0.29888645 0.3607015 0.45688167 0.56595826 0.55222803 0.6092093
0.46614733 0.46826857 0.4561428 0.45147204 0.4372427 0.4243222 0.4120349 0.413403
0.40137815 0.41328543 0.40377533 0.40968907 0.40851483 0.40900737 0.4121966 0.40805718
-0.2277154 -0.16543573 -0.12845367 -0.056889348 -0.04726063 -0.017471218 0.014406265 0.063243344
0.09473553 0.11460735 0.1112172 0.11188647 0.10332045 0.10871057 0.049581543 0.022919888
0.054415833 0.051236592 0.04681013 -0.005175282 0.035531893 0.037068095 0.07111246 0.035546314
0.065616764 0.031294007 0.043275997 0.045378126 0.047664385 0.030206328 0.027585275 0.03517209
-0.47283658 -0.37935576 -0.35581857 -0.35339832 -0.30866373 -0.24829252 -0.22131851 -0.01983151
0.12985836 0.14507037 0.14461988 0.12157735 0.15686662 0.1613408 0.19258122 0.353136
-0.1811753 -0.16755047 -0.20405585 -0.14774425 -0.15933472 -0.13793454 -0.14336175 -0.13842368
-0.1352763 -0.14390367 -0.14289716 -0.1455461 -0.13444348 -0.14182697 -0.16664904 -0.17831455
-0.32955515 -0.22685438 -0.16833514 -0.098325774 -0.07254317 -0.052356116 -0.009325696 0.018918179
0.05125884 0.07531978 0.0705775 0.0977708 0.07500774 0.0613955 0.010788597 -0.010212911
0.17948186 0.13687344 0.05763173 0.06592148 0.15470159 0.068912596 0.0997621 0.114609666
0.17515118 0.17204261 0.062672 0.095953174 0.1191386 0.16555817 0.08786474 0.11652448
-0.32293397 -0.24896142 -0.15551329 -0.15821853 -0.14985219 -0.09765323 0.0059859552 -0.005796132
0.13591655 0.2385282 0.3604865 0.34767327 0.32820112 0.27784163 0.4214894 0.52693236
0.096338876 0.0026101558 0.08642502 0.07610612 0.08206037 0.0013468352 0.019911759 0.05505796
-0.047547076 0.055263273 -0.02100698 -0.06668803 -0.028985891 -0.0926347 -0.060577955 -0.02221123
0.21367009 0.12564279 0.14370787 0.12914501 0.09851909 0.07835613 0.050240707 0.004218341
-0.03569107 -0.04122594 -0.0447384 -0.066712014 -0.052539635 -0.07051084 -0.077855244 -0.09932826
00000000: c3d0 acbc 9ae9 b1bc 5c17 f5bc 19ce c9bc
00000010: f581 21bd 9a74 ddbc 4abe cdbc 23b7 b0bc
00000020: 2f2b f1bc 03f8 15bd 78d9 bebc 99cb d5bc
00000030: abe7 cdbc fb9c dcbc dd35 ddbc ef9b e5bc
00000040: 8af1 883f d7e0 703f bab3 5e3f aaf6 543f
00000050: 6289 393f 21de 293f eeaf 223f dddb 0b3f
00000060: dae4 e93e 8da1 cb3e 88ae b23e b2a3 a43e
00000070: 98b1 833e 1db7 2e3e b226 003e bd52 153d
00000080: cb81 4bbc 05e5 503b fdf8 9f3c 91f2 013d
00000090: 74a2 343d 0f32 773d aa7b ad3d b879 db3d
000000a0: 18b0 0a3e bcb1 173e f1ba 233e 012f 2d3e
000000b0: 1e72 3e3e 4811 4d3e 48ea 6c3e e7e7 853e
000000c0: d674 7abe c109 6cbe 0301 63be 7ddf 61be
000000d0: 5f24 65be be06 48be 7bed 3cbe 3f68 2fbe
000000e0: b929 26be 6374 04be 3408 cbbd 1e70 adbd
000000f0: cee4 7fbd f58b 6cbc 5780 c23c 6aca 5d3d
00000100: 9523 edbb a85d a03a 3ec2 713c 8d4f 37bc
00000110: 6773 35bb 7f54 6ebc ba05 bdbc 1621 45bc
00000120: 1dac a9bc 3719 b93b 8833 6fbc e68d 41bb
00000130: 5815 aabc dee1 aebc 4463 01bd 7193 abbc
00000140: 0537 7ebf 326b 54bf f290 33bf 6c4b 25bf
00000150: 82e3 07bf 530a ccbe c9cf 99be c8b0 f6bd
00000160: fa76 8a3d 179a 4e3e a507 993e dead b83e
00000170: 65ec e93e a4e2 103f d15e 0d3f 24f5 1b3f
00000180: ddaa ee3e e6c0 ef3e 8d8b e93e 5827 e73e
00000190: 46de df3e c240 d93e 3df6 d23e 8fa9 d33e
000001a0: 7081 cd3e 269a d33e a4bb ce3e c4c2 d13e
000001b0: db28 d13e 6a69 d13e 6f0b d33e dfec d03e
000001c0: 3a2e 69be fc67 29be 5c89 03be ce04 69bd
000001d0: 5d94 41bd cd1f 8fbc 4108 6c3c ba85 813d
000001e0: b404 c23d 42b7 ea3d d8c5 e33d bc24 e53d
000001f0: ac99 d33d a6a3 de3d 0416 4b3d 7dc2 bb3c
00000200: 23e3 5e3d 76dd 513d fbbb 3f3d 6995 a9bb
00000210: e489 113d b7d4 173d 69a3 913d 0399 113d
00000220: 1562 863d 252e 003d 2c42 313d 6ade 393d
00000230: bb3b 433d 4373 f73c 84fa e13c 9c10 103d
00000240: a317 f2be eb3a c2be da2d b6be a0f0 b4be
00000250: 2c09 9ebe 6540 7ebe 52a1 62be b175 a2bc
00000260: 97f9 043e 548d 143e 3c17 143e 8cfd f83d
00000270: a5a1 203e 8636 253e 0334 453e 3ece b43e
00000280: 0586 39be 5a92 2bbe 04f4 50be 454a 17be
00000290: a428 23be b63e 0dbe 6ccd 12be f0be 0dbe
000002a0: df85 0abe 7c5b 13be a253 12be 090a 15be
000002b0: 8dab 09be 173b 11be 0ca6 2abe 1798 36be
000002c0: 74bb a8be 844c 68be 0c60 2cbe 065f c9bd
000002d0: 8391 94bd 5e73 56bd ceca 18bc 4cfa 9a3c
000002e0: caf4 513d 4241 9a3d f08a 903d 0f3c c83d
000002f0: a89d 993d d979 7b3d a8c2 303c 0e54 27bc
00000300: 18ca 373e 8d28 0c3e 400f 6c3d d701 873d
00000310: 186a 1e3e 0c22 8d3d 1250 cc3d 79b8 ea3d
00000320: d55a 333e f02b 303e 2d5a 803d 1983 c43d
00000330: f0fe f33d 1588 293e 6ef2 b33d 63a4 ee3d
00000340: 9a57 a5be beef 7ebe e03e 1fbe 0a04 22be
00000350: da72 19be 6bfe c7bd d525 c43b 7bed bdbb
00000360: b52d 0b3e bd40 743e b091 b83e 3b02 b23e
00000370: fa09 a83e 4241 8e3e 75cd d73e 0ae5 063f
00000380: 514d c53d 260f 2b3b 9aff b03d 87dd 9b3d
00000390: 440f a83d 4a88 b03a fc1d a33c 7584 613d
000003a0: b9c0 42bd be5b 623d d516 acbc bc93 88bd
000003b0: d273 edbc 43b7 bdbd 9720 78bd 53f4 b5bc
000003c0: 55cc 5a3e 81a8 003e 2828 133e 973e 043e
000003d0: 60c4 c93d 2e79 a03d 33c9 4d3d 023a 8a3b
000003e0: cd30 12bd 88dc 28bd 9d3f 37bd 4fa0 88bd
000003f0: cd33 57bd fd67 90bd 9272 9fbd 9d6c cbbd

encoder.cnn.bias f4 [8]
0.45601583 0.079568714 0.10812064 0.082146995 0.28042296 0.0030034154 -0.013954969 -0.32767558
00000000: e87a e93e ecf4 a23d 5b6e dd3d af3c a83d
00000010: 9993 8f3e f3d4 443b 62a3 64bc 18c5 a7be

encoder.rnn.weight_ih_l0 f4 [128, 8]
0.01851793 0.12964363 -0.16478378 -0.25915557 -0.10259335 -0.16348149 -0.10025333 -0.24262445
0.4108286 0.29028225 0.3045586 0.11001536 -0.06726969 -0.12376009 0.049897302 0.15383822
-0.21884958 -0.010684378 -0.0051945215 -0.10003116 -0.075651444 -0.027760824 0.043493748 -0.27553022
0.21073687 0.12735933 0.026145626 -0.068049476 0.018556641 -0.045713715 0.12573141 0.0010775399
-0.078203976 -0.073958375 0.09394845 0.047367226 0.17262053 -0.055944532 -0.07952768 -0.018505901
0.047700122 0.14561291 -0.07575084 -0.049321584 0.16349547 -0.030787015 0.031911563 -0.00807295
0.16604173 0.045883853 -0.18939595 -0.033865042 -0.17927991 -0.519838 0.029614687 -0.11621144
0.00810146 -0.28196982 -0.16702814 -0.18258148 0.0067608785 0.062671006 0.17689411 0.10410712
0.4727589 -0.013338782 0.031347513 0.037367616 0.08704871 -0.06725197 0.28163746 0.210276
-0.077543385 0.139926 0.14165077 0.105787456 0.20422319 0.082753405 -0.06567677 -0.049918965
0.25466496 0.34961578 0.32370925 -0.33435127 -0.2734648 -0.16927044 -0.42325956 -0.26159137
0.45137048 0.21927159 0.24094659 -0.08539731 -0.22842614 -0.21569139 -0.26760134 -0.35612136
-0.3431998 -0.09062627 -0.23997346 -0.5478376 -0.23480144 -0.23980534 -0.44720984 -0.37003517
-0.108918674 0.0070695714 0.0011383059 0.023692809 0.039763708 0.05866233 0.14302695 0.104695424
0.04375043 -0.017844737 0.05704083 -0.23567128 -0.31505373 -0.26579323 -0.23557498 0.002531456
0.076721825 0.027428327 0.12336481 -0.1019443 0.07030856 0.15688369 0.18501052 0.11487182
0.019812677 -0.15735091 -0.20645322 -0.3222784 -0.16094987 -0.27544507 -0.19687825 0.08038116
0.10156658 0.008854748 -0.15385698 0.24781744 0.35714146 0.3985084 0.06584568 -0.05496604
-0.47597447 -0.08664143 -0.24833912 0.025906844 -0.17477459 0.039263412 -0.21078677 -0.09058815
-0.12809657 -0.13727623 0.05445754 0.029532468 -0.27675426 -0.17747027 -0.35882828 -0.29386044
0.014924694 0.024769593 0.03321988 0.092175744 0.12772663 -0.02127459 0.095025375 0.15565579
0.16644236 -0.085577324 -0.21207324 -0.14848869 -0.094065435 -0.16854155 0.01363228 -0.028319545
-0.20792921 0.12879457 -0.06568619 0.015316899 -0.15968013 -0.17029198 -0.0037329707 0.11177356
-0.0053457846 0.108371146 0.10242772 -0.24912734 0.019922553 -0.16904078 0.053567518 -0.1147743
0.31961095 0.29371983 0.061304316 0.0692924 -0.08351314 0.24282266 -0.16768603 -0.11242108
0.22907391 -0.1043764 0.09406052 0.0067645973 -0.24167043 0.049419183 -0.17383975 -0.080715835
0.0613027 0.010707093 0.21334866 0.09775751 -0.13212803 -0.13072833 -0.08718941 -0.024223214
0.12571949 0.20595786 0.30361238 0.32699904 0.26990482 0.43914923 0.3050775 0.44946036
0.0028080326 0.0409993 -0.12427711 -0.039020684 0.028761677 -0.1613762 -0.13682672 -0.19105293
-0.05626465 0.33907485 0.2232331 -0.13837951 0.0068530445 -0.14772783 -0.25426906 -0.027194588
-0.14689161 -0.12637997 -0.17394179 -0.11251974 0.026009701 -0.12099424 -0.31421655 -0.09449168
0.1403798 0.2257993 -0.11108772 0.20873973 -0.1282535 0.052769803 -0.08361492 -0.2601705
00000000: eab2 973c 4dc1 043e 14bd 28be 0ab0 84be
00000010: 761c d2bd b167 27be 9e51 cdbd 8b72 78be
00000020: 2058 d23e e09f 943e 1bef 9b3e bc4f e13d
00000030: b1c4 89bd ee75 fdbd 1d61 4c3d c487 1d3e
00000040: 1b1a 60be 880d 2fbc ce36 aabb 23dd ccbd
00000050: 25ef 9abd ab6a e3bc 8026 323d 4c12 8dbe
00000060: 68cb 573e 7c6a 023e 5a2f d63c 865d 8bbd
00000070: 1904 983c 4e3e 3bbd bcbf 003e 3d3c 8d3a
00000080: 6829 a0bd 7d77 97bd 0c68 c03d 2304 423d
00000090: 70c3 303e 1826 65bd 69df a2bd b099 97bc
000000a0: 3461 433d 8d1b 153e 4223 9bbd 6e05 4abd
000000b0: 5b6b 273e 0d35 fcbc b3b5 023d 6844 04bc
000000c0: d806 2a3e b5f0 3b3d 03f1 41be 12b6 0abd
000000d0: 2795 37be 1a14 05bf 809a f23c 4300 eebd
000000e0: fcbb 043c 595e 90be 6d09 2bbe a4f6 3abe
000000f0: 5c8a dd3b a859 803d bb23 353e 1d36 d53d
00000100: 740d f23e e88a 5abc 4066 003d c90e 193d
00000110: 9846 b23d 67bb 89bd c932 903e 9752 573e
00000120: 11cf 9ebd c348 0f3e e60c 113e 18a7 d83d
00000130: e21f 513e 9e7a a93d 8b81 86bd d477 4cbd
00000140: 7263 823e d700 b33e 38bd a53e 1730 abbe
00000150: 9403 8cbe 3b55 2dbe 7ab5 d8be 4eef 85be
00000160: 081a e73e bb88 603e b4ba 763e c9e4 aebd
00000170: 8be8 69be 34de 5cbe 0b03 89be 8a55 b6be
00000180: e2b7 afbe 449a b9bd 9abb 75be 163f 0cbf
00000190: ca6f 70be 888f 75be b0f8 e4be 4075 bdbe
000001a0: c110 dfbd dda7 e73b 3533 953a 6c17 c23c
000001b0: 45df 223d e947 703d a875 123e 8e6a d63d
000001c0: a733 333d 202f 92bc a5a3 693d d053 71be
000001d0: b94e a1be 0d16 88be 913a 71be c9e6 253b
000001e0: 5520 9d3d 5fb1 e03c b1a6 fc3d 2cc8 d0bd
000001f0: effd 8f3d 1ea6 203e 6673 3d3e eb41 eb3d
00000200: 324e a23c 9920 21be 7968 53be ad01 a5be
00000210: 0bd0 24be 2307 8dbe 749a 49be e19e a43d
00000220: 2402 d03d 8113 113c af8c 1dbe dbc3 7d3e
00000230: 3fdb b63e 4b09 cc3e 1ada 863d 1224 61bd
00000240: edb2 f3be 1071 b1bd 9c4c 7ebe 973a d43c
00000250: 1cf8 32be acd2 203d 7dd8 57be 4886 b9bd
00000260: bf2b 03be 2492 0cbe df0e 5f3d 13ee f13c
00000270: bcb2 8dbe c4ba 35be 57b8 b7be e074 96be
00000280: b486 743c 9ae9 ca3c 9211 083d a3c6 bc3d
00000290: c5ca 023e 0d48 aebc aa9c c23d 3b64 1f3e
000002a0: de6f 2a3e 2a43 afbd ba29 59be 6b0d 18be
000002b0: 61a5 c0bd 2896 2cbe ed59 5f3c 64fe e7bc
000002c0: 65eb 54be b9e2 033e 7b86 86bd bbf3 7a3c
000002d0: 3083 23be 0561 2ebe dba4 74bb 89e9 e43d
000002e0: b12b afbb b1f1 dd3d a0c5 d13d 3d1b 7fbe
000002f0: 9f34 a33c 0719 2dbe 9d69 5b3d ca0e ebbd
00000300: 0ca4 a33e 7262 963e 3c1a 7b3d 2ce9 8d3d
00000310: f008 abbd 81a6 783e e3b5 2bbe 063d e6bd
00000320: 5a92 6a3e 4bc3 d5bd cda2 c03d 8ea9 dd3b
00000330: 7478 77be c56b 4a3d 0c03 32be 584e a5bd
00000340: 8a18 7b3d ce6c 2f3c 1278 5a3e 1735 c83d
00000350: 924c 07be a6dd 05be 5d90 b2bd c36f c6bc
00000360: 9cbc 003e 9ee6 523e 1573 9b3e 6b6c a73e
00000370: f730 8a3e 2bd8 e03e 1e33 9c3e ab1f e63e
00000380: f806 383b e2ee 273d ff84 febd 27d4 1fbd
00000390: 9c9d eb3c cd3f 25be 4e1c 0cbe 61a3 43be
000003a0: c375 66bd 389b ad3e 3897 643e 5cb3 0dbe
000003b0: 818f e03b f745 17be 8e2f 82be 2fc7 debc
000003c0: c16a 16be c069 01be cc1d 32be c070 e6bd
000003d0: 4c12 d53c d4cb f7bd fee0 a0be db84 c1bd
000003e0: b9bf 0f3e ef37 673e f581 e3bd debf 553e
000003f0: e354 03be 2625 583d 4d3e abbd 1135 85be

encoder.rnn.weight_hh_l0 f4 [128, 32]
0.22744331 -0.09033868 0.27684653 -0.11322766 0.1937861 0.3352025 0.117309615 0.039577436
0.5831443 0.41044798 0.10465042 0.034915116 0.043422848 -0.039185133 0.2778602 0.41892037
-0.47772628 0.024592813 0.63820386 -0.5312107 0.2961847 -0.19112721 0.61296564 -0.047996055
-0.11527769 -0.52806354 -0.08210827 -0.39374033 -0.27610677 -0.06963806 0.039269913 -0.1201623
0.15279236 -0.1839083 -0.23719372 -0.07977592 -0.05905909 0.03227215 0.10932991 -0.026728282
0.18303564 0.20702758 -0.39536643 -0.03983736 -0.29108414 0.014639384 0.22789544 -0.059100725
-0.1727655 -0.41796714 0.2953145 0.017806588 0.15107612 0.17092177 0.19334406 0.057537638
0.10587902 0.30159536 -0.1951779 -0.17966095 0.25199053 -0.37589613 0.5984882 0.15181504
0.05564311 0.026366845 0.022948867 -0.17497481 1.2270544 0.046510223 0.18337244 -0.4311955
-0.6919885 0.2742683 -0.74602103 0.13604331 0.123495944 0.5026559 0.07652116 0.1693166
-0.30703264 -0.0022222046 0.34303635 -0.88521063 -0.021395383 0.2853186 1.0493237 0.40039572
-0.19040015 -0.044436354 -0.22749373 -0.30969283 -0.1640172 -0.13716687 0.45185128 -0.33151135
-0.5306117 0.13055123 -0.5586833 -0.23166738 -0.10451071 -0.21848886 0.118171096 -0.28409007
-0.040634558 -0.0947124 0.149787 -0.49747378 -0.12464237 0.21993257 0.063219994 0.042321257
-0.110519014 0.061755534 0.027265532 0.1620594 0.5255715 0.60338837 0.134572 0.72522485
0.09190062 -0.10587963 -0.1122128 0.06309699 0.058619462 -0.279632 0.39181155 0.29250836
0.07482688 0.6765169 0.21389301 -0.40426838 -0.023034677 0.4459123 0.66847587 -0.26715338
0.007759089 0.6508763 -0.22626165 0.0059941886 -0.38961497 -0.2051191 0.31447414 0.04466554
0.3310445 0.23011994 0.2000611 -0.5293297 -0.4220261 -0.2534226 0.086070165 -0.30971816
-0.5199501 -0.38693425 -0.09769211 -0.5173554 0.10930506 -0.17854257 -1.0331589 -0.6094059
0.23176496 0.22410677 -0.07431929 -0.24654515 0.16461408 -0.1100271 0.28618598 -0.46090347
-0.071852334 0.04906596 -0.0093629565 -0.27805826 0.12570798 0.38121614 -0.036920995 -0.035736043
-0.1888959 -0.14421265 -0.076062985 -0.16696803 0.40076143 0.9027616 0.43023354 0.49398175
-0.082831316 0.034079622 -0.012509775 -0.18001175 0.2200298 -0.11337992 1.2721705 0.047247138
-0.43070164 1.2680819 -0.0016701109 0.10522289 0.1139453 0.18838048 -0.013801757 -0.5076465
-0.9305111 0.0023406749 -0.06323344 0.23975259 -0.3250632 0.16440049 0.15807618 0.63499296
-0.70995784 0.16563685 0.0038480407 -0.25664988 0.27932516 0.028495941 0.090952486 0.5057812
-0.9382197 -0.5089098 0.5317373 -0.039927498 -0.0101905335 0.24700253 -0.14832048 -0.17804775
-0.442226 -0.43093228 -0.07632352 0.316303 0.38524008 -0.17774253 -0.97667694 -0.26127565
0.74289155 0.16556437 -0.3609136 0.2922854 -0.9187914 0.2228465 0.110793725 0.4132221
0.039630387 -0.44605803 -0.09437595 0.19276403 0.45562786 0.4563654 0.2454056 0.2708243
-0.44411874 0.054829974 -0.02447078 0.10424853 0.3491283 -0.09522157 0.109598465 0.022502705
00000000: e6e6 683e 7c03 b9bd d4be 8d3e e7e3 e7bd
00000010: dd6f 463e a99f ab3e 0640 f03d f31b 223d
00000020: f248 153f 3d26 d23e f652 d63d 2703 0f3d
00000030: 28dc 313d 9780 20bd b143 8e3e bb7c d63e
00000040: 8a98 f4be de76 c93c 5461 233f 6dfd 07bf
00000050: 85a5 973e dab6 43be 51eb 1c3f 8397 44bd
00000060: b616 ecbd 2c2f 07bf 6128 a8bd 5598 c9be
00000070: de5d 8dbe 669e 8ebd 7dd9 203d a717 f6bd
00000080: 9a75 1c3e 7552 3cbe e9e2 72be 8f61 a3bd
00000090: f2e7 71bd cd2f 043d 5ce8 df3d 45f5 dabc
000000a0: b26d 3b3e 0aff 533e 786d cabe 802c 23bd
000000b0: fb08 95be 07da 6f3c 6c5d 693e 9a13 72bd
000000c0: 70e9 30be caff d5be 7633 973e 1fdf 913c
000000d0: b3b3 1a3e 1e06 2f3e fcfb 453e 96ac 6b3d
000000e0: 1ad7 d83d b56a 9a3e b7dc 47be 0af9 37be
000000f0: e704 813e 7575 c0be 8636 193f 6775 1b3e
00000100: 08ea 633d 48ff d73c 43ff bb3c 992c 33be
00000110: 1e10 9d3f 8181 3e3d fcc5 3b3e a8c5 dcbe
00000120: 2926 31bf e56c 8c3e 3cfb 3ebf f04e 0b3e
00000130: 71eb fc3d 0fae 003f 20b7 9c3d 5561 2d3e
00000140: 6233 9dbe 68a2 11bb 76a2 af3e 2a9d 62bf
00000150: 5f45 afbc 4815 923e 3d50 863f ab00 cd3e
00000160: 42f8 42be e502 36bd 1ef4 68be 0f90 9ebe
00000170: 20f4 27be 7975 0cbe 0d59 e73e dbbb a9be
00000180: 2bd6 07bf 39af 053e de05 0fbf 373a 6dbe
00000190: b609 d6bd 8bbb 5fbe b003 f23d 4174 91be
000001a0: 6c70 26bd 93f8 c1bd c361 193e e2b4 febe
000001b0: 8044 ffbd 0136 613e 7c79 813d 0e59 2d3d
000001c0: cb57 e2bd 5ff3 7c3d f75b df3c e6f2 253e
000001d0: db8b 063f a977 1a3f 3ecd 093e 56a8 393f
000001e0: 6436 bc3d 6bd7 d8bd d3cf e5bd ff38 813d
000001f0: f61a 703d ed2b 8fbe 869b c83e a8c3 953e
00000200: d63e 993d 3630 2d3f c506 5b3e 44fc cebe
00000210: 38b3 bcbc 9e4e e43e 3c21 2b3f 54c8 88be
00000220: f53f fe3b d49f 263f 22b1 67be e66a c43b
00000230: 9d7b c7be be0a 52be c102 a13e 37f3 363d
00000240: aa7e a93e 90a4 6b3e d1dc 4c3e 2782 07bf
00000250: ce13 d8be 9bc0 81be 8e45 b03d 6193 9ebe
00000260: 731b 05bf 3f1c c6be cd12 c8bd 6771 04bf
00000270: 55db df3d ddd3 36be 8d3e 84bf 0602 1cbf
00000280: cb53 6d3e 3f7c 653e b634 98bd 5576 7cbe
00000290: 9890 283e e355 e1bd f886 923e 8afb ebbe
000002a0: 5127 93bd 63f9 483d 1667 19bc a75d 8ebe
000002b0: 98b9 003e c32e c33e 783a 17bd f55f 12bd
000002c0: ed6d 41be 7bac 13be e9c6 9bbd abf9 2abe
000002d0: 9a30 cd3e 621b 673f 9247 dc3e 2deb fc3e
000002e0: 77a3 a9bd 1397 0b3d cdf5 4cbc 0055 38be
000002f0: 7e4f 613e bb33 e8bd 7cd6 a23f 3786 413d
00000300: ed84 dcbe 8250 a23f 9fe7 daba 197f d73d
00000310: 275c e93d d0e6 403e c420 62bc 1ff5 01bf
00000320: fa35 6ebf 0266 193b 8980 81bd b481 753e
00000330: af6e a6be 9a58 283e b9de 213e e68e 223f
00000340: ccbf 35bf b59c 293e 692f 7c3b 9d67 83be
00000350: b503 8f3e 5270 e93c 4c45 ba3d e07a 013f
00000360: 2b2f 70bf ea47 02bf f01f 083f 048b 23bd
00000370: 32f6 26bc 3bee 7c3e 53e1 17be 2652 36be
00000380: 726b e2be 28a3 dcbe 814f 9cbd 78f2 a13e
00000390: 303e c53e 2302 36be 8007 7abf ecc5 85be
000003a0: 242e 3e3f b589 293e abc9 b8be 6fa6 953e
000003b0: ea35 6bbf df31 643e d2e7 e23d d991 d33e
000003c0: 7953 223d b861 e4be 2e48 c1bd ef63 453e
000003d0: 0e48 e93e baa8 e93e 9b4b 7b3e 7ca9 8a3e
000003e0: 8863 e3be 6595 603d f276 c8bc 4180 d53d
000003f0: f2c0 b23e 8703 c3bd 2975 e03d 9857 b83c

encoder.rnn.bias_ih_l0 f4 [128]
-0.66417515 -0.322626 -0.3536746 0.26127663 -0.74096495 -0.23325667 -0.08746265 0.14398268
-0.18959479 -0.35258138 -0.21732968 -0.3252787 -0.5870653 -0.44659847 0.18068677 -0.44777256
0.08693504 0.031149928 -0.25232133 -0.08338053 -0.23065737 -0.4342359 -0.41583583 -0.13917404
-0.3066798 -0.5853679 -0.37928513 0.30744052 -0.25673494 -0.52532095 -0.32832992 -0.42002195
0.18417822 0.24835144 0.36887366 0.26064646 0.13213404 0.33787933 0.019418227 0.050118327
-0.109252855 0.18448375 0.13840185 0.10835645 0.5998571 0.23074523 0.15780358 0.3719011
0.29391652 -0.1392172 0.4335197 0.26942208 0.3751755 0.5205135 0.094433986 0.01147576
0.34954414 0.10577038 0.23285116 0.40908533 0.10843483 0.15205342 0.17900161 0.40829134
-0.083831765 -0.13493355 0.0020751464 0.12769403 -0.12606741 -0.097671166 -0.35585442 0.13837157
0.22084604 -0.23935106 0.019483225 0.04310978 0.10405733 0.019573987 -0.2792615 0.024120934
0.13140808 0.03365653 0.09239054 0.050408605 -0.03577212 -0.21018004 -0.26128992 -0.030392777
0.1968779 0.2253109 -0.122653894 0.37507442 0.02584177 -0.1266166 -0.045035753 0.10751132
-0.06371612 0.077968866 -0.14919162 -0.19603923 -0.002233146 0.15723462 0.30173033 0.18330234
0.105460346 -0.21618505 0.09875677 0.02909964 0.17179038 -0.18111056 -0.0009871975 0.011189089
0.07518901 0.073134586 0.3083903 0.1437248 -0.07816632 0.24974957 -0.1738448 0.21078826
-0.018725827 -0.09305401 0.08555601 0.054048367 -0.072992526 -0.16427201 -0.04976846 -0.21102838
00000000: 6207 2abf 3c2f a5be d614 b5be 0dc6 853e
00000010: e1af 3dbf d6da 6ebe 9e1f b3bd 3270 133e
00000020: 2325 42be 8c85 b4be ac8b 5ebe ee8a a6be
00000030: e949 16bf 8ea8 e4be f405 393e 7242 e5be
00000040: 000b b23d 222e ff3c 4330 81be 69c3 aabd
00000050: 7231 6cbe 2b54 debe 6fe8 d4be a483 0ebe
00000060: 2205 9dbe acda 15bf a931 c2be d868 9d3e
00000070: c372 83be 6f7b 06bf dc1a a8be 1e0d d7be
00000080: 3799 3c3e d74f 7e3e 02dd bc3e 7473 853e
00000090: 254e 073e 85fe ac3e f912 9f3c e048 4d3d
000000a0: f6bf dfbd 4fe9 3c3e 37b9 0d3e fde9 dd3d
000000b0: 3c90 193f 7a48 6c3e 4397 213e d269 be3e
000000c0: 3a7c 963e f48e 0ebe 4bf6 dd3e b1f1 893e
000000d0: 0117 c03e 5f40 053f 9b66 c13d d304 3c3c
000000e0: 73f7 b23e 249e d83d 8970 6e3e a273 d13e
000000f0: 1513 de3d e4b3 1b3e 334c 373e 900b d13e
00000100: fdaf abbd 052c 0abe 2eff 073b 39c2 023e
00000110: d117 01be d207 c8bd 8d32 b6be 47b1 0d3e
00000120: 7725 623e 7218 75be 499b 9f3c e193 303d
00000130: 021c d53d a059 a03c 5dfb 8ebe 4499 c53c
00000140: d78f 063e 6edb 093d 4037 bd3d 4179 4e3d
00000150: c985 12bd 7039 57be cbc7 85be 46fa f8bc
00000160: 5c9a 493e e7b7 663e f731 fbbd c109 c03e
00000170: 1fb2 d33c c8a7 01be 6977 38bd e52e dc3d
00000180: 997d 82bd 24ae 9f3d b0c5 18be 82be 48be
00000190: f959 12bb 1d02 213e 667c 9a3e 9cb3 3b3e
000001a0: 98fb d73d 9d5f 5dbe fd40 ca3d 5e62 ee3c
000001b0: d1e9 2f3e 0c75 39be da64 81ba 7152 373c
000001c0: b2fc 993d 96c7 953d 55e5 9d3e 982c 133e
000001d0: aa15 a0bd 5abe 7f3e 5f04 32be e1d8 573e
000001e0: e866 99bc 1a93 bebd fd37 af3d d261 5d3d
000001f0: 1b7d 95bd ec36 28be 03da 4bbd d317 58be

encoder.rnn.bias_hh_l0 f4 [128]
-0.3744108 -0.09715673 -0.36488172 0.057144713 -0.7159842 -0.30182734 -0.025160393 -0.094530635
-0.10923643 -0.25069344 -0.2080211 -0.20719981 -0.3651038 -0.6273339 0.084356725 -0.2878631
-0.12403571 -0.012812329 -0.36484027 -0.10549547 -0.24771665 -0.4767964 -0.39575073 -0.13588785
-0.3539778 -0.40813172 -0.23456663 0.18152954 -0.43855527 -0.24897765 -0.36900747 -0.15783305
0.4175612 0.079970315 0.36122227 0.24245445 0.39563364 0.5182003 0.34852117 -0.103912525
0.1551966 0.25474173 0.10128139 0.38072708 0.5906458 0.31173527 0.1334632 0.32950035
0.39773145 -0.09075917 0.30943274 0.38864332 0.2471498 0.4727434 0.2799203 -0.056778084
0.24202958 0.35802296 0.2548573 0.25157407 0.10021427 0.41551226 0.41534957 0.30035183
0.038836133 -0.10071138 0.09980597 0.34229323 -0.26978576 -0.11776507 -0.41074154 0.1871081
0.20670141 -0.45781747 0.08383191 -0.025782093 -0.0554411 -0.26666033 -0.3178995 0.059785325
0.24473733 -0.12226439 0.037937988 0.078386605 0.10426485 0.08266628 -0.14962822 -0.027194407
0.05812713 0.13091016 0.04217512 0.42576343 0.18307628 0.060799215 0.027595256 -0.0461661
0.04204463 -0.008786976 -0.13710622 -0.2116815 0.17173672 -0.019732697 0.056289546 0.46257368
0.02772953 -0.16834313 -0.045763563 0.059665054 0.24609694 -0.18416958 0.1452468 0.14363088
0.20537883 -0.1486611 0.033845305 -0.11354889 0.24458128 0.14714117 -0.093292385 0.0764799
-0.043307282 -0.19859028 0.14660132 0.018293712 -0.07183896 0.07874998 0.042703174 0.0013381279
00000000: c6b2 bfbe 1cfa c6bd c7d1 babe 9310 6a3d
00000010: be4a 37bf 1d89 9abe 2b1d cebc 4799 c1bd
00000020: 59b7 dfbd e45a 80be 7c03 55be 302c 54be
00000030: e3ee babe f498 20bf 38c3 ac3d cb62 93be
00000040: 6f06 febd ceea 51bc 58cc babe 020e d8bd
00000050: 6fa9 7dbe a81e f4be d79f cabe 2f26 0bbe
00000060: 943c b5be a4f6 d0be 3c32 70be e1e2 393e
00000070: 518a e0be fff3 7ebe 8cee bcbe fd9e 21be
00000080: 95ca d53e 7ac7 a33d 20f2 b83e fb45 783e
00000090: 7e90 ca3e c6a8 043f 5e71 b23e 17d0 d4bd
000000a0: dceb 1e3e 826d 823e 9e6c cf3d a9ee c23e
000000b0: 9034 173f c49b 9f3e 94aa 083e 45b4 a83e
000000c0: 75a3 cb3e f2df b9bd f86d 9e3e 42fc c63e
000000d0: d614 7d3e 6c0b f23e b751 8f3e 2390 68bd
000000e0: 9ad6 773e c94e b73e a87c 823e 51ce 803e
000000f0: 243d cd3d 06be d43e b3a8 d43e b7c7 993e
00000100: a312 1f3d c541 cebd 1367 cc3d 0f41 af3e
00000110: 5c21 8abe d02e f1bd b74c d2be 4499 3f3e
00000120: 89a9 533e 0d67 eabe 10b0 ab3d f834 d3bc
00000130: 3516 63bd b487 88be b9c3 a2be 75e1 743d
00000140: 6c9c 7a3e c165 fabd dd64 1b3d 2889 a03d
00000150: cf88 d53d f04c a93d 2438 19be cec6 debc
00000160: b716 6e3d 500d 063e d2bf 2c3d aafd d93e
00000170: 5978 3b3e 9908 793d 720f e23c aa18 3dbd
00000180: fd36 2c3d 40f7 0fbc 9365 0cbe 09c3 58be
00000190: c0db 2f3e 77a6 a1bc de8f 663d 75d6 ec3e
000001a0: 0a29 e33c 2462 2cbe 9372 3bbd 5863 743d
000001b0: d600 7c3e f396 3cbe 94bb 143e f913 133e
000001c0: d44e 523e 9e3a 18be 60a1 0a3d 528c e8bd
000001d0: 8473 7a3e 2dac 163e 1410 bfbd 7ea1 9c3d
000001e0: fa62 31bd 405b 4bbe a81e 163e b2dc 953c
000001f0: 4e20 93bd ab47 a13d 86e9 2e3d 1f64 af3a

decoder.rnn.weight_ih_l0 f4 [256, 32]
-0.37880203 -0.14646558 -0.060593307 -0.46675515 -0.27106464 0.06202393 0.0059441845 0.5716907
0.40558007 -0.068270974 0.18923302 -0.012717552 -0.31192574 -0.118081555 -1.0345542 -0.020792047
0.12646686 -0.030428933 -0.8028133 0.07344943 0.21022837 0.11342608 -0.80238914 -0.21983534
0.2163562 -0.93330157 -0.7672537 -0.33181468 0.120641164 0.61397433 -0.52900046 -0.11288329
0.22970155 0.111524165 0.26036257 -0.40378144 0.023339158 0.29045913 0.7058766 -1.0955641
-0.37547627 0.048943244 -0.33096218 0.45849115 -0.096104674 0.07377262 0.48570827 0.23507181
-0.716689 -0.20495787 -0.49470252 0.0671465 0.03905911 -0.28124493 -0.06643566 0.4414456
-0.39918506 -0.10694456 0.022038562 -0.50090927 -8.048446e-05 0.23012218 -0.13914095 -0.40127036
0.23270163 0.33860984 -0.004271943 -0.34732637 -0.268141 -0.06940048 0.67909586 -1.8063251
-0.7721289 -0.23112303 0.2569049 -0.18734561 0.02593761 0.0017496395 0.8609638 -0.4416926
0.07578058 0.21982294 -0.6786585 0.0718358 0.17960332 0.22709426 -0.17319775 0.3364056
0.0010297109 0.41133058 -0.092279986 -0.12129265 -0.2894693 -0.1972588 -0.34295622 -0.26290637
0.271824 -0.041437235 -0.09894282 -0.40050805 -0.21659832 0.24064137 0.6261824 0.5865796
0.084246844 0.086989105 -0.7972383 0.10010261 0.20366281 -0.05254041 0.15525216 0.07549085
-0.19710292 -0.48533577 0.05766246 -0.020581491 -0.110201515 -0.07457926 0.19835158 0.03731711
-0.09825055 -0.06069553 0.11826753 -0.5698108 -0.034884226 -0.34109133 -0.1096241 0.007062628
-0.17895365 0.15420483 0.8412848 -0.6092705 0.039048426 0.46423617 0.1827272 0.5345719
0.032315113 0.111385584 -0.06434224 -0.19838801 -0.0988107 -0.45629472 -0.39806032 0.33951643
-0.65265656 -0.35680902 -0.23673049 -0.19748013 0.03046384 -0.8446897 0.13268436 0.34282228
-0.37559822 -0.029237794 0.3385049 -0.34042993 -0.04023657 0.16371012 -0.466087 -0.45341894
0.4641304 -0.1128212 0.33240646 -0.1444184 -0.07381716 0.332725 0.06407738 -0.44634765
-0.24845362 0.0016152307 0.6872614 -0.1984036 0.954681 -0.20324032 0.5450963 0.056528345
0.6978969 0.24244781 -1.1427243 -0.30993983 0.22346908 -0.19225398 0.08103452 0.6433443
-0.31725815 0.114533655 -0.12504917 0.036357075 0.2956587 0.23886321 -0.3752594 -0.3561107
0.034213874 -0.016460912 0.07212943 -0.19518234 -0.5595683 0.15341717 0.2203397 0.13792224
-0.09638025 0.08612234 0.5159254 -0.36475495 -0.48928487 0.089838125 0.69258744 -0.250894
-0.2070377 0.27805653 0.81632656 -0.4726898 0.21672305 0.20162547 0.12250696 0.3148583
-0.36479646 0.098258354 -0.2708026 -0.32079253 -0.015693303 -0.6334134 0.28886014 -0.13297343
0.2411099 0.13976942 0.36060864 -0.41443717 0.108463764 0.56548464 0.297252 -0.12046365
-0.14498225 0.41037363 0.3098595 -0.11226423 0.049952045 -0.09809359 0.095062025 0.14686072
-0.065790296 0.38853964 0.2159593 -0.3265182 -0.22429712 -0.09700784 -0.03457046 0.66210294
-0.31272137 -0.036439586 0.15020639 -0.46938318 -0.054509383 -0.079678535 -0.07228348 -0.43938893
00000000: 57f2 c1be 13fb 15be b030 78bd 88fa eebe
00000010: fcc8 8abe ce0c 7e3d 6fc7 c23b 525a 123f
00000020: 31a8 cf3e a7d1 8bbd 4dc6 413e 475d 50bc
00000030: bbb4 9fbe bed4 f1bd 466c 84bf 1554 aabc
00000040: 8780 013e 1946 f9bc 2c85 4dbf a86c 963d
00000050: 1b46 573e ef4b e83d 6069 4dbf 841c 61be
00000060: 7b8c 5d3e daec 6ebf bd6a 44bf 9de3 a9be
00000070: b712 f73d 6c2d 1d3f 936c 07bf 5b2f e7bd
00000080: e236 6b3e c866 e43d 3e4e 853e 71bc cebe
00000090: c331 bf3c 0fb7 943e 54b4 343f 723b 8cbf
000000a0: 6d3e c0be b678 483d e073 a9be 5abf ea3e
000000b0: 87d2 c4bd 1916 973d c1ae f83e aab6 703e
000000c0: ee78 37bf 7ae0 51be a649 fdbe 1b84 893d
000000d0: 72fc 1f3d 56ff 8fbe 6b0f 88bd 2805 e23e
000000e0: fc61 ccbe c005 dbbd 378a b43c 973b 00bf
000000f0: c4c9 a8b8 26a5 6b3e f77a 0ebe 4f73 cdbe
00000100: 5649 6e3e 455e ad3e a8fb 8bbb c3d4 b1be
00000110: c749 89be d721 8ebd 3ad9 2d3f a935 e7bf
00000120: 3daa 45bf 84ab 6cbe 0a89 833e 87d7 3fbe
00000130: 1c7b d43c 2954 e53a 2068 5c3f 8825 e2be
00000140: d932 9b3d 4419 613e 90bc 2dbf a61e 933d
00000150: efe9 373e 668b 683e c05a 31be 5b3d ac3e
00000160: 5df7 863a ec99 d23e 4afd bcbd 4868 f8bd
00000170: 5235 94be 36fe 49be f597 afbe aa9b 86be
00000180: 842c 8b3e 17ba 29bd 89a2 cabd 640f cdbe
00000190: f3cb 5dbe b16a 763e 7d4d 203f 152a 163f
000001a0: 9c89 ac3d 5827 b23d cf17 4cbf 9902 cd3d
000001b0: fc8c 503e 9d34 57bd 6cfa 1e3e f29a 9a3d
000001c0: 59d5 49be ee7d f8be 792f 6c3d 849a a8bc
000001d0: 55b1 e1bd 03bd 98bd ad1c 4b3e d3d9 183d
000001e0: 9637 c9bd e09b 78bd 3f36 f23d 1fdf 11bf
000001f0: c3e2 0ebd 86a3 aebe 9a82 e0bd 9e6d e73b
00000200: a03f 37be dfe7 1d3e 715e 573f 27f9 1bbf
00000210: 3ef1 1f3d 5db0 ed3e d71c 3b3e b4d9 083f
00000220: da5c 043d 201e e43d ddc5 83bd 3a26 4bbe
00000230: 445d cabd 769f e9be 90ce cbbe 19d5 ad3e
00000240: 8014 27bf acaf b6be 7a69 72be 3b38 4abe
00000250: 4e8f f93c 963d 58bf 69de 073e 6786 af3e
00000260: 694e c0be 1984 efbc 8450 ad3e d54c aebe
00000270: 1acf 24bd a0a3 273e f5a2 eebe 8726 e8be
00000280: 80a2 ed3e cd0e e7bd 2e31 aa3e 6be2 13be
00000290: 742d 97bd ee5a aa3e 003b 833d ae87 e4be
000002a0: a06a 7ebe 26b6 d33a 5df0 2f3f 502a 4bbe
000002b0: f965 743f 3b1e 50be 6e8b 0b3f 448a 673d
000002c0: 5fa9 323f 3d44 783e ca44 92bf 6fb0 9ebe
000002d0: 14d5 643e 3ade 44be 6df5 a53d 36b2 243f
000002e0: a96f a2be 9f90 ea3d e40c 00be 28eb 143d
000002f0: 9460 973e 8f98 743e 0022 c0be 2454 b6be
00000300: d923 0c3d 09d9 86bc 98b8 933d e1dd 47be
00000310: de3f 0fbf 6419 1d3e bba0 613e 7d3b 0d3e
00000320: 0263 c5bd e960 b03d b013 043f 29c1 babe
00000330: 8c83 fabe 0dfd b73d 694d 313f 2e75 80be
00000340: b101 54be 6d5d 8e3e c7fa 503f 6604 f2be
00000350: a6ec 5d3e e876 4e3e eee4 fa3d 1b35 a13e
00000360: 9ac6 babe ad3b c93d a3a6 8abe eb3e a4be
00000370: 3e8f 80bc 6127 22bf 7ae5 933e 302a 08be
00000380: 83e5 763e b71f 0f3e b2a1 b83e 1c31 d4be
00000390: 4022 de3d 9ac3 103f 6a31 983e a5b5 f6bd
000003a0: 3a76 14be 7e1c d23e e8a5 9e3e caea e5bd
000003b0: 849a 4c3d 4be5 c8bd e1af c23d a862 163e
000003c0: 10bd 86bd abee c63e 6f24 5d3e 652d a7be
000003d0: 25ae 65be 0cac c6bd c199 0dbd 947f 293f
000003e0: 041d a0be ad41 15bd b4cf 193e fe52 f0be
000003f0: 3b45 5fbd 802e a3bd 5c09 94bd 96f7 e0be

decoder.rnn.weight_hh_l0 f4 [256, 64]
-0.3956996 1.186829 0.03582367 -0.22845164 0.42716178 0.021139523 0.076556906 0.46191087
-0.03596107 -0.40194198 -0.42787054 -1.3070725 -0.6746665 -0.110892884 -0.10656391 0.3159702
-0.035688747 -0.07048048 -1.1003337 -0.16071835 -0.7137457 -0.491226 -0.17760348 0.3093607
-0.9052741 0.47798127 0.63537127 0.40625978 0.17970511 0.5790049 0.24079368 0.81950194
0.07136436 0.23276973 0.034064002 -0.15738663 0.5852729 -0.012245728 -0.15754801 0.30932534
-0.16646357 -0.45953223 0.065199815 -0.39118093 0.055021223 0.27770028 -0.40552214 0.19138424
-0.49300477 0.20046961 0.14907065 -1.0985637 0.6315802 0.19198154 0.27524823 -0.22836478
-0.22006701 -0.29025644 0.8233236 -0.22145873 0.21494837 0.27076095 -0.72849023 -0.36133528
-0.18730164 -0.35502362 -0.17343162 -0.36242366 0.2286834 0.26283512 -0.27659875 0.2959535
-0.039384242 -0.24471791 -0.48805708 0.5033691 -0.35556698 -0.073780194 -0.41930366 0.22836582
-0.017755099 -0.5253461 -0.09446129 -0.3671841 -0.17129591 0.2556814 -0.05950141 -0.1356254
-0.006810544 -0.123925544 -0.2352918 0.25586906 -0.33622923 -0.80395895 0.015591431 0.521527
-0.07526632 -0.13451922 0.22042906 -0.031597532 -0.1839893 -0.11525474 -0.2090012 0.39119413
-0.061268874 0.61307216 0.46614328 -0.11511504 -0.00506389 -0.20399301 0.08336329 0.6411226
-0.5906361 0.4076002 -0.3652343 -0.32927668 0.51463836 0.28816634 0.1531307 0.41733673
-0.41625866 -0.5638628 0.19704038 0.12812468 0.52267975 0.14196251 0.22899264 -0.3215504
0.366781 -0.44272745 0.066370085 -0.17827034 -0.044985197 0.09243446 0.9684876 0.44769892
0.22124414 0.16934912 -0.113069296 0.16479415 -0.056894504 -0.27772072 -0.054895863 0.63696355
-0.48634997 0.55126745 -0.37306705 -0.08810302 -0.8089993 0.41747338 0.2610369 0.27804065
-0.55027825 -0.51965725 0.14000909 0.54237634 -0.3960577 -0.053240016 -0.12296677 -0.25224215
-0.13958761 0.19300322 -0.22672133 -0.10886002 0.11250799 0.1706428 -0.9910661 0.3366947
-0.21337163 0.32912076 -0.013486396 0.5562429 -0.23613854 0.3915951 0.20052373 -0.8760085
-0.329664 0.99287164 0.04510113 -0.40397835 0.31689048 -0.4649273 0.8444368 0.3574492
-0.16803785 0.069890805 -0.3647902 -0.29431215 -0.53123754 0.6949984 -0.20769821 -0.68917054
-0.06730726 -0.3447505 0.019385042 -0.36293605 0.08502515 0.29426032 -0.22428012 0.44436854
-0.37752327 -0.7220196 -0.4604028 0.118007064 -0.11855704 0.6610428 -0.20789051 0.2646321
-0.2320953 -0.2985664 0.0052692844 -0.21570534 0.6858596 -0.09451137 -0.07202938 -0.14629462
-0.59545016 0.02321391 0.08736889 0.19502582 -0.09320184 -0.30101976 -0.49327236 0.50765413
-0.34549275 -0.0034341041 0.03146382 -0.10269329 0.15666837 -0.13709113 -0.1559603 0.5438717
0.21802136 0.29566562 0.13959558 0.0669329 0.542139 -0.34533298 0.17820162 -0.14255485
-0.4898557 -0.06365621 -0.29960683 -0.4898584 -0.016587956 0.8797477 -0.8124529 0.6730225
0.100096405 -0.06018594 0.50933 0.29623067 -0.048925776 0.028851245 0.5407064 1.0896084
00000000: 2399 cabe 03ea 973f d7bb 123d 3aef 69be
00000010: f3b4 da3e cb2c ad3c dec9 9c3d 957f ec3e
00000020: ea4b 13bd 57cb cdbe d911 dbbe 274e a7bf
00000030: f2b6 2cbf cf1b e3bd 2e3e dabd d9c6 a13e
00000040: 5d2e 12bd 1258 90bd bcd7 8cbf 5a93 24be
00000050: 0ab8 36bf f981 fbbe b0dd 35be 8764 9e3e
00000060: 0bc0 67bf f6b9 f43e b1a7 223f 4801 d03e
00000070: 9e04 383e aa39 143f 9e92 763e e1ca 513f
00000080: 7a27 923d 305b 6e3e b286 0b3d f629 21be
00000090: 72d4 153f 4ea2 48bc 4454 21be e45f 9e3e
000000a0: 6d75 2abe cf47 ebbe 7b87 853d de48 c8be
000000b0: ef5d 613d bb2e 8e3e 99a0 cfbe 3bfa 433e
000000c0: 1f6b fcbe e847 4d3e faa5 183e bc9d 8cbf
000000d0: 3daf 213f cf96 443e 56ed 8c3e 75d8 69be
000000e0: 3f59 61be 7e9c 94be 56c5 523f 14c6 62be
000000f0: 6d1b 5c3e 2ea1 8a3e 567e 3abf f000 b9be
00000100: 00cc 3fbe a8c5 b5be 0f98 31be 988f b9be
00000110: fb2b 6a3e 5392 863e 5a9e 8dbe 3887 973e
00000120: 5f51 21bd 5597 7abe 9ee2 f9be ccdc 003f
00000130: e00c b6be 121a 97bd f8ae d6be bbd8 693e
00000140: 2473 91bc 157d 06bf ec74 c1bd 8eff bbbe
00000150: 3268 2fbe ace8 823e c0b7 73bd 63e1 0abe
00000160: fc2a dfbb adcc fdbd 55f0 70be 4501 833e
00000170: 3d26 acbe 41d0 4dbf 3473 7f3c cb82 053f
00000180: 3a25 9abd 68bf 09be 28b8 613e 6a6c 01bd
00000190: b167 3cbe ad0a ecbd 6904 56be 994a c83e
000001a0: 12f5 7abd 4cf2 1c3f 55aa ee3e 6fc1 ebbd
000001b0: fdee a5bb 8be3 50be 5fba aa3d 9c20 243f
000001c0: ed33 17bf f9b0 d03e fdff babe f496 a8be
000001d0: 57bf 033f 8a8a 933e 4bce 1c3e 29ad d53e
000001e0: db1f d5be 5059 10bf f4c4 493e 1e33 033e
000001f0: 57ce 053f 9f5e 113e 0c7d 6a3e 41a2 a4be
00000200: b8ca bb3e 2cad e2be 0aed 873d 808c 36be
00000210: 6642 38bd 474e bd3d ceee 773f cb38 e53e
00000220: d38d 623e db69 2d3e e090 e7bd ccbf 283e
00000230: 360a 69bd 6931 8ebe 7cda 60bd 0b10 233f
00000240: dd02 f9be dd1f 0d3f a502 bfbe 5b6f b4bd
00000250: 941a 4fbf 12bf d53e a1a6 853e 585b 8e3e
00000260: 09df 0cbf 4208 05bf 8b5e 0f3e 2dd9 0a3f
00000270: 13c8 cabe 3412 5abd 00d6 fbbd e225 81be
00000280: 0ef0 0ebe a3a2 453e a329 68be 01f2 debd
00000290: 976a e63d fcbc 2e3e 82b6 7dbf 3f63 ac3e
000002a0: 187e 5abe 8482 a83e 0bf6 5cbc ef65 0e3f
000002b0: 4dce 71be 277f c83e 1856 4d3e 1842 60bf
000002c0: b8c9 a8be d62c 7e3f f6bb 383d 40d6 cebe
000002d0: 783f a23e f30a eebe 032d 583f 9503 b73e
000002e0: 1d12 2cbe e922 8f3d c8c5 babe 15b0 96be
000002f0: 2fff 07bf 6aeb 313f d7ae 54be 7b6d 30bf
00000300: 64d8 89bd 2383 b0be 61cd 9e3c c1d2 b9be
00000310: aa21 ae3d 4aa9 963e b0a9 65be 4684 e33e
00000320: bb4a c1be 47d6 38bf eab9 ebbe b0ad f13d
00000330: 09ce f2bd 1a3a 293f 40e1 54be dc7d 873e
00000340: 64aa 6dbe b2dd 98be f6a9 ac3b dce1 5cbe
00000350: 7f94 2f3f 2d8f c1bd 2484 93bd 42ce 15be
00000360: 6c6f 18bf 192b be3c 76ee b23d d9b4 473e
00000370: 9be0 bebd 431f 9abe 328e fcbe 9ff5 013f
00000380: 6de4 b0be b50e 61bb 35e0 003d dc50 d2bd
00000390: ac6d 203e 9e61 0cbe 0fb4 1fbe 2d3b 0b3f
000003a0: fe40 5f3e 7c61 973e 25f2 0e3e 1e14 893d
000003b0: 9fc9 0a3f 7ccf b0be 7c7a 363e e6f9 11be
000003c0: 5ece fabe 305e 82bd 1166 99be b8ce fabe
000003d0: 77e3 87bc 2537 613f eafc 4fbf 344b 2c3f
000003e0: 58ff cc3d 8885 76bd 7363 023f 8cab 973e
000003f0: 6566 48bd 7259 ec3c bc6b 0a3f 4a78 8b3f

decoder.rnn.bias_ih_l0 f4 [256]
-0.25358126 -0.47553065 -0.17737372 -0.27238327 -0.3555581 -0.30812994 -0.3817586 -0.46405533
-0.18287188 -0.034311246 0.036912415 -0.22468808 -0.4226513 -0.40540987 -0.21208027 0.0014982485
-0.5006565 -0.35566875 -0.48838943 0.021872884 -0.42896625 -0.26851863 -0.35823044 -0.046168074
-0.63158137 -0.036980655 -0.31426105 -0.39695334 -0.38602787 -0.23564309 -0.189631 -0.41579783
-0.3727935 -0.06538437 -0.3064784 -0.2575227 -0.24438265 -0.46830776 -0.2610513 -0.11963953
-0.46639743 -0.3870305 -0.18868825 -0.16829011 -0.46472266 -0.28825173 -0.47934133 -0.26225507
-0.2347477 -0.13710535 -0.08649311 0.036340117 -0.3610146 -0.22949022 -0.58051014 -0.1059231
-0.26998433 -0.3909312 -0.31049955 -0.3524684 -0.082986474 -0.13012159 -0.22220671 -0.56112474
-0.24411163 0.44492716 -0.012299493 -0.16016434 -0.26042244 -0.1430359 -0.0037688036 0.40770796
-0.19312508 -0.010724113 -0.026736554 -0.19522713 -0.14350998 0.27342862 -0.27301073 -0.19828252
-0.13189995 -0.20343465 0.22713065 -0.14035471 0.44873258 -0.1371789 0.044628456 -0.2308587
1.0247476 -0.17754188 -0.1178823 0.20760863 -0.10474363 -0.2306121 -0.28807154 -0.022880726
-0.09791295 0.33326015 -0.20415457 -0.1260265 -0.22390778 0.048858434 -0.1668827 0.1275135
-0.0137422625 -0.12760034 0.045622926 0.009758319 -0.064571954 -0.40017852 0.056387953 -0.35227585
-0.26720384 -0.25872383 -0.07543114 -0.037485603 -0.28452635 -0.2000107 -0.09333601 -0.37316304
-0.017364614 -0.14990774 -0.043739375 0.13237691 0.10921213 -0.09356658 -0.23643807 0.25862896
-0.013797956 0.035765577 0.09122121 0.0011800107 0.010330038 0.10174361 0.09632532 -0.03544888
0.047447223 0.16777165 0.15918027 -0.106339134 -0.016093064 -0.25687265 0.027131008 -0.2110573
0.015231995 0.14718771 -0.02103688 0.029781494 -0.28756168 -0.043741938 0.120740294 0.19356082
-0.15069011 0.070591636 -0.009724095 0.1212294 -0.1416289 -0.05566961 0.21461312 -0.05508261
0.11151149 0.16692506 -0.13485713 0.10828762 0.007370713 0.1044142 0.0029591406 0.05495334
-0.057804104 0.0775647 -0.025136758 0.0087049715 -0.053012352 0.14336255 -0.0026809657 -0.030314555
0.1666641 0.15999337 0.15719908 -0.007965615 -0.0057245637 0.05251743 0.089556076 0.08681276
-0.1631882 0.13844506 -0.02101002 0.1386471 -0.05950113 -0.04892098 -0.059280943 -0.18817593
-0.2077607 -0.21956219 -0.1188312 -0.4157793 -0.32382092 -0.2196075 -0.403732 -0.1362064
-0.22767992 -0.10476245 -0.072807066 -0.3222452 -0.23544832 -0.26914063 -0.22132787 0.0731105
-0.121796206 -0.38029158 -0.53412396 -0.13510478 -0.16619882 -0.35816473 -0.23018639 -0.058221713
0.2293778 -0.08309145 -0.44817838 -0.2976704 -0.41191706 -0.37843224 -0.1735777 -0.47391543
-0.3204026 -0.22280198 -0.36425367 -0.37300318 -0.15105864 -0.2356629 -0.25088903 -0.15429652
-0.2184645 -0.4520815 -0.1981493 -0.33662114 -0.17322318 -0.117648005 -0.40393445 -0.42347094
-0.29078615 -0.15013546 0.056685805 -0.15929016 -0.46474206 -0.11648076 -0.47243455 0.04853692
-0.2676865 -0.19538748 -0.08765141 -0.32776916 -0.123548724 -0.18230966 -0.47454953 -0.07437032
00000000: 67d5 81be c178 f3be 75a1 35be d275 8bbe
00000010: b60b b6be 35c3 9dbe dd75 c3be a998 edbe
00000020: c442 3bbe f389 0cbd 7931 173d a214 66be
00000030: c065 d8be e291 cfbe 922b 59be e160 c43a
00000040: 062b 00bf 371a b6be 2e0e fabe c32e b33c
00000050: 77a1 dbbe 467b 89be fb69 b7be bc1a 3dbd
00000060: 51af 21bf 0779 17bd d3e6 a0be 783d cbbe
00000070: 72a5 c5be 6c4c 71be a12e 42be 74e3 d4be
00000080: cade bebe 3ee8 85bd bdea 9cbe 04da 83be
00000090: 723f 7abe 09c6 efbe 84a8 85be 9205 f5bd
000000a0: a5cb eebe dd28 c6be 7e37 41be 3e54 2cbe
000000b0: 21f0 edbe bb95 93be 3a6c f5be 4c46 86be
000000c0: b361 70be 5865 0cbe 4d23 b1bd 60d9 143d
000000d0: e8d6 b8be 7cff 6abe 509c 14bf 36ee d8bd
000000e0: 633b 8abe 2228 c8be ccf9 9ebe bd76 b4be
000000f0: d0f4 a9bd 983e 05be 288a 63be dfa5 0fbf
00000100: 66f8 79be 7ecd e33e d083 49bc 1f02 24be
00000110: 1756 85be 0178 12be 08fe 76bb 19bf d03e
00000120: 95c2 45be 31b4 2fbc 9e06 dbbc 9fe9 47be
00000130: 48f4 12be d6fe 8b3e 10c8 8bbe 930a 4bbe
00000140: c810 07be 2c51 50be f094 683e 25b9 0fbe
00000150: 47c0 e53e a078 0cbe 54cc 363d 3966 6cbe
00000160: ee2a 833f 8acd 35be 466c f1bd 5b97 543e
00000170: d483 d6bd 9425 6cbe 1d7e 93be 5c70 bbbc
00000180: 9686 c8bd 13a1 aa3e e50d 51be 170d 01be
00000190: 1548 65be c81f 483d 4ce3 2abe e692 023e
000001a0: 3a27 61bc aaa9 02be 1bdf 3a3d 5be1 1f3c
000001b0: 4d3e 84bd 33e4 ccbe 0ef7 663d 805d b4be
000001c0: f1ce 88be 7377 84be a47b 9abd 818a 19bd
000001d0: 70ad 91be 9bcf 4cbe f326 bfbd 3a0f bfbe
000001e0: 3c40 8ebc 6a81 19be 0f28 33bd d08d 073e
000001f0: 9caa df3d d69f bfbd d21c 72be 046b 843e
00000200: d210 62bc ed7e 123d 30d2 ba3d 97aa 9a3a
00000210: 523f 293c f45e d03d 3646 c53d d832 11bd
00000220: 0558 423d 55cc 2b3e 2700 233e 55c8 d9bd
00000230: 9ad5 83bc d084 83be d941 de3c 681f 58be
00000240: 9e8f 793c 60b8 163e 8955 acbc 52f8 f33c
00000250: 493b 93be bf2a 33bd b046 f73d cf34 463e
00000260: 824e 1abe 5992 903d d051 1fbc 1f47 f83d
00000270: 2b07 11be d105 64bd 8bc3 5b3e 4e9e 61bd
00000280: 2360 e43d 67ee 2a3e fd17 0abe e6c5 dd3d
00000290: 0686 f13b 1dd7 d53d 24ee 413b c116 613d
000002a0: ffc3 6cbd 3eda 9e3d 9aeb cdbc 4c9f 0e3c
000002b0: 7b23 59bd a2cd 123e 24b3 2fbb 3b56 f8bc
000002c0: fea9 2a3e 4dd5 233e ccf8 203e 3682 02bc
000002d0: 1f95 bbbb 841c 573d 2d69 b73d e3ca b13d
000002e0: cf1a 27be 8bc4 0d3e 351d acbc 81f9 0d3e
000002f0: 75b7 73bd 5e61 48bd 93d0 72bd 31b1 40be
00000300: 39bf 54be e9d4 60be c65d f3bd 06e1 d4be
00000310: dbcb a5be cae0 60be f6b5 cebe b179 0bbe
00000320: ed24 69be b28d d6bd df1b 95bd 53fd a4be
00000330: 5d19 71be cdcc 89be c6a3 62be f5ba 953d
00000340: 4a70 f9bd 94b5 c2be 59bc 08bf e858 0abe
00000350: 0630 2abe 5e61 b7be fbb5 6bbe e479 6ebd
00000360: 04e2 6a3e da2b aabd a377 e5be 4168 98be
00000370: cbe6 d2be dfc1 c1be 5abe 31be 0ba5 f2be
00000380: cf0b a4be 3426 64be 757f babe 46fa bebe
00000390: 1eaf 1abe 9e51 71be 8774 80be e8ff 1dbe
000003a0: 28b5 5fbe 3a77 e7be a6e7 4abe 9b59 acbe
000003b0: 6b61 31be 70f1 f0bd 7fd0 cebe 2fd1 d8be
000003c0: ece1 94be 1cbd 19be 602f 683d f61c 23be
000003d0: acf2 edbe 778d eebd f1e2 f1be a6ce 463d
000003e0: 340e 89be a813 48be 9582 b3bd 5cd1 a7be
000003f0: 1d07 fdbd 62af 3abe 28f8 f2be 774f 98bd

decoder.rnn.bias_hh_l0 f4 [256]
-0.12672159 -0.42779717 -0.110200934 -0.3200223 -0.20571923 -0.13360813 -0.32014677 -0.56112474
-0.29155567 -0.24974912 0.23064952 -0.26464674 -0.24444015 -0.47746348 -0.21394978 0.101235695
-0.55140066 -0.28022143 -0.43857074 0.029560758 -0.41928625 -0.39910397 -0.31090048 0.08977358
-0.7649344 -0.11737508 -0.28261283 -0.35191977 -0.3880284 -0.3053893 -0.131656 -0.42603534
-0.39512715 -0.121526025 -0.42701176 -0.30863643 -0.2318006 -0.55442023 -0.2654504 -0.19805954
-0.48554072 -0.47801462 -0.23390685 -0.14933695 -0.4329909 -0.20441566 -0.4613003 -0.3828908
-0.19405936 -0.041528966 -0.029075628 0.07346852 -0.26132914 -0.2701552 -0.5247213 -0.037233565
-0.24438642 -0.29536277 -0.2143194 -0.38632956 -0.30583432 -0.32365263 -0.26514247 -0.531303
-0.30866376 0.41398552 -0.026100755 -0.19391039 -0.162815 -0.3038099 -0.09119569 0.5981402
-0.26423278 0.15225112 -0.022445241 -0.29158324 -0.14756258 0.0708308 -0.26354164 -0.056237742
-0.34204638 -0.15689078 0.13122505 -0.09174679 0.37923974 -0.09732981 -0.028087197 -0.041653827
1.1273396 -0.2521403 0.05744717 0.17829065 -0.21875906 -0.3062087 -0.24624045 0.13070758
-0.18265863 0.2391645 -0.31000277 -0.013094746 -0.23662198 0.2561099 -0.19799724 0.2752341
0.078854434 -0.09772787 -0.069193065 -0.010443151 -0.07262137 -0.3929304 0.12862694 -0.25076842
-0.33879668 -0.029690368 -0.1939848 0.13646843 -0.29075179 -0.11354966 -0.11736468 -0.20624073
-0.11370321 -0.18767405 -0.076659314 0.04882408 -0.02598104 -0.23963566 -0.0017899913 0.32034522
0.046149783 -0.011086271 -0.06464879 0.049642388 0.027913507 0.07105988 0.00510051 0.06984898
0.0205877 0.070843786 0.20836686 -0.1239502 0.02392926 -0.24597321 0.03199504 -0.06164375
0.015551096 0.049587835 0.04812801 0.094632186 -0.12856045 0.103345156 0.07543086 0.03386679
0.03800648 -0.08965679 -0.032061923 0.043549307 -0.0494353 -0.13093853 0.046961293 -0.06261611
0.16907895 0.16200751 0.031182159 0.038771164 -0.00014176009 0.060573112 0.086598635 -0.08318056
-0.18507797 0.18911669 -0.12111703 0.10312937 0.15495698 -0.06397465 -0.083466366 -0.13421164
0.09801372 -0.045475416 0.117915794 0.12682746 0.024622353 -0.07178472 0.022111923 0.023026835
-0.2688391 0.006877016 -0.11272046 0.1145837 -0.061581038 -0.02759975 -0.14252986 -0.09141459
-0.19533841 -0.11546416 -0.25041604 -0.396498 -0.3387234 -0.2827122 -0.3269662 -0.23199089
-0.33603156 -0.28968313 -0.17724803 -0.2492553 -0.40332538 -0.25863302 -0.19077174 0.043042123
-0.34184676 -0.25135362 -0.3267145 -0.13656792 -0.11727647 -0.3393025 -0.19734605 -0.06311999
0.25434867 -0.09755116 -0.3302419 -0.3260997 -0.2705874 -0.35903496 -0.14042296 -0.5601578
-0.30265665 -0.15034327 -0.49513954 -0.42779666 -0.28124222 -0.23606858 -0.25826934 -0.24819739
-0.25853318 -0.37527984 -0.24873191 -0.336546 -0.30735555 -0.11347804 -0.40199044 -0.46000683
-0.37535903 -0.2829287 -0.14634128 -0.03600041 -0.41173977 -0.29115322 -0.49846086 0.010136555
-0.075491406 -0.195461 -0.18934646 -0.29378566 -0.1771324 -0.2628422 -0.4272993 -0.26494712
00000000: 4ec3 01be 3b08 dbbe 07b1 e1bd f7d9 a3be
00000010: 10a8 52be 92d0 08be 47ea a3be dfa5 0fbf
00000020: c946 95be 3cbe 7fbe 632f 6c3e c77f 87be
00000030: 854e 7abe 1876 f4be a715 5bbe a954 cf3d
00000040: 9828 0dbf 2f79 8fbe 588c e0be 6729 f23c
00000050: b0ac d6be 5b57 ccbe 592e 9fbe 36db b73d
00000060: bed2 43bf 5962 f0bd a1b2 90be d42e b4be
00000070: a9ab c6be fd5b 9cbe d5d0 06be 4e21 dabe
00000080: 1b4e cabe a3e2 f8bd 49a1 dabe 9805 9ebe
00000090: 235d 6dbe 7cee 0dbf 1de9 87be 1fd0 4abe
000000a0: cb98 f8be 55be f4be 4785 6fbe c9eb 18be
000000b0: fcb0 ddbe 5752 51be 8e2f ecbe 430a c4be
000000c0: 7fb7 46be 471a 2abd 0330 eebc aa76 963d
000000d0: efcc 85be c851 8abe 2354 06bf 3982 18bd
000000e0: 6f40 7abe ca39 97be 8b76 5bbe fdcc c5be
000000f0: 5196 9cbe ccb5 a5be c1c0 87be 7903 08bf
00000100: 2d09 9ebe e9f5 d33e 40d1 d5bc 7290 46be
00000110: fab8 26be f98c 9bbe cec4 babd b71f 193f
00000120: 8549 87be b8e7 1b3e 15df b7bc 664a 95be
00000130: a51a 17be bd0f 913d eeee 86be 8c59 66bd
00000140: b420 afbe faa7 20be dc5f 063e bee5 bbbd
00000150: b62b c23e da54 c7bd 1f17 e6bc 349d 2abd
00000160: aa4c 903f 8918 81be b94d 6b3d d391 363e
00000170: 6002 60be 63c7 9cbe 7526 7cbe 35d8 053e
00000180: dd0a 3bbe 8ae7 743e afb8 9ebe 588b 56bc
00000190: 084d 72be d620 833e cabf 4abe 7ceb 8c3e
000001a0: 6f7e a13d 8d25 c8bd 18b5 8dbd c019 2bbc
000001b0: 83ba 94bd 2c2e c9be c8b6 033e b864 80be
000001c0: c276 adbe 3739 f3bc f4a3 46be 61be 0b3e
000001d0: 6bdd 94be b98c e8bd e55c f0bd c530 53be
000001e0: 3bdd e8bd a02d 40be 8fff 9cbd c2fb 473d
000001f0: 31d6 d4bc 0d63 75be 249e eaba 4a04 a43e
00000200: 8e07 3d3d 31a3 35bc 9666 84bd d155 4b3d
00000210: deaa e43c d887 913d 2e22 a73b fb0c 8f3d
00000220: 89a7 a83c 8c16 913d 1f5e 553e 9ad9 fdbd
00000230: 4c07 c43c 67e0 7bbe 3b0d 033d 287e 7cbd
00000240: 06ca 7e3c 9d1c 4b3d e021 453d 85ce c13d
00000250: 5aa5 03be a0a6 d33d 7f7b 9a3d e7b7 0a3d
00000260: afac 1b3d fb9d b7bd 5d53 03bd c260 323d
00000270: ab7c 4abd c014 06be 7c5a 403d e03c 80bd
00000280: 0823 2d3e 4ce5 253e ba71 ff3c 83ce 1e3d
00000290: 6fa5 14b9 831b 783d a05a b13d 925a aabd
000002a0: 1485 3dbe cea7 413e 350c f8bd 7e35 d33d
000002b0: 0bad 1e3e 2405 83bd 6af0 aabd c76e 09be
000002c0: 6bbb c83d 6e44 3abd d67d f13d 0fdf 013e
000002d0: d1b4 c93c de03 93bd 1024 b53c c6a2 bc3c
000002e0: 47a5 89be 9758 e13b fcd9 e6bd dcaa ea3d
000002f0: 663c 7cbd df18 e2bc 59f3 11be 9337 bbbd
00000300: cb06 48be 7978 ecbd 8836 80be c901 cbbe
00000310: 276d adbe a7bf 90be 1d68 a7be 058f 6dbe
00000320: 540c acbe 5951 94be 8280 35be c83c 7fbe
00000330: aa80 cebe 8c6b 84be ab59 43be f04c 303d
00000340: 8a06 afbe 6cb1 80be 1f47 a7be 76d8 0bbe
00000350: a52e f0bd 0fb9 adbe 1515 4abe 0e45 81bd
00000360: fd39 823e e7c8 c7bd 7715 a9be 8af6 a6be
00000370: 6f8a 8abe 6ed3 b7be 09cb 0fbe 8066 0fbf
00000380: d0f5 9abe 96f3 19be ee82 fdbe 2a08 dbbe
00000390: fbfe 8fbe f6bb 71be e13b 84be 7527 7ebe
000003a0: 765e 84be ae24 c0be 94b3 7ebe c24f acbe
000003b0: b55d 9dbe 2d67 e8bd b1d1 cdbe 0486 ebbe
000003c0: 0f2f c0be 08dc 90be 7dda 15be 2a75 13bd
000003d0: 8ecf d2be 0912 95be 4336 ffbe cb13 263c
000003e0: 3d9b 9abd ee26 48be 0ae4 41be 136b 96be
000003f0: 3262 35be 4193 86be f9c6 dabe 26a7 87be
