detector_dev/Process_I24_simulations/models/cnn_lstm_ae_ringlength300_1.0percentGPS_relative.pt (torch, 129255 bytes, 12 tensors)

encoder.cnn.weight f4 [8, 4, 16]
000000 22 3c 5c 3d a4 4b 69 3d d8 69 76 3d b7 cd 81 3d
       0.053768285 0.056956902 0.060159534 0.06338065
000010 3e 69 88 3d 79 06 8f 3d 18 a3 95 3d 7e 3a 9c 3d
       0.06660698 0.069836564 0.07306498 0.07628344
000020 91 cd a2 3d 84 55 a9 3d 91 cd af 3d a8 37 b6 3d
       0.07949365 0.08268264 0.085841306 0.08897334
000030 03 8d bc 3d 06 ca c2 3d ac ea c8 3d d3 ec ce 3d
       0.09206583 0.09511189 0.09810385 0.101037644
000040 4a 97 27 3e 4a 3d 28 3e a6 68 29 3e e8 10 2b 3e
       0.16366306 0.1642963 0.16543826 0.16705668
000050 e3 28 2d 3e 91 a1 2f 3e b6 6d 32 3e a7 63 35 3e
       0.16910128 0.17151476 0.17424664 0.17713796
000060 d9 93 38 3e cd d6 3b 3e bc 28 3f 3e 20 87 42 3e
       0.1802515 0.18343659 0.18667883 0.18996859
000070 58 c1 45 3e 53 ef 48 3e 4b f1 4b 3e 21 d2 4e 3e
       0.19312036 0.19622545 0.19916265 0.20197345
000080 31 9b 72 3d da 45 7c 3d c6 ec 82 3d 32 a5 87 3d
       0.059230033 0.061590053 0.06392817 0.066233054
000090 4c 52 8c 3d 1f ea 90 3d bc 6e 95 3d 4c dd 99 3d
       0.068516344 0.07075905 0.072965115 0.07512912
0000a0 6a 32 9e 3d ce 6b a2 3d 9d 8a a6 3d 4d 88 aa 3d
       0.077244595 0.07930718 0.08131907 0.083267786
0000b0 d4 66 ae 3d 88 24 b2 3d 34 ba b5 3d fc 2d b9 3d
       0.08515707 0.08698374 0.08873406 0.09041974
0000c0 47 a1 b8 3d 62 02 bf 3d 5b 48 c5 3d 8d 72 cb 3d
       0.09015136 0.09326626 0.09632941 0.09933958
0000d0 bb 79 d1 3d ff 5a d7 3d d8 15 dd 3d 6e a4 e2 3d
       0.10228296 0.10515403 0.10795182 0.11066519
0000e0 ff 00 e8 3d 7a 2b ed 3d 3e 1e f2 3d d7 d7 f6 3d
       0.11328315 0.11580558 0.118221745 0.12052887
0000f0 a2 51 fb 3d b2 8b ff 3d 23 c1 01 3e 8e 99 03 3e
       0.122714296 0.12477817 0.12671332 0.12851545
000100 89 2a bc 3e 41 c0 bd 3e 8f 33 bf 3e d4 a2 c0 3e
       0.36751202 0.3706074 0.37344024 0.37624228
000110 a5 f5 c1 3e a1 5d c3 3e d9 a0 c4 3e 90 d7 c5 3e
       0.37882724 0.3815737 0.38403967 0.38641024
000120 4a fe c6 3e b5 12 c8 3e 8c 0f c9 3e 37 03 ca 3e
       0.38865882 0.39076772 0.39269674 0.39455578
000130 44 e8 ca 3e 93 a7 cb 3e 4d 71 cc 3e 3e 0c cd 3e
       0.3963033 0.39776286 0.39930192 0.40048403
000140 f1 0f f3 3e f3 68 ea 3e 9a 8c e0 3e fc 0f d7 3e
       0.474731 0.45783195 0.4385727 0.42004383
000150 60 65 ce 3e fa 4f c6 3e 9a 82 be 3e b2 c6 b6 3e
       0.40311718 0.38732892 0.37209016 0.35698467
000160 8f fa ae 3e 22 08 a7 3e 6e e1 9e 3e a2 7d 96 3e
       0.34175536 0.32623392 0.31031364 0.29392725
000170 dd d5 8d 3e 51 e4 84 3e 27 4b 77 3e cb 2b 64 3e
       0.27702227 0.25955442 0.24149762 0.2228233
000180 21 ff c2 3e 59 15 c4 3e d6 0a c5 3e 12 df c5 3e
       0.38085273 0.38297537 0.3848483 0.38646752
000190 b2 cd c6 3e 45 96 c7 3e a0 3e c8 3e 2e fd c8 3e
       0.38828808 0.38981834 0.3911028 0.3925566
0001a0 ff 84 c9 3e 2a 24 ca 3e fa 87 ca 3e c8 ef ca 3e
       0.3935928 0.39480716 0.39556867 0.39636064
0001b0 47 57 cb 3e e3 95 cb 3e b1 d3 cb 3e 6a e9 cb 3e
       0.39715025 0.39762792 0.39809945 0.39826518
0001c0 01 32 ca 3e 61 1b cb 3e 0b e3 cb 3e cc 96 cc 3e
       0.39491275 0.39669326 0.39821658 0.399588
0001d0 27 2c cd 3e 63 cb cd 3e 52 40 ce 3e c5 a7 ce 3e
       0.40072748 0.40194234 0.40283448 0.40362373
0001e0 29 e4 ce 3e 54 35 cf 3e 9f 52 cf 3e 7e 5b cf 3e
       0.40408447 0.40470374 0.40492722 0.4049949
0001f0 f8 65 cf 3e e0 4a cf 3e 0f 10 cf 3e 2c d6 ce 3e
       0.40507483 0.40486813 0.4044194 0.40397775
000200 bb 8c bf 3d 3e 4b c2 3d d2 21 c5 3d 90 ef c7 3d
       0.09353014 0.094870076 0.09625591 0.0976249
000210 d7 c0 ca 3d b4 96 cd 3d 42 63 d0 3d 55 2c d3 3d
       0.099000625 0.1003851 0.10175182 0.1031119
000220 da f2 d5 3d 50 ac d8 3d 00 57 db 3d 17 f6 dd 3d
       0.10446711 0.10579741 0.10709953 0.108379535
000230 ee 81 e0 3d da f9 e2 3d 04 58 e5 3d cd a0 e7 3d
       0.10962282 0.11082812 0.11198428 0.11309967
000240 d4 ff 36 bd 0f d6 45 bd 6a 50 54 bd 36 76 62 bd
       -0.04467757 -0.048299845 -0.0518345 -0.055288516
000250 59 4e 70 bd bd d1 7d bd 53 97 85 bd 37 20 8c bd
       -0.05866847 -0.0619676 -0.065230034 -0.06842082
000260 17 9c 92 bd c3 02 99 bd 97 5f 9f bd 58 b8 a5 bd
       -0.07158678 -0.0747123 -0.07781904 -0.080918014
000270 7d 20 ac bd 65 99 b2 bd 37 3b b9 bd 2e 0e c0 bd
       -0.08404634 -0.08720664 -0.090444975 -0.093777046
000280 11 03 b1 3d 0b cd b2 3d 8e 89 b4 3d 73 35 b6 3d
       0.08643163 0.08730515 0.08815299 0.088969134
000290 bd ce b7 3d 34 55 b9 3d 3d c8 ba 3d 6c 23 bc 3d
       0.08974979 0.09049454 0.09120224 0.09186444
0002a0 25 62 bd 3d 4e 82 be 3d e7 94 bf 3d cb 7c c0 3d
       0.09247235 0.093021974 0.09354573 0.09398802
0002b0 9d 4b c1 3d 27 f2 c1 3d dc 79 c2 3d da d1 c2 3d
       0.0943825 0.09470015 0.09495899 0.09512682
0002c0 f0 9c df 3d 41 1c e2 3d 58 8b e4 3d ac e2 e6 3d
       0.10918605 0.11040545 0.1115939 0.11273703
0002d0 cb 1d e9 3d 7d 34 eb 3d fe 2f ed 3d 66 02 ef 3d
       0.11382636 0.11484621 0.115814194 0.11670379
0002e0 db aa f0 3d 3f 32 f2 3d 12 86 f3 3d 18 a9 f4 3d
       0.11751338 0.1182599 0.11890806 0.119463146
0002f0 6a 98 f5 3d 24 52 f6 3d 66 d2 f6 3d 44 16 f7 3d
       0.11991961 0.12027386 0.12051849 0.12064794
000300 81 66 7b 3e 97 e7 b2 3e 04 7e af 3e 7b 5b ac 3e
       0.24550821 0.34942314 0.3427583 0.33663544
000310 77 7a b3 3e 45 df a8 3e 7b d8 a7 3e df 5d 70 3e
       0.3505437 0.3298284 0.3278235 0.23473309
000320 9a db 35 3e db 48 67 3e 56 62 ae 3e 9d 30 c6 3e
       0.17759553 0.22586386 0.340594 0.38708964
000330 1e 86 8d 3e d7 40 49 3e c5 c5 91 3e 20 c3 ba 3e
       0.27641386 0.1965364 0.284712 0.36476994
000340 d2 20 a2 3e 26 57 b5 3e 7a 4b a9 3e 8e bc a7 3e
       0.31665665 0.3541805 0.33065397 0.32761043
000350 43 05 96 3e d2 d1 98 3e 02 bd 8c 3e 31 0d 9f 3e
       0.2930089 0.2984758 0.27487952 0.31064752
000360 c6 05 79 3e 94 52 9d 3e 4d f4 81 3e 7d 91 92 3e
       0.24318609 0.30727065 0.253817 0.28626624
000370 f6 1a 88 3e c8 71 47 3e 41 5a 32 3e c5 74 30 3e
       0.2658307 0.19476998 0.17417242 0.17232044
000380 a8 28 a7 3e 19 ed 51 3e 7d f3 ba 3e c8 1d 89 3e
       0.32648206 0.20500602 0.36513892 0.26780534
000390 74 cc a7 3e 23 7e 73 3e 93 d3 23 3e 90 10 91 3e
       0.32773173 0.23778586 0.15998678 0.2833295
0003a0 e1 f4 94 3e f8 9d 7e 3e 8f 21 2b 3e 2f 31 9c 3e
       0.29093078 0.24864948 0.1671202 0.30506274
0003b0 ab 27 b6 3e 2f a1 a8 3e 29 04 a0 3e 13 b3 26 3e
       0.3557714 0.32935473 0.31253174 0.16279249
0003c0 3c 09 38 3e b8 d3 a9 3e b0 ac 52 3e 31 39 8a 3e
       0.17972273 0.3316934 0.20573688 0.2699676
0003d0 4c cb b9 3e 4c e6 2c 3e cc cd c1 3e e2 8a a6 3e
       0.36287916 0.16884726 0.37852323 0.32527834
0003e0 b7 b7 88 3e 76 d9 75 3e 69 aa a8 3e 55 7a 35 3e
       0.26702663 0.24008736 0.32942513 0.17722447
0003f0 38 91 94 3e cd bf c1 3e f8 32 b2 3e 27 96 7e 3e
       0.29017043 0.37841645 0.3480451 0.24861966

encoder.cnn.bias f4 [8]
000000 88 67 ce 3c 8a 73 43 3e ba dc 9f bc 34 11 f8 3d
       0.025195852 0.19087043 -0.01951443 0.12112656
000010 f2 e2 b7 3d b6 27 cb be de a1 f0 3d a0 c1 9c bd
       0.08978833 -0.39678735 0.11749624 -0.076541185

encoder.rnn.weight_ih_l0 f4 [128, 8]
000000 46 63 2b be 6c 82 f5 bd 35 f0 59 bd 2b b0 87 3d
       -0.16737089 -0.119877666 -0.053207595 0.06625398
000010 eb 93 87 be dd a9 43 bd d5 5a d8 3d 3d 92 17 3e
       -0.2648004 -0.047769416 0.105642 0.14801879
000020 8a 32 36 3e 6c c6 57 3e 51 20 19 3c 10 8d 0f be
       0.17792717 0.21071786 0.009346084 -0.14018655
000030 0b 3c 8d bd 86 fa 1e be c1 2e b7 be 08 04 00 be
       -0.06896218 -0.15525255 -0.35777858 -0.12501538
000040 95 06 a0 bd c7 e1 b4 bb 40 e8 03 3e 66 9a 55 3d
       -0.078137554 -0.005520079 0.12881565 0.0521492
000050 48 ad 68 3b 9a 9b 10 be 6c 35 79 3c 5e 80 6f bd
       0.0035503674 -0.14121857 0.015210491 -0.05847203
000060 26 71 92 bd 64 78 2a 3d 9a 5f 96 b9 33 6c 55 be
       -0.071504876 0.04161872 -0.00028681458 -0.20842056
000070 e0 8b 48 be d9 82 49 be ee e5 b3 bc 5e be 38 bd
       -0.19584608 -0.1967882 -0.021960225 -0.045103423
000080 84 78 dc 3e dd 59 b3 3e 43 be 8f 3e a9 a9 f1 3c
       0.43060696 0.35029498 0.28074846 0.029499846
000090 cb 95 96 3e b0 97 9b 3d 1c 4e 83 bd 8a 29 d3 3c
       0.29411158 0.075972915 -0.064113826 0.025776643
0000a0 13 42 3b bd da d3 b1 3c a0 94 ea bd d2 ba 8c be
       -0.04571731 0.021707464 -0.11454129 -0.27486283
0000b0 32 61 6b be 03 40 2d bc 60 77 ce bc 44 3e 85 3e
       -0.22986296 -0.010574344 -0.025203407 0.26024067
0000c0 f3 f9 21 be bc 9a 0e be a3 95 63 be 77 e7 7b be
       -0.15818004 -0.13926214 -0.2222505 -0.24600016
0000d0 b6 87 6e be 19 0a 27 be b5 6e 24 be df 13 01 3e
       -0.23293957 -0.16312446 -0.16057856 0.12605236
0000e0 d8 30 d5 bd 48 09 12 be ec 79 5c be f8 d5 cc bd
       -0.10409707 -0.14261353 -0.21530885 -0.10001749
0000f0 7f b9 98 3d 1f 96 18 3d 13 21 90 3d b0 6b 37 be
       0.074572556 0.03725254 0.070375584 -0.17912173
000100 aa 95 c1 be ae fd 90 be b1 73 f1 be b9 bc 64 be
       -0.37809497 -0.28318542 -0.47158578 -0.22337617
000110 23 f0 af bd fa 23 6a be cb 20 b0 bd fa d1 5d be
       -0.08590724 -0.22865286 -0.08600005 -0.21662131
000120 9e b6 21 bd 6c 0d dc 3d fe c2 13 be 70 7e 7e be
       -0.039480798 0.107447475 -0.14429852 -0.2485292
000130 15 69 c8 bd 5f c9 26 be 49 b4 82 be 14 70 4c be
       -0.09785668 -0.16287754 -0.25528172 -0.1996463
000140 ad 63 4a 3e 68 38 69 3e 44 a3 69 3e 9e 96 3f 3d
       0.19764586 0.22775424 0.22816187 0.0467745
000150 fb f0 06 3e ed d6 b8 3d ff 49 20 3e 02 fd 39 3e
       0.13177864 0.09025369 0.15653227 0.18162921
000160 f0 30 25 3e 7c ee 00 3d 4b 45 cb 3b 07 e8 ec 3d
       0.1613195 0.031477436 0.0062033287 0.11567693
000170 88 67 50 3a bc 81 2c 3d 37 05 09 3e 14 cf 55 3e
       0.00079499977 0.04211591 0.13380896 0.20879775
000180 64 e7 bb bc 42 e1 6b be 50 20 47 be 6a 8a 70 3d
       -0.022937484 -0.23035148 -0.1944592 0.058725752
000190 32 8d 47 bd 6c b5 7e 3d 4f 9e d6 3d 53 9c d8 3d
       -0.04871864 0.062184736 0.10479414 0.105766915
0001a0 0f 35 fa 3d 7d 0a a5 3d fc 51 68 bd 1c b5 8a bd
       0.122171514 0.08058641 -0.05671881 -0.06772825
0001b0 74 88 1f be ac 6d 95 bd 01 af fe be 25 16 6b be
       -0.15579396 -0.07296309 -0.49742892 -0.22957666
0001c0 3f 11 dc bd 44 09 00 be b3 0d 1d bd 15 43 07 be
       -0.10745477 -0.12503535 -0.038343143 -0.13209184
0001d0 47 bd 7b be 96 3a fd bc 78 83 de bb 35 fa 6d be
       -0.24583922 -0.030911725 -0.0067905746 -0.23239978
0001e0 77 9e 5c bd e6 b8 90 3b 01 c9 0a be fc 4f 61 be
       -0.05386206 0.004416573 -0.1355324 -0.22003168
0001f0 b5 2f db bb 50 4e ce bd e8 17 9f bd 55 9f 85 be
       -0.0066890367 -0.10073531 -0.07768232 -0.26098123
000200 58 3b 02 bd c3 ba 02 3e 0f 22 93 bd c6 5b c2 bd
       -0.031794876 0.12766556 -0.071842305 -0.09490161
000210 dd 8f 38 be ff 07 47 be a7 c9 76 be 22 60 bf be
       -0.1802363 -0.19436644 -0.24100362 -0.3737803
000220 e5 f2 ba 3d 73 2a d3 3c 48 79 41 be 44 5e 84 be
       0.0912836 0.025777077 -0.18893921 -0.2585317
000230 10 08 a8 be d7 53 81 bd c5 3d 92 3d cf 4e 70 be
       -0.3281865 -0.06314819 0.07140688 -0.23467563
000240 bf 83 41 be 51 05 fa bd 4d 70 b5 bd cd d4 69 3d
       -0.18897913 -0.12208045 -0.0885931 0.05708771
000250 b2 8e 12 be 83 71 a2 bd be 31 36 bc fc 20 cf bd
       -0.14312246 -0.07931807 -0.011120258 -0.10113713
000260 08 11 40 bd 4f 4f 6d bd 83 c4 f9 bc 1e 37 21 3e
       -0.046891242 -0.057936963 -0.030489212 0.15743682
000270 c5 2d 09 be 0e 38 01 be 80 85 1f 3d ed aa e6 3d
       -0.13396366 -0.1261904 0.038945675 0.1126307
000280 dc a2 01 3e c0 1d b5 bd 60 6e 78 3d 5c 56 0a bd
       0.12659782 -0.08843565 0.060652137 -0.033773765
000290 c7 17 cc bd 81 87 bd 3d dc cd 25 be 24 5c 14 be
       -0.09965473 0.09254361 -0.1619181 -0.14488274
0002a0 22 2e 5d be e3 6c a7 bd dd a1 cc bb 1e 54 0d 3e
       -0.2159963 -0.08175065 -0.0062448815 0.1380162
0002b0 d2 f1 ea 3d 1e 90 03 3e 77 a4 da bd e9 76 61 3d
       0.11471905 0.12847945 -0.106759004 0.055045042
0002c0 8a 06 c8 bd b3 9d ba bc 7d 80 ac 3d 0c 7c 58 bd
       -0.09766872 -0.022780275 0.08422945 -0.052852675
0002d0 b1 05 a9 bc e3 53 6b bb cb e8 dd be 9f 08 64 be
       -0.020632597 -0.0035908155 -0.4334167 -0.22268914
0002e0 d6 c6 cd be 67 92 24 bf 71 b1 25 bf fe 65 37 bd
       -0.40190762 -0.6428589 -0.6472388 -0.044775
0002f0 f0 c5 94 be 80 39 be bc 5a 9c 88 3c 95 ac 5e bd
       -0.29057264 -0.023220778 0.016676117 -0.054363806
000300 d1 96 9f be 49 08 6c be d7 a2 98 bd 8e 4a 51 3d
       -0.3116975 -0.23050036 -0.07452934 0.05109649
000310 13 5c 20 bd 06 3a 36 3e 3d 3c 61 3e 61 4a 36 3e
       -0.03915031 0.17795572 0.21995635 0.17801811
000320 59 dc 95 bd a4 3c 16 bd 1e 0a d4 3c 45 65 b5 bc
       -0.073174186 -0.036678925 0.02588373 -0.022143016
000330 a3 09 91 be f7 fa 8d bd b3 84 88 be f8 30 a1 be
       -0.28327665 -0.06932633 -0.2666374 -0.31482673
000340 72 e3 8e 3c ed 00 64 be 19 6d 66 be 97 10 a3 3c
       0.017442439 -0.22265978 -0.22502555 0.019905372
000350 2a af e5 3d da 22 d5 3c 5c 97 be 3d f5 31 4d 3e
       0.112150505 0.026017595 0.09306213 0.20038588
000360 c2 96 42 3d 03 55 a5 bc 6b 47 e7 bd 40 b4 58 be
       0.047507055 -0.020182138 -0.11292919 -0.2116251
000370 83 1c af 3d 81 ba ce bd 99 29 e0 3c b0 5e bd 3a
       0.0855036 -0.100941665 0.027363585 0.0014447775
000380 8a 7b 57 be 2a d2 2f be fc ef 4c be da 36 15 be
       -0.2104322 -0.17170015 -0.20013422 -0.14571705
000390 8f 6a b8 bc 1d 29 2e bd cf 3c 06 be 3e b2 d6 3b
       -0.022511749 -0.042519677 -0.13109134 0.00655201
0003a0 ca 79 12 3c 04 34 40 be f8 d7 1e bb 6e 99 54 3d
       0.00894017 -0.18769842 -0.0024237614 0.051904134
0003b0 da 98 63 3d 78 e5 e0 bc 0c b8 6f bd 18 f3 9e bd
       0.055565692 -0.02745317 -0.05852513 -0.0776121
0003c0 e5 e7 a5 bc d3 ee f4 bc ba dc 80 3e 44 eb 86 3e
       -0.020252177 -0.029899037 0.251684 0.26351368
0003d0 73 f6 d0 3d 0c f6 b5 3d 64 4f 8a 3d fa 08 a7 3e
       0.102032565 0.0888482 0.06753424 0.32624036
0003e0 48 95 f9 3c f4 13 86 be eb f0 28 be a8 b0 ae 3d
       0.03046669 -0.26187098 -0.16498153 0.08529788
0003f0 65 2a 1a be 3b d0 36 bc 79 0c 69 bd 60 f7 5d be
       -0.15055235 -0.011158044 -0.05689666 -0.21676397

encoder.rnn.weight_hh_l0 f4 [128, 32]
000000 40 57 07 be 44 ef 60 3e f2 1b 28 3e b2 3e 50 3e
       -0.13216877 0.21966273 0.1641691 0.20336416
000010 48 97 8b bd 9a 47 e9 3d 1f ea 57 be 74 b3 af bd
       -0.06815964 0.1139061 -0.21085404 -0.0857915
000020 67 60 04 3d 95 9c a9 3c 6e 66 82 3d 4c 8f f3 3d
       0.0323185 0.020704547 0.06367193 0.11892566
000030 9f 04 93 3d 92 3c 3e 3e 5a 5a 25 3c db 8c 7e 3d
       0.07178616 0.18577793 0.010092342 0.06214605
000040 67 92 2e be fc 4a 06 3e 1b f2 8c 3d e6 aa 5c 3e
       -0.17048036 0.13114542 0.068821155 0.21549568
000050 c7 f3 ad bd 01 66 ad 3d 64 ce c9 3b e0 fc 3f 3e
       -0.084937625 0.08466721 0.006158637 0.18748808
000060 11 90 bd 3d ae ab 6e bd f6 48 89 be a7 2a 09 3e
       0.09255994 -0.058269195 -0.26813477 0.13395177
000070 2a 5d a9 3d b4 8e d2 3e 09 2d 83 3d b7 fa 73 be
       0.08269723 0.411245 0.06405074 -0.23826109
000080 e5 37 2c 3e b0 5f 50 3e 2e ef af 3d c0 29 73 3e
       0.16818197 0.20349002 0.08590542 0.23746395
000090 27 ee b3 be 09 81 8e be e2 b1 ce bd b9 74 80 be
       -0.35142633 -0.2783282 -0.10092522 -0.25089052
0000a0 5d 7f db bd a5 93 10 bb 5d ed 22 bf c2 05 30 be
       -0.10717652 -0.002206066 -0.6364344 -0.17189696
0000b0 35 ba e6 3e ea 21 fe 3d 0c 1b aa be fd 9c 7d be
       0.4506394 0.12408812 -0.3322376 -0.24766918
0000c0 f4 84 42 3e 61 90 0e 3e 4e 2e a6 be ba 7e 1f be
       0.1899603 0.13922264 -0.32457203 -0.15575686
0000d0 5d e1 40 3e fb d5 05 bf ee 4e 83 bd d8 92 96 3c
       0.1883597 -0.52279633 -0.06411539 0.018380567
0000e0 d0 3a 08 be b6 77 52 3e ac ee d2 3d b1 40 06 bd
       -0.13303685 0.20553479 0.10299429 -0.03277654
0000f0 e0 13 56 bd d1 85 2d be 8b 20 c3 be 05 03 9c 3e
       -0.052265048 -0.16945578 -0.38110766 0.30471054
000100 6a 67 a5 be 1a b8 f4 bd 8f 3d 4a 3e fc fc 0f 3d
       -0.3230546 -0.11949177 0.19750045 0.035153374
000110 c2 f4 12 be cb cd d0 3d 00 e9 94 3d ef 0c e4 bc
       -0.1435118 0.10195502 0.07271004 -0.027838198
000120 9c a5 ae 3d ed d6 fe bd 39 df de bd 71 f3 85 3e
       0.08527681 -0.124433376 -0.1088242 0.26162294
000130 43 ae 78 3d 9a f3 f5 bd 95 93 ed bc 9f d1 56 bb
       0.060713064 -0.12009354 -0.029001037 -0.0032778753
000140 36 c5 58 be 3a 2b ed 3d 3d 97 34 be 76 9d be bd
       -0.2116898 0.115805104 -0.17635818 -0.09307377
000150 61 7f d8 bc 2e 99 c6 be 94 38 ef 3d db 5c a2 3d
       -0.026427926 -0.38788742 0.11680713 0.07927867
000160 e3 a3 07 be 4e e8 e5 bd 9a 07 ee 3d aa 94 69 3e
       -0.13246112 -0.11225949 0.11622544 0.22810617
000170 63 a8 b0 be 65 3b 3e be 03 5d b4 be aa fb 6b 3d
       -0.3450347 -0.18577345 -0.35227212 0.057613052
000180 64 96 30 3e cc 18 83 3c 33 7e e3 bc 86 2d 7a 3d
       0.1724487 0.016003035 -0.027770137 0.06107857
000190 a2 fa 10 3e a3 bd 74 be 29 44 20 3d 55 0e 8a 3c
       0.14158109 -0.23900466 0.039127503 0.016852537
0001a0 79 3c 8b bd d3 77 4d be f4 c3 73 bd 9f e2 47 bd
       -0.067986436 -0.2006524 -0.059513047 -0.048800107
0001b0 a5 5a 38 be ea e9 a1 3c 63 1a 5a be 39 40 2d 3d
       -0.18003328 0.01976486 -0.21299128 0.042297576
0001c0 55 3d 9a 3c 0a 6a 83 bd 6f 62 fd 3d 29 83 f9 bd
       0.018828074 -0.0641671 0.1237229 -0.1218322
0001d0 49 1a 3d 3e 6d dc 08 3e d1 85 45 bd 1e 2c ff 3d
       0.18467058 0.13365336 -0.04822332 0.124595866
0001e0 fb 05 87 3d 4d f8 29 3d 43 d7 c5 bd 2d 55 40 3b
       0.065929376 0.041496564 -0.096601985 0.0029347644
0001f0 2e 59 0a 3d 71 43 a2 be 93 48 1b bd 9d 05 37 3e
       0.033776455 -0.3169208 -0.03791101 0.17873235
000200 12 6c e9 3e 32 c1 10 3e 43 d4 62 be b9 81 13 be
       0.45590264 0.14136198 -0.22151284 -0.14404954
000210 5a 65 44 3e 24 82 a3 3d 9a 7d bd bd 43 72 cb bd
       0.19179288 0.07983807 -0.09252472 -0.09933903
000220 5b 57 92 3d 7b 16 24 bd 97 bc 73 3e ed 75 85 bd
       0.07145568 -0.0400605 0.2380241 -0.06516633
000230 98 8c b0 bd 93 b9 dd 3c e1 04 c6 3e f0 f8 9a bd
       -0.08620566 0.027066028 0.38675597 -0.07567012
000240 6f c4 6e 3c d1 07 0b be 41 24 50 3d 76 52 d5 bd
       0.014573201 -0.135772 0.050815824 -0.10416119
000250 48 5e 4e 3e af 4b 08 bd 7e e2 3b 3d 0e 27 e5 3d
       0.20153153 -0.033275302 0.045870297 0.1118909
000260 39 d3 9f 3d 3d e2 3c bd 9d b4 4b 3e 00 c8 4a 3d
       0.078039594 -0.046114195 0.19893117 0.04950714
000270 c1 db 38 be bc 37 90 be af 8d e2 bd b3 21 82 3d
       -0.1805258 -0.28167522 -0.1106218 0.06354084
000280 8f f7 b7 3e 45 07 71 3f 34 83 42 be 9e 77 00 bd
       0.3593106 0.9415172 -0.18995363 -0.031364076
000290 f6 4a 11 be d8 12 e8 be ac 2b 6c 3e 8b a9 73 be
       -0.14188752 -0.45326877 0.23063534 -0.23795144
0002a0 fb 41 30 be 6e 79 13 be 2a 68 21 3e ce 69 36 bd
       -0.1721267 -0.1440179 0.15762392 -0.044534497
0002b0 e9 66 3d bd 18 ce 11 3f 44 17 1c 3e 89 88 e0 3e
       -0.04624072 0.569551 0.1524325 0.43854168
0002c0 3e f7 a3 3e 55 e6 e0 3e 05 2b d9 be 40 00 80 be
       0.32024568 0.4392573 -0.42415634 -0.2500019
0002d0 8b 7d e5 3e 66 34 8a bd 01 2b a8 bc 18 98 bc 3c
       0.44822344 -0.067482755 -0.020528318 0.023021743
0002e0 1c d0 e0 3e 86 91 02 3f 7d 98 01 bd 0f e1 17 bf
       0.43908775 0.510033 -0.031639565 -0.5932779
0002f0 6d a2 47 3e c1 62 62 bd bd 38 f7 bd db f9 11 be
       0.19495554 -0.05526996 -0.12071369 -0.14255469
000300 3d 08 a6 3e 2e e5 81 3e b3 aa 14 be 7e 1b 08 be
       0.3242816 0.25370163 -0.14518242 -0.13291737
000310 81 f3 1c be dc 6e 34 be 48 be ae bd a4 a0 c8 bc
       -0.15327264 -0.17620414 -0.08532387 -0.024490662
000320 17 37 67 bc 28 88 a4 bc 50 4a 6b 3e 9c 9a 51 be
       -0.014112256 -0.020084456 0.22977567 -0.20469135
000330 e2 f5 9e bc 99 6a 51 3e 8f d2 a8 3e 98 bd 65 3e
       -0.019404355 0.2045082 0.32973143 0.22435606
000340 80 e0 1b 3e 87 cf 02 3e 2e de 38 be 0b ab 83 bd
       0.15222359 0.12774478 -0.18053505 -0.06429108
000350 b6 87 43 3e 2a bc 30 3f 78 e1 85 bd 53 0b 1f 3e
       0.19094738 0.69037116 -0.065371454 0.15531664
000360 14 09 00 3e 52 01 52 3e 3f 07 1d 3e 0b f9 d3 be
       0.12503463 0.20508316 0.15334795 -0.41400942
000370 23 fc 82 bd 9c 85 9a be 12 1d 39 be d4 39 3d 3e
       -0.063957475 -0.3018006 -0.18077496 0.18479091
000380 0e 7f f2 bc 77 f5 8f be 93 dc 30 3e 47 00 70 be
       -0.0296016 -0.28116962 0.17271642 -0.23437606
000390 0f 50 35 be 63 53 56 3e bd cd 82 3e 40 8f 9a be
       -0.17706321 0.20930247 0.2554759 -0.30187416
0003a0 77 72 5b bd 5d 99 c0 3c e1 ef 23 bd bc 02 11 be
       -0.05357596 0.02351063 -0.04002369 -0.141612
0003b0 a0 05 af 3d 7d b7 61 be a5 74 99 bc 53 92 e6 bd
       0.08545995 -0.22042651 -0.018732378 -0.11258378
0003c0 bc a8 4b be dc 58 13 bd 77 32 0a bd 65 97 3b bd
       -0.19888586 -0.035973415 -0.033739533 -0.045798678
0003d0 a2 3a d6 3b f2 c2 10 bf a7 d4 fa 3d 4c 75 1e be
       0.0065377513 -0.5654746 0.122475915 -0.15474433
0003e0 9e 80 20 be cc 00 69 be d5 f4 0f 3c 58 e1 07 bd
       -0.15674064 -0.2275421 0.0087864 -0.03317389
0003f0 a6 8e 96 bd 6c 15 10 3d fd 04 09 be 16 89 3b 3e
       -0.07351427 0.03517668 -0.13380809 0.18314013

encoder.rnn.bias_ih_l0 f4 [128]
000000 01 43 a6 3d 7b dd b6 3e 6f 65 53 be 0a 3a 6f bd
       0.08118249 0.3571585 -0.20644163 -0.05840496
000010 c6 c7 e9 bd e2 c1 35 3e 68 67 8b 3e ad ba 22 be
       -0.11415057 0.17749742 0.2722733 -0.15891524
000020 3a 47 0b 3b bd 26 40 bc 79 1d 85 3d cc 7d 66 3b
       0.002125217 -0.011727986 0.06499762 0.0035170196
000030 e7 9e 51 bc 7b 64 ba 3e 19 a8 49 be b9 4e 8d 3e
       -0.012794233 0.36404786 -0.1969303 0.27599123
000040 05 bb 7e 3e d0 06 f0 3d e7 53 bb 3c 0d 06 b7 3c
       0.2487603 0.117200494 0.022867156 0.022341752
000050 ce b3 01 be 35 4e 46 bd 8b b3 f6 3c 36 90 a2 3d
       -0.12666246 -0.048414428 0.03011491 0.07937662
000060 e4 9b be 3e c4 24 9a 3e a4 23 8f be 17 36 0a bd
       0.3722831 0.30106175 -0.2795688 -0.03374299
000070 09 cd 54 bd f5 e9 a3 3b c0 85 29 bc d6 0c 85 bd
       -0.05195335 0.005002255 -0.01034683 -0.06496589
000080 c7 90 6d be e0 02 61 3e 4a b4 36 3e cf 2d 07 be
       -0.2319976 0.21973753 0.17842212 -0.13201068
000090 c7 f5 f0 3d 57 7f 03 3e fa 09 c7 3e 0e 2a 39 bd
       0.11765628 0.12841545 0.388748 -0.045206122
0000a0 07 04 bc 3e 53 57 75 3e 0f 6a cf bd 55 b1 4c 3e
       0.36721823 0.23959093 -0.10127651 0.19989522
0000b0 8d 0d 8b bd 90 f8 44 3e 53 52 93 be 7a 89 ac 3e
       -0.06789694 0.19235444 -0.28773746 0.33698636
0000c0 0b 01 12 3d fa 40 bb 3c 0f d8 f1 bd d9 6f 09 3d
       0.035645526 0.022858132 -0.11808788 0.03355393
0000d0 dd 30 b2 3e f9 93 4f bd f0 ef 57 3d 4e 22 a2 3e
       0.34802905 -0.050678227 0.052719057 0.31666797
0000e0 ec 32 7b 3e c6 9f 11 3e 7b 74 54 3e 56 5c 8e be
       0.24531144 0.14221105 0.20747559 -0.27804822
0000f0 59 9b de 3d 9f 34 22 be bf 08 48 be f9 58 14 3e
       0.10869474 -0.15840386 -0.19534586 0.14487065
000100 bb 61 30 3e b0 0b b4 3e 7d c6 31 be f7 dd da 3d
       0.17224781 0.35165167 -0.17360874 0.10686868
000110 9a ad 6f 3e 29 ef 4e be c6 17 9f bd d1 0b 54 be
       0.23406067 -0.2020842 -0.07768206 -0.20707633
000120 16 6a 6e bd f5 2a 07 be fd 32 d1 3e 28 f8 0f be
       -0.05820664 -0.1319998 0.40859213 -0.14059508
000130 64 f2 ba 3d 8e d2 e6 3e d2 8a 57 bc d8 d3 ef 3e
       0.091282636 0.45082515 -0.013155656 0.4684131
000140 c4 5a 8c 3e 2f cf c8 3e 33 62 a7 bd 0a af d1 bd
       0.27413 0.3922057 -0.08173027 -0.10238464
000150 59 b2 1f 3d fb c4 40 3e f1 dd e9 bc f2 ea 31 3e
       0.038988445 0.18825142 -0.028548213 0.17374781
000160 53 44 84 3e ac 36 84 3e cc 2d 05 3d 59 9f 63 bd
       0.25833377 0.2582296 0.03251438 -0.055571888
000170 92 0f 3a 3e 24 e2 9e bd 11 2f 51 3c 4f 5d bd bd
       0.18170002 -0.07757977 0.012767569 -0.09246313
000180 33 f0 fc 3c 88 92 2c 3e f3 6d 76 3e 23 a9 b6 3a
       0.030876255 0.16852772 0.2406538 0.0013935905
000190 9f 36 83 3e 7d 2b 54 be a8 55 ee 3d 9e c5 1a 3d
       0.2562761 -0.20719714 0.116374314 0.03778612
0001a0 4d ef eb 3d 2a 98 a4 3e f9 28 ef 3d 79 bd 24 be
       0.115202524 0.32147342 0.11677737 -0.16087903
0001b0 b9 c5 10 bd 3a bf 42 3d 45 9e 00 bc c2 01 1d be
       -0.035344813 0.04754565 -0.007850234 -0.15332702
0001c0 e2 d0 33 3e 1c 79 af 3e 4b 32 06 be 1f 57 fe 3e
       0.17560151 0.34272087 -0.13105123 0.49675843
0001d0 14 f6 2b 3e 97 35 80 3d 77 30 8b 3e 5c 70 ef 3d
       0.1679309 0.062602215 0.27185413 0.11691353
0001e0 a8 4f a9 3e 1b 5f 89 bd ca 33 ac 3e 11 a6 de bd
       0.33068585 -0.06707593 0.33633262 -0.108715184
0001f0 9f 88 a5 3d 3a 2d 1f 3c 93 a6 b6 bd a1 4f e1 bc
       0.08082699 0.009715373 -0.0891849 -0.02750379

encoder.rnn.bias_hh_l0 f4 [128]
000000 8c bf 07 3e 09 40 7f 3e 55 8b 0d bd 0b a4 f8 bc
       0.13256663 0.24926771 -0.034556706 -0.03035166
000010 c7 22 f6 3c 3f fb 27 3d d9 73 5e 3e d0 f9 b9 3d
       0.03004588 0.04101109 0.2172388 0.09080851
000020 d8 7e 22 bc 59 d6 2b 3c 51 31 4c 3d b6 65 8b 3d
       -0.009917937 0.010488116 0.04985172 0.06806509
000030 62 65 2b be 0b 54 b2 3e f5 f7 ee 3d 8d 72 0a 3f
       -0.16737893 0.34829745 0.11668388 0.5408104
000040 c1 cb 61 bc 90 3e 63 3e dd ba ac 3d 76 d2 2e 3d
       -0.013781489 0.22191834 0.08434079 0.04268118
000050 60 96 a7 bc 9c c5 3b be f1 e9 b1 3d 5c 8b 0d bd
       -0.020457447 -0.183371 0.08687199 -0.03455673
000060 37 5e a2 3e 2c a1 b9 3e 9d f1 85 be 6c 1b 5e be
       0.31712505 0.36255777 -0.261609 -0.21690148
000070 68 7f 79 3d 07 7a 18 3c 67 50 8a bd bd 75 16 bc
       0.06091252 0.009306437 -0.06753617 -0.009183344
000080 12 29 17 bd ac 15 c8 3e f5 dc 83 bd 46 ba 65 be
       -0.036904402 0.39079034 -0.064386286 -0.22434339
000090 04 22 3f be b4 3d ea 3d ee 39 be 3e c5 a3 24 3e
       -0.1866532 0.1143755 0.37153572 0.16078098
0000a0 34 43 f4 3e 85 65 44 3e d4 20 10 be 43 bb 00 3e
       0.47707522 0.19179352 -0.14075023 0.12571435
0000b0 57 56 1a bd 3b 8e 81 3e d9 91 23 be 1e 81 ce 3e
       -0.037679996 0.25303826 -0.15973605 0.40332884
0000c0 a7 3b 72 3e 9a 1b 9a 3e 8a 2f 9c bd 59 0a ba 3d
       0.23655568 0.30099183 -0.07626255 0.09084005
0000d0 ac 4c 92 3e 21 9b 26 bd 8d 3f 93 3d 59 e6 2c 3e
       0.2857412 -0.040675286 0.07189856 0.16884746
0000e0 62 2b 44 3e 9c 4f 8f 3e 96 57 d5 3e 7f b7 6b bd
       0.19157174 0.27990425 0.41668385 -0.057548042
0000f0 9a 26 89 bd f2 20 36 be e7 6a b4 bd 32 22 6b bd
       -0.06696816 -0.17786005 -0.088094525 -0.057405658
000100 1b 24 35 3d fa eb c4 3e 7e fd 69 bd a4 74 32 3e
       0.044223886 0.38461286 -0.057126515 0.17427307
000110 ca 78 a4 3e df 02 32 be 7e 74 12 be 19 94 81 bd
       0.32123405 -0.17383908 -0.1430225 -0.063270755
000120 ff 3b ac bd 8e c9 50 be 86 eb d0 3e 11 0e d2 bd
       -0.08409881 -0.20389387 0.4080469 -0.10256589
000130 2e 10 32 be ce a6 c1 3e ff 5c 41 bc 7e c2 ec 3e
       -0.17388985 0.37822574 -0.011801957 0.46242136
000140 f2 09 66 3e 6a e0 ab 3e 5c 27 c0 bd 76 2c c1 bd
       0.22464731 0.33569652 -0.09382507 -0.094323084
000150 88 65 59 3e 56 47 02 3e 21 90 1a be a7 2b bf 3e
       0.21230137 0.12722525 -0.15094043 0.37337992
000160 93 d9 f0 3c 94 3b 88 3e 97 8e 20 be 64 83 9e 3c
       0.029400622 0.26607955 -0.15679394 0.019349761
000170 3b 6e 00 3e ff 59 04 be 1f b2 d8 3c da 42 97 3b
       0.1254205 -0.12924956 0.026452122 0.0046161236
000180 ce 7a 35 be 32 e2 92 3d 2a 2b 8f 3e 7c bc 20 3e
       -0.17722628 0.071720496 0.2796262 0.15696901
000190 17 84 12 3e 81 41 14 be 67 ba 73 3d 52 47 4d 3e
       0.14308201 -0.14478113 0.05950394 0.20046738
0001a0 36 f4 c3 3d ed 72 e7 3e 38 4c 62 3e 26 7d 99 3b
       0.09568064 0.4520487 0.22099388 0.0046841083
0001b0 9c f7 81 bd df ed 4d 3d 96 8c 19 3d 16 ba b4 bc
       -0.06346056 0.05027568 0.03748759 -0.022061389
0001c0 fe 59 96 3e af 03 04 3f 37 51 a0 bd ea cd fc 3e
       0.29365534 0.5156812 -0.078279905 0.4937585
0001d0 f3 ab 3d 3e f6 d6 ca 3e b5 a1 41 3e 64 d7 15 3e
       0.18522625 0.39617127 0.18909343 0.14632946
0001e0 d3 75 8a 3e 56 e3 b6 3c 69 48 e4 3e 38 7c 21 be
       0.27043018 0.0223252 0.44586495 -0.15770042
0001f0 29 1b 86 3d 9b 22 b3 3d 9c d8 fa bd c9 5e a1 bc
       0.06548149 0.08746835 -0.12248346 -0.019698517

decoder.rnn.weight_ih_l0 f4 [256, 32]
000000 97 5b 9a 3c c1 e5 3c 3f 68 4f 58 3e 82 8b 88 3e
       0.018842502 0.73788077 0.21124041 0.26668936
000010 3e 4f db 3e f0 33 a5 be d2 e0 07 bf 22 53 fc 3d
       0.42833894 -0.32266188 -0.53077424 0.12320544
000020 ce 47 3b bf 63 88 c2 bd 96 d6 15 3f c5 71 9b bc
       -0.7315644 -0.0949867 0.5853056 -0.018975148
000030 50 80 b5 3d 6a 6c 2a 3f 7c be 95 bc a0 74 b5 3e
       0.08862364 0.66571677 -0.018279307 0.3544054
000040 1f dd e7 3e 5c ab 04 3f c4 ff 53 3d 8b 53 84 bc
       0.4528589 0.51823974 0.05175759 -0.016153118
000050 8d 60 ae 3c 76 ec b4 3d 65 75 12 3e 3f 74 11 3f
       0.021286273 0.08834164 0.14302595 0.56818
000060 28 ae 51 3f fa 3e 27 3f e2 cf db bd 6c 12 f3 bd
       0.81906366 0.6533047 -0.1073301 -0.11868748
000070 50 4c f8 3e 89 ff 36 3c ed 41 51 bd d1 69 41 be
       0.48495722 0.011169323 -0.051088262 -0.18888022
000080 27 1c fe be c5 5c bc 3e 47 a7 82 be c0 ce d2 3e
       -0.49630854 0.36789528 -0.25518247 0.41173363
000090 eb 0a a2 be 52 5f a3 be 3e 18 2e bd 20 7d 1e bf
       -0.31648955 -0.3190866 -0.042503588 -0.61909676
0000a0 aa 17 42 be b0 64 08 3f 35 08 19 be 4c 28 e1 3e
       -0.1895434 0.53278637 -0.14944537 0.43976057
0000b0 50 5b 9e 3f e2 d6 b1 3e 37 50 34 be c7 17 50 3e
       1.2371616 0.34734255 -0.17608725 0.2032157
0000c0 0d 3d 1c be 0b 7b 48 3e ab 3e 91 bf b3 84 c5 bd
       -0.15257664 0.19578187 -1.134725 -0.09644451
0000d0 18 0a 8a 3e 21 07 b2 3e 31 ed 62 3f 08 7c 88 3e
       0.26960826 0.34771064 0.88643175 0.26657128
0000e0 b1 c0 4f 3e 00 16 d8 3e 1e cd f8 bd d0 de f9 bd
       0.2028835 0.42204285 -0.12148498 -0.12200701
0000f0 07 35 0c 3f e3 4b 0f 3f 52 66 b4 3f d2 10 c2 bd
       0.54768413 0.5597517 1.4093726 -0.094758645
000100 57 c7 50 3d 9b c8 1b 3f e0 93 9c 3d 5d 69 99 3e
       0.050971355 0.60852975 0.076453924 0.29963198
000110 99 51 ea 3e 9b 77 ae be ce 29 5b bf 0a 4c a0 3c
       0.4576538 -0.34075627 -0.85610664 0.019567508
000120 22 39 36 bf 73 a2 09 bf 4b 43 e7 3e 7b b4 d3 3d
       -0.7118093 -0.537635 0.45168528 0.10337158
000130 11 b1 0d 3c a7 db 28 3f 83 40 1b be 54 bf 9f 3e
       0.008648173 0.6596016 -0.15161328 0.3120066
000140 39 f0 eb 3e fc 41 16 3f 4f 08 e7 3c 9f 26 f3 bd
       0.46081713 0.58694434 0.028202204 -0.11872601
000150 fa 70 e4 38 80 7e 89 3d 4e e0 bb 3e 10 45 18 3f
       0.00010892931 0.06713581 0.36694568 0.5948038
000160 23 d5 42 3f b5 5e 1e 3f ee ee db be da 99 17 be
       0.7610647 0.6186326 -0.42955726 -0.14804783
000170 42 ab e7 3e 38 11 c5 3c ad f7 95 bd f6 fc 8b be
       0.45247847 0.024056062 -0.07322631 -0.2734143
000180 68 bf 06 3f 88 46 dc 3d 0e bb a1 3e 82 60 5e 3e
       0.5263581 0.1075564 0.31588024 0.21716502
000190 12 9e 24 3f cc 9a 08 3f 3b 80 97 be 5b bd d6 3e
       0.64303696 0.533612 -0.2959002 0.41941342
0001a0 6d 90 9a bd ed 73 b9 3e 45 58 1a 3f 60 61 55 bf
       -0.07547078 0.36221257 0.6029094 -0.8335171
0001b0 fa ac 0e 40 39 e3 94 3e 50 b4 fd 3e 01 77 a8 bc
       2.2293077 0.29079607 0.4955163 -0.020564558
0001c0 3e c0 ef 3c fd 95 74 bd c4 4a 86 bf a6 ae 89 3e
       0.029266473 -0.059713352 -1.0491567 0.2689106
0001d0 96 a5 08 bf 8f a2 ea 3f e5 27 9c 3f c4 58 42 3e
       -0.53377664 1.8330859 1.2199675 0.18979174
0001e0 65 ae 79 3e 36 cc b2 3e 1f db 5e bf 0f 1a 04 3f
       0.24382932 0.34921426 -0.870531 0.5160226
0001f0 61 02 cf 3f dd 72 f1 bf c2 f3 84 3f 6d 32 fb bd
       1.6172601 -1.8863178 1.0386889 -0.12265477
000200 2e e8 0a 3d a3 3d 0c 3f 6a 74 0f 3e f6 2a 3f 3e
       0.03391283 0.5478155 0.14009252 0.18668732
000210 b2 ef a7 3e 08 cb 6a be a6 08 22 bf b8 ae d8 3d
       0.3280006 -0.22929013 -0.63294446 0.105802
000220 cc 5c 13 bf ab 16 ed be 07 06 c6 3e b1 43 09 3d
       -0.5756347 -0.46306357 0.38676473 0.03351182
000230 4f 97 85 bd af e8 0c 3f c9 0d d1 bd 40 bd 8a 3e
       -0.065230004 0.55042547 -0.102077074 0.2709751
000240 09 74 cc 3e 5f d3 ec 3e a9 88 c5 3d 65 7b 0a be
       0.39932278 0.46255013 0.096452065 -0.13523634
000250 28 83 c5 3d b2 82 32 3e a4 4c 96 b9 ed e8 04 3f
       0.09644157 0.17432669 -0.0002866733 0.51917917
000260 0b 1c 11 3f a5 b3 18 3f cd 60 42 be 30 13 5e be
       0.56683415 0.59649116 -0.18982239 -0.21687007
000270 1a f9 ad 3e 95 d3 12 bc bc 75 9b bd 03 60 98 be
       0.33979112 -0.008961578 -0.075908154 -0.2976075
000280 b7 79 a0 be f5 85 11 3f 4a 87 97 bc f4 c2 af 3f
       -0.3134286 0.5684503 -0.018497128 1.373137
000290 a3 05 1d 3f 2b e4 11 bf b0 26 33 bf a8 f2 8f bd
       0.61336726 -0.5698878 -0.6998091 -0.07028705
0002a0 f3 d8 bc be e6 d4 68 be 25 de 6c 3b 13 86 71 3f
       -0.3688427 -0.22737464 0.003614315 0.94345206
0002b0 dd c3 fd 3e e1 8c 18 3f 15 e3 c3 be d2 96 0d 3f
       0.49563494 0.59589964 -0.38259187 0.5530826
0002c0 25 eb 29 3e a5 3f 51 3e 6c 6e b4 be ea bd a4 3e
       0.16593607 0.20434435 -0.35240495 0.32176143
0002d0 64 ba 8e be e2 5a 04 be e8 1a 68 3f b6 ac 9a 3e
       -0.2787658 -0.12925294 0.90666056 0.30209893
0002e0 4f db 02 3f c7 ae 6c 3f 39 31 be be 3a b5 6c bf
       0.5111589 0.9245419 -0.3714693 -0.9246403
0002f0 21 c3 2c 3e 10 d7 45 3f ee bb 8e 3f 69 fb 1d bf
       0.16871311 0.77281284 1.1151102 -0.61711746
000300 80 b7 40 bf 5d 36 e8 3e 01 ac 3c 3f 3a 93 05 3f
       -0.7528 0.45353976 0.7369996 0.52177775
000310 db 22 af 3c 36 c9 58 bd 23 96 14 be 0a 02 8e 3f
       0.021378925 -0.052926265 -0.14510398 1.1094372
000320 07 d1 b2 be c6 7e ce 3e 26 64 7d 3e d7 60 01 3f
       -0.349251 0.40331095 0.24745235 0.5053839
000330 ae d2 9d 3f b2 e8 e5 3e 6a 55 01 be 15 ff ee 3e
       1.2329919 0.44904095 -0.12630239 0.46678987
000340 95 95 c2 3d d9 99 29 be 3a 9c 2b 3e 01 f5 ed 3e
       0.09501187 -0.16562594 0.16758814 0.46475986
000350 46 a9 19 bf 15 e5 5f 3f da f7 78 3f 80 f9 65 3e
       -0.60023916 0.87458926 0.9725319 0.22458458
000360 a1 0b 84 3e 63 7e 03 3f e7 12 bb be f0 50 04 bf
       0.25790122 0.51364726 -0.3653786 -0.51686
000370 81 2f f6 3e a0 a2 20 be d6 23 a5 3e ae 33 5d bf
       0.48083118 -0.15687037 0.32253903 -0.8640698
000380 57 b8 00 bf 7f e5 6f 3e 90 ad 1f 3f b0 eb 59 3e
       -0.5028128 0.2342739 0.6237421 0.21281314
000390 1b 30 54 3e 72 7d 8a be 8b 53 5d be c9 6c 3d 3f
       0.20721476 -0.27048832 -0.216139 0.7399412
0003a0 fc 40 85 be ec 55 c2 3e 24 82 ed 3e 06 0d 60 bf
       -0.26026142 0.37956178 0.46388352 -0.8751987
0003b0 0f e9 40 3f 1a 0e f1 3e 2a ba 11 bd d0 6b 09 3f
       0.7535562 0.4708107 -0.03557793 0.53680134
0003c0 7f dc e7 bd a7 c5 24 3d 96 00 cb bc 7d 94 08 3f
       -0.11321353 0.04022756 -0.024780553 0.53351575
0003d0 45 7e e8 be 27 01 2e 3f 53 ad 2c 3f ce a0 64 3d
       -0.45408836 0.6797051 0.6745197 0.055817418
0003e0 59 0c e5 3e f3 cb 22 3f 34 14 de 3d cb 14 0f bf
       0.44735983 0.6359245 0.10843697 -0.558911
0003f0 20 1f b7 3e 0c b9 20 be 2b 64 15 3e 88 3f b7 be
       0.35765934 -0.1569559 0.14588992 -0.35790658

decoder.rnn.weight_hh_l0 f4 [256, 64]
000000 ba e1 ad 3d f0 2f 0a 3d 10 44 49 3c 65 b4 9e 3c
       0.084903196 0.033737123 0.012284294 0.019373128
000010 31 17 3a bd 5d 8f 12 be 56 a2 31 bd d8 ae a1 bc
       -0.045432273 -0.14312501 -0.043367706 -0.019736692
000020 53 d0 40 bd d5 3d e4 bc 81 63 3c 3d e7 bb 97 bd
       -0.047073673 -0.027861515 0.04599333 -0.074088864
000030 e1 9e 2f be 6a 68 40 be dd b3 e2 3c 35 e0 8a 3c
       -0.17150451 -0.18789831 0.027673656 0.016952613
000040 b3 43 36 3c b1 39 2e be 1c ea 18 bd c7 c0 c1 bb
       0.011124539 -0.17014195 -0.03733264 -0.0059128734
000050 7a a6 41 bb 4e 18 45 3e 11 3a cf 3c 8e d7 94 3d
       -0.002954869 0.19247553 0.025296243 0.07267676
000060 d7 95 17 bd fa 25 f9 bb 96 0f 22 3d bd de 3b be
       -0.037008133 -0.007603404 0.039565645 -0.18346687
000070 42 88 86 bd b7 7e ad bc 97 89 6d 3d de 5b 08 bd
       -0.06568958 -0.021178586 0.057992544 -0.033290736
000080 f4 5d 06 be 4f 0e 54 bd 5c bd 35 3d 41 83 08 3e
       -0.13121778 -0.05177146 0.04437004 0.1333132
000090 bf 19 63 3c 13 e4 2c 3d 9e 60 8a 3b 07 c2 44 bd
       0.013861119 0.042209696 0.0042229434 -0.0480366
0000a0 bb d6 64 3d e1 77 96 bc 31 81 40 be 90 7c 29 3d
       0.055868845 -0.01836771 -0.18799283 0.041378558
0000b0 1a 19 4b 3d 04 83 46 3d ef 8a 20 bd f8 f8 58 bd
       0.049584486 0.04846479 -0.039194997 -0.05297181
0000c0 a2 2d 32 3e 23 5c 82 bd a4 c0 00 3e 74 03 11 be
       0.1740022 -0.0636523 0.12573487 -0.14161474
0000d0 d5 49 e9 3d e1 ba 02 bd dd 51 a4 bd 63 f0 01 be
       0.113910355 -0.031916503 -0.08023427 -0.12689357
0000e0 17 4f 1f bd 22 87 3e be 14 45 11 3b 7c e9 17 3d
       -0.038893785 -0.18606237 0.0022166418 0.037087902
0000f0 34 d4 df 3d 4d f7 d2 3c e2 94 c3 3c e7 4c 55 3d
       0.109291464 0.025752688 0.023874704 0.052075293
000100 ec 6c 1f be 81 f9 09 3d 9f 42 25 3a 2e 67 58 be
       -0.15568894 0.03368521 0.0006304178 -0.2113311
000110 44 7b 16 3d 3f b7 2a 3d 04 01 34 3c 2b 8f 84 3d
       0.03673865 0.041678663 0.01098657 0.064726196
000120 eb 3c ef 3d a4 95 e5 3c 1d 93 b5 bc b4 0f a9 3e
       0.11681541 0.028025456 -0.022164876 0.33019793
000130 15 79 c4 3d 16 5a d0 3b 29 3b 6e bc a1 36 69 be
       0.09593407 0.0063583953 -0.014540472 -0.22774746
000140 9e 16 95 bd 76 4b b1 bd b8 5f 26 3d ea ed b8 be
       -0.072797045 -0.08656971 0.04061863 -0.36119014
000150 a1 e5 ed 3d 64 88 1b 3c c1 f0 58 be ea e6 c5 bd
       0.11616064 0.009492967 -0.2118559 -0.09663184
000160 f1 29 87 bc 2d a5 a9 3d 7a de 09 be 7b cf 09 3e
       -0.016499491 0.08283458 -0.13463774 0.13458054
000170 62 0d a6 bc 47 a3 aa 3c 8e f3 86 3b 51 bf 83 bd
       -0.020270053 0.02082981 0.0041183895 -0.06432975
000180 a3 59 b5 bd 9e a6 39 3d 59 05 f3 bd 26 e6 a2 bc
       -0.088549875 0.045324914 -0.11866254 -0.019885134
000190 d9 cd 44 bd b9 d9 c4 3b 4d d9 89 3b 82 aa 84 3e
       -0.048047874 0.0060074 0.0042068125 0.25911337
0001a0 9e ae fe bd 67 7b 8c be c2 f9 d6 bd 65 65 a6 bd
       -0.12435649 -0.274379 -0.10496856 -0.08124808
0001b0 73 17 26 3d ae db 40 be c4 29 31 3e 75 a5 2e 3e
       0.040549707 -0.18833801 0.17301089 0.17055304
0001c0 2c 44 12 3d c4 fe 06 3e fb 63 8d bc 47 f0 ba bd
       0.035709545 0.13183123 -0.017259588 -0.091278605
0001d0 3d 64 8a 3d 0f 0a c8 3d b5 c4 83 3d d9 91 e9 3d
       0.067574 0.097675435 0.06434003 0.11404771
0001e0 bb 7a 52 3d 06 e9 a5 3d 3c d7 28 be 33 22 0e be
       0.051386576 0.08101086 -0.16488355 -0.13880233
0001f0 85 be d6 bd 9f fb 2c bc 33 dc 2e be e5 46 2f 3d
       -0.104855575 -0.010558038 -0.17076187 0.04279222
000200 02 04 f6 3c 74 0b 5b 3c 1c 39 e0 3c a2 dd 4f 3c
       0.030031208 0.01336943 0.027370982 0.012687119
000210 b2 3d c9 bc e4 d6 10 bd 32 27 90 bc 1e 65 13 3a
       -0.024565551 -0.035361186 -0.017596815 0.00056226726
000220 c5 b7 b8 3b 09 e0 9f bc 7a a4 e0 3c d1 ad ee bb
       0.0056371414 -0.019516008 0.027422179 -0.007283904
000230 df ae 30 bd d9 c3 34 bd 6b 99 b4 3c 97 9e 13 3b
       -0.04313552 -0.044132087 0.022045812 0.0022524947
000240 37 44 a9 3c 47 71 36 bd a3 d3 ae ba d7 a4 99 3a
       0.02066241 -0.044541623 -0.0013338219 0.00117221
000250 5d 49 3a 3c d5 e1 36 3d 5d c4 ae 3c 6e d4 06 3d
       0.01137003 0.044648964 0.021333868 0.032917432
000260 37 9e 9d bc 76 e1 9e bb c7 b1 99 3c 88 95 35 bd
       -0.019240482 -0.0048486544 0.018761529 -0.044332057
000270 ab eb 00 bd b9 9c 92 bc 43 fd cc 3c 79 ae 94 bc
       -0.03147475 -0.017896997 0.025023108 -0.018149601
000280 a6 c2 0d bd 35 5b 08 bc cc 70 0e 3c 05 d9 1b 3d
       -0.03460946 -0.008322527 0.008693885 0.038048763
000290 0f e8 2d 3c ab 14 b5 3c 95 a6 a0 3c e3 cd 01 bc
       0.010614409 0.022104582 0.019610683 -0.007922622
0002a0 fb 8c 2a 3c 8a f1 b3 3a d3 f7 33 bd 88 a3 8e 3c
       0.010409589 0.00137286 -0.043937515 0.017411962
0002b0 c9 15 0f 3d 70 e9 90 b9 19 6a 34 3c 75 48 16 3b
       0.034932885 -0.00027639745 0.011011624 0.0022931371
0002c0 c3 84 37 3d a0 af e2 bc a5 75 07 3d 85 d9 17 bd
       0.044804346 -0.027671635 0.03307118 -0.037072677
0002d0 7e d2 1e 3d 82 b7 ab bc f8 d5 10 bd ff b6 17 bd
       0.03877496 -0.020961527 -0.035360307 -0.037039753
0002e0 c9 6b cb bc 66 b3 37 bd 02 ee 63 3b f9 fb 23 3a
       -0.02483167 -0.044848822 0.0034779315 0.00062555034
0002f0 ff 3c c9 3c 77 8e de 3c 70 85 8d 39 1b c4 cc 3c
       0.024565218 0.027167542 0.00026993034 0.024995854
000300 c5 4a 16 3f 69 5c da 3e 4d df ac 3d a9 6c db 3c
       0.5870784 0.42648628 0.08441029 0.026785212
000310 a2 6b 91 be 9c 3d 24 bf 3c 01 c4 be df 6b 4d be
       -0.2840243 -0.6415651 -0.38282192 -0.20060681
000320 00 48 81 3d 5c 54 63 be 60 f9 35 3e a4 f8 cb 3d
       0.06312561 -0.2220015 0.1777091 0.09959534
000330 89 c3 0d bf 39 b5 12 bf 46 ce 8c 3e 27 36 c1 3b
       -0.5537649 -0.57307774 0.27501124 0.005896348
000340 60 c3 5a 3e 51 1e 1b bf 41 8a 46 be 44 8a 20 3c
       0.21363592 -0.60593134 -0.19388677 0.00979859
000350 e4 da e3 3d 2a f2 00 3f ce 5f 4c 3e be a4 e7 3e
       0.111257344 0.50369513 0.19958422 0.45242876
000360 54 03 2e bc 8c ec 87 3e 58 4a 78 3e 01 8a 13 bf
       -0.010620911 0.26547658 0.2424711 -0.5763245
000370 f8 ea 0b bf fa c1 ff bd c0 2e f4 3e 3f 1e b4 be
       -0.5465541 -0.1248817 0.47691917 -0.35179326
000380 0f 49 10 bf 46 1d 1c be 35 c1 14 3f 8f 9f 1e 3f
       -0.5636148 -0.15245542 0.5810731 0.6196222
000390 7e 66 87 3e 41 e8 cc 3e 9f 9f fe 3d ea eb d4 bc
       0.26445383 0.40020946 0.12432789 -0.025991399
0003a0 87 78 ff 3e 66 c6 05 bf d3 32 0b bf 88 d1 46 3e
       0.49896643 -0.52255857 -0.54374427 0.19415867
0003b0 69 e4 15 3f d2 20 e1 3d 46 d1 c8 bd b3 82 ae bd
       0.5855165 0.10992588 -0.09805541 -0.08521023
0003c0 d6 d4 f7 3e dd 49 00 bf 33 b5 f9 3e 4e 1f 0a bf
       0.48404568 -0.50112706 0.48771057 -0.5395402
0003d0 68 00 08 3f 33 ac 54 bd c8 a7 d6 be 04 50 1d bf
       0.5312562 -0.051922034 -0.41924882 -0.6145022
0003e0 2f 14 bf be 8a 30 1e bf 76 36 d6 bd 58 93 3d 3d
       -0.37320086 -0.61792815 -0.10459606 0.046283096
0003f0 b2 4d 0a 3f f1 47 fb 3d 98 b0 0a 3e f1 35 83 3e
       0.54024804 0.12269581 0.13543928 0.25627092

decoder.rnn.bias_ih_l0 f4 [256]
000000 2f a5 4e 3f ea a9 d8 3d fd e8 25 3f 1a 77 61 3d
       0.807208 0.105792835 0.64808637 0.055045225
000010 00 3d 07 3f bb 9f 47 3e 96 39 95 3e 1c 11 0d 3e
       0.52827454 0.19494526 0.29145497 0.13776058
000020 f8 82 ac 3e 0b 9b 0e 3f ba a2 09 3f 13 72 86 3e
       0.3369367 0.55705327 0.53763926 0.26258907
000030 8b d3 0e 3f 11 88 bd 3e f3 0d f2 3e a7 cc d8 3c
       0.5579154 0.37017873 0.47276267 0.026464773
000040 08 3c 9e 3e a3 3d 0c 3f d6 11 12 bd ee 23 3a 3e
       0.30905175 0.5478155 -0.03566154 0.18177769
000050 0d a8 a0 3e 3e 85 08 3f 9a f5 08 3f 1c 42 dd 3e
       0.31378213 0.5332831 0.5349976 0.432145
000060 c6 e1 a2 3c 67 da 62 3e 19 76 20 3e 78 75 dc 3e
       0.019883048 0.22153626 0.1567005 0.43058372
000070 0c 7e 09 3e 8e b4 ef 3e aa 0d 20 3f 21 ce 91 3e
       0.1342699 0.4681744 0.6252085 0.28477576
000080 34 22 d4 3e 76 71 3c 3e 8e f7 1d 3e f8 3e 2b 3f
       0.41432345 0.18402657 0.15426466 0.6689296
000090 98 fc 09 3d c1 ea 14 3f 84 b8 91 3e bd 98 ed 3c
       0.033688158 0.58170706 0.28461087 0.029003495
0000a0 58 ee 7e 3e 3a e2 90 3d 6c 13 1a 3f 4a f1 5f 3e
       0.24895608 0.07074399 0.60185885 0.21869388
0000b0 b5 78 bc 3e a3 77 40 3d 6b c5 bb 3d 1a 5e f8 bd
       0.36810842 0.046989094 0.09168514 -0.121273234
0000c0 83 7b ef 3e 8f e5 f5 3e 4b f2 20 3e cd 1c 19 3f
       0.4677392 0.48026702 0.15717427 0.5980957
0000d0 64 48 84 3e df 1c 1c 3e 98 3c f4 3e 82 84 06 3f
       0.2583648 0.15245388 0.4770248 0.5254594
0000e0 e1 75 10 3f b2 0f fc 3e 8c 68 12 3a c6 c2 92 3d
       0.5642987 0.49230725 0.00055850367 0.07166056
0000f0 43 33 7d 3e ba b0 05 3f 68 10 8c 3d dd 64 9d 3e
       0.24726586 0.5222279 0.06839067 0.30741015
000100 80 fd 8c 3d d2 6e fe 3d 93 ed ed 3d de 9e 08 3e
       0.06884289 0.12423481 0.11617579 0.13341853
000110 11 65 3f 3d f9 55 15 3d 20 c6 4d 3e e5 6c d8 bd
       0.046727244 0.036458943 0.2009511 -0.10567645
000120 f5 8e b4 3d 95 49 53 3e d1 5e 24 3e 5d db b0 3d
       0.088163294 0.20633538 0.16051795 0.0863559
000130 3b 15 86 3d 7d ed 9a 3c 8e 28 33 3b 19 37 83 3a
       0.06547018 0.018912071 0.0027337405 0.0010010927
000140 25 c5 83 bd 81 bf c7 3d c1 c4 f0 3d 39 38 94 3e
       -0.06434087 0.09753323 0.11756278 0.28949144
000150 14 8b d9 3d 35 cd 7d 3d c2 c4 8f bc 96 95 df 3c
       0.1062223 0.06196328 -0.017549876 0.027293008
000160 cf 7b 02 3e 07 a5 28 bd d8 57 7d bd 14 fa cf bd
       0.12742542 -0.041173007 -0.061851352 -0.101551205
000170 f0 14 8b bd ab d5 69 3d 20 60 b8 3d 80 8d 75 bd
       -0.06791103 0.057088535 0.090027094 -0.059949398
000180 e2 15 c3 bc 38 8e f2 3d cd c2 0e bd 47 97 27 3c
       -0.023814145 0.11843532 -0.034853745 0.010228938
000190 63 af d4 bc ec 6f aa 3d e2 25 f4 3d 7d 59 6f bd
       -0.025962537 0.08322129 0.11921288 -0.058434952
0001a0 26 09 ed 3d 5e 5c 36 3e da 0c e7 3d 10 0a ef 3d
       0.115740106 0.17808673 0.11281748 0.11671841
0001b0 b6 bf 0c 3c 05 ef c3 3e 6e 34 b9 3e 0a 45 d0 3e
       0.008590629 0.38268295 0.36172813 0.40677673
0001c0 ef 2a 07 3e f2 6d 5a 3d 99 86 84 3d 84 08 43 be
       0.13199972 0.05332751 0.06470985 -0.19046217
0001d0 35 f4 a9 3c 41 b3 0d 3e bf 1f 92 3d 1a de 83 bd
       0.02074633 0.13837911 0.07134961 -0.06438847
0001e0 7e b4 3b 3d f2 aa cc 3d 11 db aa 3d 2d 2a d7 3e
       0.045826428 0.09993543 0.08342565 0.42024365
0001f0 96 e1 45 bc a5 e6 ce bd c6 a2 4f 3c f3 19 0f be
       -0.01207771 -0.10102586 0.012673086 -0.13974743
000200 bf b1 2f 3e 1c 7b 17 3e ac c1 be 3e 08 5d 43 3e
       0.17157649 0.14793056 0.37257135 0.19078457
000210 4b 59 ba be 73 b9 9f bd 8d 06 69 be 7e 7e 08 be
       -0.3639625 -0.077990435 -0.22756405 -0.13329503
000220 df 71 8b bd 69 0b b2 be 0b 96 c6 3e 34 b8 2c be
       -0.068088286 -0.3477433 0.3878635 -0.16867143
000230 14 ed 99 be 3b 89 ee bd 69 6c bd 3e 65 91 28 3e
       -0.3006369 -0.116472684 0.36996773 0.16461714
000240 29 79 b7 3e 94 02 a4 be 24 98 11 3d e0 b0 df 3d
       0.35834625 -0.32033217 0.035545483 0.10922408
000250 d8 08 b8 bc b9 1c 9c 3e 62 ab c2 3e 8e 34 a2 3e
       -0.022465155 0.30490664 0.3802138 0.3168072
000260 74 a9 02 be 87 f8 0f bd c7 dd a7 3e 87 ae 21 be
       -0.12759954 -0.035149124 0.3278639 -0.15789233
000270 9e dc 9d be ef d2 a9 be d0 eb a2 3e 42 81 3d bd
       -0.3083238 -0.33168742 0.31820536 -0.046265848
000280 86 17 12 be 8d 5e 91 be 44 cb 9a bd 9d cd f7 3d
       -0.14266786 -0.2839245 -0.07558301 0.120997645
000290 5c a7 8d 3e 6a 1d a0 3e 48 df 6f 3e 0a 98 de be
       0.27666748 0.3127244 0.23425019 -0.43475372
0002a0 f5 6a 5a 3c cd 32 e3 3d c6 7a 2a be ff 69 8d 3e
       0.013331165 0.11093674 -0.16648397 0.2761993
0002b0 c8 fa 1f 3e 9f cd 75 3d b6 6a 10 bd f3 80 ad bd
       0.15623009 0.06001055 -0.035258017 -0.08471861
0002c0 89 cd 9e 3e 50 56 a2 be 81 0a f8 3d 0e e2 ac be
       0.31016186 -0.31706476 0.121113785 -0.33766216
0002d0 ad e0 35 3e f6 5f b1 be da e6 ba be 1f fa 82 be
       0.17761488 -0.34643525 -0.3650425 -0.25581452
0002e0 fe ac b0 be 21 80 a6 be 06 40 dd 3c dc d1 cd bd
       -0.34506983 -0.3251963 0.027008068 -0.10049793
0002f0 ce e8 29 3e e4 ca af 3e 04 39 bc 3d 20 f5 62 bd
       0.16592714 0.3433448 0.09190562 -0.05540955
000300 7f 27 76 3e ad ee 80 3e b9 b9 85 3e 3a 59 1b 3e
       0.24038504 0.25182095 0.26118258 0.15170756
000310 54 35 5b 3e a7 19 67 3e 38 96 e0 3c 56 d2 15 3e
       0.21407062 0.2256838 0.02741538 0.14631018
000320 a9 4e d6 3d 9b 16 81 3d a6 75 26 3e 70 d5 2a 3e
       0.10464222 0.0630314 0.16255817 0.16682982
000330 ae fd b1 3e d5 18 d1 3e 7c 91 a8 3d 07 bb 33 3e
       0.34763855 0.40839258 0.08230874 0.17551814
000340 b7 2c 05 3d ca 35 08 3f 83 0e 25 3e 92 34 96 3e
       0.032513347 0.53207076 0.16118817 0.29336983
000350 51 74 80 bc 4d 87 12 3f a1 2c 2c 3e ff 07 b4 3d
       -0.015680464 0.572377 0.168139 0.08790588
000360 27 48 67 3e 88 43 77 3e 6b d6 be 3c d4 35 f3 3e
       0.22586118 0.24146855 0.023295602 0.47502005
000370 f8 d6 df 3d 51 48 2d 3e d9 82 1a 3d e6 24 98 3e
       0.10929674 0.16922118 0.037722442 0.2971565
000380 35 25 cf 3e 67 df fe 3d 82 6a 8c 3e d6 ac 99 3e
       0.40458074 0.12444954 0.2742501 0.30014676
000390 e0 cf 3d 3d 22 98 2a 3e 65 dc 42 3e 71 54 3b 3d
       0.046340823 0.16659597 0.19029386 0.045734826
0003a0 46 0c 46 3e d4 74 bd 3e 13 8e fc 3e 62 85 47 3e
       0.1934062 0.37003195 0.49327144 0.19484475
0003b0 df aa c7 3e f2 34 9c 3e 1b 7a 72 3e f5 44 a1 3e
       0.38997552 0.30509144 0.23679392 0.31497923
0003c0 9b 31 15 3f ef 8e 02 3e 96 61 83 3e 8b 79 dd 3e
       0.58278817 0.12749837 0.2566039 0.43256792
0003d0 f4 e5 b9 3e db 96 37 3e ca c5 8a 3e 98 1a d9 3e
       0.36308253 0.1792864 0.27104026 0.42403102
0003e0 1f 2c 63 3c d1 da 24 3f 21 0a a9 3e 5a 6a 72 3e
       0.0138655 0.6439639 0.3301554 0.23673382
0003f0 58 10 ba 3e 49 a0 73 3e 56 89 b1 3d d1 b4 a2 3e
       0.36340594 0.23791613 0.08668773 0.31778577
