detector_dev/Process_I24_simulations/models/cnn_lstm_ae_ring_50percentGPS.pt (torch, 129255 bytes, 12 tensors)

encoder.cnn.weight f4 [8, 4, 16]
0.04814694 0.04855196 0.049420774 0.050112206 0.05070429 0.051846355 0.05236803 0.0530643
0.053102475 0.05405436 0.05367873 0.0527461 0.052529037 0.05277664 0.053541552 0.053691715
-0.008787871 -0.019697797 -0.03096864 -0.042233836 -0.05435145 -0.06660817 -0.07742029 -0.086398736
-0.09522835 -0.10201785 -0.10442448 -0.10067452 -0.09327351 -0.08598188 -0.08251677 -0.08193788
0.058656055 0.059245083 0.059853703 0.06052695 0.06090255 0.061396003 0.061749283 0.06198432
0.062309783 0.062483437 0.0625209 0.06254624 0.06251719 0.06255679 0.06242135 0.06218349
0.047074623 0.047928322 0.04797894 0.04807464 0.047824893 0.048435442 0.048706185 0.04777112
0.04865951 0.04786557 0.047581114 0.047606576 0.047569286 0.04731729 0.04637684 0.04672839
0.067180954 0.06676552 0.06568887 0.06497301 0.0637937 0.062475495 0.06095081 0.059292775
0.05752749 0.055582345 0.05347772 0.05132639 0.048854403 0.04629497 0.044101045 0.041510906
-0.088449545 -0.112719834 -0.13754332 -0.16084772 -0.1847442 -0.208676 -0.23221211 -0.25469872
-0.278096 -0.29997692 -0.32214716 -0.34343618 -0.36495462 -0.38418242 -0.4020804 -0.42162415
0.07485484 0.07313158 0.07123496 0.069366194 0.06747478 0.06555164 0.06358668 0.061504345
0.059449572 0.057402954 0.055367723 0.05322717 0.051146567 0.049101315 0.046882458 0.044944786
0.020880662 0.018538408 0.016962059 0.014882541 0.012741358 0.010522276 0.0082459655 0.0059612184
0.0030814072 0.001063535 -0.0012974652 -0.0037721412 -0.0065845214 -0.008828637 -0.011483076 -0.014148749
0.29211923 0.29199246 0.2917718 0.2914457 0.29108736 0.29063302 0.29007533 0.28919318
0.2880573 0.2866706 0.28493857 0.28315684 0.2815274 0.2801386 0.27891153 0.27794683
-0.022277934 -0.019240707 -0.01539067 -0.011631466 -0.0076406095 -0.0022625644 0.0032517384 0.010072016
0.017252114 0.025411982 0.034393206 0.04404826 0.053471826 0.06275582 0.07152622 0.079465896
0.17471425 0.1744434 0.17466709 0.17464991 0.17421438 0.17469569 0.17460604 0.17464803
0.1742744 0.17402244 0.17382182 0.17411654 0.17387412 0.17334945 0.17376287 0.17308591
0.27837417 0.27692413 0.2754742 0.27402827 0.2726103 0.27126083 0.26990482 0.26856536
0.2672731 0.2660069 0.26484853 0.26360554 0.26246938 0.26126266 0.26019618 0.25908804
0.06666887 0.049032263 0.062135614 0.07279515 0.05283661 0.0402656 0.066989966 0.019485414
0.039028347 0.025932152 0.052287824 0.055671744 0.022935726 0.048260957 0.044115208 0.043915812
-0.148186 -0.17502831 -0.20323639 -0.22917801 -0.25475657 -0.2799417 -0.30508766 -0.3301358
-0.35497758 -0.3794055 -0.40368485 -0.42813054 -0.45302495 -0.47834042 -0.5027976 -0.5235457
-0.013456903 0.074108295 0.10633531 0.04502742 0.07371527 0.077566154 0.07324255 0.0847129
0.063928425 0.10304546 -0.016852437 -0.0028029562 -0.009912099 0.03601201 0.095183186 -0.005232537
0.04745137 0.050422568 0.057799045 0.03930952 0.013434579 0.043735065 0.039702926 0.043154944
0.012089221 0.046573628 0.009832114 0.0445586 0.015397152 0.0036090994 0.0054308064 0.0061511947
00000000: ba35 453d 6cde 463d 706d 4a3d 7542 4d3d
00000010: 4daf 4f3d d85c 543d dc7f 563d f459 593d
00000020: fb81 593d 1b68 5d3d 3ade 5b3d 4b0c 583d
00000030: b028 573d 512c 583d 634e 5b3d d8eb 5b3d
00000040: 01fb 0fbc 465d a1bc f2b1 fdbc 63fd 2cbd
00000050: a09f 5ebd dd69 88bd 878e 9ebd d2f1 b0bd
00000060: 1507 c3bd bcee d0bd 80dc d5bd 712e cebd
00000070: 2f06 bfbd 4517 b0bd 8dfe a8bd 0ccf a7bd
00000080: 5541 703d f9aa 723d 2829 753d 1beb 773d
00000090: f474 793d 607a 7b3d d1ec 7c3d 45e3 7d3d
000000a0: 8b38 7f3d a2ee 7f3d f50a 803d 3e18 803d
000000b0: 0309 803d c61d 803d 88ad 7f3d 1db4 7e3d
000000c0: 52d1 403d 7d50 443d 9185 443d eae9 443d
000000d0: 09e4 433d 3e64 463d 2380 473d a6ab 433d
000000e0: 324f 473d b00e 443d 6ae4 423d 1dff 423d
000000f0: 03d8 423d c6cf 413d a4f5 3d3d 4566 3f3d
00000100: 2b96 893d 5cbc 883d e387 863d 9210 853d
00000110: 45a6 823d 4ee6 7f3d 8ea7 793d fbdc 723d
00000120: f2a1 6b3d 50aa 633d 740b 5b3d 9f3b 523d
00000130: 8e1b 483d cb9f 3d3d 4ca3 343d 5707 2a3d
00000140: 0925 b5bd a8d9 e6bd 28d8 0cbe 44b5 24be
00000150: 952d 3dbe 29af 55be 03c9 6dbe df67 82be
00000160: 9962 8ebe 9396 99be 79f0 a4be ded6 afbe
00000170: 55db babe 8fb3 c4be 7bdd cdbe 1fdf d7be
00000180: 7f4d 993d 03c6 953d a2e3 913d dd0f 8e3d
00000190: 3830 8a3d f03f 863d bc39 823d fbeb 7b3d
000001a0: 6581 733d 5c1f 6b3d 44c9 623d bc04 5a3d
000001b0: 107f 513d 761e 493d d207 403d 0618 383d
000001c0: ec0d ab3c dcdd 973c 04f4 8a3c e7d5 733c
000001d0: 21c1 503c a065 2c3c 161a 073c 5356 c33b
000001e0: 6ff1 493b 5066 8b3a b50f aaba 0736 77bb
000001f0: f8c2 d7bb fda5 10bc 8323 3cbc 28d0 67bc
00000200: a790 953e 0980 953e 1d63 953e 5f38 953e
00000210: 6709 953e dacd 943e c184 943e 2111 943e
00000220: 3f7c 933e 7dc6 923e 78e3 913e eff9 903e
00000230: 5c24 903e 546e 8f3e 7ecd 8e3e 0c4f 8e3e
00000240: 3780 b6bc b09e 9dbc 2629 7cbc e891 3ebc
00000250: 145e fabb 8847 14bb 1e1b 553b 1905 253c
00000260: 4e54 8d3c ca2c d03c e4df 0c3d f36b 343d
00000270: 4605 5b3d 2086 803d 577c 923d 04bf a23d
00000280: 4be8 323e 4aa1 323e eedb 323e 6dd7 323e
00000290: 4165 323e 6de3 323e edcb 323e efd6 323e
000002a0: fd74 323e f032 323e 59fe 313e 9b4b 323e
000002b0: 0f0c 323e 8582 313e e5ee 313e 6f3d 313e
000002c0: 0f87 8e3e 00c9 8d3e f40a 8d3e 6f4d 8c3e
000002d0: 9493 8b3e b3e2 8a3e f730 8a3e 6681 893e
000002e0: 05d8 883e 0e32 883e 3a9a 873e 4ef7 863e
000002f0: 6362 863e 38c4 853e 6f38 853e 30a7 843e
00000300: b089 883d 0ed6 483d ea81 7e3d a015 953d
00000310: 336b 583d 8bed 243d 0932 893d e09f 9f3c
00000320: 30dc 1f3d aa6f d43c c22b 563d 0e08 643d
00000330: b4e3 bb3c 48ad 453d 26b2 343d 11e1 333d
00000340: 12be 17be 9f3a 33be 331d 50be a4ad 6abe
00000350: 746f 82be 8554 8fbe 7334 9cbe 8f07 a9be
00000360: 9fbf b5be 7041 c2be c8af cebe ed33 dbbe
00000370: e3f2 e7be 09e9 f4be 58b7 00bf 1707 06bf
00000380: 587a 5cbc 17c6 973d 54c6 d93d ac6e 383d
00000390: 08f8 963d 01db 9e3d 3100 963d f57d ad3d
000003a0: e8ec 823d 8009 d33d 1f0e 8abc cdb1 37bb
000003b0: 5b66 22bc 5481 133d 67ef c23d b475 abbb
000003c0: 5e5c 423d e587 4e3d b1be 6c3d 0503 213d
000003d0: b51c 5c3c 8a23 333d 899f 223d 3dc3 303d
000003e0: de11 463c fdc3 3e3d e016 213c 1483 363d
000003f0: 5644 7c3c a486 6c3b e8f4 b13b f68f c93b

encoder.cnn.bias f4 [8]
0.0026845527 -0.10638508 0.25189197 -0.07503672 0.06673329 -0.08595359 -0.056190543 -0.29587272
00000000: 52ef 2f3b 6ce0 d9bd fcf7 803e daac 99bd
00000010: 77ab 883d 7008 b0bd 0e28 66bd a17c 97be

encoder.rnn.weight_ih_l0 f4 [128, 8]
0.29852834 0.21221372 0.27080244 0.24567148 0.26915294 0.18236327 0.009933844 0.23288646
0.06799587 0.071595065 0.07189089 0.07253769 0.07566951 0.08003628 0.08556128 0.09183263
-0.2920799 -0.20731068 -0.29894838 -0.25333932 -0.19722922 -0.16308898 -0.24233173 -0.07076402
0.0076515274 -0.009874453 0.04643195 -0.048994742 0.023026064 0.09127226 -0.02331698 -0.039388865
0.030218434 0.17684147 0.04050537 0.042707745 0.09582909 0.0233428 -0.032289833 -0.0665877
-0.026996605 -0.08623537 0.047307584 -0.10745274 -0.023358017 -0.09680128 -0.07668247 0.1513473
0.15856111 0.3752387 0.21623354 0.30537882 0.2755367 0.17231832 0.17437407 0.34871256
0.1975843 0.2661134 0.0040800306 0.03955499 0.24682662 0.25528044 -0.059684787 -0.05394053
0.27083862 0.21584268 0.20296514 0.13523541 0.2737033 0.25301486 0.12767313 0.1960838
0.19270515 0.16920269 0.16931887 0.14561926 0.14792916 0.13956335 0.12755026 0.09926788
-0.04933486 -0.014297372 0.23819675 -0.030492358 0.11112454 0.0014355164 -0.034033787 0.13552983
-0.042224158 0.2514541 0.14432333 0.23048948 -0.018367901 0.08745118 -0.038424745 0.18227385
0.070067234 0.177336 0.06572918 -0.00021998785 0.13465393 0.14906451 0.21512358 0.0075415466
0.18802355 0.16400741 0.10990562 0.20506014 0.12755196 0.013659067 0.01657983 -0.0019963072
0.08758511 -0.10445349 0.005910198 0.089067 -0.07847242 0.13342749 0.18019742 -0.1292108
-0.019052135 -0.0753743 -0.13003656 -0.074995086 -0.12573259 -0.109890975 0.1126642 0.025266798
-0.20103152 -0.095338725 -0.0707914 -0.006306549 -0.21942751 -0.1354844 -0.058159556 -0.09001802
-0.021754028 0.05744676 -0.051666014 -0.07470651 0.16371022 0.13166866 -0.031310335 0.0780839
0.00962023 0.041471764 0.21504417 0.03680485 0.0060130116 0.2500257 0.21572936 0.09242104
0.009825331 0.0005704519 -0.024160188 0.15539442 0.09339435 0.0017546722 0.09592014 0.056589257
-0.028563403 0.004499596 0.09029241 0.054306652 -0.003609783 0.11906179 -0.019212004 0.09884057
-0.061653595 -0.09399888 -0.30298838 -0.074923515 -0.1518906 -0.30697098 -0.19145736 -0.28990054
0.039523076 0.16231903 0.113639176 0.13788375 0.033061873 0.025702402 0.019020485 0.012374763
0.030708622 0.032058384 0.03169459 0.032483786 0.03288885 0.034633227 0.03438192 0.03523047
0.1241753 0.17352208 0.010098029 0.15479971 -0.043007422 -0.050019242 -0.087413825 0.16042101
-0.15472002 -0.062086735 -0.15562625 -0.15696333 -0.06433704 -0.15717837 -0.034131125 -0.16661437
-0.036103636 0.0060658115 0.21843022 -0.015526818 0.26352832 0.07015187 0.240384 0.07609596
-0.041786537 0.03756177 0.057787903 -0.07590996 -0.08519811 0.059998646 0.15393305 0.09462799
-0.05831612 0.041838635 0.014144786 0.039437357 -0.037945062 -0.0070484495 0.08361801 0.015984608
0.00893357 0.016341938 0.0356663 0.010788637 0.027094504 0.03950682 0.04656411 0.050221805
0.06495338 -0.013430366 0.12196044 0.08760318 0.123627424 0.020649742 0.08713413 -0.019614603
-0.06892314 0.042668015 0.23146991 0.05549117 0.16057771 -0.061482485 0.004564512 -0.009314812
00000000: b5d8 983e 8e4e 593e 9ea6 8a3e 4e91 7b3e
00000010: 6ace 893e 70bd 3a3e 90c1 223c ca79 6e3e
00000020: 6b41 8b3d 6fa0 923d 883b 933d a48e 943d
00000030: 9ef8 9a3d 10ea a33d c13a af3d bf12 bc3d
00000040: 7f8b 95be 4049 54be c30f 99be b1b5 81be
00000050: 75f6 49be cc00 27be cf25 78be baec 90bd
00000060: aab9 fa3b 75c8 21bc 6e2f 3e3d b6ae 48bd
00000070: 28a1 bc3c f3ec ba3d 4003 bfbc 3856 21bd
00000080: a68c f73c ee15 353e f5e8 253d 51ee 2e3d
00000090: 0b42 c43d 6639 bf3c 5842 04bd 225f 88bd
000000a0: fc27 ddbc 2b9c b0bd 99c5 413d 2f10 dcbd
000000b0: 5059 bfbc c03f c6bd b30b 9dbd c9fa 1a3e
000000c0: d85d 223e 491f c03e 536c 5d3e 9d5a 9c3e
000000d0: 2513 8d3e 3774 303e 1e8f 323e 748a b23e
000000e0: 8a53 4a3e 0440 883e c7b1 853b 6a04 223d
000000f0: 1ec0 7c3e 1eb4 823e 0978 74bd bff0 5cbd
00000100: 5cab 8a3e dd05 5d3e 18d6 4f3e 277b 0a3e
00000110: d722 8c3e 2a8b 813e bfbc 023e 31ca 483e
00000120: 8054 453e 7843 2d3e ed61 2d3e 371d 153e
00000130: be7a 173e b2e9 0e3e 899c 023e f54c cb3d
00000140: 5a13 4abd 863f 6abc d9e9 733e 1ccb f9bc
00000150: 4395 e33d f027 bc3a 0367 0bbd 55c8 0a3e
00000160: 3df3 2cbd 97be 803e 7fc9 133e 6f05 6c3e
00000170: 4878 96bc 9b19 b33d 4463 1dbd ffa5 3a3e
00000180: 697f 8f3d 9297 353e 059d 863d 8aac 66b9
00000190: b8e2 093e 5ea4 183e 5b49 5c3e 141f f73b
000001a0: 3f89 403e 8ff1 273e 3316 e13d 49fb 513e
000001b0: fb9c 023e 48ca 5f3c 6cd2 873c 7ad4 02bb
000001c0: d25f b33d b6eb d5bd 56aa c13b c268 b63d
000001d0: 26b6 a0bd 37a1 083e ac85 383e d64f 04be
000001e0: 3913 9cbc d75d 9abd 4e28 05be 0697 99bd
000001f0: 0bc0 00be 850e e1bd 7dbc e63d 51fc ce3c
00000200: 35db 4dbe f340 c3bd 15fb 90bd 2ba7 cebb
00000210: 9bb1 60be 6cbc 0abe b738 6ebd 5e5b b8bd
00000220: 8135 b2bc 4b4d 6b3d be9f 53bd baff 98bd
00000230: a7a3 273e 26d4 063e 443f 00bd 74ea 9f3d
00000240: 2b9e 1d3c 4cde 293d 8a34 5c3e afc0 163d
00000250: cc08 c53b 5e03 803e 28e8 5c3e 3e47 bd3d
00000260: 6dfa 203c 618a 153a 96eb c5bc b71f 1f3e
00000270: 8945 bf3d 07fd e53a c771 c43d 23ca 673d
00000280: ccfd e9bc 5971 933b 3aeb b83d a770 5e3d
00000290: 1c92 6cbb abd6 f33d 7e62 9dbc ed6c ca3d
000002a0: 7b88 7cbd 7c82 c0bd 4b21 9bbe 8071 99bd
000002b0: 3689 1bbe 4d2b 9dbe 660d 44be d86d 94be
000002c0: f3e2 213d f636 263e a8bb e83d 6631 0d3e
000002d0: e36b 073d d88d d23c d9d0 9b3c 85bf 4a3c
000002e0: a690 fb3c a74f 033d 30d2 013d b80d 053d
000002f0: 75b6 063d 92db 0d3d 0ed4 0c3d d34d 103d
00000300: 9f4f fe3d c6af 313e 3472 253c d183 1e3e
00000310: 8d28 30bd fae0 4cbd 0506 b3bd 6845 243e
00000320: ed6e 1ebe a94e 7ebd 7d5c 1fbe ffba 20be
00000330: 23c3 83bd 5ef3 20be 14cd 0bbd f59c 2abe
00000340: 68e1 13bd b7c3 c63b 2cac 5f3e 3264 7ebc
00000350: 2fed 863e c9ab 8f3d 3927 763e 33d8 9b3d
00000360: 5c28 2bbd 5fda 193d 02b3 6c3d ae76 9bbd
00000370: 597c aebd 24c1 753d a0a0 1d3e 52cc c13d
00000380: e2dc 6ebd fd5e 2b3d 88bf 673c 1189 213d
00000390: 486c 1bbd aef6 e6bb eb3f ab3d 27f2 823c
000003a0: 1c5e 123c 87df 853c d416 123d d3c2 303c
000003b0: 4bf5 dd3c e7d1 213d 02ba 3e3d 61b5 4d3d
000003c0: 4706 853d 0a0b 5cbc 65c6 f93d 4c69 b33d
000003d0: 6030 fd3d a629 a93c 6173 b23d ceae a0bc
000003e0: 9327 8dbd a8c4 2e3d 7306 6d3e b64a 633d
000003f0: 7c6e 243e 0fd5 7bbd e791 953b 279d 18bc

encoder.rnn.weight_hh_l0 f4 [128, 32]
0.04893482 -0.26323292 0.29833034 0.67672276 -0.0646269 -0.37020987 0.020746961 -0.14881966
0.08404913 -0.31724688 -0.3288347 -0.16821693 -0.17885071 0.041419875 -0.15929167 0.36632276
0.049656115 0.38149074 0.027257226 0.064562 -0.3235155 -0.21876366 -0.024650287 -0.13392368
0.30550855 0.6224434 -0.36163288 -0.07588157 -0.023993919 -0.33822381 0.0585791 0.14103164
0.06867118 0.25753954 -0.002526681 -0.0010736778 0.16142431 0.10285729 -0.10050528 0.014704121
-0.32814157 0.030369151 -0.09203028 -0.017983574 0.18307224 0.38928545 0.038035333 -0.032907825
-0.044783216 0.02278769 -0.0053960173 -0.13214345 -0.16795023 0.006597983 -0.23704483 -0.30132738
0.04306696 -0.13577756 -0.030053563 -0.148235 0.026562145 -0.13775569 0.04541909 -0.10148919
0.13848962 0.04557936 0.08485888 -0.38179505 -0.24967217 0.16179326 -0.22226043 -0.001131736
-0.11844466 0.015664434 -0.23419458 0.039637573 -0.038825314 -0.2971416 0.16267979 0.26916382
0.027887188 0.24561836 -0.22043838 -0.15157191 0.13538432 -0.37281537 -0.14019586 0.25190967
0.24568214 0.16909325 0.3003507 0.078237824 -0.08089816 0.3065664 0.18139426 -0.006237654
0.3579603 -0.15000097 0.038789734 0.17932534 0.24652356 -0.290286 0.13399446 0.041187
0.111416325 0.022116708 -0.04062174 0.02727024 -0.5378693 0.19686458 -0.0055435197 0.23160855
0.13310869 0.24828385 -0.27066487 0.56447166 -0.18455704 -0.3941843 -0.005218679 -0.12597832
0.034843188 0.0045665395 -0.19819063 -0.053462524 -0.2066129 -0.2000858 -0.24444431 0.36069775
-0.06696828 -0.20747495 0.08088922 0.4059308 -0.047709323 -0.3728218 0.097726546 -0.15962695
0.2094307 -0.2946551 -0.22395389 0.03173617 -0.1439812 0.30391404 -0.15297201 0.36503404
-0.024644028 0.15628405 0.084558524 -0.0199585 -0.1129868 -0.10011034 0.10594043 -0.18484208
0.1178273 0.26229942 -0.24551092 -0.16251236 0.0629273 -0.13916133 -0.0663901 -0.02838305
0.32940274 -0.4179027 0.5329316 0.3551845 0.47962475 -0.35360032 0.19676751 -0.27498984
0.2686574 -0.152078 -0.63674897 -0.3313242 -0.18372656 0.43274927 -0.20184901 0.45550758
0.4393317 0.5386472 -0.17466599 0.44265717 -0.41810167 -0.49244824 -0.0064105247 -0.23920795
0.5873956 0.3335275 -0.1955773 -0.35586298 -0.2017447 -0.19766474 -0.5239821 0.32481673
0.17926931 0.058440764 0.21241647 0.2923496 0.031214537 -0.07788374 -0.19208738 0.16599835
-0.14792453 -0.2701558 -0.30786884 -0.07374624 -0.05971473 0.24675728 -0.013403578 0.26020825
0.053669233 0.37280893 -0.013551036 0.068238474 -0.004646244 -0.18179531 -0.069487505 -0.22018199
0.10840659 0.26103023 -0.284412 -0.20289883 0.10278004 -0.05395409 -0.19299762 0.035092585
-0.32679558 -0.06279174 0.2415567 0.0034865984 -0.032340024 -0.6045507 0.30495006 0.118049115
0.092491396 -0.39958668 -0.16717185 -0.09255123 0.34268528 0.09185425 -0.540943 0.014922001
0.021544248 -0.034161855 0.23894884 0.05242435 -0.27472413 -0.091255225 0.14087878 0.09845226
-0.047549903 0.0707948 -0.070629135 -0.20093937 -0.5981428 -0.05821945 0.32517928 -0.051481634
00000000: e16f 483d 77c6 86be c1be 983e b43d 2d3f
00000010: 1c5b 84bd 268c bdbe 88f5 a93c 2e64 18be
00000020: f321 ac3d 2f6e a2be 065d a8be 0f41 2cbe
00000030: a424 37be e3a7 293d 5b1d 23be a88e bb3e
00000040: 3664 4b3d c152 c33e 8c4a df3c 1539 843d
00000050: d3a3 a5be 9503 60be 66ef c9bc 4a23 09be
00000060: 9e6b 9c3e 7358 1f3f f227 b9be cc67 9bbd
00000070: e58e c4bc ac2b adbe a3f0 6f3d 996a 103e
00000080: 7aa3 8c3d 39dc 833e ac96 25bb a6ba 8cba
00000090: 6a4c 253e d8a6 d23d b6d5 cdbd 8ee9 703c
000000a0: 2c02 a8be bac8 f83c 5f7a bcbd 4a52 93bc
000000b0: 4a77 3b3e 6c50 c73e f0ca 1b3d 5bca 06bd
000000c0: 9b6e 37bd 40ad ba3c 13d1 b0bb 9d50 07be
000000d0: 25fb 2bbe e533 d83b e1bb 72be 9547 9abe
000000e0: fb66 303d 4609 0bbe e432 f6bc eaca 17be
000000f0: db98 d93c d40f 0dbe 5e09 3a3d 90d9 cfbd
00000100: 39d0 0d3e 6cb1 3a3d 7eca ad3d a47a c3be
00000110: 10aa 7fbe 22ad 253e 3d98 63be c256 94ba
00000120: 1d93 f2bd b352 803c b4d0 6fbe 025b 223d
00000130: 4b07 1fbd f222 98be 8895 263e d7cf 893e
00000140: ac73 e43c 6183 7b3e 99ba 61be ab35 1bbe
00000150: 30a2 0a3e a8e1 bebe 818f 0fbe 4efa 803e
00000160: 1994 7b3e c826 2d3e 91c7 993e 273b a03d
00000170: efad a5bd 45f6 9c3e 6bbf 393e 3c65 ccbb
00000180: 9346 b73e db99 19be fce1 1e3d 10a1 373e
00000190: ac70 7c3e 5ea0 94be d835 093e b3b3 283d
000001a0: 3e2e e43d 192e b53c fb62 26bd d765 df3c
000001b0: cdb1 09bf de96 493e 6aa6 b5bb cb2a 6d3e
000001c0: a54d 083e 1f3e 7e3e 9694 8abe 3781 103f
000001d0: 85fc 3cbe 86d2 c9be 7401 abbb 7600 01be
000001e0: bbb7 0e3d e9a2 953b 7cf2 4abe 85fb 5abd
000001f0: 5592 53be 4be3 4cbe 9c4f 7abe 60ad b83e
00000200: aa26 89bd 5074 54be 3fa9 a53d 29d6 cf3e
00000210: da6a 43bd 80e2 bebe db24 c83d 3f75 23be
00000220: 0075 563e 09dd 96be 2b54 65be c9fd 013d
00000230: cf6f 13be 9f9a 9b3e b2a4 1cbe bee5 ba3e
00000240: 46e2 c9bc ed08 203e 052d ad3d 0280 a3bc
00000250: a065 e7bd a606 cdbd 4cf7 d83d 3e47 3dbe
00000260: 714f f13d 1c4c 863e 3767 7bbe a469 26be
00000270: 07e0 803d 4f80 0ebe 88f7 87bd 9283 e8bc
00000280: 7aa7 a83e 58f7 d5be 356e 083f beda b53e
00000290: 6091 f53e 1a0b b5be 6c7d 493e 78cb 8cbe
000002a0: 768d 893e 56ba 1bbe fb01 23bf 53a3 a9be
000002b0: d122 3cbe 5091 dd3e 82b1 4ebe 4a38 e93e
000002c0: 16f0 e03e c8e4 093f a4db 32be f6a3 e23e
000002d0: 6c11 d6be 2d22 fcbe 610f d2bb eef2 74be
000002e0: 8f5f 163f 1ec4 aa3e 6a45 48be ac33 b6be
000002f0: 2a96 4ebe a068 4abe b123 06bf 614e a63e
00000300: 6092 373e 955f 6f3d b483 593e d9ae 953e
00000310: a1b5 ff3c 8381 9fbd 8eb2 44be 79fb 293e
00000320: 8779 17be dc51 8abe fca0 9dbe 4508 97bd
00000330: 6f97 74bd f1ad 7c3e ae9a 5bbc 043a 853e
00000340: 45d4 5b3d d0e0 be3e 2a05 5ebc 9dc0 8b3d
00000350: 853f 98bb 8d28 3abe 774f 8ebd 6377 61be
00000360: 4604 de3d c1a5 853e 739e 91be b6c4 4fbe
00000370: 577e d23d f7fe 5cbd 2ba1 45be 3ebd 0f3d
00000380: c051 a7be f598 80bd a45a 773e 6a7f 643b
00000390: f976 04bd d6c3 1abf 6a22 9c3e bcc3 f13d
000003a0: 216c bd3d a096 ccbe 192f 2bbe 808b bdbd
000003b0: 7274 af3e 151e bc3d 3e7b 0abf 697b 743c
000003c0: 907d b03c 4ded 0bbd 01af 743e eaba 563d
000003d0: a4a8 8cbe 05e4 babd 8742 103e 57a1 c93d
000003e0: b0c3 42bd ddfc 903d 02a6 90bd 0dc3 4dbe
000003f0: e31f 19bf 8577 6ebd e67d a63e 68de 52bd

encoder.rnn.bias_ih_l0 f4 [128]
0.19443932 0.114440426 -0.22964457 0.103623874 0.17507598 0.43763635 0.033455323 0.031200996
0.056513302 -0.09897922 -0.017259514 0.4049933 0.10109442 -0.10517824 0.36947745 -0.06673946
0.20468357 0.43105426 0.23157395 0.23243281 0.0962092 -0.12130425 -0.043695312 0.057579983
0.123775944 -0.04779256 0.1742941 0.19494955 0.2393464 0.11683264 0.052211143 0.33268464
0.3437661 0.16030243 -0.19539338 0.16649087 0.36541614 0.24523215 0.32322842 0.30362847
0.15190823 0.034787174 -0.033549115 0.09173204 0.109682605 -0.14415653 0.10698631 -0.2592015
0.22683989 -0.3284058 0.18830575 0.28931132 0.18534075 -0.4186355 0.010396234 0.1936465
0.1528408 -0.3487767 -0.09685199 0.17355987 0.0431219 0.22475077 0.074693404 0.5604059
-0.10238401 -0.0059029665 0.07271626 0.053282917 -0.11576645 -0.13047174 0.122238785 0.10258423
0.071683146 -0.05430697 -0.2244676 0.021527207 -0.014363314 0.07928337 0.0993221 0.14103529
-0.2647011 0.115089655 0.17588127 -0.22010568 0.06077796 0.057637047 0.032537006 -0.092130095
-0.015414426 0.33723837 0.16548 -0.1965033 -0.1342838 -0.18543175 -0.099053286 -0.4339735
0.021731446 0.12345168 -0.11225426 -0.015085239 0.024399215 0.01794178 0.578418 -0.10228291
0.0039037918 -0.16959545 -0.59036255 0.30714566 0.33627176 -0.11995049 0.40302607 -0.34950158
0.58717585 -0.14408635 0.28871134 0.118335456 -0.15702511 -0.2253753 0.06922358 -0.29420668
-0.036733583 -0.012427635 -0.04790368 -0.3804529 0.26723167 -0.056972787 -0.30444843 0.18744466
00000000: 1a1b 473e be5f ea3d f227 6bbe c138 d43d
00000010: 1e47 333e df11 e03e 7308 093d 3b99 ff3c
00000020: 7e7a 673d 9eb5 cabd d363 8dbc 485b cf3e
00000030: 970a cf3d b067 d7bd 262c bd3e b3ae 88bd
00000040: 9298 513e 25b3 dc3e b921 6d3e de02 6e3e
00000050: 5409 c53d 5d6e f8bd dbf9 32bd fdd8 6b3d
00000060: 3e7e fd3d 22c2 43bd 277a 323e dba0 473e
00000070: 3917 753e f345 ef3d 5adb 553d a455 aa3e
00000080: 1c02 b03e 5226 243e 3415 48be 957c 2a3e
00000090: d317 bb3e 231e 7b3e 327e a53e 3175 9b3e
000000a0: d58d 1b3e ff7c 0e3d cc6a 09bd 02de bb3d
000000b0: 46a1 e03d c59d 13be a31b db3d 0fb6 84be
000000c0: b748 683e ce24 a8be 39d3 403e 9d20 943e
000000d0: f7c9 3d3e 6457 d6be f754 2a3c 454b 463e
000000e0: 4c82 1c3e dc92 b2be 565a c6bd aeb9 313e
000000f0: 97a0 303d 1125 663e dbf8 983d c376 0f3f
00000100: b5ae d1bd ac6d c1bb 43ec 943d 303f 5a3d
00000110: f616 edbd 629a 05be 5458 fa3d ae17 d23d
00000120: 9dce 923d fc70 5ebd d6da 65be d359 b03c
00000130: 1b54 6bbc 525f a23d 6369 cb3d 8e6b 103e
00000140: e786 87be 20b4 eb3d 381a 343e 6263 61be
00000150: 4ff2 783d d314 6c3d 8645 053d b4ae bcbd
00000160: ca8c 7cbc 82aa ac3e 9773 293e 2938 49be
00000170: b181 09be d2e1 3dbe 73dc cabd c631 debe
00000180: 2506 b23c 3cd4 fc3d 90e5 e5bd 1428 77bc
00000190: dde0 c73c a4fa 923c 3413 143f b479 d1bd
000001a0: c2d6 7f3b 6eaa 2dbe 0022 17bf 3242 9d3e
000001b0: d02b ac3e 9aa8 f5bd 6f59 ce3e dff1 b2be
000001c0: 2851 163f 5f8b 13be f9d1 933e dc59 f23d
000001d0: 31cb 20be c8c8 66be 18c5 8d3d 42a2 96be
000001e0: f475 16bd 479d 4bbc a636 44bd b9ca c2be
000001f0: 97d2 883e 4c5c 69bd aae0 9bbe 7ef1 3f3e

encoder.rnn.bias_hh_l0 f4 [128]
0.036810737 0.08040435 -0.22106665 0.10066454 0.15350375 0.25584003 -0.03395244 0.12096326
0.04130534 -0.09898026 -0.07435864 0.28428265 0.047568657 -0.14722154 0.23351741 -0.23740616
0.19109501 0.32153517 0.15775199 0.31275102 0.07076398 -0.16838874 -0.11243229 0.05760307
-0.16440228 -0.0028430824 0.054645438 0.35209316 0.24475992 0.11685907 -0.09666053 0.36696085
0.38254586 0.15991901 -0.14378382 0.2555742 0.16192532 0.13635008 0.3096892 -0.010593637
0.11742709 0.010162262 -0.3012015 0.18907115 0.022908438 -0.14920558 0.009640185 -0.21872663
0.24623072 -0.33465654 0.28745192 0.4657578 0.100894175 -0.33116412 0.09416076 0.20849651
-0.04546135 -0.27110475 -0.009806016 0.22379425 -0.006720799 0.1709984 -0.030352889 0.36199865
-0.019461628 0.031024711 0.0590078 -0.005301018 -0.12930018 -0.1144098 0.09075843 -0.08415425
0.04365068 -0.04981922 -0.20275395 0.18207137 -0.08612025 0.08174029 0.07361073 0.04244269
-0.2625777 0.022453887 0.14600252 -0.08774833 0.050267532 -0.049885653 -0.07098441 -0.09299275
-0.27161795 0.16925025 0.27926418 -0.1743708 -0.14348963 -0.18543252 -0.033333533 -0.21746716
0.20904796 0.010416259 -0.082717195 0.017944079 0.032896325 0.03490225 0.3844821 0.015129612
0.0031007323 -0.0104395095 -0.4051454 0.24526824 0.3264847 -0.29875168 0.28025588 -0.23323056
0.48646843 0.052185047 0.16418466 0.1449593 -0.09040115 -0.16522267 -0.07411502 -0.1822786
0.061197143 0.008965446 -0.08717249 -0.1492597 0.22401306 -0.09804027 -0.17427139 0.4014522
00000000: dbc6 163d 09ab a43d 4c5f 62be 3629 ce3d
00000010: 1630 1d3e 77fd 823e b711 0bbd 96bb f73d
00000020: ca2f 293d 2ab6 cabd 5849 98bd 7f8d 913e
00000030: 5ad7 423d 3ec1 16be 301f 6f3e 9a1a 73be
00000040: 69ae 433e 42a0 a43e bd89 213e e720 a03e
00000050: b5ec 903d 196e 2cbe e742 e6bd 32f1 6b3d
00000060: 1259 28be 0253 3abb e5d3 5f3d 8e45 b43e
00000070: 58a2 7a3e cf53 ef3d f5f5 c5bd 4be2 bb3e
00000080: 0ddd c33e cfc1 233e 113c 13be 9fda 823e
00000090: c0cf 253e 5b9f 0b3e 958f 9e3e ef90 2dbc
000000a0: 9d7d f03d 9e7f 263c 1537 9abe de9b 413e
000000b0: 7aaa bb3c 59c9 18be def1 1d3c e0f9 5fbe
000000c0: e823 7c3e 1a58 abbe e62c 933e ce77 ee3e
000000d0: 9ba1 ce3d 588e a9be 5bd7 c03d 1c80 553e
000000e0: ae35 3abd 3ece 8abe 6aa9 20bc 522a 653e
000000f0: 263a dcbb 341a 2f3e 9fa6 f8bc e357 b93e
00000100: fe6d 9fbc 8927 fe3c 2ab2 713d 29b4 adbb
00000110: 4467 04be af4f eabd 8edf b93d 1059 acbd
00000120: 0ecb 323d 3d0f 4cbd bb9e 4fbe eb70 3a3e
00000130: d05f b0bd 7467 a73d 39c1 963d 63d8 2d3d
00000140: 9670 86be 37f1 b73c af81 153e 65b5 b3bd
00000150: 54e5 4d3d e654 4cbd 4660 91bd fc72 bebd
00000160: 8211 8bbe f04f 2d3e b7fb 8e3e 428e 32be
00000170: f2ee 12be 06e2 3dbe be88 08bd b6af 5ebe
00000180: ab10 563e f5a8 2a3c a267 a9bd 76ff 923c
00000190: 4cbe 063d a9f5 0e3d d6da c43e 31e2 773c
000001a0: a835 4b3b 7a0a 2bbc 386f cfbe 9927 7b3e
000001b0: 0129 a73e fbf5 98be b37d 8f3e fed3 6ebe
000001c0: 6412 f93e fdbf 553d 0620 283e 3670 143e
000001d0: 3d24 b9bd 2230 29be 9ec9 97bd 3ea7 3abe
000001e0: dba9 7a3d cee3 123c 7e87 b2bd 89d7 18be
000001f0: ae63 653e 56c9 c8bd 3374 32be 258b cd3e

decoder.rnn.weight_ih_l0 f4 [256, 32]
-0.038228642 0.09803119 0.8755804 0.53151137 0.37897223 0.24904132 -0.2898866 0.289444
-0.49016494 -0.4009887 -1.002948 -0.6771718 0.12956986 0.79083735 -0.43249962 -0.008990011
-0.13700129 0.44558328 -0.23097557 0.13346913 -0.12817779 -0.51403236 -0.59158957 -0.049480103
1.0764422 0.49259898 -1.1439852 -0.18015331 0.052116994 -0.24718794 -0.03614199 0.09731991
-0.08600954 0.07745536 0.4900948 0.03930349 -0.07353279 0.08186767 -0.08312674 0.38960215
-0.21295115 -0.4717179 -1.3900422 -0.25785887 0.17814794 0.8431565 -0.25817788 0.5923495
-0.36800697 0.65859824 0.36310014 -0.2742116 -0.2783073 -0.16032335 -0.28574306 -0.5537013
0.57418364 0.57829505 -0.52166784 -0.6333902 -0.12406009 -0.42306456 -0.42254135 -0.2403176
-0.44533685 0.36176294 0.34355944 0.39149928 -0.34520757 -0.053302675 0.21922417 0.260501
-0.3032796 -1.0749924 -0.82460976 -0.33373168 0.38594544 0.62288016 -0.89555794 0.18641299
-0.7923273 0.20555772 0.487285 -0.2826632 -0.5130134 -0.12549551 -0.5902259 -0.58236927
0.5378223 0.21031097 -0.95910907 -0.7321549 -0.42057642 -0.5392704 -0.4842745 -0.5885895
0.25387892 -0.22334155 0.6469679 -0.28743014 0.4143357 0.6796852 -0.07149249 -0.4826941
0.0044528577 -0.17940916 0.0008525475 -0.41950473 -0.6650881 0.2635102 0.0762558 0.6923076
0.12379015 0.20448013 0.043781683 0.108065024 -0.38160795 -0.4742134 -0.28924358 -0.36768022
0.07554892 0.5880036 -0.029228603 -0.11751149 0.28892457 -0.2643854 -0.19895476 0.039826334
0.2881442 -0.40314874 0.9183974 -0.7798665 0.1094905 0.361898 -0.09800751 0.26763642
0.01791557 -0.34315938 -1.499793 -0.24357422 -0.024237428 0.9090481 0.106791034 0.947915
0.16387768 0.7127134 -0.15741849 0.030483413 -0.4162184 -0.18779935 -0.07465889 -0.50802165
0.8480498 0.5631627 -0.5312217 -0.68091816 -0.10863053 -0.30027607 -0.75695777 0.022557281
-0.25393632 0.18963355 0.6086932 0.50728405 0.15665574 0.028948491 0.3721058 0.04410839
-0.09762855 -1.0258785 -0.809062 -0.41488308 0.2655127 0.74356776 -1.1175228 -0.08175573
-0.20940447 0.16062397 -0.02756786 -0.10970153 -0.07947188 -0.09601336 -0.29971182 -0.80841565
0.9001254 0.1483868 -1.2406402 -0.6967395 0.14710443 -0.45506328 -0.15667081 -0.18257217
0.22761771 0.06441232 0.7069111 -0.4624398 0.3126803 0.28750035 -0.19864918 -0.1440819
0.24188143 0.085371196 -1.2429054 -0.26469946 0.007054297 0.9709956 0.3864673 0.65810174
-0.053555865 0.4429738 -0.11714444 0.27479297 -0.08635342 -0.19576909 -0.14549765 -0.9619625
0.656546 0.4876273 -0.138194 -1.1241139 0.27429184 -0.71081936 -0.71362156 -0.03255586
0.07393488 0.17466033 0.8494982 0.17008357 0.6926267 0.027817518 0.004338111 0.059755113
-0.6702146 -0.5182714 -0.903343 -0.91651094 -0.080231324 0.7061594 -0.30218256 0.009465639
-0.0504053 0.2848588 -0.16163659 0.36896953 -0.22292684 -0.60421515 -0.82834786 -0.45021504
0.7491944 0.4039425 -0.6560662 -0.61104345 0.0054783938 -0.18595153 -0.15634094 0.10873601
00000000: a395 1cbd 94c4 c83d 0926 603f 2111 083f
00000010: a608 c23e b004 7f3e 046c 94be 0132 943e
00000020: e6f6 fabe 644e cdbe 9a60 80bf 225b 2dbf
00000030: f6ad 043e 5174 4a3f 9770 ddbe d74a 13bc
00000040: 114a 0cbe 7e23 e43e dc84 6cbe 22ac 083e
00000050: 0a41 03be a097 03bf 6a72 17bf a6ab 4abd
00000060: dcc8 893f ef35 fc3e 1b6e 92bf 1c7a 38be
00000070: a178 553d d61e 7dbe a009 14bd a94f c73d
00000080: c525 b0bd eaa0 9e3d b5ed fa3e b2fc 203d
00000090: 5c98 96bd 3daa a73d 5a3e aabd ef79 c73e
000000a0: de0f 5abe 0285 f1be e7ec b1bf 1406 84be
000000b0: 6a6c 363e 1bd9 573f e42f 84be 38a4 173f
000000c0: 696b bcbe e599 283f 43e8 b93e 7665 8cbe
000000d0: 4b7e 8ebe ce2b 24be ea4c 92be 5ebf 0dbf
000000e0: b3fd 123f 250b 143f 068c 05bf dc25 22bf
000000f0: 3713 febd eb9b d8be 5757 d8be d115 76be
00000100: 3103 e4be fe38 b93e 06e7 af3e 9872 c83e
00000110: 0cbf b0be e853 5abd 4d7c 603e 6360 853e
00000120: 7747 9bbe 5a99 89bf a019 53bf e1de aabe
00000130: a49a c53e 1375 1f3f 4943 65bf 0ce3 3e3e
00000140: f6d5 4abf b97d 523e 6b7d f93e 3bb9 90be
00000150: d954 03bf e581 00be 0b19 17bf 2716 15bf
00000160: b9ae 093f c25b 573e 2c88 75bf 816e 3bbf
00000170: cb55 d7be a00d 0abf d4f2 f7be cdad 16bf
00000180: 6bfc 813e a6b3 64be b09f 253f 0b2a 93be
00000190: cf23 d43e d9ff 2d3f a86a 92bd ae23 f7be
000001a0: 47e9 913b 09b7 37be 7f7d 5f3a 53c9 d6be
000001b0: 3743 2abf cfea 863e 002c 9c3d 123b 313f
000001c0: b185 fd3d 3d63 513e 6c54 333d 3251 dd3d
000001d0: 1e62 c3be 19cc f2be bc17 94be 9540 bcbe
000001e0: 64b9 9a3d 6787 163f d370 efbc dda9 f0bd
000001f0: eced 933e 865d 87be ccba 4bbe f020 233d
00000200: a387 933e 8369 cebe 181c 6b3f 55a5 47bf
00000210: 8e3c e03d b24a b93e 29b8 c8bd a407 893e
00000220: acc3 923c 96b2 afbe 38f9 bfbf 856b 79be
00000230: 928d c6bc 60b7 683f 42b5 da3d 8faa 723f
00000240: 8dcf 273e 6374 363f 5032 21be 5ab8 f93c
00000250: 941a d5be 794e 40be c3e6 98bd b50d 02bf
00000260: cb19 593f 6e2b 103f 25fe 07bf a750 2ebf
00000270: af79 debd c9bd 99be fcc7 41bf 0cca b83c
00000280: f103 82be 4c2f 423e 51d3 1b3f 5edd 013f
00000290: 5d6a 203e 6325 ed3c a784 be3e 00ab 343d
000002a0: 7af1 c7bd fd4f 83bf b01e 4fbf 8e6b d4be
000002b0: 48f1 873e 755a 3e3f fd0a 8fbf 8c6f a7bd
000002c0: 206e 56be 9c7a 243e fed5 e1bc 32ab e0bd
000002d0: 27c2 a2bd a7a2 c4bd d473 99be 54f4 4ebf
000002e0: 9e6e 663f b6f2 173e 4ccd 9ebf 855d 32bf
000002f0: 8ba2 163e 0efe e8be 506e 20be 33f4 3abe
00000300: 9e14 693e 9bea 833d 20f8 343f e9c4 ecbe
00000310: a217 a03e 3f33 933e b16a 4bbe 358a 13be
00000320: c4af 773e 18d7 ae3d 8617 9fbf b086 87be
00000330: bb27 e73b 2b93 783f 0bdf c53e 5b79 283f
00000340: 655d 5bbd 76cd e23e 6de9 efbd aab1 8c3e
00000350: 10da b0bd b177 48be 56fd 14be 2d43 76bf
00000360: 6613 283f 49aa f93e ba82 0dbe f7e2 8fbf
00000370: fb6f 8c3e 42f8 35bf e7af 36bf 4b59 05bd
00000380: 2c6b 973d 28da 323e b778 593f 632a 2e3e
00000390: fc4f 313f 90e1 e33c b626 8e3b c7c1 743d
000003a0: 2f93 2bbf 6fad 04bf 7d41 67bf 76a0 6abf
000003b0: 5250 a4bd ddc6 343f acb7 9abe c415 1b3c
000003c0: ca75 4ebd 03d9 913e 1084 25be 93e9 bc3e
000003d0: ef46 64be d8ad 1abf 9b0e 54bf 9682 e6be
000003e0: 34cb 3f3f 8dd1 ce3e f4f3 27bf 586d 1cbf
000003f0: 1984 b33b 146a 3ebe d717 20be fcb0 de3d

decoder.rnn.weight_hh_l0 f4 [256, 64]
-0.048361517 0.19541295 0.35215214 0.3623405 -0.568054 -0.23907618 0.2343214 0.0076332884
-0.14338931 0.2999196 -0.44259053 -0.07429139 0.27346325 0.35798568 0.07842022 0.15303698
0.020771857 -0.19783966 -0.033639293 -0.05475598 0.18983544 0.35010913 0.16499028 0.8881651
0.23398969 -0.5833706 -0.068211764 0.65981215 0.6473812 -0.08641912 -0.25550756 -0.18513547
-0.33585703 -0.33775353 -0.38998637 -0.03873896 -0.25973052 0.13929468 0.59966624 0.21127051
-0.3471203 0.44234693 0.5826368 0.30163217 0.06742079 -0.25051418 -0.09936751 0.23781723
0.109548256 -0.16773798 -0.12235996 0.1445101 0.24660414 0.24511449 0.11418079 0.35418835
0.24558663 -0.31637782 0.25132218 -0.045737498 -0.018475082 0.078445554 0.20573738 -0.3397833
-0.06625519 0.026012909 -0.031258576 -0.058324926 0.10886475 -0.023443138 -0.12032452 -0.17121577
-0.040155075 -0.021160213 0.12958969 0.21738109 -0.061768584 -0.16635302 -0.28131786 -0.08369812
-0.07550398 -0.1621404 0.3655591 -0.0062706703 -0.10050203 -0.11017146 0.0097602885 -0.0021110086
-0.12411006 -0.058503844 0.22125173 0.21724986 -0.026150228 0.30853513 -0.38394824 0.24867593
0.020163137 -0.025057457 -0.25556588 -0.2019544 -0.11472899 -0.15445542 -0.012664243 -0.15540671
0.058651786 0.055488225 0.05874465 0.039892294 -0.22843502 0.024094867 0.19610448 -0.005811334
0.19987416 -0.17544164 -0.11952388 0.05095512 -0.14120296 0.01330258 -0.068941996 0.0039637466
0.035354264 -0.090661235 -0.15328237 0.018489033 0.1341367 0.29851827 -0.18815854 0.044478133
0.017886015 0.05751193 0.06452083 0.09205821 -0.13792205 -0.14311256 0.14195336 -0.24962987
-0.18101545 0.14691107 -0.08719199 -0.015706368 0.069696076 0.036546506 -0.15000705 0.07666162
0.0049436055 -0.2614857 0.07000883 0.18181814 -0.24141647 0.14217374 0.11643317 0.26562753
-0.10727759 -0.09227534 -0.01857532 0.09935605 0.15606743 0.16803434 -0.33179435 0.2434947
-0.15781592 -0.16770388 -0.17985436 -0.031151671 0.055113986 0.053424202 0.22724731 -0.05627458
-0.14655085 0.17505622 0.123048455 0.12574403 0.12637417 -0.11053733 -0.051028274 0.1757268
0.01196884 -0.21134643 -0.24746425 0.15257992 -0.29533216 0.15936247 -0.0081927255 0.13307318
0.1673293 -0.18585649 0.073290505 0.16454364 -0.016713213 0.118222065 -0.07336341 -0.13729668
0.0041344403 -0.10594359 0.16044451 0.62961096 -0.1764988 -0.0752883 0.20824555 -0.116921306
0.13928328 0.062981695 -0.1750879 -0.2514444 0.1271432 0.34787703 0.07667885 0.022562653
0.24017762 -0.1705305 -0.12510215 -0.036623783 0.0940101 0.3255802 -0.01016956 0.18857071
0.12400758 -0.37465304 -0.12625626 0.42174146 0.29198876 -0.24907537 0.21131895 -0.124049515
-0.20223744 -0.14718302 0.83548594 0.058775857 -0.35122213 0.1761955 0.29788026 0.122825876
-0.10409022 -0.045418583 0.08147541 0.06748093 0.023307461 -0.14070556 -0.2274745 -0.01935003
-0.08804619 -0.13208695 0.058946557 -0.09626412 0.2776222 -0.0462317 0.09019281 0.23781969
0.12786408 0.059521247 0.33587128 -0.19917735 -0.074386165 -0.11704606 0.10503797 -0.12513056
00000000: ba16 46bd 551a 483e 494d b43e b284 b93e
00000010: fd6b 11bf 63d0 74be f3f1 6f3e aa20 fa3b
00000020: a6d4 12be 108f 993e 3a9b e2be 1626 98bd
00000030: 6003 8c3e e649 b73e c89a a03d bab5 1c3e
00000040: be29 aa3c 7b96 4abe 5bc9 09bd ce47 60bd
00000050: 3964 423e 8141 b33e 36f3 283e ca5e 633f
00000060: fe9a 6f3e c757 15bf 9cb2 8bbd 73e9 283f
00000070: c6ba 253f 82fc b0bd e3d1 82be 2794 3dbe
00000080: 74f5 abbe 08ee acbe 4bac c7be beac 1ebd
00000090: 66fb 84be 44a3 0e3e ba83 193f 4c57 583e
000000a0: c1b9 b1be 4c7b e23e af27 153f 886f 9a3e
000000b0: e913 8a3d 6543 80be 3181 cbbd 5c86 733e
000000c0: d65a e03d 81c3 2bbe dc97 fabd 75fa 133e
000000d0: cc85 7c3e 4bff 7a3e 9ed7 e93d 2d58 b53e
000000e0: 107b 7b3e 46fc a1be 4dad 803e 3e57 3bbd
000000f0: 0e59 97bc 10a8 a03d d2ac 523e 14f8 adbe
00000100: cdb0 87bd 0619 d53c fe08 00bd 1ee6 6ebd
00000110: 7bf4 de3d d30b c0bc b46c f6bd 3053 2fbe
00000120: a679 24bd 2f58 adbc 29b3 043e 2699 5e3e
00000130: 0e01 7dbd 7258 2abe e508 90be ec69 abbd
00000140: d5a1 9abd 2208 26be 902a bb3e 327a cdbb
00000150: 02d4 cdbd 93a1 e1bd 9ee9 1f3c d958 0abb
00000160: 6a2d febd baa1 6fbd d08f 623e bf76 5e3e
00000170: 0139 d6bc 51f8 9d3e dd94 c4be e7a4 7e3e
00000180: 2a2d a53c 4c45 cdbc 88d9 82be 22cd 4ebe
00000190: 08f7 eabd 9029 1ebe af7d 4fbc f022 1fbe
000001a0: db3c 703d 9f47 633d 3b9e 703d 1a66 233d
000001b0: dfea 69be 9962 c53c 9dcf 483e 016d bebb
000001c0: d0ab 4c3e f9a6 33be f0c8 f4bd 51b6 503d
000001d0: 8297 10be 11f3 593c 7631 8dbd 51e2 813b
000001e0: a2cf 103d 99ac b9bd 0ef6 1cbe 5076 973c
000001f0: 225b 093e 63d7 983e a2ac 40be b42e 363d
00000200: b185 923c a191 6b3d 7f23 843d 0489 bc3d
00000210: 703b 0dbe 198c 12be 395c 113e f99e 7fbe
00000220: 1d5c 39be db6f 163e b791 b2bd a4aa 80bc
00000230: d1bc 8e3d cab1 153d 739b 19be c400 9d3d
00000240: f8fd a13b 74e1 85be ca60 8f3d 892e 3a3e
00000250: e135 77be fe95 113e 8474 ee3d 5500 883e
00000260: 5ab4 dbbd dafa bcbd 452b 98bc 2f7b cb3d
00000270: 24d0 1f3e 3211 2c3e f3e0 a9be ad56 793e
00000280: 7f9a 21be 91ba 2bbe be2b 38be ca31 ffbc
00000290: 34bf 613d 56d3 5a3d 85b3 683e 2d80 66bd
000002a0: 6d11 16be f041 333e d400 fc3d 0bc3 003e
000002b0: 3b68 013e 6561 e2bd 0603 51bd baf1 333e
000002c0: f418 443c 336b 58be 4567 7dbe e93d 1c3e
000002d0: c735 97be ea2f 233e c83a 06bc 5644 083e
000002e0: 5f58 2b3e 2a51 3ebe 5519 963d 217e 283e
000002f0: 26ea 88bc 691e f23d 8e3f 96bd 8097 0cbe
00000300: 337a 873b f4f8 d8bd 914b 243e 2f2e 213f
00000310: 1abc 34be c130 9abd 523e 553e 7074 efbd
00000320: 47a0 0e3e 8cfc 803d 3e4a 33be 52bd 80be
00000330: d431 023e f01c b23e cd09 9d3d 50d5 b83c
00000340: 1ff1 753e 8c9f 2ebe c71a 00be d202 16bd
00000350: 5e88 c03d 73b2 a63e 3a9e 26bc ae18 413e
00000360: b0f7 fd3d 86d2 bfbe 5249 01be 7fee d73e
00000370: 8d7f 953e 9d0d 7fbe ff63 583e ac0d febd
00000380: 5517 4fbe 25b7 16be 68e2 553f f4be 703d
00000390: 63d3 b3be 986c 343e c383 983e 228c fb3d
000003a0: 412d d5bd d608 3abd 94dc a63d 7133 8a3d
000003b0: 4aef be3c 1e15 10be 13ef 68be f483 9ebc
000003c0: 9051 b4bd cd41 07be f271 713d 1f26 c5bd
000003d0: 7f24 8e3e 735d 3dbd 02b7 b83d 0187 733e
000003e0: cdee 023e 8dcc 733d 52f7 ab3e 26f5 4bbe
000003f0: c657 98bd d8b5 efbd 261e d73d 3a22 00be

decoder.rnn.bias_ih_l0 f4 [256]
0.12118056 0.4172423 0.613124 0.15352415 0.40225527 0.31676048 0.16226108 0.12712523
0.47544765 0.6020081 0.7232789 0.5063951 0.4834158 0.8389002 0.6497269 0.4349179
0.03848387 0.14460874 0.51408154 0.4461524 0.10304175 0.69958234 0.63467187 0.09200426
0.38544142 0.15758567 0.20863123 -0.0064026504 0.08350926 0.5665336 0.5953336 0.6444288
0.7919376 0.44244555 0.15195574 0.22511747 0.15142238 0.430628 0.65949225 0.7684997
0.6196993 0.70756376 0.78975004 0.38371748 0.5748003 0.73330545 0.6264135 0.46029323
0.33769932 0.5548681 0.31461635 0.3021331 0.61178565 0.76374793 0.64752257 0.56030506
0.52713794 0.56271017 0.4517538 0.18747562 0.47219425 0.2488231 0.54690343 0.5751851
0.37208045 -0.030362854 0.17551042 0.12238025 0.20939963 0.19612291 -0.010489187 0.18049155
0.0806142 0.16213445 0.029213207 0.27737004 0.0053678676 0.17219837 0.1922653 0.13501798
0.42510018 0.11786816 0.1086922 0.12020483 -0.018272642 0.15947568 0.1463502 -0.07188397
0.23645706 0.33024374 0.2773475 0.34092364 0.039978724 0.13870567 -0.08378075 0.035244215
0.19132364 0.13654932 0.09919089 0.43849868 0.27463967 0.11631831 0.17111942 0.1396582
0.1315175 -0.05013723 0.2339839 0.2588917 0.06946452 0.035021868 0.23495544 -0.07081766
0.23371698 -0.016450705 0.07283775 0.07916107 0.053254064 0.036033425 0.013761147 -0.08140421
0.09145155 0.08860062 0.17604904 0.03256104 0.04956838 0.19239365 0.18345177 0.0839598
-0.08733615 -0.2102934 -0.46969834 0.1721771 -0.22990406 0.4987542 0.30227697 0.25479603
0.17331026 -0.49739945 0.47431022 0.43679976 -0.47712713 -0.34904066 -0.53566796 -0.50894696
-0.3895086 0.10343746 -0.2050654 0.4498017 0.16374539 -0.15076639 -0.60123056 0.3474092
-0.3519185 0.008769511 0.29808494 -0.29402134 0.37805238 0.43158063 0.25129944 0.33017784
0.63917404 0.24060148 0.33507922 -0.25773567 0.100140706 -0.21026053 -0.25979355 -0.2964836
0.5414251 -0.49200433 -0.54233515 -0.3178867 -0.14659858 0.3850835 -0.0013449197 -0.36781597
0.3204404 0.24583617 0.20442288 -0.4470551 -0.4232463 -0.45029184 -0.12882847 -0.50759995
-0.23351136 0.35624465 -0.2772187 -0.27837384 0.27440938 -0.18466978 -0.446122 0.36303052
0.22381148 -0.048796143 0.2572204 0.41033706 0.33932236 0.10314844 0.33120176 0.35605758
0.09904299 0.26775828 0.17206198 0.3680217 0.03827043 0.2537017 0.61146814 0.2168203
0.27119648 0.34698966 0.30572787 0.77657235 0.2209392 0.26604128 0.08075874 0.2167178
0.63819987 0.3051967 0.24594146 0.62500936 0.38191697 0.8398684 0.512357 0.8591099
0.143633 0.18921274 0.8454115 0.4171656 0.52681816 0.31922674 0.2907158 0.44780496
0.1767922 0.1755806 0.27133903 0.23670857 0.37188682 -0.027026864 0.50572455 0.2119288
0.25197977 0.16453694 0.2810892 0.13875665 0.48862135 0.07415944 0.52301997 0.118642315
0.23079082 0.07905002 0.3205227 -0.05041594 0.36516458 0.3425656 0.69913155 0.050094683
00000000: 832d f83d c8a0 d53e b2f5 1c3f 6f35 1d3e
00000010: 67f4 cd3e 6e2e a23e c527 263e 1e2d 023e
00000020: e06d f33e 341d 1a3f ce28 393f 1ca3 013f
00000030: 4782 f73e 2ac2 563f 8154 263f 8fad de3e
00000040: 43a1 1d3d 5014 143e d99a 033f 166e e43e
00000050: 8e07 d33d d417 333f db79 223f bb6c bc3d
00000060: 9458 c53e 235e 213e 6da3 553e 53cd d1bb
00000070: e706 ab3d 5908 113f c867 183f 49f9 243f
00000080: 6cbc 4a3f 3988 e23e 499a 1b3e 3285 663e
00000090: 780e 1b3e 467b dc3e 7cd4 283f 65bc 443f
000000a0: 9da4 1e3f e622 353f 0f2d 4a3f 9e76 c43e
000000b0: 1d26 133f e8b9 3b3f a35c 203f 8eab eb3e
000000c0: ede6 ac3e d60b 0e3f 6515 a13e 31b1 9a3e
000000d0: fc9d 1c3f fc84 433f 0ac4 253f 2770 0f3f
000000e0: 83f2 063f c60d 103f 464c e73e 9cf9 3f3e
000000f0: 72c3 f13e 7ccb 7e3e dd01 0c3f 553f 133f
00000100: 5481 be3e 85bb f8bc 01b9 333e 7fa2 fa3d
00000110: db6c 563e 72d4 483e d7da 2bbc c7d2 383e
00000120: 0f19 a53d 9306 263e 8950 ef3c 7203 8e3e
00000130: f0e4 af3b c554 303e 32e1 443e 2742 0a3e
00000140: bba6 d93e dd64 f13d 049a de3d f32d f63d
00000150: 82b0 95bc 984d 233e d4dc 153e e737 93bd
00000160: cd21 723e b515 a93e 7e00 8e3e 8b8d ae3e
00000170: bbc0 233d dc08 0e3e 3e95 abbd 3d5c 103d
00000180: 58ea 433e 96d3 0b3e 9824 cb3d e682 e03e
00000190: 929d 8c3e 4b38 ee3d ee39 2f3e 8f02 0f3e
000001a0: 86ac 063e b25c 4dbd 7a99 6f3e 748d 843e
000001b0: 6a43 8e3d 1773 0f3d 2998 703e d908 91bd
000001c0: 8153 6f3e a1c3 86bc f52b 953d 331f a23d
000001d0: ef20 5a3d c997 133d 6f76 613c 40b7 a6bd
000001e0: f34a bb3d 3e74 b53d 3346 343e ba5e 053d
000001f0: 3708 4b3d d702 453e c8da 3b3e 1ef3 ab3d
00000200: 4cdd b2bd 2757 57be 4d7c f0be 324f 303e
00000210: f86b 6bbe b65c ff3e 0cc4 9a3e a074 823e
00000220: 3f78 313e 24ab febe cad8 f23e 38a4 df3e
00000230: 024a f4be 75b5 b2be 8921 09bf 594a 02bf
00000240: ac6d c7be 05d7 d33d aafc 51be 694c e63e
00000250: dfac 273e 8162 1abe 3fea 19bf 9edf b13e
00000260: a92e b4be ffad 0f3c 979e 983e f789 96be
00000270: 1590 c13e 23f8 dc3e 52aa 803e 120d a93e
00000280: e9a0 233f 3c60 763e 818f ab3e eef5 83be
00000290: 9216 cd3d 894e 57be a903 85be b3cc 97be
000002a0: d69a 0a3f fee7 fbbe 7ad6 0abf 0cc2 a2be
000002b0: f01d 16be aa29 c53e 0448 b0ba 6052 bcbe
000002c0: c410 a43e 7abc 7b3e 3b54 513e 68e4 e4be
000002d0: bdb3 d8be a78c e6be 9ceb 03be 12f2 01bf
000002e0: 9a1d 6fbe b365 b63e 9cef 8dbe 0487 8ebe
000002f0: 637f 8c3e 131a 3dbe 1a6a e4be 23df b93e
00000300: d62e 653e 77de 47bd 64b2 833e b317 d23e
00000310: a9bb ad3e 7d3f d33d 4793 a93e 2e4d b63e
00000320: 0dd7 ca3d 9d17 893e 0431 303e 576d bc3e
00000330: 74c1 1c3d 30e5 813e 2d89 1c3f 2406 5e3e
00000340: 44da 8a3e a1a8 b13e 5d88 9c3e 72cd 463f
00000350: e33d 623e 9036 883e d764 a53d 45eb 5d3e
00000360: 1161 233f be42 9c3e 14d8 7b3e 9d00 203f
00000370: 9f8a c33e 9e01 573f d429 033f a0ee 5b3f
00000380: 8714 133e fcc0 413e e36c 583f bb96 d53e
00000390: 8edd 063f b071 a33e b4d8 943e b146 e53e
000003a0: 0409 353e 67cb 333e f3ec 8a3e bb63 723e
000003b0: f367 be3e 7167 ddbc 2a77 013f dd03 593e
000003c0: 7e03 813e 5f7c 283e ecea 8f3e 3916 0e3e
000003d0: 942c fa3e e8e0 973d a3e4 053f befa f23d
000003e0: 6e54 6c3e fae4 a13d 8d1b a43e f280 4ebd
000003f0: daf6 ba3e c264 af3e 49fa 323f 1530 4d3d

decoder.rnn.bias_hh_l0 f4 [256]
0.08821871 0.47274062 0.6204496 0.19839312 0.42746302 0.39610618 0.3664968 0.09524731
0.38628057 0.7587524 0.91265166 0.49018538 0.5281077 0.81112593 0.7696151 0.5222062
0.2083603 0.2012648 0.40749797 0.4470728 -0.059279673 0.72345823 0.5906008 0.06618151
0.36090878 0.15082166 0.26669908 0.024749314 0.26158956 0.67354953 0.7454098 0.6521454
0.78634775 0.5160396 0.29498872 0.21539764 -0.05369085 0.5417848 0.6121161 0.55211526
0.6040285 0.5949582 0.8092049 0.28379187 0.4467899 0.67959267 0.4998625 0.31673667
0.24374266 0.5885733 0.2892146 0.3464332 0.61290437 0.612345 0.52550966 0.4657045
0.63265127 0.44948632 0.2909887 0.21740444 0.5107591 0.33439153 0.6726495 0.509909
0.2818177 0.10034277 0.18477733 0.0985874 0.13294 0.11002675 0.21394275 0.16447806
0.23745237 0.050380968 0.056604486 0.14084281 0.114000864 0.15426898 -0.037985932 0.037889067
0.47369483 0.16039671 0.06029705 0.18159066 0.12187483 -0.008330192 0.048212875 -0.120026805
0.23336442 0.48532662 0.28201675 0.29708067 -0.103784785 0.31343153 -0.09730434 0.08249733
0.05143999 -0.08624486 0.108167216 0.5219571 0.26139408 0.11509371 0.20653102 0.14299361
0.027143706 -0.05395046 0.18956943 0.06804036 0.21333346 0.0054349005 0.18048732 0.14239
0.33344424 0.0788918 -0.044679154 0.061296437 0.04202853 0.14217825 0.22217163 0.050914332
0.051805686 0.19058889 0.073929735 -0.08651311 0.20030129 0.17564455 0.040730562 0.0101008
-0.29940218 -0.21205857 -0.39613974 0.1428471 -0.22085784 0.38499883 0.30897743 0.1771097
0.35853073 -0.4236306 0.42371413 0.34851915 -0.3445377 -0.4217173 -0.5651495 -0.4325144
-0.38821882 -0.03405526 -0.23215295 0.44687465 0.14929645 -0.18207453 -0.59146214 0.18519093
-0.51103127 -0.07035199 0.16392462 -0.11035901 0.22883275 0.43640625 0.28971073 0.24623878
0.47738153 0.18879877 0.30710486 -0.34964842 0.027140506 -0.14761867 -0.20685527 -0.43921348
0.56011057 -0.4154489 -0.5115698 -0.22551194 -0.106732436 0.5775883 0.18840688 -0.4002737
0.40070665 0.21947691 0.2657597 -0.3948931 -0.36209163 -0.51138115 -0.16896474 -0.6126648
-0.25622505 0.18442492 -0.22851327 -0.17090261 0.2087168 -0.27203462 -0.41931456 0.28037313
0.27009946 0.018368455 0.13233702 0.543607 0.4392126 0.037269562 0.20682083 0.3074877
0.15540725 0.14357516 0.21248545 0.48935366 0.12424131 0.37342426 0.4802522 0.21615921
0.2094231 0.4026145 0.27882287 0.6442985 0.023415783 0.24642406 0.118415065 0.24593033
0.5962443 0.29400492 0.43934596 0.49244416 0.26212212 0.7442379 0.5413439 0.8585217
0.2683279 0.12453225 0.8897524 0.5091369 0.7039807 0.16643387 0.38960233 0.51192975
0.044919807 0.25104594 0.41296053 0.17765884 0.38676104 0.113236904 0.57353544 0.24899729
0.2390601 0.29899776 0.34165844 0.16600497 0.55713326 0.1884833 0.3277938 0.2379929
0.18300244 0.26708454 0.2041146 0.036283046 0.36459795 0.34431544 0.71767455 0.11662742
00000000: 03ac b43d 0f0b f23e c9d5 1e3f 9127 4b3e
00000010: 6fdc da3e 6ece ca3e 78a5 bb3e 0611 c33d
00000020: 91c6 c53e 993d 423f 8aa3 693f 94f9 fa3e
00000030: 1132 073f f3a5 4f3f 7f05 453f 4eaf 053f
00000040: 675c 553e 5c18 4e3e 93a3 d03e bae6 e43e
00000050: 3ecf 72bd 8f34 393f 9d31 173f 2c8a 873d
00000060: 09c9 b83e fe70 1a3e c88c 883e 13bf ca3c
00000070: 11ef 853e be6d 2c3f 2dd3 3e3f 00f3 263f
00000080: 164e 493f 2c1b 043f c308 973e 3391 5c3e
00000090: f0ea 5bbd 69b2 0a3f a4b3 1c3f 6d57 0d3f
000000a0: 9da1 1a3f 2e4f 183f 0d28 4f3f 2b4d 913e
000000b0: a5c1 e43e c9f9 2d3f faed ff3e 4f2b a23e
000000c0: ad97 793e bdac 163f f013 943e b15f b13e
000000d0: 4de7 1c3f a4c2 1c3f cd87 063f d270 ee3e
000000e0: 6ff5 213f 1223 e63e 79fc 943e 459f 5e3e
000000f0: 1cc1 023f 5e35 ab3e c232 2c3f 6589 023f
00000100: 694a 903e 8380 cd3d 4536 3d3e 31e8 c93d
00000110: 6c21 083e b455 e13d cf13 5b3e f06c 283e
00000120: b726 733e 465c 4e3d 1bda 673d 1939 103e
00000130: 4979 e93d b0f8 1d3e 2397 1bbd 9131 1b3d
00000140: 2188 f23e 093f 243e 0afa 763d e7f2 393e
00000150: 8399 f93d 5c7b 08bc dd7a 453d 9dd0 f5bd
00000160: 15f7 6e3e bb7c f83e 8064 903e f51a 983e
00000170: 1e8d d4bd 197a a03e 7f47 c7bd 5cf4 a83d
00000180: bdb2 523d 25a1 b0bd c686 dd3d fb9e 053f
00000190: 72d5 853e 40b6 eb3d de7c 533e eb6c 123e
000001a0: 7a5c de3c 28fb 5cbd 7d1e 423e bf58 8b3d
000001b0: 1674 5a3e 4017 b23b abd1 383e afce 113e
000001c0: 34b9 aa3e 0692 a13d 7d01 37bd f911 7b3d
000001d0: 1c26 2c3d 2d97 113e f680 633e 8c8b 503d
000001e0: 3332 543d bc29 433e 7968 973d c92d b1bd
000001f0: c81b 4d3e 2adc 333e 17d5 263d d37d 253c
00000200: 3e4b 99be e225 59be d4d2 cabe 8346 123e
00000210: 8f28 62be 911e c53e 4a32 9e3e 3f5c 353e
00000220: 5791 b73e 1ce6 d8be 0ff1 d83e 1a71 b23e
00000230: 3f67 b0be 54eb d7be a3ad 10bf 8772 ddbe
00000240: 9ec4 c6be 877d 0bbd 81b9 6dbe c1cc e43e
00000250: 2be1 183e bf71 3abe 106a 17bf b1a2 3d3e
00000260: f2d2 02bf b414 90bd dbdb 273e e803 e2bd
00000270: 2253 6a3e a470 df3e f754 943e 0526 7c3e
00000280: 5a6b f43e 7754 413e d93c 9d3e 1e05 b3be
00000290: c455 de3c 5929 17be ded1 53be 97e0 e0be
000002a0: 6863 0f3f b8b5 d4be 3df6 02bf 9aec 66be
000002b0: 8996 dabd d4dc 133f bced 403e adf0 ccbe
000002c0: 6c29 cd3e 8ebe 603e a811 883e 6e2f cabe
000002d0: 1364 b9be e0e9 02bf 1805 2dbe 9ad7 1cbf
000002e0: ee2f 83be e3d9 3c3e 62ff 69be 1801 2fbe
000002f0: dbb9 553e 1f48 8bbe 66b0 d6be 118d 8f3e
00000300: 7a4a 8a3e 7179 963c 5b83 073e d429 0b3f
00000310: 79e0 e03e f8a7 183d d7c8 533e 076f 9d3e
00000320: 1423 1f3e 5e05 133e c995 593e 908c fa3e
00000330: 3a72 fe3d 7731 bf3e 9ee3 f53e d758 5d3e
00000340: 0273 563e 7d23 ce3e dfc1 8e3e bff0 243f
00000350: 75d2 bf3c 9756 7c3e 9983 f23d 29d5 7b3e
00000360: 77a3 183f d087 963e f4f1 e03e a421 fc3e
00000370: df34 863e 6086 3e3f 8495 0a3f 14c8 5b3f
00000380: 4662 893e c40a ff3d d0c6 633f cc56 023f
00000390: 1438 343f a46d 2a3e f579 c73e d40d 033f
000003a0: d5fd 373d 1889 803e 906f d33e 33ec 353e
000003b0: 8b05 c63e c0e8 e73d 38d3 123f 25f9 7e3e
000003c0: 2ccc 743e 3c16 993e dbed ae3e 35fd 293e
000003d0: 49a0 0e3f c401 413e 97d4 a73e 69b4 733e
000003e0: fe64 3b3e 4ebf 883e 6b03 513e 889d 143d
000003f0: 95ac ba3e 1d4a b03e 85b9 373f 5bda ee3d
