detector_dev/Process_I24_simulations/models/cnn_lstm_ae_bando_ftl_ovm_a0.8_b20.0_s01.0_s12.0_Vm15.0_20veh_300ring_speed_detector.pt (torch, 126951 bytes, 11 tensors)

encoder.cnn.weight f4 [8, 1, 16]
-0.018213991 -0.018172765 -0.01813148 -0.018089255 -0.018047405 -0.018004794 -0.017961903 -0.017918702
-0.017875146 -0.017831242 -0.017786965 -0.017742446 -0.017697584 -0.01765234 -0.017606735 -0.017560698
0.012951552 0.013148008 0.013363196 0.01357936 0.013809157 0.012548361 0.016579304 0.012170965
0.0149248 0.01498719 0.017159697 0.015497367 0.015737979 0.01598933 0.01624947 0.01302511
0.03008617 0.015403874 -0.05534211 -0.16145094 0.0887306 0.024631174 0.08679407 0.16611952
0.064961776 -0.121835746 -0.07750939 0.02989787 -0.03139189 0.17866373 0.11473422 -0.038514942
-0.047584847 0.029116897 -0.12169776 0.07431669 -0.20219108 -0.06622545 -0.044367336 0.09165506
-0.07491102 0.10594964 0.0243193 -0.024352381 -0.059559014 0.081226036 0.054719336 -0.121231765
0.05242675 -0.052889325 -0.10329663 -0.0255058 -0.21961662 0.120776206 -0.02857666 -0.26062658
0.062762514 -0.026183365 -0.049917683 0.04243443 -0.17281891 -0.081840575 -0.0949316 -0.029895589
-0.2180758 -0.058219675 -0.04846308 0.03773954 0.015288913 0.15080045 0.064821474 -0.08090816
0.11848072 0.13950077 0.0013446051 0.1812088 0.10518659 0.01027336 -0.20372356 0.12625542
-0.110708855 0.02351747 -0.046674572 -0.14727947 0.15731747 0.20786738 0.2275153 0.15951303
-0.10816951 0.18618996 0.08661941 -0.1870922 0.17434722 0.16683285 0.13371554 -0.029691957
-0.18925352 -0.23188032 -0.23285763 0.110030904 0.031183317 -0.21123746 -0.068393566 0.029142873
-0.19006991 0.15366359 -0.12463868 -0.052555423 -0.15985413 0.19002518 0.20640637 -0.03196194
00000000: 8235 95bc 0ddf 94bc 7888 94bc eb2f 94bc
00000010: 27d8 93bc ca7e 93bc d724 93bc 3eca 92bc
00000020: e66e 92bc d312 92bc f8b5 91bc 9b58 91bc
00000030: 86fa 90bc a49b 90bc 003c 90bc 74db 8fbc
00000040: bf32 543c be6a 573c 4ef1 5a3c f77b 5e3c
00000050: cd3f 623c a497 4d3c 52d1 873c ba68 473c
00000060: 2687 743c d58c 753c 7e92 8c3c abe8 7d3c
00000070: efec 803c 0efc 823c 9c1d 853c 4567 553c
00000080: 4677 f63c 8860 7c3c 69ae 62bd 6553 25be
00000090: 64b8 b53d 51c7 c93c 17c1 b13d 3c1b 2a3e
000000a0: ae0a 853d 0585 f9bd 3ebd 9ebd 61ec f43c
000000b0: c894 00bd a0f3 363e c6f9 ea3d d8c1 1dbd
000000c0: 54e8 42bd 8f86 ee3c ad3c f9bd 5933 983d
000000d0: 2e0b 4fbe 35a1 87bd 86ba 35bd a6b5 bb3d
000000e0: f36a 99bd 20fc d83d 4539 c73c a57e c7bc
000000f0: 27f4 73bd d659 a63d 6221 603d 5c48 f8bd
00000100: 6fbd 563d 7aa2 58bd 2f8d d3bd 8af1 d0bc
00000110: 2ee3 60be 8459 f73d 9a19 eabc d970 85be
00000120: a289 803d 7f7e d6bc 7c76 4cbd bacf 2d3d
00000130: 71f7 30be 089c a7bd 806b c2bd 98e7 f4bc
00000140: 434f 5fbe c177 6ebd 3981 46bd c794 1a3d
00000150: 597e 7a3c 6f6b 1a3e 1fc1 843d 2db3 a5bd
00000160: 05a6 f23d 4ad9 0e3e 763d b03a cd8e 393e
00000170: 116c d73d 9851 283c e99c 50be 1a49 013e
00000180: 53bb e2bd b6a7 c03c d62d 3fbd 6ed0 16be
00000190: d517 213e 30db 543e c5f9 683e 6257 233e
000001a0: fa87 ddbd 95a8 3e3e 8465 b13d 1995 3fbe
000001b0: 1488 323e 3bd6 2a3e baec 083e 8c3c f3bc
000001c0: adcb 41be 0972 6dbe 3b72 6ebe e257 e13d
000001d0: 2874 ff3c a24e 58be ed11 8cbd 09bd ee3c
000001e0: b0a1 42be fd59 1d3e 9042 ffbd 5b44 57bd
000001f0: cdb0 23be f695 423e 315c 533e 86ea 02bd

encoder.cnn.bias f4 [8]
-0.0042836578 -0.0007102463 0.0033793473 -0.060981993 -0.1733115 -0.122543775 -0.14248224 0.37063468
00000000: ed5d 8cbb d32f 3aba 0a78 5d3b 41c8 79bd
00000010: 9278 31be 3bf8 fabd dde6 11be d4c3 bd3e

encoder.rnn.weight_ih_l0 f4 [128, 8]
-0.15370591 -0.105882086 -0.030291352 0.04220113 0.101811394 0.08590722 0.06535978 0.1545604
-0.06593355 0.077219054 0.015982788 0.076063134 -0.21639715 -0.145405 -0.21796273 0.0840183
0.11460483 0.011935949 -0.085362494 0.05011288 0.13853303 0.01640734 0.062448524 -0.015943754
0.035130523 0.08282283 -0.16248162 0.07652247 -0.047968008 -0.1052896 0.16924168 0.095500775
0.12599045 -0.0051079886 -0.109035686 -0.14201349 -0.096896075 -0.2303439 -0.18242708 -0.25143322
-0.07586429 0.0077165463 -0.13401826 0.16115215 0.1435314 -0.10582129 0.080554545 0.02688582
-0.12184163 0.13045403 0.077172466 -0.17486213 -0.19046392 -0.017049119 0.033565782 -0.018179214
0.085291386 0.14829905 -0.0063498165 -0.21608785 -0.24829897 -0.32748172 -0.109889224 -0.24254605
-0.082775 0.060580008 0.13058749 0.042082883 -0.23508014 -0.24486013 0.022651225 0.04527842
-0.25350448 -0.021574222 -0.22150096 0.011432299 -0.03576298 0.111592844 -0.06457971 -0.14169316
-0.2969985 -0.23737973 0.043804422 -0.006128887 -0.07314814 -0.0419157 0.11114351 0.033568215
0.039599143 -0.11602903 -0.09767816 0.07729892 0.15596138 -0.008504871 -0.14696251 -0.08188508
0.083563685 0.05213167 0.05080132 -0.020125434 -0.1108468 -0.01652793 0.15155312 0.028633198
0.19445045 0.23056659 0.14759351 0.15291134 0.060124155 0.23437662 0.006109139 -0.015517655
-0.1135672 -0.12735844 -0.11802035 0.12746866 -0.0740824 0.10830768 -0.047220364 0.15985963
-0.12470652 -0.026890213 -0.08473792 0.0030024915 0.10481812 0.1182075 0.1225885 0.118436895
-0.09110789 -0.08938742 -0.08476575 0.071388885 -0.11811341 0.10830061 -0.050288256 0.18064788
-0.09554891 -0.059185605 0.11735282 0.0665199 0.17008722 0.0602316 0.16166703 -0.13349678
-0.13700007 -0.0033402909 0.001528644 -0.18804748 -0.003728704 -0.021540295 -0.28024313 -0.3049873
0.0892292 -0.04866702 -0.151143 -0.03142175 -0.2185438 -0.21914168 -0.036492795 -0.1195734
-0.29479054 -0.2916077 -0.2535732 0.033813674 0.14272946 0.05916148 -0.102925554 -0.14473847
0.05954301 0.16795403 0.07309626 -0.08833623 -0.075123034 -0.16151765 -0.3569681 -0.20222825
-0.12610014 0.07767855 0.14480348 0.06919463 0.042601388 -0.0341448 -0.16832003 -0.051672406
-0.5441609 -0.55334616 -0.57388747 -0.17615882 0.13891532 -0.05712077 0.058226943 0.100561604
0.009112862 -0.05490676 0.14308453 -0.06333303 0.056252744 0.053757243 0.00042342825 -0.011417528
-0.07924384 -0.017200548 -0.061305262 0.0626461 -0.041780677 -0.17981784 0.017328063 -0.045595698
-0.003344356 -0.087366246 -0.19574086 0.040767875 -0.11978915 0.028800573 0.07646067 0.05785297
-0.2722231 -0.08000026 -0.24309908 0.07010842 -0.15873218 -0.08107352 0.018342853 0.16567509
-0.2592543 -0.34039402 -0.3497815 0.08395853 -0.08290248 -0.07468913 -0.06028657 -0.101230554
0.24114406 0.034942064 0.06598675 -0.10992665 -0.09164223 -0.12821157 -0.35590693 -0.14736108
0.042778775 0.11622304 -0.10223098 -0.25808623 -0.36386052 -0.26131594 -0.20677853 -0.10578636
-0.017647225 -0.13418435 -0.010888163 -0.1441351 -0.06510235 0.14185368 0.09398692 0.119142324
00000000: 1565 1dbe b5d8 d8bd 9225 f8bc 18db 2c3d
00000010: 7e82 d03d 20f0 af3d 59db 853d 1545 1e3e
00000020: 2b08 87bd 0625 9e3d 56ee 823c fdc6 9b3d
00000030: 3797 5dbe 0ce5 14be 9f31 5fbe c911 ac3d
00000040: f0b5 ea3d 008f 433c 88d2 aebd 2a43 4d3d
00000050: 9adb 0d3e b068 863c 06ca 7f3d 7a9c 82bc
00000060: 06e5 0f3d 049f a93d 9561 26be d0b7 9c3d
00000070: 1a7a 44bd 13a2 d7bd b14d 2d3e e995 c33d
00000080: a403 013e ea60 a7bb 1a4e dfbd fc6b 11be
00000090: 7371 c6bd 45df 6bbe 2ace 3abe dbbb 80be
000000a0: bd5e 9bbd 15db fc3b 153c 09be 1205 253e
000000b0: e5f9 123e d5b8 d8bd c8f9 a43d a73f dc3c
000000c0: 1b88 f9bd be95 053e 990c 9e3d 0f0f 33be
000000d0: f908 43be 98aa 8bbc 467c 093d 93ec 94bc
000000e0: 40ad ae3d b5db 173e 1f12 d0bb 2246 5dbe
000000f0: 1642 7ebe afab a7be 9a0d e1bd fe5d 78be
00000100: f085 a9bd be22 783d bab8 053e 1a5f 2c3d
00000110: d9b8 70be 9dbc 7abe 108f b93c dd75 393d
00000120: 57cb 81be 6cbc b0bc 26d1 62be 8a4e 3b3c
00000130: 347c 12bd ca8a e43d 5e42 84bd 0318 11be
00000140: 3010 98be ac13 73be 446c 333d d5d4 c8bb
00000150: b1ce 95bd ccaf 2bbd 359f e33d d37e 093d
00000160: b632 223d a1a0 edbd 7d0b c8bd e54e 9e3d
00000170: 57b4 1f3e 0458 0bbc 577d 16be 5db3 a7bd
00000180: 7023 ab3d 0588 553d 0b15 503d 18de a4bc
00000190: a603 e3bd 9565 87bc be30 1b3e 2b90 ea3c
000001a0: 051e 473e a619 6c3e c122 173e ca94 1c3e
000001b0: bf44 763d 6d00 703e 2c2f c83b c33d 7ebc
000001c0: ec95 e8bd 406a 02be a7b4 f1bd 2587 023e
000001d0: 83b8 97bd 6bd0 dd3d 246a 41bd 3eb2 233e
000001e0: 2266 ffbd dd48 dcbc 138b adbd 73c5 443b
000001f0: e2aa d63d c616 f23d ae0f fb3d 0b8f f23d
00000200: c696 babd c010 b7bd aa99 adbd 5634 923d
00000210: 72e5 f1bd b6cc dd3d 0ffb 4dbd c2fb 383e
00000220: 26af c3bd 9b6c 72bd ad56 f03d 963b 883d
00000230: 582b 2e3e 69b5 763d 0b8c 253e 61b3 08be
00000240: bf49 0cbe c8e8 5abb c85c c83a 858f 40be
00000250: 465d 74bb 4675 b0bc 077c 8fbe 4c27 9cbe
00000260: ccbd b63d 1257 47bd 3bc5 1abe 18b4 00bd
00000270: f2c9 5fbe ad66 60be 7879 15bd e6e2 f4bd
00000280: c9ee 96be 9b4d 95be 59d4 81be 3580 0a3d
00000290: ac27 123e 4f53 723d a2ca d2bd 5236 14be
000002a0: 5fe3 733d 24fc 2b3e 7eb3 953d a0e9 b4bd
000002b0: 1bda 99bd e264 25be 86c4 b6be ec14 4fbe
000002c0: 6520 01be ee15 9f3d 5d47 143e eab5 8d3d
000002d0: cb7e 2e3d 6bdb 0bbd 165c 2cbe 72a6 53bd
000002e0: 214e 0bbf 18a8 0dbf 4aea 12bf fa62 34be
000002f0: d13f 0e3e 78f7 69bd 607f 6e3d 3ef3 cd3d
00000300: 1d4e 153c e9e5 60bd c084 123e bfb4 81bd
00000310: 4769 663d 8e30 5c3d 94ff dd39 9510 3bbc
00000320: 984a a2bd 2ae8 8cbc 3a1b 7bbd 994c 803d
00000330: 3722 2bbd 2b22 38be 95f3 8d3c 8ec2 3abd
00000340: fc2c 5bbb 13ed b2bd 4b70 48be 37fc 263d
00000350: 0454 f5bd 2eef eb3c 6997 9c3d 3cf7 6c3d
00000360: d360 8bbe 2dd7 a3bd f7ee 78be 0195 8f3d
00000370: b08a 22be e009 a6bd c043 963c bba6 293e
00000380: fbbc 84be 2048 aebe 9016 b3be 73f2 ab3d
00000390: c7c8 a9bd 9df6 98bd 0def 76bd f751 cfbd
000003a0: 78ee 763e 691f 0f3d 1024 873d 3921 e1bd
000003b0: ecae bbbd e549 03be 6f39 b6be d3e5 16be
000003c0: cc38 2f3d 5806 ee3d 7a5e d1bd e123 84be
000003d0: ed4b babe 34cb 85be c0bd 53be 85a6 d8bd
000003e0: ea90 90bc 9f67 09be 4464 32bc 2798 13be
000003f0: 6254 85bd 1742 113e 377c c03d e400 f43d

encoder.rnn.weight_hh_l0 f4 [128, 32]
-0.24469565 -0.070742674 -0.27541885 0.06435389 0.062370416 0.20957293 -0.05429389 -0.10338353
0.25347456 -0.04857889 0.09755208 0.078013435 0.03440677 0.35036254 0.15659632 -0.15812077
-0.05934185 0.26286772 0.11436072 0.020085767 -0.0567073 0.10469653 -0.042057242 0.14244576
0.25098613 0.42853266 0.34480366 -0.42079562 0.07542855 0.034202825 -0.0446626 -0.45407426
0.07678204 -0.010572067 0.18376638 0.14169039 -0.20841515 -0.16925189 -0.040909383 0.07690559
0.19377398 0.23832847 0.049137652 0.30253685 -0.08644946 0.018135384 0.28665754 0.198498
-0.24421181 -0.18561839 -0.34351498 0.17241487 0.11765332 -0.029328203 0.29988554 0.1178882
-0.23521465 -0.014033965 0.3355034 0.10114167 0.14406773 0.015560672 -0.04711855 -0.23531184
0.29114443 0.07180643 -0.0471649 0.032032337 -0.15712637 -0.14582564 -0.1438648 0.079781346
0.40554613 -0.034114834 -0.047459908 -0.12695578 0.046390843 0.045120392 0.26257142 0.17603242
-0.21083856 0.106342144 -0.00020265047 0.11266772 0.15195529 -0.027295478 0.10799701 -0.034160424
-0.07693196 0.05894806 0.20291126 0.06858338 -0.05539283 -0.079305515 0.030744439 -0.18152753
0.28372636 0.17646964 0.37235492 0.13778812 -0.20447922 -0.13352579 -0.24036993 -0.0046563805
-0.06184088 0.13281201 0.24084929 0.086640775 -0.28633484 0.064903505 -0.001425564 0.31911245
-0.20363244 -0.37256745 -0.43128538 0.28562304 0.23382953 -0.1265226 0.070317894 0.29253623
-0.15709892 -0.27340218 -0.06876401 0.2953429 0.2288419 -0.28928077 -0.2564588 -0.0024453541
0.06510405 0.017666696 0.054302953 0.119929306 0.32849184 0.024790335 0.007582344 0.26452404
-0.2942874 0.06845762 0.2367325 -0.277289 0.033503994 -0.13211203 -0.1222381 -0.26256207
-0.009764584 0.039149225 -0.14316064 0.24008457 0.145356 -0.27399883 -0.13933432 0.030343946
-0.20833465 -0.06329588 -0.015970811 0.07788852 0.10850914 -0.2275449 -0.13481392 0.16910858
0.03440229 -0.10741307 0.17781785 0.11419851 -0.03760706 -0.028959135 0.08995303 -0.07408661
0.29362926 0.10216861 -0.004103715 0.22160979 -0.2935056 0.11918534 0.09508878 -0.007203554
-0.048803136 0.09667021 -0.33712375 0.31835422 0.2040305 0.12781131 -0.11013263 -0.06644763
0.03007801 -0.10331579 0.108876966 -0.15699422 -0.010756563 -0.1505994 -0.0073900814 -0.19191703
-0.108552955 -0.19906865 -0.091685906 0.14915024 -0.023881301 0.21216094 -0.14049987 0.13584822
0.086679 0.07421763 0.1912248 0.026396887 0.05159138 -0.24910976 0.25656056 -0.1811713
0.11966565 0.27238452 0.055529244 -0.036005966 0.14577113 -0.10171303 0.26224273 0.23719636
-0.16071469 0.10474674 0.052530207 -0.20340393 0.13104929 -0.08152884 -0.2625001 -0.007429408
0.0688358 0.07589397 -0.03107894 0.13113038 0.09645177 -0.13690202 -0.23597229 0.21940024
-0.16571155 0.18901494 0.06518321 0.1533923 0.08305656 -0.048001077 0.01137547 0.005010241
-0.1014015 0.06748997 0.038258508 -0.11000121 -0.072502494 -0.35791758 -0.006244655 -0.048966613
0.007445667 -0.057227097 -0.083284326 -0.18958218 -0.020846173 -0.28800952 -0.22721405 -0.08217038
00000000: 7f91 7abe 89e1 90bd b303 8dbe f9cb 833d
00000010: 1f78 7f3d 499a 563e 4563 5ebd bfba d3bd
00000020: 6bc7 813e a8fa 46bd 63c9 c73d 82c5 9f3d
00000030: 1dee 0c3d b862 b33e c95a 203e 69ea 21be
00000040: 7110 73bd 9996 863e f435 ea3d e88a a43c
00000050: ea45 68bd 226b d63d 3744 2cbd 4ddd 113e
00000060: 4181 803e a268 db3e 1b8a b03e 8672 d7be
00000070: 497a 9a3d 4318 0c3d 21f0 36bd 6c7c e8be
00000080: e73f 9d3d 7736 2dbc 412d 3c3e 4917 113e
00000090: c86a 55be 5e50 2dbe 9990 27bd ae80 9d3d
000000a0: b06c 463e 610c 743e 9044 493d 1ce6 9a3e
000000b0: 6a0c b1bd a890 943c c7c4 923e 0f43 4b3e
000000c0: a912 7abe bf12 3ebe 32e1 afbe 868d 303e
000000d0: 39f4 f03d b341 f0bc 998a 993e 5e6f f13d
000000e0: 1cdc 70be b7ee 65bc 1ac7 ab3e 5d23 cf3d
000000f0: 7e86 133e 30f2 7e3c 61ff 40bd 96f5 70be
00000100: e210 953e 400f 933d fb2f 41bd 5734 033d
00000110: bce5 20be 5153 15be 4b51 13be 6764 a33d
00000120: bea3 cf3e ffbb 0bbd 5265 42bd b200 02be
00000130: 5304 3e3d 29d0 383d c36f 863e d841 343e
00000140: 10e6 57be e9c9 d93d 927e 54b9 55be e63d
00000150: 2b9a 1b3e c49a dfbc 892d dd3d cdeb 0bbd
00000160: 818e 9dbd 8573 713d f8c7 4f3e 7175 8c3d
00000170: 98e3 62bd ee6a a2bd c3db fb3c 5ae2 39be
00000180: 9544 913e 75b4 343e 4ea5 be3e 5418 0d3e
00000190: 0063 51be fcba 08be 8923 76be 8d94 98bb
000001a0: dd4c 7dbd dfff 073e 32a1 763e b870 b13d
000001b0: 7b9a 92be 21ec 843d fed9 baba b562 a33e
000001c0: 0685 50be 29c1 bebe 70d1 dcbe 2f3d 923e
000001d0: 0271 6f3e 248f 01be d402 903d 4fc7 953e
000001e0: 8ade 20be 5ffb 8bbe 25d4 8cbd 2f37 973e
000001f0: 8855 6a3e 9c1c 94be 914e 83be 3c42 20bb
00000200: 4655 853d bfb9 903c c66c 5e3d 7f9d f53d
00000210: 1530 a83e 1a15 cb3c 5075 f83b b26f 873e
00000220: d7ac 96be 8233 8c3d 016a 723e d3f8 8dbe
00000230: 7c3b 093d 6048 07be f857 fabd 896e 86be
00000240: a2fb 1fbc f05a 203d b498 12be bbd8 753e
00000250: 34d8 143e 9349 8cbe a8ad 0ebe de93 f83c
00000260: ae55 55be 45a1 81bd 38d5 82bc 0484 9f3d
00000270: 0a3a de3d 8801 69be a90c 0abe cd2a 2d3e
00000280: 6ae9 0c3d 62fb dbbd e215 363e e9e0 e93d
00000290: dc09 1abd b53b edbc 4b39 b83d b8ba 97bd
000002a0: 9356 963e c73d d13d 7578 86bb aded 623e
000002b0: 5e46 96be 7217 f43d e8bd c23d ca0b ecbb
000002c0: cce5 47bd 08fb c53d 7c9b acbe 53ff a23e
000002d0: 5fed 503e f8e0 023e 378d e1bd b215 88bd
000002e0: 2966 f63c 3b97 d3bd e3fa de3d 18c3 20be
000002f0: 4c3c 30bc bb36 1abe 7f28 f2bb e685 44be
00000300: 0351 debd a7d8 4bbe d2c5 bbbd d7ba 183e
00000310: b8a2 c3bc b840 593e 33df 0fbe cc1b 0b3e
00000320: c284 b13d 6aff 973d 6fd0 433e 493e d83c
00000330: 7c51 533d a116 7fbe e85b 833e f884 39be
00000340: 4413 f53d fc75 8b3e a272 633d fe7a 13bd
00000350: 0745 153e ec4e d0bd ae44 863e 9ae3 723e
00000360: 6492 24be 7585 d63d ea29 573d 1f49 50be
00000370: c931 063e 98f8 a6bd 6a66 86be 6472 f3bb
00000380: c9f9 8c3d 4c6e 9b3d 4399 febc 0b47 063e
00000390: 8188 c53d 0b30 0cbe b8a2 71be 75aa 603e
000003a0: 4ab0 29be 228d 413e c67e 853d df12 1d3e
000003b0: 8f19 aa3d c79c 44bd 2e60 3a3c f32c a43b
000003c0: 97ab cfbd 2e38 8a3d f4b4 1c3d 5048 e1bd
000003d0: 307c 94bd f940 b7be f69f ccbb 3791 48bd
000003e0: c8fa f33b f666 6abd f990 aabd d521 42be
000003f0: 98c5 aabc fc75 93be cdaa 68be f248 a8bd

encoder.rnn.bias_ih_l0 f4 [128]
0.19233927 0.14853099 -0.07541909 0.2905562 0.096478075 -0.084659815 0.021994837 0.10127757
-0.082939185 -0.0644244 0.019690955 -0.15092415 -0.090378754 -0.0639915 -0.18235344 0.087807044
-0.15655774 0.14763969 0.116411984 0.0792605 -0.014895801 0.24530312 -0.16914235 0.2107366
-0.10201392 0.20408948 -0.06744196 -0.019787654 -0.2648787 0.41563356 0.13712123 -0.19457892
0.059564024 -0.04992221 0.1641712 0.029502256 0.039776664 0.1479855 -0.06019071 -0.025318682
0.1577234 0.045271136 -0.11320015 0.047888782 0.1115958 0.047918 0.1384244 -0.24703681
0.09740843 0.1312982 -0.015911227 0.097986445 -0.09831455 0.1249646 -0.03823799 0.052633163
0.0031831355 0.006744566 -0.19217572 0.053362932 0.22393231 0.069622286 -0.017743943 0.1949976
0.04200139 0.06971218 0.07496497 0.1447674 0.2057531 0.09701772 -0.10437239 -0.036751386
-0.07109948 0.3309319 0.14059958 0.08059945 0.102899596 -0.16478822 0.061004903 0.026923269
-0.0011381541 0.007722393 -0.25072592 0.10239332 -0.03809487 -0.06606782 0.029137598 0.24047005
-0.072677754 -0.14143534 0.06699875 0.11798756 0.0005317291 0.088569835 -0.11943841 9.4089584e-05
0.42840284 0.06095675 0.11351717 -0.07925709 0.20622566 0.005584931 0.15704641 0.5576782
0.15710217 0.16173486 0.10200372 -0.2246728 -0.032213308 -0.032623105 0.14071241 0.01382354
0.25332716 0.09862469 0.1932377 0.120293215 0.13868174 0.3050161 0.2214778 0.35870767
0.07290478 0.07315496 -0.093720205 0.26790607 -0.046698727 0.47497913 0.11179343 0.16853337
00000000: 96f4 443e 8218 183e 5375 9abd c8c3 943e
00000010: 4c96 c53d 2062 adbd 842e b43c 9d6a cf3d
00000020: 05dc a9bd f1f0 83bd ed4e a13c dc8b 1abe
00000030: 7f18 b9bd fa0d 83bd dcba 3abe 2ed4 b33d
00000040: ac50 20be dc2e 173e 6869 ee3d 5453 a23d
00000050: 850d 74bc be30 7b3e a733 2dbe 56cb 573e
00000060: adec d0bd d5fc 503e 031f 8abd b819 a2bc
00000070: 2e9e 87be eccd d43e 8269 0c3e b23f 47be
00000080: 68f9 733d 3b7b 4cbd 7f1c 283e b7ae f13c
00000090: dbec 223d 8389 173e 898a 76bd 2069 cfbc
000000a0: 3e82 213e 3a6e 393d 7bd5 e7bd 0727 443d
000000b0: 578c e43d aa45 443d 20bf 0d3e 38f7 7cbe
000000c0: 127e c73d 0973 063e 4358 82bc 1ead c83d
000000d0: 2459 c9bd 71ed ff3d 709f 1cbd df95 573d
000000e0: 279c 503b 8501 dd3b b6c9 44be 1793 5a3d
000000f0: 834e 653e 2196 8e3d bf5b 91bc 73ad 473e
00000100: a609 2c3d 42c5 8e3d 3c87 993d e83d 143e
00000110: f1b0 523e 3ab1 c63d 31c1 d5bd 9f88 16bd
00000120: 9b9c 91bd e86f a93e 56f9 0f3e 5311 a53d
00000130: 06bd d23d 3ebe 28be 47e0 793d 308e dc3c
00000140: 1d2e 95ba 210c fd3b 265f 80be 97b3 d13d
00000150: 5e09 1cbd 914e 87bd f9b1 ee3c c83d 763e
00000160: 13d8 94bd 6dd4 10be a436 893d 76a3 f13d
00000170: bc63 0b3a 1a64 b53d 209c f4bd f651 c538
00000180: 9e57 db3e c9ad 793d b17b e83d 8b51 a2bd
00000190: d22c 533e cc01 b73b c6d0 203e 00c4 0e3f
000001a0: 64df 203e d39d 253e 54e7 d03d a010 66be
000001b0: 1af2 03bd ce9f 05bd ea16 103e 217c 623c
000001c0: 19b4 813e befb c93d 1be0 453e 4a5c f63d
000001d0: 9602 0e3e 122b 9c3e 14cb 623e 88a8 b73e
000001e0: 1a4f 953d 45d2 953d 61f0 bfbd fc2a 893e
000001f0: 2a47 3fbd 7730 f33e f4f3 e43d 0394 2c3e

encoder.rnn.bias_hh_l0 f4 [128]
-0.11905179 0.053172264 0.011659055 0.19085103 0.29138103 0.025310453 0.12259715 0.13904333
-0.05127619 0.22620583 0.1993275 -0.26420197 -0.06319105 -0.049525384 -0.16902173 0.04484462
-0.010632563 -0.056808446 0.08399622 0.04477921 0.14194144 0.3086633 0.05990592 -0.04903014
-0.12467446 -0.07293173 -0.06317077 -0.09013162 -0.2929263 0.46286225 0.027130054 -0.112401605
-0.020974936 -0.056543104 0.079085894 -0.005034995 0.09404457 -0.14247528 -0.19711274 0.008529996
-0.08384232 0.0798095 0.15805197 -0.2338276 0.049818866 -0.026694931 0.027293557 -0.13500291
-0.01869254 0.14224201 -0.008567302 -0.15204668 -0.071575604 -0.15479733 -0.037709896 0.16476786
-0.0648297 0.118284084 -0.04095436 0.011593273 0.09569863 0.10374433 0.042929865 0.1563698
-0.08072428 0.15669207 -0.008763955 -0.026216969 0.18762057 0.0025200318 0.036866598 0.13013315
-0.05634614 0.118309885 0.17032528 -0.09437291 0.0035406717 0.058016147 0.0024342453 0.00796723
0.06449465 -0.12577409 -0.16750664 0.17588371 0.023049701 -0.17628126 -0.16176951 0.031642985
0.04173911 -0.079709366 -0.04845435 -0.013278652 -0.011885073 -0.11797364 -0.070132695 0.15604451
0.19601026 0.027999664 -0.02308912 0.13297382 0.16692469 0.19070074 0.48440638 0.40456507
0.13865885 0.20551865 0.078325234 -0.07049131 0.059458632 0.09658522 0.25225952 0.18623757
-0.019177364 0.22569877 0.10380428 -0.064689085 0.22651845 0.18019365 0.3774171 0.3359147
0.17903815 0.12847105 0.110310234 0.006525525 0.046678882 0.2926059 0.0382656 -0.05215247
00000000: 6dd1 f3bd 29cb 593d 9f05 3f3c 746e 433e
00000010: e52f 953e de57 cf3c 3714 fb3d 6061 0e3e
00000020: fb06 52bd 80a2 673e 821c 4c3e 7b45 87be
00000030: 4f6a 81bd 21db 4abd 0814 2dbe feae 373d
00000040: 3434 2ebc f9af 68bd 3606 ac3d 686a 373d
00000050: 1959 113e 1e09 9e3e e95f 753d d4d3 48bd
00000060: 5355 ffbd 3b5d 95bd ad5f 81bd ed96 b8bd
00000070: 70fa 95be 48fc ec3e d93f de3c d032 e6bd
00000080: a1d3 abbc be99 67bd c9f7 a13d 99fc a4bb
00000090: 719a c03d 0ae5 11be ecd7 49be 65c1 0b3c
000000a0: 86b5 abbd 2a73 a33d 60d8 213e 8170 6fbe
000000b0: de0e 4c3d 54af dabc bd96 df3c 343e 0abe
000000c0: 1921 99bc e4a7 113e de5d 0cbc 20b2 1bbe
000000d0: 3b96 92bd 3183 1ebe b175 1abd e8b8 283e
000000e0: 6fc5 84bd ed3e f23d c2bf 27bd b6f1 3d3c
000000f0: a5fd c33d e877 d43d 3ad7 2f3d 681f 203e
00000100: c552 a5bd e373 203e b196 0fbc f8c4 d6bc
00000110: 9b1f 403e 1e27 253b 6e01 173d a041 053e
00000120: 36cb 66bd 744c f23d c069 2e3e 9646 c1bd
00000130: 9d0a 683b 57a2 6d3d dc87 1f3b fc88 023c
00000140: c515 843d ecca 00be dc86 2bbe dc1a 343e
00000150: bad2 bc3c 1383 34be e8a6 25be 139c 013d
00000160: a1f6 2a3d aa3e a3bd 1278 46bd b48e 59bc
00000170: 9cb9 42bc 2a9c f1bd bba1 8fbd 22ca 1f3e
00000180: eab6 483e 8d5f e53c 6525 bdbc 4a2a 083e
00000190: 4eee 2a3e 0e47 433e 1d04 f83e 2723 cf3e
000001a0: 96fc 0d3e 7b73 523e fb68 a03d bf5d 90bd
000001b0: e58a 733d 79ce c53d 2928 813e 10b5 3e3e
000001c0: d919 9dbc 941d 673e 5797 d43d b67b 84bd
000001d0: 74f4 673e af84 383e d03c c13e 03fd ab3e
000001e0: c755 373e ea8d 033e 55ea e13d 12d4 d53b
000001f0: 5b32 3f3d 71d0 953e 64bc 1c3d d49d 55bd

decoder.rnn.weight_ih_l0 f4 [256, 32]
0.3849704 0.5066516 -0.02995274 -0.14967461 0.4365078 -0.0640886 -0.045264453 0.18993264
-0.042054143 -0.05318492 0.13035844 -0.2721268 -0.063803576 1.2996516 -0.06366218 0.16492887
-0.32206887 -0.11204054 -0.03960681 0.09793285 -0.055010643 -0.20251459 0.22383624 0.053894065
-0.03340673 0.080231115 -0.41494137 0.51139283 0.13377592 0.04921181 -0.14976439 -0.23745373
0.01223469 0.51293886 0.024487674 -0.10169241 0.33756113 -0.025076186 0.030453531 -0.0064982325
0.18678653 0.038955692 0.13428657 0.05947929 -0.09989693 0.3139687 -0.29631206 -0.015594984
-0.022149108 -0.06478848 -0.14825144 -0.10026151 0.098616056 -0.04377292 -0.008500232 0.14067043
0.029112449 0.17273909 -0.03696812 0.017110832 -0.0056157853 -0.066505186 -0.0032430305 -0.0825932
0.24972565 0.3622539 0.37734377 0.118255675 0.14976893 -0.35691214 -0.21906748 0.2843323
0.0049870294 0.37875387 0.40616423 0.21685511 -0.37984207 0.31580597 0.1061501 0.16077295
-0.21854748 -0.41013122 -0.45634407 0.39523792 0.2186019 -0.49860162 0.31084132 0.35465217
-0.42735428 -0.14115235 0.086352386 0.016089937 0.49744937 -0.35408032 -0.2299768 0.030492852
0.26817977 0.7330839 0.21812639 -0.27507886 0.29360712 -0.06983274 -0.063759655 0.1514784
-0.29095092 0.049792614 0.037864674 -0.17832325 -0.22148256 0.6829269 -0.17265053 0.2342596
-0.36318156 -0.114658095 -0.18216684 -0.045281917 -0.04222213 -0.0728168 0.123768866 0.1559127
-0.06757736 0.14037295 -0.25472763 0.4664523 0.20929536 -0.054042332 -0.13734932 -0.18485859
0.39613461 0.7052806 -0.04354689 -0.6941464 1.3498403 0.19867554 -0.048966657 -0.05962021
-0.09030725 -0.10517415 -0.018517636 -0.36745656 0.066746876 2.4818442 -1.2692256 0.4042029
0.17816092 0.09156861 0.05777197 -0.068340406 -0.1717646 0.07302076 -0.29827553 0.042866725
0.0042556194 0.29175743 -0.9516818 0.51814765 0.094114885 0.09418549 -0.08925037 0.25866312
0.12086777 0.2151502 0.1708364 -0.014033544 -0.09326532 -0.123183586 0.003900284 0.16496675
0.07990974 0.15110968 0.16588019 -0.05721053 -0.22343566 -0.23931779 0.015048468 0.121637225
-0.37394047 -0.025182292 -0.1694583 0.06823909 0.22065142 -0.26638108 0.26321927 0.13700595
-0.17176944 0.0939444 -0.014643185 0.07062144 0.1030039 -0.17884198 -0.10432527 -0.21372415
0.22870827 0.6604221 -0.07392454 -0.45118144 0.6546517 0.046169452 0.06572603 0.09611249
0.42972496 -0.12243719 -0.10509806 -0.29569113 0.019667575 2.167382 -0.5005708 0.19360663
-0.43383244 -0.054567736 0.040711597 0.0014369322 -0.034813404 -0.0048263655 -0.17041817 0.07047047
0.02103176 0.27230152 -0.39145583 0.5543581 0.14797522 0.1044579 0.013888266 -0.48702067
0.14021228 0.630991 -0.04057324 -0.28358364 0.59973073 0.12225493 0.009882349 0.1695542
-0.036034916 -0.031305064 0.06578405 -0.33731842 -0.069174975 2.631675 -0.49742657 0.16081885
-0.25825855 0.12085093 -0.06783565 -0.07245759 -0.0048014983 0.01706621 0.098471835 -0.054024015
0.0016560238 0.19378185 -0.5040028 0.5590966 0.15196513 0.07730454 0.013682205 -0.26242444
00000000: d71a c53e ebb3 013f 735f f5bc 4d44 19be
00000010: f37d df3e e240 83bd 3867 39bd b47d 423e
00000020: f740 2cbd 6ed8 59bd af7c 053e 3454 8bbe
00000030: 73ab 82bd fc5a a63f 5161 82bd 1de3 283e
00000040: 36e6 a4be 8375 e5bd c03a 22bd 0591 c83d
00000050: d752 61bd fc5f 4fbe 5435 653e 06c0 5c3d
00000060: 7fd5 08bd 3650 a43d 3273 d4be a4ea 023f
00000070: 8efc 083e 5392 493d d65b 19be 1227 73be
00000080: 0274 483c f64f 033f 609a c83c 1c44 d0bd
00000090: d0d4 ac3e 936c cdbc af79 f93c 20ef d4bb
000000a0: f844 3f3e 0190 1f3d 6b82 093e 8ea0 733d
000000b0: c396 ccbd 81c0 a03e 37b6 97be 1b82 7fbc
000000c0: 0c72 b5bc d3af 84bd 3acf 17be e855 cdbd
000000d0: 37f7 c93d 3c4b 33bd 8f44 0bbc e90b 103e
000000e0: 3b7d ee3c 84e2 303e e26b 17bd 042c 8c3c
000000f0: 9f04 b8bb df33 88bd 0689 54bb a026 a9bd
00000100: 15b8 7f3e 5879 b93e 3433 c13e 0830 f23d
00000110: 075d 193e 30bd b6be 3a53 60be 0194 913e
00000120: 3c6a a33b 07ec c13e c2f4 cf3e 440f 5e3e
00000130: a97a c2be 52b1 a13e 3965 d93d aaa1 243e
00000140: e9ca 5fbe b8fc d1be eea5 e9be a05c ca3e
00000150: 2dd9 5f3e b648 ffbe 9826 9f3e f894 b53e
00000160: 2ece dabe 3e8a 10be 85d9 b03d 0bcf 833c
00000170: afb1 fe3e 044a b5be 0a7f 6bbe 25cc f93c
00000180: dc4e 893e 63ab 3b3f 865c 5f3e 23d7 8cbe
00000190: ac53 963e 7804 8fbd 6c94 82bd 271d 1b3e
000001a0: 85f7 94be 57f3 4b3d fd17 1b3d 5f9a 36be
000001b0: 53cc 62be 4cd4 2e3f 4dcb 30be c0e1 6f3e
000001c0: eff2 b9be ddd1 eabd f289 3abe 8879 39bd
000001d0: 1df1 2cbd f920 95bd 887a fd3d 94a7 1f3e
000001e0: 0066 8abd edbd 0f3e a96b 82be d6d2 ee3e
000001f0: 8651 563e 7e5b 5dbd 4da5 0cbe 924b 3dbe
00000200: 28d2 ca3e 458d 343f 395e 32bd 94b3 31bf
00000210: 91c7 ac3f 9a71 4b3e 4391 48bd 5234 74bd
00000220: 02f3 b8bd 8b65 d7bd 4cb2 97bc 4423 bcbe
00000230: 96b2 883d 89d6 1e40 fc75 a2bf aff3 ce3e
00000240: d16f 363e 5388 bb3d 4da2 6c3d 0ef6 8bbd
00000250: 0fe3 2fbe e98b 953d 92b7 98be 0595 2f3d
00000260: b972 8b3b 3b61 953e 6ba1 73bf 53a5 043f
00000270: 4ebf c03d 52e4 c03d e6c8 b6bd 7e6f 843e
00000280: 8589 f73d 5650 5c3e bdef 2e3e f3ec 65bc
00000290: e301 bfbd ad47 fcbd e89b 7f3b 0bed 283e
000002a0: b8a7 a33d 7fbc 1a3e 7fdc 293e 9755 6abd
000002b0: 51cc 64be b90f 75be d98d 763c f01c f93d
000002c0: 2075 bfbe 184b cebc 7a86 2dbe f0c0 8b3d
000002d0: 72f2 613e 1a63 88be adc4 863e 4a4b 0c3e
000002e0: 54e4 2fbe ec65 c03d f8e9 6fbc f9a1 903d
000002f0: b5f3 d23d 5a22 37be 7da8 d5bd 81da 5abe
00000300: 8032 6a3e 6c11 293f c065 97bd 4101 e7be
00000310: 4197 273f 2e1c 3d3d 5e9b 863d a0d6 c43d
00000320: e904 dc3e 59c0 fabd a73d d7bd d464 97be
00000330: e51d a13c 63b6 0a40 6825 00bf d140 463e
00000340: 491f debe 6b82 5fbd 34c1 263d 7257 bc3a
00000350: 8098 0ebd 7d26 9ebb 1a82 2ebe d252 903d
00000360: cc4a ac3c 1b6b 8b3e e66c c8be 6aea 0d3f
00000370: d186 173e 06ee d53d 9c8b 633c c65a f9be
00000380: cf93 0f3e a088 213f 2030 26bd e031 91be
00000390: f487 193f cb60 fa3d 93e9 213c 9e9f 2d3e
000003a0: 5999 13bd bd39 00bd cab9 863d 00b5 acbe
000003b0: 9cab 8dbd 5d6d 2840 b2ae febe b2ad 243e
000003c0: 773a 84be b180 f73d 6bed 8abd a564 94bd
000003d0: e355 9dbb 70ce 8b3c 9aab c93d 4948 5dbd
000003e0: f00e d93a c06e 463e 5406 01bf f420 0f3f
000003f0: bf9c 1b3e d851 9e3d 542b 603c 7f5c 86be

decoder.rnn.weight_hh_l0 f4 [256, 64]
-0.032090534 0.13184974 -0.01149929 0.06977084 -0.01260109 -0.019945502 0.060828004 0.05757238
0.16736597 -0.034812495 0.06715497 -0.04143856 -0.085905366 -0.021487927 0.07047485 -0.10621021
-0.18583933 0.15728348 -0.16382803 -0.103025824 -0.105366446 0.09844223 0.110344306 -0.03466458
-0.15680982 -0.055570584 0.006526748 -0.027748078 -0.1350494 0.017270595 -0.05072342 -0.0106480885
0.028664358 -0.039786804 -0.056688897 -0.10760682 -0.30248964 -0.016584594 0.017437933 -0.12983605
-0.13501315 -0.08977167 -0.4746356 0.043240357 0.13235107 -0.0050763437 -0.059361834 0.09237213
0.034910314 0.017354062 -0.109698944 0.046450615 0.007087242 -0.45974976 0.024800519 0.106698915
0.21594198 -0.11138477 -0.10042579 0.14250578 0.0629625 -0.16184825 -0.050943688 0.025360864
0.05915305 -0.08651302 -0.09353414 0.050948124 -0.011191576 -0.052948605 0.120464094 0.021204004
0.10634976 -0.02414121 0.122549 -0.16388623 -0.14597295 0.076777495 0.10107892 -0.059720866
-0.047085386 0.18172322 0.041005474 -0.008220861 -0.1314466 0.1267747 0.16810468 -0.090901256
-0.043785114 -0.06469237 0.10764437 0.1221655 -0.121514924 -0.060615614 -0.081402615 -0.046885174
-0.0022120127 -0.10575075 -0.04719521 -0.115841284 -0.062632576 -0.1546477 0.119258024 -0.09284221
-0.19219641 -0.35331464 -0.47549793 -0.15203623 0.046968345 -0.013206268 -0.13217531 -0.10353266
-0.105236284 -0.06926499 -0.12205405 -0.050634813 -0.04809886 -0.2955765 0.026409352 0.07640332
0.1585351 -0.11154364 -0.22483826 0.055143658 -0.054395765 -0.011990079 -0.06600815 0.19836345
0.044766903 -0.16347378 0.07806769 -0.091455735 0.06679058 -0.04793506 0.021654809 -0.062123828
0.1220863 0.11907776 0.020703012 -0.040683966 0.23576055 0.08032082 0.014217841 -0.086228535
-0.011960389 -0.061886594 -0.027947683 -0.08978658 0.039540097 0.0059561487 0.0022645325 -0.08488193
-0.0756503 0.018119644 -0.043730255 0.010078226 0.0884629 -0.022347154 0.07028862 0.044760093
-0.20181203 -0.1048838 -0.0757003 -0.19548564 0.33515537 0.04381544 -0.08328658 0.061569687
-0.06558699 -0.11898547 0.23171915 -0.14530316 -0.04066788 -0.0322437 -0.2924247 0.0690456
0.0074886135 -0.0025700459 0.1024941 -0.040660847 -0.16392052 -0.21901579 -0.036874447 -0.21390216
0.09200207 -0.04485639 0.09121332 -0.2555748 0.009595959 -0.01165956 -0.04556714 0.10584081
0.057538673 0.06805428 -0.15255302 0.08509553 0.2915932 0.083126426 0.11215172 0.068229
0.103326894 -0.06720814 0.12836508 -0.19903658 0.615561 0.12363128 0.18036503 -0.22593412
0.16139549 0.075435355 0.16142412 0.18666779 0.09188927 0.06080208 0.1912841 -0.17871495
-0.198707 -0.1764417 0.14093658 0.075502045 0.036719557 -0.018158207 -0.17198035 -0.11491601
-0.16191398 -0.050555386 0.25442424 0.0114648 -0.23910919 0.047792703 0.10280265 -0.2968957
-0.25021303 -0.43273488 0.4942654 -0.012616869 -0.26360887 -0.30451405 0.19743955 0.16743322
-0.14790311 -0.14779569 -0.12068691 0.01268938 -0.049718454 0.122146934 0.06439385 -0.26315895
0.07715644 0.24397343 -0.24943292 -0.031136898 -0.22716877 0.124668844 -0.23066416 -0.41024214
00000000: 5d71 03bd 9e03 073e 8567 3cbc 04e4 8e3d
00000010: cd74 4ebc c064 a3bc c926 793d 04d1 6b3d
00000020: fc61 2b3e 8c97 0ebd 8b88 893d 7bbb 29bd
00000030: 27ef afbd 7307 b0bc 1e55 903d bd84 d9bd
00000040: aa4c 3ebe ec0e 213e 89c2 27be 34ff d2bd
00000050: 5dca d7bd 149c c93d 32fc e13d 72fc 0dbd
00000060: c192 20be fb9d 63bd 55de d53b f04f e3bc
00000070: 644a 0abe 107b 8d3c 5cc3 4fbd 5275 2ebc
00000080: 84d1 ea3c 7df7 22bd 9e32 68bd f760 dcbd
00000090: ecdf 9abe 6adc 87bc ffd9 8e3c bef3 04be
000000a0: e340 0abe 36da b7bd 7003 f3be cd1c 313d
000000b0: 0a87 073e 7557 a6bb 6525 73bd 992d bd3d
000000c0: 1efe 0e3d 1b2a 8e3c d7a9 e0bd 0043 3e3d
000000d0: 183c e83b 5264 ebbe 752a cb3c f684 da3d
000000e0: e51f 5d3e b31d e4bd 09ac cdbd 09ed 113e
000000f0: 7cf2 803d 8cbb 25be 54aa 50bd 96c1 cf3c
00000100: 784a 723d bd2d b1bd d48e bfbd fbae 503d
00000110: df5c 37bc a3e0 58bd e1b5 f63d 05b4 ad3c
00000120: e7cd d93d c9c3 c5bc f8fa fa3d cbd1 27be
00000130: ef79 15be 853d 9d3d 7702 cf3d de9d 74bd
00000140: 9bdc 40bd a715 3a3e 5bf5 273d cab0 06bc
00000150: f099 06be 3ad1 013e a223 2c3e 702a babd
00000160: 0558 33bd 6f7d 84bd a774 dc3d e831 fa3d
00000170: d1dc f8bd 1448 78bd 6ab6 a6bd ab0a 40bd
00000180: 6af7 10bb d993 d8bd c44f 41bd 323e edbd
00000190: 8245 80bd f75b 1ebe 8d3d f43d 0e24 bebd
000001a0: 23cf 44be a8e5 b4be 7774 f3be 63af 1bbe
000001b0: e161 403d 1a5f 58bc f758 07be ee08 d4bd
000001c0: 1f86 d7bd ceda 8dbd 79f7 f9bd 7366 4fbd
000001d0: 4f03 45bd ce55 97be 6d58 d83c 5879 9c3d
000001e0: 0657 223e fe70 e4bd 003c 66be 51de 613d
000001f0: 18ce 5ebd 0972 44bc 482f 87bd ca1f 4b3e
00000200: 805d 373d ac65 27be f4e1 9f3d 254d bbbd
00000210: 80c9 883d 8e57 44bd 6d65 b13c 8e75 7ebd
00000220: 6208 fa3d 0adf f33d 5d99 a93c 3ba4 26bd
00000230: 376b 713e 3e7f a43d f3f1 683c 9698 b0bd
00000240: 82f5 43bc cc7c 7dbd 8af2 e4bc 07e2 b7bd
00000250: ccf4 213d cc2b c33b 8d68 143b 94d6 adbd
00000260: 8bee 9abd a66f 943c 7f1e 33bd 251f 253c
00000270: 092c b53d 6111 b7bc 7bf3 8f3d 5c56 373d
00000280: d0a7 4ebe 51cd d6bd c208 9bbd 632d 48be
00000290: 7c99 ab3e d277 333d 2892 aabd 7f30 7c3d
000002a0: 7952 86bd a7ae f3bd c947 6d3e 5aca 14be
000002b0: 5d93 26bd f811 04bd b1b8 95be c867 8d3d
000002c0: 0b63 f53b 376e 28bb 6de8 d13d fd8b 26bd
000002d0: c8da 27be ad45 60be a909 17bd 2b09 5bbe
000002e0: 956b bc3d 56bb 37bd 0dce ba3d b3da 82be
000002f0: 5f38 1d3c bd07 3fbc 9ca4 3abd 11c3 d83d
00000300: acad 6b3d 0b60 8b3d dc36 1cbe 9146 ae3d
00000310: b44b 953e 303e aa3d cdaf e53d a5bb 8b3d
00000320: 0d9d d33d 6ca4 89bd 2372 033e 3fd0 4bbe
00000330: 6895 1d3f 6632 fd3d 9cb1 383e 465b 67be
00000340: dc44 253e da7d 9a3d 5d4c 253e d725 3f3e
00000350: 7130 bc3d 9a0b 793d fbdf 433e 0d01 37be
00000360: d979 4bbe 22ad 34be ae51 103e d1a0 9a3d
00000370: 3f67 163d 85c0 94bc 9e1b 30be 1659 ebbd
00000380: c7cc 25be 2a13 4fbd e543 823e dbd6 3b3c
00000390: 0ad9 74be 48c2 433d 328a d23d b702 98be
000003a0: ec1b 80be 6d8f ddbe 5b10 fd3e fcb6 4ebc
000003b0: bef7 86be 44e9 9bbe 982d 4a3e 9d73 2b3e
000003c0: ea73 17be c157 17be b32a f7bd 1ee7 4f3c
000003d0: 94a5 4bbd 2c28 fa3d ece0 833d c5bc 86be
000003e0: 3204 9e3d 2cd4 793e 586b 7fbe cf12 ffbc
000003f0: ee9e 68be 6152 ff3d 3a33 6cbe 420b d2be

decoder.rnn.bias_ih_l0 f4 [256]
0.11054028 0.13218527 0.24220657 0.020209773 -0.14787108 0.20818368 -0.015081358 0.08896867
-0.02841183 0.426751 0.056316104 0.058638237 0.1339982 0.28756896 0.13557884 0.16722457
0.008558266 0.19325125 0.17311956 0.05584812 -0.04472198 0.013046437 0.24920693 0.18833666
-0.024561618 0.3656005 0.14763352 0.16211314 -0.018556964 0.066942476 0.15940115 0.23074979
0.361433 0.043371893 0.022576692 0.053296894 -0.0192998 -0.024027262 0.1613985 -0.09922374
-0.1432526 0.023660598 0.13827732 0.17664252 -0.072516315 0.20591417 -0.053405423 0.0021724203
-0.12236564 0.29596952 0.35936096 0.15851954 0.28070232 0.15299952 0.12284057 -0.012495305
0.20831944 0.11924295 0.18176048 0.13216743 0.36549234 0.031269852 0.25038034 0.24058756
0.13573207 0.089784116 0.0894696 0.055115826 0.12984212 0.0054477192 0.16370863 0.020003857
-0.007975929 -0.028395955 0.049064778 0.008101796 0.16520742 -0.11387968 -0.040404152 -0.00034518813
0.055930912 -0.01027833 0.070516326 -0.013748777 0.18747498 0.0777387 0.16624586 -0.06747962
0.033533733 -0.015542875 -0.09123008 0.0048429654 0.1061 0.048381746 0.04910783 0.14210728
0.14427008 0.042891994 0.018999435 0.092717886 0.121832624 0.2059375 0.04249116 -0.009598433
0.08582568 0.17223467 0.19634654 0.13863981 -0.045447584 0.15976912 0.1794275 -0.020942178
0.09488714 -0.1256638 0.019527394 0.14536768 -0.052524947 -0.1647155 0.090000644 0.00405401
0.15634383 0.17072031 0.04131777 0.14567764 0.053300723 -0.052458785 0.11117897 0.08134211
-0.19468467 0.13214305 -0.13609011 -0.050268047 -0.15860121 0.23494817 -0.21874456 -0.062325437
0.019999554 -0.033336513 0.0032303757 0.07990269 0.1854188 -0.13770199 -0.2582356 0.27139986
-0.23283997 -0.00219442 -0.17381114 -0.01807357 0.08898972 -0.22972602 -0.1143846 0.12465202
0.07223949 0.15091157 -0.07556354 -0.13221775 0.17045592 0.26492864 0.09960023 0.046017073
0.17808463 0.116774686 0.19279087 0.18210669 -0.1290262 0.0023234943 -0.14502457 0.1435275
0.09288007 -0.15876022 0.19232376 0.2601484 -0.20812535 -0.08542579 0.19682017 0.24038617
0.15181729 0.14159472 0.16064936 0.03759621 0.053503767 0.03523378 -0.13253099 -0.021913417
-0.00019292277 0.17304122 0.06896642 -0.020414118 -0.05790595 0.08531939 0.17080046 -0.1543521
0.23711292 0.087713 0.16661526 0.0737395 0.34323174 0.047336556 0.07640103 0.100976475
0.04078552 0.03227188 0.08407321 0.12153493 0.19665085 -0.000101503065 0.105726995 0.24031395
0.013133681 0.0124091795 0.18377927 0.07853373 0.12313194 0.07945651 0.2605985 0.031104166
0.1869255 0.07990053 0.15305877 -0.050714776 0.06370551 0.05474321 0.13746002 0.1633057
0.014470293 0.18522382 0.16652377 0.17524482 0.07251613 0.13077413 0.24903914 0.19129491
0.3342776 0.3191152 0.27979538 0.115361996 0.21897022 0.12738858 0.10700043 0.17916301
0.08529607 -0.04019957 0.12697676 -0.04635649 -0.054438904 0.21497777 0.06645006 0.25647134
0.028961767 0.19532603 0.15327244 0.022287486 0.11344581 0.180136 0.10705432 0.32898256
00000000: f162 e23d 935b 073e 0005 783e f78e a53c
00000010: 846b 17be 1a2e 553e cd17 77bc 3535 b63d
00000020: edbf e8bc 1b7f da3e b7ab 663d a62e 703d
00000030: d336 093e 3d3c 933e 2ed5 0a3e eb3c 2b3e
00000040: f837 0c3c a8e3 453e 4146 313e 00c1 643d
00000050: 652e 37bd b9c0 553c 1a30 7f3e 53db 403e
00000060: 7235 c9bc fd2f bb3e 3e2d 173e fd00 263e
00000070: c604 98bc 2319 893d 0e3a 233e ac49 6c3e
00000080: bf0d b93e baa6 313d c1f2 b83c d84d 5a3d
00000090: 9d1a 9ebc d2d4 c4bc a645 253e d135 cbbd
000000a0: cfb0 12be dfd3 c13c 9298 0d3e c7e1 343e
000000b0: 6f83 94bd 2adb 523e a5bf 5abd 2a5f 0e3b
000000c0: d69a fabd 5189 973e 29fe b73e f252 223e
000000d0: 37b8 8f3e e8ab 1c3e d693 fb3d 1cb9 4cbc
000000e0: b151 553e a635 f43d 6b1f 3a3e e656 073e
000000f0: d021 bb3e d114 003d da31 803e 965c 763e
00000100: 59fd 0a3e bce0 b73d d63b b73d 22c1 613d
00000110: 55f5 043e c882 b23b 3ca3 273e 21df a33c
00000120: 79ad 02bc a29e e8bc 26f8 483d 65bd 043c
00000130: 222c 293e c039 e9bd d37e 25bd 5efa b4b9
00000140: d017 653d 7166 28bc dd6a 903d 8d42 61bc
00000150: 71f9 3f3e 7835 9f3d 5b3c 2a3e c132 8abd
00000160: ab5a 093d 8ba7 7ebc d6d6 babd bdb1 9e3b
00000170: f54a d93d f02b 463d 4b25 493d 9284 113e
00000180: 89bb 133e 84af 2f3d b4a4 9b3c e0e2 bd3d
00000190: 6283 f93d 48e1 523e 360b 2e3d bf42 1dbc
000001a0: 60c5 af3d 495e 303e 110f 493e 98f7 0d3e
000001b0: 3f27 3abd 849a 233e d8bb 373e ee8e abbc
000001c0: 3054 c23d 03ae 00be eaf7 9f3c 44db 143e
000001d0: 6624 57bd 2eab 28be 4252 b83d 80d7 843b
000001e0: 9918 203e 4ed1 2e3e d23c 293d 852c 153e
000001f0: dc51 5a3d 06df 56bd cdb1 e33d b196 a63d
00000200: 6b5b 47be 8250 073e 355b 0bbe dee5 4dbd
00000210: 5b68 22be 4196 703e 93fe 5fbe f548 7fbd
00000220: 1bd6 a33c de8b 08bd b6b4 533b 06a4 a33d
00000230: 6dde 3d3e c001 0dbe 7537 84be ecf4 8a3e
00000240: 9a6d 6ebe 42d0 0fbb 8cfb 31be 060f 94bc
00000250: 3e40 b63d 4c3d 6bbe 7942 eabd 8f49 ff3d
00000260: 4cf2 933d 9088 1a3e 0fc1 9abd 1764 07be
00000270: ff8b 2e3e baa4 873e 35fb cb3d 667c 3c3d
00000280: d15b 363e 9127 ef3d f86a 453e 2d7a 3a3e
00000290: 721f 04be c445 183b 5281 14be dff8 123e
000002a0: e837 be3d 0a92 22be 85f0 443e 2c32 853e
000002b0: d01e 55be b7f3 aebd 3a8b 493e cb27 763e
000002c0: fe75 1b3e 35fe 103e 4481 243e 7cfe 193d
000002d0: c426 5b3d 4c51 103d 34b6 07be c483 b3bc
000002e0: 504b 4ab9 b831 313e 443e 8d3d 823b a7bc
000002f0: ca2e 6dbd efbb ae3d 51e6 2e3e 7a0e 1ebe
00000300: bbcd 723e e0a2 b33d 319d 2a3e bc04 973d
00000310: 12bc af3e fae3 413d 2578 9c3d c1cc ce3d
00000320: b80e 273d 852f 043d 932e ac3d 4ee7 f83d
00000330: d75e 493e 0bde d4b8 6587 d83d dc14 763e
00000340: a72e 573c df4f 4b3c a230 3c3e 4bd6 a03d
00000350: 992c fc3d 18ba a23d 2b6d 853e 2ace fe3c
00000360: 6669 3f3e e4a2 a33d 70bb 1c3e 4cba 4fbd
00000370: 0978 823d 6b3a 603d 52c2 0c3e 9c39 273e
00000380: cf14 6d3c 50ab 3d3e 3585 2a3e 6173 333e
00000390: 5683 943d a7e9 053e 1e04 7f3e d0e2 433e
000003a0: 6f26 ab3e 1163 a33e 5741 8f3e e942 ec3d
000003b0: bb39 603e 2772 023e 0b23 db3d 8276 373e
000003c0: b5af ae3d 4ea8 24bd 3206 023e 4ee0 3dbd
000003d0: 54fb 5ebd 2223 5c3e f816 883d 3650 833e
000003e0: 3a41 ed3c 8c03 483e 73f3 1c3e 3f94 b63c
000003f0: 4756 e83d 9275 383e 4c3f db3d 6770 a83e

decoder.rnn.bias_hh_l0 f4 [256]
0.105150506 0.038017485 0.30160066 0.15479417 -0.16154402 -0.012676041 -0.092077784 -0.024061142
0.07041224 0.32513562 0.04902573 0.14436425 0.11308588 0.2545228 -0.009963537 -0.026328642
0.07084025 0.05721247 0.32465452 -0.033663657 -0.058854003 -0.055244453 0.2357486 0.26632795
0.07818882 0.26361087 -0.08463033 0.1583203 0.043812092 0.14234431 0.08017148 0.1767384
0.17407432 0.026749527 0.061714258 0.09311031 -0.09524601 0.05402644 0.15610424 0.11825916
-0.105991155 0.09855764 0.21089981 0.14449164 -0.03726216 0.24267659 0.16587663 0.09232958
-0.10175686 0.24085027 0.42400962 0.10197362 0.16823041 -0.012572388 0.061664984 0.10680638
0.11387134 0.06920275 0.031802747 0.022464007 0.3301476 0.13540542 0.041952297 0.12337695
0.08526763 0.19371293 -0.08318491 0.12686005 0.06590025 -0.11617907 0.1776042 0.19361891
0.038868062 0.023379723 -0.06948295 0.09114482 0.06027835 -0.1238568 0.17456019 -0.045111008
0.06595078 0.1356845 0.10822294 0.0069426126 0.16183373 -0.0020447818 0.011778838 -0.039168037
-0.023250146 -0.0082569895 0.03981471 0.07833862 0.020282224 0.040724695 0.074765176 0.24069406
-0.05385189 0.14677782 0.13845247 0.11540332 0.06317106 0.1945374 0.13329007 -0.09240943
0.19707748 -0.05447081 0.07749226 -0.026740655 -0.074515216 0.12912501 0.20067887 0.0036829645
-0.066921785 0.065838285 -0.056540083 0.10919445 -0.124287136 0.05719587 -0.006027371 -0.0017092864
-0.0076048253 0.045262784 -0.032205794 0.009509916 0.15304628 0.16682447 -0.079526305 -0.047830936
-0.25654536 0.02212688 0.018439038 -0.18289432 -0.2112982 0.11429678 -0.10786102 -0.2895901
-0.19964729 -0.043524157 -0.07582781 0.096862875 0.02050739 -0.07508817 -0.107185155 0.18904144
-0.16000357 -0.15261048 -0.1670268 -0.017974373 0.04593021 -0.022063669 -0.22599004 -0.042827845
0.19655967 0.1461231 -0.12051593 -0.038201597 0.16235308 0.098351754 0.2114985 -0.0930757
0.25634763 0.23489875 0.13071586 0.20272036 -0.020239066 0.1357652 -0.24331653 0.23425148
0.12252108 -0.06522979 0.026864827 0.104801804 -0.0741813 -0.19100024 0.0032871 0.18190593
0.09143287 0.020220794 0.08974796 0.18427801 0.05248274 0.08777064 -0.023483545 -0.22165628
-0.2010053 0.19935921 0.22935858 -0.21573927 -0.08208232 0.1343491 0.19331126 -0.0003179968
0.062099215 0.22026686 0.136137 0.13189045 0.36130816 -0.011855502 0.1436606 -0.00027437328
-0.06390931 0.0916859 -0.0012042742 0.07905155 0.13768838 0.11234248 0.09790657 0.18254973
0.027443182 0.07146965 0.11575688 0.06329163 0.09004318 0.12261597 0.27481663 0.18902579
0.057724398 0.040448382 0.0048948233 0.11199053 0.20154919 0.09300257 0.17179893 0.179293
0.1522585 0.20332587 0.27187616 0.0498983 0.17242464 -0.041785 0.03607492 0.113789245
0.18057096 0.3236784 0.38219148 0.013427291 0.21274912 0.185344 0.19447574 0.2165367
0.088174134 0.1423687 0.19760111 0.084247395 -0.037803195 0.09642456 0.12919985 0.2835433
0.18038058 0.0437073 0.3033019 0.19588059 0.29899454 0.056089662 -0.005330865 0.24559961
00000000: 2659 d73d 39b8 1b3d 676b 9a3e 5d82 1e3e
00000010: cc6b 25be 2baf 4fbc 4793 bcbd df1b c5bc
00000020: 4b34 903d 2d78 a63e 34cf 483d 39d4 133e
00000030: 9299 e73d d050 823e 1a3e 23bc 2aaf d7bc
00000040: b114 913d 9f57 6a3d 1e39 a63e e7e2 09bd
00000050: e510 71bd 0248 62bd 1568 713e 235c 883e
00000060: 7621 a03d 01f8 863e ab52 adbd b71e 223e
00000070: 4f74 333d b5c2 113e f230 a43d e9fa 343e
00000080: 8a40 323e d321 db3c 17c8 7c3d 9eb0 be3d
00000090: 5710 c3bd d44a 5d3d cad9 1f3e dc31 f23d
000000a0: e411 d9bd 97d8 c93d 1ff6 573e 9ef5 133e
000000b0: 35a0 18bd 3680 783e 90db 293e 4a17 bd3d
000000c0: e765 d0bd 74a1 763e ca17 d93e 8cd7 d03d
000000d0: 9844 2c3e 6bfc 4dbc 6c94 7c3d 4ebd da3d
000000e0: 6135 e93d 2cba 8d3d 9943 023d 7006 b83c
000000f0: 1b09 a93e b8a7 0a3e 2cd6 2b3d 0ead fc3d
00000100: cca0 ae3d af5c 463e da5c aabd 9ae7 013e
00000110: b6f6 863d 4bef edbd e0dd 353e 0944 463e
00000120: 1e34 1f3d d586 bf3c 144d 8ebd 23aa ba3d
00000130: 6ee6 763d a2a8 fdbd e8bf 323e 52c6 38bd
00000140: 3411 873d e1f0 0a3e fda3 dd3d db7e e33b
00000150: beb7 253e bf01 06bb 07fc 403c aa6e 20bd
00000160: 1777 bebc 5348 07bc c014 233d 0070 a03d
00000170: e826 a63c f0ce 263d 7c1e 993d 8178 763e
00000180: cd93 5cbd ed4c 163e 7cc6 0d3e 9358 ec3d
00000190: d45f 813d d034 473e 317d 083e 2841 bdbd
000001a0: aece 493e c91c 5fbd 43b4 9e3d 380f dbbc
000001b0: 6f9b 98bd 5939 043e c37e 4d3e e45d 713b
000001c0: 4a0e 89bd 39d6 863d 9396 67bd 57a1 df3d
000001d0: 418a febd 3746 6a3d 4181 c5bb 220a e0ba
000001e0: e631 f9bb 7865 393d 39ea 03bd 7bcf 1b3c
000001f0: 2ab8 1c3e 09d4 2a3e b0de a2bd 5fea 43bd
00000200: ea59 83be 6e43 b53c 770d 973c a648 3bbe
00000210: 8e5e 58be 6e14 ea3d 3de6 dcbd 2745 94be
00000220: 5770 4cbe 6346 32bd 9c4b 9bbd 0b60 c63d
00000230: 1dff a73c d4c7 99bd e483 dbbd 1494 413e
00000240: fad7 23be ec45 1cbe 1309 2bbe fe3e 93bc
00000250: 5121 3c3d debe b4bc ef69 67be 406c 2fbd
00000260: f046 493e 4ba1 153e 0ed1 f6bd 4779 1cbd
00000270: e33f 263e a56c c93d 1093 583e 799e bebd
00000280: ff3f 833e 4c89 703e 61da 053e ed95 4f3e
00000290: 66cc a5bc 0806 0b3e f827 79be 9fdf 6f3e
000002a0: 55ec fa3d 3297 85bd a013 dc3c 54a2 d63d
000002b0: 5eec 97bd 9195 43be 636c 573b 8c45 3a3e
000002c0: 2841 bb3d 14a6 a53c c7cd b73d 60b3 3c3e
000002d0: 24f8 563d 18c1 b33d 9060 c0bc ddf9 62be
000002e0: 55d4 4dbe d224 4c3e fadc 6a3e c1ea 5cbe
000002f0: c61a a8bd cf92 093e 63f3 453e cfb8 a6b9
00000300: bf5b 7e3d a38d 613e 7f67 0b3e 4a0e 073e
00000310: 62fd b83e 943d 42bc c41b 133e c2d9 8fb9
00000320: e2e2 82bd d1c5 bb3d bdd8 9dba c7e5 a13d
00000330: 2ffe 0c3e d013 e63d 3d83 c83d 51ee 3a3e
00000340: 86d0 e03c ae5e 923d f111 ed3d 0b9f 813d
00000350: 8f68 b83d 151e fb3d c4b4 8c3e fa8f 413e
00000360: 6b70 6c3d 34ad 253d c164 a03b 4a5b e53d
00000370: e962 4e3e 2278 be3d 0fec 2f3e 9698 373e
00000380: a7e9 1b3e a834 503e 5a33 8b3e 2962 4c3d
00000390: 1690 303e c026 2bbd 4cc3 133d 560a e93d
000003a0: 98e7 383e 2db9 a53e 9aae c33e 24fe 5b3c
000003b0: e8da 593e d1ca 3d3e a624 473e ccbb 5d3e
000003c0: a494 b43d 1ac9 113e f257 4a3e e689 ac3d
000003d0: 86d7 1abd 3d7a c53d f74c 043e 962c 913e
000003e0: b0b5 383e 6d06 333d 634a 9b3e ec94 483e
000003f0: d015 993e 46be 653d 89ae aebb 777e 7b3e

decoder.output_layer.weight f4 [1, 64]
-0.31812295 0.26130754 0.30993697 -0.22883663 -0.3096666 0.2861578 -0.20785311 -0.30069655
-0.3449555 0.29507005 -0.3263841 0.33057207 0.31998342 -0.22164677 -0.33208776 0.2011537
-0.3359854 -0.10088351 -0.28336293 -0.30590305 0.27147558 -0.28429902 -0.08458135 0.27042323
0.25265852 0.3105854 -0.25445986 -0.32304224 0.30845284 0.2725396 0.32692197 0.2901901
0.3100499 0.25433445 0.3846236 0.28348997 -0.39787158 0.3927046 -0.21341331 0.37771258
0.16062444 -0.31540555 0.17489111 0.30984426 -0.32003677 -0.26653188 0.30048564 0.31244212
0.25755733 0.28737697 0.33147186 0.28798294 0.34154603 0.75711155 -0.3286474 -0.291279
-0.31536415 0.37305737 0.16150275 -0.27733812 0.32966146 -0.36679474 0.34045452 -0.38392574
00000000: 03e1 a2be 1aca 853e 0fb0 9e3e 2654 6abe
00000010: 9f8c 9ebe 4683 923e 72d7 54be e6f4 99be
00000020: 029e b0be 6c13 973e d11b a7be be40 a93e
00000030: ded4 a33e 5ff7 62be 6807 aabe 3cfb 4d3e
00000040: 4706 acbe 049c cebd f214 91be 539f 9cbe
00000050: d9fe 8a3e a48f 91be fd38 adbd ea74 8a3e
00000060: 755c 813e 0d05 9f3e 9048 82be cb65 a5be
00000070: 88ed 9d3e 4f8a 8b3e 5162 a73e cc93 943e
00000080: dcbe 9e3e 2038 823e 62ed c43e 9925 913e
00000090: d3b5 cbbe 9410 c93e 0589 5abe 8b63 c13e
000000a0: bc7a 243e d67c a1be a816 333e e8a3 9e3e
000000b0: dcdb a3be de76 88be 41d9 993e 6af8 9f3e
000000c0: 8ede 833e 1323 933e aeb6 a93e 8072 933e
000000d0: 1fdf ae3e 10d2 413f 7944 a8be 8522 95be
000000e0: 6977 a1be 6001 bf3e fa60 253e 43ff 8dbe
000000f0: 63c9 a83e 85cc bbbe 0e50 ae3e ea91 c4be
