detector_dev/Process_I24_simulations/models/cnn_lstm_ae_i24_detector_complete_obs_ver1.pt (torch_old, 126965 bytes, 12 tensors)

encoder.cnn.weight f4 [8, 4, 16]
0.016623251 0.014718668 0.012418565 0.010850525 0.008692219 0.006543048 0.0048252996 0.0034553376
0.0018913867 0.0010380383 -0.00022434386 -0.000919249 -0.0019016237 -0.0025863217 -0.003098111 -0.0031672458
-0.058323752 -0.10332224 -0.09418 -0.069745935 -0.073167324 -0.063791975 -0.051368933 -0.07260258
-0.053628463 -0.078897595 -0.08776371 -0.073233776 -0.08555127 -0.056090955 -0.033925988 -0.059304014
0.09188061 0.0880295 0.09139473 0.089769535 0.08562497 0.08430781 0.08486344 0.08350946
0.08306456 0.08219037 0.08337697 0.08708104 0.08718771 0.08405899 0.07900025 0.07727407
-0.11132019 -0.114539444 -0.1113481 -0.12541063 -0.13446417 -0.13861242 -0.13090934 -0.13864155
-0.13079195 -0.12966858 -0.13090542 -0.13780554 -0.14528054 -0.14145283 -0.13752127 -0.1289947
0.01710533 0.016687345 0.016310299 0.01612543 0.015855994 0.015880784 0.016052818 0.015870487
0.016131975 0.016561328 0.016662495 0.01728693 0.017628107 0.018271638 0.018652363 0.018921508
-0.049259312 -0.05181136 -0.03163749 -0.06479639 -0.07206316 -0.008484561 -0.023373842 -0.024960633
0.0132423015 -0.011734771 0.0030341614 -0.023766153 -0.030379562 0.016123539 0.020131929 0.015027439
0.052348487 0.053150233 0.056909617 0.06145972 0.061091747 0.06276282 0.06085312 0.06546492
0.06702285 0.06481895 0.059593283 0.064778805 0.0657789 0.059012845 0.061057806 0.05734358
-0.10351901 -0.11151714 -0.102149405 -0.114491284 -0.11510434 -0.11852869 -0.114331715 -0.100399196
-0.08001083 -0.082428485 -0.05820242 -0.024608076 -0.022412216 -0.028904548 -0.002908168 0.0068316525
-0.10445428 -0.0061120074 -0.12224292 -0.07521818 -0.018121177 -0.11704472 0.0020450482 -0.0003259536
-0.07412715 -0.05294242 -0.004899018 -0.006506823 -0.0018869225 -0.011289521 -0.07867059 -0.1409065
-0.097929396 -0.04398803 -0.018444162 -0.062296115 -0.033444643 -0.06767454 -0.15089676 -0.094996564
-0.047734812 -0.03578757 -0.042240232 -0.12565233 -0.122619696 -0.08451075 -0.14119095 -0.13460559
-0.09261668 -0.10399147 -0.1814499 -0.1750445 -0.17601526 -0.060310375 -0.036116242 -0.07360192
-0.14102371 -0.071185954 -0.0974475 -0.1611661 -0.1843936 -0.12788178 -0.072485626 -0.043027073
-0.059565343 -0.04006025 -0.048099097 -0.044929586 -0.046512533 -0.0333207 -0.039914787 -0.04060515
-0.042775787 -0.037775286 -0.07342118 -0.04809338 -0.063511714 -0.055554207 -0.053101607 -0.05659384
0.021595787 0.028956838 0.08158371 0.07360899 0.07512572 0.049619623 0.07186167 0.015682703
-0.004477274 0.014740796 0.06884639 0.0038959782 0.06129959 0.07896176 0.077457316 0.066364266
-0.019064318 0.0047947792 0.012665558 0.0002777345 -0.006601297 -0.042272322 -0.05803684 0.041816324
0.06404822 0.08692778 0.035493873 -0.0033630817 0.028205276 -0.051888842 -0.0019476092 0.06648311
0.016030265 -0.02733289 0.081268035 0.12317945 0.13097726 -0.0051122964 -0.02687607 0.061546363
0.007765259 -0.010728051 0.12357435 0.034062296 0.08559222 0.009733209 0.12916078 0.06148385
-0.19990009 -0.20436442 -0.20019574 -0.18240456 -0.1254632 -0.12521178 -0.08552143 -0.08639524
-0.06745284 -0.034870885 -0.02876142 -0.021671923 -0.037684023 -0.037457846 -0.0037585394 -0.012865197
00000000: 7c2d 883c 9126 713c 3d77 4b3c 67c6 313c
00000010: cf69 0e3c 1167 d63b 8c1d 9e3b f272 623b
00000020: 68e8 f73a c90e 883a d93d 6bb9 c2f9 70ba
00000030: e73f f9ba 477f 29bb ad09 4bbb 9191 4fbb
00000040: e3e4 6ebd 9c9a d3bd 72e1 c0bd f5d6 8ebd
00000050: c0d8 95bd 5ea5 82bd 3b68 52bd a9b0 94bd
00000060: 85a9 5bbd 1095 a1bd 76bd b3bd 97fb 95bd
00000070: 8135 afbd a1bf 65bd faf5 0abd c4e8 72bd
00000080: e72b bc3d cf48 b43d 292d bb3d 17d9 b73d
00000090: 255c af3d 93a9 ac3d e2cc ad3d 0207 ab3d
000000a0: c11d aa3d 6d53 a83d 8bc1 aa3d 8b57 b23d
000000b0: 788f b23d 1f27 ac3d e2ca a13d de41 9e3d
000000c0: d7fb e3bd a893 eabd 790a e4bd a56b 00be
000000d0: fab0 09be 6af0 0dbe 190d 06be 0df8 0dbe
000000e0: 53ee 05be d7c7 04be 120c 06be e51c 0dbe
000000f0: 6cc4 14be 03d9 10be 60d2 0cbe 3017 04be
00000100: 7a20 8c3c e6b3 883c 2d9d 853c 7a19 843c
00000110: 6ee4 813c 6b18 823c 3381 833c d302 823c
00000120: 3427 843c 9fab 873c c97f 883c 529d 8d3c
00000130: d268 903c 67ae 953c d7cc 983c 4701 9b3c
00000140: 22c4 49bd 2638 54bd 5096 01bd f8b3 84bd
00000150: da95 93bd d402 0bbc 807a bfbc 3e7a ccbc
00000160: 3df6 583c 3243 40bc c8d8 463b 3cb1 c2bc
00000170: 8fde f8bc 8315 843c b7eb a43c a635 763c
00000180: 5e6b 563d 0fb4 593d 0f1a 693d 30bd 7b3d
00000190: 573b 7a3d cb89 803d 1f41 793d 7912 863d
000001a0: 4743 893d ccbf 843d 1618 743d c0aa 843d
000001b0: 17b7 863d 74b7 713d c017 7a3d 1ae1 6a3d
000001c0: c601 d4bd 1963 e4bd b533 d1bd 687a eabd
000001d0: d3bb ebbd 2bbf f2bd bf26 eabd 189e cdbd
000001e0: b8dc a3bd 44d0 a8bd a965 6ebd e096 c9bc
000001f0: d399 b7bc 3bc9 ecbc f696 3ebb 0edc df3b
00000200: 20ec d5bd 3c47 c8bb 7f5a fabd fd0b 9abd
00000210: dd72 94bc 24b5 efbd 3706 063b c0e4 aab9
00000220: facf 97bd 27da 58bd f187 a0bb 3037 d5bb
00000230: 9d52 f7ba aff7 38bc 0c1e a1bd cb49 10be
00000240: 358f c8bd cb2c 34bd 3618 97bc 362a 7fbd
00000250: 40fd 08bd f398 8abd ae84 1abe 8f8d c2bd
00000260: 9485 43bd fd95 12bd 1804 2dbd 01ab 00be
00000270: 0920 fbbd f913 adbd 5c94 10be 0cd6 09be
00000280: d0ad bdbd 7bf9 d4bd 01ce 39be de3e 33be
00000290: 583d 34be 0308 77bd a0ee 13bd 9abc 96bd
000002a0: 8568 10be f1c9 91bd 8e92 c7bd ba08 25be
000002b0: add1 3cbe 71f3 02be 5873 94bd 283d 30bd
000002c0: cafa 73bd 3716 24bd 8f03 45bd 1608 38bd
000002d0: ed83 3ebd 497b 08bd b07d 23bd 9651 26bd
000002e0: aa35 2fbd 42ba 1abd d85d 96bd 90fd 44bd
000002f0: 6e12 82bd cf8c 63bd 1281 59bd f1ce 67bd
00000300: a6e9 b03c e436 ed3c 5c15 a73d 4fc0 963d
00000310: 83db 993d f23d 4b3d 362c 933d 0379 803c
00000320: 19b6 92bb 6183 713c 56ff 8c3d ab53 7f3b
00000330: 4715 7b3d b4b6 a13d f1a1 9e3d fde9 873d
00000340: c62c 9cbc 861d 9d3b 3383 4f3c e59c 9139
00000350: b14f d8bb be25 2dbd 0ab8 6dbd 9847 2b3d
00000360: b72b 833d 3107 b23d 0662 113d 2667 5cbb
00000370: c00e e73c 6589 54bd ec46 ffba 4c28 883d
00000380: e751 833c 3ae9 dfbc db6f a63d 8245 fc3d
00000390: e71e 063e 0d85 a7bb 342b dcbc 0a18 7c3d
000003a0: b773 fe3b b5c4 2fbc 8c14 fd3d e884 0b3d
000003b0: f94a af3d 0a78 1f3c b942 043e 7dd6 7b3d
000003c0: 9cb2 4cbe e844 51be 1d00 4dbe 43c8 3abe
000003d0: 6d79 00be 8437 00be dc25 afbd fdef b0bd
000003e0: b724 8abd c6d4 0ebd 129d ebbc 5189 b1bc
000003f0: 905a 1abd 666d 19bd d451 76bb 8cc8 52bc

encoder.cnn.bias f4 [8]
0.1068227 0.12116095 0.006847498 0.048428677 -0.006205657 0.013931361 0.3701547 -0.37911552
00000000: dcc5 da3d 3b23 f83d fa60 e03b 265d 463d
00000010: d358 cbbb 5d40 643c eb84 bd3e 6e1b c2be

encoder.rnn.weight_ih_l0 f4 [128, 8]
-0.105780676 -0.12263515 -0.042654365 0.056154337 0.11106473 0.10195139 -0.16183163 -0.086146966
0.020678442 -0.09489651 0.008039103 -0.0033551906 0.17300141 0.20401163 0.19466236 0.06838397
0.1891834 -0.12968993 0.16453448 -0.01988496 0.18714787 -0.092033565 0.111307904 0.0025348347
0.10309848 0.1362288 -0.02853155 0.3233345 0.3099225 0.39086348 0.21672006 0.043064076
0.016481804 0.03586841 0.089244954 0.22646065 -0.026563939 0.17127186 0.19047275 -0.112799935
0.1823086 0.15075496 0.08952708 -0.16312853 0.01521257 -0.013616625 0.097439915 -0.2157665
-0.09828974 -0.19572917 -0.030810319 0.14293428 0.2065477 0.022792596 0.326849 0.052428026
0.047434628 0.0948105 -0.038014513 0.059302516 0.30793 0.19411361 0.18730457 0.0042920206
0.07638221 0.14194529 -0.09473724 0.08835278 -0.025615225 -0.052819047 0.040462524 0.027200732
-0.14045915 0.10223168 -0.11705523 0.20282105 -0.011856777 0.046391144 0.003152033 -0.09656708
0.024777517 0.21385516 0.036662947 0.08649996 0.32591102 0.16754922 0.16124102 0.09778048
-0.018828336 0.0069936696 -0.04521478 0.13165715 0.40783155 0.50880545 0.107180476 0.19684352
0.06523558 -0.0855881 -0.025348298 0.25480738 -0.03202497 0.11567368 0.19706035 0.16139422
-0.02664712 -0.03116423 0.15935467 0.13129254 -0.108762614 -0.016816454 0.0030509075 0.17549182
0.46101797 0.515651 0.4680329 -0.08859405 0.14447157 -0.0429389 0.1309465 0.09676468
0.11403413 0.018166844 0.07464493 0.014986289 -0.058058176 -0.053426135 -0.10885277 0.053283546
0.06401999 -0.12533899 0.06607691 0.034986485 0.21624826 -0.019279122 0.03159539 0.013926991
0.082376115 -0.13693102 -0.13053869 0.10294185 0.14451334 0.03289687 0.026654134 0.13855813
0.15988043 0.01476077 0.06956835 -0.09579457 0.0014914955 -0.109508246 0.1848651 -0.04883085
0.10985743 -0.01016449 -0.021449571 0.09143862 -0.076947644 0.2411895 0.17541455 -0.06796184
0.079665124 0.086473025 0.2678052 -0.116625816 -0.07945487 -0.05691852 0.124072075 -0.036034632
0.10147941 -0.057680074 -0.15832159 0.0070454273 0.1924447 0.05752063 -0.06695825 0.08826544
-0.16319788 -0.113578625 0.075779356 -0.06653819 0.052150246 0.16165587 0.113250576 0.2693887
0.14294903 -0.16687867 -0.12525399 0.102944024 0.18787032 0.11312393 -0.09025217 0.14683378
0.029225508 0.013717935 0.10434175 0.06618183 -0.07217914 -0.11501212 0.06728049 -0.007898887
0.022968946 -0.1591966 -0.06354251 -0.16219951 -0.07143096 -0.10591935 -0.14478306 0.005336016
0.08133696 0.14167124 -0.110802665 0.11946796 0.0023089764 -0.06636306 -0.070097856 0.06765781
0.10194228 0.042010043 0.09931843 0.32112256 0.15149218 0.092727855 0.10153844 -0.037581403
-0.028480092 -0.14687169 -0.19002639 0.13131352 -0.029610856 0.1774528 0.046977542 -0.03910281
0.13842095 -0.022764247 0.042505156 0.08332889 0.0073861578 -0.04690686 -0.004316282 -0.036850158
0.17547059 -0.037930366 0.13105224 0.11324188 0.16399337 0.0570527 0.046506315 0.22358525
0.14127266 0.049850438 0.007178281 0.16731758 -0.1610395 -0.20460898 -0.1330809 -0.336832
00000000: 8aa3 d8bd 2328 fbbd 58b6 2ebd 1702 663d
00000010: e875 e33d e4cb d03d 31b7 25be d26d b0bd
00000020: d665 a93c 1a59 c2bd 71b6 033c c2e2 5bbb
00000030: 4827 313e 6de8 503e 9255 473e e50c 8c3d
00000040: 4bb9 413e 70cd 04be ba7b 283e c9e5 a2bc
00000050: b1a3 3f3e 187c bcbd 66f5 e33d 781f 263b
00000060: 4c25 d33d 907f 0b3e ffba e9bc 198c a53e
00000070: 29ae 9e3e 421f c83e ddeb 5d3e f563 303d
00000080: d904 873c c1ea 123d 0fc6 b63d 4de5 673e
00000090: 9e9c d9bc e461 2f3e 4a0b 433e a703 e7bd
000000a0: 1baf 3a3e 825f 1a3e f959 b73d 2a0b 27be
000000b0: 253e 793c 4418 5fbc 948e c73d e5f1 5cbe
000000c0: 224c c9bd 3a6d 48be ec65 fcbc 5d5d 123e
000000d0: 3e81 533e 8ab7 ba3c c158 a73e c5be 563d
000000e0: d04a 423d 022c c23d 1bb5 1bbd 32e7 723d
000000f0: 00a9 9d3e b8c5 463e c5cc 3f3e 14a4 8c3b
00000100: 476e 9c3d 1b5a 113e 9905 c2bd 4df2 b43d
00000110: 05d7 d1bc c958 58bd 08bc 253d 12d4 de3c
00000120: 86d4 0fbe d85e d13d a7ba efbd 52b0 4f3e
00000130: ed42 42bc a404 3e3d 5792 4e3b f6c4 c5bd
00000140: 38fa ca3c d9fc 5a3e e32b 163d e426 b13d
00000150: cfdd a63e 0692 2b3e 5e1c 253e 2241 c83d
00000160: e23d 9abc 272b e53b 2233 39bd 22d1 063e
00000170: 4ccf d03e 1341 023f 7081 db3d 5991 493e
00000180: 3b9a 853d d048 afbd 3ca7 cfbc 1d76 823e
00000190: 9d2c 03bd 53e6 ec3d 30ca 493e 8744 253e
000001a0: 104b dabc 214c ffbc df2d 233e 8d71 063e
000001b0: efbe debd a9c2 89bc bcf1 473b 21b4 333e
000001c0: 8c0a ec3e b401 043f 02a2 ef3e cc70 b5bd
000001d0: 5bf0 133e b3e0 2fbd d716 063e 902c c63d
000001e0: ba8a e93d a2d2 943c 71df 983d 0d89 753c
000001f0: 69ce 6dbd 5dd5 5abd 33ee debd d93f 5a3d
00000200: ea1c 833d dd58 00be 5553 873d fd4d 0f3d
00000210: 2f70 5d3e 40ef 9dbc 2b6a 013d 092e 643c
00000220: cfb4 a83d a537 0cbe efab 05be 2dd3 d23d
00000230: 4efb 133e debe 063d c559 da3c 2fe2 0d3e
00000240: b2b7 233e 28d7 713c da79 8e3d f22f c4bd
00000250: 497e c33a dc45 e0bd 474d 3d3e db02 48bd
00000260: effc e03d f688 26bc 03b7 afbc 2c44 bb3d
00000270: ba96 9dbd 61fa 763e df9f 333e 942f 8bbd
00000280: 7827 a33d c518 b13d c31d 893e 84d9 eebd
00000290: 3cb9 a2bd 6523 69bd 8019 fe3d 0d99 13bd
000002a0: 70d4 cf3d f141 6cbd 0e1f 22be 54dd e63b
000002b0: 3910 453e c19a 6b3d 6821 89bd 83c4 b43d
000002c0: 581d 27be e99b e8bd 3532 9b3d 2d45 88bd
000002d0: 7f9b 553d 1e89 253e ebef e73d 51ed 893e
000002e0: 3b61 123e 3ee2 2abe 9542 00be 51d4 d23d
000002f0: 1461 403e 85ad e73d 21d6 b8bd 985b 163e
00000300: 556a ef3c 31c1 603c 21b1 d53d 578a 873d
00000310: a8d2 93bd 798b ebbd 5bca 893d 556a 01bc
00000320: 5f29 bc3c 6f04 23be 9322 82bd a117 26be
00000330: 654a 92bd 3fec d8bd 0342 14be bfd9 ae3b
00000340: fe93 a63d 4412 113e 82ec e2bd 9eab f43d
00000350: 3252 173b 5be9 87bd 778f 8fbd 2e90 8a3d
00000360: 1dc7 d03d b912 2c3d 7667 cb3d 2d6a a43e
00000370: c420 1b3e 1ae8 bd3d 63f3 cf3d f5ee 19bd
00000380: 154f e9bc 8865 16be 4796 42be 0d77 063e
00000390: 7792 f2bc 30b6 353e 866b 403d 452a 20bd
000003a0: 39be 0d3e 167c babc e319 2e3d 56a8 aa3d
000003b0: 9507 f23b 6821 40bd 996f 8dbb 31f0 16bd
000003c0: 90ae 333e df5c 1bbd 8f32 063e 5ceb e73d
000003d0: e1ed 273e 18b0 693d 687d 3e3d 88f3 643e
000003e0: c8a9 103e f92f 4c3d c937 eb3b 4d55 2b3e
000003f0: 8ae7 24be 0485 51be 5c46 08be 3e75 acbe

encoder.rnn.weight_hh_l0 f4 [128, 32]
-0.20868178 -0.1326569 0.06853326 0.04526629 -0.05180661 0.052866388 0.027393742 0.1577102
-0.049326096 0.20248504 0.14915869 0.10808638 -0.11054347 0.0030227304 0.096968815 0.250623
0.20210652 0.13180646 0.1942487 0.104435004 -0.033585094 -0.156692 0.026681857 -0.17188823
-0.4002921 0.21843356 -0.11428559 -0.21055283 -0.13812175 0.10927097 0.038255926 -0.3284062
0.14800987 0.008828357 0.0566835 0.054747317 0.093854524 -0.12823798 -0.19626464 0.064960726
-0.13182542 0.08322687 -0.051046845 0.121261336 0.094779454 -0.10604681 0.10675893 -0.4142018
-0.45092955 -0.26453063 0.026560389 -0.013543992 0.13882314 0.13527901 0.04498709 0.17772785
-0.075941026 0.1510517 -0.031226689 -0.052010015 -0.15042134 -0.28136188 0.15041174 0.024972685
0.11656103 0.07965384 -0.28563783 0.26348123 -0.03828883 0.14799283 -0.14126366 -0.064943604
-0.08157473 0.13168944 -0.03162442 -0.033839285 0.21472117 -0.04606066 0.30857116 0.25656828
-0.17326756 0.18284766 0.08451818 0.13751714 -0.08577247 0.17349063 0.019900164 -0.0037569532
-0.06278568 -0.15438311 -0.15360522 0.0507346 0.18176138 -0.0718621 0.04172145 -0.11174981
-0.28599876 0.41107896 -0.34419826 0.54325145 0.33426976 -0.1302343 -0.3548913 0.28540373
-0.03854874 -0.45339152 -0.29502374 -0.09825652 0.460359 -0.1722056 0.31323126 0.11787358
0.27950343 -0.019697703 0.30583146 0.2966014 0.33617938 0.08065386 -0.2634787 0.19091432
0.14442894 0.33549875 -0.0029245755 0.4505643 -0.1517301 -0.12115185 0.29741237 -0.17509973
0.5585279 -0.01833021 0.35854933 -0.35847235 -0.29846382 -0.65566313 0.018337399 0.017408803
-0.29605693 0.4037193 0.29767168 -0.2516475 -0.56077296 -0.31190786 -0.31917906 -0.4217083
0.2759133 0.04784586 0.27850726 -0.345689 -0.15742677 -0.2226317 0.11185243 -0.090809196
-0.38219497 0.3904659 -0.4610774 -0.14342548 0.17726009 0.098235935 -0.36453292 0.19665618
0.40392196 -0.09318154 0.35555372 -0.12759984 -0.04789421 0.2413677 0.08832182 -0.21152915
-0.029872108 0.35072678 0.114370346 -0.03849717 -0.21974339 0.10698239 0.02776972 -0.017638765
0.10007475 0.14831804 0.2566731 -0.14539422 0.27620983 -0.35875762 0.11204336 -0.13789329
-0.24461803 0.055384934 0.14120227 -0.20530017 -0.089808896 -0.35532108 -0.019238459 0.009367834
0.06964359 -0.1356223 -0.031894 -0.27261832 0.03149458 -0.20280685 0.22515231 0.12545796
-0.24529187 0.023333833 -0.17228617 0.07129627 -0.013358905 -0.12383597 -0.0116550485 -0.255789
-0.19610798 -0.46660534 0.15643795 -0.22933038 0.1855843 0.03359578 0.21601242 0.114007
-0.044992678 0.3894617 -0.22745873 0.09778201 -0.3110497 -0.2784652 -0.088143945 -0.19141473
0.41037688 0.00014885646 0.018127577 -0.07902822 -0.084566705 -0.09994914 -0.04058316 -0.022476815
-0.20041487 0.2881929 0.059783235 -0.11118936 -0.03209721 -0.029897992 -0.34013718 -0.38213494
-0.0327171 0.18089539 -0.0158475 -0.20544568 0.0190047 -0.024305226 -0.00396193 -0.25310996
-0.2806387 -0.3019433 -0.20005867 -0.024554871 -0.10528694 -0.20917727 -0.23426114 0.15819728
00000000: adb0 55be 36d7 07be 2a5b 8c3d 2569 393d
00000010: 2b33 54bd 6d8a 583d d768 e03c c87e 213e
00000020: 290a 4abd 3d58 4f3e 0ebd 183e 645c dd3d
00000030: 9d64 e2bd 0019 463b 9697 c63d a851 803e
00000040: 03f5 4e3e 46f8 063e 22e9 463e 05e2 d53d
00000050: 8690 09bd de73 20be e993 da3c 7803 30be
00000060: 16f3 ccbe 0cad 5f3e 900e eabd 299b 57be
00000070: ca6f 0dbe 75c9 df3d 3fb2 1c3d dc24 a8be
00000080: e68f 173e d0a4 103c f52c 683d b93e 603d
00000090: cd36 c03d d150 03be 99f9 48be 210a 853d
000000a0: 3efd 06be d972 aa3d 7f16 51bd dd57 f83d
000000b0: bb1b c23d 122f d9bd 6da4 da3d 4212 d4be
000000c0: 3de0 e6be 8f70 87be 2c95 d93c 9fe7 5dbc
000000d0: a727 0e3e 9586 0a3e 6244 383d 4afe 353e
000000e0: f886 9bbd 4cad 1a3e 1dcf ffbc 7408 55bd
000000f0: 0d08 1abe aa0e 90be 8905 1a3e 8493 cc3c
00000100: 8db7 ee3d 8d21 a33d 1f3f 92be 03e7 863e
00000110: c0d4 1cbd 6f8b 173e 6ca7 10be 2701 85bd
00000120: a710 a7bd 99d9 063e 9c88 01bd 109b 0abd
00000130: dedf 5b3e 1aaa 3cbd 0afd 9d3e eb5c 833e
00000140: 0d6d 31be 6b3c 3b3e de17 ad3d 4bd1 0c3e
00000150: 7aa9 afbd 87a7 313e ab05 a33c 3737 76bb
00000160: c795 80bd 9b16 1ebe b04a 1dbe 15cf 4f3d
00000170: a81f 3a3e 702c 93bd 1ce4 2a3d 16dd e4bd
00000180: 6e6e 92be f178 d23e c13a b0be 8712 0b3f
00000190: 6825 ab3e 245c 05be 50b4 b5be 7020 923e
000001a0: 49e5 1dbd ef22 e8be 5a0d 97be b73a c9bd
000001b0: 2db4 eb3e aa56 30be d95f a03e b467 f13d
000001c0: 131b 8f3e 145d a1bc f195 9c3e 24dc 973e
000001d0: b41f ac3e da2d a53d aee6 86be 0b7f 433e
000001e0: 2ee5 133e 7ec6 ab3e 3caa 3fbb 5db0 e63e
000001f0: 235f 1bbe 761e f8bd 6f46 983e 584d 33be
00000200: affb 0e3f 3d29 96bc c793 b73e b089 b7be
00000210: 40d0 98be 8ad9 27bf 5038 963c e89c 8e3c
00000220: c694 97be 4cb4 ce3e 6c68 983e f1d7 80be
00000230: d18e 0fbf 63b2 9fbe 706b a3be 26ea d7be
00000240: 8244 8d3e 05fa 433d 8198 8e3e 26fe b0be
00000250: 7c34 21be 90f9 63be e312 e53d 2cfa b9bd
00000260: 0faf c3be 25eb c73e 5612 ecbe 21de 12be
00000270: ab83 353e ec2f c93d 0fa4 babe 3d60 493e
00000280: dcce ce3e f7d5 bebd 230b b63e 88a9 02be
00000290: b82c 44bd 1829 773e 12e2 b43d 199b 58be
000002a0: 5ab6 f4bc 7692 b33e 003b ea3d 35af 1dbd
000002b0: 6904 61be 9519 db3d 537d e33c 2c7f 90bc
000002c0: fef3 cc3d afe0 173e a86a 833e 39e2 14be
000002d0: 606b 8d3e 14af b7be fd76 e53d e633 0dbe
000002e0: 267d 7abe 50db 623d 5497 103e 353a 52be
000002f0: baed b7bd a5ec b5be f999 9dbc 8b7b 193c
00000300: 4ca1 8e3d 92e0 0abe 48a3 02bd a194 8bbe
00000310: 7600 013d 99ac 4fbe 548e 663e 0d78 003e
00000320: cb2d 7bbe 9826 bf3c c96b 30be c703 923d
00000330: 4fdf 5abc b79d fdbd d1f4 3ebc c7f6 82be
00000340: 88d0 48be e5e6 eebe 4531 203e 95d5 6abe
00000350: d009 3e3e bb9b 093d 5c32 5d3e 817c e93d
00000360: 3e4a 38bd 8667 c73e f1ea 68be ef41 c83d
00000370: e841 9fbe fe92 8ebe d084 b4bd 3902 44be
00000380: eb1c d23e 5a16 1c39 4980 943c 8cd9 a1bd
00000390: 4f31 adbd 22b2 ccbd 873a 26bd 4c21 b8bc
000003a0: 8e39 4dbe 058e 933e 44df 743d 3fb7 e3bd
000003b0: 5d78 03bd a2ec f4bc 7626 aebe 31a7 c3be
000003c0: 5e02 06bd a43c 393e 9ed2 81bc 5a60 52be
000003d0: bfaf 9b3c c11b c7bc 14d3 81bb a197 81be
000003e0: e0af 8fbe 5098 9abe 2edc 4cbe 4c27 c9bc
000003f0: aea0 d7bd 9132 56be 27e2 6fbe 78fe 213e

encoder.rnn.bias_ih_l0 f4 [128]
0.045663588 -0.02628378 -0.09534865 0.44614792 -0.21444899 -0.047437266 -0.017616507 0.052975573
-0.4680049 0.2928805 -0.06779558 0.17293575 0.28233132 -0.21791251 -0.020655332 -0.015245421
0.33878085 0.09232624 0.12972775 0.39098945 -0.0790558 -0.26560384 0.006106763 -0.086351015
0.14062148 0.012232473 0.0039378866 -0.00016391784 -0.19476411 -0.34502876 0.3146963 0.05695735
0.5904546 0.104034394 0.14297703 0.05238459 0.3374846 0.3704574 0.10476325 0.10848462
0.13850483 0.3408167 0.099302836 0.19503734 0.21149002 -0.15368804 0.3366354 0.2663769
0.193246 0.30324882 0.10531556 -0.052694127 -0.0637947 0.16065323 0.14484365 0.30931747
0.5172164 0.08024506 0.38451162 0.3013584 0.10521808 -0.26700193 0.10847239 0.1538618
-0.33157578 0.13710046 -0.37287655 0.41174534 -0.08342959 0.28267208 -0.18994485 0.25478312
0.23153962 -0.21193571 -0.1979507 0.13744652 0.12838799 0.209316 0.1836163 0.13942601
0.2792659 0.08584485 0.010280113 0.38909408 0.12408233 -0.12567434 0.047318175 -0.15866755
-0.009395466 0.12095496 0.32276493 0.22528511 0.0742321 -0.1791739 0.081775114 0.060562197
0.023052627 0.18916717 0.0480208 0.1154241 0.13082853 0.103670634 -0.2048548 -0.3269409
0.16092883 -0.03179686 -0.364774 0.2878915 0.19575249 -0.0078567155 0.48416376 0.27920917
-0.05367192 0.5008854 -0.42779154 0.1060687 -0.28202897 0.23731115 0.1766735 -0.076702505
0.03156551 0.2705548 0.031407207 -0.061451476 -0.11754596 -0.17675726 0.20571968 -0.21943267
00000000: be09 3b3d 1551 d7bc 2746 c3bd 806d e43e
00000010: 8498 5bbe 944d 42bd 7e50 90bc eafc 583d
00000020: 579e efbe 6ff4 953e 69d8 8abd 1216 313e
00000030: bb8d 903e 7524 5fbe 5f35 a9bc eec7 79bc
00000040: af74 ad3e 8a15 bd3d 5ad7 043e c52f c83e
00000050: 02e8 a1bd 3afd 87be 3e1b c83b cdd8 b0bd
00000060: 14ff 0f3e b66a 483c 6309 813b 5ce1 2bb9
00000070: 3e70 47be 9ca7 b0be e01f a13e 1c4c 693d
00000080: 0828 173f fc0f d53d 9268 123e 3991 563d
00000090: c8ca ac3e 98ac bd3e 1d8e d63d 2f2d de3d
000000a0: 36d4 0d3e 877f ae3e 495f cb3d deb7 473e
000000b0: d790 583e 6660 1dbe 7a5b ac3e 8e62 883e
000000c0: 48e2 453e 6e43 9b3e afaf d73d ccd5 57bd
000000d0: cca6 82bd 4882 243e e551 143e dc5e 9e3e
000000e0: 4b68 043f 8657 a43d b5de c43e a64b 9a3e
000000f0: 947c d73d 7ab4 88be c626 de3d f38d 1d3e
00000100: 4dc4 a9be 1064 0c3e ade9 bebe 49d0 d23e
00000110: 22dd aabd 65ba 903e e780 42be ef72 823e
00000120: b918 6d3e ad05 59be 97b3 4abe c8be 0c3e
00000130: 2478 033e ef56 563e e905 3c3e b1c5 0e3e
00000140: f1fb 8e3e 6dcf af3d eb6d 283c 5737 c73e
00000150: e01e fe3d c6b0 00be b4d0 413d bf79 22be
00000160: 71ef 19bc 3cb7 f73d 7241 a53e 24b1 663e
00000170: 0007 983d 5d79 37be b679 a73d 1110 783d
00000180: ddd8 bc3c 0ab5 413e 75b1 443d 7863 ec3d
00000190: eaf7 053e 4551 d43d 75c5 51be cc64 a7be
000001a0: 87ca 243e 6d3d 02bd a8c3 babe 8466 933e
000001b0: 5773 483e 74b9 00bc 50e4 f73e 81f4 8e3e
000001c0: 16d7 5bbd 073a 003f 7e07 dbbe 8c3a d93d
000001d0: 1a66 90be b201 733e e6e9 343e 3416 9dbd
000001e0: d64a 013d 2986 8a3e d8a4 003d 8bb4 7bbd
000001f0: f0bb f0bd dbff 34be 2ea8 523e f5b2 60be

encoder.rnn.bias_hh_l0 f4 [128]
-0.13685182 -0.14000279 -0.041006215 0.22621638 -0.30573875 -0.23270078 -0.14872319 0.032761704
-0.62917286 0.39609772 -0.0542485 0.12228493 0.20437749 -0.29307735 -0.037840713 -0.09764445
0.38097793 0.12886669 0.2436978 0.4294167 -0.15694535 -0.43059766 -0.098585844 -0.24033383
0.22374906 0.23024483 -0.23180275 -0.009725831 -0.26689866 -0.5759921 0.44483617 -0.14656733
0.77815837 0.31069717 0.31564412 0.10086743 0.2374198 0.22651492 0.05649453 -0.13323401
0.06241124 0.30662984 0.21705098 0.15540598 0.32401508 -0.092053495 0.36686647 0.091919824
0.03205883 0.12651055 0.0938381 0.08541919 0.12262546 0.09174101 0.17145671 0.20810819
0.28335154 0.13577957 0.5104125 0.026531136 -0.07874084 -0.10754227 0.06601739 0.12952207
-0.31116945 0.2535441 -0.4092852 0.4218186 -0.13220458 0.085460655 -0.15075716 0.06293232
-0.024453174 -0.017478013 -0.09723085 0.38710013 0.17570703 0.22688596 0.29369098 0.37398615
0.053100582 -0.06296919 -0.060703944 0.37348652 0.01639852 -0.1708572 -0.23211284 -0.04951989
-0.0045054434 0.013594543 0.15749125 0.17788747 -0.071756415 -0.25774184 0.25295302 0.08151442
0.09924308 -0.03339363 0.30783606 0.2301543 0.2844628 -0.020545114 -0.32914042 -0.08292675
0.2858283 -0.06516752 -0.12977517 0.20123075 0.20037632 -0.14473806 0.16569684 0.3804482
-0.0398512 0.25045633 -0.26669458 0.14462976 -0.44097385 0.257228 0.14824691 -0.22824192
0.14857225 0.050169524 -0.050854616 -0.10220015 -0.03513248 -0.23579496 0.13215569 -0.29709086
00000000: e222 0cbe e45c 0fbe 22f6 27bd 44a5 673e
00000010: ca89 9cbe 1d49 6ebe e44a 18be 2331 063d
00000020: 7911 21bf 52cd ca3e ad33 5ebd 8570 fa3d
00000030: 5548 513e 3c0e 96be ddfe 1abd d0f9 c7bd
00000040: 8a0f c33e a1f5 033e eb8b 793e 81dc db3e
00000050: 48b6 20be 4c77 dcbe 60e7 c9bd 121a 76be
00000060: 791e 653e 4dc5 6b3e b35d 6dbe 1859 1fbc
00000070: f1a6 88be 3874 13bf 91c1 e33e bf15 16be
00000080: 6335 473f b313 9f3e 1b9c a13e 9593 ce3d
00000090: 2d1e 733e 87f3 673e cf66 673d 7f6e 08be
000000a0: eea2 7f3d 96fe 9c3e 9d42 5e3e bf22 1f3e
000000b0: 4ee5 a53e 8b86 bcbd ecd5 bb3e 7640 bc3d
000000c0: 1f50 033d fb8b 013e 312e c03d 42f0 ae3d
000000d0: 0f23 fb3d b6e2 bb3d 5992 2f3e 501a 553e
000000e0: 7413 913e cd09 0b3e 65aa 023f d357 d93c
000000f0: e142 a1bd 1f3f dcbd 2034 873d 6fa1 043e
00000100: 9a51 9fbe 88d0 813e d48d d1be 9cf8 d73e
00000110: a360 07be ff05 af3d 1660 1abe a9e2 803d
00000120: 0652 c8bc 0d2e 8fbc f820 c7bd fd31 c63e
00000130: 8bec 333e cb54 683e aa5e 963e 1d7b bf3e
00000140: ff7f 593d fef5 80bd b3a4 78bd a039 bf3e
00000150: 3056 863c 31f5 2ebe fdae 6dbe 5ed5 4abd
00000160: 66a2 93bb a5bb 5e3c 6345 213e 2228 363e
00000170: 07f5 92bd bdf6 83be 0f83 813e 08f1 a63d
00000180: f53f cb3d c2c7 08bd b09c 9d3e 92ad 6b3e
00000190: 1ca5 913e 3a4e a8bc 1885 a8be 80d5 a9bd
000001a0: 1658 923e 8c76 85bd c8e3 04be 6f0f 4e3e
000001b0: 732f 4d3e 3736 14be 6fac 293e 1bca c23e
000001c0: 033b 23bd d03b 803e 318c 88be d319 143e
000001d0: 53c7 e1be 63b3 833e 0ace 173e 40b8 69be
000001e0: 5323 183e 8f7e 4d3d ee4c 50bd 504e d1bd
000001f0: 13e7 0fbd 3c74 71be d253 073e 4b1c 98be

decoder.rnn.weight_ih_l0 f4 [256, 32]
0.7976989 0.21917497 0.25537336 0.15031779 0.33328384 -0.28767863 -0.18089642 -0.49397248
-0.7455828 0.23960215 -1.1098402 0.057481408 0.12694672 -0.40776807 0.36541972 -1.0603137
0.27103928 0.3256897 0.37275127 0.3597118 0.4992641 0.37971506 -0.2400625 0.2575519
-0.20058297 0.47928488 -0.48161912 0.21483369 0.19410808 -1.6412158 0.24537072 -1.0014508
0.39272344 0.45374435 -0.037978906 0.28291133 0.45177567 -0.4107042 -0.6386546 0.087074265
-0.2712565 0.043563932 -1.04775 -0.82142556 0.262233 -0.48841023 0.115257524 -0.7686701
0.6341354 0.107377745 0.30287436 0.5095326 0.7110102 0.42293727 -0.61895317 0.65674174
0.004522347 -0.027111089 -0.25844327 0.3959496 0.34663177 -1.5195655 0.47590968 -1.5648273
0.37685227 0.49460986 0.17161673 0.37886083 0.34468892 -0.08647573 -0.2065631 -0.33961326
-0.47130838 0.25013086 -0.4664302 0.18979739 0.17084867 -0.3144575 0.25883213 -1.1446527
0.17323664 0.1842265 0.029492304 0.24135812 1.0355307 0.30074215 -0.3478027 0.13976428
-0.30453435 0.30438447 -0.16685346 0.29419056 0.1324854 -0.80785465 0.41937697 -0.88874245
0.60559887 0.5785535 0.08205399 0.2975953 0.6295205 -0.41657218 -0.40047136 -0.15899734
-0.5495285 0.14174293 -0.79974085 -0.069655396 0.17633839 -0.9117105 0.40757042 -0.723577
-0.029359309 0.113147385 0.14961666 0.22284019 0.5404969 0.44992074 -0.53771925 0.38645864
-0.12603796 0.14918086 -0.8393888 0.28066897 0.34916514 -1.0199488 0.40448314 -0.89012384
0.49289122 0.51415306 -0.1570618 0.38943815 0.58674556 -0.4322536 -0.4296259 -0.08350523
-0.44580755 -0.17751086 -0.63395834 -0.17149954 0.34505576 -0.6814486 0.445958 -0.54420274
0.21300799 -0.05792779 0.2323445 0.5809337 0.5269729 0.6201668 -0.5973807 0.6080652
0.2772597 0.059250273 -0.4442836 0.6358913 0.18928687 -0.8879011 0.6325639 -1.1146739
0.29599643 0.94221216 -0.49472162 0.6781078 0.8809072 -0.38295197 -0.4912501 -0.18116197
-0.39740384 -0.33359474 -0.8306475 -0.018481603 0.56273997 -0.3675394 0.4825196 -0.39595824
0.37899414 0.089227274 0.29977366 0.72166955 0.5281792 1.0331095 -0.6333923 0.5886115
0.4788978 0.23261464 -0.37031773 0.6767746 0.37435004 -0.59311694 0.83102196 -0.81743336
0.71430594 0.23018683 0.14753452 0.20199156 0.40311512 -0.28947228 -0.31475455 -0.22667475
-0.4854689 0.15400973 -0.7094859 -0.08781893 0.1404926 -0.33559957 0.1390475 -0.8179947
0.62710476 0.23245749 0.27007765 0.24207918 0.6033601 0.34829843 -0.3612152 0.4207131
-0.17812787 0.20751454 -0.5075824 0.28884134 0.29839933 -1.313555 0.4058717 -1.3250506
0.39266545 0.88703173 -0.2268371 0.46233517 0.868291 -0.3077586 -0.48760813 -0.15969485
-0.32591945 -0.07317747 -0.7182496 -0.10287903 0.44167504 -0.6435137 0.43660274 -0.5337257
0.14417131 -0.050099634 0.17839034 0.62367713 0.5302297 0.92003584 -0.5554446 0.8255734
0.08313181 0.47421303 -0.43150523 0.6430367 0.2598147 -0.72217494 0.5731354 -0.79715925
00000000: ff35 4c3f 676f 603e 4cc0 823e e8ec 193e
00000010: 2ea4 aa3e 9d4a 93be e93c 39be f6e9 fcbe
00000020: 84de 3ebf 445a 753e 3e0f 8ebf a071 6b3d
00000030: 52fe 013e fac6 d0be 4b18 bb3e 5cb8 87bf
00000040: a9c5 8a3e cdc0 a63e 41d9 be3e 252c b83e
00000050: 8b9f ff3e 036a c23e f2d2 75be d8dd 833e
00000060: 9f65 4dbe d464 f53e c896 f6be 5dfd 5b3e
00000070: 45c4 463e 5c13 d2bf 7642 7b3e 8a2f 80bf
00000080: 0c13 c93e 2e51 e83e c58f 1bbd c1d9 903e
00000090: 244f e73e d247 d2be de7e 23bf fe53 b23d
000000a0: 22e2 8abe 1870 323d ac1c 86bf f248 52bf
000000b0: 6743 863e e810 fabe 230c ec3d 90c7 44bf
000000c0: b356 223f dde8 db3d 5912 9b3e ba70 023f
000000d0: c404 363f 3c8b d83e b773 1ebf 3a20 283f
000000e0: 3230 943b 1318 debc ad52 84be e8b9 ca3e
000000f0: b879 b13e 1f81 c2bf 6faa f33e 434c c8bf
00000100: c8f2 c03e 813d fd3e 4cbc 2f3e 0cfa c13e
00000110: 117b b03e 301a b1bd 4785 53be cae1 adbe
00000120: 554f f1be 2711 803e f0cf eebe 3f5a 423e
00000130: f4f2 2e3e 9300 a1be a585 843e fb83 92bf
00000140: f264 313e dfa5 3c3e d899 f13c 9526 773e
00000150: 458c 843f e0fa 993e 3213 b2be 5e1e 0f3e
00000160: edeb 9bbe 48d8 9b3e a2db 2abe 25a0 963e
00000170: 41aa 073e 90cf 4ebf 94b8 d63e a084 63bf
00000180: 8708 1b3f 151c 143f ec0b a83d 695e 983e
00000190: 4128 213f f348 d5be 950a cdbe 33d0 22be
000001a0: e6ad 0cbf 0f25 113e d1bb 4cbf 7da7 8ebd
000001b0: 0d92 343e dc65 69bf 12ad d03e 583c 39bf
000001c0: ef82 f0bc d1b9 e73d 1c35 193e 3830 643e
000001d0: 015e 0a3f 035c e63e f8a7 09bf e8dd c53e
000001e0: 1810 01be dec2 183e 2fe2 56bf d8b3 8f3e
000001f0: c6c5 b23e af8d 82bf 6a18 cf3e 28df 63bf
00000200: 3d5c fc3e 899f 033f cfd4 20be 7064 c73e
00000210: f534 163f 5850 ddbe edf7 dbbe ca04 abbd
00000220: e340 e4be 68c5 35be 184b 22bf 939d 2fbe
00000230: 26ab b03e 6a73 2ebf 9b54 e43e df50 0bbf
00000240: c41e 5a3e b145 6dbd b7eb 6d3e 12b8 143f
00000250: b2e7 063f 40c3 1e3f f1ed 18bf 29aa 1b3f
00000260: fcf4 8d3e 6ab0 723d 2479 e3be c6c9 223f
00000270: 6bd4 413e 7d4d 63bf b5ef 213f a2ad 8ebf
00000280: d88c 973e d134 713f 274c fdbe 7998 2d3f
00000290: 2283 613f 4812 c4be 2285 fbbe 8682 39be
000002a0: 8478 cbbe eecc aabe 51a5 54bf bb66 97bc
000002b0: ba0f 103f 202e bcbe cf0c f73e 0abb cabe
000002c0: 850b c23e cabc b63d ef7b 993e 56bf 383f
000002d0: c136 073f ef3c 843f ff25 22bf 3eaf 163f
000002e0: 1832 f53e 8832 6e3e 499a bdbe 1a41 2d3f
000002f0: cfaa bf3e 83d6 17bf dbbd 543f 5043 51bf
00000300: c1dc 363f 19b6 6b3e 4a13 173e e0d6 4e3e
00000310: 1b65 ce3e b635 94be 8227 a1be 6d1d 68be
00000320: 618f f8be bab4 1d3e dea0 35bf 69da b3bd
00000330: 4bdd 0f3e b5d3 abbe 7862 0e3e 1a68 51bf
00000340: f089 203f 5609 6e3e 9e47 8a3e 9be3 773e
00000350: cf75 1a3f 2c54 b23e 33f1 b8be b567 d73e
00000360: 2767 36be b17e 543e ecf0 01bf 03e3 933e
00000370: ccc7 983e 9222 a8bf 6ace cf3e 429b a9bf
00000380: 720b c93e 8314 633f fc47 68be 32b7 ec3e
00000390: 5248 5e3f 8992 9dbe c6a7 f9be 0c87 23be
000003a0: eade a6be 12de 95bd 35df 37bf 3eb2 d2bd
000003b0: 3b23 e23e 50bd 24bf 658a df3e 3fa2 08bf
000003c0: a5a1 133e 4635 4dbd f5ab 363e 4ea9 1f3f
000003d0: 22bd 073f 7887 6b3f 9e31 0ebf c758 533f
000003e0: 0341 aa3d 0dcc f23e 41ee dcbe 0e9e 243f
000003f0: 6f06 853e 75e0 38bf 00b9 123f a112 4cbf

decoder.rnn.weight_hh_l0 f4 [256, 64]
-0.14268778 0.4128469 -0.06808228 0.0498921 -0.003798509 0.022799827 -0.12963532 -0.007075523
-0.07697839 -0.010670323 0.0005289531 0.10605964 0.0029469472 -0.066381335 0.10498053 0.1912626
0.14880751 0.22967082 -0.5756725 -0.16427758 0.061683226 -0.11162173 0.21494739 0.13410427
0.046208527 0.18603681 0.010434188 0.017323777 0.18443237 0.023116611 -0.17272297 0.13185
-0.09408841 0.10237676 -0.20739894 0.10256384 0.035956956 0.07881219 0.116500035 -0.17131539
0.12952156 -0.051623397 -0.03879191 -0.026349412 0.17129946 0.024494005 -0.1539178 -0.055778947
0.19165635 0.031287167 0.05941184 -0.1594614 0.10433618 0.019148763 -0.2682187 0.09219496
0.034695756 -0.06355899 0.11698749 0.14130396 -0.07449459 -0.013862538 -0.05980082 0.14315236
-0.12995185 -0.6198288 -0.36765158 0.25869623 0.15819319 -0.123987354 -0.23794335 0.1481495
-0.35121557 0.035337556 -0.5331233 0.22437489 0.08792757 -0.61469 0.58906114 0.32296807
0.341415 0.19191001 0.19695608 -0.19237004 0.3659696 0.061253626 0.13379604 0.5580966
0.3318921 0.45464972 0.44993415 0.49878785 0.379981 0.30059424 -0.58357453 0.10376011
-0.285211 -0.05737195 -0.50846356 0.2531376 0.03742831 0.15124898 0.24338226 -0.35489187
0.07614464 -0.7769789 0.016598355 0.34610066 0.28223482 0.22088464 -0.26985633 -0.15568973
0.275846 0.779958 0.2793133 -0.5059591 0.12513772 0.22354046 -0.30652025 0.2599916
-0.26313087 0.42072463 0.17930448 -0.57232636 -0.2832902 0.87094 0.2669794 0.16213103
0.013545334 -0.1836975 -0.04675425 0.027978279 0.21913296 -0.10563852 0.19989723 0.09166579
0.14658642 -0.0074123447 0.24606416 0.033623442 0.021970762 -0.0024536732 -0.08801015 0.078906864
0.10946443 0.24378766 -0.023942309 0.12517416 0.03559825 0.17725548 -0.19993497 -0.04563301
0.19192828 0.428443 -0.15476328 -0.15658832 0.18955089 0.009261856 -0.010385065 -0.1157658
-0.269916 0.012955143 0.08554172 0.20014906 0.07718033 0.11671388 0.17201988 -0.07300658
-0.17853141 0.16110218 -0.059177794 0.006783313 0.10129082 0.13636672 -0.09737402 -0.060484443
-0.18440068 -0.15159552 0.051826388 -0.1813452 0.020899264 0.07426211 -0.3325781 0.08592208
0.31461358 0.20129472 0.24304739 0.01836787 0.15743825 -0.0193889 0.1360357 0.15515034
-0.13796552 0.3360997 -0.070877634 0.008920738 0.0022826216 -0.0930477 -0.26562434 -0.045377355
-0.07931679 -0.15978712 0.14510812 0.09047344 0.25591472 -0.27230343 -0.06282576 0.10628734
0.033160098 0.13459532 -0.8114274 -0.2879786 0.18294476 0.16237234 -0.010823492 -0.21853739
0.14995867 0.12640178 0.10833005 -0.023953917 0.02989317 -0.38830063 -0.029886939 0.27273643
-0.092746116 -0.008892922 -0.25529113 0.009454472 0.12069214 0.10366021 0.09695964 -0.026287159
0.1473257 -0.14348793 -0.36746365 0.11026121 0.048043642 0.09685375 0.079557985 -0.008541273
0.02457931 0.12663934 0.12816414 -0.06323722 -0.27646124 0.055367194 -0.2317697 0.07267576
-0.26839608 -0.061948713 -0.06502433 -0.015346055 0.07286707 0.17079118 0.14165635 0.25722355
00000000: bf1c 12be ab60 d33e b96e 8bbd a95b 4c3d
00000010: 68f0 78bb b4c6 ba3c 1fbf 04be cad9 e7bb
00000020: d9a6 9dbd 94d2 2ebc 71a9 0a3a cc35 d93d
00000030: 9221 413b f0f2 87bd 0800 d73d 58da 433e
00000040: ff60 183e d42e 6b3e 465f 13bf 6238 28be
00000050: 8da7 7c3d ef99 e4bd 2b1b 5c3e a152 093e
00000060: 2745 3d3d 6f80 3e3e 28f4 2a3c 98ea 8d3c
00000070: d7db 3c3e 0c5f bd3c 4ade 30be b003 073e
00000080: 6db1 c0bd e8aa d13d 6360 54be fe0c d23d
00000090: 9a47 133d 4968 a13d 9297 ee3d 4d6d 2fbe
000000a0: 4da1 043e 0e73 53bd 44e4 1ebd b9da d7bc
000000b0: 2069 2f3e a7a7 c83c a19c 1dbe 7778 64bd
000000c0: 9041 443e f926 003d d459 733d d949 23be
000000d0: 35ae d53d dedd 9c3c f653 89be b6d0 bc3d
000000e0: 231d 0e3d 372b 82bd 2397 ef3d fcb1 103e
000000f0: 9f90 98bd b31f 63bc b4f1 74bd 8896 123e
00000100: 1912 05be 1aad 1ebf d43c bcbe d573 843e
00000110: 65fd 213e 15ed fdbd 6ca7 73be 81b4 173e
00000120: 87d2 b3be 1dbe 103d c57a 08bf 88c2 653e
00000130: 5f13 b43d 535c 1dbf b6cc 163f 125c a53e
00000140: f2cd ae3e 0f84 443e dbae 493e a7fc 44be
00000150: 5e60 bb3e 15e5 7a3d d401 093e 6bdf 0e3f
00000160: c3ed a93e d9c7 e83e c55d e63e 1f61 ff3e
00000170: df8c c23e 7de7 993e 2465 15bf 2e80 d43d
00000180: 2d07 92be dafe 6abd ab2a 02bf 409b 813e
00000190: 6d4e 193d 03e1 1a3e 3339 793e 63b4 b5be
000001a0: b9f1 9b3d 17e8 46bf 46f9 873c 1b34 b13e
000001b0: 1581 903e 952f 623e 9c2a 8abe 216d 1fbe
000001c0: b03b 8d3e 54ab 473f 2702 8f3e 8986 01bf
000001d0: 1a24 003e cae7 643e 39f0 9cbe 9e1d 853e
000001e0: 17b9 86be 3869 d73e 989b 373e fb83 12bf
000001f0: 6a0b 91be edf5 5e3f 86b1 883e ad05 263e
00000200: 40ed 5d3c 331b 3cbe 6281 3fbd b432 e53c
00000210: 6464 603e 0259 d8bd dcb1 4c3e 46bb bb3d
00000220: c01a 163e 41e3 f2bb 3ef8 7b3e bcb8 093d
00000230: 07fc b33c cecd 20bb aa3e b4bd ec99 a13d
00000240: e32e e03d 79a3 793e a922 c4bc a82d 003e
00000250: 78cf 113d 7682 353e c1bb 4cbe aee9 3abd
00000260: d988 443e e25c db3e 447a 1ebe b058 20be
00000270: a119 423e 0abf 173c 1f26 2abc 9f16 edbd
00000280: 6e32 8abe cf41 543c 7f30 af3d e0f3 4c3e
00000290: b910 9e3d b007 ef3d fb25 303e 7984 95bd
000002a0: f0d0 36be f8f7 243e 6a64 72bd 8e46 de3b
000002b0: 9071 cf3d b8a3 0b3e 086c c7bd 89be 77bd
000002c0: 88d3 3cbe db3b 1bbe e847 543d 8eb2 39be
000002d0: ef34 ab3c bc16 983d ad47 aabe eaf7 af3d
000002e0: 0815 a13e 3420 4e3e 6ae1 783e 3778 963c
000002f0: 7e37 213e 78d5 9ebc f14c 0b3e bbdf 1e3e
00000300: d546 0dbe 4315 ac3e 4b28 91bd 4928 123c
00000310: 0998 153b cb8f bebd eaff 87be 9bdd 39bd
00000320: d770 a2bd 3c9f 23be 3997 143e 244a b93d
00000330: 4107 833e 5b6b 8bbe cbaa 80bd 2dad d93d
00000340: e2d2 073d 5bd3 093e b5b9 4fbf ee71 93be
00000350: df55 3b3e ef44 263e 0455 31bc 44c8 5fbe
00000360: c48e 193e 786f 013e 25dc dd3d 013b c4bc
00000370: 85e2 f43c 57cf c6be 74d5 f4bc 1ca4 8b3e
00000380: adf1 bdbd 9eb3 11bc 85b5 82be eee6 1a3c
00000390: 712d f73d ce4b d43d c792 c63d 2b58 d7bc
000003a0: 8cdc 163e 80ee 12be 3224 bcbe a1d0 e13d
000003b0: 69c9 443d 425b c63d 4cef a23d b2f0 0bbc
000003c0: 8d5a c93c bead 013e 763d 033e 8482 81bd
000003d0: 548c 8dbe b6c8 623d 0955 6dbe 07d7 943d
000003e0: 366b 89be efbd 7dbd 7a2b 85bd 056e 7bbc
000003f0: 553b 953d e2e3 2e3e 5d0e 113e ceb2 833e

decoder.rnn.bias_ih_l0 f4 [256]
0.14979154 0.11072804 0.04831614 0.3408067 0.46798652 0.44686106 0.08831661 0.34017813
0.28799042 -0.02231671 0.078369245 0.07410969 0.12282375 0.022532385 0.0023568163 0.28512856
0.34941435 0.34287456 0.060819782 0.17801222 0.300056 0.13018416 0.030646661 0.20716205
0.3447565 0.3391934 0.33678862 0.2522862 0.29083526 0.13101003 0.1373476 0.24290471
0.46735537 0.22726108 0.39131135 0.17744318 0.3840997 0.39056784 0.21695083 0.5973792
0.10168833 0.08723104 0.33942056 0.36239263 0.30479562 0.34157887 0.45116323 0.2510231
0.12793392 0.04179387 0.16004921 0.3973854 0.10576399 0.48033023 0.3015142 0.30040509
0.012340499 0.2268296 0.59303844 0.4551876 -0.04588882 0.6743921 0.2772258 0.376029
-0.10278264 0.37555668 0.035411682 -0.02115019 -0.07566766 0.11614461 0.085851066 -0.056213886
0.08404684 0.005644791 0.0023637658 -0.14588502 -0.118307106 0.0729893 0.10901044 0.084927365
0.12015955 -0.0069817817 0.4920301 -0.002535335 0.083951116 -0.061014727 0.09923387 0.04390757
-0.11000347 0.047772333 -0.07343214 0.020832075 -0.07707393 0.33933216 -0.15057862 0.11393464
0.03135374 -0.074598394 -0.12069338 0.056900438 0.15845726 -0.006579334 0.01679569 0.18703899
0.2197153 -0.044056855 -0.096680105 -0.030494101 0.030619022 -0.060432523 -0.038959254 0.012243259
-0.08428399 0.13353986 0.007774853 0.1865133 -0.10737501 -0.11275106 -0.025373952 -0.13978107
0.101334855 0.22785938 0.17079027 0.024882391 0.15320899 0.034425132 -0.034135092 -0.09917206
-0.08931616 0.015849695 -0.027089145 -0.04064768 -0.12039822 0.23301299 -0.11353953 -0.33821177
-0.041543785 -0.09755026 -0.19259386 0.103324495 0.13767874 -0.1140349 0.119487874 -0.36993924
-0.22619326 -0.20442982 -0.17877738 -0.07621105 -0.24422492 -0.13371594 0.023727225 0.09170543
-0.2591737 -0.11907845 0.1557802 -0.07202919 -0.2819001 -0.011717577 -0.107651025 0.22948773
0.20147999 0.027397266 -0.3876972 -0.21545127 -0.28798896 -0.06710253 -0.20844668 0.38370767
0.11502739 -0.332953 -0.22143945 -0.30369213 -0.22563353 -0.09594347 0.16573343 0.14205882
0.05593339 0.21554333 -0.07817737 0.12296827 -0.042892102 -0.346173 0.04531877 -0.073784806
-0.15725973 -0.14811322 -0.15123135 -0.18371393 -0.047773343 0.3338607 -0.33398443 -0.03795278
-0.013942504 0.10838238 0.18019158 0.2739093 0.25386822 0.17576839 -0.044918757 0.19603604
0.1810152 0.17092423 0.19864789 0.09413661 0.27111 -0.028933598 0.07596997 0.43477613
0.21901529 0.18726377 0.36061817 0.060543664 0.3479058 0.045170352 0.33993733 0.12383595
0.2906183 0.30300957 0.17195813 0.025442967 0.295783 0.21407954 0.07742615 0.14253329
0.28056216 0.10573773 0.163819 0.2012486 0.10987588 0.11413028 0.18398389 0.3630853
0.24248365 0.08578993 0.18279923 0.2524757 0.25017726 0.19294818 0.20513412 0.3103532
0.29539007 0.12479219 0.13993537 0.5775944 0.22138816 0.1988022 0.26505992 0.13994299
0.13205102 0.07403645 0.3481001 0.12738514 -0.03133582 0.07362016 0.0407883 0.37792483
00000000: f462 193e 62c5 e23d 25e7 453d 377e ae3e
00000010: ee9b ef3e f9ca e43e 57df b43d d42b ae3e
00000020: 7b73 933e 88d1 b6bc 0e80 a03d d2c6 973d
00000030: 058b fb3d d695 b83c d174 1a3b 5ffc 913e
00000040: 70e6 b23e 418d af3e 2a1e 793d d648 363e
00000050: f1a0 993e ff4e 053e b50e fb3c 4a22 543e
00000060: ed83 b03e c2aa ad3e 8f6f ac3e a82b 813e
00000070: 5ce8 943e 7e27 063e d9a4 0c3e 03bc 783e
00000080: 3449 ef3e 21b7 683e f659 c83e aab3 353e
00000090: b7a8 c43e 82f8 c73e 5c28 5e3e d8ed 183f
000000a0: f941 d03d 30a6 b23d 88c8 ad3e 878b b93e
000000b0: 2c0e 9c3e 6de3 ae3e defe e63e 1a86 803e
000000c0: 1c01 033e 0d30 2b3d f1e3 233e 1976 cb3e
000000d0: ca9a d83d d8ed f53e 1260 9a3e b2ce 993e
000000e0: ce2f 4a3c 0546 683e 5ed1 173f 590e e93e
000000f0: eaf5 3bbd f6a4 2c3f 8af0 8d3e e086 c03e
00000100: b47f d2bd f748 c03e d70b 113d 2a43 adbc
00000110: a5f7 9abd 3add ed3d afd2 af3d 8840 66bd
00000120: c020 ac3d f0f7 b83b 69e9 1a3b e262 15be
00000130: ff4a f2bd 6a7b 953d de40 df3d 66ee ad3d
00000140: 3616 f63d 6ec7 e4bb 5feb fb3e dd27 26bb
00000150: 90ee ab3d 94ea 79bd 213b cb3d 6dd8 333d
00000160: 8049 e1bd ecac 433d 9763 96bd 07a8 aa3c
00000170: f0d8 9dbd f2bc ad3e 4831 1abe 9156 e93d
00000180: c76c 003d 0bc7 98bd 172e f7bd 6f10 693d
00000190: 9f42 223e 7497 d7bb 1d97 893c 2687 3f3e
000001a0: 0cfd 603e f674 34bd 3800 c6bd c4ce f9bc
000001b0: bed4 fa3c 1888 77bd bd93 1fbd f397 483c
000001c0: 169d acbd acbe 083e 32c4 fe3b 58fd 3e3e
000001d0: 6ee7 dbbd 07ea e6bd 09dd cfbc c522 0fbe
000001e0: a688 cf3d f853 693e a5e3 2e3e 28d6 cb3c
000001f0: d1e2 1c3e 5e01 0d3d 3dd1 0bbd b91a cbbd
00000200: 64eb b6bd 38d7 813c 0eea ddbc 2f7e 26bd
00000210: 5893 f6bd f59a 6e3e 6a87 e8bd 182a adbe
00000220: d129 2abd 6ec8 c7bd 5337 45be cb9b d33d
00000230: a8fb 0c3e 218b e9bd 0fb6 f43d ad68 bdbe
00000240: 359f 67be 0d56 51be 6b11 37be 8a14 9cbd
00000250: 1916 7abe d5ec 08be 995f c23c 0ed0 bb3d
00000260: 6ab2 84be 67df f3bd d884 1f3e 0a84 93bd
00000270: 3655 90be 15fb 3fbc 2478 dcbd d5fe 6a3e
00000280: c550 4e3e 3b70 e03c 3f80 c6be 429f 5cbe
00000290: 4a73 93be 0d6d 89bd 0c73 55be 5575 c43e
000002a0: 7b93 eb3d d178 aabe 06c1 62be 897d 9bbe
000002b0: 7a0c 67be 037e c4bd 06b6 293e de77 113e
000002c0: 691a 653d 64b7 5c3e 751b a0bd cad6 fb3d
000002d0: a1af 2fbd 963d b1be 2da0 393d 7d1c 97bd
000002e0: b208 21be feaa 17be 64dc 1abe 811f 3cbe
000002f0: fbad 43bd caef aa3e 0200 abbe 6074 1bbd
00000300: 1a6f 64bc 95f7 dd3d 2484 383e d73d 8c3e
00000310: 04fb 813e a1fc 333e bbfc 37bd acbd 483e
00000320: 0c5c 393e c306 2f3e 5a6a 4b3e b2ca c03d
00000330: eece 8a3e 2706 edbc 2596 9b3d fa9a de3e
00000340: 8b45 603e 13c2 3f3e f2a2 b83e a2fc 773d
00000350: b620 b23e 8c04 393d 440c ae3e b49d fd3d
00000360: eccb 943e 1224 9b3e cb15 303e c56d d03c
00000370: df70 973e ab37 5b3e 9a91 9e3d 3ff4 113e
00000380: d8a5 8f3e 068d d83d 2bc0 273e 1d14 4e3e
00000390: 9b06 e13d 23bd e93d 4666 3c3e 51e6 b93e
000003a0: a24d 783e a1b2 af3d b92f 3b3e 7f44 813e
000003b0: 3c17 803e 3594 453e ae0e 523e 9de6 9e3e
000003c0: 5e3d 973e 0c93 ff3d 384b 0f3e 3add 133f
000003d0: 94b3 623e ce92 4b3e efb5 873e 374d 0f3e
000003e0: 6238 073e 6ca0 973d 2d3a b23e 4071 023e
000003f0: fd59 00bd 2bc6 963d a211 273d 5d7f c13e

decoder.rnn.bias_hh_l0 f4 [256]
0.059113055 0.15159729 0.14272708 0.2097988 0.45837831 0.5112167 0.0935169 0.5267021
0.09823742 0.18130538 0.0794015 0.09723373 0.053811487 0.11037183 0.1781404 0.32280564
0.32893655 0.43466553 0.055654086 0.09182214 0.37355104 0.15027858 0.076538995 0.23116322
0.24755996 0.34934583 0.30392033 0.40596762 0.38720945 -0.02534058 0.01866569 0.28080663
0.28407443 0.22827475 0.51905346 0.27868518 0.49814302 0.4727683 0.22175106 0.5606018
-0.08677339 0.055587307 0.27721605 0.4405264 0.29595292 0.36102846 0.47205493 0.16602866
0.27302304 0.12307609 0.28472462 0.42836934 0.32239646 0.38940397 0.40373528 0.30591586
0.0466205 0.14655878 0.6211239 0.53228456 -0.034926917 0.6027744 0.1491904 0.4365134
-0.004850618 0.20570837 0.042566195 -0.084622316 0.050746 0.007502062 -0.057072103 0.051398512
-0.06354301 0.05189532 -0.033903524 -0.08705498 -0.124392085 0.14105898 0.0004058248 -0.08481009
0.1097674 0.08411109 0.5354204 -0.0015148103 -0.08420825 -0.12071107 0.035274785 -0.08982283
0.03282026 -0.010710022 0.019750297 0.051553927 0.077272706 0.31298068 -0.16051023 -0.004466301
-0.10001164 -0.038527004 0.029115586 0.018934611 0.035015274 0.030274417 -0.04969902 0.19010048
0.3899632 0.11017511 -0.035364557 -0.06370377 -0.15238646 0.06628455 -0.016523972 -0.106442906
-0.10377508 -0.032523848 -0.099026 0.01770581 0.0820883 0.020898955 0.067511745 -0.024990011
-0.052583046 0.26646638 0.06322826 -0.17338666 0.012460489 -0.18391626 0.048469372 -0.12756081
0.0043490604 0.1787076 -0.12192435 -0.20777886 -0.34128296 0.34190026 -0.06813957 -0.32122383
-0.188246 -0.06730043 -0.114947915 0.08081537 0.070047066 -0.07809128 0.06545131 -0.2554535
-0.17684951 -0.29607406 -0.07854343 -0.14378153 -0.048317052 -0.17948686 0.16189973 0.18291819
-0.26006088 -0.097595364 0.04794672 0.076321304 -0.09350467 -0.18520844 -0.029273272 0.19012347
0.2537279 0.081692964 -0.4359545 -0.061675925 -0.33019397 -0.19136338 -0.13888352 0.40581006
0.14918791 -0.28746107 -0.007925205 -0.3012837 -0.20513028 -0.21533245 0.3517058 0.1896206
0.18074675 0.31101424 -0.17645589 0.06947797 -0.09969727 -0.35125417 0.122040674 -0.041322432
-0.2486624 -0.0015526584 -0.35343763 -0.18053329 -0.045242164 0.43336108 -0.27636164 -0.10529928
0.05245776 0.18516815 0.15107158 0.16733174 0.20506391 0.10555196 0.10967976 0.08360374
0.11547816 -0.03312016 0.09433078 -0.066222034 0.2176638 0.060778666 -0.01982145 0.28103682
0.3228079 0.33125392 0.35170588 -0.0002974249 0.23748408 0.053754847 0.20384362 0.13026638
0.29704222 0.34725988 0.15583728 0.07759989 0.42868817 0.17838298 0.012582124 0.2231919
0.44180402 0.048089392 0.060704757 0.257437 0.24503809 0.20054038 0.29616886 0.19703928
0.13567063 0.0546979 0.25848207 0.39710042 0.3738452 -0.01812768 0.23914807 0.16975905
0.16419256 -0.021126267 0.18115012 0.5708831 0.1309625 0.32806993 0.2765098 0.22393368
0.02435118 0.08743656 0.27112544 0.17918888 -0.0037714895 0.103034586 0.03404656 0.57828164
00000000: 8820 723d 523c 1b3e 0c27 123e 7fd5 563e
00000010: 90b0 ea3e 19df 023f ca85 bf3d f3d5 063f
00000020: b330 c93d 1ea8 393e 419d a23d 7a22 c73d
00000030: 6f69 5c3d a00a e23d 706a 363e c846 a53e
00000040: 5f6a a83e 7b8c de3e 8af5 633d 3f0d bc3d
00000050: 1542 bf3e a1e2 193e 7ac0 9c3d 0db6 6c3e
00000060: 5c80 7d3e 75dd b23e 729b 9b3e fdda cf3e
00000070: 5140 c63e 0c97 cfbc cae8 983c e3c5 8f3e
00000080: 3472 913e dbc0 693e b0e0 043f d3af 8e3e
00000090: 9a0c ff3e b00e f23e b612 633e 9983 0f3f
000000a0: 3fb6 b1bd 84af 633d 43ef 8d3e ad8c e13e
000000b0: 2487 973e b9d8 b83e 2fb1 f13e 6b03 2a3e
000000c0: adc9 8b3e 510f fc3d 6dc7 913e 3a53 db3e
000000d0: 2611 a53e f55f c73e 64b6 ce3e 01a1 9c3e
000000e0: 23f5 3e3d 8113 163e fa01 1f3f cd43 083f
000000f0: 870f 0fbd 6c4f 1a3f 5ec5 183e af7e df3e
00000100: eff1 9ebb 37a5 523e e459 2e3d 774e adbd
00000110: 0adb 4f3d dbd3 f53b 70c4 69bd 3f87 523d
00000120: d622 82bd 3090 543d 6cde 0abd e249 b2bd
00000130: 47c1 febd c471 103e e2c4 d439 eab0 adbd
00000140: bbcd e03d 6f42 ac3d 5011 093f 998c c6ba
00000150: 6075 acbd 5e37 f7bd 4b7c 103d 08f5 b7bd
00000160: 896e 063d 1779 2fbc 60cb a13c 362a 533d
00000170: 2741 9e3d 013f a03e cb5c 24be 0c5a 92bb
00000180: e7d2 ccbd 7ece 1dbd cf83 ee3c c21c 9b3c
00000190: 2d6c 0f3d 0e02 f83c 3391 4bbd b3a9 423e
000001a0: 42a9 c73e 7da3 e13d 6dda 10bd 1f77 82bd
000001b0: 320b 1cbe 32c0 873d 485d 87bc bdfe d9bd
000001c0: 0788 d4bd ba37 05bd 25ce cabd c60b 913c
000001d0: e91d a83d 4934 ab3c 9943 8a3d dab7 ccbc
000001e0: 5261 57bd 486e 883e d17d 813d 468c 31be
000001f0: 1427 4c3c 8b54 3cbe d287 463d 4d9f 02be
00000200: 9082 8e3b 20ff 363e 79b3 f9bd fbc3 54be
00000210: a4bc aebe 8d0d af3e c28c 8bbd 7377 a4be
00000220: 8fc3 40be cfd4 89bd d069 ebbd 8782 a53d
00000230: d674 8f3d 52ee 9fbd 560b 863d cdca 82be
00000240: 0a18 35be 0597 97be 61db a0bd 773b 13be
00000250: 1ae8 45bd 67cb 37be 0bc9 253e e84e 3b3e
00000260: b326 85be 14e0 c7bd c863 443d 584e 9c3d
00000270: 607f bfbd 48a7 3dbe 80ce efbc baaf 423e
00000280: a0e8 813e a44e a73d 6e35 dfbe e59f 7cbd
00000290: 2f0f a9be c3f4 43be 7b37 0ebe 56c6 cf3e
000002a0: b7c4 183e 192e 93be b8d8 01bc db41 9abe
000002b0: ac0d 52be 1c80 5cbe c812 b43e e72b 423e
000002c0: ad15 393e 423d 9f3e dab0 34be 774a 8e3d
000002d0: 152e ccbd 96d7 b3be 76f0 f93d b641 29bd
000002e0: 5ba1 7ebe 9282 cbba c7f5 b4be b8dd 38be
000002f0: d94f 39bd 81e1 dd3e 467f 8dbe 26a7 d7bd
00000300: f3dd 563d b89c 3d3e 82b2 1a3e 0359 2b3e
00000310: 46fc 513e a02b d83d c89f e03d 7038 ab3d
00000320: d07f ec3d 01a9 07bd 7f30 c13d 6b9f 87bd
00000330: 42e3 5e3e 0df3 783d 9860 a2bc 0fe4 8f3e
00000340: 1447 a53e 1d9a a93e cb12 b43e b2ef 9bb9
00000350: 072f 733e 0b2e 5c3d 62bc 503e 8d64 053e
00000360: eb15 983e 0ccc b13e cf93 1f3e b1ec 9e3d
00000370: 047d db3e 07aa 363e 4125 4e3c 6b8c 643e
00000380: 2334 e23e 62f9 443d 8da5 783d c8ce 833e
00000390: 44eb 7a3e 755a 4d3e 72a3 973e aac4 493e
000003a0: 3eed 0a3e e80a 603d c357 843e bf50 cb3e
000003b0: a368 bf3e 8080 94bc 3be3 743e 51d5 2d3e
000003c0: 1822 283e fe10 adbc 6b7f 393e 6525 123f
000003d0: 091b 063e c8f8 a73e b192 8d3e df4e 653e
000003e0: 207c c73c f011 b33d f4d0 8a3e 4a7d 373e
000003f0: 182b 77bb cc03 d33d 6874 0b3d 440a 143f
